Trained_Weights/STRIDE 2/0th.pth (torch, 344868 bytes, 14 tensors)

conv1.weight f4 [32, 3, 3, 3]
00000000: 4c69 d83d ed46 1ebd ff66 3bbc 6105 3a3e
00000010: 8392 35be 9f0a f23d 4bb3 1cbe 773d 373d
00000020: eac7 0abe fdb4 a03d 4d7c 943d 7632 1ebe
00000030: a8d8 c6bc 0dcc 133e 3d29 043b 4312 083e
00000040: b892 213c f328 9c3d 2bf3 203e 967e 403d
00000050: 9fbb 313e b2ce 1e3e e341 de3c d61e 1c3e
00000060: de6f 96bd e7a4 183e 62bb 1f3e aae1 5abe
00000070: dbd8 2d3d 4db3 0abe 8f8c ff3d 0c18 bd3c
00000080: efa1 193e dd59 45be eba5 acbd 6bd9 39be
00000090: 55d8 16bd 8274 bfbd fc58 3f3d 93bb b8bd
000000a0: f7ac b83c 11c8 163e a8a7 b83d 8a7e bd3d
000000b0: 36e3 44be 9a1c 043e b981 cdbd 2677 22be
000000c0: 3694 8cbd 515f 24be c1ab 363e ca5c 01be
000000d0: 9e7e bd3b 6c54 c03d f58f 1f3e aa16 133c
000000e0: c05c 52be f593 48be a75d 8b3d cc63 f23d
000000f0: 3da2 e43c ee39 25be 34d1 cbbd ebde 02be
00000100: c327 b23d 0f94 8fbd c39e d8bc bd5a 9abd
00000110: 1966 323e 0ee6 913c 798a 393d 023d 09be
00000120: 3d3e a03d 6702 ac3c 63c2 29be 0ca2 25be
00000130: 6897 2bbe b702 3bbc dde1 9dbc 9869 05be
00000140: 416b efbb 6fa2 f43d 3ca6 2cbe af93 313e
00000150: 64fb ff3d 3cfd b03d deaa 23bd a358 8b3d
00000160: ad50 51bd 3622 0a3e a121 be3c d8a5 68bd
00000170: 7759 4e3e ad9f 023e 76a3 673c 8b05 233e
00000180: 2f13 043e dcfa 643a 1474 163e a39f 40be
00000190: 5fb4 17bd b4d7 023e 522c f83d 02c3 0a3e
000001a0: 9387 213e 353f 163e d6f0 2fbc bd49 9d3d
000001b0: 1efd 4c3e 3193 d73c 6b7b 233e 0aea 30be
000001c0: 8bc9 ce3d 978f 9f3d 6503 d43c 0d78 b43d
000001d0: 5cbd c6bd 6bea 3f3e 0758 b5bd a9b3 c63b
000001e0: 6223 9ebc 81c8 213e 8ec8 973d f487 96bc
000001f0: 29d5 593c 0de4 a1bd b756 1a3e 818a 9ebd
00000200: 32bc 95bd a803 1c3e eab5 943c 2328 cdbd
00000210: 9a2f 843d a8be 17be 0df2 313d 570a 04be
00000220: 2041 333e fb32 5d3d b5b4 d73d d045 a7bc
00000230: 7b70 283d 47b1 323e 8b30 67bd 4f3d 0b3e
00000240: e218 2f3c e9b6 44bb 6ed9 03be 640b 73bd
00000250: 7b64 853d d5b0 e83d 0ce4 083d 7757 b53d
00000260: 46d0 fa3d d7ec 3a3e 7114 3fbe 3d43 ab3b
00000270: 04cf febd e1e7 cbbd c618 0dbc 74c9 f7bc
00000280: 6f24 64bd 509c 0ebc ded2 51be 27d0 393d
00000290: d8ee 44bd a58d 493d 7801 5cbd 7d3a b43d
000002a0: 7cc0 ad3b 4fa9 22bb e81f 253d 38cd e3bc
000002b0: 28e0 9ebd 3299 9cbd 4e00 22be dbc3 123e
000002c0: 0213 b7bd 0f13 babd 2610 8b3d af6b b3bd
000002d0: 71a8 06be 77cc 3e3e 050b ea3d 6d36 ed3d
000002e0: e3fa a33d b350 343e d6c0 39be b7ab a6bc
000002f0: b8a5 8a3d 6797 123e 1e3b 383e bbf6 213d
00000300: a62c 6abc c006 96bd 97be c83d 2cfd 453d
00000310: 56d3 3d3e fe9f ceb9 a59d 0fbe f7be 893c
00000320: c25e 3ebd 573c 523e 076f 4c3e 0090 edbd
00000330: 6a58 d3bd 4512 8fbd 6f6d 92bd 3146 763d
00000340: 4345 be3d 54c3 983d 5b9a a53d 426d 353b
00000350: 4419 1a3d a64d b3bc 2942 95bd 3a8c d7bd
00000360: b877 e7bd e17f fa3d efc5 453e ba79 143e
00000370: 5429 c63d 32be 21be e78a 413e c018 15be
00000380: 7d9a cfbc 2dd0 923c 52a0 87bc a51f 9c3d
00000390: 7494 2e3e 0411 e8bd a306 bc3d f3ae 993d
000003a0: 6564 96bd 93d8 b03d 4ad1 c5bd 66e4 2cbe
000003b0: fa20 01bd 7ea9 a0bb 6a8d f5bb c024 10be
000003c0: 9ab4 a53d 7edc 393e d7ae 1e3e 8800 5abe
000003d0: 7e1f 48be 9002 8a3c 1721 2fbe f995 683b
000003e0: 77d4 0dbe bdf1 e3bd 3d71 9d3d 0edb 26be
000003f0: fcb7 c13c f7ac 203e bdce f33d bc18 a2bc
0.10566959 -0.03864186 -0.01143813 0.18166114 -0.17731671 0.11818432 -0.1530277 0.04473635
-0.13552824 0.07847021 0.07250271 -0.15448937 -0.024273232 0.14433308 0.0020166181 0.13288216
0.009861641 0.07624998 0.15717761 0.04699572 0.17356728 0.15508536 0.027131027 0.15246138
-0.07345556 0.14906655 0.15598825 -0.21375147 0.042443138 -0.1354496 0.12477981 0.023082756
0.15003179 -0.19272561 -0.08430084 -0.18149345 -0.036827404 -0.09348394 0.04671572 -0.09020152
0.022543414 0.14724757 0.09016353 0.09252651 -0.19227299 0.12901536 -0.10034508 -0.15865764
-0.068642065 -0.16051985 0.17838956 -0.12633052 0.005782916 0.09391102 0.15582259 0.0089775715
-0.20543194 -0.19587691 0.06804972 0.11835441 0.027909392 -0.1613538 -0.09952012 -0.12780349
0.0869899 -0.07010662 -0.026442891 -0.07536838 0.1742176 0.017809894 0.045298073 -0.13402179
0.07824371 0.02099724 -0.16578059 -0.16175097 -0.16756976 -0.0114142215 -0.019272739 -0.13028562
-0.007306487 0.11945044 -0.16860288 0.17341493 0.12499121 0.086420506 -0.039957874 0.068040155
-0.05110233 0.13489613 0.023209395 -0.056798786 0.20151316 0.12756224 0.014138093 0.15920083
0.12897943 0.0008734891 0.14692718 -0.18810897 -0.03703725 0.12777597 0.121178284 0.13550952
0.15774374 0.14672549 -0.010738572 0.0768008 0.20018432 0.026315304 0.15965049 -0.17276779
0.10097035 0.077910595 0.025880525 0.0881196 -0.09704086 0.18741767 -0.088546805 0.0060638976
-0.019303981 0.15799142 0.074113 -0.018375374 0.01329545 -0.07904825 0.15072142 -0.07741261
-0.07311286 0.1523577 0.01815315 -0.10017421 0.06454392 -0.14818823 0.04344373 -0.1289457
0.17505312 0.054003697 0.10532514 -0.020419031 0.041122895 0.17450438 -0.05644278 0.13597606
0.010687085 -0.003001625 -0.12875912 -0.059337035 0.06513306 0.11361853 0.033420607 0.08854573
0.12246756 0.1825441 -0.18660142 0.0052265213 -0.12441829 -0.09956337 -0.0086118635 -0.030247428
-0.05569881 -0.00870426 -0.20490596 0.045364525 -0.04807934 0.04920735 -0.05371234 0.08800218
0.005302487 -0.0024820154 0.04031363 -0.027807817 -0.07757598 -0.07646407 -0.15820429 0.14332525
-0.08939172 -0.090856664 0.067901894 -0.087607734 -0.13150193 0.18632685 0.11427883 0.115826465
0.08006837 0.1760891 -0.18139967 -0.020345552 0.067698896 0.14315568 0.17991301 0.03954194
-0.014292872 -0.07325506 0.09801977 0.048337147 0.1853765 -0.00039410585 -0.1402498 0.016814692
-0.046477087 0.2053083 0.19964229 -0.115997314 -0.10319598 -0.069859065 -0.07149779 0.060125533
0.092905544 0.07459131 0.080860816 0.002768353 0.03762175 -0.021887612 -0.0728801 -0.10524793
-0.113021314 0.12231422 0.19313787 0.1449956 0.096758515 -0.1579521 0.18900643 -0.14560223
-0.02534222 0.017921532 -0.016555939 0.07623223 0.17048818 -0.113313705 0.09180953 0.07504072
-0.073433675 0.08635058 -0.09659059 -0.16884002 -0.03152559 -0.0049030175 -0.0074936645 -0.14076519
0.08091088 0.18150517 0.15496384 -0.21289265 -0.19543263 0.016846925 -0.17102467 0.0035489781
-0.1385058 -0.11130092 0.07687614 -0.162945 0.0236473 0.15690981 0.119046666 -0.019787185

conv1.bias f4 [32]
00000000: ecc8 953c b71a fcbc 4e1a 69bd 989f 083e
00000010: 04ba 10bc 0450 7ebd 035e a1bd e185 253e
00000020: e2af fd3d f126 4d3d a118 163c 29ac 2ebe
00000030: 5ba9 1dbd b090 1d3e fc14 38be c643 003e
00000040: 2966 8c3d 786a 22be 8ce3 c63c 439a 2fbe
00000050: c001 aebc d82d fdbd dcf5 183d 3978 193e
00000060: 4c8f 89bd 3937 613d fc60 a2bd cd09 acbd
00000070: f13c 703d 275f 0dbd 2be7 b2bd de8f 863d
0.018284284 -0.030774457 -0.05690985 0.1334213 -0.008833412 -0.062088028 -0.078792594 0.16164352
0.123870626 0.050085966 0.009161145 -0.17057861 -0.038491588 0.15387225 -0.17976755 0.12525854
0.06855423 -0.15860927 0.024278425 -0.1714869 -0.021241069 -0.123622596 0.037343845 0.14987268
-0.06716785 0.054984305 -0.079286546 -0.08400307 0.05865187 -0.034514572 -0.08735498 0.06570409

conv2.weight f4 [32, 32, 3, 3]
00000000: 1467 3e3d 24e7 023d 4bb6 6abc 241f c33c
00000010: 6be8 0ebd 57d0 1a3c 296e 50bd 0035 e1bb
00000020: 157e 18bd eefd 8ebd 6158 953b b711 29bd
00000030: 243e 873c 1743 8bbd edd0 32bd adcd 4ebc
00000040: e414 ae3c 6a5d 79bc 4769 e6bc 0b02 c13c
00000050: 2142 9f3c 4077 53bd 6607 c6bc 0273 04bd
00000060: bdfb e8ba e9fc 66bd ea27 e1bc 46b4 16bc
00000070: 15a8 623d 5858 c53c daac 803c 2370 3a3c
00000080: b94b 91bc 45df b03b 5766 26bd 5a79 223d
00000090: 7adb ab3d 7dea 253d 0d3b 663c a677 263c
000000a0: d77b d53c 5f21 c53c 403e a5bc ba72 233d
000000b0: e535 b33c ed62 a8bb ba5a 19bd b0e7 2dbd
000000c0: fd7c f5bc d666 82bc 68ec 8bba ca6c f93c
000000d0: ab00 243c ecd5 d3ba 3a1a 8f3c eb74 0ebd
000000e0: e6c1 ac3c 2621 f3bb ff7f 3d3d d275 593d
000000f0: 4168 1dbd 66d2 123d 9398 bbbc 6a5a 1d3c
00000100: e3dd 44bd 0159 573d 0d6f 03bd b68b 22bc
00000110: eda0 d3bc 7c8c 6a3d 932d 46bd 2919 8f3c
00000120: e2dc 143c 5518 31bd b282 7eba fff6 633d
00000130: b99d 033d 8ff5 ca3c ca88 1cbd a9e2 393d
00000140: 5a55 4c3d 55ad 85bd 72c7 563c 4919 473c
00000150: 07d3 1b3c b010 afbd b04a 34bd fd2c 95bd
00000160: 37ff 5bbd 0f8d d1bc c850 a63b 26e7 fcbc
00000170: df66 2c3d dab2 ad3a d84d a33d 0516 c93c
00000180: ba5a 813d b946 7e3d b100 403d 0ee1 8b3c
00000190: 3dad 0cbd 2876 623d b79b 98bc 0ad1 57bb
000001a0: a40a 9238 2d47 d93c f314 333d 7e0b 5b3d
000001b0: 4d95 00bd 98bb 4b3d 29fa 45bc ec13 783d
000001c0: ed84 c7bb b74e 0abd 64a6 9e3a 9f72 c73c
000001d0: 2352 2d3d 7bb5 73bc a9a3 073d 52ae 9c3b
000001e0: ce37 2fbd ec93 443d 1a0d 0f3c c78d 59bd
000001f0: 2d4a 43bd 471d 16bc f648 393c 6354 e9bc
00000200: da89 b9bc 2ac7 a53c f783 2abd 471d 1d3d
00000210: cbdf 983c 6b3d 503d 755c dbbc 036c 683d
00000220: 3e91 553d e31a ecbc 9575 e8bc 33a0 853c
00000230: 7be0 26bc f903 36bc ce2e 5e3d 09d6 0b3c
00000240: e07c f7bc e0ba 0abd fb3f f83c 4bec 0fbd
00000250: 5930 043c 8a2c a63b 72cb 3bbd 0367 393d
00000260: 627b 673d 44f5 cc3c fb8c 9f3b 73e3 3e3d
00000270: 1fbe 613c 0c06 b7bc 7826 093d 114b 67bd
00000280: 3af4 12bd 28c5 f43c 7bdc 963b e2b3 bebb
00000290: a7a0 43bd 07ed f9bc fee9 91bb f42a cabc
000002a0: ea1e 443d 7225 003c a8b0 d9bc 6b20 2a3c
000002b0: 8d9f 423d 7b3f f43c 6163 c13c ea17 243d
000002c0: 3bb2 563d fc30 4f3d 2e63 0a3d 3ca8 193d
000002d0: f5ec dabb 99d0 3cbc 2238 273c 6dad c7bc
000002e0: de19 26bd 12e3 8fbc 5626 1dbd 290a 54bd
000002f0: 20cc 293c 36c2 75bd 6f21 46bd 8eae 893c
00000300: 2f9a b2bc 5f9a 083c 50ee 2ebd 0ae6 553c
00000310: e375 813c a55a ee3c d797 cbba 401e 2abd
00000320: 134a 333c 7ce0 c0bb 6861 8abc 9b6b 23bd
00000330: 6664 583c d65e 51bd 4aa8 b03c d6b5 f3ba
00000340: 487b 7f3b 2318 cc3c 638e b3bc 7603 53bd
00000350: aeb7 1d3d 5f57 313d 68d6 bc3c bb4e 65bd
00000360: 9def 19bd ce4d 2e3d 6b29 5a3c 2ba6 f83b
00000370: 67fa 053d d87f 7dbd 0870 eebc 48f9 56bd
00000380: 1029 d3bc 50ee 6f3d 0666 f3bb 35d1 3d3c
00000390: c531 813d 2645 9c3d 57b9 98bc a63b a83d
000003a0: cdd5 3a3d d199 743c 6602 6c3b a7a3 45bd
000003b0: 5647 51bd 33e3 653d 78f8 5d3d 1c06 063d
000003c0: 2393 f83c 86b6 483d fbfd 253c 189d e1bc
000003d0: 281b 503b 0b7b 563d e4c8 383d 7b37 cd3c
000003e0: 7e46 673b eab9 abbc b20c abbc e21d a73c
000003f0: 68d7 c8bc 44d8 e7bc 8449 5e3c 9db0 3e3d
0.04648502 0.031958714 -0.014325689 0.02381856 -0.03488962 0.009449086 -0.050886307 -0.006872773
-0.037229616 -0.06982027 0.0045576547 -0.04127666 0.016509123 -0.06799906 -0.04365628 -0.012622279
0.021250196 -0.015220026 -0.028126372 0.023560544 0.019440712 -0.051627398 -0.02417345 -0.032336242
-0.0017775219 -0.056393538 -0.027484853 -0.009198254 0.055336077 0.024089977 0.015707422 0.011379275
-0.017736303 0.0053977096 -0.040624943 0.03966651 0.08391471 0.04050683 0.014052165 0.010160362
0.026060028 0.024063764 -0.020171285 0.039904334 0.021876285 -0.005138746 -0.03744004 -0.042457283
-0.029966826 -0.015918177 -0.0010675313 0.030447382 0.010009925 -0.0016161776 0.01746856 -0.03477947
0.021088552 -0.007419723 0.046264645 0.053090878 -0.038429502 0.035845183 -0.022899901 0.009604076
-0.04806317 0.052575115 -0.03208833 -0.009921005 -0.025833571 0.057262883 -0.048383307 0.017468052
0.009085866 -0.043236095 -0.0009708806 0.055655476 0.032132838 0.024775295 -0.03821639 0.045382176
0.049886085 -0.06527201 0.013109075 0.012152025 0.009510762 -0.08548105 -0.04401654 -0.072839715
-0.05371019 -0.025579957 0.005075548 -0.030871939 0.042090293 0.0013252154 0.07973832 0.024546633
0.06316133 0.062079165 0.04687566 0.017075088 -0.0343449 0.055288464 -0.018628938 -0.0032930993
6.9638045e-05 0.026523197 0.04372115 0.053477757 -0.031392384 0.04973945 -0.012083569 0.060565874
-0.006088844 -0.033766475 0.0012104032 0.024346648 0.04231466 -0.014874811 0.033115063 0.004781523
-0.04277783 0.04799263 0.008731151 -0.053113725 -0.04767816 -0.009162254 0.011308899 -0.028482622
-0.02264874 0.02023657 -0.041629758 0.038358 0.0186614 0.050839823 -0.026777485 0.056743633
0.052140467 -0.028821414 -0.02837638 0.01631174 -0.010185356 -0.011109346 0.054243855 0.008534917
-0.030210912 -0.033869624 0.030303946 -0.035137456 0.008068168 0.0050712274 -0.045848317 0.045264255
0.05651415 0.025019296 0.004869101 0.04660363 0.013778239 -0.02234175 0.033483952 -0.056468073
-0.035877444 0.029879168 0.00460392 -0.0058197835 -0.047760632 -0.030508531 -0.004452943 -0.024678685
0.047881044 0.007821428 -0.026573494 0.010383706 0.04751544 0.029815426 0.023606958 0.04006187
0.052416068 0.050583825 0.03378599 0.037513956 -0.0066810795 -0.011524343 0.010206254 -0.024374688
-0.040552013 -0.01756433 -0.038366638 -0.051767502 0.010363609 -0.059999667 -0.04837173 0.016806867
-0.021802036 0.008337586 -0.04270774 0.013055334 0.015803283 0.029095957 -0.0015532923 -0.041532755
0.010942954 -0.0058861356 -0.01689215 -0.039897542 0.013207531 -0.051115833 0.021564621 -0.001859362
0.0038983393 0.024913853 -0.021918481 -0.051516972 0.03850525 0.043296214 0.023051456 -0.055983286
-0.03758203 0.04255467 0.013315539 0.007588168 0.032709505 -0.0618895 -0.029106155 -0.052483827
-0.025776416 0.058576882 -0.0074279336 0.011585523 0.06308321 0.076303765 -0.018643064 0.08214502
0.045614053 0.014929251 0.0036012172 -0.048251774 -0.051093422 0.056124877 0.054192036 0.03272067
0.030343598 0.049002193 0.010131354 -0.027540728 0.0031754468 0.052363437 0.04511346 0.02505087
0.003528982 -0.020962674 -0.020880077 0.020399991 -0.024516776 -0.028301366 0.013567332 0.04655515

conv2.bias f4 [32]
00000000: 2bf1 28bd 0583 743c f20f 5e3d 4036 a9bc
00000010: f482 443d e78d ecbb e583 1ebd acaa 293d
00000020: 911e 503d f48c 543d 71f2 00bc 2b57 853b
00000030: 3900 95bc d8f2 22bd 060b 303c 9e49 f53c
00000040: e96c 4d3d 1702 29bb edae 79bd 627b a7bc
00000050: 0acd 7d3d 5301 33bd c7a6 b7bc 8ee3 49bd
00000060: d9fe 3dbd 0e2c 123d 88ca e3bc f50b ec3c
00000070: 02b3 56bd 63a6 ecbb d263 27bd 215b 84bc
-0.04124562 0.014923816 0.054214425 -0.020655751 0.04797645 -0.0072190645 -0.038700003 0.04142253
0.0508104 0.051892236 -0.007870303 0.004069229 -0.018188583 -0.039782375 0.010744816 0.02994233
0.050152693 -0.00257886 -0.060957838 -0.020444576 0.06196312 -0.043702435 -0.022418393 -0.04928928
-0.04638562 0.035686545 -0.027806535 0.028814295 -0.05241681 -0.0072219833 -0.04086668 -0.016156735

conv3.weight f4 [32, 32, 3, 3]
00000000: c1f4 a9bc 67e0 e83c e9c0 08bd 7844 e1bc
00000010: ea25 5b3d 4bc5 c13c 6a9e 01bc 853d 003d
00000020: 806b 943d cf59 3e3d 8b07 2a3d 2683 613d
00000030: 2117 22bd d8c3 70bb 534e fa3c 79c6 16bd
00000040: f927 b53c 0c7e d5bc b503 113d f1c4 a3bc
00000050: 2915 3e3d 1552 5a3d e1dc fbbc 2f40 fb3c
00000060: 6aa9 1b3d 6b37 f43b 05ac 3b3d fa14 adbb
00000070: 16a3 adb9 f78c f8bc 857e 16bc 1ead d6bc
00000080: 71eb 4e3d 0bee c9bb 5045 683d 7e61 423d
00000090: 41d2 8dbd b4c5 cd3c 66e8 1ebd 1d53 3abd
000000a0: bfb2 b93c 0be1 85bd 6876 f53c 815f c33c
000000b0: ccbc 05bb a96e 1dbb c1cd 5fbd 6048 6bbd
000000c0: df50 07bc 0707 11bd f15a 9bbc 78c9 76bc
000000d0: 27f0 ea3c 1972 36bd 67f6 193c 2bfa c2bc
000000e0: 5216 e4bc 0af0 65bc 31fc b53b 576e eebc
000000f0: 2e6d 783c 50bf 543d 4e7a 973c 5eb5 ed3c
00000100: e71c 46bd fcda 73bd a6ad 84bd 0df0 ad3b
00000110: 7a96 07bd 88fc c23c 8b4f 7f3c 2efc abbc
00000120: c656 69bb 6bf7 9f3c 2f83 103d 0e7c c33c
00000130: a22a cb3c 7966 47bd 9e64 0c3c ba62 27bd
00000140: bcea 7338 d0c0 993d ea94 a6bb 3d82 353c
00000150: db4a b73c 5b1a 86bc e8c7 aab9 c7e9 a43d
00000160: a9c7 09bd 86b0 953c c771 8dbd 7fb2 dabc
00000170: 0917 80bd bd07 6a3b 4870 383c db8c e5bc
00000180: 59ab 89bd 01ea 7fbd 6688 82bd 2afd 60bc
00000190: 757a 6cbc a23a 4b3d 105f 833d f59f 02bd
000001a0: 964b a2bc 4cc4 643d 8476 10bd b6fe 6a3c
000001b0: 6300 24bd 58e3 183d e0e9 1abc a617 febc
000001c0: 33f6 663d d2fc 293c dc9c be3c 0823 08bd
000001d0: bf07 3abd ed95 10bd 2b05 21bd 032b 753d
000001e0: edb8 16bd 5a9b 2b3c 55f5 4cbd 6910 d53c
000001f0: 74d8 12bd 9704 08bd 6080 613c dd37 1dbd
00000200: 9537 27bc ee85 0a3d f967 573d d18e 13bd
00000210: b0db 38bd 4e50 343a eefd 073d 3320 65bd
00000220: 6ae0 0abb 2350 1d3d 58fd 39bc e9d1 bf3c
00000230: cfa9 1d3d 0b48 97bd a9a4 61bd 267b d3bc
00000240: d430 b03c ca41 5cbd 7251 f53c 16b5 623d
00000250: 581b 6cbd c6f8 e33c 0935 08bd 2910 1fbd
00000260: 0942 16bc 7641 843c 0172 093d d5a5 e73c
00000270: 6147 acbc 4367 793d ae36 07bd 609e fa3c
00000280: b81f 05bd 473f 013d 586b bc3c 7426 6b3d
00000290: a3ea b03d 0566 453d b9ba ae3d 7ce0 213d
000002a0: 714f 493d 2b58 323d 0980 003d e5c8 913c
000002b0: f6f6 743c ba1a 26bd bd51 493d dd9a 043d
000002c0: 9302 5cbd b549 60bd dec0 10bc df09 07bd
000002d0: c4f3 eebc eb31 efbc afaf 853c c5e8 d73c
000002e0: 3f55 9cbd 8b94 64bd f6fc d83c c4dd a0bd
000002f0: 9a2f 93bd 91b6 2d3d 15c6 873c e1f4 073d
00000300: 224a 14bc 019f 32bd a82c 4ebd 1a21 dcbc
00000310: c69f 273c 65eb 493d 94ca 3a3d 81fc 663d
00000320: e209 a83c 14f6 70bd 152d 883b 7491 60bd
00000330: 6206 f43c 6628 c23c 1d44 13bc 5ebc f03c
00000340: 6c91 8fbb 8e7a 16bd cd84 a1bc 7e09 383c
00000350: eda6 dd3c 09e5 5cbc 5813 ba3c 367c 0b3d
00000360: bba8 7b3d e9b7 f83c 7cef 163d 5390 443d
00000370: 48a6 6e3c c58e cb3c a335 82bc 94a7 ca3b
00000380: 6f01 653d dd46 7bbd 7a3a 49bd c3e2 05bd
00000390: 03a3 da3c 4453 c7ba 5ef6 08bd 12cd 583c
000003a0: 5bfc 8abd be63 c3bc 2cfe 773d b423 7cb9
000003b0: 721a 853d 2c99 693d 215f e53c 4d72 1bbc
000003c0: bc4c 03bc fff1 ca3c 570e 753d 7048 663d
000003d0: 97b7 eb3b c4cb 58bb 78d4 12bb 3a6b 5d3b
000003e0: 5780 beba daea 9cbb c2ff 813d 0cb8 0fbc
000003f0: 3f6d 6f3c 22f2 cb3b ffdc e5bc 23a9 bf3c
-0.02074659 0.028427316 -0.0333871 -0.027498469 0.053502955 0.023653647 -0.007911304 0.03130867
0.072470665 0.046472367 0.0415111 0.055056714 -0.03957284 -0.0036737826 0.030554926 -0.036810372
0.022113787 -0.02606108 0.035403926 -0.01999137 0.0464069 0.053300936 -0.030744972 0.030670254
0.038003363 0.0074528954 0.045818347 -0.0052820416 -0.0003311864 -0.030340655 -0.009185438 -0.026205596
0.050517503 -0.00616241 0.056706727 0.047456257 -0.069248684 0.025118686 -0.03879585 -0.04548942
0.02266824 -0.06537064 0.029963687 0.02384925 -0.002040672 -0.0024022257 -0.05463958 -0.05744207
-0.008259027 -0.035407092 -0.018964263 -0.015062682 0.028678967 -0.044542406 0.009397126 -0.02380093
-0.027842674 -0.014034281 0.005553745 -0.029105349 0.015162749 0.051940262 0.018490937 0.029017147
-0.048367407 -0.05953501 -0.06478433 0.0053081573 -0.03310249 0.023802057 0.015582929 -0.020994272
-0.00356047 0.019527158 0.035281356 0.023862865 0.024800602 -0.04868171 0.008568911 -0.040865637
5.8154328e-05 0.07507479 -0.00508367 0.0110784145 0.022374561 -0.01636999 -0.00032573869 0.08052402
-0.033637676 0.01827265 -0.06906467 -0.026696442 -0.062543936 0.0035710179 0.011257239 -0.028021267
-0.06722135 -0.062479023 -0.06373672 -0.013732234 -0.014433493 0.049616463 0.06414616 -0.03189083
-0.019811433 0.055851266 -0.035269275 0.014342954 -0.04003943 0.037326187 -0.009455174 -0.031017136
0.056387138 0.0103752185 0.023268156 -0.033236533 -0.045417544 -0.03529923 -0.03931157 0.059855472
-0.036797453 0.01047405 -0.050038654 0.026008802 -0.035850957 -0.033207502 0.013763517 -0.038383354
-0.010206123 0.03381913 0.05258939 -0.036024872 -0.045131385 0.00068784214 0.03320115 -0.05593891
-0.002119089 0.038406502 -0.011351906 0.023415523 0.03849202 -0.07386788 -0.055088673 -0.025815558
0.021507658 -0.05377368 0.029946063 0.05534848 -0.057643265 0.027828585 -0.033253703 -0.03883377
-0.009171017 0.016144495 0.03355599 0.028277317 -0.02103013 0.060889494 -0.03301113 0.030593097
-0.032500952 0.031554487 0.023000404 0.05740972 0.086385034 0.048192997 0.08531708 0.039520726
0.049148027 0.043541115 0.031372104 0.01779599 0.014951458 -0.040552832 0.049150217 0.03237425
-0.053713392 -0.054757793 -0.008835046 -0.0329684 -0.02916897 -0.029198607 0.016319124 0.02635611
-0.07633447 -0.055805724 0.026487809 -0.078547984 -0.07186814 0.042410437 0.016573945 0.03319252
-0.009050878 -0.04360867 -0.050335556 -0.026871253 0.010230964 0.049296755 0.04560335 0.05639315
0.020512525 -0.05882843 0.004155765 -0.054826215 0.0297882 0.023700904 -0.008988407 0.029386695
-0.0043813493 -0.03673797 -0.019716645 0.011232732 0.027057135 -0.013482341 0.022714302 0.034054004
0.06144021 0.030361133 0.036849484 0.0479892 0.014566012 0.024848351 -0.015894717 0.0061845277
0.05590957 -0.061346877 -0.049128033 -0.03268696 0.026689058 -0.001520731 -0.03343808 0.013232486
-0.06786414 -0.023851272 0.06054513 -0.00024045893 0.06499185 0.05703084 0.027999463 -0.009487701
-0.0080139 0.024773596 0.05982813 0.056221426 0.0071935165 -0.0033080438 -0.0022404473 0.0033785836
-0.0014534098 -0.0047887387 0.0634761 -0.008771908 0.014613449 0.006223933 -0.02805948 0.02339608

conv3.bias f4 [32]
00000000: bf46 1c3d ebe6 b5bb 280e edbc f90c af3c
00000010: bf3a 353d 8e5a f33b c0d6 373b 788a 013d
00000020: 74d0 0cbd e898 283d 46fb 2d3d f385 273d
00000030: ddd2 dabc bb74 73bc b373 643d bf6c bcbc
00000040: 4b49 36bd d55d a73b b7a5 1fbc 2733 0ebd
00000050: 920a 3d3d 755d ff3c f975 cabc 9015 d43b
00000060: b194 37bd 4620 2a3d ac19 153d 2ad5 37bd
00000070: 3757 12bd 64e8 14bb a8c2 173a 45ec 2c3d
0.038153406 -0.005551209 -0.028937414 0.02136849 0.044245478 0.0074265664 0.0028051585 0.031626195
-0.034378484 0.041161448 0.04247596 0.04089923 -0.026711876 -0.014859374 0.055774402 -0.023001073
-0.04450349 0.005107621 -0.009744099 -0.03471675 0.04615266 0.031172493 -0.024714457 0.006472297
-0.044819538 0.041534685 0.036401436 -0.044881023 -0.035727706 -0.0022721523 0.0005789199 0.04221751

conv4.weight f4 [32, 32, 3, 3]
00000000: a8be 273c 2f23 873d 59b5 44bc 9f97 e1bc
00000010: b90b 1dbd b2e8 913c 5215 943d 83ba 2ebd
00000020: 62f8 f23c fd31 f2bc 480a bcbc c879 ffbc
00000030: f56f 943a e76f 68bd b79e 703c 5de7 513d
00000040: 6454 3c3c 5b1e 253d 8996 92bc c427 c1bc
00000050: d49c 44bd 2563 1d3c 30ee 133c c4a7 3fbc
00000060: 8c52 c2bb 14d3 9cbc 75f6 243d 61cd 863c
00000070: 2f3a 053d d3cb c439 78d1 113d 4633 3ebd
00000080: f223 15ba c288 1c3c 4803 4c3d 93c6 233d
00000090: af15 963c f86d 61bd 1ab1 75bd 328f 873a
000000a0: 3e31 17bd 1db8 efbc 085f ecbc 5e49 4abd
000000b0: 0a40 dfbc 6a55 62bd b6a4 45bd 2e06 493d
000000c0: cb90 cb3c 1e0e 263d 0ca9 353b cc88 28bd
000000d0: f62a 493d e3fc 993c 64ed 3fbd 58f1 a4bd
000000e0: aac3 1c3c 1e37 93bd 7579 28bc 82b4 96bd
000000f0: 4022 88bc c1ae 16bc fd83 4abc e64b 2c3d
00000100: 13ae 7a3c 85ed 59bd c17e 8cbc 19bc 71bd
00000110: 773e 2a3d b61e 35bd 162e 743c eee4 853a
00000120: ed78 103d d1ba b13c 9a3b 693d 6419 033d
00000130: c872 0b39 bd03 583d 55f4 203d f0bd 49bd
00000140: 7631 c83b ff38 033d faec 2cbc 96d5 483d
00000150: 6155 c3bb 45e5 053d 6833 623c 0044 d5bc
00000160: c71f 65bd c0c2 97b9 f4a3 edbc e5a7 5fbc
00000170: 4614 85bd 4da6 6ebd a20d 1a3c 44ba 71bc
00000180: 8016 9d3c fdbc a8bc 1475 6ebd e9d2 56bc
00000190: 8838 e0bc 6239 d4ba 6656 69bd 4906 7ebd
000001a0: 44c0 cf3a 46e8 ff3c 7b7b edbc d813 d83c
000001b0: c980 003d 03c8 a13c cb2d f33c 5de0 603d
000001c0: 66e8 4b3c 5072 91bc d11f 0d3d 3897 1a3d
000001d0: d08d b33c 08b3 a73c 1a0c 0ebb 2f9a 253d
000001e0: f87e 2ebd c111 acbc 090d 103d c40a 1cbd
000001f0: e350 0c3d f1fe 6fbd 10a4 dd3c a620 153b
00000200: ae9a 52bd 650f 51bd 59d3 e9bc 88d8 8cbc
00000210: e241 72bd 9e5d f5bc 5930 dc3b c0c7 23bb
00000220: c847 903d 49af 663d de88 51bd 132a 8abc
00000230: b725 c0bc 9db3 afbb 6700 16bd a69f c33c
00000240: 92d6 cc3c a58e 8bbd e158 41bd 803a 193d
00000250: 839a 59bd 510e 2e3d 01d0 3dbd 69ff 003d
00000260: 9ded 523c c315 3fbd a858 43bb 69a5 2abb
00000270: b1af 3abc 1b72 2f3d a8d8 52bd d2fd a0ba
00000280: db36 36bd 7eb7 bcbc 3667 16bc 61f0 33bd
00000290: c69c ab3b f51f 683c 0a72 7a3d aee1 ccbb
000002a0: 5551 243d 5dbb 7a3d 2aa6 e03b c371 053d
000002b0: fc37 f63c d762 633d 5600 66bc e2eb 3b3c
000002c0: 7c33 543d 5258 7a3d 6da1 3fbd 65c7 803d
000002d0: 712f a7bd 0567 89bd 3c07 ef3a 221e 93bd
000002e0: 85b9 4cbd 172c 99bd 4fc9 12bd 0f05 843c
000002f0: e320 5abd 261e 25bd b434 3c3c 1016 e8bc
00000300: 7b58 823b 1114 ad3c ab90 a2bc 92f7 00bd
00000310: 37af efbc d7cd 8dbd 0e3e 7e3d 1dc5 733d
00000320: 2565 c9bb a89e b6bc 5101 40bd e350 e43c
00000330: e2ef a73c 36e8 42bb 1ef3 dabc 1ffe 4e3d
00000340: 9c9c 20bd 9288 993b 9755 683c 75f1 b4bc
00000350: a2c7 16bd d78d 393c b67e 373d c9b6 92ba
00000360: 25be 2dbd af5e 223d b825 06bd 3f9d 103d
00000370: 1182 ef3a a40d 133d 7ccd ccbc 27dd 433b
00000380: 3946 903d bd14 afbc 0afd 8bbd 4bc0 93bd
00000390: d5ac 923b 6d5f be3c fdf1 14bd 745d efbb
000003a0: 8b3e 14bd 0453 3ebd f3fb 733c 95d0 3abd
000003b0: 98a2 3abc e308 e23c 8ab4 ae3c d6e5 39bd
000003c0: c4bb b23c f003 9e3c 5e94 8c3c fb13 443d
000003d0: 691d 813d 0b1c 91bc b8a3 543d f049 b538
000003e0: 27d9 5f3c 85bf d43b 48f3 4a3d 81d9 26bd
000003f0: 2b0d 6fba 555d f13c 6e5d d43c f3cc 0bbd
0.010238327 0.065985076 -0.012006127 -0.027538119 -0.038341258 0.017811153 0.07230629 -0.04265834
0.029659454 -0.029564852 -0.022954121 -0.031186 0.001132487 -0.056747343 0.014686278 0.051246036
0.01149473 0.040312152 -0.017894046 -0.023578532 -0.048001125 0.009606157 0.009028956 -0.011697713
-0.0059302505 -0.019143619 0.040274102 0.016455354 0.03252619 0.00037535894 0.035600156 -0.046435617
-0.0005689255 0.00955409 0.049807817 0.039984297 0.018320886 -0.055036515 -0.05998335 0.0010342358
-0.036912195 -0.029262597 -0.028853908 -0.049386375 -0.027252216 -0.05525724 -0.048252784 0.04907816
0.024849316 0.040540807 0.0027719168 -0.041146085 0.049113236 0.018797344 -0.046857253 -0.08053845
0.009568134 -0.07188247 -0.010282864 -0.07358648 -0.016617894 -0.009196938 -0.01236057 0.04206457
0.015300292 -0.053205032 -0.017150285 -0.059017275 0.041563477 -0.04421874 0.014903566 0.0010215321
0.035271574 0.021695526 0.056941606 0.032006636 0.00013298832 0.05273794 0.039295513 -0.049253404
0.006109412 0.032036778 -0.0105545465 0.049031816 -0.0059611057 0.03268935 0.0138062015 -0.026033401
-0.05593851 -0.00028946064 -0.029008843 -0.013650869 -0.064980075 -0.058264066 0.009402664 -0.014753882
0.019175768 -0.02059793 -0.058217123 -0.013111808 -0.027370706 -0.0016191418 -0.05696716 -0.062017713
0.0015850146 0.031238686 -0.028989544 0.02637665 0.03137282 0.019748693 0.029684922 0.05490147
0.012445545 -0.017754704 0.03445417 0.03774187 0.021918207 0.020471111 -0.0021674694 0.040430244
-0.042601556 -0.02100456 0.03516868 -0.038096204 0.034256827 -0.05859274 0.02705577 0.0022755056
-0.051417045 -0.051040072 -0.028543161 -0.017193094 -0.059144862 -0.029951867 0.0067196307 -0.0024990886
0.07044941 0.05631951 -0.051155917 -0.016865766 -0.023455484 -0.0053619877 -0.036621477 0.023879837
0.025004659 -0.06814317 -0.047203902 0.037409306 -0.05312587 0.042494122 -0.046340946 0.031493578
0.012874034 -0.046651613 -0.0029807482 -0.0026038534 -0.011394427 0.04283343 -0.05147615 -0.0012282676
-0.044485908 -0.023036715 -0.009179881 -0.043930415 0.0052371947 0.014167775 0.061143912 -0.006252489
0.040116627 0.06121384 0.006855746 0.032579195 0.030055992 0.055514183 -0.014038166 0.011469813
0.05180691 0.061119385 -0.046784807 0.062880315 -0.081633456 -0.067091025 0.0018236409 -0.07183482
-0.049981613 -0.074791126 -0.035836514 0.016115693 -0.05325402 -0.040311955 0.011487175 -0.028330833
0.003977833 0.021127732 -0.019844374 -0.0314861 -0.029258354 -0.069240265 0.0620709 0.059514154
-0.0061460906 -0.02229245 -0.046876255 0.027870601 0.020500127 -0.002974046 -0.026727255 0.050535318
-0.039211854 0.00468547 0.014180562 -0.022087792 -0.03681148 0.011325321 0.044798575 -0.001119339
-0.042417664 0.03964108 -0.032750815 0.03530621 0.0018273016 0.03590168 -0.025000326 0.0029886456
0.07044644 -0.021372193 -0.06835373 -0.07214411 0.0044761696 0.023238862 -0.03636359 -0.0073048417
-0.036192458 -0.04646589 0.014891612 -0.045609076 -0.011391304 0.027592128 0.021326322 -0.045385204
0.02181805 0.019288987 0.01716059 0.047870617 0.06304438 -0.017713567 0.051913947 8.6445245e-05
0.013662613 0.0064925575 0.049548417 -0.04073477 -0.00091190886 0.02946345 0.025923457 -0.034131

conv4.bias f4 [32]
00000000: 4227 613b de85 17bd 34e7 0e3c e62f ce3c
00000010: 8d95 55bd 6f70 6d3d 04bc 53bd 5868 4cbd
00000020: 6d0e 753d 0b1d 06bd 9ab7 b43a d0cf b63c
00000030: 444f 92bc c709 093d 6f50 aa3b 3b4b 3c3d
00000040: 2ee2 53bd ac2c 36bd 4639 ed3c a178 2cbd
00000050: 91c2 523b 6691 e83c 32bd 08bc c49b 1abd
00000060: 2d28 fcbc 6ffa 023d db53 81bc 597c 773a
00000070: 7dc1 d5bc 29e0 dbbc b9a3 a63c 3ef3 8dbc
0.0034355675 -0.0369929 0.008722115 0.025169324 -0.052144576 0.057968553 -0.051692978 -0.049904197
0.05982821 -0.03274254 0.0013787628 0.02231589 -0.017860062 0.03345659 0.0051975767 0.045970183
-0.051729374 -0.044476196 0.028957974 -0.04210723 0.0032159428 0.028389644 -0.008345889 -0.037746206
-0.030780876 0.031977113 -0.015787056 0.00094408315 -0.026093239 -0.026840286 0.02034174 -0.017327901

conv5.weight f4 [16, 32, 3, 3]
00000000: 01ac 93bc 83f7 f4bb 4160 e6bc 6364 003d
00000010: 9580 c5bb d7cd 263d abf0 3ebd fc4a 173d
00000020: 1f3e 533d 1125 f3bc 073a 48bd 35e8 85bd
00000030: eb37 6c3d fa52 dcbc 20d8 d738 34ff 613d
00000040: a4e2 8ebc 1f3c 45bd 723b 43bd 47c7 09bd
00000050: 25da 44bc a5f6 35bd f719 733c e938 a13d
00000060: cbb6 2dbc fe3a 093d 96b1 643d 75b1 133d
00000070: 0183 fbbc b261 893c 8a4f 2e3d 8473 dabb
00000080: b4f5 dbba 3f69 88bd c8c6 453d 78d4 3b3c
00000090: 3ed6 223d e702 273c dbc0 e1bc 6e93 643d
000000a0: e944 10bd 6e6c d23c 41b6 413d ddf7 68bd
000000b0: 5a81 5dbc b405 0fbd 68ae 433d 9b20 d0bb
000000c0: 922b 0cbb 4e28 13bd 58aa bb3d 85f9 313d
000000d0: 939d 8b3c de41 f73c f113 5a3c dab8 dabc
000000e0: 303f 2ebc 5f95 babc 8fe0 6a3d 459a 9fbd
000000f0: 5122 a13c 0638 7c3b 0b80 3fbd 992a eebc
00000100: e3b9 5dbd 3c9c cbbc bc7c 953d ef4b 463d
00000110: 4a15 c3bc 2e5b 8c3d 2ae8 03bd d73a 34bd
00000120: cf81 78bd 5a53 afbc 6e75 ffbc a0a0 8dbd
00000130: dbdd 203d c708 c1ba 47cf 7d3c 21d7 2bbd
00000140: 9a63 953d e1ef 9e3c 2863 c33c bfe4 72bd
00000150: b701 883d 24d4 903b 5326 a9bd 69ef f3bc
00000160: 6b43 5d3c 50ea 43bc 76e5 953d 325b 0a3d
00000170: 7617 a4bc 45ea d4bc 8f65 2cbd 2b12 b9bd
00000180: 81f9 803d 5365 f13c 513c c4bc fcbc 1abc
00000190: 33a2 26bc f55f e23c 7010 09bb f7f9 2f3d
000001a0: bd79 9b3d e94e 043d f7fb 08bd 7cae c1bc
000001b0: 6e41 4b3c 722d 053c 962a 0dbd dbf8 93bc
000001c0: 1dbc e63c 101e 653d d3e7 8fbd 310a 093c
000001d0: 187b d73c 7a6e 8dbd 7590 50bb 554b 1b3d
000001e0: 647a c53b a3e0 7abd 693f 193c c6b1 25bd
000001f0: d57e 4abd b7ae 70bb 6fba 88bd f6ff 5fbc
00000200: ea65 1d3d 943d 36bd 325c 2fbd 4ef5 5d3d
00000210: 1f8f 90bc 9b8f 1d3d f06b 373d 395c 6f3d
00000220: 4ac8 bebc 915f c9bc fad2 19bd 3b82 dbbc
00000230: 8b9b 80bd aaa4 04bd 9818 753d c0df 4abd
00000240: fb14 a03c 868a 623d 5163 5f3d 19fb 743b
00000250: f342 07bd 1d6f f53b b2b1 2f3d b228 913d
00000260: d229 abbb f698 a93d f8c2 febc 85f1 b9bc
00000270: 4afd bdbc 6d8f 2fbd d45f e23b 3c91 453b
00000280: fcac ddbc dfd7 8bbd 9aa2 e43b 2309 aabc
00000290: 3879 9cbd a516 f73c 1775 4ebd 041a 8bbd
000002a0: 7801 fdbc 0b37 66bd f26f 683c 88af 99bd
000002b0: d89c d63c 8d73 873c f597 143d 1107 ec3c
000002c0: 48cb 5b3b f582 153d f321 83bb b486 f23c
000002d0: 5676 563a 264b 993c a75e 0fbd 09fd 4c3d
000002e0: c34a 3dbd 77bb f7bb c88c abbc f3f7 e63c
000002f0: 1744 073c ac46 823d adf7 5b3c 7710 c9bb
00000300: ce51 c93c f376 f53c eaa4 853b 0c0b 6b3d
00000310: 2091 363d 8feb 06bd 03f4 afbc 558b 9abc
00000320: 1ad1 6f3c a956 2cbd 6380 3bbd d715 6a3d
00000330: 7a7d 6f3d 65e6 5abd a84c f43c 57ba 833c
00000340: 6a84 30bd 0def 583d ffa5 1cbc c41e 1abd
00000350: 49cc bd3d feef 16bd c5c0 c6bc aa33 5e3d
00000360: 4b9f dfbc 15e4 01bd 4d54 bb3b 8a97 6dbd
00000370: 91a9 4e3d 6596 a73d 075c 86bd 0490 21bc
00000380: 2abb a33d 3ab4 3dbb a56d 41bd 3a77 883d
00000390: 17c6 5a3c fcbe 073b f23a 433d be8d 80bd
000003a0: eea9 debb 5999 af3d 168d 15bd 61f9 f43c
000003b0: db9f f2bc 2e0b db3c 44fd 913d 757c 853d
000003c0: b3bf 70bd 01c1 1cbc 7592 683d 9933 923d
000003d0: 2539 42bc 56a3 d73b 6349 093d eb85 843d
000003e0: 0f75 ad3c 2a5a 2b3d be03 483d 51ff 63bd
000003f0: 65c3 cf3c b6d8 2d3c 14f2 3d3d 9311 53bb
-0.018026354 -0.0074757948 -0.02812207 0.031345736 -0.006027291 0.040723648 -0.046616238 0.036936745
0.051572915 -0.02968076 -0.048883464 -0.065384306 0.057670515 -0.026895035 0.00010292255 0.05517502
-0.017442055 -0.04815304 -0.047664113 -0.03363731 -0.0120149 -0.04442467 0.0148377335 0.07872183
-0.010602663 0.033503525 0.05583342 0.036057908 -0.030702116 0.016770218 0.042556323 -0.0066666026
-0.0016781599 -0.06660699 0.048285276 0.011464231 0.0397551 0.010193563 -0.027557781 0.055804662
-0.035221968 0.025686469 0.04729295 -0.056877006 -0.013519609 -0.03491755 0.04777375 -0.006351543
-0.0021388275 -0.03592711 0.0916335 0.04345085 0.01704291 0.030182775 0.013310418 -0.026699472
-0.010635182 -0.022776304 0.057343062 -0.077930965 0.019669684 0.003848554 -0.04675297 -0.029073047
-0.054132354 -0.024854772 0.07299182 0.04841226 -0.023813862 0.06853329 -0.03220383 -0.044001427
-0.06067067 -0.02140205 -0.031183925 -0.069154024 0.039274078 -0.0014727347 0.015491313 -0.04195321
0.07294388 0.019401493 0.023850992 -0.05930018 0.06640952 0.0044198204 -0.08259263 -0.029777246
0.013504843 -0.01195772 0.07319157 0.033778377 -0.020030718 -0.025990615 -0.04208904 -0.090366684
0.06297589 0.02946726 -0.023954542 -0.009444471 -0.010170507 0.027633647 -0.0020914339 0.042962994
0.07591579 0.032301817 -0.033443417 -0.023642771 0.012405736 0.008128511 -0.03446444 -0.018063
0.028165871 0.055936873 -0.07026639 0.008364246 0.026303813 -0.06905837 -0.0031824384 0.03791364
0.006026553 -0.061249387 0.009353497 -0.04045274 -0.049437363 -0.0036725232 -0.066761844 -0.013671866
0.03842727 -0.04449232 -0.042812534 0.05418902 -0.01764637 0.03846703 0.04478067 0.05843756
-0.023288865 -0.024581702 -0.03755472 -0.026795497 -0.062796675 -0.0323836 0.059837908 -0.04952979
0.019541254 0.055307887 0.054538075 0.0037381111 -0.033022832 0.0074900524 0.042894073 0.0708784
-0.005223491 0.08281128 -0.031098828 -0.022698173 -0.023192067 -0.04286139 0.0069083963 0.003014638
-0.027060024 -0.068282835 0.0069773914 -0.02075631 -0.07640308 0.030162165 -0.050404634 -0.067920715
-0.03088449 -0.056204837 0.014186846 -0.07504183 0.026197836 0.016534591 0.03627773 0.028811963
0.0033537913 0.036501843 -0.00400185 0.029605247 0.00081810856 0.018712591 -0.035002377 0.050046
-0.046213876 -0.0075601893 -0.020941153 0.028194403 0.00825598 0.06361136 0.01342575 -0.006135996
0.02457514 0.029963946 0.004078497 0.057383582 0.044571996 -0.03293949 -0.021478659 -0.018865267
0.014637256 -0.042074833 -0.045776736 0.057149734 0.058469273 -0.053442378 0.029821709 0.016080065
-0.04309503 0.05296235 -0.009561061 -0.037626997 0.0926748 -0.036849968 -0.024261842 0.05424849
-0.027297636 -0.031711657 0.0057168365 -0.058005847 0.05045468 0.08182982 -0.065605216 -0.009860996
0.07994683 -0.0028946535 -0.047223706 0.06663366 0.013352892 0.00207132 0.047663637 -0.06277035
-0.0067951595 0.085741706 -0.036511503 0.02990407 -0.02961724 0.02673873 0.07128385 0.06517879
-0.05877657 -0.0095675 0.056780297 0.07138748 -0.011854445 0.0065807505 0.033517253 0.06470855
0.021173982 0.041834034 0.048831694 -0.05566341 0.025361726 0.01061075 0.04637344 -0.003220652

conv5.bias f4 [16]
00000000: 0d49 6bbd 938d 24bd 690c cd3c 4f28 073d
00000010: b246 90bc cc75 6fbc e720 5bbd 1831 923c
00000020: 0180 2ebc cc65 173a 2c35 14bc 5b22 573d
00000030: 2fef 573d 9e12 d5bc 8c83 443c 8965 143d
-0.057442714 -0.04017408 0.025030332 0.032997426 -0.017611835 -0.014615487 -0.053498175 0.017845675
-0.010650636 0.0005775362 -0.00904588 0.052523 0.052718338 -0.026009854 0.011994254 0.036229644

fc1.weight f4 [128, 400]
00000000: b962 d13c abf0 38bd 6243 993d 566c abbc
00000010: 4f4e 033d d731 943d e372 14bc 0f59 6ebd
00000020: bd77 80bc 2b62 8e3d 3224 bbbb 40fe 07bc
00000030: 0489 31bd 8b15 903d fc40 57bd 0af2 56bd
00000040: b33f 9abc bf02 44bd f03d 503c c6c8 393c
00000050: a24a 233d 00ce a6bb 7f4d 5bbd 1adc 093d
00000060: d1c8 b03c 5f15 443c 243d 003d 3028 cabc
00000070: 268e 41bd 7704 36bc 0b93 7c3c 1fb7 48bd
00000080: 3fed 5abd fd8e 12bd 4d42 81bc c82a e5bc
00000090: 8136 83bd 91d7 553d 50b1 883c 496a 9ebc
000000a0: 8f5d e33c ae7a 64ba 6b01 a7bc 70bf 5fbc
000000b0: e352 0cbb 24ed 73bd a6e0 2cbd f38c 8fbc
000000c0: 68cd 813c c730 21bc c11b 113b 0de4 393d
000000d0: f413 76bd 1c07 83bd 3466 633d 4cf5 ecb9
000000e0: ac00 24bc 1fbf 713d 59e1 a13c cca1 2dbd
000000f0: c24d 19bd 75bc 47bd 4ea1 753d cbf5 4cbc
00000100: 0530 32bd dc15 43bd 12f2 7e3d 6357 ac3c
00000110: 1780 01bd d0bd 253d ac37 a63c 442b e2bb
00000120: e7f4 11bd ce36 c0bb 21fc 463d 134c 703c
00000130: 7e6d a73b 21be 7c3c f598 a23c 4937 533c
00000140: a821 90bd 6874 92bc 7f8d bfbc 4dc8 e63c
00000150: f47f 36bd 4f40 4abd 6c61 24bd 0b32 30bd
00000160: cd2d 73bb 618e 76bd 6a0f 87bd b104 133b
00000170: a26a 02bd 4623 123d 8d26 913c f2e0 6dbd
00000180: 09b8 883c 2795 b7bb c401 a2bc e1ac bfbc
00000190: 57f1 3ebd 1cf2 bbbc 78b9 36bc 0383 eabb
000001a0: b1c4 a9bc cb56 623b 28b2 febc fb34 543c
000001b0: 327e 6f3d 6dd7 5e3d 36b2 9e3d 9843 c23c
000001c0: efc5 413b c85f 11bc 770d 7b3d a6f4 0e3d
000001d0: 7f17 023d 1387 b8bb 9dae e5bc 628c 353d
000001e0: fe26 4a3c b9dd 853c d2ae 293c 764f f9bb
000001f0: 020c d1ba 9c0b bb3c bdaf 67bc 6c13 24ba
00000200: fe66 903d e2e5 b73c 1cce 683c f396 0e3d
00000210: 1328 99bd 83f4 b13c 168b 013d 7c10 d7bb
00000220: 7669 d4bb 47a0 c3bc 6bc3 783d b46a 70bd
00000230: f565 6bbc eb7e 143c 3a4b d5bc f455 fbbc
00000240: 8558 81bd 1d81 0ebd aeee 85ba 2f65 4dbd
00000250: d02e 16bd 69aa dcbc 06e5 c7bc bdea 9ebc
00000260: 6599 15bd 7b7f 0ebd c7fa b33c 3ca2 a8bd
00000270: c60f 90bc 5332 3d3d 22be e53c 9e9c 95bd
00000280: 27ca 95bb e049 bbbc 53b4 4abd f50a 603c
00000290: 1453 983c e7b5 c6bc 8051 c63c ab18 143d
000002a0: 3861 b83c 2c8c 003d 1d62 993b 44d6 24bd
000002b0: c145 fd3b c3c8 d73c 8d5d 743d 9a01 0cbb
000002c0: ad24 763d a910 91ba 1a04 613d bea6 573c
000002d0: a8cb 31bd 532d 43bc bcd1 373c 70de 54bd
000002e0: 0a2f 84bd 809c 93bd f688 a6bd 249d cb3c
000002f0: 2a55 7abd ee01 e6bb a961 acbc 5f0e 1b3d
00000300: c787 d33c 0ca9 2cbd 7397 1f3d eec7 d33c
00000310: e641 83bd caf6 313a 8c60 ecb9 d566 ebbc
00000320: e0df 2ebd 460d c0bc 7afa 0bbd 2d13 193c
00000330: aa49 683c 44d3 1fbc 5250 61bc 3138 78bd
00000340: 53dd c33a bf3b 413c 207f c43b 771c 60bc
00000350: 609f 2bbd 4645 403d 213d 29bc d272 dd3c
00000360: 4632 a2bc a557 74bd f505 19bd c52c 2d3c
00000370: c1cc 05bd ce75 46bd 1008 b33c 8b53 69bc
00000380: 7cbc 6c3d 4906 973b be4c 2abd eadb 2abc
00000390: 3d12 e6bc d90e 20bd 6840 fc3b c84d 973b
000003a0: 430a e53c 3d8c 63bc 0e8f 6d3d ccc5 d03c
000003b0: e8ea 113c 0f40 bb3c 6f2f 6ebd 8ee1 233b
000003c0: bec0 203d 5c88 05bd fb7f a4bb b01b 22bd
000003d0: a88a ce38 6fa8 543b 8436 c2bc 5acb c53c
000003e0: fbb7 3bbd aef4 a5bb 7573 523c cf0e afbc
000003f0: b620 f33b ba26 443d 10e1 6ebd cc29 51bc
0.02555977 -0.045151394 0.074835554 -0.020925682 0.032057103 0.07236069 -0.009060594 -0.0581904
-0.015682096 0.06952318 -0.005711102 -0.008300364 -0.04334356 0.07035359 -0.05255221 -0.05247692
-0.018829202 -0.04785418 0.01271008 0.011339372 0.039866097 -0.005090475 -0.053540703 0.03365717
0.021580132 0.011967986 0.03130831 -0.024677366 -0.047254704 -0.011109463 0.015415917 -0.049002763
-0.05344891 -0.035780896 -0.015778685 -0.027974501 -0.0640688 0.052207533 0.016686112 -0.01933779
0.027754573 -0.00087157905 -0.020386418 -0.013656482 -0.002141171 -0.059552327 -0.04220643 -0.017523265
0.015845016 -0.00983829 0.0022141787 0.0453835 -0.060077623 -0.063978404 0.05551739 -0.00045196188
-0.010009926 0.059020158 0.019760774 -0.04239063 -0.03742767 -0.04876371 0.059968285 -0.0125097735
-0.043502826 -0.04762827 0.062242575 0.021037763 -0.031616297 0.040464222 0.020290218 -0.0069021303
-0.035633948 -0.005865908 0.048580293 0.014666575 0.005109488 0.01542619 0.019848326 0.012891599
-0.070376694 -0.017877772 -0.0233829 0.028171683 -0.04455562 -0.049377736 -0.04013197 -0.043016475
-0.0037106157 -0.060194377 -0.06594737 0.0022433216 -0.031839974 0.03567817 0.017718578 -0.058075853
0.016689317 -0.005602497 -0.019776233 -0.023397865 -0.04661688 -0.022942595 -0.011152618 -0.007156731
-0.020723673 0.0034536596 -0.03109081 0.012952085 0.05846996 0.054404665 0.07748835 0.023713872
0.002956744 -0.008872934 0.061292138 0.034901284 0.03176069 -0.0056313365 -0.028037364 0.044323333
0.012338398 0.016341077 0.010356622 -0.0076083494 -0.0015949013 0.022832684 -0.01414102 -0.00062589976
0.07050894 0.022448484 0.014209297 0.034811925 -0.07478347 0.021723038 0.031626783 -0.0065632444
-0.0064822985 -0.023880137 0.06073324 -0.05869551 -0.01436757 0.009063463 -0.026036847 -0.030680634
-0.06315712 -0.0347911 -0.0010218227 -0.050145324 -0.036665738 -0.026936727 -0.0244012 -0.019399041
-0.03652324 -0.034789544 0.021970166 -0.08234069 -0.017585646 0.04619057 0.028044764 -0.07305263
-0.0045712176 -0.022862375 -0.049488377 0.013674487 0.018594302 -0.02425666 0.024208784 0.036156338
0.022507295 0.03138368 0.0046808855 -0.040243402 0.0077292626 0.026340848 0.05965953 -0.002136326
0.06009357 -0.0011067587 0.054935552 0.013162313 -0.043407112 -0.011912662 0.011219438 -0.051969945
-0.064542845 -0.072075844 -0.08131592 0.024855204 -0.061116375 -0.007019273 -0.021042662 0.037855502
0.02582158 -0.042153403 0.038962793 0.02585217 -0.064090535 0.00067887886 -0.0004508536 -0.028735558
-0.042693973 -0.02344383 -0.03417442 0.009342951 0.014177719 -0.0097549595 -0.01375206 -0.060600463
0.0014943279 0.01179403 0.0059966 -0.013678662 -0.04190004 0.046941064 -0.010329516 0.02703229
-0.019799363 -0.059653897 -0.037359197 0.010569756 -0.03266597 -0.04845219 0.02185443 -0.01424111
0.05779694 0.0046089035 -0.041577093 -0.010428408 -0.028084869 -0.03907666 0.0076981075 0.0046174265
0.027958995 -0.013888416 0.057997756 0.025484942 0.008906104 0.022857694 -0.058150705 0.0025006267
0.039246313 -0.032600746 -0.0050201393 -0.039577186 9.848672e-05 0.0032449027 -0.023707636 0.024144817
-0.045829754 -0.0050645685 0.01284491 -0.021369366 0.007419671 0.047888495 -0.058320105 -0.012766313

fc1.bias f4 [128]
00000000: c4d8 e43c 187b 033d 4926 4dbd 278e 1b3d
00000010: 4b4a 4a3d 3cca c43c 3aa7 e23c 4290 e43b
00000020: 235b ef3c 834a 63bc e336 45bc b361 a5bb
00000030: 3389 a03c 1aec 443c f30e 6abd 69bf afbb
00000040: 37a3 23bd 16e0 d23c 6f0a b53c 7226 363d
00000050: 363f 863d 897b 543d 419e 883c 6221 afbb
00000060: dfaa 74bc 33d0 313d 6fc7 1a3d 3415 0f3d
00000070: 0166 4b3d cc5e 3cbd 0590 f93c fadb a93c
00000080: 1657 07bd 2a20 5bbc f43c c53c 0461 643d
00000090: 13a0 05bd 6966 b53c 809f 1e3d 6966 8f3c
000000a0: 5c54 acbc a1c4 423c d7cd 433c 79ec 88bc
000000b0: 0824 9f3c ea51 ad3c 749e b73c b78e 583b
000000c0: 4ec3 653d abb1 a93c 6eef d13c 13ba 0f3d
000000d0: b28b 043d 2870 2438 1ce2 153d 1c94 22bd
000000e0: 1a45 e0bc 0bb1 763c 2d51 acbc ed78 713d
000000f0: d2a7 2539 d397 26bd 6c72 30bc ccbe 383d
00000100: a3b1 313d 1323 273d bc24 4c3d f2b9 643d
00000110: fec4 4d3d 8e4f 123d faa6 cebb e84b d8bc
00000120: 52b0 aebc 812f ffbc 3d6d 89bb f862 e43b
00000130: f3ee 5c3c 9753 123c e75a 86bb 3280 343c
00000140: e176 ae3c 027f 8bb9 5f46 a6bc 22f2 123d
00000150: 936b 983c 6805 423c 5380 793b 99cd bc3c
00000160: 8223 2dbd e0f5 90bc 6410 c73c e3ab e43c
00000170: 46d6 0d3d 779a 3e3d c4f6 123c e6c7 d03c
00000180: 110c 263d 686a 1d3d a291 79bc 44fa e33c
00000190: aefe 2b3d dc05 c7bc 16bf 2abd 7ecb 2a3d
000001a0: 44cc d23c 0e6b 03bd aa17 03bd 4b55 583d
000001b0: 9b53 153b 51a4 0e3d 2217 cb3c ce4f 4c3d
000001c0: 478f 3f3d 3ec6 a5bc 4491 3b3d 8c66 f9bc
000001d0: ee0b 2ebd 1ab5 85bc 6400 35bd 3d8b 7d3d
000001e0: db6c 2f3d 894a 98bc 9ec0 97bc f6b8 20bd
000001f0: 8ae6 f53b 3cc7 e73c 0789 82bc ed2e f33c
0.027935393 0.032099813 -0.05008534 0.037977364 0.049387258 0.024022214 0.02766763 0.0069752047
0.029218262 -0.013872745 -0.012037012 -0.005047047 0.019596672 0.012019182 -0.057143163 -0.005363394
-0.039950576 0.025741618 0.022099702 0.044470258 0.06555025 0.051875625 0.016677024 -0.0053445557
-0.014933317 0.043411445 0.03778785 0.03493233 0.049657825 -0.045988843 0.030464182 0.020734776
-0.033042036 -0.013374368 0.024076916 0.055756584 -0.03262336 0.02214356 0.03872633 0.017504888
-0.02103632 0.0118877 0.0119509315 -0.016714321 0.01942636 0.021157224 0.022414424 0.003304405
0.05609446 0.020714602 0.025626864 0.035089564 0.032359786 3.92051e-05 0.036592588 -0.03969203
-0.0273767 0.015056859 -0.021034801 0.058953214 0.00015798144 -0.040672135 -0.010769468 0.045103833
0.0433823 0.040804934 0.04983972 0.055841394 0.050236695 0.0357204 -0.0063065263 -0.026403382
-0.02132431 -0.031150581 -0.0041939304 0.006969806 0.013484704 0.008931062 -0.004100192 0.011016892
0.02129692 -0.00026606774 -0.020297227 0.035875447 0.018605983 0.011842109 0.0038070872 0.023047255
-0.04227019 -0.017695367 0.024299808 0.027913993 0.034628175 0.046534028 0.008969966 0.025485944
0.04053885 0.038431555 -0.0152324755 0.027829297 0.04199093 -0.024294786 -0.04168614 0.04169797
0.025732167 -0.032084517 -0.03200499 0.052815717 0.0022785428 0.034824673 0.024791304 0.049880795
0.0467675 -0.02023613 0.045792833 -0.030444406 -0.042491846 -0.016321708 -0.044189826 0.061900366
0.042828422 -0.018590229 -0.018524464 -0.039238892 0.007504289 0.028293245 -0.01593448 0.029685462
