Trained_Weights/STRIDE 2/100th.pth (torch, 344904 bytes, 14 tensors)

conv1.weight f4 [32, 3, 3, 3]
0	0xbd48d906	-0.049035095
1	0xbe89a5de	-0.2688436
2	0xbe805b91	-0.2506986
3	0x3d7c5739	0.06160662
4	0xbeb9c501	-0.36283115
5	0xbdb1bc97	-0.08678549
6	0xbe9949c5	-0.29939094
7	0xbe205ca7	-0.15660344
8	0xbeb67d02	-0.35642248
9	0x3e694cb1	0.22783162
10	0x3e4c2b13	0.19938307
11	0xbd4a2186	-0.049348377
12	0x3e424020	0.18969774
13	0x3eafd7be	0.34344286
14	0x3e2109e6	0.15726432
15	0x3e9af407	0.30264303
16	0x3e34abf2	0.17643717
17	0x3e48b7f8	0.19601429
18	0x3e8e663d	0.27812377
19	0x3e53a361	0.20667793
20	0x3eb5a5ab	0.35477957
21	0x3e973758	0.2953441
22	0x3e5d232f	0.21595453
23	0x3eb45531	0.35221246
24	0x3da3329b	0.079686366
25	0x3eb89740	0.36052895
26	0x3ebda135	0.37037054
27	0xbe92c6b3	-0.2866722
28	0xbd32432d	-0.043521095
29	0xbe491700	-0.1963768
30	0x3d65f0b6	0.056137763
31	0xbd83b243	-0.06430485
32	0x3da116f6	0.078657076
33	0xbe7efa6b	-0.24900214
34	0xbe28a540	-0.16469288
35	0xbe83c84b	-0.2573875
36	0xbc4f3b7d	-0.01264846
37	0xbd5e6dd4	-0.05430396
38	0x3dc2a73b	0.09504553
39	0xbdbfd8f3	-0.09367552
40	0x3d16849d	0.036747564
41	0x3e307802	0.1723328
42	0x3da18ddf	0.07888388
43	0x3dce05ce	0.10059701
44	0xbe2ee225	-0.17078455
45	0x3de2ee18	0.11080569
46	0xbdc910ee	-0.09817682
47	0xbe186da1	-0.1488557
48	0xbe035f39	-0.12829293
49	0xbe47b8e9	-0.19504131
50	0x3e2224c8	0.15834343
51	0xbe56d7e3	-0.20980792
52	0xbd4b0be5	-0.04957189
53	0x3d74f353	0.059802365
54	0x3d0de445	0.034641523
55	0xbe0880fb	-0.13330452
56	0xbeb2996a	-0.3488267
57	0xbea39f57	-0.31957504
58	0xbd9e5aa0	-0.07732129
59	0xbce58a1c	-0.028019957
60	0xbd88c8a9	-0.06678898
61	0xbe8d4d4c	-0.27598035
62	0xbe5e2915	-0.21695359
63	0xbe0986cd	-0.13430329
64	0x3de1a5e3	0.110179685
65	0xbd565290	-0.05232483
66	0xbda3bdf1	-0.07995213
67	0xbdc4fab7	-0.096181326
68	0x3e185ddf	0.14879559
69	0xbc8a5c85	-0.01688982
70	0x3d38a293	0.045076918
71	0xbe0bd944	-0.13657099
72	0x3ce8d918	0.02842383
73	0x3a626cc4	0.0008637423
74	0xbe41cd14	-0.18925887
75	0xbe84c8e7	-0.25934526
76	0xbe71be4d	-0.2360775
77	0xbda5dacc	-0.08098373
78	0xbdfb36ed	-0.12266336
79	0xbe521d50	-0.20518994
80	0xbda1c734	-0.07899323
81	0x3e86481d	0.26226893
82	0xbd492833	-0.049110603
83	0x3e9b23f7	0.30300876
84	0x3e857d4b	0.26072153
85	0x3e4d8cc2	0.20073226
86	0x3dab0ff9	0.08352656
87	0x3e2a71e0	0.16645002
88	0x3cfa31f9	0.030541407
89	0x3e69d180	0.22833824
90	0x3e29a136	0.16565403
91	0x3c43cecb	0.011951159
92	0x3e9a0988	0.30085397
93	0x3ea22a03	0.31672677
94	0x3e00954f	0.12556957
95	0x3e98fc7f	0.2988014
96	0x3e9c34d9	0.3050907
97	0x3dd653ee	0.10465227
98	0x3e8c76de	0.27434438
99	0xbdedfa1d	-0.11619971
100	0x3bbaddbc	0.0057027023
101	0x3e44448f	0.19166778
102	0x3e6e3cc3	0.23265366
103	0x3e603694	0.2189582
104	0x3e85ae57	0.26109573
105	0x3e8ba4e8	0.2727425
106	0x3db5cd35	0.08877031
107	0x3e43e8b0	0.19131732
108	0x3e791e34	0.24327928
109	0x3d06e12d	0.032929588
110	0x3de4f0e4	0.11178759
111	0xbe2155c3	-0.15755372
112	0x3db8a2e4	0.09015444
113	0x3cc56a58	0.02409856
114	0x3c6742d2	0.014115052
115	0x3d8058ee	0.06266962
116	0xbe1b4a1f	-0.15164994
117	0x3e68954d	0.22713204
118	0xbdcd6ee1	-0.10030914
119	0xbd5c55e1	-0.053792838
120	0x3d2cc160	0.042176604
121	0x3e2cb67a	0.16866484
122	0x3cfe794e	0.031063702
123	0x3d4381aa	0.04773108
124	0x3d0aaf02	0.033858307
125	0xbde33429	-0.11093933
126	0x3e2b2468	0.16713107
127	0xbdedff96	-0.11621015
128	0xbe244083	-0.16040234
129	0x3e4e600c	0.20153826
130	0x3c35cb31	0.011095808
131	0xbe25b7d2	-0.16183403
132	0x3e0b763d	0.13619323
133	0xbe027268	-0.12738955
134	0x3bc2b1c8	0.0059416033
135	0x3c53f743	0.01293737
136	0x3e8aea28	0.27131772
137	0x3e138ffd	0.14410396
138	0x3e64d76b	0.223478
139	0x3d73fc4e	0.05956679
140	0x3e04bbd1	0.12962271
141	0x3ea927e7	0.33038256
142	0x3d92550d	0.071451284
143	0x3e919b9c	0.28439033
144	0x3c422366	0.01184926
145	0xbbcb31af	-0.006200991
146	0xbdf85695	-0.12125889
147	0xbd1c8658	-0.038214058
148	0x3da2e469	0.07953722
149	0x3e0cd0e6	0.13751563
150	0x3db93b09	0.09044463
151	0x3e0e0973	0.13870792
152	0x3e3ac9f6	0.18241104
153	0x3db0c1e7	0.08630734
154	0xbe921b51	-0.28536466
155	0xbdb71d87	-0.08941179
156	0xbe3e3246	-0.18573865
157	0xbe2a63a3	-0.16639571
158	0xbd99608f	-0.0748912
159	0xbd4c8318	-0.04992971
160	0xbda98f0f	-0.082792394
161	0xbd1bd2f1	-0.038042966
162	0xbe91d9bf	-0.2848644
163	0x3d0c2a9d	0.034220327
164	0xbc76eefd	-0.015071628
165	0xbbfa6edb	-0.0076426095
166	0xbd5a7b48	-0.053340226
167	0x3e05a9ab	0.13053004
168	0xbd96c12b	-0.073610626
169	0xbd10b8c5	-0.03533246
170	0x3d41d222	0.04731954
171	0xbdf754a8	-0.12076694
172	0xbe10b2b0	-0.14130664
173	0xbdf7c5e6	-0.12098293
174	0xbe8e5065	-0.2779571
175	0x3d587dd5	0.052854378
176	0xbe1f75c6	-0.15572271
177	0xbe83d0bc	-0.2574519
178	0xbd94c13c	-0.07263419
179	0xbe4dc43b	-0.20094387
180	0xbda88cee	-0.08230005
181	0x3e84b7df	0.25921533
182	0x3e4d28c8	0.20035088
183	0x3e0533e0	0.1300807
184	0x3df4d692	0.119549885
185	0x3e6f0967	0.2334343
186	0xbe5e26a2	-0.21694425
187	0xbd05a437	-0.03262731
188	0x3d9e5b0f	0.07732212
189	0x3e305798	0.17220914
190	0x3e721c8e	0.23643705
191	0x3ce3cc89	0.02780749
192	0xbc02e14b	-0.007988284
193	0xbd0cc785	-0.034369964
194	0x3daac9e0	0.08339286
195	0x3b66b1d4	0.0035201209
196	0x3e332de6	0.17497978
197	0xbd2e7db7	-0.04260036
198	0xbe3c3a9d	-0.18381734
199	0xbce31d5a	-0.027723957
200	0xbe0a6790	-0.13516068
201	0x3e1a4ffd	0.15069576
202	0x3e15479d	0.145781
203	0xbe55dc80	-0.20884895
204	0xbe46358d	-0.19356366
205	0xbe22c87c	-0.15896791
206	0xbe46e488	-0.19423115
207	0x3e0fec56	0.14054999
208	0x3e294aca	0.16532436
209	0x3df04ec5	0.11733774
210	0x3e2ab1fd	0.1666946
211	0x3da19489	0.07889659
212	0x3daab0be	0.08334492
213	0x3d643ebf	0.0557239
214	0xbbbed623	-0.005823867
215	0xbd8bac00	-0.06819916
216	0xbcc2fd56	-0.02380244
217	0x3e64f492	0.22358921
218	0x3e8f80ff	0.28028104
219	0x3e4ab9e7	0.19797479
220	0x3e2913fb	0.16511528
221	0xbdbabf59	-0.09118528
222	0x3e884c4b	0.26620707
223	0xbd4e246e	-0.05032771
224	0x3d96895a	0.073504165
225	0x3c33673c	0.010949906
226	0xbc7cc962	-0.015428873
227	0x3d9f64b6	0.07782881
228	0x3e4d6dbe	0.20061395
229	0xbda2c9c5	-0.07948641
230	0x3dfe538d	0.1241828
231	0x3e1c099b	0.15238039
232	0x3ba4eefb	0.0050333715
233	0x3e244e48	0.16045487
234	0xbe26cfea	-0.1629025
235	0xbe727521	-0.23677494
236	0xbdcd40a1	-0.100220926
237	0xbc457ec4	-0.012054149
238	0xbc9a4ce2	-0.018835489
239	0xbe21ddcf	-0.1580727
240	0x3e064cbf	0.13115214
241	0x3e679801	0.22616579
242	0x3e40019d	0.18750615
243	0xbef498a4	-0.47772706
244	0xbeec4cef	-0.46152446
245	0xbe71fadd	-0.23630853
246	0xbec338ad	-0.38129178
247	0xbe6045e2	-0.21901658
248	0xbec2b2e0	-0.38027096
249	0xbec2bb32	-0.38033444
250	0xbe609129	-0.21930374
251	0xbf001768	-0.50035715
252	0x3cfaf9e0	0.030636728
253	0x3e269f86	0.16271791
254	0x3dea1d81	0.11431409
255	0xbcff5349	-0.031167643

conv1.bias f4 [32]
0	0xbd42369c	-0.04741536
1	0xbd8d685a	-0.06904669
2	0xbdec8f58	-0.11550778
3	0x3e1b4594	0.1516326
4	0x3c614c1e	0.013751058
5	0xbdabe872	-0.08393945
6	0xbc11fcaf	-0.008910342
7	0x3dc72fba	0.097259
8	0x3daa946b	0.0832909
9	0x3d87710a	0.06613357
10	0x3b3db2bb	0.0028945643
11	0xbd2b4fdb	-0.041824203
12	0x3c82eb31	0.015981289
13	0x3d6a26cd	0.05716591
14	0xbe42e121	-0.19031192
15	0x3def922d	0.11697803
16	0xbbb8a6f5	-0.005635137
17	0xbe19754f	-0.14986156
18	0x3d26dca8	0.040737778
19	0xbe382624	-0.179833
20	0x3cdf43b0	0.027253956
21	0xbdd00a84	-0.10158256
22	0xbc559afb	-0.0130374385
23	0x3d784488	0.06061223
24	0xb9c69e18	-0.00037883292
25	0x3d320d92	0.043469973
26	0xbd6f4afb	-0.058421116
27	0xbdba54f1	-0.090982325
28	0x3d97a13c	0.074038
29	0x3b6686e4	0.0035175616
30	0x3c568f03	0.01309562
31	0x3d84dd67	0.06487542

conv2.weight f4 [32, 32, 3, 3]
0	0x3d308050	0.04309112
1	0xbc8ff816	-0.017574351
2	0xbc66f6a2	-0.014096888
3	0x3d3788a0	0.04480803
4	0xbdacd54f	-0.08439123
5	0x3c479e37	0.012183717
6	0xbd02638c	-0.031833217
7	0xbd36cab7	-0.044626918
8	0xbd5a1632	-0.053243823
9	0xbdedc246	-0.1160932
10	0x3ce9905f	0.028511224
11	0xbcdeeb15	-0.027211705
12	0xbcf9541b	-0.030435612
13	0xbd8831c2	-0.066501155
14	0xbd983c6f	-0.07433402
15	0xbdc8465f	-0.09779047
16	0xbd81d59c	-0.06339571
17	0xbdf18893	-0.117936276
18	0xbc662f4d	-0.014049363
19	0x3dbfa8d9	0.09358377
20	0x3d87949e	0.06620143
21	0xbd8c6ae8	-0.06856328
22	0x3b40ec81	0.0029437842
23	0xbd246f0a	-0.040144958
24	0xbd41f4db	-0.047352653
25	0xbdac4e18	-0.08413333
26	0xbd877653	-0.066143654
27	0xbc502a60	-0.0127054155
28	0x3c09a3fc	0.008400913
29	0xbc8cc18d	-0.017182136
30	0x3d23b3b5	0.039966304
31	0xbc63f5d4	-0.01391359
32	0xbc63fe8e	-0.013915671
33	0x3d7217dd	0.05910479
34	0xbd021db6	-0.031766616
35	0x3d88bb02	0.06676294
36	0x3e24ebc7	0.16105567
37	0x3c60cf4c	0.013721298
38	0xbe067e72	-0.13134173
39	0x3ddabdde	0.106807455
40	0xbb9a5791	-0.0047101458
41	0xbe1bb71a	-0.15206566
42	0x3d5032cc	0.050829694
43	0x3d59d6ae	0.05318325
44	0xbdc51b3b	-0.096243344
45	0x3e3d8b81	0.18510248
46	0x3e53521e	0.20636794
47	0x3e1547d7	0.14578186
48	0x3e0fc930	0.1404159
49	0x3e3777ab	0.17916743
50	0x3e227e78	0.15868556
51	0x3e7f1b6e	0.24912807
52	0x3e8f6403	0.2800599
53	0x3e7ec051	0.2487805
54	0xbd596868	-0.053078085
55	0xbd94c57a	-0.07264228
56	0x3dc76311	0.09735692
57	0xbda66c94	-0.081261784
58	0x3c3c0843	0.011476579
59	0x3e148a46	0.14505872
60	0xbdd4a723	-0.10383441
61	0xbb360a6d	-0.002777721
62	0x3ceba913	0.028767144
63	0x3d39ede3	0.045392882
64	0xbd7cb0ec	-0.061692163
65	0x3cf98245	0.030457625
66	0x3b93d8f6	0.0045119477
67	0xbc39bd14	-0.011336584
68	0xbcb0c987	-0.02158047
69	0x3dc27754	0.09495416
70	0xbceb5f61	-0.028732004
71	0x3d3e3d2a	0.04644505
72	0x3d352e18	0.04423341
73	0xbd2dbcf3	-0.042416524
74	0x3cbad073	0.022804474
75	0x3ddd353e	0.10801171
76	0x3d88bedc	0.066770285
77	0x3d8d0476	0.068856165
78	0x3c0ed505	0.00871778
79	0x3dc82ce9	0.09774191
80	0x3e07d070	0.13263106
81	0xbeadd0d1	-0.33948377
82	0xbe6a6206	-0.22888955
83	0xbe5ee70b	-0.21767823
84	0xbe8446dc	-0.2583531
85	0xbeb69af0	-0.35665083
86	0xbe8e2708	-0.27764153
87	0xbec69ea6	-0.38792914
88	0xbed763ae	-0.42068237
89	0xbeb8ece0	-0.3611822
90	0x3e9ca5d7	0.30595276
91	0x3eab8bc8	0.33505082
92	0x3eb31106	0.34973925
93	0x3e8c18d8	0.27362704
94	0x3ec9f18f	0.39442107
95	0x3e93cb41	0.28866008
96	0x3ecbf278	0.39833426
97	0x3efbbf68	0.4916947
98	0x3ee6ce31	0.45079187
99	0xba9eb5f2	-0.0012108667
100	0xbd7efaa8	-0.062250763
101	0x3d35e96d	0.044412065
102	0xbc876071	-0.016525479
103	0xbc90a50a	-0.017656822
104	0x3cbd8235	0.023133377
105	0x3d86aa88	0.06575495
106	0x3d63f66f	0.05565494
107	0x3ddfe965	0.10933188
108	0xbd0e4d08	-0.03474143
109	0x3da01295	0.07816044
110	0xbbfa453f	-0.0076376493
111	0x3d319be5	0.043361563
112	0x3d028510	0.03186518
113	0xbd117a26	-0.03551688
114	0xbd1417c8	-0.036155492
115	0x3d253e65	0.040342707
116	0x3cf0820d	0.029358888
117	0x3b0e14af	0.002167981
118	0x3d6c588a	0.057701625
119	0x3b455df2	0.003011581
120	0xbd866656	-0.06562488
121	0x3d75faa8	0.060053498
122	0xbc63204c	-0.013862681
123	0xbdde72e3	-0.10861757
124	0xbd818aff	-0.063253395
125	0xbd5bbf8f	-0.05364948
126	0x3ccf9472	0.025339339
127	0x3d49b9be	0.049249403
128	0x3d1db140	0.038499117
129	0x3cb8ffbf	0.022582887
130	0x3c50742a	0.012723008
131	0x3d83fe78	0.064450204
132	0x3c4538ff	0.012037515
133	0x3d8d1925	0.068895616
134	0xbd1060b0	-0.03524846
135	0x3d9bcd2e	0.07607494
136	0x3b49ac40	0.0030772835
137	0xbd817e5e	-0.06322931
138	0x3ca0806f	0.019592492
139	0x3c98b674	0.018641688
140	0x3c549038	0.012973838
141	0x3d28cd8a	0.041211642
142	0x3dc850c3	0.09781029
143	0x3d657ad3	0.056025337
144	0x3d672947	0.05643585
145	0x3d50fe64	0.051023856
146	0x3e085800	0.1331482
147	0x3ddc2248	0.10748726
148	0x3de7783d	0.113022305
149	0x3df13cef	0.117792
150	0x3e17be2d	0.1481864
151	0x3e6600d2	0.2246125
152	0x3e5f8df8	0.218315
153	0x3d4dd869	0.050255213
154	0x3d49774d	0.04918604
155	0x3d275154	0.040849045
156	0x3cdb1aa5	0.026746104
157	0x3b957ec3	0.0045622303
158	0xba4ef722	-0.0007895102
159	0xbda0afa9	-0.078460045
160	0xbd5ac6b5	-0.053412158
161	0xbd03de3a	-0.032194354
162	0x3bc031a0	0.0058652908
163	0xbd00f8ef	-0.0314874
164	0xbd990720	-0.07472062
165	0xbc67db85	-0.014151459
166	0xbd10e234	-0.035371974
167	0xbd099e4f	-0.03359824
168	0x3dc6b59f	0.0970261
169	0x3b7c8dea	0.0038536736
170	0xbb5ca2ba	-0.0033666329
171	0x3d94868b	0.072522245
172	0x3e435165	0.19074018
173	0x3e207fc6	0.15673742
174	0x3da8d64c	0.08243999
175	0x3e079e10	0.1324389
176	0x3e23ccaf	0.1599605
177	0x3e2db98f	0.16965316
178	0x3e3767c6	0.1791068
179	0x3e36bb40	0.17844868
180	0xbd52cce7	-0.05146494
181	0xbdbc8ca0	-0.092065096
182	0xbd85ca5f	-0.0653274
183	0xbd9e133a	-0.07718511
184	0xbdd63669	-0.10459597
185	0xbd9a2580	-0.07526684
186	0xbdfacc30	-0.12245977
187	0xbe0bdeaf	-0.13659166
188	0xbd8bdde9	-0.068294354
189	0xbd256a18	-0.040384382
190	0xbd09758b	-0.033559363
191	0xbc927c50	-0.017881542
192	0xbc5f739f	-0.013638406
193	0x3cb4ad3e	0.022055265
194	0xbde2ea94	-0.110798985
195	0xbc9aa0be	-0.018875476
196	0xbc4e0b0e	-0.012575878
197	0xbd915ece	-0.07098161
198	0x3d846185	0.06463913
199	0x3db7c528	0.089731514
200	0x3e54674e	0.20742533
201	0x3d98f4d4	0.07468572
202	0x3dcaeaee	0.099080905
203	0x3e12b19f	0.1432557
204	0x3e12f100	0.14349747
205	0x3df7d425	0.1210101
206	0x3e6b6f41	0.22991659
207	0xbd1bca27	-0.038034584
208	0xbd1d345c	-0.038380012
209	0x3d89df8c	0.06732091
210	0xbd9c3cc0	-0.07628775
211	0xbdc977c9	-0.098373
212	0x3dc78c2c	0.097435325
213	0x3ce3acbc	0.027792327
214	0x3cf227bd	0.029559964
215	0x3d5c9baa	0.05385939
216	0xbd9b6f88	-0.07589632
217	0x3c9ad625	0.01890094
218	0x3b8cb5ec	0.0042941477
219	0xbca2d163	-0.019875234
220	0x3cea5d49	0.028608935
221	0xbd8442f6	-0.06458084
222	0xbdd9f192	-0.10641779
223	0xbe1e911b	-0.15485041
224	0xbdf3e5b2	-0.11909045
225	0x3e9cfd4a	0.30661994
226	0x3e98a510	0.29813433
227	0x3eb02eaf	0.34410617
228	0x3ea5d9f5	0.3239285
229	0x3ed81a91	0.4220777
230	0x3eb0ae1a	0.3450783
231	0x3ec31dc4	0.38108647
232	0x3ee52329	0.44753388
233	0x3eda24be	0.42606157
234	0xbb03fd20	-0.0020139888
235	0xbc044d26	-0.008075034
236	0xbcef5e3a	-0.029219735
237	0x3d9b91ae	0.075961456
238	0x3ddb339f	0.10703205
239	0x3d6e7c98	0.05822429
240	0x3de54b98	0.11196059
241	0x3e2cf99c	0.16892093
242	0x3de0cd34	0.109766394
243	0x3dddd431	0.10831488
244	0x3e34a502	0.1764107
245	0x3e2637ab	0.16232173
246	0x3e2043f6	0.15650925
247	0x3e301678	0.17196071
248	0x3dc21d95	0.094782986
249	0x3df86c7a	0.12130065
250	0x3e255376	0.16145119
251	0x3e452da8	0.19255698
252	0xbe33497d	-0.17508502
253	0xbe529ea6	-0.20568332
254	0xbddbc332	-0.1073059
255	0xbda4ef00	-0.08053398

conv2.bias f4 [32]
0	0xbddcfc15	-0.10790268
1	0x3cc45ec0	0.023970962
2	0x3e11bfb3	0.14233284
3	0xbe123072	-0.14276293
4	0x3db61da5	0.08892373
5	0xbd07a7c3	-0.033118974
6	0xbd975f29	-0.07391197
7	0x3d029460	0.031879783
8	0x3dd939f6	0.10606758
9	0x3c4603cc	0.012085866
10	0xbd7a9c99	-0.0611845
11	0xbe994bc9	-0.29940632
12	0xbcbcb70b	-0.0230365
13	0xbe4f1bb5	-0.20225413
14	0x3e1f1d6f	0.15538572
15	0x3d83cb66	0.064352795
16	0x3e57d1a9	0.21076073
17	0x3dcbbd92	0.09948267
18	0xbe00a0de	-0.12561366
19	0xbdf938e6	-0.12169056
20	0x3df42e92	0.11922945
21	0xbe411891	-0.18857028
22	0xbdccce62	-0.10000302
23	0xbe00a4ff	-0.12562941
24	0xbd281ae6	-0.041041277
25	0x3d0d5fc0	0.034515142
26	0xbdc27b42	-0.09496166
27	0x3e251c64	0.16124111
28	0xbdc1ad99	-0.09456939
29	0x3dd259a6	0.10271005
30	0xba3ba6a2	-0.0007158314
31	0xbd5fab68	-0.054606825

conv3.weight f4 [32, 32, 3, 3]
0	0xbd8e1376	-0.06937306
1	0xbcf3c470	-0.029756755
2	0xbcc83a66	-0.024441909
3	0xbd09df9c	-0.033660516
4	0xbd22a922	-0.03971208
5	0x3d5b6fa3	0.053573262
6	0x3e1f6cda	0.15568867
7	0x3e253ef2	0.16137293
8	0x3e707a04	0.23484045
9	0x3d895ddc	0.067073554
10	0x3db43932	0.08799972
11	0xbd1b2623	-0.037878167
12	0xbd540c38	-0.051769465
13	0x3dc889b9	0.097918935
14	0x3cce6270	0.025193423
15	0xbe2992e7	-0.16559945
16	0x3c6ec3ca	0.014573047
17	0xbe04ddb1	-0.12975194
18	0x3dbc5992	0.09196772
19	0xbbb80832	-0.0056162113
20	0x3e5e07c4	0.2168265
21	0x3d558cd4	0.052136257
22	0xbdded9de	-0.108813986
23	0x3ce2f7f8	0.027706131
24	0x3e1a703c	0.15081877
25	0x3cc49184	0.023995169
26	0x3df9c82e	0.12196384
27	0xbd31c942	-0.043404825
28	0x3d44250f	0.047886904
29	0x3c953d6c	0.018217765
30	0x3bc80aeb	0.006104817
31	0xbbbe361e	-0.005804791
32	0x3e4d9728	0.20077193
33	0x3e54a2c7	0.2076522
34	0x3e9fdd3b	0.31223473
35	0x3eb7baad	0.3588461
36	0xbd18a4c6	-0.037266515
37	0x3d93ce3e	0.07217072
38	0xbdfe93c6	-0.12430529
39	0xbd5fd3ff	-0.054645535
40	0x3e0c7187	0.13715182
41	0xbd9a227c	-0.075261086
42	0xbdcfe82d	-0.10151706
43	0x3c958e28	0.018256262
44	0xbdc84a94	-0.0977985
45	0xbdfb9693	-0.12284579
46	0xbe51694b	-0.20450322
47	0xbde2fdc4	-0.11083558
48	0xbdd68fdf	-0.1047666
49	0xbe127873	-0.1430376
50	0xbe174b47	-0.1477481
51	0xbcf9199a	-0.030407716
52	0xbe1adabb	-0.15122502
53	0xbe477c2d	-0.19480963
54	0x3cdc66a2	0.026904408
55	0xbe14873f	-0.14504717
56	0xbc9b84bb	-0.01898419
57	0x3dc9ae2b	0.09847673
58	0xbca13d93	-0.019682681
59	0x3db037ce	0.08604394
60	0x3e7e3cfb	0.2482795
61	0x3eabc655	0.33549753
62	0x3e922dc6	0.28550547
63	0x3c8241ad	0.015900457
64	0xbca23aae	-0.019803371
65	0xbdf12c7b	-0.11776062
66	0xbdab2bdf	-0.08357977
67	0x3dd8810b	0.10571488
68	0xbd98a05c	-0.07452461
69	0xbe1a095b	-0.15042631
70	0xbda16233	-0.07880058
71	0xbe4875dd	-0.19576211
72	0xbd62e3d0	-0.05539304
73	0xbdd83f97	-0.10559004
74	0x3d54ad8c	0.05192332
75	0xbd087612	-0.033315726
76	0xbdf15f4a	-0.11785753
77	0xbe12b450	-0.14326596
78	0xba9fa4e6	-0.0012179881
79	0xbe126a35	-0.14298327
80	0xbd05a4fd	-0.03262805
81	0x3d6c09f8	0.057626694
82	0x3bd0c9f1	0.0063717295
83	0x3d8cbdf0	0.06872165
84	0x3d479cc9	0.048733506
85	0xbd25c6fa	-0.040472962
86	0x3e1ea17c	0.15491289
87	0x3eb62090	0.35571718
88	0x3e5b3149	0.2140552
89	0x3e983c19	0.2973335
90	0xbdc9aa79	-0.09846968
91	0x3be728bc	0.0070544165
92	0xbd1311cf	-0.035905655
93	0xbd41ee4e	-0.047346406
94	0x3db783f3	0.08960714
95	0xbdcbbc53	-0.09948029
96	0xbe9fc15f	-0.31202218
97	0xbe8760a4	-0.26440918
98	0xbe9d04c1	-0.3066769
99	0xbc69f4b8	-0.014279537
100	0xbc39ce21	-0.011340649
101	0x3dc54c70	0.0963372
102	0x3cb3c5eb	0.02194496
103	0xbd870416	-0.06592576
104	0x3d7123e2	0.05887211
105	0x3c729c09	0.0148077095
106	0xbd90ea15	-0.070758976
107	0x3dcd6dfe	0.10030745
108	0xbd2f00d6	-0.042725407
109	0x3d8e355c	0.06943771
110	0xbdbfcb3d	-0.093649365
111	0xbdba9ee3	-0.091123365
112	0x3def2bbf	0.11678266
113	0x3a3c0561	0.00071724324
114	0xbe25155c	-0.16121429
115	0xbe0390bd	-0.12848182
116	0xbe17b547	-0.14815246
117	0x3c31d4d2	0.010853963
118	0x3bb85cb2	0.0056262845
119	0xbd1fd664	-0.03902282
120	0xbc262189	-0.010139831
121	0x3e102c20	0.14079332
122	0x3b8e451c	0.0043417346
123	0xbbc3fcaf	-0.00598105
124	0x3b939fbb	0.0045051253
125	0xbd7a5afe	-0.061121933
126	0xbd6bf174	-0.057603315
127	0xbe21d0bd	-0.15802284
128	0x3d071ca1	0.032986287
129	0xbcd80c01	-0.026372911
130	0xbdd41527	-0.10355597
131	0xbde608fd	-0.11232183
132	0xbd2f50cf	-0.042801674
133	0xbdb748ab	-0.08949407
134	0x3cbc1e9b	0.022963813
135	0xbbe694eb	-0.0070367954
136	0x3d4babad	0.04972427
137	0x3d4d0942	0.050057657
138	0xb941577e	-0.00018438508
139	0x3e067f66	0.13134536
140	0x3d1d7c13	0.038448405
141	0xbe533fc0	-0.20629787
142	0xbe3d13ae	-0.18464538
143	0xbe3bd29a	-0.18342057
144	0xbd6f5c8b	-0.058437865
145	0x3ceadedc	0.02867072
146	0x3d8d731b	0.0690672
147	0xbae322dc	-0.0017329114
148	0xbd81b7de	-0.06333898
149	0x3e1e7b30	0.1547668
150	0xbd7973a8	-0.060901314
151	0xbe07c0cc	-0.1325714
152	0x3d1316f4	0.03591056
153	0xbbbf328c	-0.005834883
154	0xbdb5a3eb	-0.088691555
155	0x3d163e7f	0.036680695
156	0xbd5a3eab	-0.05328242
157	0xbda37aa0	-0.07982373
158	0xbdeaccc0	-0.11464834
159	0x3d485b79	0.04891536
160	0xbe056af4	-0.1302908
161	0xbba28bc9	-0.0049605113
162	0x3de634ec	0.11240563
163	0x3dfe65ff	0.12421798
164	0xbd31f059	-0.043442104
165	0x3dcffdae	0.101558074
166	0x3e68fe85	0.22753341
167	0x3e0cffed	0.13769503
168	0x3dcadfe9	0.09905989
169	0x3e969987	0.29414007
170	0x3e69d1d4	0.2283395
171	0x3dd4ce0f	0.10390865
172	0x3de8d029	0.113678284
173	0xbd93e9b9	-0.072223134
174	0x3db1b7e6	0.08677654
175	0x3e326ec3	0.17425065
176	0xbb267421	-0.0025398808
177	0xbe077110	-0.13226724
178	0x3ce9662f	0.028491108
179	0xbd829468	-0.063759625
180	0xbe4a91a2	-0.19782117
181	0xbe52014d	-0.20508309
182	0x3d412c27	0.047161248
183	0xbd9f7f20	-0.07787919
184	0xbe91eb95	-0.28500047
185	0xbe394eab	-0.18096416
186	0xbd0c1cf6	-0.034207307
187	0xbeb6373b	-0.35589013
188	0xbe88bd30	-0.2670684
189	0x3df65b6e	0.120291576
190	0x3e00bb4a	0.12571445
191	0xbc88415a	-0.016632725
192	0x3d624a9a	0.055246927
193	0x3dde3231	0.10849417
194	0x3ca74b54	0.020421661
195	0xbd15bd05	-0.036557216
196	0x3db497cf	0.08818018
197	0x3d4ec76f	0.050483163
198	0x3db75a13	0.08952727
199	0x3e39ffcd	0.18163987
200	0xbbf3d65e	-0.007441326
201	0xbd0a589a	-0.033775903
202	0x3e17bd36	0.14818272
203	0x3cc7b2fa	0.024377335
204	0x3ca3e7a5	0.020007918
205	0x3de452c2	0.11148597
206	0x3c5926f7	0.013253919
207	0x3deb7b03	0.11498072
208	0x3ddb06ba	0.10694642
209	0xbd88bfa0	-0.066771746
210	0x3ccd34f0	0.025049657
211	0x3e16db10	0.14732003
212	0x3db88281	0.09009267
213	0xbd45a2bf	-0.04825091
214	0x3dcfd2b6	0.10147612
215	0x3d227c77	0.03966948
216	0x3ce9bd4a	0.028532643
217	0xbd287389	-0.041125808
218	0x3d92376e	0.071394786
219	0x3d4206e6	0.04736986
220	0xbdd90c7d	-0.10598085
221	0x3d45500b	0.048172038
222	0x3e31cb4a	0.17362705
223	0x3e0b4f03	0.1360436
224	0x3e679ba4	0.22617966
225	0xbe5096f2	-0.20370081
226	0xbe687cb0	-0.22703815
227	0xbda030dc	-0.07821819
228	0xbd04f19c	-0.03245698
229	0xbdd58c6a	-0.104271725
230	0xbe0183a1	-0.12647869
231	0x3d2c3ad8	0.042048305
232	0xbe68dd4f	-0.22740673
233	0xbe2ca41a	-0.16859475
234	0x3e142e32	0.14470747
235	0x3dda34f9	0.10654635
236	0x3d297216	0.041368566
237	0x3e0064d5	0.12538464
238	0x3e2f565f	0.17122792
239	0x3d885856	0.06657474
240	0xbbce998d	-0.006304926
241	0x3df51fa0	0.119689226
242	0x3d9380d0	0.072023034
243	0x3d890308	0.06690031
244	0xbd02d52a	-0.03194157
245	0x3dc663cb	0.09687003
246	0x3d394e19	0.045240495
247	0xbdabfc78	-0.08397764
248	0x3b0e48a3	0.0021710775
249	0x3e0c224d	0.1368496
250	0x3da8996c	0.08232388
251	0x3d9ddb2f	0.077078216
252	0xbc457800	-0.012052536
253	0xbcc784ad	-0.024355257
254	0x3d48bb6b	0.04900686
255	0x3c7dc475	0.015488734

conv3.bias f4 [32]
0	0xbd0f9e22	-0.035062917
1	0x3de68698	0.112561405
2	0x3e03d7c0	0.12875271
3	0x3eb0eeba	0.34557134
4	0x3e70a2d1	0.2349961
5	0xbddb57c4	-0.10710099
6	0x3e28b3ad	0.16474791
7	0x3e30e2c3	0.17274003
8	0xbe5002c5	-0.20313556
9	0xbde9ab58	-0.11409634
10	0x3de7a1cf	0.113101594
11	0x3e1dfa9a	0.15427628
12	0xbe0ec92f	-0.13943933
13	0xbd9d7dad	-0.076899864
14	0xbc9f7362	-0.019464198
15	0x3df86a17	0.1212961
16	0x3d853227	0.065037064
17	0x3e16100f	0.14654563
18	0xbe3273ee	-0.17427036
19	0xbd398b81	-0.045299057
20	0xbcc55e1c	-0.024092726
21	0xbb9785f8	-0.0046241246
22	0xbeb21ae5	-0.34786144
23	0x3e82b1ad	0.2552618
24	0x3e4d68c0	0.2005949
25	0xbd587a78	-0.05285117
26	0x3d6b2ead	0.05741756
27	0x3cdae666	0.02672119
28	0xbd35d9d8	-0.044397205
29	0xbdc7b9b4	-0.09752217
30	0xbdb96301	-0.090520866
31	0x3e857c4c	0.26071393

conv4.weight f4 [32, 32, 3, 3]
0	0xbc2eead4	-0.010676105
1	0x3deed3a7	0.11661463
2	0xbde4eccf	-0.1117798
3	0x3dca157d	0.0986738
4	0x3d586443	0.052829992
5	0x3de72c22	0.112877145
6	0x3e0837d2	0.13302544
7	0x3dc45496	0.09586446
8	0xbd869893	-0.0657207
9	0xbc735908	-0.01485277
10	0xbde91209	-0.11380393
11	0xbd1d691c	-0.03843032
12	0xbe6bbb8b	-0.2302076
13	0xbe6788c8	-0.22610772
14	0xbc612611	-0.013741986
15	0xbdd96710	-0.10615361
16	0xbe10e079	-0.1414813
17	0xbce05169	-0.02738257
18	0xba564c83	-0.0008174853
19	0xbd5d2801	-0.05399323
20	0x3b0eb6bc	0.0021776399
21	0xbe56631d	-0.20936246
22	0xbe22db21	-0.15903904
23	0xbdce4735	-0.100721754
24	0xbde35f21	-0.11102129
25	0xbe8baf3b	-0.27282128
26	0xbdcbc64f	-0.09949934
27	0x3dad3849	0.08458001
28	0x3d16f358	0.036853164
29	0xbdad8191	-0.084719785
30	0xbcf662d0	-0.030076414
31	0xbe362339	-0.17786874
32	0xbdaac45c	-0.08338234
33	0xbdf607b8	-0.12013191
34	0xbd8b400c	-0.06799325
35	0xbd84b7af	-0.06480347
36	0x3d403f4d	0.04693537
37	0xbe06353b	-0.13106243
38	0x3c520b43	0.012820068
39	0xbe3e360b	-0.18575303
40	0xbe5d8a1c	-0.21634716
41	0x3c948082	0.018127684
42	0xbe2c4393	-0.16822653
43	0xbe6e4387	-0.23267947
44	0xbd91ccfb	-0.07119175
45	0xbdbd33f2	-0.092384234
46	0xbd35940a	-0.044330634
47	0x3dbc38bf	0.09190511
48	0x3e54c8e5	0.2077976
49	0x3e574965	0.21024092
50	0x3d93a8ad	0.07209907
51	0xbb0e1799	-0.0021681546
52	0x3e2957a2	0.16537336
53	0x3d684fc9	0.056716714
54	0xbe85c7d2	-0.26129013
55	0xbe847bc6	-0.25875682
56	0xbe24318a	-0.16034523
57	0xbe2d5e6a	-0.16930547
58	0xbd743ed5	-0.059630234
59	0xbe9b354c	-0.303141
60	0xbe67c715	-0.22634538
61	0xbe3e3104	-0.18573385
62	0xbe573f9f	-0.21020363
63	0x3e4736cb	0.19454496
64	0x3d1b29bf	0.03788161
65	0xbdd178c1	-0.1022811
66	0xbe2bd94b	-0.1678211
67	0xbe46e3f1	-0.1942289
68	0xbd437483	-0.047718536
69	0xbe0912ab	-0.13386028
70	0xbd97892a	-0.07399209
71	0xbd6c14c9	-0.05763701
72	0x3d6d4510	0.05792719
73	0xbd4a7c56	-0.049434982
74	0xbd7fc6fc	-0.062445626
75	0x3da2239a	0.07916947
76	0xbdbf6e08	-0.09347159
77	0xbdad4b90	-0.08461678
78	0x3de9218a	0.1138335
79	0xbcecd3e9	-0.02890964
80	0x3d812b7b	0.06307121
81	0xbe00cd4b	-0.12578313
82	0xbd94a692	-0.07258333
83	0x3dcf4cdb	0.10122081
84	0x3d63a776	0.055579625
85	0x3e082b98	0.1329788
86	0x3dfa16f6	0.12211411
87	0xbb7d8584	-0.0038684318
88	0xbd1ecc35	-0.038768966
89	0x3cf75d43	0.030195838
90	0x3cfa03f6	0.030519467
91	0x3e14a36e	0.14515468
92	0x3dcdf0aa	0.10055669
93	0xbe822cfa	-0.2542494
94	0xbe83d8b8	-0.2575128
95	0xbdfa7070	-0.12228477
96	0xbe472a3f	-0.1944971
97	0xbebcc9b5	-0.3687264
98	0xbe768f20	-0.24078035
99	0xbe1a8e17	-0.15093265
100	0xbc9564f7	-0.01823662
101	0x3e0bc909	0.13650908
102	0xbe7236e8	-0.23653758
103	0xbe5e915f	-0.21735142
104	0x3acb8d99	0.001552987
105	0xbddf61f5	-0.10907356
106	0xbe3516d1	-0.17684485
107	0x3de21db9	0.110408254
108	0xbd235c26	-0.0398828
109	0xbe660f29	-0.2246672
110	0xbe370945	-0.1787463
111	0x3e93532a	0.28774387
112	0x3dd2440c	0.10266885
113	0x3d72748e	0.059193186
114	0x3e41fe5d	0.18944688
115	0x3dd5d069	0.10440142
116	0x3cf3f724	0.029780932
117	0xbd97b336	-0.07407229
118	0xbd1a7700	-0.037711143
119	0x3e1c9ebf	0.15294932
120	0xbde1c683	-0.11024191
121	0xbdfcbf09	-0.123411246
122	0xbd785287	-0.06062558
123	0xbe523b44	-0.2053042
124	0xbd09d1e7	-0.033647444
125	0xbe27d011	-0.16387965
126	0xbd6fa03c	-0.05850242
127	0xbc7cc0f9	-0.015426868
128	0xbd885a9c	-0.06657907
129	0x3c30a793	0.01078214
130	0x3cac07e6	0.02099986
131	0xbce6c2e1	-0.028169097
132	0xbc99ae3a	-0.018759836
133	0x3d40c86c	0.047066137
134	0xbe208219	-0.15674628
135	0x3deed184	0.11661056
136	0x3e0fe9d0	0.14054036
137	0x3c906ca0	0.017629921
138	0xbddf62c9	-0.10907514
139	0x3d2b1d4a	0.04177598
140	0xbe601c95	-0.21885903
141	0xbcc09cda	-0.023512293
142	0xbe24a58c	-0.16078776
143	0x3d536482	0.051609524
144	0x3cda2371	0.026628228
145	0xbdb70f42	-0.08938457
146	0xbd8db615	-0.06919495
147	0xbe2c753b	-0.16841595
148	0xbe28cb66	-0.1648384
149	0xbe394709	-0.18093504
150	0xbe3947cf	-0.18093799
151	0xbddfb0d1	-0.10922397
152	0xbde8a46f	-0.11359488
153	0xbe1c0dc8	-0.15239632
154	0xbdcbcfff	-0.099517815
155	0x3d9bdd3a	0.07610555
156	0xbe294aaf	-0.16532396
157	0x3c1ae554	0.00945409
158	0x3e0340e8	0.12817729
159	0xbdcff3b8	-0.101539075
160	0xbdb7daf6	-0.0897731
161	0xbcb62bd9	-0.022237705
162	0x3d4297cc	0.047508046
163	0x3dc2e480	0.09516239
164	0xbaca7887	-0.0015447297
165	0x3e51501f	0.2044072
166	0x3e84fac7	0.25972578
167	0xbcff4a52	-0.031163368
168	0x3e50de47	0.20397292
169	0x3e660057	0.22461067
170	0x3dd9c7ed	0.10633836
171	0x3e097b80	0.13426018
172	0x3c25e4e7	0.010125375
173	0x3e4a93f9	0.1978301
174	0xbd6c6149	-0.057709966
175	0x3d89ffd5	0.06738249
176	0x3e348a60	0.17630911
177	0x3dfd89eb	0.123798214
178	0xbc3028e0	-0.010751933
179	0x3e6557b7	0.22396742
180	0xbe217416	-0.1576694
181	0xbe13179b	-0.14364474
182	0x3ddcafc2	0.10775711
183	0xbe6ea5b6	-0.23305401
184	0xbe6946b2	-0.22780874
185	0xbe1df53d	-0.15425582
186	0xbe6fa7ab	-0.23403804
187	0xbe44f169	-0.19232716
188	0xbd37647a	-0.044773556
189	0xbe0d5bda	-0.1380457
190	0xbcfed83d	-0.03110897
191	0xbdee6e78	-0.11642164
192	0xbd96a490	-0.073556066
193	0xbdaa374f	-0.083113305
194	0xbe6193b0	-0.22028995
195	0xbe4b6bc0	-0.19865322
196	0xbe03578c	-0.12826365
197	0xbe66506c	-0.22491616
198	0x3df7cefa	0.121000245
199	0x3dc54083	0.09631445
200	0xbd6772ed	-0.056506086
201	0x3dda8fbf	0.10671949
202	0x3c5cf641	0.013486446
203	0xbde1f416	-0.11032884
204	0x3dce9476	0.100869104
205	0x3daf03ca	0.085456446
206	0xbb4bf6df	-0.0031122488
207	0x3e1f6b28	0.1556822
208	0x3c1cca46	0.00956971
209	0xbd03cf9e	-0.03218042
210	0xbcaf85f2	-0.021426175
211	0xbe09a5d0	-0.13442159
212	0xbd869230	-0.06570852
213	0xbd989faf	-0.07452332
214	0xbd827bca	-0.06371267
215	0xbdfe0aa3	-0.124043725
216	0xbccf29a4	-0.02528841
217	0x3d55b7d5	0.05217727
218	0x3d00c493	0.031437468
219	0xbd8d2924	-0.068926126
220	0x3c6d3aa8	0.014479317
221	0x3d28bb4f	0.041194256
222	0x3c5dc4d0	0.013535693
223	0x3d154a8d	0.03644805
224	0x3db4062a	0.08790238
225	0xbdd133be	-0.10214947
226	0xbe436e99	-0.19085158
227	0xba780ecf	-0.0009462656
228	0xbe08c769	-0.13357319
229	0xbdee2ece	-0.11630021
230	0xbe1c3cee	-0.15257618
231	0xbe1b4af7	-0.15165316
232	0xbe3f754c	-0.18697089
233	0xbd317458	-0.043323845
234	0x3da3ec75	0.08004085
235	0xbca58577	-0.020205243
236	0x3db0b96a	0.08629115
237	0xbcaa106e	-0.020759787
238	0x3d9fd93d	0.07805107
239	0x3d658184	0.05603172
240	0x3ded4cd7	0.11586922
241	0x3dcb2245	0.09918646
242	0x3d98d84b	0.074631296
243	0x3d5bd473	0.053669404
244	0x3dc7a014	0.09747329
245	0xbe0c99a2	-0.13730481
246	0x3e17f8ce	0.14841005
247	0x3da4a4b0	0.08039224
248	0x3dc85b99	0.09783096
249	0x3e2edb57	0.17075859
250	0x3e2e022a	0.16993013
251	0xbb9e912e	-0.004839084
252	0xbdf89f60	-0.12139773
253	0xbcd369b2	-0.025807235
254	0xbdd82628	-0.10554153
255	0xbdcc572d	-0.09977565

conv4.bias f4 [32]
0	0xbc5bd17e	-0.013416646
1	0x3d802ae3	0.0625818
2	0x3da7601c	0.08172628
3	0x3e4bf63f	0.19918154
4	0xbe8deb75	-0.27718702
5	0x3e6cd39e	0.231276
6	0x3da1f002	0.07907106
7	0xbdb1c835	-0.086807646
8	0x3db49aea	0.0881861
9	0xbda21913	-0.07914939
10	0x3d5d4d39	0.054028723
11	0xbceb98ec	-0.028759442
12	0xbe72cb82	-0.23710445
13	0xbe0e68f0	-0.13907218
14	0x3e230223	0.15918784
15	0xbd282cdb	-0.041058403
16	0x3c7bba51	0.0153642455
17	0xbdc4ce2a	-0.09609635
18	0xbcce1e43	-0.025160914
19	0xbd1c7b37	-0.038203444
20	0x3dd7a707	0.10529905
21	0x3d7265e0	0.059179187
22	0x3e162592	0.1466277
23	0x3d97f28e	0.074193105
24	0x3df524a2	0.11969878
25	0xbdfe18ab	-0.12407049
26	0x3cffce88	0.031226411
27	0xb9c1c18a	-0.00036956026
28	0xbdf81559	-0.12113447
29	0xbe8d4f1e	-0.27599424
30	0x3e59c894	0.2126792
31	0xbe8edcf0	-0.27902937

conv5.weight f4 [16, 32, 3, 3]
0	0x3d538d8c	0.05164866
1	0xbd181ee9	-0.037138853
2	0xbe45c409	-0.19313063
3	0x3dad45e4	0.08460596
4	0xbd4997de	-0.049217097
5	0x3d8f751d	0.070047595
6	0x3d8bb268	0.06821138
7	0xbcac2c3a	-0.021017183
8	0xbe2531e2	-0.1613231
9	0x3dc1550b	0.09440049
10	0xbd9cccbb	-0.07656237
11	0xbd4e1d35	-0.050320823
12	0x3e8c9278	0.27455497
13	0x3e6980f6	0.22803101
14	0xbe1ad9cb	-0.15122144
15	0x3df3e449	0.11908776
16	0x3e476db5	0.19475444
17	0xbe46f9b4	-0.19431192
18	0xbd698c8b	-0.057018798
19	0x3cc21694	0.023692407
20	0xbe2fc647	-0.1716548
21	0xbdd764af	-0.10517251
22	0x3d970eca	0.07375868
23	0x3e2775c2	0.16353515
24	0x3d0fdb42	0.03512121
25	0x3e092a9f	0.13395165
26	0x3e5d4083	0.2160664
27	0xbddc1d71	-0.10747803
28	0xbd80a9f9	-0.0628242
29	0x3e6234ab	0.22090404
30	0xbdc95e06	-0.09832387
31	0xbd8c96f4	-0.068647295
32	0x3df0f35c	0.11765167
33	0xbe32a2ec	-0.17444962
34	0x3be19abd	0.0068849013
35	0x3dd945f9	0.10609049
36	0x3e399b18	0.1812557
37	0xbc7f7d5f	-0.015593856
38	0xbe2a10ef	-0.16608022
39	0x3dc50cc7	0.09621578
40	0xbd0ddb34	-0.034632877
41	0x3d5cc741	0.05390096
42	0x3dcd449c	0.10022852
43	0xbe3b6e5b	-0.18303816
44	0xbe5c5195	-0.21515496
45	0xbd7aef6f	-0.061263498
46	0x3de07056	0.109589264
47	0x3dab63b7	0.083686285
48	0x3d368f07	0.044569995
49	0xbe97056a	-0.29496318
50	0x3e856528	0.2605374
51	0x3d2ab89d	0.041679967
52	0xbe91e6e8	-0.2849648
53	0x3c94c84d	0.018161917
54	0x3e2aaad8	0.16666734
55	0xbe63525e	-0.2219939
56	0x3daec4d8	0.08533639
57	0x3de3eefb	0.11129566
58	0x3d403b7b	0.046931725
59	0xbe2f16b0	-0.17098498
60	0x3e7edf4e	0.24889871
61	0x3c6fffa8	0.014648356
62	0xbdb94109	-0.090456076
63	0x3e4aebee	0.19816563
64	0xbe701a19	-0.23447455
65	0xbcfe0318	-0.031007335
66	0x3e643b62	0.22288278
67	0xbd254e98	-0.040358156
68	0xbc44bdcc	-0.012008142
69	0x3e055d2a	0.1302382
70	0xbda1430f	-0.078741185
71	0xbe80234b	-0.25026926
72	0xbdae4c65	-0.08510665
73	0x3e7d1693	0.24715643
74	0xbd90b206	-0.07065205
75	0xbe08c3ab	-0.13355891
76	0x3da8a095	0.082337536
77	0x3d80463b	0.062633954
78	0xbd50de6f	-0.05099338
79	0x3c9b2d7b	0.018942585
80	0x3e1e95e5	0.15486868
81	0x3e757a08	0.23972332
82	0xbd9a18ea	-0.07524283
83	0xbd7d15c6	-0.061788343
84	0x3e7c1570	0.24617553
85	0x3d9f3a62	0.077748075
86	0xbd8532ce	-0.06503831
87	0xbd49a6f7	-0.049231496
88	0xbdcd7296	-0.10031621
89	0xbe91e57a	-0.2849539
90	0x3e140c61	0.14457847
91	0xbddf5383	-0.109046005
92	0x3ddfc7d6	0.109267876
93	0x3d00812f	0.0313732
94	0xbdfc3b1b	-0.12315961
95	0xbe0aa30a	-0.13538757
96	0x3e31cd6e	0.17363521
97	0x3d88e6c6	0.066846415
98	0xbd861f38	-0.06548923
99	0xbe460583	-0.1933804
100	0x3e25b65f	0.1618285
101	0x3e316c17	0.17326389
102	0xbdf0acec	-0.11751732
103	0xbc19767f	-0.009366631
104	0x3e2be077	0.16784845
105	0xbdd7c387	-0.10535341
106	0xbddad63d	-0.10685394
107	0x3de8ee8a	0.11373623
108	0xbe728630	-0.23684001
109	0x3e18820b	0.14893357
110	0x3dc7d248	0.09756905
111	0xbe635b7c	-0.22202867
112	0xbe0c2bec	-0.1368863
113	0x3d52547a	0.051350094
114	0xbe4f5992	-0.20249012
115	0xbe162b1f	-0.14664887
116	0x3e273dfb	0.16332237
117	0xbe1d94ed	-0.15388842
118	0xbda951bc	-0.08267543
119	0x3e54a79b	0.20767061
120	0xbd551de6	-0.052030466
121	0xbdd966e2	-0.106153265
122	0x3d600f51	0.054702107
123	0xbe35d2ba	-0.17756167
124	0xbe099963	-0.13437419
125	0x3de9bd73	0.11413088
126	0xbeae88d8	-0.34088778
127	0x3c07375c	0.008252945
128	0x3e826066	0.2546417
129	0xbe942ca0	-0.28940296
130	0xbe2cec7b	-0.16887085
131	0x3ded2cb2	0.115807906
132	0xbe1e086f	-0.15432905
133	0xbd8bc2ff	-0.06824302
134	0x3e228ba8	0.15873587
135	0x3e52db65	0.20591505
136	0xbd6ad986	-0.057336353
137	0xbd90c040	-0.07067919
138	0x3ccb42a7	0.024812056
139	0xbb8c583d	-0.0042829798
140	0xbd97d5cd	-0.07413826
141	0x3d8d945e	0.069130644
142	0xbdbc2ee8	-0.09188634
143	0xbe766d8c	-0.24065226
144	0xbce5f0f2	-0.028068993
145	0xbdf724a5	-0.12067536
146	0xba83a124	-0.001004253
147	0xbd1c3330	-0.038134754
148	0x3cdf768e	0.027278211
149	0x3c190d6a	0.009341577
150	0x3e5eeb0e	0.21769354
151	0x3e78f392	0.24311665
152	0xbdcec1cf	-0.1009556
153	0x3de1e1b0	0.110293746
154	0xbe02cea7	-0.12774144
155	0x3d8edfa8	0.06976253
156	0x3e358060	0.17724752
157	0xbd51ee53	-0.051252674
158	0x3d4d292d	0.050088096
159	0x3d9def01	0.07711602
160	0xbdb3afd5	-0.08773772
161	0xbe575dba	-0.21031848
162	0x3e4ad5ba	0.19808093
163	0x3da746f6	0.081678316
164	0xbd77ff63	-0.06054629
165	0x3e56f423	0.20991568
166	0xbdfa73e7	-0.12229138
167	0xbe4ec101	-0.20190813
168	0xbde77923	-0.11302402
169	0xbeab1cd6	-0.33420438
170	0xbeaa9f4e	-0.33324665
171	0xbeab1b3a	-0.3341921
172	0x3dd335cd	0.10312996
173	0xbdaa3efd	-0.08312795
174	0xbe8f177d	-0.27947608
175	0x3e1642ce	0.14673921
176	0x3e7d1189	0.2471372
177	0xbd66e558	-0.056371063
178	0x3e69a7a9	0.22817864
179	0x3ef51184	0.47864926
180	0x3e45a6b5	0.19301875
181	0xbe9783d0	-0.29592752
182	0x3cb4bbd3	0.022062218
183	0x3e8fef75	0.2811238
184	0xbd2adcbe	-0.041714422
185	0xbd903473	-0.07041254
186	0x3e0d7322	0.13813451
187	0x3d37572d	0.04476087
188	0xbe61d185	-0.22052582
189	0x3e2ade65	0.166864
190	0x3ba43ed9	0.005012375
191	0x3e094ee9	0.13409008
192	0x3def4a72	0.11684121
193	0x3d95f7f9	0.07322688
194	0x3c3aa35c	0.011391487
195	0x3e2481a7	0.16065083
196	0xbcc0fb04	-0.023557194
197	0xbe98b6f0	-0.2982707
198	0xbdfab0e1	-0.12240768
199	0xbcc75a7a	-0.024335135
200	0x3ded07f7	0.11573785
201	0xbdbea323	-0.093084596
202	0xbd884f19	-0.06655712
203	0x3cbb41e9	0.022858577
204	0xbd49ecc4	-0.049298063
205	0x3b03ab16	0.002009099
206	0x3e73fc87	0.238268
207	0xbe4c08a2	-0.19925168
208	0xbd909c36	-0.07061045
209	0x3d994db0	0.07485521
210	0xbdb44b36	-0.08803408
211	0x3cfe9df2	0.031081174
212	0x3eb1c06f	0.34717128
213	0xbe1500e4	-0.14551121
214	0x3d753f2d	0.059874702
215	0x3deaf912	0.11473288
216	0xbe1ad5c4	-0.15120608
217	0xbc3b8cfd	-0.011447188
218	0x3d430139	0.047608588
219	0xbe3eb08e	-0.18622038
220	0xbc8cc4fc	-0.017183773
221	0x3dd8c18f	0.10583793
222	0xbd6078af	-0.054802593
223	0x3e01f8b7	0.12692533
224	0x3ebf3c26	0.37350577
225	0x3e1c21c1	0.15247251
226	0x3e688993	0.2270873
227	0x3dcccf77	0.10000508
228	0xbe87acc3	-0.26498994
229	0x3e4cf5a5	0.20015581
230	0x3e122e80	0.14275551
231	0xbe965efa	-0.29369336
232	0x3db70d5a	0.089380935
233	0x3e0d8600	0.13820648
234	0x3dc4814a	0.095949724
235	0x3da062d2	0.078313485
236	0xbb2d495d	-0.0026441433
237	0x3ca417d3	0.020030892
238	0x3e4dd2fc	0.20100015
239	0x3d8b06f3	0.06788435
240	0xbe3a2fad	-0.1818225
241	0xbd88743e	-0.066627964
242	0x3e902d91	0.28159764
243	0xbd566e41	-0.05235124
244	0xbe942feb	-0.28942809
245	0x3da64763	0.08119085
246	0x3d75d396	0.060016237
247	0x3da158bd	0.078782536
248	0xbd7ed86e	-0.062218122
249	0x3e392794	0.18081504
250	0x3df6cf7b	0.120512925
251	0xbe2e1235	-0.16999133
252	0xbe533201	-0.20624544
253	0x3dac9a1c	0.084278315
254	0x3ec9952d	0.39371625
255	0xbe467cb7	-0.19383512

conv5.bias f4 [16]
0	0xbd5ec845	-0.05439021
1	0xbe28e1ec	-0.16492432
2	0x3dee4241	0.11633731
3	0xbe7fa9ba	-0.2496709
4	0x3e42c092	0.19018772
5	0x3e759285	0.23981674
6	0xbd646c69	-0.05576745
7	0xbd3aca3e	-0.04560303
8	0xbd308aa6	-0.043100975
9	0xbd989bfb	-0.07451626
10	0xbe4f1935	-0.2022446
11	0x3ea1df39	0.31615618
12	0x3db303b0	0.08740938
13	0xbda19de1	-0.07891441
14	0xbeb1eb44	-0.34749806
15	0xbe15807b	-0.14599793

fc1.weight f4 [128, 400]
0	0x3e059f1b	0.13048975
1	0xbd95e727	-0.073194794
2	0x3eee479f	0.46539018
3	0xbe4292dc	-0.19001335
4	0x3db12d3a	0.086512044
5	0x3e85ade6	0.26109236
6	0xbda77cc0	-0.08178091
7	0x3dd4d946	0.10393004
8	0xbd8fa490	-0.0701381
9	0x3edd145c	0.43179595
10	0xbe3d804f	-0.18505977
11	0xbe97823b	-0.29591545
12	0xbe6e9c93	-0.23301916
13	0x3dace10d	0.084413625
14	0xbe4079f9	-0.18796529
15	0x3dfd0299	0.12354011
16	0xbe0ab01d	-0.13543744
17	0xbc8cbaf0	-0.017178982
18	0x3de38792	0.11109842
19	0xbe79f6bf	-0.24410532
20	0x3e2a2e91	0.16619326
21	0x3e0ee784	0.13955504
22	0xbcfbffeb	-0.03076168
23	0xbea4bf7a	-0.32177335
24	0x3db13eca	0.08654554
25	0x3db2f0fa	0.08737369
26	0x3dcdc560	0.10047412
27	0x3e3a2c0d	0.18180867
28	0x3daa80bf	0.083253376
29	0xbcbc7f4a	-0.023009915
30	0xbe23a804	-0.15982062
31	0xbe981230	-0.29701376
32	0xbd714876	-0.058906995
33	0xbe0a08f5	-0.1347998
34	0xbd8b8a60	-0.06813502
35	0xbe29a387	-0.16566287
36	0xbe3274af	-0.17427324
37	0x3e03b69c	0.12862629
38	0x3e11a4e9	0.14223064
39	0xbdc2980b	-0.09501656
40	0x3d06fabc	0.032953963
41	0x3db26133	0.087099455
42	0xbd186e66	-0.03721466
43	0x3e5b3b14	0.21409255
44	0x3e49276a	0.19643942
45	0x3d813cb7	0.063104086
46	0xbd948182	-0.07251264
47	0xbe05fe05	-0.13085182
48	0x3dca161e	0.098675
49	0xbda2849b	-0.07935449
50	0x3de66748	0.11250168
51	0x3e3b93b7	0.18318067
52	0xbd8db02f	-0.0691837
53	0xbe7fab97	-0.249678
54	0x3dba0496	0.09082906
55	0x3dbf9a53	0.09355607
56	0xbe157d8d	-0.14598675
57	0xbd9ea724	-0.07746723
58	0x3adda4e3	0.0016910102
59	0x3da61406	0.08109288
60	0xbe293373	-0.16523533
61	0xbe01f188	-0.12689793
62	0x3e06ec79	0.13176145
63	0xbe09188b	-0.13388269
64	0x3e925ac7	0.28584883
65	0x3dd4a81c	0.10383627
66	0x3e3ea810	0.18618798
67	0x3e868a26	0.26277274
68	0x3d39c77c	0.04535626
69	0x3e48ad19	0.19597282
70	0x3e64d577	0.22347055
71	0xbc9ae720	-0.018909037
72	0x3e7889fd	0.24271388
73	0xbce5748e	-0.02800968
74	0x3e41b4cd	0.18916626
75	0x3ccd5f8f	0.02506998
76	0x3d15b48a	0.03654913
77	0x3d967b2b	0.07347711
78	0x3db2102b	0.0869449
79	0x3e6ace52	0.22930267
80	0xbe226588	-0.15859044
81	0xbdb101cd	-0.086429216
82	0xbdceaa25	-0.10091046
83	0xbcf73a19	-0.03017907
84	0xbd8453e7	-0.064613156
85	0xbe1a19fd	-0.15048976
86	0xbddcb1cd	-0.107761
87	0xbb7a5be3	-0.0038201741
88	0x3dc0bc28	0.09410888
89	0xbd1e4f36	-0.03864976
90	0x3e132309	0.14368834
91	0xbcc5a258	-0.024125263
92	0x3c31b0b8	0.010845356
93	0x3e3e12f1	0.18561913
94	0xbd13ef03	-0.03611661
95	0xbdb402e5	-0.087896146
96	0x3d1a66f2	0.037695833
97	0x3db41d5d	0.08794663
98	0x3e0777fa	0.13229361
99	0xbe2aacb2	-0.1666744
100	0x3a6ecb08	0.00091092335
101	0xbeb7897d	-0.35847083
102	0xbdbabdda	-0.091182426
103	0x3c0a5b67	0.008444644
104	0xbe2fefbd	-0.17181297
105	0xbe068e2b	-0.1314017
106	0xbe0fefae	-0.14056274
107	0xbe190a24	-0.14945275
108	0xbcc5afc6	-0.024131667
109	0x3e395948	0.18100464
110	0xbd0892f9	-0.03334329
111	0x3d5a66f4	0.05332084
112	0xbdd1fe8d	-0.1025363
113	0xbe041bcf	-0.12901233
114	0xbe13ba6e	-0.14426586
115	0x3dd6c0d1	0.104859956
116	0xbdb1a70e	-0.08674441
117	0xbda496d4	-0.08036581
118	0x3c796b96	0.015223404
119	0x3d829e9c	0.063779086
120	0x3da733b3	0.08164158
121	0x3da434fc	0.080179185
122	0xbd3c7960	-0.04601419
123	0xbd3d0b54	-0.04615338
124	0x3e6c9a96	0.23105845
125	0xbc59c414	-0.013291378
126	0x3c9456dd	0.018107826
127	0x3ded20aa	0.11578496
128	0x3e2dd800	0.16976929
129	0x3e6bf8e3	0.23044161
130	0x3d54c979	0.05194995
131	0xbd974773	-0.07386675
132	0xbe09af62	-0.1344581
133	0x3e389342	0.18024924
134	0xbe15a7a4	-0.14614731
135	0x3d2f9ce9	0.04287425
136	0xbdb13a11	-0.086536534
137	0x3b9dda02	0.0048172483
138	0x3e339c32	0.17540053
139	0xbe8392a0	-0.25697803
140	0xbd5de038	-0.05416891
141	0xbd483cb1	-0.048886005
142	0xbdff858c	-0.12476644
143	0x3e24a042	0.16076759
144	0xbd2c52cb	-0.042071145
145	0x3ba8b273	0.005148226
146	0x3e618853	0.2202466
147	0xbe135b66	-0.14390334
148	0x3ea1a760	0.3157301
149	0xbd8f089f	-0.06984066
150	0xbdc10df3	-0.09426489
151	0xbe045765	-0.12923963
152	0xbb5f9c05	-0.0034120094
153	0xbdf03ac6	-0.1172996
154	0xbd02c200	-0.031923294
155	0xbe3c25a9	-0.18373741
156	0xbba454f4	-0.00501501
157	0xbd898191	-0.06714166
158	0xbe038f7c	-0.12847704
159	0xbe1e12b5	-0.15436824
160	0xbe924f34	-0.28576052
161	0xbe8186f9	-0.25298288
162	0x3cf937d0	0.030422121
163	0xbb9c5c72	-0.0047717625
164	0x3e419863	0.18905787
165	0x3d1e27d7	0.038612213
166	0x3c0cf246	0.008602684
167	0x3bf15a5f	0.0073655094
168	0x3e8bde3f	0.27317998
169	0xbd989a39	-0.07451291
170	0x3e6a88a1	0.22903682
171	0xbe3a7729	-0.18209518
172	0x3c51111f	0.01276043
173	0x3d15ddc2	0.036588438
174	0x3da343a6	0.07971887
175	0x3ca3fb16	0.020017188
176	0x3db610b4	0.088899046
177	0x3de68008	0.11254889
178	0x3dcc545c	0.09977028
179	0x3de78081	0.11303807
180	0xbe02c494	-0.12770301
181	0x3e52dde9	0.20592465
182	0xbc638296	-0.013886115
183	0xbe0d016c	-0.13770074
184	0xbe98ffc6	-0.2988264
185	0x3958108c	0.0002060553
186	0xbe9a549a	-0.3014267
187	0x3e9c7f74	0.3056599
188	0x3b8b8a89	0.004258458
189	0x3d951cb5	0.07280866
190	0x3dd4d6f2	0.1039256
191	0xbd9c7264	-0.07639006
192	0x3e06158c	0.13094157
193	0xbd8f60d6	-0.07000892
194	0x3e2d08b9	0.16897859
195	0x3d747f64	0.0596918
196	0xbe7d217e	-0.24719808
197	0xbe0f5491	-0.13997103
198	0xbd04ee83	-0.032454025
199	0x3c748dba	0.014926368
200	0x3d8bd069	0.068268605
201	0xbd5a436a	-0.053286947
202	0xbd629034	-0.055313304
203	0xbdf14ff7	-0.1178283
204	0xbd00e18b	-0.031465095
205	0xbda2173f	-0.0791459
206	0xbe17eed8	-0.14837205
207	0xbded620e	-0.11590968
208	0xbe141e3c	-0.14464658
209	0x3e3d294e	0.18472788
210	0xbea36d90	-0.31919527
211	0xbe3af728	-0.18258345
212	0x3ca5443a	0.020174135
213	0xbe0e4ac1	-0.13895704
214	0x3dacad3e	0.08431481
215	0x3e52c0f1	0.20581414
216	0x3d97b86d	0.07408223
217	0xbcadb9f4	-0.021206833
218	0x3e28729e	0.16449973
219	0xbe6a95fe	-0.2290878
220	0x3d65afdc	0.056075916
221	0xbe4a24f0	-0.19740653
222	0x3b33ff52	0.0027465415
223	0xbd29e3b3	-0.041476917
224	0x3d2e19bb	0.042505007
225	0xbe145b3f	-0.14487933
226	0xbde56d9a	-0.112025455
227	0x3db985bc	0.09058711
228	0x3dab5f84	0.083678275
229	0xbe3e5283	-0.18586163
230	0x3deda112	0.11602987
231	0x3d89d897	0.06730764
232	0xbe606c72	-0.21916369
233	0x3e3a4284	0.18189436
234	0xbd31c6d0	-0.043402493
235	0xbda165ed	-0.07880769
236	0x3b659c5e	0.003503583
237	0xbd7fbe08	-0.062437087
238	0xbeb2e530	-0.3494048
239	0xbe031545	-0.12801082
240	0xba44a1c8	-0.0007500914
241	0xbe33c918	-0.1755718
242	0x3e80aa2d	0.25129834
243	0xbe09b7a2	-0.13448957
244	0x3ea661dd	0.3249654
245	0x3e2bd287	0.16779529
246	0xbe077c8d	-0.13231106
247	0x3e038e3d	0.12847228
248	0x3d65b9e2	0.056085475
249	0xbe14cb00	-0.14530563
250	0xbce974cc	-0.028498076
251	0x3dbef7df	0.093246214
252	0x3e240905	0.16019066
253	0x3eac88e3	0.33698186
254	0xbe379af2	-0.179302
255	0xbe5625e1	-0.20912887

fc1.bias f4 [128]
0	0xbdcc0ed8	-0.09963769
1	0xbe683717	-0.22677265
2	0xbe40acc0	-0.18815899
3	0xbdfe6ddf	-0.124233
4	0xbdc38ef4	-0.095487505
5	0x3cadf3de	0.021234449
6	0x3d040fcb	0.032241624
7	0xbe018ee5	-0.12652166
8	0xbdcce45c	-0.100044936
9	0xbe85674a	-0.26055366
10	0xbdd66d45	-0.1047006
11	0xbe09ec8a	-0.13469139
12	0x3bf158b0	0.0073653087
13	0x3cf15462	0.029459182
14	0xbd6aa5c6	-0.057287
15	0xbe3f74ab	-0.18696849
16	0xbde57874	-0.11204615
17	0xbd8dc673	-0.06922617
18	0x3e1f3ff9	0.15551747
19	0xbd97b818	-0.0740816
20	0xbd798d87	-0.060925987
21	0xbc8338b0	-0.016018242
22	0x3d069d05	0.03286459
23	0xbddf8a46	-0.109150454
24	0xbda932d6	-0.08261649
25	0x3e21bcc0	0.15794659
26	0xbcbbe854	-0.022937931
27	0xbdc0f729	-0.09422142
28	0xbdadac74	-0.084801584
29	0xb91225dc	-0.00013937749
30	0xbe4a6380	-0.19764519
31	0xbd571b17	-0.05251607
32	0xbe12eca1	-0.1434808
33	0xbdb39019	-0.08767719
34	0xbd53931b	-0.051653963
35	0xbbdf82fb	-0.006821034
36	0xbdebce9d	-0.11514018
37	0x3c447900	0.011991739
38	0x3cac2ced	0.021017516
39	0xbdf30193	-0.11865535
40	0xbe008cb7	-0.12553678
41	0xbea1e406	-0.3161928
42	0xbd55cd3e	-0.052197687
43	0xbd3f3c0c	-0.046688125
44	0xbe5ec167	-0.21753465
45	0x3cdfcdc5	0.027319798
46	0xbdbe6af9	-0.09297747
47	0xbdd3a914	-0.103349835
48	0xbd6eba47	-0.058283117
49	0x3c8c8f16	0.017158072
50	0xbc88011b	-0.01660209
51	0xbcbce4b5	-0.023058275
52	0xbe3290b6	-0.17438015
53	0xbcbcc862	-0.023044769
54	0xbdba2101	-0.09088326
55	0xbe0b495c	-0.13602203
56	0xbe8c091e	-0.27350706
57	0xbdb180cf	-0.086671464
58	0xbd550919	-0.05201063
59	0xbe118206	-0.14209756
60	0xbd734d1a	-0.0593997
61	0xbe1e3a4d	-0.15451927
62	0xbdabd9e1	-0.083911665
63	0xbd8c4b11	-0.06850255
64	0x3c265bb9	0.010153704
65	0xbdbe701d	-0.09298728
66	0xbce99ffa	-0.028518666
67	0x3cddd0c9	0.027077096
68	0xbdda15e1	-0.10648704
69	0x3d8a400d	0.06750498
70	0xbd0be3d6	-0.03415283
71	0xbe84629e	-0.2585649
72	0xbe83cd25	-0.2574245
73	0xbdba7569	-0.091044255
74	0xbd2cc5bc	-0.04218076
75	0xbcb5b02c	-0.022178732
76	0xbe0c2ee6	-0.13689765
77	0xbe283718	-0.16427267
78	0xbdac333e	-0.08408211
79	0xbd5e2503	-0.054234516
80	0xba0d2fe4	-0.00053858594
81	0xbdb53275	-0.088475145
82	0x3dc44b80	0.09584713
83	0xbda703c5	-0.08155016
84	0xbd44a0c7	-0.04800489
85	0xbdae135b	-0.084997855
86	0xbe6390e6	-0.22223243
87	0xbd8781c7	-0.0661655
88	0xbe254590	-0.16139817
89	0xbe38e0fb	-0.18054573
90	0xbcd93e11	-0.026518853
91	0x3e24d903	0.16098408
92	0xbd7d3d5c	-0.061826095
93	0xbb1b23d4	-0.0023672478
94	0x3d6e405c	0.058166847
95	0xbe0adf12	-0.13561657
96	0x3d6edbbe	0.05831503
97	0xbd9cda5f	-0.076588385
98	0xbc732fc2	-0.014842929
99	0xbde4b432	-0.11167182
100	0xbc8f2a36	-0.017476182
101	0xbe24ea07	-0.161049
102	0xbd44df2a	-0.04806439
103	0xbe0cf3a8	-0.13764822
104	0x3c96e103	0.01841784
105	0xbd60d043	-0.054886114
106	0xbe1dc5de	-0.15407512
107	0xbdba9763	-0.09110906
108	0xbdfe2d03	-0.12410929
109	0xbdce8713	-0.10084357
110	0xbcffafb9	-0.03121172
111	0xbd3e261b	-0.04642306
112	0xbc8a1d64	-0.016859718
113	0xbdde6b16	-0.10860269
114	0x3cf43e0c	0.029814743
115	0xbdc2a228	-0.09503585
116	0xbd84bf9b	-0.06481858
117	0xbe5d8be9	-0.21635403
118	0xbe7249c6	-0.23660955
119	0xbd467ed1	-0.048460785
120	0xbdfa136b	-0.12210735
121	0xbc73b77a	-0.014875287
122	0xbdd629f4	-0.10457221
123	0xbe1e85d2	-0.15480736
124	0xbd90173a	-0.0703568
125	0x3e414b9c	0.18876499
126	0xbdbddac1	-0.092702396
127	0xbd413697	-0.0471712
