Trained_Weights/STRIDE 2/150th.pth (torch, 344904 bytes, 14 tensors)

conv1.weight f4 [32, 3, 3, 3]
00000000: 0490 91bd 4c39 9abe 0f97 8dbe 69cc a43c
00000010: 9d7c d0be 9d8b 03be 1f8e b7be 2df4 58be
00000020: c0b1 cebe d1d8 853e 64c1 633e 90e2 1cbd
00000030: cca2 573e 7a54 b93e b255 1f3e 1585 9c3e
00000040: 156c 3e3e acbc 453e c46a b93e c6d1 9c3e
00000050: fb81 ea3e f147 b63e 19b7 963e e6a1 df3e
00000060: 983c 223e 542f ed3e 9c82 f53e 277b a5be
00000070: a348 a5bd bd6a 6cbe eaa4 983c f014 c9bd
00000080: eb5a 473d e260 8fbe c578 45be 07c3 91be
00000090: 7507 07bd 4c15 87bd bffe 9c3d d84f fdbd
000000a0: 70a0 9e3c 1aa4 193e ab45 473d a963 a93d
000000b0: fc5a 47be c6f0 bc3d 54aa e9bd 3b6e 35be
000000c0: 32de 28be 709d 67be e8a9 ee3d 4540 83be
000000d0: 38cc b8bd e7c1 223c d405 63bc 194b 3abe
000000e0: a665 cabe 0e2e bcbe 126c fabd b7da 8dbd
000000f0: a027 d8bd 2b22 9ebe 93e4 7cbe 0811 15be
00000100: 7562 f13d e605 50bd 73b7 ccbd b2d7 c1bd
00000110: 699a 133e 2041 00bd 5fa6 5a3d 9536 0cbe
00000120: 8976 d43c 3203 e23b 6dba 49be 3775 8fbe
00000130: 9e11 7ebe 6d99 ddbd cdb5 1cbe f3df 67be
00000140: 511b edbd cf90 a43e 845f 41ba 7e88 b33e
00000150: 547d 9f3e b358 753e c87e f93d edc0 543e
00000160: 9d07 6f3d 0721 833e 43f9 4d3e 8323 093d
00000170: a66f a63e 7f33 b13e ce4e 103e 4e6a a33e
00000180: 5dc8 a83e 60db e83d c1ac 943e 4ce2 febd
00000190: 085d 7e3a 23f1 4b3e e97b 6d3e 6dfd 623e
000001a0: e004 8e3e 5359 8f3e d350 c73d 63e9 593e
000001b0: bd17 843e 3385 783d e36a 123e 7ecd 27be
000001c0: d694 c03d 47d3 183d ec22 82bb 5f32 573d
000001d0: 12aa 16be c809 7f3e e5d4 c7bd 20d5 7fbd
000001e0: 88d8 3c3d 1bc7 173e 441a 9b3a 0be1 163d
000001f0: 7136 58bb 8d37 1dbe 7cac 283e bb10 16be
00000200: 591e 50be 7e88 453e 78d3 ffbc 94d2 60be
00000210: abef fe3d e98e 31be bb7d 65bd f209 323d
00000220: 433e 943e f026 283e addd 803e 9338 9b3d
00000230: 8cb1 173e fb55 c03e cd27 d63d dd08 a43e
00000240: 2de5 3f3c 362e cbbb c4ce e9bd ff33 07bd
00000250: 8724 aa3d 696e 153e 7b3e d63d 8ef0 183e
00000260: 8139 493e c455 873d b5c1 9bbe e057 d0bd
00000270: df8a 49be e98d 36be 266f a9bd 1a58 51bd
00000280: c96b b2bd c622 27bd 257e 97be cd8e 003d
00000290: 9af7 a6bc f179 0cbb 81e9 37bd 08a6 083e
000002a0: 84d1 9bbd 7a17 21bd 9ca8 173d 30ac 25be
000002b0: 7786 2fbe dfdf 19be e68b 9fbe 0829 f33c
000002c0: ab9f 36be 5b0e 99be cda4 d5bd d123 6cbe
000002d0: cf90 a0bd eb3c 8b3e 9cd4 5d3e b5c9 0a3e
000002e0: 145d 0a3e 07ad 813e 7b4a 62be b288 d4bc
000002f0: 4c65 b93d d208 523e 8da5 883e 35c3 3a3d
00000300: e229 933c 12dd 68bc 23d8 bb3d 9f69 e73b
00000310: 9c39 313e 3b2b 4cbd 578d 2dbe cc21 dabc
00000320: 10b5 0fbe b714 1f3e ba82 0b3e 9ead 65be
00000330: 8196 56be 5dc4 3fbe f981 66be d59f 3c3e
00000340: fd56 4d3e fae9 1c3e afeb 573e 863a e83d
00000350: 61e9 f03d ec89 bc3d 917b ad3c 10f8 28bd
00000360: fbb3 c5b9 a708 7c3e 93fb 9e3e 0789 503e
00000370: 0638 293e 8345 a9bd 827e 8f3e 3839 2ebd
00000380: c857 b63d f4af 50bc a6cf 12bd 2998 883d
00000390: 50b9 3c3e 3173 c5bd 469c ea3d 016a 1c3e
000003a0: 1610 5c3b 883f 293e 76d7 37be 5b26 7bbe
000003b0: efb9 cabd dd6d 1dbc 7510 3ebc 7de1 12be
000003c0: 1a32 1f3e 91c3 813e 8449 613e e2a4 0dbf
000003d0: 2bf9 07bf 031e 9dbe 0484 e2be 96e5 8abe
000003e0: cfc6 e1be e988 f1be 8df5 9bbe 0ed8 19bf
000003f0: 80bc 4c3d f37f 343e 5796 f13d 6948 93bc
-0.07107547 -0.3012184 -0.2765431 0.020117002 -0.40720072 -0.12846227 -0.35850617 -0.21186896
-0.40369987 0.2614198 0.22241741 -0.038302004 0.21058196 0.36197263 0.15560034 0.30570284
0.18595918 0.19310254 0.36214268 0.30628794 0.45802292 0.35601762 0.29436567 0.43678206
0.15843427 0.4632517 0.4795121 -0.3232052 -0.08070495 -0.23087592 0.018633325 -0.09818447
0.04867069 -0.28003603 -0.19284351 -0.28469107 -0.032966096 -0.06595859 0.076657765 -0.123687446
0.019363612 0.15004006 0.048650425 0.08270962 -0.19468302 0.092256114 -0.11409441 -0.17717831
-0.16491011 -0.22618651 0.11653501 -0.2563497 -0.09023327 0.009933925 -0.01385637 -0.1819271
-0.39530677 -0.36753887 -0.12227644 -0.06926482 -0.10554433 -0.30885443 -0.24696569 -0.14557278
0.11786357 -0.050786875 -0.09995928 -0.09464969 0.14414372 -0.031312108 0.05338132 -0.13692696
0.025935428 0.0068973536 -0.19700022 -0.28019115 -0.24811408 -0.10820279 -0.15303726 -0.22644024
-0.11577476 0.3214173 -0.00073765987 0.35065073 0.31150305 0.23959617 0.12182385 0.2077672
0.05835687 0.25611135 0.20114617 0.033481132 0.32507056 0.346096 0.14092562 0.31917042
0.32965365 0.113699675 0.2903805 -0.124455065 0.0009703194 0.19916205 0.23191799 0.22166987
0.27738094 0.27997836 0.09732213 0.21280436 0.2579936 0.060673904 0.14298587 -0.16386983
0.09403388 0.037310865 -0.003971448 0.052538272 -0.14713314 0.24906075 -0.09757403 -0.06245911
0.046104938 0.14822046 0.0011833389 0.03683571 -0.0032991434 -0.15353222 0.16472048 -0.1465482
-0.20324077 0.19290349 -0.031228766 -0.21955329 0.12448057 -0.17339672 -0.05602811 0.043466516
0.28953752 0.16421103 0.25169125 0.0757915 0.14813823 0.37565598 0.1045681 0.32038012
0.011712355 -0.006200577 -0.114163905 -0.03300857 0.08307748 0.145929 0.10461136 0.14935514
0.19650842 0.06608155 -0.30421224 -0.10173011 -0.19681881 -0.17827572 -0.08273153 -0.05110941
-0.08711965 -0.040804647 -0.29588428 0.031386185 -0.020381738 -0.0021434987 -0.04490042 0.13344586
-0.07608321 -0.03932903 0.037026033 -0.16178966 -0.17141138 -0.15026806 -0.31161422 0.029682651
-0.17834346 -0.29893765 -0.10431824 -0.23060538 -0.0784012 0.27194914 0.21663135 0.13553508
0.13512069 0.25327322 -0.22098725 -0.025944088 0.09052524 0.20511177 0.26688805 0.04559632
0.017964307 -0.0142128635 0.09172084 0.0070621516 0.17307132 -0.049845915 -0.16948448 -0.026627444
-0.14033914 0.15535246 0.13624087 -0.22429511 -0.2095585 -0.1872725 -0.22510518 0.18420346
0.20052715 0.1532363 0.21086 0.113392875 0.117632635 0.09205994 0.021177085 -0.041252196
-0.00037708864 0.24612676 0.3105131 0.20364772 0.16525277 -0.082652114 0.28026205 -0.042535037
0.08903462 -0.012737263 -0.03584256 0.06669647 0.18430066 -0.09641112 0.11455588 0.15274812
0.0033578924 0.16528141 -0.17953286 -0.2452635 -0.09898745 -0.009608713 -0.011600603 -0.1434383
0.15546456 0.25344518 0.220007 -0.55329716 -0.53114575 -0.3068696 -0.44241345 -0.27128285
-0.4409699 -0.47174767 -0.30460778 -0.600953 0.049984455 0.17626934 0.11796253 -0.017978864

conv1.bias f4 [32]
00000000: 8b5f 43bd 58cb c7bd fd87 19be 7c48 2c3e
00000010: 8ee2 b53c 4630 b2bd 956c 00bc 6ab0 9b3d
00000020: 5a5c ba3d 44e8 b63d 8eb0 a1bc 6849 6ebd
00000030: 0269 d23c e6ee 8c3d 1693 4cbe 5e92 0e3e
00000040: 5def b1bc c15d 1cbe ae1a 093d 847c 3dbe
00000050: 49e2 003d 6951 eabd 7e36 9cbc 06f5 b63c
00000060: a159 933b ec8a 993c 1be6 56bd 6f65 b8bd
00000070: 0b33 9c3d a709 0fbc 0627 713c 4bf1 8b3d
-0.04769854 -0.097555816 -0.14993282 0.16824526 0.022202756 -0.08700614 -0.007838388 0.07602008
0.09099646 0.0893102 -0.019737508 -0.058175474 0.025684837 0.06881504 -0.19977984 0.13923022
-0.021720583 -0.1527014 0.03347271 -0.1850453 0.031465802 -0.11441309 -0.019068953 0.022333633
0.0044967686 0.018743 -0.05246554 -0.09003722 0.07626923 -0.008730329 0.014718777 0.06833132

conv2.weight f4 [32, 32, 3, 3]
00000000: 94ad 753d 9785 873c 826b dd3c d6be 853d
00000010: 1fed 2dbd a317 793d 7430 b8bb c46f 393b
00000020: 9a9b d1bb c146 edbd d296 263c 13d4 87bd
00000030: 7402 11bd 3c3e ccbd ed68 00be 8234 e8bd
00000040: b8b8 c4bd d56c 24be eadb 8fbc 1279 633d
00000050: 3b36 ed3c e532 a7bd fc38 4cbd d348 c8bd
00000060: 4260 96bd ecb9 0cbe 7445 f2bd 37a7 a83b
00000070: 4ebd 6f3d 1fb8 ae3c df83 833d f758 4b3d
00000080: 959a 383d 96a1 bc3d 800a fb3c 20f0 003e
00000090: 346c 353e 7006 0bbd cf8c e7bd 5c72 f03d
000000a0: 8561 54bd 193a eebd 838b 773d ce94 f7ba
000000b0: a885 85bd bf88 763e a412 6c3e e6fa e53d
000000c0: 5f1f 463e 1f6f 463e d999 103e c75c 963e
000000d0: 0490 923e 3bfb 603e 864d 63bd 06ad 68bd
000000e0: 9c06 d33d 9ca4 a6bd d38f 133d 9cd3 213e
000000f0: f46a cbbd ff98 193d 8d80 373d 776c 243d
00000100: 4dbc 71bd 041d 4a3d 3071 313a 7e4a 1a3c
00000110: 2fb7 9b3c 9760 d23d 70a9 d137 9477 b03d
00000120: 8a01 6b3d d970 50bc 4804 663d 4782 fd3d
00000130: 1463 be3d 83dc c43d 2d30 d93c a861 b33d
00000140: 52cd 023e 4997 d1be 81b1 96be 45ed 84be
00000150: 72a2 afbe cc01 e2be 31bf aebe a2b9 f4be
00000160: 0014 fbbe 7634 d2be cc29 cf3e 1b17 dc3e
00000170: 0e5b b83e ead2 ca3e 6292 fc3e 182d a53e
00000180: 0408 083f c33e 123f e8c5 e73e 76da cd3c
00000190: 3127 8f3b 0463 c63d df06 203c 1331 433d
000001a0: 866a b63d 7516 d23d 243d e63d 2720 343e
000001b0: 3d33 92bd bc5f 2d3c 7538 83bd a6c1 933b
000001c0: 191f 21bd 468c ccbd e217 91bd 170b abbc
000001d0: 1cf4 07bd 23b8 913c edb6 6c3d e474 683b
000001e0: e720 50bd 41d4 913d ffd8 44bc 52bc c4bd
000001f0: 628b 08bd 8e1c 28bd 6c6d b33c 319d 4c3c
00000200: 0147 1b3a 319c 753c 32d6 3bbd 9d66 62bb
00000210: b9b4 8a3a 45e4 723c 10d9 c9bd f7ad c33d
00000220: 5bb9 7a3d 12cf 723c b68b 323d a17f a43d
00000230: 8aee bc3d 9624 943d 3804 0f3e 1fc3 e73d
00000240: 928e 1f3e bd5d 003e 9bbc 113e 4157 463e
00000250: a743 103e 216c bf3d f1f3 603e 3695 5f3e
00000260: bab9 203e d4e9 753d 6046 d73c 7c74 a63c
00000270: e0dd d53c 8c83 17bd 4260 44bd 18d3 b9bd
00000280: 5ea7 c5bd d4ec 96bd af4c 063d e42d fd3c
00000290: 2dc3 f7bc 3064 843c e249 123d 9aa4 ff3c
000002a0: 11f5 053e 5fc0 8a3d aa97 863d ce84 d33d
000002b0: d824 4d3e e933 f63d 0cbd de3d 0c9d 0f3e
000002c0: 19b4 0e3e 5c48 433e 4bcb 403e 0ca0 1d3e
000002d0: ebe8 9bbd 9ccd c9bd ea9e 40bd aabe c0bd
000002e0: a9e4 d2bd f8f0 63bd 43c2 09be 5c3a fcbd
000002f0: 1917 3abd aa5b 42bd f390 b0bd 6a2e 7cbd
00000300: 3a48 f9bc 0c43 22bd 9cba 31be b3b6 59bd
00000310: 4770 7dbd 824c f3bd 181c e83d 4544 033e
00000320: 7614 403e 091e ff3d 22ea 013e 99d2 033e
00000330: b59c 373e 9d8c 093e 3fdd 493e 79bd 8abd
00000340: b771 a1bd 9c79 413c edfa efbd 6905 eebd
00000350: b59d 7d3d 7ecd 8bbc 43d4 213d 9d30 143d
00000360: 3c88 d1bd 8f3b 323d c501 0d3d 406f 91bc
00000370: a675 9b3d e503 dcbc e647 debd f446 dcbd
00000380: fc0a 8abd d5ab c33e 0cf1 d23e 6b06 d23e
00000390: f0c6 e03e 7d26 0f3f 4296 e03e eeac 003f
000003a0: 6b5a 103f dc58 fb3e 228a ff3c ef61 7d3c
000003b0: 1a2e 46bd ae6b bb3d a59f c63d fbec 123c
000003c0: 797d e23d f43f 0e3e 818f 603d 0a80 173e
000003d0: 51c5 3d3e c85d 033e ee99 433e 88d1 333e
000003e0: fe0a 983d dc48 203e 5806 203e 828b 2f3e
000003f0: 7365 5abe 000a 5dbe 184b b1bd ee8c e1bd
0.05997999 0.016543193 0.027028803 0.0653054 -0.042462464 0.060813557 -0.0056210104 0.0028295377
-0.006396723 -0.11585761 0.010167794 -0.06632247 -0.03540273 -0.09972808 -0.12540026 -0.1133814
-0.09605545 -0.16057141 -0.017560918 0.055535384 0.028956523 -0.08164004 -0.049859032 -0.09779515
-0.073425785 -0.13742799 -0.118296534 0.0051468867 0.058530144 0.02132803 0.06421637 0.04964539
0.045069296 0.092105076 0.030644655 0.125916 0.17717057 -0.033941686 -0.11306154 0.11740562
-0.051850814 -0.11632175 0.060435783 -0.0018888952 -0.065196335 0.24075602 0.23053986 0.11229496
0.19347905 0.19378327 0.14121188 0.29367658 0.286255 0.21970837 -0.055493854 -0.056805633
0.10303995 -0.081368655 0.036025833 0.15803379 -0.09932509 0.037499424 0.04480033 0.040142503
-0.05901747 0.049344078 0.00067688804 0.009417174 0.019008247 0.10272329 2.4993642e-05 0.08616558
0.057374515 -0.0127222175 0.056156427 0.12378364 0.092962414 0.09612372 0.02651223 0.08758861
0.12773636 -0.40935734 -0.294323 -0.25962272 -0.34303623 -0.44141996 -0.34130242 -0.47797877
-0.49038696 -0.4105565 0.40461576 0.42986378 0.3600697 0.3961404 0.4933043 0.32260966
0.5313723 0.57127017 0.45268178 0.025128584 0.0043686857 0.096868545 0.009767263 0.047654223
0.089070365 0.102581896 0.112421304 0.1759039 -0.07138679 0.010581907 -0.06407253 0.0045091687
-0.039336298 -0.099876925 -0.070846334 -0.020879311 -0.033191785 0.017787999 0.05779164 0.0035470063
-0.050812628 0.07120562 -0.0120146265 -0.09606232 -0.03333605 -0.041042857 0.021902762 0.012488649
0.0005923361 0.014990852 -0.04585857 -0.0034546026 0.0010582424 0.0148249315 -0.098558545 0.095546655
0.061211925 0.014819877 0.04359027 0.08032156 0.09225185 0.07233541 0.13966453 0.11316513
0.1558173 0.12535758 0.14232104 0.19369222 0.14088307 0.09346796 0.21968056 0.21834263
0.15695849 0.06003745 0.026278675 0.020319216 0.026106775 -0.036990687 -0.04794336 -0.09073466
-0.096510634 -0.0736939 0.032787975 0.030905671 -0.030244434 0.016161054 0.03571499 0.031206418
0.13081767 0.06774973 0.065718964 0.10328065 0.20033586 0.1202162 0.108759016 0.14024752
0.1393589 0.19070572 0.1882755 0.15393084 -0.07612785 -0.0985367 -0.047026552 -0.09411366
-0.1029752 -0.055649728 -0.13453011 -0.12315819 -0.045432184 -0.0474507 -0.08621397 -0.0615677
-0.030429948 -0.039614722 -0.17356342 -0.05315275 -0.061874654 -0.11879827 0.113334835 0.12819012
0.18757805 0.124569006 0.12686971 0.12873305 0.17930873 0.13432546 0.19713305 -0.0677442
-0.078830175 0.011808779 -0.11717782 -0.11622126 0.06191798 -0.01706576 0.03950907 0.036179174
-0.10231063 0.04351383 0.034425516 -0.017753243 0.07590799 -0.026857326 -0.10853557 -0.10755721
-0.06740376 0.38217035 0.4119953 0.41020522 0.43901777 0.55918103 0.43864638 0.5026387
0.56387967 0.49091232 0.031193797 0.015465244 -0.04838381 0.09151398 0.096984185 0.008967633
0.11059088 0.13891584 0.054824356 0.14794937 0.18532301 0.12828743 0.19101688 0.17560399
0.074239716 0.15652794 0.1562742 0.17143062 -0.21327762 -0.21585846 -0.08656901 -0.11013208

conv2.bias f4 [32]
00000000: 8bbe 0abe aa16 d73c 2f6f 423e a620 15be
00000010: bb03 e93c ab86 51bd b5e0 a2bd 8167 c23c
00000020: cd89 143e e74a 093d d629 82bd 0650 bcbe
00000030: 4c70 41bc 9619 81be 93f2 713e c12b c83d
00000040: 09ac af3e f8b4 d53d eeb3 c3bd 6487 31be
00000050: e425 ea3d 4bcc 7abe 1f19 d7bd ee87 0abe
00000060: 860e 5fbd 0860 8f3c 0654 16be 2d6e 843e
00000070: ff75 18be 7a69 153d a2df 01bd b94a 26bd
-0.13549249 0.026255924 0.18987726 -0.14563236 0.028444162 -0.05115382 -0.07953016 0.023730995
0.14505692 0.033518698 -0.06355636 -0.36779803 -0.011806559 -0.25214833 0.23627691 0.097739704
0.3431094 0.10434908 -0.09555803 -0.17336804 0.11433008 -0.24491994 -0.10502838 -0.13528416
-0.05445721 0.017501846 -0.1468049 0.25865307 -0.14888762 0.036477543 -0.031707413 -0.040598605

conv3.weight f4 [32, 32, 3, 3]
00000000: 1995 21bd e57a a0bc 4eed 87bd 6c97 77bd
00000010: 56ae 7cbd c342 6e3c 9d13 653e 8861 3e3e
00000020: 6bda 863e 18c4 703d ab92 913d b12c 49bd
00000030: 9b72 29bd 564b 143e 82d8 623d a7d3 55be
00000040: 8e7e 1d3c b6db 26be 4682 103e 7658 a23d
00000050: a07c 893e 75ce a33d ecff c5bd 0b08 4d3d
00000060: c4c5 253e 059e 57bc 415e 073e 3787 263c
00000070: 6372 bd3d e04c 133c d227 3f3b 713b 71bd
00000080: 256b 253e 2a9b b83e ac00 d73e 6c2d d43e
00000090: a4e6 33bd 0cb2 553d c97e fbbd 7875 37bd
000000a0: 2d74 283e eff1 19bd bcaf 2bbe 154e 273b
000000b0: e307 06be 4951 2cbe 90ad 83be 8bfa 2bbe
000000c0: d4e4 c3bd 17b1 11be 8c27 5cbe e550 6ebc
000000d0: 693a 4fbe 86a3 76be dc73 5e3d a9ac 14be
000000e0: 72e4 21bd 9746 753d 2107 86bd db8e 4f3d
000000f0: 4ffc c23e 9ff6 bf3e 61d5 a03e 48e5 f3bb
00000100: ab74 c9bc 278e a8bd af5a 87bd fb4c 063e
00000110: 6125 56bd 0a56 35be 6137 a5bd ec63 6ebe
00000120: 92c5 80bd facc f4bd 68a4 453d 781a c5bc
00000130: 2204 0bbe d468 53be 848f 19bc 94cd 4fbe
00000140: e497 8bbd dc0d d13d e735 3b3d ce79 3b3d
00000150: 7b92 7b3b 728f e8bd 384e f93d b278 f53e
00000160: b732 8b3e d720 b13e 9a95 fabd 3c2d 06bc
00000170: 08d6 833c eb69 aabc c3ee 0f3e 0bc9 51bd
00000180: fb38 d5be bbd3 94be 70db bdbe 7281 78bc
00000190: 8d74 b1ba dc96 a83d 0212 b7bb b6a2 9cbd
000001a0: fa19 1c3d 64d3 253d 101d 9cbd 89df ae3d
000001b0: b580 28bd bcf5 3c3d cc9f afbd db35 b1bd
000001c0: 7cea 0c3e c808 5e3c 5814 6bbe 07a1 eebd
000001d0: 407d 31be cde9 323c 9641 34bb d0e4 2bbd
000001e0: 7aeb 9dbc bbdc 383e 2a81 be3c 966c 08bd
000001f0: 7ac8 d03c bc03 c1bd 1ffd 84bd adb2 24be
00000200: 140d f63c d1f3 18bd 2580 ffbd b734 18be
00000210: ea68 26bd 983a 08be 3c90 ef3c e872 acbc
00000220: 0ba2 393d f01c bf3d 6427 1f3d aed2 3c3e
00000230: 1fe5 a93d 74a8 96be 479b 63be 6fb2 64be
00000240: 44c2 43bd 4013 323c b08e ba3d b3f3 d2bc
00000250: 37a4 a9bd acf7 5b3e 7ca1 3fbe 9c2a 61be
00000260: 9cd3 213d c55a 0fbd ae3c f8bd 0658 cebb
00000270: d851 91bd 3bb7 eebd 56b6 3cbe 78ca 723d
00000280: 76d1 34be 1b5b 81bd 92ae 163e 5304 d73d
00000290: 0c17 16be fa69 b43d 41d8 4e3e 1e73 7c3d
000002a0: a7c6 e63d a764 bb3e 7b2a 753e cf7f fb3d
000002b0: 60a5 e73d abf6 78bd 7247 d83d 0c1a 543e
000002c0: 6646 5a3c 0f81 44be 7d66 b93c fbb6 d8bd
000002d0: 667d 6ebe 516e 4cbe 96f4 073e a286 9ebd
000002e0: 5a3d 8fbe 2cd4 ccbd c9bf 41bd 5c7e dabe
000002f0: 6267 89be ce12 0a3e d0b1 053e 3fcc 5cbc
00000300: 08a1 933d 187f 073e aab1 5f3d 256a 1cbd
00000310: dc97 023e a2f3 133d ec28 c73d dac1 4c3e
00000320: a23c a73b f72c 07bd 97ec 2e3e de64 b33d
00000330: 5b17 823c 3304 2b3e 9802 853d ad27 053e
00000340: 5057 063e c8a3 2bbd 9f3d f83c 8572 3f3e
00000350: 918e 1d3e 1e05 a9bd 98d9 053e 9418 6b3d
00000360: 9529 7c3d 0c4d b9bc 2505 153d 9717 bd3c
00000370: c357 fdbd e427 9a3c d842 753e 23d5 313e
00000380: 58ac 843e 8ce7 7cbe 2957 89be a194 09be
00000390: c789 1bbd c811 e1bd 988c 39be 08ba 933d
000003a0: 479c 61be 268b 34be 7245 273e 9fb7 ed3d
000003b0: 23a9 6b3d 6a34 033e 6ef8 403e 063e f63d
000003c0: a61d f2bb c3cf 273e f2aa c33d 36cc 473d
000003d0: 6299 b93c 4567 023e 23e1 863d e295 e9bd
000003e0: 9e7c 973c 34eb 5b3e dc9c 173d b323 e33d
000003f0: 4e67 933c fdbe 94bc 6268 a03c e208 7e3b
-0.03944883 -0.01958985 -0.06637059 -0.06044714 -0.061689697 0.014542284 0.22370763 0.18591893
0.26338515 0.05878076 0.07108053 -0.049114887 -0.041369062 0.14481863 0.05538226 -0.2088152
0.0096126925 -0.1629475 0.14112195 0.07927029 0.26852894 0.07998363 -0.09667954 0.0500565
0.16188723 -0.013160233 0.13219549 0.010164074 0.09250333 0.008990496 0.0029168022 -0.05889458
0.16154154 0.3605588 0.419927 0.41440904 -0.043921128 0.05217175 -0.12280042 -0.04478976
0.16450568 -0.03758424 -0.16766256 0.0025528718 -0.13088946 -0.16827883 -0.25718355 -0.16794793
-0.0956513 -0.1422771 -0.21499461 -0.014545654 -0.20237125 -0.24085817 0.05430971 -0.1451899
-0.039524503 0.059881773 -0.065443285 0.050673347 0.3808312 0.37492844 0.31412795 -0.007443104
-0.024591764 -0.082302384 -0.066090934 0.13115303 -0.05228174 -0.17708603 -0.08067203 -0.23280305
-0.062876835 -0.11953159 0.048252493 -0.024060473 -0.13575795 -0.20645458 -0.009372596 -0.20293266
-0.0681608 0.102077216 0.045705702 0.04577046 0.003838687 -0.11355485 0.12173122 0.47943646
0.2718713 0.34595367 -0.122355655 -0.008189496 0.016093269 -0.020802459 0.14055924 -0.05121712
-0.41645035 -0.29067788 -0.3708148 -0.015167581 -0.0013538763 0.08231899 -0.0055868635 -0.07648222
0.03811071 0.0404848 -0.07622731 0.0853873 -0.04113837 0.046132788 -0.08575401 -0.0865285
0.13761324 0.013551898 -0.2295698 -0.11651807 -0.17332935 0.01092 -0.0027504913 -0.04196626
-0.019277323 0.18052952 0.02325495 -0.03330668 0.02548622 -0.094245404 -0.064935915 -0.16083784
0.030035533 -0.037341896 -0.124756135 -0.14863859 -0.040627398 -0.13303602 0.029243581 -0.021050885
0.04532055 0.09331691 0.038855925 0.18439743 0.082956545 -0.29425395 -0.22227202 -0.22333692
-0.047792688 0.010868847 0.09109247 -0.02575097 -0.082832746 0.21481198 -0.18713945 -0.2198891
0.039508447 -0.034998674 -0.12120949 -0.0062971143 -0.070956886 -0.11656042 -0.1842893 0.05927512
-0.17658028 -0.06316205 0.14715031 0.10498872 -0.14657229 0.08809276 0.20199682 0.06163322
0.11268359 0.3660023 0.23941986 0.12280237 0.1131084 -0.060782116 0.10560502 0.20713061
0.013322448 -0.19189857 0.022631878 -0.10581776 -0.23290023 -0.19963957 0.13276896 -0.07740523
-0.27976495 -0.10001406 -0.04730204 -0.4267453 -0.26836687 0.13483736 0.13056111 -0.01347643
0.07208449 0.13232076 0.054612793 -0.038187165 0.12753242 0.03612102 0.09724602 0.19995824
0.0051036635 -0.033001866 0.1708244 0.08759473 0.015880277 0.1670082 0.06494635 0.13003416
0.13119245 -0.04190424 0.03030282 0.1869603 0.15386416 -0.08252929 0.13071287 0.057396486
0.061563093 -0.022619747 0.03638186 0.023082538 -0.12370255 0.01881785 0.2395128 0.17366461
0.25912738 -0.24697703 -0.2682431 -0.13435604 -0.03797319 -0.1098972 -0.18120039 0.07213217
-0.22032271 -0.17631206 0.16335085 0.116072886 0.05753435 0.12812963 0.18844768 0.12023549
-0.0073887883 0.16387849 0.095540896 0.048778735 0.022656146 0.12734707 0.0658591 -0.11405541
0.01849204 0.21476442 0.037014827 0.110907935 0.017993595 -0.018157477 0.019581024 0.0038762619

conv3.bias f4 [32]
00000000: b43e 36bd 636c 2e3e 8b73 ea3d 2b66 c93e
00000010: d091 863e 90fe eebd 1efd 693e 1838 4e3e
00000020: f91d 7bbe c988 20be 5e2a ca3d f0fe 213e
00000030: 1e58 29be 5ceb bfbd 840b bfbc 125f 073e
00000040: 552d 993d 2a1e 1c3e 66e9 56be c475 a9bd
00000050: bbec 45bd 343f 1f3c c32b dfbe 4afb 893e
00000060: 5452 9f3e 1492 b5bd d323 5b3c 93b1 503c
00000070: c807 98bc c6fb 10be 1a25 f7bd b72f 9b3e
-0.044493392 0.17033534 0.11447819 0.3933576 0.2628312 -0.11669648 0.22850463 0.20138586
-0.24523152 -0.1567718 0.09871362 0.15819907 -0.1653752 -0.09371063 -0.02332092 0.1321986
0.074793495 0.15245882 -0.20987472 -0.08274415 -0.048321467 0.009719659 -0.43588075 0.2694953
0.311175 -0.08865753 0.01337524 0.0127376495 -0.018558398 -0.14158544 -0.120676234 0.3030984

conv4.weight f4 [32, 32, 3, 3]
00000000: 8f0d 2ebd 4444 293e ab8a 0cbe 2474 363e
00000010: 92a9 173d 119e a93d 29c8 453e 8bbc af3d
00000020: 7733 13be 396c 933d 363b b2bd 6828 8bbd
00000030: 3bf1 8cbe 6edd 85be 8bd5 67bd 967a 19be
00000040: f981 6abe 8bbe 68bd c8b6 e53c 5645 24bc
00000050: 871f 113c 1c34 93be d357 4dbe 89e0 0bbe
00000060: b60b d8bd 7ea2 b2be b21d eabd 1096 073e
00000070: 575a 073e a6c3 75bd 1a8d 1cbd 226d 39be
00000080: 3bbe bdbd 0092 b0bd b135 97bd 4d3f 83bd
00000090: 0990 be3d 4d7d f8bd bd5c 2fbc 7955 7ebe
000000a0: 5dbe 8cbe 8e0a fbbc 9172 46be fecb a4be
000000b0: b6e6 dcbd 71a6 27be 0386 b6bd e863 e33d
000000c0: 4e2f 873e c3c9 853e 6265 de3d 346c c2bb
000000d0: 250e 4f3e ca68 8c3d 9e15 9cbe 52e4 96be
000000e0: 3874 11be 4bcc 91be 1419 27be 8d93 c1be
000000f0: fccf 78be 0081 2bbe 1153 2abe 8e4b 913e
00000100: 64bd a93d b26b bbbd 73e6 34be f3ec 4ebe
00000110: 2c9e 56bd 8f54 07be cad9 07be 1dfd 9fbd
00000120: 06a8 803c 8284 8cbd 6222 de3c 80a0 b13d
00000130: e099 d4bd b92b 0fbc ed37 fd3d 2d21 65bd
00000140: 39b5 0b3e 33b6 29be 1558 06be 826e 853d
00000150: 07f7 ce3d 5010 1c3e 6217 193e ad57 8dbc
00000160: 4081 8b3a cebb 693d af90 a83d c67a 4c3e
00000170: f12a 1e3e b112 d1be e05e cabe 236f 4fbe
00000180: 0608 a1be a08c f9be ba4a 7abe 93d0 a3bd
00000190: 4aa4 3cbd b3d6 4e3e 4f8d c1be d415 9bbe
000001a0: 7d0e 1dbd 55d3 0dbe 951a 19be 74c7 6d3e
000001b0: 060e 0abd 144f 6bbe 4160 7bbe 139e d73e
000001c0: 8fed 4b3e feb8 ae3d c888 b33e 0cb6 143e
000001d0: b075 0e3d dff7 13bd ff35 b1bd b225 163e
000001e0: 71a6 abbd 5abd 13be 48ad 8fbd 9202 94be
000001f0: 7780 8dbc 88fd 04be 5781 14be 7c71 7dbc
00000200: 563e 03bd 59c6 4eba e344 6dbc c244 e6bc
00000210: 5163 0d3c dc3e d13d 6086 30be 2e5d da3d
00000220: de27 b33d d13a 35bd a0c3 bdbd 45bb d23d
00000230: b2be 80be 7c93 a3bd 09c4 48be 4f8d ee3c
00000240: 109f 723d 367b bcbd 0504 4ebd 5238 3dbe
00000250: 27b2 35be 158d 31be 1981 65be 48f7 c2bd
00000260: 93a0 90bd c661 10be 5740 4fbd 270a 7d3c
00000270: 23ff 5dbe 76ca b8bc 9413 833d 2eba 2bbe
00000280: 0315 01be f2f2 aabd 1db6 0b3d f3d0 bb3d
00000290: 3c0e ba3c 67b6 733e 86b6 9f3e 0451 02bb
000002a0: ca8d 733e b1e6 983e 9f09 0f3e 234c 253e
000002b0: bba1 883d f352 323e 3334 3bbd 046a c83d
000002c0: 2db4 fc3d 4857 9e3d d96e 32bd 98b7 0c3e
000002d0: d0c0 2bbe a615 34be 8ec6 e93d b9d7 59be
000002e0: 0ec6 5ebe 953a 10be ed5d 8bbe eb30 2fbe
000002f0: b910 213d a1b7 1abe bda0 05bd f5fc d8bd
00000300: 1032 a7bd 7143 debd c807 40be e0fe 4fbe
00000310: ac45 efbd 2206 25be be56 ac3d 6854 983d
00000320: 4d5a 5fbd e3a3 013e 6454 073d db45 a7bd
00000330: 7e1c f43d a83f 053e 2386 593d a934 253e
00000340: eaa9 473d 4d84 c8bb aa50 8dbd 195e 2bbe
00000350: c2d9 a7bd 6cca 8dbd 52bd e9bd e114 11be
00000360: 1b3d 39bb fc8c 7f3d 7a36 7a3d f4ef edbd
00000370: b05e 07bc b019 ff3b ba8d 28bb 92d4 c5bb
00000380: 11a7 5d3d da98 d1bd 3e7f 47be ff5f bb3c
00000390: 3b86 c4bd a4fc bcbd 5478 06be 2062 32be
000003a0: 5add 2abe 5be7 453d 51aa e23d d7e3 833c
000003b0: 1792 ee3d c3b4 2bbd 4d37 b93d dd4b 5e3c
000003c0: 2c8a fb3d 70cf 8f3d 8895 b5bc afd1 5a3d
000003d0: 9e8f 153e 3264 efbd dbe2 ce3d b288 583d
000003e0: b6bf c63d 4d0f 823e 83d7 133e b1f6 8dbd
000003f0: e8e7 18be 93cd 65bd bada c4bd bc0b c0bd
-0.0424934 0.16529948 -0.13724773 0.17817742 0.03702695 0.08282102 0.19314636 0.085808836
-0.14375101 0.07198376 -0.087027 -0.06794816 -0.27527794 -0.261455 -0.056600135 -0.14988169
-0.22901143 -0.05682234 0.028041258 -0.010026297 0.008857614 -0.28750694 -0.20053034 -0.13659872
-0.10549109 -0.34889597 -0.11431445 0.13240838 0.13218056 -0.060001038 -0.038220502 -0.18108037
-0.09264799 -0.08621597 -0.07383288 -0.06408558 0.09304816 -0.12133274 -0.010703263 -0.24837293
-0.27488986 -0.030644681 -0.19379641 -0.32186884 -0.10786192 -0.16372086 -0.089122795 0.1110304
0.26403278 0.26130494 0.10859181 -0.005933309 0.2022024 0.068559244 -0.30485243 -0.2947107
-0.1420449 -0.28476176 -0.1631816 -0.37807885 -0.2429809 -0.16748428 -0.1663325 0.28377956
0.082880765 -0.091514006 -0.17666034 -0.20207576 -0.05239694 -0.1321585 -0.13266674 -0.078119494
0.01570512 -0.06861211 0.027116004 0.08673191 -0.10380912 -0.008738452 0.123641826 -0.055939842
0.1364335 -0.1657341 -0.13119538 0.06515218 0.101057105 0.15240598 0.14950326 -0.017253721
0.0010643378 0.05706387 0.08230721 0.1996871 0.15446068 -0.40834573 -0.3952551 -0.20257239
-0.31451434 -0.487401 -0.24442568 -0.07998767 -0.046055116 0.20199089 -0.37803122 -0.3029009
-0.038343895 -0.13850148 -0.14951546 0.23220617 -0.03370478 -0.22979385 -0.24548437 0.4211279
0.1991484 0.08531378 0.35065293 0.1452257 0.034780204 -0.03612506 -0.08652877 0.14662817
-0.083813556 -0.144277 -0.07015473 -0.2890821 -0.01727317 -0.1298734 -0.14502464 -0.015468951
-0.03204187 -0.00078878325 -0.014481756 -0.028108958 0.008629636 0.102170676 -0.1723876 0.10662304
0.087478384 -0.044245545 -0.09265828 0.10289625 -0.2514549 -0.07987115 -0.19606031 0.029120116
0.059233725 -0.09203188 -0.050296802 -0.18478516 -0.17743741 -0.17338975 -0.22412528 -0.095198214
-0.07061877 -0.14099798 -0.05059847 0.015444315 -0.21679358 -0.022557478 0.064002186 -0.1677024
-0.12605672 -0.083471194 0.034109224 0.09170713 0.022711866 0.2380005 0.31193942 -0.0019884715
0.23784557 0.29863504 0.13968514 0.16142325 0.06671473 0.17414455 -0.045704078 0.09785846
0.12339053 0.07731491 -0.043562744 0.1374191 -0.16772771 -0.17586383 0.114148244 -0.21273698
-0.2175524 -0.14084847 -0.27220097 -0.17108504 0.03932259 -0.15109111 -0.032623995 -0.10595123
-0.081638455 -0.10852707 -0.18752968 -0.20312071 -0.11683211 -0.1611562 0.08414982 0.07437974
-0.054529477 0.12660174 0.033039466 -0.08167621 0.11919497 0.13012564 0.05310644 0.1613337
0.048746027 -0.006119287 -0.06900151 -0.16735114 -0.08195831 -0.069233745 -0.11413063 -0.14168121
-0.0028265181 0.062390313 0.06108711 -0.11618033 -0.008262321 0.0077850446 -0.0025719241 -0.0060373032
0.054114405 -0.10234232 -0.19482133 0.022872923 -0.09595915 -0.09227875 -0.13131839 -0.17420244
-0.16686001 0.04831634 0.110676415 0.016099853 0.11648958 -0.041920435 0.09043751 0.013567892
0.122822136 0.070219874 -0.022166029 0.053422626 0.14605567 -0.116890326 0.10101863 0.052864738
0.09704535 0.254023 0.1443768 -0.06931818 -0.14932215 -0.056104254 -0.09612031 -0.09377238

conv4.bias f4 [32]
00000000: ef3f edbc 964b b63d 059e 573d aebb 603e
00000010: 6dbd a2be 9c50 8b3e a5ab 013e 703d 92bd
00000020: c535 033e 1f5b 11be c279 223e ada4 b5bd
00000030: eaab 99be 9d80 37be 1e69 803e b4de 04be
00000040: df01 b43c 880e 2dbe 3747 88bd 037d aebd
00000050: 702a e43d d69c ba3d 6e9c 103e b8a0 df3d
00000060: 2c18 3f3e d35f 4abe 4ef4 133e 05ee 9fbc
00000070: 30c9 0bbe fb7f c9be 2296 933e 8aec 92be
-0.02896115 0.089011356 0.052640934 0.21946594 -0.31785145 0.27209938 0.12663133 -0.071406245
0.1281348 -0.14194916 0.1586676 -0.088693 -0.30013973 -0.17920156 0.25080198 -0.1297558
0.021973548 -0.16900074 -0.06654208 -0.08519938 0.11140907 0.09111945 0.14122173 0.109193265
0.18661565 -0.19763117 0.14448664 -0.019522676 -0.13650966 -0.39355454 0.2882548 -0.2869609

conv5.weight f4 [16, 32, 3, 3]
00000000: 09e4 053c 9308 ffbc f5eb 3cbe 9ba1 b73d
00000010: 13ed c0bd c0ec 883d fcaa d93d f1de b6bd
00000020: 7b36 5ebe 1aa2 733d d7ac 1dbe 99eb 7ebd
00000030: 3858 a03e 7937 7e3e 273e 35be 8f91 073e
00000040: 10e7 8a3e e3ee 52be 2a82 62bd 7de9 b73b
00000050: 4750 41be 8271 fabd 12e8 803d 24aa 623e
00000060: 82fb 943d 4b51 d73d ce0b 723e 32f3 85bc
00000070: 095c 78bd 505d 3e3e 67e8 cbbd f5bc 02be
00000080: e5c3 d53d 486e 61be 0726 1c3c 1369 0c3e
00000090: 0e3c 523e 25c1 1f3d 71e3 17be 195e e63d
000000a0: f356 51bd 9044 0e3d 38c5 143e 8dfa 41be
000000b0: 37a5 7fbe 56b1 cebd 666d 3e3e c44d 763d
000000c0: 8195 983d 80c3 93be a803 6c3e 7f46 c93d
000000d0: 8d9f aebe abbe c63c 22bf 463e a08c 7fbe
000000e0: 76ab af3d 35ce e43d 7b1d 393c a936 6bbe
000000f0: 5a13 6d3e 60b4 8abc 289f fdbd 3de0 643e
00000100: 62b4 84be a2e8 97bc 662b 883e f052 5abd
00000110: 3e3f 823a 9bc3 083e b018 cebd c124 9cbe
00000120: 64d3 90bd 8694 8f3e 109a 98bc a16e e3bd
00000130: c2af 0b3e a938 1a3e 5605 21bb 101f 2e3d
00000140: 4eb5 463e b96c 863e 5c42 4bbd d02d 20bd
00000150: 9cdc 793e 9a84 e13d e8f7 9cbd a94c 8bbc
00000160: f877 00be b6c2 b0be 0035 0d3e 1f59 05be
00000170: bd88 e93d 861a e53c bd88 2cbe af7e 3ebe
00000180: 5eb1 023e fc9f b43d e875 96bd f5b5 4bbe
00000190: e120 533e f66f 503e 889d 21be 8f0e 40bd
000001a0: f44a 5e3e ffe9 03be 680f 13be 9739 003e
000001b0: 7722 81be f81a 3a3e 17c0 563d 4a0c 74be
000001c0: ee0e 4ebe 2fce 9d3d c511 58be 77e8 15be
000001d0: 16c4 5c3e 989d d4bd e744 0bbe 07df 1a3e
000001e0: c144 61bd a8c3 16be 3f86 a33c 6157 53be
000001f0: 4ce7 05be f18b 093e c39d a9be 6fdb 643d
00000200: f558 783e 4b3e 9cbe 10ad 3ebe 5f19 053e
00000210: c73a 40be d185 19bd 1509 5a3e 5fa7 5c3e
00000220: 876b 3abd 8e7f 1abd fa0d a83c f122 d6bc
00000230: 34f0 f5bd 6134 063e e796 20be 2207 b0be
00000240: ca4d 32bd 4976 2bbe 4945 06bc 1342 88bd
00000250: 84b3 0fbc 464e 18bd 9ff7 443e c23d 803e
00000260: 84eb 1dbe ef9d ba3d ef88 b3bd ec1d f23d
00000270: 8faf 4f3e 49b4 42bd 73fd 023d 0429 db3d
00000280: 79bd 38bd e07d 80be e1c4 823e f9d2 1f3e
00000290: a29c cdbd b1cc 873e 332a bebd 535c 55be
000002a0: 314d aabd 5f6e 9dbe dc84 d2be 215a c8be
000002b0: 35ad e53d 49d4 70bd 533f b4be 226e 2b3e
000002c0: fe84 a53e 95a2 c6bd d6b4 8e3e 2ed7 193f
000002d0: 054b 833e 5b93 bebe d6c3 293c 254b b23e
000002e0: 1dc4 26bd ee3a b0bd a93e c33d 68eb 23bb
000002f0: a347 64be 3729 493e 9608 5abb c698 1c3e
00000300: 4d1a 253e 6fd0 d53d 74a0 a33b cbf9 113e
00000310: b56d e13b 6dba 96be 2fc4 f4bd 0117 b9bd
00000320: 02df 923d bb5e e1bd 84a1 4ebd ba76 853d
00000330: 28dd b9bd e64a a0bb 7f0b 983e d5e4 5abe
00000340: 2f47 91bd 2635 743d 9d2c 05be dfdd f5bb
00000350: dccd d03e 6251 24be 6993 383d d2a8 f43d
00000360: ad63 20be ae4f 52bd 770b 813d be0d 6dbe
00000370: 2bb6 84bd 768c 103e e701 7dbd 7dd6 133e
00000380: d02c da3e cb83 383e a60b 473e 38ac d53d
00000390: 9e1c 91be b053 5a3e 87eb 283e 480f b9be
000003a0: 87fd d83d bd8a 423e 1758 043e 57e5 7e3d
000003b0: 011e 703d 5f6a 533d bb2d 833e c555 ee3d
000003c0: d841 17be 90df c2bd b4f1 ad3e d33c a3bd
000003d0: a358 aabe 7fe9 0e3e 1dcd b73d 9c3d 1c3d
000003e0: d1ae f2bd 25d6 1f3e 9d22 263e 819a 2ebe
000003f0: 6253 65be 1111 de3d c1db d23e 7553 5cbe
0.008172044 -0.031132018 -0.18449385 0.08966371 -0.09420218 0.066857815 0.10628316 -0.089292414
-0.2170047 0.059480764 -0.15397964 -0.062236402 0.31317306 0.24825849 -0.1769949 0.1323912
0.27129412 -0.2059894 -0.055299915 0.005612551 -0.1887828 -0.12228681 0.06294264 0.22135216
0.07274534 0.10513552 0.23637316 -0.016351316 -0.060634647 0.18590283 -0.099564366 -0.12767394
0.104377545 -0.22014725 0.009530551 0.13711958 0.20530722 0.039002556 -0.14832856 0.112484165
-0.05110831 0.034733355 0.14528358 -0.18943234 -0.24965368 -0.10092418 0.1859642 0.060132757
0.074503906 -0.28860092 0.2304827 0.09827899 -0.34106103 0.02426084 0.19408849 -0.24955988
0.085776255 0.11172143 0.011298533 -0.2297007 0.23151913 -0.016931713 -0.12383872 0.22351165
-0.2591887 -0.018543545 0.2659561 -0.05330175 0.000993706 0.13355868 -0.100633025 -0.3049679
-0.070715696 0.28043002 -0.01862815 -0.11105085 0.13641265 0.15060677 -0.002456983 0.042510092
0.194051 0.26254824 -0.049623832 -0.03910619 0.24400562 0.1101162 -0.07664472 -0.017004328
-0.12545764 -0.34523553 0.13789749 -0.13022278 0.11403034 0.027966749 -0.16849037 -0.18603013
0.12762973 0.08819577 -0.073467076 -0.1989363 0.20618011 0.2035521 -0.1578275 -0.046888884
0.2170828 -0.12882231 -0.14361346 0.12521969 -0.25221607 0.1817435 0.052429285 -0.23832813
-0.20122883 0.07705342 -0.21100529 -0.1463946 0.21559176 -0.10381621 -0.13600503 0.1512414
-0.05499721 -0.14723074 0.019961474 -0.20638801 -0.13076514 0.1343229 -0.33128175 0.05587333
0.24252684 -0.30516276 -0.18620706 0.1299796 -0.18772422 -0.037481133 0.21292527 0.21548222
-0.045512702 -0.037719302 0.020514477 -0.026139708 -0.12008706 0.13105918 -0.15682565 -0.34380442
-0.043531217 -0.16744341 -0.00819523 -0.06653228 -0.008770827 -0.037184022 0.19235085 0.25047117
-0.15421873 0.09112155 -0.087663524 0.118221134 0.20281814 -0.047535215 0.03197999 0.107011825
-0.04510257 -0.25096035 0.25540832 0.15607823 -0.10039641 0.26523355 -0.092853926 -0.20836
-0.08315504 -0.3074827 -0.4111699 -0.39131263 0.11214677 -0.0587962 -0.35204563 0.16741231
0.32328027 -0.09698979 0.27872342 0.60093963 0.25643173 -0.37221798 0.010361632 0.34822956
-0.040714372 -0.0860499 0.09533436 -0.002501214 -0.22292952 0.19644628 -0.0033269278 0.15292653
0.16123314 0.10440146 0.0049934927 0.14255445 0.006879533 -0.29439107 -0.119514816 -0.09037591
0.071714416 -0.110043965 -0.050447002 0.06516786 -0.09075385 -0.004891741 0.2969627 -0.21376355
-0.07093655 0.059621 -0.130053 -0.0075032557 0.40782058 -0.1604667 0.045062456 0.119462624
-0.15663023 -0.05134552 0.06301015 -0.23149773 -0.06480058 0.14116082 -0.061769392 0.1443729
0.42612314 0.18019025 0.19438037 0.10433239 -0.28342146 0.21320987 0.16496097 -0.3614447
0.105952315 0.18998237 0.12924229 0.062230434 0.058622364 0.051615115 0.25620827 0.11637453
-0.14771211 -0.095152974 0.33973467 -0.07970586 -0.3327075 0.13956259 0.08974669 0.038144693
-0.1184975 0.15609033 0.16224141 -0.17051126 -0.2239509 0.10843099 0.41183284 -0.21516211

conv5.bias f4 [16]
00000000: 6265 56bd 3725 30be 6459 2f3e e947 b1be
00000010: 767a 463e 82ba b33e 7bd3 2abd d070 c4bd
00000020: 3eba c9bd 29ca a1bd ca3b 42be 730c b33e
00000030: b76f d93b 07ba bcbd 78ea d7be f3e3 27be
-0.05234278 -0.17201696 0.17123944 -0.34625176 0.19382653 0.35103232 -0.04170559 -0.0959183
-0.09849976 -0.07899887 -0.1896812 0.34970436 0.006635632 -0.092151694 -0.42171073 -0.1639555

fc1.weight f4 [128, 400]
00000000: 5d45 153e d4f6 f0bd 2fe2 063f 52c3 21be
00000010: cdc0 01bd 38c6 5f3e 8780 e0bd 6217 b93d
00000020: e17b e7b8 27d4 9b3e a3ce a5be 8a27 bdbe
00000030: df01 58be 723b fb3d 4fa9 35be 6837 3a3e
00000040: c298 52be 65ce e13b 2fdd 043e 3b0d 8bbe
00000050: 412f 403e eac2 363e 919a 143d e773 a1be
00000060: 93d8 1b3e 5ff1 943d 1515 0d3e 0f51 5e3e
00000070: 2640 083e c975 f9bc fc4a 13be efd2 a1be
00000080: d680 d5bc 985b 26be c590 8abd 5ef7 f7bd
00000090: 827f 21be 4434 213e 994b 1d3e b037 aebd
000000a0: 5d29 3a3c 890e 123e 3b77 4ebd 8b14 193e
000000b0: f778 7b3e 7fb6 d43d fbae c1bd fde0 34be
000000c0: 7160 09bd 86cc d4bd ffb7 8b3d 4443 813e
000000d0: d8d3 27bd 51ed 3abe 5508 4a3e 938c 803d
000000e0: 5933 fcbd d6d4 bebb 2fd8 5fbc c843 e13d
000000f0: 935c 1fbe 2918 f2bc ed3f 393e 5a16 f3bd
00000100: 5555 ac3e 378b 4a3e c870 3e3e 781d 913e
00000110: a5a6 caba 37ed 7e3e 6bed 923e 75bd c4bd
00000120: 0786 a93e 82c0 e6bd 3caf 873e 747f f53c
00000130: b7c5 7f3d a3aa 043e be51 0f3e 0be6 6b3e
00000140: 60da 21be 2174 1b3d b1a3 05be b94d 0fbc
00000150: 2b7e 33be 5ea1 25be 82aa 9dbd 97f2 553d
00000160: c5c4 1f3e 3e79 4fbc 000c 2c3e 52c9 fe3a
00000170: f0a0 afba d9ee 7c3d f630 65bd 5aff bbbd
00000180: 5aad a13d 9052 bf3d 215b e33d 78db 4bbe
00000190: ce32 1b3d c152 05bf 4872 1fbe c818 663c
000001a0: 0cf4 69be b474 81be 9296 b9bd 4a0e e8bd
000001b0: 6350 5e3d 6e28 5a3e 2ae4 c8bd cd88 22bd
000001c0: c06b e9bd 0ca5 4dbe 3d7d 09be 5a34 2a3e
000001d0: 13b6 1abd 079a f5bd df9a 1c3d 251b 0b3e
000001e0: 8872 143d 4779 5c3d 133f 28bd 26c7 febc
000001f0: ecb7 933e 4595 05bb 470d 693d f50a df3d
00000200: 68d9 eb3d 80f4 3f3e 7542 b03c 6013 0bbe
00000210: 27e0 14be 7cff 2a3e e385 8fbe 06df 0f3d
00000220: 4689 02be d8bf 0fbd 7687 463e ad36 8dbe
00000230: 5843 04be 77a8 ccbb 1962 aebd 4f05 823e
00000240: 0a43 b8bd 516f 3fbd 7a79 713e 48dd 0dbe
00000250: e99e c33e eca3 b7bd ac69 03be 7546 0dbe
00000260: d159 c8bc 8156 8cbd 2a5a 203c a62d 15be
00000270: 3323 2dbd 9419 d9bd 69f2 f2bd ad3e 40be
00000280: 15ea 93be 246b 94be 5cc0 403d 80b3 e03c
00000290: d967 1a3e f4dc 823d badd 0cbd 890a 94bc
000002a0: c975 853e ff35 92bd 4043 a23e 0b8b 3bbe
000002b0: 5be7 e83c 2de4 83bc f0f2 f63d 5420 a13d
000002c0: 38ec 683e acba 013e e77b 123e 0687 0e3e
000002d0: e4fd 05be ce40 853e 8b6b 97bc ba1f 52be
000002e0: 58e7 c8be c494 f53d 6af4 7bbe 0616 e43e
000002f0: 668f 683d 7865 bb3d 348a f63d 820e 00be
00000300: 46fb 313e 5c7b d6bd 2d3c 073e 400c 163e
00000310: 6cbc 75be 5af8 76be 0bf6 0abe 9359 8aba
00000320: 85aa e53d 418c ddbd 8c04 aebd 104f b2bd
00000330: 0ecd 65bc 7116 dcbd 3a29 afbd 6512 f1bd
00000340: 7095 08be c093 683e d78c bdbe f865 4cbe
00000350: 3f6f 813d d08a 80bd f65d 983d 7604 833e
00000360: c456 f03c 69ef 553a c71b c33d 6935 28be
00000370: 7afa f23d 183e 82be 14c9 f73c f781 b0bd
00000380: bff9 d63d 28c0 21be 7475 edbd 1600 c63d
00000390: 6190 fa3d aade 3ebe 48d5 103e ca54 883c
000003a0: 0483 93be 84d7 4f3e 070e 7bbd ca88 dcbd
000003b0: ca2c 65bd 956a 13be af8f e6be dff3 1cbe
000003c0: 164f 0cbd cfd9 0fbe 96cc 9e3e bf67 efbd
000003d0: b53d b43e 72e7 8b3e 73a9 52be 854a e63d
000003e0: 0ca9 323d 98b3 d0bd 669f d6bc c4d0 543e
000003f0: 0ff9 323e 6602 b03e 5f5d 86be 412d 54be
0.14577241 -0.11765829 0.5268888 -0.15797165 -0.03167801 0.21852958 -0.10962015 0.09037663
-0.000110380126 0.30435297 -0.32384214 -0.36944228 -0.21094464 0.12267198 -0.17740367 0.18185198
-0.20566085 0.006891059 0.12975 -0.27158532 0.18768026 0.17847791 0.03628022 -0.3153374
0.15219335 0.072726004 0.13777573 0.21710609 0.1330572 -0.030451672 -0.14384073 -0.31606242
-0.02606241 -0.16245878 -0.06765894 -0.121077284 -0.15771297 0.15742594 0.1536087 -0.08506715
0.011362401 0.14263357 -0.050406676 0.14949243 0.24557863 0.10386371 -0.09457203 -0.17663951
-0.03353924 -0.10390572 0.06822204 0.25246632 -0.040973514 -0.18254592 0.19729741 0.062768124
-0.12314481 -0.005823712 -0.013662382 0.10999256 -0.15562658 -0.029552536 0.18090792 -0.118694976
0.33658853 0.19779669 0.1859771 0.28342795 -0.0015461041 0.24895178 0.2869676 -0.096064486
0.33110067 -0.11267187 0.2650088 0.029968001 0.062444415 0.12955718 0.13996026 0.23036973
-0.1580596 0.037952546 -0.13050725 -0.008746558 -0.17528598 -0.16174838 -0.076985374 0.052233305
0.15602405 -0.012663184 0.16801453 0.001943866 -0.0013399404 0.06175122 -0.055954896 -0.09179564
0.07894392 0.093419194 0.11101366 -0.1990794 0.037890248 -0.520794 -0.15570939 0.014043994
-0.22847003 -0.2528435 -0.09061922 -0.113308504 0.05427588 0.21304485 -0.09809144 -0.039681245
-0.11397505 -0.20082492 -0.13426681 0.16621533 -0.037771296 -0.11992269 0.038233634 0.13584574
0.036242038 0.053826597 -0.041075777 -0.03110082 0.2885126 -0.002038316 0.056897428 0.10890762
0.11516076 0.18745613 0.021516064 -0.1358161 -0.14538632 0.16699022 -0.28031835 0.0351248
-0.12747678 -0.035095066 0.19387612 -0.27580777 -0.12916315 -0.0062456685 -0.085148044 0.25394675
-0.08997162 -0.04673702 0.23581496 -0.13853943 0.38207176 -0.089668125 -0.1283328 -0.13796408
-0.02445689 -0.06852437 0.009787122 -0.14568195 -0.042269897 -0.10600582 -0.11862642 -0.18773909
-0.28889528 -0.28987992 0.04705845 0.027429342 0.15078677 0.063898 -0.034391142 -0.01807143
0.26066425 -0.07139205 0.31691933 -0.1831476 0.028430631 -0.016100014 0.120580554 0.07867494
0.2274636 0.12668866 0.14305077 0.13918695 -0.13085133 0.26026005 -0.018483898 -0.20519915
-0.39239 0.119912654 -0.24604955 0.44548053 0.05677738 0.09150213 0.12038079 -0.12505534
0.1738101 -0.10472748 0.13206549 0.1465311 -0.23997658 -0.24118176 -0.1357042 -0.001055526
0.11214165 -0.10817767 -0.08496961 -0.08706486 -0.01402594 -0.10746468 -0.08552785 -0.117710866
-0.13338256 0.22712612 -0.37021515 -0.19960773 0.06320047 -0.062764764 0.074397966 0.2558934
0.029338248 0.000816098 0.095267825 -0.16426624 0.11864181 -0.25438 0.030247249 -0.08618539
0.10496854 -0.15795958 -0.11594668 0.09667985 0.12234569 -0.18639627 0.1414386 0.016641993
-0.28810894 0.20297056 -0.061292674 -0.10768278 -0.055950917 -0.14396127 -0.45031497 -0.15327404
-0.03425511 -0.14047931 0.31015462 -0.1168971 0.3520333 0.27325016 -0.20572452 0.11244682
0.043618247 -0.10190505 -0.026199054 0.20782763 0.17477821 0.3437683 -0.26243111 -0.20720388

fc1.bias f4 [128]
00000000: b8ba 0dbe bcd8 7cbe 8e92 52be 4b51 26be
00000010: 5ec5 16be f7cd 173d 9460 f53c dd13 22be
00000020: 8e63 1ebe c6be 9ebe f441 14be 358a 37be
00000030: 91a0 36bd 1107 d0bc d1c0 fcbd 9fba 58be
00000040: 2c47 25be e2e7 08be e0b0 133e ea35 0dbe
00000050: f76b e2bd a591 54bd 108f fe38 2255 29be
00000060: 80b2 55bd 40ae 1c3e 2c85 9dbd 6d00 c1bd
00000070: 9d1a 09be 1e92 3cbd c86a 9fbe 0131 80bd
00000080: c040 1cbe 95de f8bd 97a3 75bd e963 ebbc
00000090: a538 26be 1784 9b3b 5d33 35bd 68b8 11be
000000a0: 5720 15be 9565 d6be 3ecd d6bd 9fe3 0cbd
000000b0: 1226 92be 03a1 e9bc ce07 ecbd 66d7 19be
000000c0: 601f a5bd 6f5e 67bd eafc 87bd 169a fbbb
000000d0: 07a7 86be 36b8 42bd ea8f 12be d3d8 47be
000000e0: e080 93be 2875 c1bd a88b aabd 9a1a 36be
000000f0: 4099 87bd 8084 3ebe 7821 f6bd 26e1 dbbd
00000100: a4fb ebba 99eb 15be aea9 57bd 3b43 48bd
00000110: d2b0 29be bdb6 923d 8e64 86bd b264 9cbe
00000120: 43ad 99be 1815 24be de87 a2bd e8cb 8e39
00000130: 96db 30be 0ca7 62be 0491 06be e915 56bd
00000140: 8c07 59bb ec8b 03be a525 a33d fb7b 22be
00000150: 62d3 c0bd 3d48 fcbd f907 91be 723f f9bd
00000160: a7c6 74be 8873 48be fea2 85bd 35bf 453e
00000170: 79df babd 8d9d e3bd 6302 253c 84a0 15be
00000180: 63b3 bf3c fdef afbd 12ef 85bd c53b 1ebe
00000190: fc55 1cbc 8dc5 50be 5dc0 5dbd bc8e 54be
000001a0: dcca 34bd ce69 a6bd 5bc5 2fbe af93 aabd
000001b0: cb5f 04be 5e1a 15be d185 e2bd 517e b0bd
000001c0: ba83 95bd fe50 f9bd bc5b 0d3d ce18 d4bd
000001d0: a0ec ecbd f921 5fbe f0a6 9abe 330a a5bd
000001e0: eea3 36be 52d3 2b3d 5d0b 3dbe 556f 3cbe
000001f0: de27 f2bd 8358 193e cf96 1fbe 904f 5cbd
-0.13840759 -0.24692053 -0.20563719 -0.16241948 -0.14723727 0.037061658 0.029953279 -0.1582789
-0.15467665 -0.31004924 -0.14478284 -0.17923816 -0.04458672 -0.025393995 -0.12341464 -0.2116494
-0.16140431 -0.13369706 0.14422941 -0.13790098 -0.11055749 -0.05189671 0.00012138311 -0.16536382
-0.052172184 0.15300846 -0.07691416 -0.09423909 -0.13389058 -0.046037786 -0.31136155 -0.06259347
-0.15259075 -0.12151829 -0.059970465 -0.028734164 -0.16232546 0.004745971 -0.044238437 -0.14230502
-0.14563118 -0.41874376 -0.104883656 -0.034396764 -0.2854467 -0.02851916 -0.11524926 -0.15023574
-0.08062625 -0.056486543 -0.066400364 -0.0076782806 -0.26299307 -0.04753896 -0.14312711 -0.19516306
-0.2880926 -0.09446174 -0.083274186 -0.17783585 -0.06621027 -0.18605232 -0.120181024 -0.10736303
-0.0018004072 -0.14640655 -0.052652054 -0.04889224 -0.16571358 0.07163761 -0.06562148 -0.30545574
-0.30015 -0.16023672 -0.07936071 0.00027236273 -0.17271265 -0.22134036 -0.13141257 -0.05226699
-0.003311607 -0.12846345 0.079661645 -0.15867607 -0.09415318 -0.12318466 -0.28326395 -0.12170304
-0.23903905 -0.19575322 -0.06525229 0.19311221 -0.09124655 -0.11114035 0.01007137 -0.14612013
0.023400968 -0.08590696 -0.0653974 -0.15452488 -0.009541985 -0.2038786 -0.05413853 -0.20757574
-0.044138774 -0.081256494 -0.17165129 -0.0832895 -0.12927167 -0.1456084 -0.1106068 -0.08617843
-0.073005155 -0.12173651 0.034511313 -0.103562936 -0.1156857 -0.21790303 -0.30205488 -0.08058586
-0.17835972 0.041949578 -0.18461366 -0.18401845 -0.1182401 0.14975171 -0.15584873 -0.053786814

fc2.weight f4 [5, 128]
00000000: d6c1 35bf b342 70be 803b 5a3e 3985 813d
00000010: 5691 debe e87f 27bf c25b 563e acad fbbe
00000020: 6f71 e93d 54a4 1b3e e694 f6be 57f2 ee3d
00000030: 4799 8b3e 04af 0ebf b676 663e 62db 6c3e
00000040: e9e9 4ebf 8419 52bf be81 40bf f83b 20be
00000050: bb85 a83e 4c28 483e fbec 2d3e e805 2b3e
00000060: de19 68bf 8abe 8fbe 97a9 c5be 4eaa 493e
00000070: 0a89 4c3e 815a bfbe 1cf2 d73d 2b66 7ebf
00000080: 2e5c 043e 6005 57bf 9996 a53e 21c7 6cbe
00000090: 722e 2f3e 6434 1a3e c0a1 e33d 66fc 4e3e
000000a0: d9fe 94be 5ff1 c2be 6a01 dc3d 4767 87bf
000000b0: b3c0 243e ddb0 f23d 4e52 903e 7d99 e2be
000000c0: bf60 08be 3917 9cbe a06c e0be 9f11 1a3e
000000d0: a7aa 0cbf 2e15 a1be b7fb 9b3d be95 be3e
000000e0: 1993 40bf a12b 543e 33b2 1f3e c53d 1a3d
000000f0: beb2 003e ccdc b5b9 368d 0ebf f419 1cbf
00000100: 8e29 5c3a 3523 12be c2db afbe 585d 81bf
00000110: 4f9c fb3d a303 723e 8b67 03bf 7733 063b
00000120: 7522 693e de46 9b3e 8f72 1bbf 22c5 c03d
00000130: 730f 09bf bf1a 833e 0dcb 77be cd20 17bd
00000140: e5b9 cdbd 9bb2 debe 9919 3fbf b75a 8f3e
00000150: c8be 6fbe c65f d43d 781e a43d a403 783e
00000160: 3cd0 cabe 2b90 57be a980 983c c93b e93d
00000170: e384 00bf f548 6e3e a2e3 8b3e e6fb 393e
00000180: 4fc2 803d 97f1 a03d b2ca 863e f2a2 af3e
00000190: 2dc3 e5be 8b0d 3ebe 6fc2 58bf c00c 3ebf
000001a0: 0599 c13e cf52 24be 3626 d2be 99c7 283e
000001b0: fb85 0ebf d54b 813e 7c2d 4bbf 25bc df3d
000001c0: 539c 12be 568e 5dbf 113c 3dbf 13a9 05bf
000001d0: 8d71 f2be dd06 703d 5a6a aabd 4f4c 8f3e
000001e0: 132b 833e 3d08 b63d e2bc bc3d 09af 4e3e
000001f0: bb55 bb3e 7a8f ebbe 6a03 cebe fb59 793e
00000200: 9eb5 f3be 62b6 a83e 5864 013f 07ae 473e
00000210: 5576 d93e a1d5 f73d c28d 96be ca77 eabe
00000220: 5baf 6d3e 8401 263c 1a33 373e 5154 fb3e
00000230: a0a6 2cbf 96df d73e 6de7 93be 0df6 923e
00000240: 5841 90bd ff41 403e cde1 f43d b62f 1c3f
00000250: eb01 30bf 57d5 fdbe f343 43bf 1088 833e
00000260: 7ec1 b8be f5d5 643e c956 adbe 1413 413e
00000270: 8e5e 333e 4321 b83e bbf8 e9bd 06cc 5f3d
00000280: b451 b63e e443 6c3e 43a1 98bd 28d2 eb3d
00000290: 800b ee3e aeaa 23bb 23f6 a43e ce45 58bf
000002a0: 450d ea3e 31e1 7c3e 985f 8bbd 0886 bbbe
000002b0: 845c 043e 9094 923e 2702 443e c6a4 f0be
000002c0: d19d 1b3e b68e 743e 6a2c 503e f2c1 24bd
000002d0: 05e6 5c3d 3da2 27bf fcba 3cbf 63c1 1dbf
000002e0: 24f9 e0bd 1898 14bf e15d 4fbf 805e 0dbf
000002f0: d26c 8cbf aefc 073d 4b88 0c3e 57ee a0be
00000300: c7a0 1ebd 054d 66be a5f3 8e3e acae 303e
00000310: 7317 073e d176 53bf ebd3 06bf 1f9c febe
00000320: 60b5 473e 6187 1fbf 6f83 183e fb80 bc3e
00000330: e197 56be 45a2 d83b 49f9 943e f059 093f
00000340: 0b04 3ebf ff74 cabe 69cb bc3d 34e6 e0bc
00000350: 7ae3 8b3e 46ed bbbe 70cf 26be ae74 be3e
00000360: a4d8 9ebd 0471 03bf 6424 92be 5eb2 2f3e
00000370: bcef 52bd f623 c4bd 7ec1 06bf 1197 773e
00000380: 1993 043f f312 06bf 6b77 1c3e 8ab4 363d
00000390: e51f 963d 2e21 173e 3694 ddbc 97fa c83d
000003a0: 020e d0be d0d0 963e 6179 0bbe f475 3bbf
000003b0: 8c73 e2be 2617 2c3f d120 fdbe ad4e 6dbe
000003c0: 4b60 873d 7382 8a3d df50 df3c 0a71 0cbf
000003d0: 9336 36bf ab26 1dbe c111 d7be 4bd4 2bbf
000003e0: 57c5 cf3d 3203 2a3d b986 0bbf 9ce0 35bf
000003f0: de7c 2abf 2632 293e 7ce1 33bb bb3a 9b3e
-0.70998895 -0.23462944 0.2131176 0.06324238 -0.43470258 -0.65429544 0.2093344 -0.4915594
0.11398589 0.15199405 -0.48160475 0.116673164 0.2726538 -0.557358 0.22506222 0.23130563
-0.8082567 -0.82070184 -0.7519797 -0.15647876 0.32914528 0.19546622 0.16984932 0.16701472
-0.9066447 -0.28075057 -0.3860595 0.19693872 0.19974151 -0.37373737 0.105442256 -0.99374646
0.12925789 -0.83992577 0.3234146 -0.23122837 0.17107561 0.15059048 0.11114836 0.2021347
-0.29100683 -0.38074777 0.10742457 -1.0578393 0.16089134 0.1185014 0.28187793 -0.44257727
-0.13318156 -0.30486467 -0.43832874 0.15045784 -0.54947895 -0.3146147 0.0761637 0.3722362
-0.75224453 0.20719768 0.15595321 0.037656564 0.12568185 -0.00034687517 -0.5568422 -0.609771
0.0008398526 -0.14271243 -0.3434735 -1.0106611 0.12285673 0.236342 -0.5132987 0.0020477453
0.2276705 0.30327505 -0.6072168 0.094126 -0.535392 0.25606343 -0.24198551 -0.036896516
-0.10045222 -0.4349564 -0.74648434 0.27998897 -0.23412621 0.1036983 0.08013624 0.24220139
-0.39611995 -0.2105109 0.018616037 0.11388356 -0.5020277 0.23270018 0.27322108 0.18162498
0.062870614 0.078585796 0.2632652 0.34304005 -0.4487547 -0.18559854 -0.8467168 -0.74238205
0.37812057 -0.16047214 -0.41044778 0.1648239 -0.5567319 0.25253168 -0.7936628 0.109245576
-0.14317445 -0.8654531 -0.7391978 -0.5221111 -0.47352257 0.058600295 -0.08321066 0.27987906
0.256188 0.0888829 0.09215714 0.20183958 0.36588845 -0.460079 -0.4023698 0.24350731
-0.475995 0.32951647 0.5054374 0.1949998 0.42473093 0.12101293 -0.29405028 -0.45794517
0.23211424 0.010132197 0.17890587 0.49087766 -0.6744175 0.4216277 -0.288875 0.28703347
-0.07043713 0.18775176 0.119571306 0.610103 -0.68752927 -0.49576828 -0.7627556 0.25689745
-0.36085123 0.22347243 -0.33855274 0.18854934 0.17516539 0.35962877 -0.11424395 0.05463793
0.3560921 0.23072773 -0.07452633 0.115146935 0.4649315 -0.002497356 0.32219037 -0.84481514
0.4571325 0.24695279 -0.068053424 -0.36625695 0.12925917 0.2862897 0.19141446 -0.47000712
0.15196921 0.23882565 0.20329443 -0.040224023 0.0539303 -0.6548193 -0.73722816 -0.6162321
-0.1098502 -0.58044577 -0.8100262 -0.5522232 -1.0970709 0.03319996 0.13723867 -0.3143184
-0.038727548 -0.22490318 0.2792026 0.17254132 0.13192539 -0.82603174 -0.5266711 -0.49728486
0.19502783 -0.62315947 0.14893888 0.36817154 -0.20956375 0.006611141 0.2909644 0.5365286
-0.7422492 -0.39542386 0.09218485 -0.02745352 0.27321988 -0.36704463 -0.16290069 0.37198395
-0.07756165 -0.51344323 -0.2854339 0.17157885 -0.05149816 -0.095771715 -0.52638996 0.24178721
0.51786953 -0.52372664 0.1527993 0.04460577 0.07330302 0.14758751 -0.027048212 0.09813421
-0.40635687 0.29456186 -0.13620521 -0.7322686 -0.4422878 0.6722282 -0.494391 -0.23174544
0.06610163 0.067631625 0.027260242 -0.54859984 -0.71177024 -0.15346782 -0.42005733 -0.6712081
0.101450615 0.041506954 -0.54502445 -0.7104585 -0.6659678 0.16523036 -0.0027447632 0.30318245

fc2.bias f4 [5]
00000000: c9d8 aa3c d711 253d 06fd 8cbc d57b 023e
00000010: c546 c7bc
0.020855324 0.040300217 -0.017210495 0.1274255 -0.024325738
