Trained_Weights/STRIDE 2/200th.pth (torch, 344904 bytes, 14 tensors)

conv1.weight f4 [32, 3, 3, 3]
-0.09443873 -0.37110868 -0.38100585 -0.0023268317 -0.46325615 -0.21848018 -0.3876594 -0.2629086
-0.4836305 0.27985144 0.20319214 -0.07602281 0.22445762 0.3460343 0.122178905 0.3040843
0.16946124 0.16807301 0.4043642 0.3209063 0.46655875 0.37143326 0.29724327 0.44824386
0.16134559 0.47002724 0.509483 -0.3190489 -0.08666263 -0.23892301 0.018599296 -0.106529415
0.038533047 -0.28480262 -0.20512462 -0.30257824 -0.015546869 -0.052179903 0.07975342 -0.12484619
0.018917369 0.14002566 0.029378973 0.06610873 -0.2228851 0.09930261 -0.10262897 -0.1684843
-0.16915938 -0.22427417 0.11736122 -0.26820496 -0.096162125 0.003521058 -0.021338962 -0.19628534
-0.40862057 -0.37850553 -0.13801391 -0.0844511 -0.11715751 -0.3232582 -0.26444635 -0.12743221
0.13486743 -0.047356233 -0.097014785 -0.08987768 0.1332635 -0.044599425 0.043135528 -0.16745752
0.025399182 0.01425586 -0.19707547 -0.2925799 -0.25230372 -0.12102963 -0.17418388 -0.24119392
-0.13998583 0.3182359 -0.0040254886 0.34820667 0.30366904 0.23023412 0.115586504 0.1945937
0.043349482 0.24814247 0.22376896 0.054791424 0.36205977 0.37501583 0.16654578 0.3641496
0.36336914 0.14516455 0.346354 -0.10963032 0.0114954235 0.21480286 0.25286007 0.23893173
0.30166805 0.30552885 0.12187422 0.24636042 0.24056679 0.060423136 0.13619894 -0.19102491
0.083845705 0.020284329 -0.028554397 0.037947826 -0.17085023 0.28310648 -0.08449119 -0.07306823
0.087326854 0.16580872 -0.0069290306 0.08614682 0.018431066 -0.15788482 0.21604455 -0.13433172
-0.22927973 0.24926892 -0.016396241 -0.24436735 0.18680118 -0.15235136 -0.07278388 0.067937136
0.29623818 0.18368897 0.254686 0.06184548 0.1520406 0.38302648 0.09718262 0.33218354
0.027912172 0.0026371859 -0.100978956 -0.016897248 0.09124444 0.15826707 0.12896624 0.16587
0.21685185 0.0479163 -0.32691637 -0.12178613 -0.21197182 -0.19794415 -0.10027105 -0.05826782
-0.09834321 -0.05048191 -0.31506222 0.020786319 -0.025688563 -0.014530468 -0.052685987 0.1307546
-0.11217988 -0.071787626 0.012464496 -0.17804919 -0.16772333 -0.12975383 -0.33561903 0.026276361
-0.16124691 -0.34800154 -0.1312697 -0.23277435 -0.08050262 0.28553557 0.24223459 0.123156026
0.13899155 0.27271897 -0.25067258 -0.03906317 0.09549841 0.23226823 0.2990885 0.07619636
0.040855303 0.010734548 0.114267856 0.016306322 0.18109512 -0.043721527 -0.1932072 -0.04301295
-0.15063474 0.1341915 0.12148634 -0.23325302 -0.23614605 -0.20808591 -0.23940061 0.16068225
0.18001431 0.13661195 0.18840489 0.09263734 0.09921342 0.065899044 -0.0035880187 -0.06489606
-0.021201255 0.23396549 0.30694044 0.15984866 0.12862016 -0.10852114 0.25253126 -0.06563627
0.07505322 -0.021923488 -0.03932167 0.071714066 0.18418677 -0.09419213 0.12370739 0.17520723
0.024966773 0.19264194 -0.21501565 -0.28082973 -0.13014954 -0.035884093 -0.038467433 -0.16655026
0.14359845 0.24112168 0.21110588 -0.62392694 -0.6287765 -0.44239748 -0.48140883 -0.31736615
-0.52148944 -0.5397003 -0.37461454 -0.6942145 0.055856414 0.17570366 0.105047375 -0.01373973
00000000: 1869 c1bd f501 bebe 3313 c3be c27d 18bb
00000010: e92f edbe 45b9 5fbe 4b7b c6be f59b 86be
00000020: 6b9e f7be b048 8f3e 9a11 503e d9b1 9bbd
00000030: 38d8 653e 682b b13e ef38 fa3d f0b0 9b3e
00000040: 3f87 2d3e 551b 2c3e d308 cf3e d54d a43e
00000050: cae0 ee3e 802c be3e 4530 983e 3880 e53e
00000060: c737 253e 69a7 f03e 7a6d 023f 615a a3be
00000070: 2d7c b1bd 3ca8 74be 8d5d 983c 182c dabd
00000080: d4d4 1d3d a6d1 91be 300c 52be 89eb 9abe
00000090: 4bb8 7ebc 98ba 55bd c355 a33d 5caf ffbd
000000a0: 99f8 9a3c e362 0f3e 2cac f03c 0464 873d
000000b0: fe3b 64be 2b5f cb3d 232f d2bd 2687 2cbe
000000c0: 1e38 2dbe 21a8 65be 145b f03d 2952 89be
000000d0: a6f0 c4bd 8dc1 663b 0ccf aebc 06ff 48be
000000e0: b736 d1be 7acb c1be 8553 0dbe b3f4 acbd
000000f0: 47f0 efbd 1982 a5be 8365 87be 977d 02be
00000100: b01a 0a3e 9cf8 41bd b0af c6bd ca11 b8bd
00000110: 3a76 083e e3ad 36bd e1ae 303d fc79 2bbe
00000120: f211 d03c 6991 693c 27ce 49be 08cd 95be
00000130: f42d 81be 62de f7bd 425d 32be 8afb 76be
00000140: 7258 0fbe d1ef a23e 3fe8 83bb 2548 b23e
00000150: 827a 9b3e 7ec2 6b3e 9eb8 ec3d 9243 473e
00000160: 3a8f 313d 0f19 7e3e b123 653e f96c 603d
00000170: e65f b93e 1302 c03e fa8a 2a3e d171 ba3e
00000180: 850b ba3e 04a6 143e 5055 b13e dc85 e0bd
00000190: 4d57 3c3c 48f5 5b3e e076 813e 85aa 743e
000001a0: 3c74 9a3e 476e 9c3e 3199 f93d e845 7c3e
000001b0: 2457 763e 407e 773d bc77 0b3e 099c 43be
000001c0: 4cb7 ab3d 522b a63c e9ea e9bc 2e6f 1b3d
000001d0: 5df3 2ebe 55f3 903e b809 adbd cca4 95bd
000001e0: 6cd8 b23d c3c9 293e ec0c e3bb be6d b03d
000001f0: bffc 963c 8fac 21be c83a 5d3e 418e 09be
00000200: 4ec8 6abe 5a40 7f3e 6951 86bc 6f3b 7abe
00000210: cf48 3f3e ff01 1cbe b70f 95bd a022 8b3d
00000220: 88ac 973e f618 3c3e 3466 823e b051 7d3d
00000230: 88b0 1b3e 0c1c c43e ae07 c73d f613 aa3e
00000240: 11a8 e43c a3d4 2c3b 0ece cebd 196c 8abc
00000250: 5dde ba3d c310 223e ba0f 043e d3d9 293e
00000260: 690e 5e3e e243 443d 9561 a7be 026b f9bd
00000270: 240f 59be dfb1 4abe e95a cdbd 3daa 6ebd
00000280: 2a68 c9bd 1fc6 4ebd d64f a1be 1248 aa3c
00000290: d270 d2bc 3311 6ebc 43cd 57bd 89e4 053e
000002a0: 91be e5bd 6405 93bd e337 4c3c 8752 36be
000002b0: aabf 2bbe 30de 04be 42d6 abbe 8641 d73c
000002c0: e91d 25be 422d b2be 906b 06be 665c 6ebe
000002d0: 8fde a4bd b831 923e 580c 783e 3a39 fc3d
000002e0: cd53 0e3e d2a1 8b3e 2858 80be b400 20bd
000002f0: ac94 c33d b9d7 6d3e 2122 993e d60c 9c3d
00000300: e457 273d f5df 2f3c 4405 ea3d d694 853c
00000310: 0071 393e 5815 33bd 1cd8 45be 592e 30bd
00000320: fe3f 1abe 7f69 093e d5cd f83d e1d9 6ebe
00000330: 45d0 71be 7914 55be 6f25 75be e389 243e
00000340: ac55 383e 01e4 0b3e 36ed 403e a5b8 bd3d
00000350: 6830 cb3d 14f6 863d f724 6bbb 3ae8 84bd
00000360: 41ae adbc a694 6f3e 4c27 9d3e 5eaf 233e
00000370: 01b5 033e 5540 debd c74b 813e 4f6c 86bd
00000380: 81b5 993d e398 b3bc c20f 21bd d3de 923d
00000390: 759b 3c3e cee7 c0bd 4d5a fd3d 8669 333e
000003a0: 1e87 cc3c ee43 453e 102d 5cbe eac8 8fbe
000003b0: ec45 05be 33fb 12bd 0790 1dbd 278c 2abe
000003c0: 790b 133e 9ae8 763e 242c 583e adb9 1fbf
000003d0: 7ff7 20bf ec81 e2be 387b f6be d17d a2be
000003e0: 5580 05bf cd29 0abf 7acd bfbe 0bb8 31bf
000003f0: b2c9 643d a9eb 333e 1423 d73d 9b1c 61bc

conv1.bias f4 [32]
-0.04563657 -0.20689432 -0.24563748 0.22138216 0.09322616 -0.08907417 0.019840531 0.16166304
0.12317549 0.100941345 -0.03336915 -0.0655039 0.026914401 0.112114616 -0.24802984 0.19995487
-0.018571407 -0.24329257 0.05318136 -0.23136646 0.067016765 -0.17379858 -0.033321694 -0.01852806
-0.013127362 -0.0028854571 -0.084204406 -0.08495427 0.07450976 -0.038959567 0.0151440445 0.09632908
00000000: 69ed 3abd 1bdc 53be 6488 7bbe 01b2 623e
00000010: 5bed be3d 856c b6bd 9c88 a23c ff8a 253e
00000020: 6e43 fc3d 56ba ce3d 17ae 08bd e926 86bd
00000030: 977b dc3c 599c e53d 89fb 7dbe f8c0 4c3e
00000040: 1023 98bc b021 79be b3d4 593d 54eb 6cbe
00000050: 1640 893d 41f8 31be 547c 08bd 28c8 97bc
00000060: 2614 57bc f019 3dbb 5c73 acbd 81fc adbd
00000070: 9398 983d 1194 1fbd ba1e 783c 2e48 c53d

conv2.weight f4 [32, 32, 3, 3]
0.025883647 -0.015107774 0.021359446 0.025505386 -0.07117982 0.044003762 -0.06800196 -0.024768047
-0.023050157 -0.12727976 0.00930348 -0.095875844 -0.03541756 -0.07984545 -0.14474027 -0.116261214
-0.08888781 -0.17419647 -0.023914538 0.060881473 0.013872231 -0.07952041 -0.030383885 -0.11633701
-0.07037338 -0.13377759 -0.12814245 0.024555087 0.06008103 0.04284552 0.08338266 0.04647901
0.07818517 0.09903196 0.046406455 0.15192619 0.15621401 -0.07037922 -0.18358837 0.11565095
-0.08458373 -0.19911912 0.052293632 -0.059468 -0.14743513 0.25704888 0.2536141 0.13336448
0.23701857 0.22211723 0.16226211 0.3461668 0.32088342 0.2319575 -0.06641318 -0.07432909
0.07960497 -0.12001465 0.01950301 0.13835676 -0.1675489 -0.0044646105 0.00080862 0.03554785
-0.073744126 0.042054232 -0.018817673 -0.021419268 0.0044040596 0.051475856 -0.063226245 0.043115508
0.051597975 -0.043533172 0.07932691 0.13862193 0.05916964 0.107137956 0.079809055 0.099549875
0.1682003 -0.46348393 -0.31345752 -0.31619158 -0.3985659 -0.4542545 -0.3845242 -0.5109775
-0.50839496 -0.43069178 0.4275596 0.4549215 0.40589562 0.44358313 0.51232916 0.35671708
0.556747 0.60157347 0.4697369 0.0715264 0.03489739 0.17193931 0.052209496 0.064493805
0.158762 0.13975364 0.15331624 0.23358698 -0.08093646 -0.0038999151 -0.100791074 0.0007498449
-0.055033408 -0.13209009 -0.055000443 -0.043482564 -0.058812007 0.009461632 0.04463215 -0.04894027
-0.06627016 0.07447669 -0.050255723 -0.13231221 -0.061102133 -0.08419261 -0.001945839 -0.0066676512
-0.03772318 0.0011723161 -0.04894764 -0.05111245 0.0020079915 -0.0043890215 -0.12936316 0.118480064
0.06755276 0.06474859 0.05926964 0.07136652 0.13152897 0.11013871 0.16489162 0.15716638
0.1546046 0.10572452 0.13482693 0.20890497 0.119798526 0.07570222 0.24809389 0.22851011
0.13616206 0.06116798 0.031089077 0.003205706 0.049501617 -0.010629649 -0.06252038 -0.049143806
-0.053890396 -0.06574406 0.06425141 0.05273495 0.011438819 0.045067746 0.05038 0.074794695
0.14519414 0.09228098 0.10540764 0.13758835 0.2547901 0.18614331 0.16419514 0.19360735
0.20482345 0.2661467 0.24959524 0.20529155 -0.11193939 -0.14019504 -0.09971537 -0.15826808
-0.14503081 -0.109246 -0.21925661 -0.18710062 -0.095455036 -0.0706075 -0.102354914 -0.12910414
-0.048159245 -0.034387633 -0.23406906 -0.075656496 -0.069184974 -0.16302478 0.13679953 0.14862849
0.22538266 0.17331716 0.15232831 0.16806735 0.24438778 0.17714609 0.22618315 -0.06168356
-0.04486364 0.067304276 -0.16752952 -0.12514223 0.11187943 -0.11682583 -0.005494832 0.025296193
-0.113767564 0.043394655 0.056684736 -0.0073244805 0.12226835 0.04261434 -0.09736224 -0.081952594
-0.033619363 0.4352447 0.4374938 0.4820687 0.4972153 0.5762309 0.5063542 0.555231
0.59295195 0.5369268 0.06133586 0.035827946 -0.008506084 0.13002157 0.09583375 0.024103533
0.19326076 0.19764346 0.10527052 0.16124444 0.19595931 0.12887013 0.23486002 0.19667049
0.0783388 0.19858022 0.18111931 0.17337191 -0.22497274 -0.22067353 -0.0863266 -0.15308823
00000000: f109 d43c 9986 77bc 01fa ae3c acf0 d03c
00000010: bac6 91bd 4a3d 343d 9d44 8bbd 5ce6 cabc
00000020: afd3 bcbc a055 02be a06d 183c 8e5a c4bd
00000030: 0112 11bd 0386 a3bd cb36 14be 5c1a eebd
00000040: d00a b6bd 8f60 32be 6ce8 c3bc da5e 793d
00000050: 5b48 633c 99db a2bd a0e7 f8bc 1942 eebd
00000060: eb1f 90bd fefc 08be c637 03be c027 c93c
00000070: 8717 763d c97e 2f3d 87c4 aa3d c660 3e3d
00000080: 8c1f a03d 45d1 ca3d b214 3e3d 8a92 1b3e
00000090: 91f6 1f3e fb22 90bd 97fe 3bbe 68da ec3d
000000a0: 3c3a adbd e2e5 4bbe d931 563d b894 73bd
000000b0: 3cf9 16be e99b 833e b5d9 813e b390 083e
000000c0: ffb4 723e b372 633e 0a28 263e c63c b13e
000000d0: d54a a43e 4486 6d3e a203 88bd da39 98bd
000000e0: ee07 a33d 3eca f5bd c7c4 9f3c 65ad 0d3e
000000f0: f091 2bbe de4b 92bb 92f9 533a 9f9a 113d
00000100: 2907 97bd 0f41 2c3d 8527 9abc 7677 afbc
00000110: ee4f 903b 59d8 523d c37c 81bd e399 303d
00000120: 6658 533d d74f 32bd 2676 a23d e8f2 0d3e
00000130: dd5b 723d 256b db3d ee72 a33d cee0 cb3d
00000140: b33c 2c3e c44d edbe 817d a0be dde3 a1be
00000150: d410 ccbe 0c94 e8be 5be0 c4be 6ccf 02bf
00000160: 2c26 02bf a283 dcbe 18e9 da3e 79eb e83e
00000170: 8dd1 cf3e 541d e33e 0128 033f 9fa3 b63e
00000180: f986 0e3f b800 1a3f 5b81 f03e 6f7c 923d
00000190: 91f0 0e3d dc10 303e a0d9 553d 5415 843d
000001a0: 8192 223e 941b 0f3e effe 1c3e 6d31 6f3e
000001b0: 04c2 a5bd b895 7fbb 8d6b cebd 3d91 443a
000001c0: b66a 61bd a042 07be 2548 61bd c61a 32bd
000001d0: dce4 70bd f604 1b3c 34d0 363d 9875 48bd
000001e0: a6b8 87bd 3c87 983d f2d8 4dbd da7c 07be
000001f0: 3b46 7abd 2d6d acbd 860b ffba 507c dabb
00000200: 9f83 1abd 67a8 993a 527d 48bd 4a5b 51bd
00000210: 8298 033b c8d1 8fbb c777 04be ada5 f23d
00000220: 1a59 8a3d e99a 843d b9c4 723d 9c28 923d
00000230: 88af 063e 6790 e13d 59d9 283e 39f0 203e
00000240: ab50 1e3e 1986 d83d 1210 0a3e 2feb 553e
00000250: ee58 f53d c409 9b3d 530c 7e3e 8efe 693e
00000260: 116e 0b3e 478b 7a3d 85ae fe3c d216 523b
00000270: 35c2 4a3d fb27 2ebc af0a 80bd 044b 49bd
00000280: 2dbc 5cbd d2a4 86bd 3e96 833d 9a00 583d
00000290: e269 3b3c f598 383d 425b 4e3d f62d 993d
000002a0: c6ad 143e cffd bc3d f6df d73d f6e3 0c3e
000002b0: d973 823e 5a9c 3e3e c522 283e 0141 463e
000002c0: 3dbd 513e 6144 883e e595 7f3e f337 523e
000002d0: 7b40 e5bd 4a8f 0fbe 9237 ccbd 0711 22be
000002e0: f582 14be 5ebc dfbd ce84 60be 4e97 3fbe
000002f0: ee7d c3bd aa9a 90bd 749f d1bd e033 04be
00000300: a142 45bd 0cda 0cbd cdaf 6fbe cbf1 9abd
00000310: dab0 8dbd f8ef 26be 2d15 0c3e 1132 183e
00000320: b6ca 663e 0e7a 313e f4fb 1b3e d919 2c3e
00000330: ca40 7a3e c965 353e 8e9c 673e e7a7 7cbd
00000340: f0c2 37bd d3d6 893d dc8c 2bbe 4925 00be
00000350: 0b21 e53d 6142 efbd fe0d b4bb f639 cf3c
00000360: f8fe e8bd 98be 313d 412e 683d 3202 f0bb
00000370: d467 fa3d 608c 2e3d db65 c7bd c3d6 a7bd
00000380: 75b4 09bd 65d8 de3e 30ff df3e b5d1 f63e
00000390: 0193 fe3e de83 133f 6ea0 013f 9e23 0e3f
000003a0: b3cb 173f 0974 093f 503b 7b3d 53c0 123d
000003b0: 1a5d 0bbc 6024 053e 7c44 c43d c674 c53c
000003c0: 26e6 453e 0c63 4a3e 1298 d73d 431d 253e
000003d0: 8fa9 483e 88f6 033e 257f 703e fd63 493e
000003e0: 1870 a03d 9d58 4b3e 5777 393e 6888 313e
000003f0: 415f 66be 3ef8 61be 00cc b0bd 29c3 1cbe

conv2.bias f4 [32]
-0.18575366 0.056176413 0.2120972 -0.16618268 0.05648831 -0.06859413 -0.11112085 0.058986545
0.19935459 0.04736342 -0.083226375 -0.57543766 -0.07422886 -0.35813656 0.31171808 0.14848495
0.41177517 0.15666974 -0.099480644 -0.2637867 0.092732064 -0.36581588 -0.13347344 -0.17100759
-0.1004348 -0.01370477 -0.1944138 0.33705378 -0.20078242 0.114041515 0.00091710733 -0.02092907
00000000: 3536 3ebe 3d19 663d 0230 593e cb2b 2abe
00000010: 4960 673d 147b 8cbd 5493 e3bd e09b 713d
00000020: 9c23 4c3e 2500 423d 9772 aabd e24f 13bf
00000030: 4d05 98bd ad5d b7be 8399 9f3e 700c 183e
00000040: 32d4 d23e 086e 203e 82bc cbbd 0d0f 87be
00000050: 4fea bd3d 384c bbbe 43ad 08be 9d1c 2fbe
00000060: c3b0 cdbd f989 60bc 6914 47be 5092 ac3e
00000070: e899 4dbe 998e e93d 086a 703a 7173 abbc

conv3.weight f4 [32, 32, 3, 3]
0.052678186 0.039168943 -0.08742632 -0.037169535 -0.04088066 -0.019441659 0.25642192 0.31413823
0.29645678 -0.012200545 0.055421762 -0.06593855 -0.019681673 0.17163831 0.031878438 -0.21739742
-0.042471964 -0.22898279 0.26739308 0.17553878 0.32971507 0.12839249 -0.06861597 0.045894425
0.17223634 0.009818974 0.16063379 0.0341648 0.12481513 -0.020589564 0.027655194 -0.02120839
0.16561292 0.42294392 0.6311176 0.48342422 -0.10933933 0.035064187 -0.14121641 -0.019836182
0.1834708 -0.04464606 -0.1547268 -0.066288956 -0.19616146 -0.10437202 -0.26602244 -0.15019421
-0.07412156 -0.1661639 -0.19617498 -0.0040239966 -0.23979016 -0.25255555 0.07501702 -0.16341785
-0.12094309 0.073196225 -0.08238844 -0.037368257 0.4016297 0.39161375 0.32020774 -0.08874554
-0.08383533 -0.06718132 -0.10308939 0.11033282 -0.037842616 -0.21292715 -0.23502272 -0.29333383
0.04390668 -0.064448915 0.081501916 -0.035895895 -0.18048257 -0.24373862 -0.041567452 -0.19593766
-0.086682945 0.16408002 0.0609546 -0.018748712 0.029704915 -0.08314028 0.10182406 0.5438184
0.45229104 0.36486334 -0.20169121 -0.06200793 0.06149989 -0.061777845 0.11908383 -0.019875443
-0.49364206 -0.44452047 -0.43298414 0.03457014 0.025021566 0.06524982 -0.006820383 -0.0893077
0.04460552 0.057832766 -0.065514974 0.14213184 -0.12789592 -0.0070561967 -0.10118054 -0.10523406
0.13730352 0.047579568 -0.25545397 -0.17170428 -0.20257771 -0.053651918 -0.05327052 -0.064990446
-0.008435609 0.20606622 0.060307294 -0.011508111 0.0068254718 -0.097953774 0.01853703 -0.0959049
0.066797875 -0.0465461 -0.1432255 -0.19515654 -0.06364987 -0.105666 0.02880438 -0.078441106
-0.009673892 0.12315192 0.04377681 0.19305757 0.13435504 -0.32890597 -0.3201908 -0.26149833
-0.11085977 -0.03800863 0.01805169 -0.08109569 -0.08810035 0.1620399 -0.2277147 -0.28348836
-0.05656926 0.04744491 -0.083966106 0.020393722 -0.096802905 -0.12828825 -0.20832202 0.055557843
-0.18974915 -0.061314296 0.12976314 0.11064855 -0.18434754 0.0810796 0.2114299 0.009442145
0.16135977 0.3751522 0.21523748 0.072426036 0.07551486 -0.05811966 0.12403971 0.22014254
0.026125355 -0.21391886 -0.035828374 -0.1347639 -0.21556036 -0.2273117 0.16855727 -0.08683975
-0.27979818 -0.044201665 -0.08055995 -0.45507437 -0.27635485 0.04537052 0.05808632 -0.047722153
0.0780768 0.14501818 0.10417362 -0.01506464 0.09050938 0.033201642 -0.017906852 0.12593773
-0.032600675 -0.025755968 0.19496839 0.11444295 0.05239839 0.15551455 0.08586121 0.040135805
0.07953399 -0.08247533 0.060848404 0.20799366 0.16455317 -0.072659895 0.12476521 0.03454022
0.14491406 0.033550356 0.011207691 0.04708732 -0.11607458 -0.010785447 0.2674896 0.30076334
0.3008908 -0.19755906 -0.25658637 -0.13329168 -0.042750843 -0.08544347 -0.14975162 0.050303284
-0.19625479 -0.20877872 0.053463895 0.056994826 0.025875967 0.12888968 0.22334732 0.1662113
0.01687107 0.14549187 0.10631859 0.13914427 0.103153005 0.18580444 0.11083509 -0.11322131
0.01601935 0.24780872 0.07137963 0.1685873 0.14592125 0.02393186 0.008539728 0.051687192
00000000: 15c5 573d 9d6f 203d 920c b3bd 153f 18bd
00000010: 7b72 27bd 1d44 9fbc bc49 833e bad6 a03e
00000020: 2fc9 973e cbe4 47bc ee01 633d ca0a 87bd
00000030: 763b a1bc f4c1 2f3e f792 023d 6e9d 5ebe
00000040: 15f7 2dbd 777a 6abe bfe7 883e 70c0 333e
00000050: 6ad0 a83e 5279 033e 8886 8cbd cbfb 3b3d
00000060: b95e 303e c3df 203c 2f7d 243e 64f0 0b3d
00000070: 139f ff3d 72ab a8bc 258d e23c 38bd adbc
00000080: 6f96 293e 1b8c d83e ec90 213f 6183 f73e
00000090: 4ced dfbd 779f 0f3d 099b 10be 7d7f a2bc
000000a0: c5df 3b3e c9de 36bd b470 1ebe 81c2 87bd
000000b0: 8dde 48be ffc0 d5bd 1834 88be 83cc 19be
000000c0: 0bcd 97bd df26 2abe 18e2 48be bbdb 83bb
000000d0: 8d8b 75be f64e 81be 86a2 993d 0257 27be
000000e0: 03b1 f7bd e7e7 953d 45bb a8bd 750f 19bd
000000f0: 68a2 cd3e 9981 c83e 45f2 a33e 39c0 b5bd
00000100: dcb1 abbd 5c96 89bd 8820 d3bd 2cf6 e13d
00000110: dc00 1bbd 9309 5abe cca9 70be da2f 96be
00000120: 7ed7 333d cbfd 83bd 7aea a63d 9307 13bd
00000130: 6cd0 38be 9e96 79be a242 2abd e2a3 48be
00000140: d486 b1bd 9804 283e 88ab 793d e696 99bc
00000150: b957 f33c 7345 aabd 2289 d03d af37 0b3f
00000160: b192 e73e 5ecf ba3e 2488 4ebe 07fc 7dbd
00000170: 4fe7 7b3d c40a 7dbd 39e2 f33d d3d1 a2bc
00000180: a7be fcbe 3098 e3be 19b0 ddbe 6b99 0d3d
00000190: 07fa cc3c b3a1 853d 857d dfbb f5e6 b6bd
000001a0: 47b4 363d 0de2 6c3d b72c 86bd 028b 113e
000001b0: 26f7 02be ab37 e7bb be37 cfbd f484 d7bd
000001c0: 4b99 0c3e cbe2 423d ddca 82be 3fd3 2fbe
000001d0: 8870 4fbe 1dc2 5bbd 3032 5abd b619 85bd
000001e0: 8235 0abc 0603 533e c804 773d 848c 3cbc
000001f0: 35a8 df3b fd9b c8bd f8da 973c ca69 c4bd
00000200: 53cd 883d 20a7 3ebd b5a9 12be 1ed7 47be
00000210: dd5a 82bd 6a67 d8bd 2af7 eb3c bba5 a0bd
00000220: 3e7f 1ebc 1337 fc3d 504f 333d e2b0 453e
00000230: 5e94 093e 5d66 a8be 0cf0 a3be 1ce3 85be
00000240: 720a e3bd f0ae 1bbd 23e1 933c 7f15 a6bd
00000250: f56d b4bd caed 253e 0b2e 69be 6325 91be
00000260: 2bb5 67bd 9855 423d 6cf6 abbd bc10 a73c
00000270: 9a40 c6bd ff5d 03be 5e52 55be 9f90 633d
00000280: 9a4d 42be b324 7bbd a1e0 043e b59b e23d
00000290: 9ac5 3cbe 100d a63d 1481 583e 3ab3 1a3c
000002a0: 7f3b 253e f313 c03e 3767 5c3e 1a54 943d
000002b0: 89a7 9a3d e10e 6ebd 8808 fe3d 0c6d 613e
000002c0: d704 d63c 8c0d 5bbe c6c0 12bd 8cff 09be
000002d0: dbbb 5cbe 66c4 68be 479a 2c3e 0ad9 b1bd
000002e0: b541 8fbe ce0c 35bd 9dfc a4bd 82ff e8be
000002f0: 627e 8dbe 70d6 393d eceb 6d3d 4e78 43bd
00000300: bbe6 9f3d a57f 143e fb58 d53d aed1 76bc
00000310: fb5c b93d 72fe 073d 64b1 92bc d2f5 003e
00000320: 4988 05bd 2efe d2bc cba5 473e 1161 ea3d
00000330: b29f 563d 353f 1f3e 01d8 af3d 7165 243d
00000340: b7e2 a23d d3e8 a8bd 2d3c 793d 4afc 543e
00000350: a080 283e b6ce 94bd e784 ff3d 0c7a 0d3d
00000360: 5a64 143e 196c 093d 77a0 373c a2de 403d
00000370: 82b8 edbd 72b5 30bc 66f4 883e a7fd 993e
00000380: 5c0e 9a3e ec4c 4abe 4a5f 83be 9d7d 08be
00000390: 821b 2fbd fcfc aebd 7d58 19be d10a 4e3d
000003a0: 04f7 48be 17ca 55be f5fc 5a3d 6873 693d
000003b0: d6f9 d33c a8fb 033e 29b5 643e 4c33 2a3e
000003c0: 3335 8a3c d2fb 143e 90bd d93d d67b 0e3e
000003d0: e241 d33d 8543 3e3e 82fd e23d 93e0 e7bd
000003e0: 033b 833c 92c1 7d3e 7c2f 923d 26a2 2c3e
000003f0: 616c 153e c00c c43c 37ea 0b3c f3b5 533d

conv3.bias f4 [32]
-0.006620579 0.19694045 0.0968947 0.5233747 0.27558717 -0.11767427 0.30131197 0.2717246
-0.23566896 -0.1772411 0.089228265 0.1411775 -0.16580413 -0.059485666 -0.08242314 0.15209273
0.13764572 0.23556407 -0.30188984 -0.15070565 -0.07652391 -0.048814643 -0.49617025 0.30919534
0.3258859 -0.13867332 -0.044620235 0.07025058 -0.002314994 -0.16686155 -0.11080043 0.41539443
00000000: 71f1 d8bb c2aa 493e ba70 c63d e2fb 053f
00000010: c319 8d3e 35ff f0bd 9045 9a3e 7d1f 8b3e
00000020: 3453 71be b17e 35be 4fbd b63d d690 103e
00000030: 8fc8 29be 3ea7 73bd 77cd a8bd 32be 1b3e
00000040: 00f3 0c3e b537 713e 4e91 9abe 9552 1abe
00000050: 91b8 9cbd ddf1 47bd 070a febe da4e 9e3e
00000060: 84da a63e 6100 0ebe b5c3 36bd 89df 8f3d
00000070: 28b7 17bb c1dd 2abe 56eb e2bd 94ae d43e

conv4.weight f4 [32, 32, 3, 3]
-0.06732373 0.17429587 -0.15908816 0.2293949 0.01850941 0.09910121 0.28664833 0.09898068
-0.25086436 0.08062154 -0.113843754 -0.08551172 -0.319701 -0.29159418 -0.057860997 -0.15429781
-0.20233145 -0.07297797 0.0031292744 -0.042578913 0.0043656486 -0.31637678 -0.18596289 -0.14582793
-0.0747962 -0.32902467 -0.10596147 0.13541692 0.07907332 -0.054842558 -0.006954277 -0.16133189
-0.08999587 -0.11230781 0.0026142984 -0.07957357 0.048548654 -0.17993917 0.030005516 -0.3111968
-0.30676 -0.008585176 -0.19540086 -0.3552329 -0.11654846 -0.1839749 -0.054066874 0.12754637
0.26998878 0.27220696 0.10890322 -0.019705877 0.15825334 0.06303387 -0.35663712 -0.27855998
-0.19544563 -0.33921042 -0.102000184 -0.43116248 -0.36037025 -0.17330092 -0.13942765 0.31977612
0.07222582 -0.10520099 -0.20030135 -0.22307728 -0.058888804 -0.14825477 -0.08941357 -0.06403088
0.10301637 0.036285885 0.1169176 0.15934496 -0.040157 -0.0077025085 0.14538303 0.018236531
0.15772584 -0.19038704 -0.09848711 0.050362714 0.048111808 0.13327599 0.13892908 -0.01117738
-0.040360827 0.07376871 0.12723608 0.19036941 0.20211518 -0.4084669 -0.41700852 -0.28817672
-0.2921927 -0.4904118 -0.27939147 -0.08712158 -0.09020576 0.24344617 -0.4269385 -0.3390778
-0.040923443 -0.15629135 -0.15659882 0.25309658 -0.05333209 -0.29461354 -0.21460171 0.46547544
0.22263177 0.15319633 0.40329692 0.19142604 -0.014313775 0.0055048517 -0.08801443 0.13327518
-0.12825973 -0.14735255 -0.11392204 -0.3729875 -0.03889898 -0.0986101 -0.17702922 -0.026193447
-0.02934543 0.050652396 -0.02026753 -0.06340072 0.007582004 0.08800007 -0.2701097 0.09731114
0.10446033 -0.116402 -0.15592268 0.07897708 -0.34294945 -0.16986789 -0.18912037 0.061703492
0.05418805 -0.054800447 -0.07556752 -0.28465176 -0.18214522 -0.27236864 -0.3179011 -0.12649305
-0.04774921 -0.14482248 -0.08309139 0.046541303 -0.21527427 -0.039044622 0.11771551 -0.15150583
-0.15403391 -0.096204095 0.07034836 0.14526285 0.014441177 0.2693242 0.3232425 -0.033399917
0.24836197 0.31529012 0.15652983 0.1786167 0.104017764 0.22754122 -0.065978 0.11001563
0.14625075 0.14700443 -0.044970293 0.18906164 -0.18083197 -0.16416943 0.1148314 -0.28172222
-0.22466256 -0.16293429 -0.35184774 -0.20284243 0.10096906 -0.13371369 -0.009794561 -0.1016001
-0.14646165 -0.11049864 -0.19589901 -0.30278268 -0.08425289 -0.08334924 0.09780639 0.096750624
-0.06994169 0.09039858 0.023031477 -0.11196943 0.09824962 0.0817669 0.09522865 0.17690809
0.013500892 0.018770551 -0.007265432 -0.13685694 -0.08179509 -0.04607205 -0.03965942 -0.14372255
-0.027767556 0.011246503 0.09853025 -0.13447595 0.0050923047 0.033500686 -0.0063561737 0.027840946
0.06364462 -0.08746931 -0.17834996 0.042700045 -0.15773322 -0.09498639 -0.15269694 -0.2590064
-0.1867991 0.1022083 0.16070588 0.015434165 0.21009059 -0.027889458 0.09908986 0.067706816
0.19803716 0.10733216 -0.024178699 0.048986815 0.1050679 -0.14566131 0.15479222 0.036048394
0.097267084 0.32785556 0.14453755 -0.17510976 -0.14454387 -0.076141186 -0.16977929 -0.1122539
00000000: 06e1 89bd 9e7a 323e 02e8 22be 7fe6 6a3e
00000010: 0ca1 973c 93f5 ca3d 92c3 923e 62b6 ca3d
00000020: 4b71 80be e81c a53d ea26 e9bd c520 afbd
00000030: d9af a3be d54b 95be a7ff 6cbd 3f00 1ebe
00000040: fa2f 4fbe 7975 95bd 8314 4d3b 3a67 2ebd
00000050: b70d 8f3b 23fc a1be 0e6d 3ebe eb53 15be
00000060: c02e 99bd ec75 a8be 5402 d9bd bcaa 0a3e
00000070: 31f1 a13d 97a2 60bd b4e0 e3bb 3034 25be
00000080: c14f b8bd a301 e6bd a654 2b3b 78f7 a2bd
00000090: f4da 463d f941 38be 21ce f53c 3055 9fbe
000000a0: a60f 9dbe d7a8 0cbc 2a17 48be 16e1 b5be
000000b0: f6b0 eebd eb63 3cbe 3a75 5dbd 849b 023e
000000c0: f83b 8a3e b65e 8b3e a708 df3d 386e a1bc
000000d0: 2a0d 223e e717 813d 2499 b6be 6a9f 8ebe
000000e0: e622 48be fdac adbe 79e5 d0bd 54c1 dcbe
000000f0: 7382 b8be cc75 31be 1fc6 0ebe b2b9 a33e
00000100: 21eb 933d 9e73 d7bd cc1b 4dbe 5f6e 64be
00000110: 6335 71bd 19d0 17be 761e b7bd 9f22 83bd
00000120: 3ffa d23d 82a0 143d 7f72 ef3d 532b 233e
00000130: ab7b 24bd 5365 fcbb 4adf 143e c764 953c
00000140: e282 213e d2f4 42be 9cb3 c9bd 2249 4e3d
00000150: e310 453d 8079 083e 6d43 0e3e 5421 37bc
00000160: 6551 25bd 0d14 973d 2d4a 023e 33f0 423e
00000170: 48f7 4e3e 9322 d1be 2482 d5be e68b 93be
00000180: 489a 95be 4117 fbbe 660c 8fbe cd6c b2bd
00000190: ccbd b8bd f449 793e af97 dabe 9b9b adbe
000001a0: 579f 27bd d70a 20be 715b 20be e095 813e
000001b0: c072 5abd 96d7 96be 8dc0 5bbe cc52 ee3e
000001c0: 95f9 633e 80df 1c3e ef7c ce3e 3005 443e
000001d0: 5384 6abc 0b62 b43b e940 b4bd 4a79 083e
000001e0: 8556 03be 96e3 16be f54f e9bd 38f8 bebe
000001f0: 8954 1fbd 18f4 c9bd 2647 35be a493 d6bc
00000200: d465 f0bc e378 4f3d 1708 a6bc 3dd8 81bd
00000210: 7672 f83b 6139 b43d d24b 8abe 104b c73d
00000220: 4cef d53d 2c64 eebd 32aa 1fbe bcbe a13d
00000230: 1297 afbe d9f1 2dbe c5a8 41be cdbc 7c3d
00000240: 4af4 5d3d 6f76 60bd 25c3 9abd e0bd 91be
00000250: 4784 3abe e773 8bbe efc3 a2be 6587 01be
00000260: ad94 43bd 584c 14be d22b aabd 18a2 3e3d
00000270: dc70 5cbe 41ed 1fbd d414 f13d 5824 1bbe
00000280: 11bb 1dbe a706 c5bd cd12 903d c9bf 143e
00000290: b09a 6c3c dde4 893e 0a80 a53e 5ace 08bd
000002a0: 9a52 7e3e b56d a13e 5b49 203e 4ce7 363e
000002b0: 4407 d53d 9100 693e 791f 87bd e04f e13d
000002c0: c2c2 153e 5488 163e c532 38bd 6099 413e
000002d0: 042c 39be 081c 28be ba2c eb3d e53d 90be
000002e0: f10d 66be 3fd8 26be 6325 b4be edb5 4fbe
000002f0: dec8 ce3d 3eec 08be 5e79 20bc b713 d0bd
00000300: 0bfa 15be 1c4d e2bd c099 48be 5506 9bbe
00000310: c78c acbd 02b3 aabd b74e c83d 3125 c63d
00000320: 973d 8fbd e422 b93d 82ac bc3c 3b50 e5bd
00000330: 1937 c93d 6875 a73d 3d07 c33d 6527 353e
00000340: d832 5d3c b3c4 993c dc12 eebb 3a24 0cbe
00000350: 2f84 a7bd 0cb6 3cbd ea71 22bd 012c 13be
00000360: c978 e3bc 4143 383c 3aca c93d 10b4 09be
00000370: 59dd a63b 0438 093d 7347 d0bb b212 e43c
00000380: 1c58 823d 1c23 b3bd 5fa1 36be 3ee6 2e3d
00000390: d184 21be 3988 c2bd 965c 1cbe 7d9c 84be
000003a0: 4348 3fbe 9652 d13d 1590 243e 94df 7c3c
000003b0: fd21 573e 6f78 e4bc a0ef ca3d dfa9 8a3d
000003c0: 41ca 4a3e f7d0 db3d 6812 c6bc 66a6 483d
000003d0: d72d d73d 3d28 15be da81 1e3e 7ba7 133d
000003e0: f733 c73d afdc a73e a701 143e f94f 33be
000003f0: 4f03 14be e9ef 9bbd 9fda 2dbe 5fe5 e5bd

conv4.bias f4 [32]
-0.12359034 0.14827453 0.09658309 0.20007572 -0.31872585 0.15992743 0.22941174 -0.12278483
0.17441112 -0.08615143 0.14306387 -0.07999547 -0.24977657 -0.24652648 0.29755273 -0.08204048
0.046122037 -0.18130226 -0.07666535 0.028951049 0.0874843 0.08197993 0.26219437 0.15724085
0.17465712 -0.22392623 0.08560271 0.003992795 -0.10140984 -0.37015867 0.203953 -0.34775907
00000000: ef1c fdbd 47d5 173e 5bcd c53d a6e0 4c3e
00000010: 0930 a3be 04c4 233e e9ea 6a3e 9d76 fbbd
00000020: d498 323e 2970 b0bd 567f 123e aad4 a3bd
00000030: 6ec5 7fbe 7071 7cbe d558 983e d704 a8bd
00000040: 76ea 3c3d 4da7 39be b902 9dbd c02a ed3c
00000050: f82a b33d 18e5 a73d 573e 863e bf03 213e
00000060: 51d9 323e eb4c 65be 7950 af3d fed5 823b
00000070: f6af cfbd 7085 bdbe 0ed9 503e 7a0d b2be

conv5.weight f4 [16, 32, 3, 3]
0.0071300673 -0.0020747057 -0.21875371 0.067725584 -0.084251076 0.037421834 0.12135629 -0.1121511
-0.24455057 0.09251972 -0.09120775 -0.091416694 0.33432487 0.287185 -0.26521906 0.15829985
0.27088213 -0.18550831 -0.07379715 0.039729647 -0.18674906 -0.17279084 0.08650148 0.17828907
0.063738674 0.1073709 0.1745106 -0.035844404 -0.06549749 0.25126937 -0.12401062 -0.1488814
0.11346937 -0.30386662 -0.0029447281 0.17514518 0.24771504 0.068333104 -0.2131484 0.14214477
-0.03908611 0.0332579 0.17477207 -0.19271135 -0.2776946 -0.115954496 0.15856324 0.07864574
0.121023715 -0.3194705 0.25784275 0.06607633 -0.38716424 0.0614453 0.18035524 -0.26753825
0.14519818 0.10843715 -0.0012523823 -0.23239203 0.31075183 -0.055217635 -0.061418913 0.28451487
-0.31666148 -0.021725614 0.30790946 -0.1298416 0.04950989 0.1304306 -0.12307014 -0.3088058
-0.07205525 0.2947127 -0.07587826 -0.08313217 0.18263577 0.14543393 -0.0060018753 0.12052933
0.13515128 0.27457783 -0.05060371 -0.09337804 0.2950119 0.14792757 -0.057570502 0.0006686074
-0.134354 -0.33543655 0.14537387 -0.1583363 0.17022562 0.07527673 -0.18257573 -0.14871044
0.1700778 0.085103214 0.038109913 -0.25216335 0.28986165 0.2502194 -0.17918932 -0.022028217
0.22665964 -0.16241176 -0.12697023 0.10045528 -0.3481396 0.22653939 0.10645134 -0.293193
-0.20044324 0.08682656 -0.2400359 -0.13468924 0.21664451 -0.10878473 -0.17638627 0.21206827
-0.06589689 -0.22891814 0.038429625 -0.30338776 -0.18886046 0.13716564 -0.42752436 0.047931608
0.25906065 -0.3276993 -0.16394961 0.16839828 -0.18671556 -0.005188742 0.22260919 0.21464483
-0.031277478 -0.105237715 0.020903558 -0.016409535 -0.17214306 0.16511184 -0.15964524 -0.36203814
-0.09941049 -0.17184216 -0.023891982 -0.092014655 -0.008035789 -0.0674435 0.21206507 0.19638292
-0.1504033 0.0825931 -0.057968337 0.12361261 0.24737968 -0.06541039 0.012094508 0.13107671
-0.022602793 -0.23902577 0.24211597 0.10104776 -0.104346514 0.27551097 -0.12315497 -0.13675278
-0.13981834 -0.32496607 -0.46249217 -0.37740535 0.16573447 -0.077444084 -0.37241712 0.23610424
0.37419727 -0.07410011 0.3390683 0.62141716 0.3061473 -0.36637276 0.067486815 0.39301595
-0.028252626 -0.047781684 0.1423541 -0.036897432 -0.1622266 0.20586516 0.012817005 0.12405495
0.19883847 0.10805143 -0.014224799 0.14893453 -0.007875244 -0.2856813 -0.117890574 -0.086996615
0.14813758 -0.10884415 -0.067184955 0.07303976 -0.110506885 0.013294813 0.28982598 -0.21930127
0.011230454 0.047161024 -0.11199027 0.034518722 0.3957757 -0.1611289 0.1319317 0.051056214
-0.21499532 -0.015205255 0.12414014 -0.26540896 -0.043635163 0.16488844 -0.050553974 0.13909717
0.44271424 0.11629804 0.14590408 0.07855886 -0.30724072 0.27233398 0.21743941 -0.40485322
0.1534829 0.24547784 0.15562509 0.04402672 0.041213475 0.06062056 0.27183732 0.089730196
-0.15924849 -0.13072638 0.35216728 -0.058467474 -0.2990556 0.12164266 0.09171579 0.108683825
-0.12849829 0.19267951 0.19394952 -0.11388884 -0.3575742 0.08225859 0.44123617 -0.2693865
00000000: 57a3 e93b c9f7 07bb f900 60be b6b3 8a3d
00000010: d48b acbd a347 193d a689 f83d 7aaf e5bd
00000020: 776b 7abe fb7a bd3d 21cb babd ad38 bbbd
00000030: a12c ab3e ea09 933e cbca 87be 5b19 223e
00000040: 10b1 8a3e e4f5 3dbe f622 97bd 8ebb 223d
00000050: 253b 3fbe 15f0 30be b027 b13d 6991 363e
00000060: 6c89 823d 46e5 db3d e8b2 323e 95d1 12bd
00000070: 8c23 86bd 61a6 803e 48f9 fdbd 5e74 18be
00000080: a162 e83d 6894 9bbe 57fc 40bb 4259 333e
00000090: 03a9 7d3e 3af2 8b3d 9343 5abe 668e 113e
000000a0: c218 20bd 7039 083d 73f7 323e 2056 45be
000000b0: fd2d 8ebe 8d79 edbd 675e 223e 0511 a13d
000000c0: 48db f73d a391 a3be f703 843e 0753 873d
000000d0: 643a c6be 11ae 7b3d 0baf 383e c6fa 88be
000000e0: d5ae 143e 4c14 de3d fa26 a4ba 2df8 6dbe
000000f0: dd1a 9f3e e32b 62bd 6692 7bbd efab 913e
00000100: 7421 a2be eaf9 b1bc 4fa6 9d3e 32f5 04be
00000110: e2ca 4a3d 998f 053e 330c fcbd cb1b 9ebe
00000120: b491 93bd 95e4 963e 1066 9bbd 3341 aabd
00000130: df04 3b3e a2ec 143e 61ab c4bb 15d8 f63d
00000140: 1965 0a3e 7795 8c3e d645 4fbd fc3c bfbd
00000150: cd0b 973e 537a 173e 0ccf 6bbd 7c45 2f3a
00000160: 1894 09be 57be abbe e3dc 143e e922 22be
00000170: a04f 2e3e b02a 9a3d 22f5 3abe 8d47 18be
00000180: e028 2e3e 984a ae3d 2419 1c3d 8e1b 81be
00000190: bf68 943e c21c 803e 687d 37be 8574 b4bc
000001a0: 7719 683e 454f 26be 7c04 02be 7fbb cd3d
000001b0: 5b3f b2be f1f9 673e 2903 da3d 651d 96be
000001c0: fe40 4dbe 20d2 b13d f9cb 75be faeb 09be
000001d0: 0fd8 5d3e 87ca debd 9a9e 34be 6d28 593e
000001e0: f3f4 86bd 8469 6abe 6268 1d3d a455 9bbe
000001f0: a364 41be 2675 0c3e 79e4 dabe ef53 443d
00000200: 99a3 843e 34c8 a7be 68e2 27be 9970 2c3e
00000210: 5d32 3fbe 5306 aabb aaf3 633e dbcb 5b3e
00000220: d01c 00bd df86 d7bd f03d ab3c 4a6d 86bc
00000230: 4546 30be 1413 293e 0b7a 23be 105d b9be
00000240: ba97 cbbd 64f7 2fbe 1eb9 c3bc 2e72 bcbd
00000250: 8ba8 03bc d11f 8abd 9627 593e 9b18 493e
00000260: 5303 1abe 9226 a93d 3570 6dbd 9c28 fd3d
00000270: 1951 7d3e e2f5 85bd 0b28 463c f938 063e
00000280: 7e29 b9bc 2cc3 74be 40ed 773e 21f2 ce3d
00000290: a0b3 d5bd c60f 8d3e ac38 fcbd ec08 0cbe
000002a0: 8a2c 0fbe f461 a6be c6cb ecbe 463b c1be
000002b0: 4cb6 293e 019b 9ebd 75ad bebe 4fc5 713e
000002c0: c996 bf3e ccc1 97bd 5c9a ad3e 3215 1f3f
000002d0: 57bf 9c3e 3695 bbbe 8736 8a3d 6339 c93e
000002e0: 0d72 e7bc bab6 43bd 46c5 113e c321 17bd
000002f0: bb1e 26be 51ce 523e 6afe 513c 8610 fe3d
00000300: 509c 4b3e 114a dd3d 220f 69bc 4b82 183e
00000310: 2b07 01bc d244 92be 9d70 f1bd 482b b2bd
00000320: 61b1 173e afe9 debd 4498 89bd df95 953d
00000330: 6f51 e2bd 7dd2 593c 1264 943e 8390 60be
00000340: f0ff 373c eb2b 413d 285b e5bd 8163 0d3d
00000350: 1da3 ca3e f9fe 24be 1b19 073e 5220 513d
00000360: bc27 5cbe 761f 79bc 303d fe3d afe3 87be
00000370: c9ba 32bd 84d8 283e af11 4fbd 7d6f 0e3e
00000380: 71ab e23e ab2d ee3d e167 153e 78e3 a03d
00000390: a84e 9dbe 5c6f 8b3e 70a8 5e3e ec48 cfbe
000003a0: 9f2a 1d3e 8b5e 7b3e 2f5c 1f3e 5d55 343d
000003b0: 76cf 283d 444d 783d 432e 8b3e 77c4 b73d
000003c0: 0912 23be 23dd 05be 454f b43e 977b 6fbd
000003d0: d11d 99be c91f f93d 7dd5 bb3d a095 de3d
000003e0: 0e95 03be c74d 453e b49a 463e 8d3e e9bd
000003f0: f713 b7be 3177 a83d b5e9 e13e 07ed 89be

conv5.bias f4 [16]
-0.043672852 -0.2150668 0.18789513 -0.35277978 0.24948576 0.33245713 -0.03975666 -0.092277154
-0.16474622 -0.07219014 -0.15603732 0.34231648 -0.012216676 -0.0904369 -0.51437455 -0.17607485
00000000: 4ee2 32bd 793a 5cbe 9567 403e 8d9f b4be
00000010: 3279 7f3e d237 aa3e e1d7 22bd cefb bcbd
00000020: 3cb3 28be 6dd8 93bd 3fc8 1fbe 1b44 af3e
00000030: 7428 48bc fb36 b9bd 0dae 03bf f74c 34be

fc1.weight f4 [128, 400]
0.18728355 -0.1222635 0.5800287 -0.14352915 0.03710785 0.3836564 -0.18552767 0.1993597
0.031584628 0.27376664 -0.32769984 -0.48495245 -0.19687095 0.10228336 -0.17806305 0.31324404
-0.22898448 -0.05243309 0.16870983 -0.32574192 0.20392081 0.21539913 -0.025083827 -0.33578822
0.08445729 0.08021379 0.15173428 0.20502156 0.06575985 -0.015636846 -0.15768416 -0.31121695
-0.0038891786 -0.16146708 -0.061582975 -0.18942212 -0.20573483 0.1647837 0.20336922 -0.03836689
0.01828828 0.117893934 -0.05309881 0.28551152 0.27117127 0.16308494 -0.11462446 -0.17996165
0.057005174 -0.094073825 0.031030022 0.22075923 -0.060890406 -0.15602383 0.12575302 0.10752115
-0.08805981 -0.05150567 -0.024367524 0.08729044 -0.22596577 -0.029369585 0.18229593 -0.12603474
0.402152 0.24937303 0.19723874 0.3277776 -0.023203885 0.33508095 0.30636257 -0.037870843
0.4229086 -0.109389134 0.24951401 0.028461756 0.035726022 0.14201824 0.124363065 0.2623052
-0.12411894 0.0117823025 -0.10507797 -0.039970323 -0.12261317 -0.14149678 -0.15260854 0.07240392
0.13881497 0.009642708 0.2722542 0.0018925274 -0.015820848 0.16886458 -0.09908309 -0.0909893
0.11124696 0.10560903 0.15364742 -0.26613057 0.032657307 -0.5518988 -0.14228706 0.01751202
-0.35304445 -0.28349718 -0.09653797 -0.08425564 -0.026550267 0.20936751 -0.08509943 -0.010224935
-0.09075133 -0.22129615 -0.20602506 0.15295742 -0.0013738811 -0.15961537 0.038106702 0.039193146
0.026041454 0.07348199 0.0064393324 0.026479002 0.33343962 0.0011344767 0.057474438 0.14753279
0.12416419 0.24857312 0.026114762 -0.16881768 -0.11840931 0.1652208 -0.2355643 0.09614939
-0.19253968 -0.016363883 0.15706727 -0.29791963 -0.1251747 0.025362263 -0.1455847 0.3682195
-0.14190327 -0.00096315535 0.2640367 -0.21497872 0.47904935 -0.080149084 -0.123556525 -0.16610894
-0.043425012 -0.045515668 -0.010212736 -0.124084406 -0.04016507 -0.101414375 -0.12866326 -0.286372
-0.2906354 -0.31367964 0.103928074 0.063490085 0.17773592 0.11149885 -0.042382997 -0.0045604827
0.319975 -0.11594041 0.38309303 -0.21903871 0.008424217 0.11543687 0.10946791 0.015339979
0.3014873 0.09565094 0.16492635 0.16323103 -0.1317719 0.29582438 -0.055145267 -0.20281152
-0.40299225 0.08707476 -0.315837 0.48591617 0.12643823 0.15385166 0.12027331 -0.19134058
0.14268288 -0.016287522 0.17880492 0.20230033 -0.30405903 -0.2519812 -0.18685322 0.0404728
0.12256965 -0.11466825 -0.16133425 -0.13169803 -0.061515853 -0.038879205 -0.11706336 -0.0935727
-0.14779122 0.25255382 -0.38147336 -0.26851127 0.119618066 -0.076848894 0.11703064 0.3195591
-0.00023707566 0.012407427 0.17137705 -0.2234347 0.14375822 -0.2891401 0.059830163 -0.041816533
0.08394376 -0.23685436 -0.12313379 0.11028288 0.18321845 -0.2035854 0.15778863 -0.0061797313
-0.31161305 0.25315213 -0.10771319 -0.0908815 -0.124313466 -0.114613675 -0.47239694 -0.21415265
-0.09454936 -0.20767969 0.39042804 -0.14095919 0.39048266 0.31938595 -0.28385302 0.22305815
0.05379097 -0.06296468 -0.008923744 0.31591025 0.17100844 0.41809464 -0.3442448 -0.27558008
00000000: 42c7 3f3e 4965 fabd c37c 143f 4ef9 12be
00000010: 67fe 173d 9d6e c43e f7fa 3dbe f324 4c3e
00000020: e25e 013d 242b 8c3e 46c8 a7be b04b f8be
00000030: 8a98 49be f079 d13d 2956 36be 8661 a03e
00000040: e87a 6abe 14c4 56bd 45c2 2c3e a5c7 a6be
00000050: 9ed0 503e 9791 5c3e 997c cdbc 6fec abbe
00000060: f2f7 ac3d 2147 a43d 3b60 1b3e 2cf1 513e
00000070: 1aad 863d d818 80bc f577 21be d457 9fbe
00000080: 97e1 7ebb a057 25be 6e3e 7cbd dff7 41be
00000090: 27ac 52be 0fbd 283e 0540 503e 9a26 1dbd
000000a0: 4ed1 953c 6072 f13d 237e 59bd 912e 923e
000000b0: f6d6 8a3e bdff 263e 3bc0 eabd de47 38be
000000c0: 427e 693d c7a9 c0bd ac32 fe3c b50e 623e
000000d0: 3868 79bd b6c4 1fbe 66c5 003e 0c34 dc3d
000000e0: b458 b4bd 9cf7 52bd 679e c7bc 55c5 b23d
000000f0: 9263 67be 7c98 f0bc c9ab 3a3e 400f 01be
00000100: dee6 cd3e a55b 7f3e f4f8 493e 77d2 a73e
00000110: 1316 bebc bb8f ab3e 8edb 9c3e 751e 1bbd
00000120: 7a87 d83e 6907 e0bd 9a80 7f3e a128 e93c
00000130: 7355 123d 3b6d 113e 10b2 fe3d de4c 863e
00000140: 1232 febd 8f0a 413c 1e33 d7bd ecb7 23bd
00000150: 9d1c fbbd 88e4 10be 6a45 1cbe 8248 943d
00000160: 8325 0e3e 73fc 1d3c e764 8b3e af0e f83a
00000170: b99a 81bc d6ea 2c3e 13ec cabd 9958 babd
00000180: 72d5 e33d 8c49 d83d c055 1d3e 4442 88be
00000190: abc3 053d 3d49 0dbf b3b3 11be 5e75 8f3c
000001a0: 3ec2 b4be 8b26 91be b3b5 c5bd 398e acbd
000001b0: f27f d9bc 7064 563e 9c48 aebd 7c86 27bc
000001c0: d5db b9bd 759b 62be 3cf8 52be dfa0 1c3e
000001d0: cd13 b4ba 3672 23be c615 1c3d fe88 203d
000001e0: e354 d53c ba7d 963d 0901 d33b 7eea d83c
000001f0: 99b8 aa3e b9b2 943a 516a 6b3d d612 173e
00000200: cb49 fe3d f489 7e3e a0ee d53c 8bde 2cbe
00000210: 9580 f2bd a42f 293e c537 71be f9e9 c43d
00000220: 1f29 45be 8d0d 86bc 3ed6 203e ec88 98be
00000230: cc2d 00be 85c4 cf3c 2814 15be 4487 bc3e
00000240: 174f 11be 437c 7cba d12f 873e 6223 5cbe
00000250: f545 f53e 3425 a4bd 340b fdbd 7618 2abe
00000260: 6dde 31bd a36e 3abd 5253 27bc f71f febd
00000270: 2184 24bd 57b2 cfbd 4dc0 03be 5a9f 92be
00000280: 2ace 94be 9e9a a0be 3ed8 d43d 1707 823d
00000290: 6800 363e 8259 e43d cb99 2dbd 1a70 95bb
000002a0: c3d3 a33e 2a72 edbd c524 c43e af4b 60be
000002b0: ba05 0a3c 2a6a ec3d b630 e03d 8954 7b3c
000002c0: 8b5c 9a3e a4e4 c33d 74e2 283e 0926 273e
000002d0: 37ef 06be 4b76 973e 01e0 61bd d3ad 4fbe
000002e0: 0055 cebe 4054 b23d 63b5 a1be 01ca f83e
000002f0: 0679 013e 4a8b 1d3e da51 f63d c9ee 43be
00000300: 761b 123e 696d 85bc a318 373e d127 4f3e
00000310: a0ad 9bbe ae03 81be 7356 3fbe cfc6 253d
00000320: cc05 fb3d 30d7 eabd ce34 25be d9db 06be
00000330: 0cf8 7bbd cd3f 1fbd eabe efbd 0ba3 bfbd
00000340: 9556 17be bc4e 813e 7a50 c3be 4f7a 89be
00000350: 51fa f43d f462 9dbd c3ad ef3d 409d a33e
00000360: 8397 78b9 8548 4b3c 777d 2f3e 11cc 64be
00000370: 5b35 133e 2c0a 94be 7910 753d d047 2bbd
00000380: b5ea ab3d f389 72be 922d fcbd fedb e13d
00000390: 9e9d 3b3e b178 50be 5893 213e 587f cabb
000003a0: bf8b 9fbe 289d 813e bc98 dcbd 1420 babd
000003b0: 0f98 febd 93ba eabd 03de f1be d54a 5bbe
000003c0: 18a3 c1bd fca9 54be 2fe6 c73e 9b57 10be
000003d0: 58ed c73e 8e86 a33e 2f55 91be 5b69 643e
000003e0: ec53 5c3d a0f3 80bd e534 12bc fdbe a13e
000003f0: d61c 2f3e 8010 d63e db40 b0be d518 8dbe

fc1.bias f4 [128]
-0.20504782 -0.2749522 -0.26386175 -0.1782722 -0.18230991 0.023407903 0.013194958 -0.179827
-0.15390371 -0.37633142 -0.1787957 -0.2031389 -0.076840885 -0.080766946 -0.14863567 -0.23479523
-0.17930704 -0.11747819 0.17273758 -0.16139928 -0.16076256 -0.05934458 -0.0390417 -0.22037983
-0.10549717 0.17545366 -0.10729956 -0.08162544 -0.197039 -0.06735628 -0.2981896 -0.087613165
-0.21080832 -0.14427903 -0.07498687 -0.064580575 -0.19740134 -0.016949473 -0.05500789 -0.15944248
-0.22970352 -0.46514997 -0.10877974 -0.064874426 -0.28219262 -0.06871398 -0.1468391 -0.17777194
-0.09542483 -0.09828865 -0.06380821 -0.07381768 -0.26902437 -0.062852815 -0.1827679 -0.2129093
-0.3526518 -0.1489882 -0.08661779 -0.24067977 -0.1035 -0.15139781 -0.16008274 -0.17551424
-0.032222874 -0.18878308 -0.056036033 -0.05879467 -0.2378273 0.070744604 -0.15371011 -0.37499288
-0.34634376 -0.27035454 -0.1214944 -0.051018637 -0.24323715 -0.28002954 -0.1748501 -0.116224796
-0.016364539 -0.16186099 0.09853316 -0.24396457 -0.13077344 -0.13805188 -0.29426566 -0.14965442
-0.31077012 -0.25260904 -0.13764076 0.18028 -0.13041788 -0.13900341 -0.028320467 -0.17866668
0.029848091 -0.15158811 -0.040921975 -0.17626661 -0.06692505 -0.20572527 -0.063697346 -0.26482525
-0.06874294 -0.067142405 -0.19987479 -0.15466797 -0.175952 -0.15415245 -0.13023622 -0.09398449
-0.107326455 -0.17758866 -0.030217167 -0.16060606 -0.16429825 -0.21759486 -0.37566006 -0.08049166
-0.20995244 0.032505713 -0.191749 -0.24211428 -0.1806617 0.1560635 -0.16516295 -0.0677562
00000000: 0ef8 51be 89c6 8cbe e318 87be fd8c 36be
00000010: 73af 3abe eec1 bf3c aa2f 583c 9224 38be
00000020: ef98 1dbe 83ae c0be 3816 37be a503 50be
00000030: c15e 9dbd 2469 a5bd f333 18be 296e 70be
00000040: 449c 37be 6898 f0bd 1fe2 303e da45 25be
00000050: f19e 24be 4d13 73bd 31ea 1fbd 40ab 61be
00000060: e60e d8bd 20aa 333e dfbf dbbd 3d2b a7bd
00000070: 97c4 49be 17f2 89bd 4fac 98be 886e b3bd
00000080: 23de 57be e2bd 13be b792 99bd d242 84bd
00000090: 9423 4abe 9fd9 8abc f44f 61bd e444 23be
000000a0: 6637 6bbe 2328 eebe eac7 debd e2dc 84bd
000000b0: 8d7b 90be eab9 8cbd fd5c 16be d909 36be
000000c0: 186e c3bd 8f4b c9bd e1ad 82bd b92d 97bd
000000d0: 90bd 89be fab8 80bd 8227 3bbe e504 5abe
000000e0: c78e b4be 5d90 18be ab64 b1bd c274 76be
000000f0: cff7 d3bd 0708 1bbe bbec 23be 01ba 33be
00000100: 22fc 03bd 5a50 41be 0a86 65bd aed2 70bd
00000110: 0089 73be 8ce2 903d 2f66 1dbe 11ff bfbe
00000120: f853 b1be e96b 8abe 0ed2 f8bd ebf8 50bd
00000130: 2913 79be 0860 8fbe e80b 33be 4407 eebd
00000140: ed0e 86bc e3be 25be c1cb c93d d9d1 79be
00000150: 79e9 05be 795d 0dbe fda9 96be 023f 19be
00000160: 431d 9fbe f955 81be b3f1 0cbe 529b 383e
00000170: 448c 05be e956 0ebe 5300 e8bc 66f4 36be
00000180: fc83 f43c ea39 1bbe cd9d 27bd 3c7f 34be
00000190: 0010 89bd a5a9 52be c173 82bd 2d97 87be
000001a0: 19c9 8cbd f581 89bd faab 4cbe 4861 1ebe
000001b0: c32c 34be 24da 1dbe a55c 05be f17a c0bd
000001c0: f9cd dbbd cdd9 35be fe89 f7bc ea75 24be
000001d0: cd3d 28be 30d1 5ebe 8456 c0be d0d8 a4bd
000001e0: c6fd 56be b624 053d da59 44be ceec 77be
000001f0: 61ff 38be 1ccf 1f3e 7a20 29be c3c3 8abd

fc2.weight f4 [5, 128]
-0.77327144 -0.27358574 0.21083355 0.060678106 -0.55272394 -0.755051 0.2402291 -0.4772815
0.08048493 0.18742749 -0.5694287 0.13783681 0.258625 -0.55560476 0.25633353 0.19762771
-0.83178973 -0.92346436 -0.8639027 -0.14521219 0.39270034 0.2638517 0.14390196 0.13991933
-0.99943995 -0.24807397 -0.39775518 0.21191014 0.18405758 -0.48093408 0.21301557 -1.1003665
0.112028494 -0.9484078 0.4090812 -0.24027824 0.2475734 0.17649822 0.11747307 0.2089577
-0.2719724 -0.3612679 0.08828941 -1.129915 0.19797356 0.1494055 0.30381328 -0.5208424
-0.28360045 -0.32270688 -0.38324046 0.13194872 -0.6098611 -0.34272835 0.124589324 0.38148108
-0.8237358 0.2694297 0.1203326 0.037178386 0.09151448 0.017663464 -0.67349213 -0.6129483
-0.044535838 -0.19859475 -0.42133602 -1.1294822 0.14256556 0.208954 -0.5125112 0.024809027
0.29312772 0.29987562 -0.72223616 0.10651755 -0.5426404 0.21588399 -0.2538724 0.07270642
-0.13771221 -0.4778729 -0.8343991 0.32720885 -0.20583478 0.09965981 0.074194826 0.25805143
-0.45408666 -0.14261793 0.03407496 0.06989918 -0.5389544 0.2623884 0.28261036 0.1806477
0.057959326 0.07129294 0.2108836 0.36233225 -0.42418295 -0.18262173 -0.98025775 -0.86761576
0.45802057 -0.11550501 -0.40820912 0.17173743 -0.58217496 0.3034423 -0.9427745 0.15538566
-0.14022698 -0.9515067 -0.797141 -0.5498483 -0.53034365 0.11376998 -0.07434945 0.29203585
0.25704685 0.063019484 0.06818197 0.19877386 0.40303418 -0.39851305 -0.4496743 0.23650694
-0.6196138 0.37011766 0.53339577 0.15226674 0.47492313 0.17600296 -0.35214642 -0.46102002
0.27050996 0.080630325 0.18349639 0.5218214 -0.78665864 0.51866347 -0.2361514 0.30596665
-0.055638954 0.1993281 0.13754596 0.611942 -0.8092676 -0.57333714 -0.83843386 0.26908582
-0.3873242 0.20543705 -0.32739106 0.2262772 0.16918068 0.38730443 -0.10742164 0.08770495
0.39141604 0.2497534 -0.04865661 0.1594147 0.47111917 0.013109155 0.33426782 -0.9650856
0.42378566 0.22196548 -0.13224189 -0.3904042 0.19535686 0.31501564 0.20985635 -0.5141639
0.11881461 0.25865927 0.20212992 -0.008946729 0.06487273 -0.65344375 -0.8585561 -0.6099233
-0.05721384 -0.61224896 -0.8968864 -0.6100839 -1.2330889 0.016975533 0.1609494 -0.29529983
-0.05161486 -0.19953752 0.2597889 0.1990767 0.20373443 -0.9351969 -0.4810663 -0.5364985
0.20990221 -0.6294507 0.17659685 0.42376724 -0.22544593 -0.045971736 0.38810912 0.5666321
-0.85716593 -0.34750196 0.15125446 -0.03556111 0.29926005 -0.42566428 -0.13725054 0.41814506
-0.06962629 -0.5247288 -0.35475484 0.1643719 -0.06422852 -0.07710742 -0.5882166 0.34947106
0.5434036 -0.5324156 0.17335372 0.12425826 0.066646345 0.21058111 0.016957533 0.14063014
-0.5300526 0.3272653 -0.14249139 -0.79063034 -0.52674806 0.6822095 -0.48557013 -0.20879453
0.05324278 0.074478954 0.06713963 -0.6518825 -0.7609112 -0.12950645 -0.455982 -0.6625972
0.12810974 0.07712597 -0.70551974 -0.8022425 -0.7743602 0.20281643 -0.035983115 0.28089496
00000000: 1ef5 45bf 6e13 8cbe c0e4 573e 9b89 783d
00000010: 517f 0dbf 064b 41bf 9efe 753e 3e5e f4be
00000020: 48d5 a43d feec 3f3e 14c6 11bf 1825 0d3e
00000030: 7f6a 843e 1d3c 0ebf 263e 833e eb5e 4a3e
00000040: 2cf0 54bf 2968 6cbf ba28 5dbf 81b2 14be
00000050: 0510 c93e 9217 873e 095b 133e 0347 0f3e
00000060: 4cdb 7fbf 1a07 7ebe 91a6 cbbe f9fe 583e
00000070: 9779 3c3e fe3c f6be c120 5a3e cfd8 8cbf
00000080: 326f e53d dbca 72bf 1773 d13e 800b 76be
00000090: e283 7d3e f3bb 343e b995 f03d 02f9 553e
000000a0: f73f 8bbe 1bf8 b8be 14d1 b43d 0ea1 90bf
000000b0: 95b9 4a3e c1fd 183e 6a8d 9b3e ed55 05bf
000000c0: 1434 91be d639 a5be 1838 c4be 911d 073e
000000d0: db1f 1cbf 177a afbe b028 ff3d 7d51 c33e
000000e0: 59e0 52bf b1f2 893e f070 f63d 5d48 183d
000000f0: f26b bb3d f8b2 903c fb69 2cbf 2eea 1cbf
00000100: 366b 36bd 6c5c 4bbe 5bb9 d7be df92 90bf
00000110: b5fc 113e 0af8 553e ef33 03bf 4d3c cb3c
00000120: d614 963e 4c89 993e 78e4 38bf e025 da3d
00000130: 7bea 0abf b110 5d3e 90fb 81be 1be7 943d
00000140: 6e04 0dbe c2ab f4be 2e9b 55bf eb87 a73e
00000150: 5ac6 52be 711a cc3d 75f3 973d 511f 843e
00000160: 0c7e e8be 6f0a 12be 2f92 0b3d 4d27 8f3d
00000170: eaf8 09bf c657 863e 4eb2 903e b6fb 383e
00000180: c266 6d3d 0802 923d dff1 573e 9d83 b93e
00000190: 822e d9be 3101 3bbe 2cf2 7abf 111c 5ebf
000001a0: ac81 ea3e e48d ecbd c900 d1be f0db 2f3e
000001b0: 6b09 15bf ca5c 9b3e ab59 71bf 6b1d 1f3e
000001c0: a997 0fbe f195 73bf 6f11 4cbf dcc2 0cbf
000001d0: 9ac4 07bf 3c00 e93d 8644 98bd b985 953e
000001e0: a59b 833e 5c10 813d fda2 8b3d 608b 4b3e
000001f0: 7f5a ce3e e709 ccbe b63b e6be e02e 723e
00000200: 039f 1ebf 1080 bd3e a08c 083f d0eb 1b3e
00000210: 2029 f33e 1f3a 343e 894c b4be d10a ecbe
00000220: 4880 8a3e 8321 a53d 7ae6 3b3e 1696 053f
00000230: 7662 49bf 21c7 043f acd1 71be a9a7 9c3e
00000240: ace5 63bd aa1c 4c3e d9d8 0c3e 3ba8 1c3f
00000250: 292c 4fbf 39c6 12bf 9aa3 56bf 9ec5 893e
00000260: 5c4f c6be 175e 523e cd9f a7be 36b5 673e
00000270: b33d 2d3e c44c c63e e0ff dbbd a79e b33d
00000280: af67 c83e 5bbf 7f3e 274c 47bd 9b3d 233e
00000290: 8836 f13e c8c7 563c 2725 ab3e da0f 77bf
000002a0: 6ffa d83e eb4a 633e 6b6a 07be 0fe3 c7be
000002b0: a10b 483e bb49 a13e 95e4 563e 3fa0 03bf
000002c0: 1355 f33d fd6e 843e 25fb 4e3e 4d95 12bc
000002d0: fedb 843d 1748 27bf 55ca 5bbf ef23 1cbf
000002e0: 0f59 6abd 59bc 1cbf 599a 65bf 752e 1cbf
000002f0: dbd5 9dbf 4610 8b3c ebcf 243e 8a31 97be
00000300: 1a6a 53bd 9053 4cbe 0d03 853e c3da 4b3e
00000310: c29f 503e 1069 6fbf 524e f6be f757 09bf
00000320: 9bf0 563e ae23 21bf ced5 343e 05f8 d83e
00000330: 4cdb 66be dc4c 3cbd 3db6 c63e cd0e 113f
00000340: 3a6f 5bbf c7eb b1be 73e2 1a3e 87a8 11bd
00000350: 9d38 993e abf0 d9be 688b 0cbe 1c17 d63e
00000360: 3a98 8ebd a054 06bf 6da2 b5be 1b51 283e
00000370: 3e8a 83bd 7fea 9dbd 5d95 16bf dfed b23e
00000380: 801c 0b3f 644c 08bf a383 313e 1d7b fe3d
00000390: e17d 883d 93a2 573e 86ea 8a3c 5901 103e
000003a0: 87b1 07bf 518f a73e 43e9 11be c066 4abf
000003b0: f6d8 06bf 48a5 2e3f a69c f8be 3cce 55be
000003c0: 1a15 5a3d 6c88 983d 8180 893d c6e1 26bf
000003d0: 14cb 42bf 579d 04be 7976 e9be f89f 29bf
000003e0: 332f 033e 38f4 9d3d f19c 34bf c45f 4dbf
000003f0: 783c 46bf 1caf 4f3e 0863 13bd 77d1 8f3e

fc2.bias f4 [5]
0.019589113 0.058226068 -0.058648802 0.1564577 -0.0063377023
00000000: 5979 a03c 757e 6e3d ba39 70bd 7336 203e
00000010: 80ac cfbb
