Trained_Weights/STRIDE 2/270th.pth (torch, 344904 bytes, 14 tensors)

conv1.weight f4 [32, 3, 3, 3]
000000 c1 72 f9 bd d1 13 d1 be d4 ad da be 37 54 62 bc
       -0.12180091 -0.4083543 -0.42710745 -0.013814024
000010 5e 04 f8 be 86 33 81 be 45 95 cd be 8c 4d 92 be
       -0.48440832 -0.25234622 -0.40152946 -0.2857479
000020 6d 49 04 bf 1e e0 a8 3e 0e 07 70 3e 62 c2 83 bd
       -0.5167454 0.32983488 0.23440191 -0.0643356
000030 33 6f 99 3e 57 d2 cb 3e 3e 66 12 3e 3d df bc 3e
       0.2996765 0.39808914 0.14296815 0.36889067
000040 3a e6 59 3e f7 7a 38 3e 2b 23 e3 3e b5 7c b0 3e
       0.2127923 0.18015657 0.4436277 0.34470144
000050 2b e0 fc 3e b5 15 d7 3e 04 9c a9 3e 3c 9a f5 3e
       0.49389777 0.4200875 0.33126843 0.47969234
000060 1b ce 58 3e 94 b9 02 3f b8 e3 0b 3f 30 33 ae be
       0.21172373 0.5106442 0.54644346 -0.34023428
000070 99 60 09 be 1e da 91 be ae b2 97 bc e8 40 2b be
       -0.13415755 -0.28486723 -0.018517818 -0.16723979
000080 30 8b a6 bc 7f 07 a3 be 74 0f 81 be 3a e1 b1 be
       -0.020330042 -0.31841657 -0.25207102 -0.34742147
000090 10 4d d5 ba 0f e3 46 bd b4 70 ad 3d 11 2e 0b be
       -0.0016273577 -0.048556384 0.08468762 -0.13591792
0000a0 35 70 87 3b 50 21 07 3e cf 6e 54 3c f7 56 6f 3d
       0.004133249 0.13196301 0.012965872 0.058432546
0000b0 0c 69 5e be 5f 8a 9d 3d 87 b6 fb bd 67 1c 44 be
       -0.2171976 0.07692408 -0.12290674 -0.1915146
0000c0 1e 94 4f be 04 00 7f be 76 ef c2 3d 81 4c 9c be
       -0.20271346 -0.2490235 0.0951833 -0.30527118
0000d0 85 d4 eb bd 85 e5 c1 bb 10 26 61 bd ab 2e 83 be
       -0.11515144 -0.0059172534 -0.05496794 -0.25621542
0000e0 9e 0e f5 be 36 34 d5 be 12 bb 4a be eb 3e 1c be
       -0.47862715 -0.41641396 -0.19797924 -0.15258376
0000f0 49 4d 16 be 5a 45 bb be 37 c4 9f be 88 2c d5 bd
       -0.1467792 -0.3657635 -0.31204388 -0.10408884
000100 1d b9 0e 3e 11 a8 61 bd e0 d8 ca bd 26 04 d5 bd
       0.13937803 -0.05509192 -0.09904647 -0.10401182
000110 b7 8d e2 3d d1 b1 51 bd b2 7f 14 3d 23 16 35 be
       0.11062186 -0.05119497 0.036254592 -0.17684226
000120 c7 66 01 3d 1a d5 8c 3c 66 75 55 be 07 5e 9c be
       0.031592157 0.017191458 -0.20845565 -0.30540487
000130 5e aa 86 be ae 91 11 be 28 c2 49 be f3 52 82 be
       -0.26301855 -0.14215729 -0.19702971 -0.2545391
000140 27 14 21 be 88 78 a9 3e ea 62 48 3c 26 5c c2 3e
       -0.15730344 0.3309977 0.012230614 0.3796093
000150 b1 fe 9d 3e f4 0d 70 3e 86 d3 08 3e e5 82 41 3e
       0.30858377 0.23442823 0.1336194 0.18897589
000160 90 e4 0c 3d 5c 48 80 3e 8d ce 84 3e 7d 48 af 3d
       0.03439766 0.25055206 0.25938836 0.08558748
000170 35 54 d0 3e fb 29 d7 3e 01 95 4b 3e 91 80 d0 3e
       0.40689245 0.42024216 0.19881059 0.40723088
000180 35 d2 d0 3e f3 01 2f 3e ef 84 c0 3e 1c 1d d5 bd
       0.40785375 0.17090587 0.3760142 -0.10405943
000190 42 ef 86 3c 7c e7 6c 3e f8 0b 8d 3e 73 21 83 3e
       0.016471509 0.2313518 0.27548194 0.25611457
0001a0 26 ad a7 3e 10 f9 ad 3e fa 02 17 3e ab 54 8d 3e
       0.3274929 0.33979082 0.14747229 0.2760366
0001b0 63 15 9e 3e da 70 0d 3e 29 75 5f 3e 8d a6 0b be
       0.30875692 0.1381258 0.21822037 -0.13637753
0001c0 de 49 19 3e eb 76 b0 3d 61 9b b9 3c a9 ab c6 3d
       0.14969584 0.08616432 0.022657098 0.0970071
0001d0 5f ad e7 bd 9c 15 94 3e 22 a0 a8 bd 00 17 9e bd
       -0.11312365 0.28922737 -0.08233668 -0.07719231
0001e0 ee 10 af 3d 0b da 22 3e 4c c2 d7 bc 39 03 a8 3d
       0.08548151 0.1590349 -0.026337765 0.0820374
0001f0 61 9b 0a 3c 66 ae 3b be 0e 1e 80 3e 36 f5 e9 bd
       0.008459897 -0.18328246 0.2502293 -0.114237234
000200 f1 c9 64 be 1d f8 8e 3e 9f 84 9c bb ef 5b 82 be
       -0.2234266 0.2792367 -0.004776552 -0.25460765
000210 64 94 5c 3e 5f a5 13 be 2a e4 b8 bd 5b 2c e7 3d
       0.21540982 -0.14418553 -0.09027894 0.11287757
000220 4d 85 a1 3e ec 8b 4f 3e b3 d5 8f 3e a1 5d 8c 3d
       0.31547013 0.2026822 0.28092727 0.06853796
000230 e5 39 2a 3e 59 56 d5 3e 35 4b f2 3d 03 6a bc 3e
       0.16623648 0.4166744 0.11830751 0.3679963
000240 c6 7a 2b 3d ad 74 d0 3b 2c ec cf bd 64 b9 4d ba
       0.041865133 0.006361565 -0.10152468 -0.0007847755
000250 97 a9 c9 3d 08 bd 25 3e 94 d5 1e 3e 21 df 3d 3e
       0.098468 0.16185391 0.15511161 0.18542148
000260 f3 74 6f 3e fb 19 0e 3d e4 ad b0 be 13 c2 16 be
       0.23384456 0.034692746 -0.34507668 -0.14722471
000270 d4 c6 5d be 91 79 53 be 7d 82 ed bd 84 96 51 bd
       -0.21657878 -0.20651843 -0.11597154 -0.051168934
000280 50 c6 c0 bd e5 bb 5b bd 86 b9 b8 be 55 c1 df bb
       -0.09412825 -0.053645987 -0.36079043 -0.006828467
000290 eb 13 79 bd f5 53 04 bd 3a 37 7b bd a3 06 e4 3d
       -0.06081001 -0.03230663 -0.061331965 0.11134078
0002a0 9c 97 08 be 6f 20 b8 bd 16 6d 91 bc 28 d9 38 be
       -0.13339084 -0.08990561 -0.017752212 -0.18051589
0002b0 d1 a1 23 be fb 19 04 be ef 51 a9 be eb 92 1d 3d
       -0.15979697 -0.12900536 -0.33070323 0.03847019
0002c0 f6 0b 1d be 3c 41 b7 be 5e 24 0b be 3a 89 73 be
       -0.15336594 -0.35791957 -0.13588092 -0.23782817
0002d0 d8 74 df bc 17 de b3 3e ee 15 a2 3e 42 db 2c 3e
       -0.027277395 0.3513038 0.31657356 0.16880515
0002e0 20 48 49 3e 80 e2 af 3e 2a 61 66 be 15 55 85 ba
       0.1965642 0.34352493 -0.22498003 -0.0010172451
0002f0 1b 35 1b 3e 54 6a 84 3e f8 4e a8 3e a9 b1 ac 3d
       0.15156977 0.25862372 0.32872748 0.084323235
000300 be 2b 92 3d 80 08 1d 3d ae 68 f1 3d 22 03 36 3d
       0.071372494 0.038338184 0.11787544 0.04443658
000310 e7 7e 4e 3e 48 8f 3c bd 57 46 36 be 65 43 d9 bc
       0.20165597 -0.04603508 -0.1780027 -0.026521394
000320 c2 12 19 be e9 f5 14 3e e9 8b 04 3e c6 af 79 be
       -0.14948562 0.14546932 0.12943996 -0.24383458
000330 86 42 6c be c7 bf 57 be f7 5b 86 be e2 02 6b 3e
       -0.23072252 -0.21069251 -0.2624204 0.22950318
000340 42 ad 7d 3e 65 97 49 3e 6d 62 79 3e c9 67 11 3e
       0.24773124 0.19686659 0.24353953 0.14199747
000350 ee 26 0e 3e 36 65 d7 3d 66 82 d8 3c 96 a6 3a bd
       0.13882038 0.10517351 0.026429366 -0.045569025
000360 d0 38 05 3d a1 39 8d 3e c6 ec af 3e c7 b6 44 3e
       0.032524884 0.2758303 0.3436033 0.19210349
000370 14 4d 1d 3e 59 11 ad bd f3 f1 8d 3e 16 2f 38 bd
       0.15361434 -0.084505744 0.27723655 -0.04496678
000380 0e 4a c7 3d 2e f7 95 bc 56 06 35 bd 28 d1 72 3d
       0.09730922 -0.018306341 -0.044195496 0.0592815
000390 0f 1d 44 3e 5d 12 c4 bd ab fc e8 3d c3 03 44 3e
       0.1915171 -0.09573815 0.113763176 0.1914206
0003a0 06 cf 07 3d 5e ed 44 3e 91 1d 68 be dd ca 98 be
       0.033156417 0.19231173 -0.22667529 -0.29842272
0003b0 00 8c 19 be c2 de 29 bd 77 f7 51 bd 64 77 3b be
       -0.14994812 -0.041472204 -0.05126139 -0.18307263
0003c0 03 1a 17 3e e1 2f 73 3e 46 d8 4e 3e 64 c1 37 bf
       0.14756016 0.23748733 0.2019969 -0.71779466
0003d0 bf c9 3f bf 70 36 14 bf 86 b5 13 bf 03 0f e2 be
       -0.74917215 -0.57895565 -0.5769886 -0.44152078
0003e0 68 21 2a bf de 51 25 bf 49 e5 00 bf 5f 58 58 bf
       -0.66457224 -0.64578044 -0.5034986 -0.84509844
0003f0 ae 23 63 3d ab bb 35 3e 04 f6 dd 3d 26 e6 bc bc
       0.05545395 0.17747371 0.108379394 -0.023058962

conv1.bias f4 [32]
000000 99 56 f2 bc 50 92 76 be e3 48 97 be 0c 02 79 3e
       -0.029582309 -0.24079251 -0.29547796 0.24317187
000010 16 46 2f 3d 6b 64 ef bd 68 e6 2f 3d d7 88 05 3e
       0.04279145 -0.11689075 0.042944342 0.13040482
000020 f5 d1 00 3e b3 1c ea 3d 24 ed 2e bd 17 d9 43 bd
       0.12580092 0.11431255 -0.042706624 -0.047814455
000030 b6 8f 1c 3d 75 27 01 3e f5 2b 8e be 9e d3 6f 3e
       0.03822299 0.12612708 -0.27767912 0.2342057
000040 a2 7b 3f bd 72 04 84 be 7d 63 c8 3d 22 6a 90 be
       -0.046748765 -0.25784642 0.09784601 -0.28205973
000050 fe 25 d6 3d e4 b1 5b be 24 1e 81 bd 0e f1 52 3c
       0.10456465 -0.21454579 -0.06304577 0.012874855
000060 41 56 06 bc 9f ea a4 bb 68 8e e0 bd 29 f5 ec bd
       -0.0081992755 -0.005032852 -0.10964662 -0.11570198
000070 b4 94 d9 3d 75 98 9a ba d7 f8 a8 3c 92 39 09 3e
       0.10624066 -0.0011794703 0.020626469 0.13400868

conv2.weight f4 [32, 32, 3, 3]
000000 71 d5 26 3d 39 1b 1b 3d 95 ed ab 3d 39 84 b8 3c
       0.040730897 0.03786776 0.083949246 0.022523986
000010 1b 44 50 bc fb 1e f7 3d f7 7b 8d bd 1b 2e cf 3c
       -0.01271155 0.12066456 -0.0690841 0.02529054
000020 31 7f 64 3d 0f 05 0b be a8 37 68 bd 84 ef 1f be
       0.05578536 -0.13576148 -0.056693703 -0.15618712
000030 57 5b da bc a1 38 0b be cf 7e 5b be 69 d8 c9 bd
       -0.026654882 -0.13595821 -0.21435092 -0.0985573
000040 17 b9 08 be 1c f3 68 be 0e c0 31 bd 64 c3 9e bc
       -0.13351856 -0.22748989 -0.04339605 -0.019380279
000050 98 f6 80 bd 6b 06 a0 bd 52 41 cf bd c0 5f 58 be
       -0.06297034 -0.07813724 -0.10119881 -0.21130276
000060 58 b6 85 bd 2e 8d 41 be c8 a8 4d be 25 81 06 3d
       -0.0652892 -0.18901512 -0.20083916 0.032838006
000070 da f2 04 3e 67 16 02 3e cb a0 7f 3d 5b 83 e2 3d
       0.12983266 0.12703858 0.062409203 0.1106021
000080 c7 be 3e 3e 92 0e 8b 3d c3 cd cd 3d 89 19 73 3e
       0.18627463 0.067898884 0.100490116 0.2374021
000090 40 69 14 3d 67 83 07 be 17 6f 6e be ec 5d e5 3c
       0.036233187 -0.1323372 -0.23284565 0.027998887
0000a0 40 35 00 be 87 d0 62 be ce 4c 45 bd f7 9b ee bd
       -0.12520313 -0.2214986 -0.04816895 -0.11650842
0000b0 cd 22 50 be 57 db 77 3e a2 46 69 3e 3a 7f d2 3d
       -0.20325775 0.24204765 0.2278085 0.10278173
0000c0 94 1c 4a 3e b2 b0 3b 3e ff d4 e8 3d 31 7d 8d 3e
       0.19737464 0.18329123 0.11368751 0.27634576
0000d0 68 2a 8c 3e 03 0f 51 3e 8e 60 46 bd 61 37 9d bd
       0.27376103 0.20415883 -0.048431925 -0.07676578
0000e0 14 92 a1 3d 3b ee dc bd 51 22 9d 3c 61 4f 1b 3e
       0.0788919 -0.10787626 0.019181402 0.15167
0000f0 4a 99 15 be f7 42 87 bc ac 86 6d 3c 9a 47 57 3d
       -0.14609256 -0.016511424 0.01449744 0.05255852
000100 cc 63 cd bc 38 ab 94 3d 6f f1 32 bc d9 c9 14 3d
       -0.025072 0.0725922 -0.01092182 0.03632531
000110 70 b0 50 3d 45 80 15 3d 43 5e 22 bd 2f ab 70 3d
       0.050949514 0.03649928 -0.039640676 0.058757003
000120 84 2f 41 3c 7d 72 67 bd c6 67 af 3d da 56 aa 3d
       0.011791114 -0.05650567 0.08564715 0.08317347
000130 c4 32 f6 3b a9 b4 61 3d 78 1f b1 3c 35 d9 3f 3d
       0.007513376 0.05510393 0.02162145 0.046838004
000140 88 7f a3 3d b6 b0 04 bf 26 b7 c8 be 21 95 d2 be
       0.07983309 -0.5183214 -0.3920223 -0.411294
000150 a6 ab d8 be 7c 53 06 bf ce 87 dc be b4 3d fe be
       -0.42318457 -0.5247114 -0.4307236 -0.4965645
000160 e2 f0 0a bf 68 92 fa be 2d e8 f3 3e 50 41 01 3f
       -0.5427381 -0.48939824 0.47638074 0.50490284
000170 27 6c 00 3f 0d bd e9 3e ca e8 12 3f 51 3b d1 3e
       0.5016503 0.45652047 0.5738646 0.40865567
000180 8f 81 05 3f d5 27 1e 3f f0 cd 08 3f 01 74 ba 3d
       0.52150816 0.6177953 0.53439236 0.09104157
000190 ef 36 e6 3d ba c3 86 3e f8 5f 54 3d 27 d9 14 3e
       0.112409465 0.26321203 0.051849335 0.14535962
0001a0 cd 83 8a 3e 84 32 f9 3d 34 33 61 3e 61 a9 a3 3e
       0.2705368 0.12167838 0.21992189 0.31965163
0001b0 e0 da 91 bd 32 c3 67 bd 81 ce 21 be e6 2d c2 3c
       -0.07121825 -0.056582637 -0.15801431 0.023703527
0001c0 45 3e ef bd ca 08 57 be e7 e4 16 bd bb c4 c3 bd
       -0.11681799 -0.20999447 -0.036839392 -0.09559008
0001d0 d7 09 0e be 0d 44 e9 bc 92 76 f4 bc 26 b7 e8 bd
       -0.13870941 -0.028474832 -0.029841695 -0.11363058
0001e0 b6 a0 d7 bd f4 18 9e b9 79 8b 03 be 46 90 22 be
       -0.105287 -0.000301547 -0.12846173 -0.15875348
0001f0 01 40 0c be 6b 72 0f be 02 a7 30 bc 51 d7 9f bd
       -0.1369629 -0.1400849 -0.010782005 -0.0780474
000200 44 97 e5 bd bd 43 88 3c 0d b0 01 be d2 ef 1e be
       -0.11210492 0.016633863 -0.12664814 -0.15521172
000210 22 ff cd 3c 6f 7b 7e bd b0 84 60 be 6d b8 02 3e
       0.02514607 -0.062129434 -0.21925616 0.12765665
000220 60 22 1f 3e 68 b6 24 3e 39 e3 4a 3d 99 ff 17 3e
       0.15540457 0.16085207 0.049533103 0.14843597
000230 19 75 6e 3e f1 da c2 3d e4 4b 65 3e b8 20 5f 3e
       0.23286857 0.09514416 0.22392231 0.21789825
000240 86 71 2c 3e 6e 53 d8 3d 73 ce 0a 3e 83 e7 2f 3e
       0.16840181 0.10562788 0.13555317 0.17178158
000250 b2 84 b4 3d e9 ef fc 3c 63 8e 41 3e 82 5e 3f 3e
       0.08814372 0.030876117 0.18901972 0.18688396
000260 f8 2a b6 3d 9e 5d a3 3c 92 fa bb bc a4 21 64 bd
       0.088949144 0.019942101 -0.02294663 -0.055696145
000270 5e 38 bf 3c 8f 92 8b bd 7b 3b 09 be fb d0 81 bd
       0.023342308 -0.06815063 -0.13401596 -0.06338688
000280 5f ba a5 bd 0b 9a ef bd b7 af 7c 3d 72 2f e9 3d
       -0.08092188 -0.11699303 0.061691012 0.113860026
000290 2c a8 b4 3d ab 48 bb 3c 3f 8d e8 3d 4c c2 2d 3e
       0.08821139 0.0228618 0.113550656 0.1696865
0002a0 28 4f ec 3d e8 fd 11 3e 47 d6 43 3e 22 2f 41 3e
       0.11538535 0.14257014 0.19124709 0.18865636
0002b0 eb de 85 3e 3e 06 3c 3e 43 5f 5e 3e a0 f6 5d 3e
       0.26146635 0.18361756 0.21716027 0.21676111
0002c0 12 de 64 3e a1 31 94 3e a2 a3 87 3e ad eb 6f 3e
       0.22350338 0.28944114 0.2649203 0.23429747
0002d0 c9 5f 15 be 28 27 27 be 45 f5 da bd 3c 1f 36 be
       -0.1458732 -0.1632353 -0.10691313 -0.17785352
0002e0 35 a9 27 be 13 be db bd f6 76 5c be c5 f5 54 be
       -0.16373141 -0.10729613 -0.21529755 -0.20796879
0002f0 71 c0 c3 bd 44 57 af bd 26 ee 29 be d3 f8 4b be
       -0.0955819 -0.085615665 -0.16594753 -0.19919138
000300 ba c1 48 bd 64 3d ee bd 41 56 a7 be 94 52 85 bd
       -0.049012877 -0.11632803 -0.32682994 -0.06509891
000310 1c 28 f9 bd 6f bc 63 be f7 84 23 3e 4d a1 13 3e
       -0.121658534 -0.2223985 0.15968691 0.14417
000320 bb 4f 57 3e d0 82 26 3e fc 56 f2 3d 2c f7 02 3e
       0.21026509 0.16260839 0.11832997 0.12789601
000330 fb ba 4c 3e b6 3c 14 3e d8 d4 4b 3e f0 5b f7 bb
       0.19993202 0.14476284 0.19905412 -0.0075488016
000340 a3 58 e8 bd d5 47 4b 3c 09 69 97 bd 42 1c 10 be
       -0.11345031 0.012407263 -0.07393081 -0.1407328
000350 8d 82 1b 3e 15 7a 95 bd a0 39 9a bd 32 d4 d8 3d
       0.1518652 -0.07298676 -0.07530522 0.10587348
000360 54 f0 05 be 7f ca 37 3d 33 28 77 3d 82 72 b4 bc
       -0.13079959 0.04487085 0.06034107 -0.022027258
000370 d1 ae 34 3e a2 87 0e 3e fd d8 e0 bd 8f fe 69 bd
       0.17644812 0.13918927 -0.10978887 -0.05712753
000380 39 04 09 3c a3 21 fa 3e 07 a9 03 3f 95 31 16 3f
       0.008362823 0.48853788 0.5142979 0.58669406
000390 7f af 03 3f cf ab 23 3f 6c 13 0e 3f 08 ee 08 3f
       0.5143966 0.63934034 0.55498385 0.53488207
0003a0 dd e0 1d 3f e5 6c 16 3f 55 57 a7 3d 37 e6 36 3d
       0.6167124 0.5875991 0.08170954 0.044653144
0003b0 ca 29 f8 bb 22 fe d7 3d 22 97 45 3d af ea 2e bd
       -0.007573341 0.10546519 0.048239835 -0.04270428
0003c0 7c 6f 1e 3e 18 85 33 3e fe b0 89 3d 75 20 04 3e
       0.15472215 0.1753124 0.06723212 0.12903006
0003d0 d3 81 2a 3e c9 a1 b3 3d 88 c4 45 3e 72 55 26 3e
       0.16651087 0.087710924 0.19313252 0.16243532
0003e0 de e3 98 3c ad 1e 04 3e be b2 10 3e cd e1 11 3e
       0.018663343 0.12902327 0.14130685 0.14246292
0003f0 4d 91 3d be 28 a8 49 be d5 b0 64 bd 99 5e cb bd
       -0.18512459 -0.19693053 -0.055832703 -0.099301524

conv2.bias f4 [32]
000000 c3 a9 68 be d6 42 0c bd f5 29 73 3e da 33 24 be
       -0.22721009 -0.034243427 0.23746474 -0.16035405
000010 56 af 2b 3d 3b ed 1c bd b8 ef ec bd c4 69 16 bc
       0.04191526 -0.038312178 -0.1156916 -0.00918049
000020 90 a8 68 3e 86 79 13 3c ac 11 00 be c4 0a 2e bf
       0.22720551 0.009001141 -0.12506741 -0.6798518
000030 e7 d6 ad bd 5f be df be 0c 03 af 3e 6d 9c 2c 3e
       -0.08488255 -0.4369993 0.34182012 0.16856547
000040 26 2c fa 3e 25 6f 48 3e 0e e0 fe bd cc 99 8c be
       0.48861808 0.19573648 -0.12445079 -0.27461088
000050 ed 92 9f 3d 63 7a de be f7 a2 00 be 10 11 4b be
       0.07791696 -0.4345275 -0.12562166 -0.19830728
000060 1a 9c a0 bd db 2b bf bd b7 26 5d be 88 fd c1 3e
       -0.07842274 -0.09334537 -0.215968 0.37888741
000070 c7 33 6c be fb ed c6 3c 66 e2 78 3d c9 55 b6 bc
       -0.23066626 0.0242834 0.060762785 -0.022257702

conv3.weight f4 [32, 32, 3, 3]
000000 65 cc 13 bd c7 e9 32 3b 98 64 57 bd 88 c6 0f be
       -0.036083598 0.0027299987 -0.052586168 -0.14040577
000010 4c e7 83 bd ad d5 71 3c 58 60 0a 3e 76 38 8d 3e
       -0.06440601 0.014760417 0.13513315 0.2758214
000020 b5 f2 96 3e 13 6a 12 3d 01 07 88 3d aa 6d c7 bd
       0.29482046 0.03574569 0.06641961 -0.09737714
000030 89 83 94 3d e9 55 6f 3e 40 23 f2 3a f0 e9 31 be
       0.07251651 0.23372616 0.001847364 -0.17374396
000040 f0 d4 44 bc ca e4 9f be 4f bd 7e 3e bd 33 5d 3e
       -0.012013659 -0.3122924 0.24876903 0.21601768
000050 12 76 b6 3e 9e a4 cf 3d 73 83 a0 bd 0d e7 a8 3d
       0.35636955 0.1013882 -0.07837572 0.082471944
000060 b7 06 b9 3d af 3f f7 bb 52 4c 15 3e ac 1a c3 3c
       0.09034484 -0.0075454335 0.14579895 0.02381643
000070 16 ff ae 3d 2a 29 58 3c 76 92 67 bd f4 d6 98 bc
       0.085447475 0.013193408 -0.05653616 -0.018657185
000080 ab 2a 39 3e 4e d0 c8 3e 3c eb 2b 3f 1f b6 11 3f
       0.18082683 0.39221424 0.67155814 0.5691852
000090 4a 07 10 bd f2 1f 1e 3d eb 79 26 be b7 78 df 3d
       -0.0351632 0.038604684 -0.16257446 0.109116964
0000a0 de cb 89 3e 69 dd f3 bc 20 e3 aa bd e6 50 ee bc
       0.2691335 -0.029768663 -0.08344102 -0.02909131
0000b0 63 42 89 be c3 1f 61 be 5b e4 cd be bb 65 76 be
       -0.26808462 -0.21984772 -0.40213284 -0.24062245
0000c0 bc a1 5d be bb 9b 91 be d3 c6 86 be 81 12 27 be
       -0.21643728 -0.28439125 -0.26323566 -0.16315652
0000d0 81 b6 a9 be 70 2b 86 be d1 79 f0 3d 16 c9 26 be
       -0.33147052 -0.26205015 0.11741985 -0.16287646
0000e0 ad 32 81 bd fe 01 f5 3d f1 62 7b bd dd 45 2d 3c
       -0.06308494 0.119632706 -0.061373655 0.010575739
0000f0 38 a5 ec 3e 87 28 09 3f e0 7c bc 3e b7 a5 c0 3c
       0.46219802 0.53577465 0.36814022 0.023516519
000100 84 17 c6 bc b2 02 94 bd e3 0e e9 bb 3f f5 1f 3e
       -0.024181135 -0.072270766 -0.0071123703 0.15620898
000110 30 9c 46 bd 5f aa c1 bd c3 58 41 be dc cc 8f be
       -0.048488796 -0.09456324 -0.18881516 -0.28085983
000120 27 28 9d 3b e3 2e 0e be ba f8 b3 3d ac 8b a6 bd
       0.0047960463 -0.13885073 0.08787675 -0.08132109
000130 4a 48 89 be 9f 71 7e be c7 f2 f4 bd e7 af 97 be
       -0.26812965 -0.2484803 -0.119603686 -0.2962639
000140 0b dc ea bd 73 10 e4 3d 68 17 1d 3d dd f2 ef bb
       -0.11467751 0.1113595 0.0383524 -0.0073226527
000150 74 a0 d5 bc 3d 05 0a be eb 8c 17 3e da 4d ff 3e
       -0.026077487 -0.13478561 0.1479985 0.49864084
000160 20 15 e9 3e 6c 9f e8 3e fc 77 2d be 17 88 76 bc
       0.4552393 0.4543413 -0.16940302 -0.015047095
000170 4f aa 6d 3d 45 5b 06 bc f5 95 1f 3e 4a c1 6c bd
       0.058023747 -0.008200471 0.15584548 -0.057801522
000180 0d e8 c6 be a3 a1 e7 be d5 c6 ee be fb 17 03 3e
       -0.38848916 -0.45240507 -0.46636072 0.12802117
000190 f3 1f e9 3d 3a ac 26 3e 2b 5a 85 3d 65 1d 66 bd
       0.11383047 0.16276637 0.06511339 -0.056180377
0001a0 a7 f5 19 3e ee 16 0e 3e 4e 6f 96 bd c0 43 55 3e
       0.15035115 0.13875934 -0.073454484 0.20826626
0001b0 9d ae a4 bd d8 ae 40 3d 62 68 f6 bd ab 1b d7 bc
       -0.08041117 0.047041744 -0.12031628 -0.02625831
0001c0 9f c0 54 3e e7 d9 46 3d 07 e0 2b be 37 d6 10 be
       0.20776604 0.04854765 -0.16784678 -0.14144216
0001d0 88 2c 61 be 29 0e bd 3b 5e ea 62 3c bf a6 97 bd
       -0.21989644 0.0057695103 0.013849823 -0.07404851
0001e0 c1 13 35 3d 6b 2b 9d 3e f6 3b c4 3d 2d 3b 24 3d
       0.044208292 0.30697188 0.09581749 0.040095497
0001f0 26 d4 6f 3d 13 68 e1 bd 39 fc 52 bc 8a d5 2a be
       0.05855193 -0.11006179 -0.012877517 -0.16683021
000200 4d c9 96 3d 8b a9 f1 bd 99 15 83 be ea 4e 66 be
       0.07362614 -0.11799916 -0.25602415 -0.22491041
000210 eb ad 02 be 86 3f 35 be 1e 87 c3 3c 47 90 d7 bc
       -0.12761657 -0.17700014 0.02386814 -0.026313914
000220 e7 f6 0e 3d 87 69 b8 3d 84 59 ed 3d a7 21 71 3e
       0.034903433 0.09004503 0.115893394 0.23547994
000230 bf a7 1b 3e f2 3f 59 be 7f d5 ac be ff 7b 8c be
       0.15200709 -0.212158 -0.33756635 -0.27438352
000240 a2 fd 3d be 20 f6 5f bd 67 84 b9 3c 00 fc 0f be
       -0.18553784 -0.054678082 0.022646142 -0.14060974
000250 b4 90 c6 bd 5b dd 76 3e c0 5e 82 be 54 54 b0 be
       -0.09695569 0.24107878 -0.25462914 -0.34439337
000260 47 a7 e0 bc 14 63 d8 bc c8 b5 4f be 72 4b b1 bb
       -0.027423514 -0.026414432 -0.20284188 -0.005410605
000270 21 42 38 be 48 f7 7b be 28 d9 76 be a4 29 66 bc
       -0.17993976 -0.24606049 -0.24106276 -0.014048014
000280 f8 fd a4 be 1d 41 bb bd 0f 05 51 3e bd 64 50 3e
       -0.32225013 -0.09143279 0.20412086 0.20350929
000290 bf d2 1b be b0 2d e7 3d 59 e0 a3 3e b6 da 83 3d
       -0.15217112 0.11288011 0.320071 0.064382
0002a0 4e 6c 5a 3e 8e 7e 05 3f 88 16 7f 3e 81 16 ae 3d
       0.21330377 0.5214623 0.24910939 0.08500386
0002b0 f2 a1 ed 3d 43 ef 9f bd d3 d6 4e 3e 02 0c aa 3e
       0.11603154 -0.078093074 0.20199136 0.33212286
0002c0 f1 bc 81 3d 6e 17 27 be f5 1f b4 3b b8 88 3a be
       0.06334866 -0.16317531 0.0054969736 -0.18216217
0002d0 a0 66 a0 be 6c 43 aa be 8c df 12 3e ae bc 4b be
       -0.31328297 -0.33254564 0.14343089 -0.19896194
0002e0 46 8f ec be 55 35 de bd 1f d7 5b be 0d be 2d bf
       -0.4620306 -0.10850016 -0.21468781 -0.6786812
0002f0 f4 39 b2 be 7c 4b ce 3d 50 66 03 3e ff 23 5b bd
       -0.3480984 0.10072991 0.12831998 -0.053501125
000300 c6 58 0d 3e 2f 73 80 3e d1 81 02 3e e1 df a4 3d
       0.13803396 0.25087878 0.12744834 0.08050514
000310 6a 24 23 3e 3a bd 44 3d 6f 56 fb 3c 54 74 59 3e
       0.1593186 0.048032023 0.030680863 0.21235782
000320 24 db 8d bc 21 e0 b1 3c 36 23 95 3e a3 8b 0d 3e
       -0.017316408 0.021713318 0.29128426 0.13822798
000330 ec 28 ff 3d d5 07 89 3e 13 ce e3 3d ee eb c9 3d
       0.12458977 0.26763788 0.1112329 0.09859453
000340 8a 5e 2d 3e 69 e4 8f bd 2d 70 20 3e 17 c1 aa 3e
       0.16930595 -0.07025988 0.15667792 0.3335044
000350 78 27 35 3e 1e 3f e1 ba 3b 1c 61 3e 7c c1 0a 3d
       0.17690837 -0.0017184948 0.21983425 0.033875927
000360 96 08 4c 3d 73 44 81 3b 90 52 13 3d a9 7f 83 bd
       0.049812876 0.0039449274 0.03596741 -0.064208336
000370 01 fc 1d be 5b 8d 54 3c 77 f6 1f 3e 35 cc 91 3e
       -0.15428163 0.012973155 0.15621363 0.2847611
000380 38 d0 9e 3e 6e 8e a6 be cf 6b c4 be ec 81 57 be
       0.31018233 -0.3253054 -0.383635 -0.21045655
000390 c3 22 07 be 7a 42 51 be da 4b 3d be 0e eb 3d bd
       -0.13196854 -0.20435515 -0.18485966 -0.046366744
0003a0 15 e3 87 be 54 2e 41 be 10 3e e5 3d f0 f5 04 3e
       -0.26540437 -0.18865329 0.11193478 0.12984443
0003b0 6d 9c 11 3d 1a ce 41 3e 72 ef a2 3e 73 bb 47 3e
       0.03554957 0.18926278 0.31823307 0.195051
0003c0 af 76 bd 3d fa 7e 7b 3e 90 a0 13 3e dc 88 84 3d
       0.09251153 0.24560156 0.14416718 0.06471416
0003d0 23 e1 39 3d 0a ff 53 3e 78 b4 52 3d ef 94 4f be
       0.045380723 0.20702758 0.05144164 -0.20271657
0003e0 01 56 1d bc 82 02 2b 3e e2 2d 8c 3d b6 76 20 3e
       -0.009603024 0.16700175 0.06844689 0.15670285
0003f0 9c 1f 29 3d 1a c5 0e bd c3 b5 9d 3c 22 f4 64 bd
       0.04128991 -0.03485594 0.01925171 -0.055896886

conv3.bias f4 [32]
000000 ec 55 1d 3c 01 2f 2a 3e 47 66 1a 3e 1b da 15 3f
       0.009603005 0.16619493 0.15078078 0.5853593
000010 a9 c8 d6 3e 8f c6 e8 bd e8 27 81 3e 89 8a 8a 3e
       0.41949967 -0.11365997 0.2522576 0.2705882
000020 92 10 c5 be b8 db 1e be 5f 8f b9 3c 68 8e 6a 3e
       -0.38489205 -0.15513504 0.022651372 0.22905886
000030 8a 93 38 be 8b 07 02 be 4c 1f 34 be f0 3a 1f 3e
       -0.18025032 -0.1269819 -0.17590064 0.15549827
000040 46 01 84 3d 0e 74 95 3e 83 4c c0 be 58 21 43 be
       0.064455554 0.29190105 -0.37558374 -0.19055688
000050 35 55 ca bd 80 3e fe bd 39 34 32 bf a5 e3 e6 3e
       -0.09879533 -0.12414265 -0.69610935 0.45095554
000060 f3 a4 de 3e 2e 0a c6 bd ad 59 25 be 26 fe af 3d
       0.4348522 -0.0966991 -0.1614749 0.08593397
000070 85 56 d8 3d 33 06 89 be bc 63 cc bd 8b cb ee 3e
       0.10563377 -0.26762542 -0.0997996 0.46639666

conv4.weight f4 [32, 32, 3, 3]
000000 80 f0 2d be 0e 78 59 3e 86 9c 10 be fd df 5f 3e
       -0.16986275 0.21237203 -0.14122209 0.21862788
000010 41 8a 9b 3d 21 94 37 3e 62 0e 97 3e c1 b7 b2 3d
       0.07594729 0.179276 0.2950316 0.087264545
000020 45 01 8b be 06 3c 32 3e e2 83 eb bd 12 cb dc bd
       -0.27149406 0.1740571 -0.11499764 -0.1078092
000030 ef 50 ac be 61 a8 b2 be 9c 08 15 be c9 be 5c be
       -0.33655497 -0.34894088 -0.14554065 -0.21557154
000040 e0 7d 68 be 4e 15 47 bd da d1 14 3e 45 5d 01 bd
       -0.22704268 -0.048604302 0.14533177 -0.03158309
000050 07 a4 7c bc 7e b1 c1 be e5 e3 82 be ac 15 69 be
       -0.015419967 -0.37830728 -0.25564495 -0.22762173
000060 1d 2a 09 be 08 f6 b5 be 0c e9 02 be a2 8d 54 3e
       -0.13394971 -0.3553927 -0.12784213 0.20757154
000070 2c ec c7 3d 05 66 f8 bd f9 dd 0f 3c f2 01 33 be
       0.09761843 -0.12128834 0.00878095 -0.17481211
000080 0b 74 02 be 84 02 a7 bd 05 7c 49 3d 2f a4 bb bc
       -0.1273958 -0.08154777 0.04919054 -0.022905437
000090 0b b4 1f 3e 2c bd 8b be d4 97 b0 bc 21 eb a4 be
       0.15596025 -0.27292764 -0.021556772 -0.3221064
0000a0 d0 1f bb be d6 dd 4d bd dd fa 36 be 94 29 b2 be
       -0.3654771 -0.050260387 -0.17869134 -0.34797347
0000b0 c5 da ed bd 62 9d 84 be f0 00 dc bd b5 96 55 3e
       -0.116139926 -0.25901324 -0.10742366 0.20858271
0000c0 eb 34 9d 3e c3 4e ae 3e 82 00 32 3e 4b e1 71 3c
       0.30704436 0.34044465 0.17383006 0.014763187
0000d0 b4 2b 14 3e ee 20 f9 3c e3 42 c7 be db 64 9e be
       0.14469796 0.03041121 -0.38918218 -0.30936322
0000e0 9a b8 92 be 0b b8 ac be ed 00 03 be 08 30 09 bf
       -0.28656465 -0.33734164 -0.12793322 -0.53588915
0000f0 e9 34 90 be b0 fe 35 be be 21 5e be 27 c5 cd 3e
       -0.28165367 -0.17772937 -0.21692559 0.40189478
000100 f5 8f 5b 3e be 16 6b bd 12 b5 50 be b7 80 3c be
       0.21441634 -0.057394736 -0.20381573 -0.18408476
000110 be 6a 0b bd e8 19 3c be 44 c7 a0 bd b6 01 03 3b
       -0.034037344 -0.18369257 -0.07850507 0.0019990033
000120 89 3b 7a 3d 19 cf 1e 3e 24 bf 03 bd b8 42 93 3d
       0.061091933 0.15508689 -0.032164708 0.0719046
000130 32 c4 fe 3c 28 55 92 bd 34 44 a0 bd 8b 90 0d 3d
       0.031099413 -0.071451485 -0.07825509 0.034561675
000140 8d b7 f0 3d 11 15 81 be 88 59 fa bd 62 6c d2 3d
       0.117537595 -0.25211385 -0.12224108 0.10274579
000150 e9 ce 13 3d 6a 03 05 3e 98 37 2b 3e 8e db bf 3c
       0.036085997 0.12989584 0.16720426 0.023420122
000160 31 34 52 bd 3d be 8f 3c cb 9e 7e 3e 9b cb 13 3e
       -0.051319305 0.017546767 0.24865262 0.14433138
000170 7f 15 c0 3d 52 a0 e2 be c1 72 0a bf 1f 08 d7 be
       0.093791 -0.4426294 -0.5408135 -0.41998383
000180 a8 3e a7 be e1 d5 08 bf 3f f0 b7 be 1e c3 32 3d
       -0.3266499 -0.53451353 -0.3592548 0.04364311
000190 0b e9 a7 bd 73 60 0d 3e 41 0b 00 bf c5 24 d4 be
       -0.08198746 0.13806324 -0.5001717 -0.41434303
0001a0 67 82 bf bd 37 b2 84 be c6 18 35 be bc ca 89 3e
       -0.09351044 -0.25917217 -0.17685232 0.26912487
0001b0 15 31 ad bd dc 90 5d be c4 9a 9d bd 34 b7 0c 3f
       -0.08456627 -0.2163729 -0.07695535 0.54967046
0001c0 e1 e8 b0 3e 22 f7 8f 3e 8a 00 07 3f 79 68 34 3e
       0.34552673 0.28118235 0.527352 0.17617978
0001d0 07 fb 2e 3d 96 f7 88 bc 25 f0 14 be 5f 94 11 3e
       0.042719867 -0.01671962 -0.14544733 0.14216755
0001e0 c7 a9 b6 bd 87 03 41 be 67 cb 12 be 79 0f dd be
       -0.08919101 -0.18849002 -0.14335404 -0.43175867
0001f0 1e 44 35 bd 89 92 f1 bd 50 25 be be ce 23 82 bd
       -0.044254415 -0.117955275 -0.37137842 -0.063544855
000200 bc ad b6 ba cc 03 02 bc 9c 61 5b bc 99 99 1e 3d
       -0.0013937275 -0.007935476 -0.013389971 0.0387207
000210 7b a4 a3 3d b7 a2 ef 3d ae fa 83 be ba 59 9f 3d
       0.079903565 0.11700957 -0.2577719 0.07780786
000220 1a ac 90 3d df 4b 13 be 3a c1 88 bd c4 1b b8 3d
       0.07064076 -0.14384411 -0.0667748 0.08989671
000230 f1 44 d6 be 23 17 1e be 63 2e 7d be 8f d2 9e ba
       -0.41849473 -0.15438513 -0.24724726 -0.0012117195
000240 d3 26 80 bb b4 45 09 bd ac 7a ad bd b1 13 85 be
       -0.003910878 -0.03351374 -0.084706634 -0.25991586
000250 68 c9 30 be fa c7 99 be f0 46 8f be 1a 37 00 be
       -0.1726433 -0.30035383 -0.2798381 -0.1252102
000260 4c 04 8e 3c d7 48 07 be f1 c9 25 be 19 6c e9 3d
       0.017336033 -0.1321138 -0.16190316 0.11397571
000270 f0 4a 63 be bd fc a6 bd ce fc b4 3d aa 8e 01 be
       -0.22196555 -0.08153675 0.08837281 -0.12652078
000280 6b 60 17 be a7 7d 05 be 17 5d ca 3c 52 d3 52 3e
       -0.14782874 -0.13036214 0.024702592 0.20588425
000290 34 1e b5 3d 81 c1 9b 3e 50 47 c4 3e 9b f6 1b bb
       0.088436514 0.3042107 0.38335657 -0.0023798111
0002a0 56 01 90 3e e3 42 9c 3e b9 aa 17 3e 41 76 61 3e
       0.2812602 0.3051978 0.1481122 0.22017767
0002b0 82 58 9d 3d aa 76 b3 3e 3f 1f 65 bd 87 94 e5 3d
       0.07682897 0.3505147 -0.055938 0.1120997
0002c0 3c 4a 46 3e 2d bf 2f 3e 28 3a 41 bd f2 76 3c 3e
       0.19364256 0.17162772 -0.047174603 0.18404749
0002d0 43 09 63 be 49 21 48 be 5b b1 1e 3e af c2 78 be
       -0.22171502 -0.19543947 0.15497343 -0.24293016
0002e0 72 a8 57 be 33 0b 34 be 6e bf b2 be b6 22 5a be
       -0.2106035 -0.17582397 -0.34911674 -0.21302304
0002f0 1c 49 08 3e 3e 95 43 be 08 96 56 3d c6 dc 0b be
       0.13309139 -0.190999 0.052389175 -0.13658437
000300 df ad 24 be ec 2d c3 bd 1d 29 6d be 6c 36 90 be
       -0.16081952 -0.09530243 -0.23160215 -0.2816652
000310 e4 33 29 bd 86 2f de bc 85 2f 3e 3d cf 37 2a 3e
       -0.041309252 -0.02712227 0.046432037 0.16622852
000320 cb 51 1d bd 0d f4 98 3d 4d 32 68 3d fb f5 dc bd
       -0.038408082 0.07468424 0.056688596 -0.107891046
000330 27 c6 f5 3c 1c 65 be 3d 78 76 da 3d 2e 11 86 3e
       0.030001713 0.09296629 0.10667127 0.26184982
000340 00 9d 90 3c f0 06 1b bd 60 e7 3b bc 7a 77 28 be
       0.017652988 -0.037848413 -0.011468738 -0.16451827
000350 db fa d9 bd 5b d3 8d bd 97 95 50 bb 73 fb b9 bd
       -0.1064355 -0.069250785 -0.0031827444 -0.09081163
000360 a8 da 4d 3d 5d c5 57 bc f5 9e 92 3c 19 66 0e be
       0.050257355 -0.013169614 0.017898062 -0.13906135
000370 33 c1 55 bd 59 11 ed bb e1 2e d1 3b 30 d6 4c 3d
       -0.052186202 -0.007234734 0.006383762 0.050008953
000380 c1 f6 9f 3d 87 07 fd bd 9c 9a 65 be ce 89 5b 3d
       0.078107364 -0.12354951 -0.2242226 0.053598218
000390 cb be d0 bd f6 37 da bd de 79 33 be 89 44 84 be
       -0.10192641 -0.10655205 -0.17526957 -0.25833538
0003a0 cf 77 46 be d5 43 d1 3d 22 b7 5f 3e 73 b6 98 3c
       -0.19381641 0.10218016 0.21847203 0.018641686
0003b0 8b 94 a0 3e 3a d7 9f bc fd a1 23 3e 28 00 0d 3e
       0.3136333 -0.019511808 0.15979762 0.13769591
0003c0 38 90 55 3e 65 fe 01 3e 74 0f 15 bd 24 29 9c 3d
       0.20855796 0.126947 -0.03639169 0.076250345
0003d0 6c 07 1c 3e 0d 52 2e be 36 e9 01 3e 36 25 d8 3c
       0.15237206 -0.17023487 0.12686619 0.026384931
0003e0 78 17 02 3e e8 b7 ac 3e f8 fb 06 3e b3 5a 43 be
       0.12704265 0.3373406 0.13182056 -0.19077568
0003f0 df a1 14 be e6 65 ba ba 58 b2 5f be 5c fc e6 bd
       -0.14514874 -0.0014221042 -0.21845376 -0.112786025

conv4.bias f4 [32]
000000 a7 70 86 bd 9b cb 13 3e f0 b6 e4 3d 8b 32 55 3e
       -0.065644555 0.14433138 0.11167705 0.20820062
000010 02 cf a4 be ce b6 7d 3e 23 34 51 3e 66 9c 59 be
       -0.32189184 0.24776766 0.20430045 -0.21251068
000020 4e d1 60 3e dd 0f b6 bd 0a 8c 71 3e bd e1 fb bd
       0.21954843 -0.088897444 0.23588577 -0.122989155
000030 de 0a 69 be 6c 2e 86 be f6 00 d1 3e cb 49 bc bd
       -0.22758052 -0.26207292 0.40821046 -0.091937624
000040 b8 19 10 3d 21 fc c1 bd 6b 7e 17 bd 9e 9f ce 3c
       0.035180777 -0.09471918 -0.036985796 0.025222596
000050 7f a3 cc 3d 7f 5f d9 3d c7 2b 48 3e 01 2c 37 3e
       0.09992122 0.106139176 0.1954795 0.1788788
000060 4c be 79 3e ed 3c 87 be b0 2a be 3d a3 27 64 bd
       0.24388999 -0.2641367 0.09285486 -0.055701863
000070 68 5d 8e bd 68 c4 fb be 77 a0 a3 3e 45 6d e8 be
       -0.069514096 -0.49173284 0.31958362 -0.45395866

conv5.weight f4 [16, 32, 3, 3]
000000 82 bd aa bc 7e 63 35 3c c3 5e 77 be ff 4a fe 3d
       -0.020842317 0.011071084 -0.24157242 0.12416648
000010 15 16 91 bd 1a a8 97 3d 3a 95 1f 3e b5 f7 d5 bd
       -0.0708429 0.0740511 0.15584269 -0.10447637
000020 20 76 4b be 96 78 b7 3d 90 87 4c be 2f 54 b0 bd
       -0.1986928 0.08958547 -0.19973588 -0.08609807
000030 93 16 a5 3e 4e a7 93 3e 62 c3 b3 be 66 4c ee 3d
       0.32243785 0.2883858 -0.35110003 0.116356656
000040 94 ad 80 3e 6c 4a 85 be f4 36 cd bd d7 8a 9b 3d
       0.2513243 -0.26033342 -0.10020247 0.07594841
000050 21 53 53 be 84 3b 5c be 0f d5 0a 3e e4 49 61 3e
       -0.2063718 -0.21507078 0.13557838 0.22000843
000060 dd d7 1a 3c 20 73 e6 3d 55 c7 6c 3e f2 c5 43 bb
       0.00945088 0.11252427 0.23122914 -0.0029872623
000070 34 4f 8c bd 19 53 83 3e 8e 82 21 be 00 2a bf bd
       -0.06851044 0.25649336 -0.15772459 -0.09334183
000080 9f 6a df 3d 56 3a b3 be ac b5 21 bd 1c 49 60 3e
       0.10909008 -0.35005444 -0.039479896 0.21902889
000090 45 4a 85 3e 2d ed 87 3d 3a f1 6c be a6 66 28 3e
       0.26033226 0.066370346 -0.23138896 0.16445407
0000a0 19 4b 82 bd 30 36 c1 3c df bf 6b 3e 97 72 58 be
       -0.0636198 0.023585409 0.23022412 -0.21137463
0000b0 a0 41 af be 3e 56 39 be 93 d4 43 3e 98 89 e9 3d
       -0.34229755 -0.18099305 0.1912406 0.11403197
0000c0 38 3f f4 3d ad ad bd be 7d a9 96 3e c3 df 75 3d
       0.119261205 -0.37046567 0.29426184 0.06002785
0000d0 b9 1f f6 be 06 ef a5 3d f6 43 61 3e 45 9f a0 be
       -0.48071077 0.08102231 0.21998581 -0.31371513
0000e0 1b 99 3a 3e 5c b3 41 3e e4 9d 04 3d 16 8e 72 be
       0.18222468 0.18916076 0.03237714 -0.23687014
0000f0 b2 29 c9 3e 91 bb 59 3d 66 95 e4 bd fc 67 90 3e
       0.39289623 0.053157393 -0.11161308 0.28204334
000100 00 e0 a9 be 4a 15 cc bc 73 09 9e 3e 0c 5a eb bd
       -0.3317871 -0.024912495 0.30866584 -0.114917845
000110 0d e0 04 3d 0c 31 2c 3e 4b 0a 08 be 4b 1c 95 be
       0.032440234 0.16815585 -0.13285176 -0.29123148
000120 fd 33 21 be f1 66 b6 3e d0 56 c7 bd e5 db 1c be
       -0.15742488 0.35625413 -0.09733355 -0.15318258
000130 d3 f9 81 3e b7 5c 12 3e d7 86 34 bd f1 13 55 3d
       0.25385913 0.1429318 -0.044073906 0.05202097
000140 c9 6a 3c 3e 61 67 9c 3e fc 18 9d bd 7d 67 6d bd
       0.1840011 0.30547622 -0.07670781 -0.057960022
000150 07 07 8f 3e 8a fd 35 3e 83 ee 30 bd 6b a0 0e 3d
       0.2793505 0.17772499 -0.043196213 0.034820955
000160 17 2f 30 be 68 8d bb be 91 13 3a 3e f7 71 32 be
       -0.17205463 -0.36631322 0.18171526 -0.17426287
000170 e6 40 53 3e ce 9f 11 3e 85 6f 4d be 1e a1 17 be
       0.20630226 0.14221117 -0.20062073 -0.14807555
000180 62 99 51 3e 52 b9 18 3e 23 49 bf bc 49 4c 8d be
       0.20468667 0.14914444 -0.023350304 -0.27597263
000190 d1 01 9d 3e 96 8e 79 3e e0 d8 2f be 7b 5d aa 3b
       0.30665448 0.24370798 -0.17172575 0.005199132
0001a0 10 88 66 3e 01 9d 2c be 12 3e 39 be 72 ae b7 3d
       0.22512841 -0.16856767 -0.18090084 0.0896882
0001b0 82 38 ca be df 10 7a 3e 8d 68 aa 3d 0e 8f ad be
       -0.39496237 0.24420498 0.08320723 -0.33898205
0001c0 20 2c 4a be 01 5b de 3d 51 e4 83 be 14 07 23 be
       -0.19743395 0.10857201 -0.2576013 -0.15920669
0001d0 c1 1d 77 3e 4b a4 03 be 60 1a 23 be fe 49 6f 3e
       0.24132444 -0.12855642 -0.1592803 0.2336807
0001e0 0c 79 d6 bd e4 ea 78 be 53 0b 92 3d 68 3e b6 be
       -0.104723066 -0.24308354 0.07131066 -0.35594487
0001f0 50 f8 50 be d4 c6 2e 3e e7 e0 da be 94 b4 82 3d
       -0.20407224 0.17068034 -0.42749712 0.06382099
000200 4c 1e 9e 3e f5 da 92 be 7e d7 df bd 29 2d 77 3e
       0.3088249 -0.28682676 -0.10929774 0.24138321
000210 fb ef 3c be 97 9b 86 3c 04 e9 9d 3e 49 2c 49 3e
       -0.1845092 0.016431613 0.3084184 0.196458
000220 a9 6d 0e bd f7 8d 76 bd 5c e5 d0 bc c1 b8 09 3b
       -0.03477255 -0.060193982 -0.025499992 0.0021014663
000230 1b 48 17 be a0 09 49 3e 48 d0 59 be cc 8c aa be
       -0.147736 0.19632578 -0.21270859 -0.33310544
000240 b5 2e 6e bd 86 9a 5b be 38 06 2d bd 58 60 28 bd
       -0.058150012 -0.21445665 -0.04224226 -0.041107506
000250 cd b1 bd bb b2 53 ae bd 96 85 86 3e d8 a1 98 3e
       -0.005789018 -0.08512057 0.26273793 0.29810977
000260 31 dc 67 be 94 23 df 3d 32 21 6a bd f8 c5 30 3e
       -0.2264259 0.10895458 -0.057160564 0.17263019
000270 9f d9 a1 3e c1 78 91 bd 7f 5f 9b bc 42 a5 42 3e
       0.31611344 -0.0710311 -0.018966435 0.19008353
000280 32 79 44 bd 75 10 97 be ad 05 9f 3e 54 de 36 3e
       -0.047967143 -0.29504743 0.31059018 0.17858249
000290 2c ed a2 bd ad bc 85 3e a5 45 46 be 8a 71 4b be
       -0.07955393 0.2612051 -0.19362505 -0.1986753
0002a0 ee 58 c2 bd e7 cd b4 be 01 82 0c bf f5 4b e8 be
       -0.09489618 -0.3531334 -0.5488587 -0.4537045
0002b0 e9 c7 1b 3e d8 55 26 be 12 b8 c2 be ec cf 8d 3e
       0.15212978 -0.16243684 -0.3803106 0.27697694
0002c0 c6 f7 be 3e 2c 5c 6d bd fe d7 c9 3e b2 81 38 3f
       0.3729841 -0.05794923 0.394226 0.720729
0002d0 e6 34 f7 3e a4 55 ee be 9f dd 1d 3e a6 a6 e5 3e
       0.48282546 -0.46549714 0.15416573 0.44853705
0002e0 1d 73 d0 bc 23 c8 b4 bd 76 24 ec 3d 41 dd 13 3c
       -0.025445515 -0.088272355 0.11530392 0.009024919
0002f0 ac 63 4c be 37 b7 92 3e 69 c2 31 ba 6e bb eb 3d
       -0.19959897 0.28655407 -0.00067809835 0.11510359
000300 9d c4 80 3e cb e7 02 3e 71 d3 15 bd 20 14 32 3e
       0.25150004 0.12783735 -0.0365786 0.1739049
000310 83 cc 53 bc 48 53 a2 be c6 1f ca bd 9a 4a 7e bd
       -0.012927177 -0.31704164 -0.098693416 -0.062082864
000320 7d 13 2d 3e f0 f4 0c be 1d fc 81 bd 2b 6c 2b 3d
       0.16901965 -0.13765311 -0.06346915 0.041851204
000330 34 f6 21 be 77 b6 75 3d d0 1c a6 3e 55 0e 93 be
       -0.15816575 0.059988465 0.32443857 -0.28721872
000340 2d 3a 19 bd a6 ba 95 bc ea e4 05 be c5 ce 19 3d
       -0.037408996 -0.018277477 -0.13075605 0.037550706
000350 06 31 cd 3e d1 49 29 be 79 7e 0f 3d f2 f3 8a 3d
       0.40076464 -0.16532065 0.035032723 0.0678481
000360 1d c1 4f be 03 cb 4d bd 9f a0 d9 3d 2f b6 a0 be
       -0.2028851 -0.050242435 0.10626339 -0.31388995
000370 42 3f 02 bd 5b 9f 22 3e d5 81 c1 bd 45 b6 0e 3e
       -0.03179861 0.15881102 -0.094485916 0.13936718
000380 15 ed f5 3e b2 c7 1f 3e 22 15 5e 3e 91 bd 80 3d
       0.48032442 0.15603521 0.21687749 0.06286157
000390 60 bb b6 be e7 fa 8b 3e 9e c7 61 3e 2e 47 da be
       -0.3568983 0.2733986 0.22048804 -0.4263243
0003a0 ae 2b 08 3e 80 9a 80 3e 4e 9d 3c 3e e0 16 ff ba
       0.13297912 0.25117874 0.18419382 -0.0019461773
0003b0 d8 9d 5c 3d 7f 02 7a 3d b8 5a a4 3e 7a f3 86 3d
       0.05386147 0.061037537 0.32100463 0.06589408
0003c0 9d 32 41 be 29 1a e3 bd 81 12 f0 3e 0e ba 00 bc
       -0.18866964 -0.11088974 0.46889117 -0.007856859
0003d0 48 8d ac be 98 13 3f 3e 90 91 b7 3d b4 4f d2 3d
       -0.3370154 0.18659818 0.08963311 0.102691084
0003e0 e9 e0 1f be 13 a6 33 3e c1 30 72 3e c2 44 16 be
       -0.1561314 0.17543821 0.2365141 -0.14674667
0003f0 46 b3 cd be 9d 55 cf 3d a6 7b e0 3e 44 5e 8a be
       -0.40175837 0.10123751 0.43844336 -0.27025044

conv5.bias f4 [16]
000000 35 0d ad bd 38 d8 71 be 6a 20 20 3e b9 d2 c3 be
       -0.08449785 -0.23617637 0.15637365 -0.38246706
000010 25 1b 9a 3e 48 d6 ce 3e a7 d0 cd bd 0a 87 28 be
       0.30098835 0.4039786 -0.10049563 -0.16457763
000020 26 69 82 be ae 88 d6 bd 6f 26 56 be 4e 44 c8 3e
       -0.25470847 -0.10475288 -0.20913099 0.39114612
000030 9c e8 4b 3d 01 f7 ad bd 95 0c 19 bf 94 39 ce bd
       0.04978238 -0.08494378 -0.59784824 -0.10069576

fc1.weight f4 [128, 400]
000000 22 86 3f 3e bd 21 55 be bf 3e 26 3f 52 47 31 be
       0.18703511 -0.20813651 0.6493949 -0.17312363
000010 e2 cc e4 bd 67 2a 9f 3e f9 16 8a be 50 85 55 3e
       -0.11171891 0.31087038 -0.26970652 0.20851636
000020 29 b3 4b bd 57 8d a3 3e 29 73 dd be 55 74 f8 be
       -0.049731407 0.3194377 -0.43251923 -0.48526254
000030 74 30 5a be 82 92 15 3e d6 cf b7 bd 42 06 b4 3e
       -0.21307546 0.1460667 -0.089751884 0.35161024
000040 2f 71 73 be da 48 bc bd 30 11 34 3e 8f 0e c5 be
       -0.23773645 -0.09193583 0.17584682 -0.3848767
000050 bd db aa 3e cd 0f 8a 3e ea 21 bb bd ed fb b2 be
       0.33370772 0.2696518 -0.09137328 -0.3495783
000060 97 52 96 3c 90 75 ad bb dd bd 0d 3e 21 84 6d 3e
       0.018349929 -0.0052935556 0.13841958 0.23194934
000070 98 a8 0b 3d 89 0f 8c bd 00 a9 13 be f7 a6 9b be
       0.03409633 -0.068389006 -0.14419937 -0.30400822
000080 04 29 21 bd 71 11 3a be 7e f3 c9 bc 05 8d 18 be
       -0.039345756 -0.18170716 -0.024652239 -0.14897545
000090 03 14 75 be ed 20 23 3e 3e 97 81 3e 9d 2d 13 be
       -0.23933415 0.15930529 0.253107 -0.14372869
0000a0 89 e3 1f 3d dc 16 2a 3e a4 4e 1b be 98 e9 b5 3e
       0.039035354 0.16610283 -0.15166718 0.3552978
0000b0 d3 d2 2a 3e ec 9e 3a 3e d1 8f c4 bd 87 df 1e be
       0.16681986 0.18224686 -0.09597743 -0.15514956
0000c0 68 3a 9e 3d c8 0b 9e bd e3 45 16 bd ee e5 a0 3e
       0.07725984 -0.07717091 -0.036687743 0.31425422
0000d0 2a 89 b0 bd 6a 54 95 be f4 32 4d 3e b4 1e ee 3d
       -0.08619912 -0.29165965 0.20038968 0.1162695
0000e0 46 e2 c1 bd a8 7d 18 be 9d 85 bc bd a9 b2 1f 3e
       -0.09466986 -0.14891684 -0.09205172 0.15595497
0000f0 0b dd 62 be 55 62 4c 3a 19 dd b8 3d 68 3f 2a be
       -0.22154634 0.0007796635 0.09026546 -0.1662575
000100 d5 2d b2 3e ac 26 6c 3e 6e 92 53 3e fd b2 ac 3e
       0.34800592 0.23061627 0.20661327 0.33730307
000110 54 48 0f bd 5c b3 87 3e 46 e6 ce 3e af 39 02 be
       -0.034981087 0.26504028 0.4041006 -0.12717317
000120 57 7f 07 3f a2 44 5c be 73 27 ae 3e 0c 3a 57 3c
       0.5292868 -0.21510556 0.34014472 0.013136398
000130 6e 2e 01 3d aa be 20 3e 22 c7 14 3d 18 6d a3 3e
       0.03153842 0.15697733 0.03632272 0.3191917
000140 d6 7d fa bd 57 e5 86 3d 11 30 08 be 15 00 17 bd
       -0.122310326 0.06586712 -0.13299586 -0.036865313
000150 dc 45 8d bd 22 2d 2e be 44 48 2c be 21 c2 3f 38
       -0.0689809 -0.17009404 -0.16824442 4.5718745e-05
000160 6c e3 f7 3d 84 75 59 bb 32 8f a0 3e 89 5a 0f 3b
       0.12103924 -0.0033181617 0.3135925 0.0021874032
000170 a9 86 a9 bd 9d 55 41 3e 5f 6a 34 be a5 e9 9a bd
       -0.082776375 0.18880315 -0.17618702 -0.075640954
000180 9e 95 86 3d ad ae 0a 3e 9c de 1d 3e 1b 59 a9 be
       0.06571506 0.13543196 0.1541695 -0.33075795
000190 5a 8a c7 3d 7d 0f 34 bf 8a df 5a bd 6b 9a 40 3c
       0.09743185 -0.70336133 -0.05343584 0.011755566
0001a0 31 c8 d7 be d0 a6 8b be 04 80 ec bc 13 4f 53 be
       -0.4214492 -0.27275705 -0.028869636 -0.20635633
0001b0 64 e0 1a bd f8 f3 7a 3e 71 fb d4 bd 62 0c 91 bd
       -0.03781165 0.24507129 -0.10399521 -0.0708244
0001c0 e2 01 a1 bd 5a e6 73 be 5c 43 e0 bd 20 28 24 3e
       -0.07861687 -0.23818341 -0.10950348 0.16030931
0001d0 b3 3e a6 bd 23 25 91 be ca db 55 3b 4b 28 31 bb
       -0.08117428 -0.28348646 0.0032632225 -0.0027032073
0001e0 05 ec 56 3c 60 06 9a bc 1f 2c 30 bc 5d bd 48 be
       0.013117795 -0.018801868 -0.010752707 -0.19603486
0001f0 ba a2 9c 3e 61 bf ed 3d 49 65 05 bb d2 b7 06 3e
       0.305929 0.11608768 -0.002035456 0.1315606
000200 ec f9 29 3e 35 17 72 3e a7 37 04 3d 35 87 d5 bd
       0.16599244 0.23641665 0.032279637 -0.10426179
000210 61 81 80 3c 8b 22 0b 3e ca 1c 78 be 3f 80 25 3d
       0.015686693 0.13587396 -0.24229732 0.040405508
000220 2c 33 73 be b4 6b ad bb e4 0b 20 3e 81 8a 9c be
       -0.2374999 -0.00529238 0.15629536 -0.3057442
000230 35 b9 c2 bd 2b 17 69 3d 35 68 8c be 49 9f e2 3e
       -0.09507982 0.05690686 -0.27423254 0.4426215
000240 9c a8 7c be 97 cc 50 3b 54 20 b6 3e 0a 5f 36 be
       -0.24673694 0.0031860226 0.3557154 -0.17809692
000250 4a 3e 23 3f 46 76 8a bd d0 b8 3c be 62 48 5b be
       0.6376692 -0.0676084 -0.18429875 -0.2141433
000260 38 c4 52 3c 46 fb 90 bd 45 f4 de bd 66 13 20 be
       0.012864165 -0.070791766 -0.108864345 -0.156324
000270 e1 27 e2 bd 24 67 d7 bd 46 8b f4 bd b9 91 c1 be
       -0.110427625 -0.105177194 -0.11940627 -0.3780649
000280 39 95 9e be 94 f7 ae be b4 ab a1 3d f5 b5 7c 3d
       -0.30973223 -0.34173262 0.07894078 0.061696965
000290 95 68 67 3d 92 2b ae 3d c9 60 c0 bc a0 6d 5b bd
       0.05649622 0.08504404 -0.02348365 -0.053571343
0002a0 35 e2 d0 3e 4c 91 3a be c6 b0 f2 3e e8 4f 86 be
       0.40797582 -0.18219489 0.47400492 -0.2623284
0002b0 da 99 f8 bc 3d df 13 3d 5f a7 06 3e 6d 8e a2 bc
       -0.0303468 0.03610157 0.13149785 -0.019843305
0002c0 24 69 ca 3e de b6 4e 3d a9 45 c2 3d 2e a1 7a 3e
       0.3953334 0.050467364 0.09485943 0.24475548
0002d0 a6 d4 41 be f5 b3 d1 3e a8 4c be bd 6b f6 f9 bd
       -0.18928775 0.4095761 -0.09291965 -0.122052036
0002e0 4b 0f aa be 79 62 2f 3e cb 95 9b be e5 f8 02 3f
       -0.33214793 0.17127408 -0.3038772 0.5116103
0002f0 46 98 17 3e 64 84 48 3d 89 5c 22 3e 48 3d 5b be
       0.14804181 0.048954383 0.15855612 -0.21410096
000300 e1 21 22 3e 84 33 5f 3d d5 8d de 3d 8d de 88 3e
       0.15833236 0.05449249 0.10866896 0.26732293
000310 35 46 ac be 2a 03 8e be 51 19 fc bd 01 55 32 3e
       -0.33647314 -0.2773679 -0.12309516 0.17415239
000320 3b 43 ab 3d 59 b8 37 be e6 13 25 be 77 2f 8e be
       0.083624326 -0.17941417 -0.16120872 -0.27770588
000330 f5 16 f9 bd d9 95 5d bd 9b 40 5d bd ef bc 7c be
       -0.12162582 -0.054097984 -0.05401669 -0.24681447
000340 f3 0f 2b be f5 bb 30 3e 08 af d6 be 1f be 79 be
       -0.16705303 0.172592 -0.41930413 -0.24388932
000350 bb 29 d5 3d 2b 93 5c bd 2b 18 de 3d 2d c4 9e 3e
       0.1040835 -0.053851288 0.108444534 0.31009045
000360 05 c2 36 bc f2 9d fc 3c e0 34 95 3e fc 5d 46 be
       -0.011154656 0.030837033 0.29141903 -0.1937179
000370 40 65 19 3e 01 e7 b6 be 2b 59 90 bb ef b4 c3 bd
       0.1498003 -0.35723117 -0.004405161 -0.09555995
000380 9b 32 91 3d 11 e5 84 be 7e 35 00 be 30 dc 38 3e
       0.0708973 -0.25956014 -0.12520406 0.18052745
000390 b4 25 8b 3e 80 4b ad be 0f a4 a8 3d 70 1d 4b 3d
       0.27177203 -0.33846664 0.08234417 0.04958862
0003a0 70 11 d1 be e1 42 93 3e 22 38 33 be 3c 9d 29 bd
       -0.40833616 0.28761962 -0.17501882 -0.041409716
0003b0 37 e6 04 be bb 57 f3 bd f1 0f 05 bf 07 04 8c be
       -0.12978445 -0.11881968 -0.5197745 -0.27346823
0003c0 84 19 27 be 6a 94 4b be 40 ea e7 3e ba 9a 2f be
       -0.16318327 -0.19880834 0.45295906 -0.17148867
0003d0 e7 79 d0 3e 3b 17 75 3e 6e 19 7f be 0f 79 8a 3e
       0.40718004 0.23934643 -0.24912044 0.27045485
0003e0 a9 74 89 bd e4 10 a8 bd 45 09 85 bd 17 77 d7 3e
       -0.06711704 -0.08206347 -0.06495909 0.42083046
0003f0 69 f1 3a 3e 9e c9 07 3f 45 ff 80 be bd 33 93 be
       0.18256153 0.5304202 -0.25194755 -0.2875041

fc1.bias f4 [128]
000000 06 7c 75 be b1 aa 99 be 22 3f a9 be 95 fc 4b be
       -0.23973092 -0.3001304 -0.3305598 -0.19920571
000010 23 7a 5b be 38 eb 7d bc 26 7e b3 bd a4 0f 89 be
       -0.2143331 -0.015497975 -0.08764295 -0.26769745
000020 03 86 20 be bd cf bb be 8a 40 90 be b2 9d 77 be
       -0.15676121 -0.3668193 -0.2817424 -0.2418125
000030 f5 d0 a5 bd 75 45 a3 bd a4 59 49 be fe 2f 82 be
       -0.08096496 -0.07972232 -0.19663101 -0.2542724
000040 4f bd 43 be 7c 74 30 be d2 87 1c 3e d5 97 14 be
       -0.19115184 -0.17231935 0.15286186 -0.14511044
000050 0a 0f 65 be 5d fc 8d bd 50 43 ce bd 69 c8 8b be
       -0.22369018 -0.069329 -0.100714326 -0.27301338
000060 34 ce f6 bd a7 a6 64 3e e2 b0 18 be cb 54 10 be
       -0.12051049 0.22329198 -0.14911225 -0.14094846
000070 f0 04 51 be 38 81 80 bd e3 40 a2 be 7d e1 d0 bd
       -0.2041204 -0.062746465 -0.3169013 -0.101992585
000080 bd 6a 87 be 9f 6e 29 be ef 43 d8 bd de df cb bd
       -0.26448622 -0.16546105 -0.10559832 -0.09954809
000090 68 60 54 be ae 2e 52 3c d6 25 01 be 01 85 42 be
       -0.20739901 0.012828512 -0.1261209 -0.1899605
0000a0 fe 11 87 be d5 a0 10 bf ad 52 3f be 76 72 8b bd
       -0.26380914 -0.5649541 -0.18683882 -0.06808941
0000b0 58 94 bd be 91 e4 99 bd cf 7a 03 be e4 0d 8f be
       -0.3702724 -0.07514299 -0.12839817 -0.27940285
0000c0 85 7c 42 be 3e 6f c9 bd 8d 8a a6 bd 97 ea db bd
       -0.18992813 -0.09835671 -0.08131895 -0.10738104
0000d0 d1 8a a3 be 97 89 f4 bd 9b 44 4a be 71 d9 8a be
       -0.31941846 -0.11940306 -0.19752733 -0.2711902
0000e0 c0 c5 b8 be 3a 1e 3b be 23 02 03 be f8 da 96 be
       -0.3608837 -0.1827325 -0.12793784 -0.29463935
0000f0 98 c5 0b be ba fc 29 be e3 7a 3e be af 1c 77 be
       -0.13649595 -0.16600314 -0.18601565 -0.24132036
000100 b0 d0 6f bd 5f 44 83 be 8a d2 c1 bd f1 aa e9 bd
       -0.05854863 -0.256381 -0.09463985 -0.114095576
000110 49 72 bc be cf 8f 13 3d c6 6f 3f be cb e0 fc be
       -0.36805943 0.03602582 -0.18694982 -0.49390253
000120 c2 d6 eb be de 74 ae be b0 1c 39 be 6d 08 85 bd
       -0.46062285 -0.34073538 -0.1807735 -0.06495748
000130 1b 05 a5 be 48 9c c1 be 0c 8b 74 be ec 29 35 be
       -0.32230458 -0.37814546 -0.23881167 -0.17691773
000140 86 c3 88 bd 76 ba 5a be f9 ed 80 3d f1 1d 7e be
       -0.06677918 -0.21360192 0.0629539 -0.24816109
000150 21 9d 7f be 95 97 40 be 9b d6 c2 be b4 59 44 be
       -0.24962284 -0.18807824 -0.38054356 -0.19174844
000160 ff c4 bc be db 8d a1 be 86 85 37 be 34 5b 1d 3e
       -0.36869046 -0.3155354 -0.17922029 0.15366822
000170 a2 92 0c be f7 ce 25 be 24 30 bc bd 41 74 66 be
       -0.13727811 -0.16192232 -0.091888696 -0.22505285
000180 0d a8 e4 3c e6 f8 3f be 04 59 b1 bd 01 b0 50 be
       0.027912164 -0.18747291 -0.086595565 -0.2037964
000190 8f 6f f2 bd bb 5a 71 be 3d 14 3e bd 8f 60 ae be
       -0.11837684 -0.23569767 -0.04640602 -0.34058043
0001a0 ec e5 eb bd f2 57 b4 bd 97 15 56 be 4d 91 26 be
       -0.115184635 -0.08805837 -0.20906673 -0.16266365
0001b0 16 fa 7c be 4a fe 68 be 34 64 0a be 1a 86 26 be
       -0.24704775 -0.22753254 -0.13514787 -0.16262093
0001c0 08 c7 f3 bd 97 b2 5d be e6 5f af bd 6b 7a 4c be
       -0.119031966 -0.21650158 -0.08563213 -0.19968574
0001d0 b1 0f 21 be ad 39 61 be 57 67 f6 be 5a 3d 31 be
       -0.15728642 -0.21994658 -0.48125717 -0.1730856
0001e0 81 37 72 be dc 10 37 3d e5 40 85 be 4f a0 93 be
       -0.23653986 0.044693813 -0.26026073 -0.28833243
0001f0 db 46 7b be 95 b6 0c 3e 87 df 52 be 2b 07 a9 bd
       -0.24538748 0.13741525 -0.20593081 -0.0825332
