Trained_Weights/STRIDE 2/50th.pth (torch, 344886 bytes, 14 tensors)

conv1.weight f4 [32, 3, 3, 3]
00000000: dffc 36bc eca6 41be cb75 26be dcdd b73d
00000010: 4093 97be 3336 e4bb afa4 87be 450e abbd
00000020: ecdd 89be 1dfd 4e3e 9afd 4f3e d1f5 0cbd
00000030: b16a 0c3e a7db a63e d860 273e 513c 813e
00000040: 0cad 2a3e 3016 5d3e d80a 863e 6bf3 2e3e
00000050: cf20 963e f8dd 863e 4e85 293e 5850 923e
00000060: 3577 f63c febd 973e a853 993e 1af4 91be
00000070: e4b7 15bd d7c2 46be 9dff 843d 7492 49bd
00000080: 8dbe b73d b163 7cbe 1e1f 1ebe c3bf 7dbe
00000090: 40a9 a7bb 64b7 77bd cd93 a03d dc38 8fbd
000000a0: 111d 373d daad 2b3e 0a48 d53d 970d e03d
000000b0: 7c79 33be 41db d83d 2194 e5bd 5c9b 27be
000000c0: 3843 efbd 1409 47be 30d4 1e3e ea94 44be
000000d0: 7bfd 31bd 4a6b 733d 2b26 6b3d 8456 cfbd
000000e0: 5d05 9ebe 8878 95be 7e36 29bd a6ea 703c
000000f0: c7fc 4fbd 5c08 82be 0bb0 40be 74ba d5bd
00000100: 7961 fe3d 6a93 0cbd f7fc ccbc 0ccf 72bd
00000110: 3607 403e 05bd 0d3d ebfb 993d f4d0 dbbd
00000120: efc6 3b3d d438 063c 09ca 33be 6b21 60be
00000130: 0133 52be 646d 39bd c287 9fbd 1844 2fbe
00000140: 6530 2fbd daef 633e 421d a6bd a8ac 853e
00000150: 9638 673e e135 313e ae74 383d b248 123e
00000160: 9ad3 633c 84ca 4c3e ccf6 f33d b2e1 7cba
00000170: 541e 8d3e a472 843e 672c d23d 3586 863e
00000180: 2188 7a3e 8d02 a33d 1882 753e 46e9 08be
00000190: 6a2d 95bb 6b45 2c3e df6d 4e3e 8d1f 473e
000001a0: e661 643e 7c38 6e3e 814d 643d 9705 173e
000001b0: 276a 823e dfc7 893d 4457 323e d026 13be
000001c0: 1ae0 003e 70a7 b23d 8493 143d 00fc d33d
000001d0: 0a81 b0bd 4c1c 383e 4b8b ddbd 01ce a2bc
000001e0: 6d09 81bc a61e 193e f677 653d 326a 0abc
000001f0: fae1 363c 3cad b8bd 0256 113e 4e0c e4bd
00000200: 2852 fbbd ec48 283e 9622 6b3b 3f6d 08be
00000210: aa5a bc3d 3793 15be bb2a cd3c f498 05bd
00000220: fbf5 753e 8c0d e53d ea2f 373e d0f0 f63c
00000230: b714 cb3d 81cb 883e cee3 b23c 3385 6e3e
00000240: a461 5d3c 3ee6 a838 071d ebbd 411c 37bd
00000250: 4d44 a33d 2455 0f3e fb24 913d ae0d 013e
00000260: 96b7 303e 05f4 f33d dccf 7fbe 8aba 57bd
00000270: 6653 28be a41c 10be eb85 3cbd 9826 2bbd
00000280: 6f54 8ebd 30f7 a5bc 2529 89be 1e64 bf3c
00000290: c1cb 2ebd 4072 a63a 81d8 8cbd 50d2 c53d
000002a0: 4506 3fbd d7fa eabc 7772 083d 6eeb 9bbd
000002b0: 78a4 e3bd 57fe d1bd a65c 69be 7c2b b63d
000002c0: c3ee 09be 3f1d 42be 3647 8abc 8a70 27be
000002d0: 3662 cfbd cc41 6d3e 91b3 283e 04e2 f73d
000002e0: 8606 d23d 9d7d 523e 992e 55be 6e4a f6bc
000002f0: 162e 873d 9cdc 323e d4d6 6d3e 0eab 293d
00000300: af17 07bb e693 16bd aa2b c33d 5e65 fe3c
00000310: 875f 453e 0025 8fbc a564 27be 4466 ba3a
00000320: f52f a9bd fbda 2e3e a582 323e bdd6 21be
00000330: b0de 20be d648 eabd ed44 05be 00e4 e73d
00000340: cdbf 103e be72 d43d 8560 0e3e b884 623d
00000350: 7139 8f3d 5683 153d 5b7e a7bc 218f 96bd
00000360: 8319 18bd 4240 593e 93db 893e ec2b 443e
00000370: 2563 253e 29da c2bd 802c 813e 242e 81bd
00000380: ae90 723d 0987 86bb 1ceb debc f3ab 923d
00000390: d36c 2b3e 4e74 dcbd 84fb d33d 046b ce3d
000003a0: fdbf 2dbd e5ac f73d f536 04be d4ff 4cbe
000003b0: 4b2b 7cbd 052a 0bbb a687 cabb 5a99 10be
000003c0: 1382 f63d 15a6 5d3e 2219 3c3e bf2b b4be
000003d0: 008d aabe d857 f0bd 1021 81be 2c2a babd
000003e0: 1a4c 84be 4f65 66be 8ebd 7dbd 97b8 aebe
000003f0: 281f 0b3d 5010 273e 28ec e73d 8d36 93bc
-0.011168688 -0.18911332 -0.16255872 0.08977863 -0.2960453 -0.006964469 -0.2649283 -0.08352331
-0.26927125 0.20213743 0.20311585 -0.034414116 0.13712575 0.32589456 0.16345537 0.2524133
0.16667575 0.21590495 0.26180148 0.17085044 0.29321906 0.26341224 0.16554758 0.28576922
0.03008614 0.2963714 0.29946637 -0.28506547 -0.036552325 -0.19410263 0.06494067 -0.049211934
0.089718916 -0.24647404 -0.15441558 -0.24780183 -0.0051166117 -0.06047763 0.07840691 -0.06993267
0.044705454 0.16765538 0.10414131 0.10940092 -0.17526811 0.10588694 -0.11209894 -0.16367859
-0.11682743 -0.19437057 0.1551063 -0.19197431 -0.04345463 0.05942849 0.057409447 -0.101239234
-0.30863467 -0.2919352 -0.041311733 0.014704382 -0.050778177 -0.25397003 -0.18817155 -0.10435954
0.12420935 -0.034320273 -0.025022967 -0.059279487 0.18752751 0.03460409 0.07518753 -0.10733214
0.045844015 0.00819226 -0.17557539 -0.21887748 -0.20527269 -0.04527034 -0.077895656 -0.1711582
-0.042770762 0.22259465 -0.08111049 0.2610829 0.2258018 0.1730571 0.04503315 0.14285544
0.01390543 0.19999129 0.11912307 -0.00096466683 0.275622 0.25868714 0.10262375 0.26274267
0.24465992 0.07959471 0.23975408 -0.13370237 -0.004552533 0.16823356 0.201591 0.1944563
0.2230297 0.23263735 0.055737976 0.14748226 0.25471613 0.067275755 0.17416102 -0.14370275
0.12585488 0.087233424 0.036273494 0.103507996 -0.08618362 0.17979544 -0.10817584 -0.019873621
-0.015751565 0.14953098 0.056022607 -0.0084481705 0.011162275 -0.09017417 0.14192966 -0.111351594
-0.122715294 0.16434067 0.003587877 -0.13322924 0.0919698 -0.1460694 0.02504479 -0.03261657
0.24019615 0.111842245 0.17889372 0.030144125 0.099160604 0.2671776 0.021837141 0.23292999
0.013512049 8.05375e-05 -0.11480146 -0.04470468 0.07972012 0.13997322 0.070871316 0.12602875
0.17257532 0.119117774 -0.24981636 -0.052668132 -0.16438064 -0.14073426 -0.04602615 -0.041784853
-0.06949698 -0.02025947 -0.26789203 0.02336317 -0.042674784 0.0012698844 -0.06877232 0.096592546
-0.04663684 -0.028684063 0.033312287 -0.07613264 -0.11115354 -0.102535896 -0.22789249 0.08895013
-0.13469987 -0.18956469 -0.01687966 -0.16351524 -0.10126154 0.23169631 0.16474749 0.12103656
0.102551505 0.2055573 -0.20818557 -0.030064788 0.06600587 0.17466968 0.23226482 0.041422896
-0.0020613482 -0.03676214 0.09529813 0.031054195 0.19274722 -0.017473698 -0.16346987 0.0014221151
-0.082611 0.17075722 0.1743265 -0.15804572 -0.15709949 -0.114396736 -0.13014574 0.113227844
0.14135666 0.10373448 0.13904007 0.05530235 0.06993378 0.036502205 -0.020445993 -0.073515184
-0.037133705 0.21215919 0.26925334 0.1915738 0.16151102 -0.09514267 0.25229263 -0.06307629
0.05922001 -0.004105453 -0.027211718 0.07161703 0.16740732 -0.10764371 0.10350707 0.10079005
-0.042419422 0.12093524 -0.1291159 -0.20019466 -0.061564725 -0.0021234762 -0.0061807213 -0.14120999
0.120365284 0.21645387 0.18368962 -0.35189626 -0.333107 -0.11735505 -0.25220537 -0.09090075
-0.2583931 -0.22499584 -0.06194835 -0.34125206 0.03396526 0.16314816 0.1132434 -0.017970348

conv1.bias f4 [32]
00000000: 1d90 d0bc ddc6 86bd 72e6 e0bd fc1a 0d3e
00000010: 56d5 1dbc bde2 a3bd 41b8 c8bc 7354 ea3d
00000020: cc96 af3d 49fe af3d dd51 80bc 8cac 45bd
00000030: 5b54 78bb 20f5 843d 2738 43be bdfc 003e
00000040: b819 f1bb 08c7 26be 9651 0f3d a699 32be
00000050: 3d39 463c 3983 e8bd 10da 07b9 27d8 a63d
00000060: b60c 33bc be2e f43c 5a24 73bd 5192 bdbd
00000070: a6e4 903d c45e 733c 1906 063b 8f15 5d3d
-0.025459344 -0.06580899 -0.10981454 0.13779825 -0.009633383 -0.08002231 -0.024501922 0.11441889
0.08573684 0.08593423 -0.015664035 -0.048260257 -0.0037892077 0.064920664 -0.19064389 0.12596412
-0.0073578022 -0.16286862 0.034989916 -0.17441425 0.012098608 -0.11353154 -0.00012955838 0.081466965
-0.0109283235 0.029807445 -0.05936084 -0.09256423 0.07074861 0.014854137 0.0020450412 0.053975638

conv2.weight f4 [32, 32, 3, 3]
00000000: 94f3 793d 5758 c8bb 591e 25bc b971 413d
00000010: 2fea 9ebd eb4a fb3b 3342 d6bc bddf 06bd
00000020: a4f5 3bbd 7d0f 15be 53de c2bb 02f6 57bd
00000030: 5108 5ebd 54b9 bebd f6a4 bdbd ae9e b9bd
00000040: c700 58bd 7c66 ebbd 7c80 6cbd 400b 2c3d
00000050: 68a6 363c 12c1 bfbd 2303 dbbc 6242 8bbd
00000060: 044b 4dbd ab8a bebd 5105 abbd 17ee a33c
00000070: c264 323d 33c8 ea3c 14fe 3e3d 107b 35bb
00000080: f8e5 6839 de78 473d 3d57 e0bc 1de9 903d
00000090: 0e96 683e 13a7 9a3d 968f 4ebd a6d5 023e
000000a0: 4700 4d3d 5716 66bd 8596 813d 749f c63d
000000b0: b955 1dbb c647 073e b65b 1d3e bd67 cb3d
000000c0: 2e23 8c3d d4e8 073e 90bf ee3d 27e8 133e
000000d0: 04bc 4b3e f096 393e 50c5 8cbd a0c2 ccbd
000000e0: 4088 943d 2116 89bd 7840 b6bb 7c52 e93d
000000f0: c777 7ebd adf9 fc3b 8052 803c 146f 5f3d
00000100: 98ab 5ebd 9cb4 1d3d 4493 5a3c f4ae 48bc
00000110: e0b0 a3bc f09e cc3d a60c 03bd c142 353d
00000120: 160e a13d 1629 2cba afcc 243d 03cc e23d
00000130: 8ba7 af3d 37c8 993d 9248 c7bc 1628 bc3d
00000140: f700 003e a5a6 8bbe 3ab1 2dbe 8607 01be
00000150: 552e 32be 8738 91be fd4f 4bbe 75b1 80be
00000160: b042 95be 72dd 84be a92c 4f3e afb4 753e
00000170: 190e 883e 4b39 113e e181 a13e 50fb 6b3e
00000180: 2d8f 5d3e e6be b33e 10e5 ad3e 3fef 0d3d
00000190: 0dd5 0bbd c8d5 9f3d 5b8a 93bb b6c6 1ebc
000001a0: 330f fb3c aebc 5c3d 5b48 6f3d 8079 c93d
000001b0: c3f5 64bd 3ed1 9b3d 8dd5 71bc a7a4 2b3d
000001c0: 12ca 143d 2575 f9bc ec7f fbbc 0fe8 213d
000001d0: a803 1d3d 1021 6bbd 06ce 1a3c 999a 18bd
000001e0: a682 b4bd 4392 e83c 4a33 14bd 69f9 d3bd
000001f0: 8fbd aebd 0c9a 8cbd f85f dabc 8ffe 1cbb
00000200: bd72 6dbc 673b 5bbc 021c 8dbc b3c2 0f3d
00000210: 40eb 55bc 0781 4e3d c58f 3bbd 728d e23d
00000220: b3cf 303d e3b1 c9bc 3365 053d 3d80 0b3d
00000230: 6b24 9a3c 9320 e93c 8363 bc3d 591e 5b3d
00000240: 676d e83c 9c52 0d3d a68a ee3d 12d9 803c
00000250: 0b93 8e3d 50cf 9b3d e10c ee3b a583 123e
00000260: fb74 223e ea89 ab3c 6f75 ce3c e017 cb3c
00000270: cef7 243b 1108 1abc 067a c2bb 080f b0bd
00000280: 7bdf 67bd 3b89 e4bc 2f56 063d 0e19 82bc
00000290: db0c 39bd 9455 0ebc b1fe 0dbd ab85 bdbc
000002a0: f375 ac3d f104 703b 967a 2abc b4ef 803d
000002b0: 8697 2f3e b346 063e 5427 753d 3c2f 023e
000002c0: 8ab6 0c3e 8735 e23d e385 103e ef0f 0e3e
000002d0: b9fe 3ebd adc8 babd 17f6 6ebd 8bbe 3ebd
000002e0: 991d c1bd 6473 87bd 6af5 80bd 3120 d3bd
000002f0: a859 4bbd c54a b1bd 813f 99bd 3bfd 35bd
00000300: a15d 32bd 4094 39bc cc90 fdbd a7bd 8ebc
00000310: 8de7 dabc 69ed 90bd efa0 213d 0faa 653d
00000320: 363a 273e 9e2f 923c 211a 843d 1814 c23d
00000330: c40c 373d 37fe 733d b2b5 323e fda5 c8bc
00000340: a554 eebc 1b1e 643d 59c3 55bd 6d74 aebd
00000350: 6599 9e3d 2465 4c3d 06e6 0d3d 7a3f 173c
00000360: fd9a d9bd 6bf4 0bbd 5f53 58bc 8390 f2bc
00000370: 5909 e5bc 088d cbbd 78a2 aebd f320 1ebe
00000380: 925c 00be 5920 703e 9648 5d3e 9717 7e3e
00000390: aa3c 623e 5a3f a43e 7e38 783e a4a3 583e
000003a0: 034f 9a3e 9a95 9d3e 132e 36bb dc65 c5bb
000003b0: 27f6 f4bc 0a6d 133d 2d75 ba3d 854f 4d3d
000003c0: 12c8 873c 3879 ce3d b542 6c3d b86b 933d
000003d0: fd49 063e e05a 023e b7ca d63d a839 fa3d
000003e0: 3adc 873d 77b1 263d c8ea ba3d 677e 033e
000003f0: 987a 11be 44cf 28be a5ce 93bd 4cd6 06bd
0.06102331 -0.0061140466 -0.010078036 0.047227595 -0.07759511 0.007668843 -0.026154613 -0.032928217
-0.045888558 -0.1455669 -0.0059469133 -0.052724846 -0.05420715 -0.09312692 -0.092599794 -0.09063469
-0.052735116 -0.11494157 -0.05773972 0.042002916 0.011148073 -0.09362997 -0.026734894 -0.06799771
-0.05012037 -0.093037926 -0.083506234 0.020010991 0.04355312 0.028659916 0.046629027 -0.002769176
0.00022210914 0.048699252 -0.027385348 0.07075713 0.22713491 0.07551398 -0.050429903 0.12776813
0.050049093 -0.05617365 0.063275374 0.09698382 -0.0024007394 0.13210973 0.15367016 0.09931896
0.068426475 0.1327241 0.116576314 0.14444028 0.19895941 0.18123984 -0.06873572 -0.09998059
0.0725255 -0.06693674 -0.0055618845 0.11392686 -0.062125947 0.0077201934 0.015664339 0.05454929
-0.054362863 0.03850232 0.013340775 -0.012248743 -0.019981802 0.099912524 -0.031994484 0.044253115
0.07864015 -0.00065674016 0.040234264 0.110740684 0.08576878 0.07508891 -0.024326596 0.09187333
0.12500368 -0.27275577 -0.16962138 -0.12600526 -0.17400487 -0.2836344 -0.19854732 -0.2513539
-0.2915244 -0.259502 0.2023188 0.23994707 0.26573256 0.14182012 0.31544402 0.23045087
0.21636648 0.3510658 0.33963823 0.03465199 -0.034138728 0.078044474 -0.0045025772 -0.009690931
0.030646896 0.053890876 0.058418613 0.098376274 -0.05589844 0.07608269 -0.014760387 0.04190507
0.03632552 -0.030451367 -0.030700646 0.03952795 0.038333565 -0.057404578 0.009448534 -0.03725681
-0.08813982 0.028390056 -0.036181726 -0.103503056 -0.08532249 -0.068653196 -0.02665709 -0.002395544
-0.014492688 -0.013380862 -0.01722527 0.03509779 -0.013056576 0.05041602 -0.045791406 0.11062135
0.043166827 -0.024620956 0.032567214 0.034057844 0.018816194 0.028457915 0.09198668 0.05349574
0.02837248 0.03450261 0.11647539 0.015728507 0.0696164 0.07607901 0.007264719 0.14308031
0.15864937 0.020939786 0.025202481 0.024791658 0.0025172117 -0.009401337 -0.0059349565 -0.08596617
-0.056609612 -0.027897468 0.032797035 -0.015881088 -0.045178276 -0.008687396 -0.03466672 -0.023135027
0.084209345 0.003662404 -0.010405203 0.0629572 0.17147645 0.13112907 0.05985196 0.12713331
0.13741508 0.11045366 0.14113574 0.13873266 -0.04662964 -0.09120307 -0.05834016 -0.046568435
-0.094294734 -0.06613806 -0.06296809 -0.103088744 -0.04964605 -0.08656839 -0.074828155 -0.044430953
-0.043546323 -0.011326849 -0.123811334 -0.017424418 -0.02672174 -0.070765324 0.03946012 0.056070384
0.163308 0.017844971 0.06450296 0.09476489 0.04468991 0.05956861 0.17452124 -0.024493212
-0.029093096 0.055692773 -0.05218825 -0.085183 0.077441014 0.049901143 0.034643196 0.009231443
-0.10625265 -0.034168642 -0.013203471 -0.029609924 -0.027958559 -0.09939009 -0.08527082 -0.15442257
-0.12535313 0.2344984 0.2160972 0.24813686 0.22093454 0.32079583 0.242403 0.21156174
0.30138406 0.307782 -0.0027798458 -0.0060241055 -0.02990253 0.03599266 0.09104381 0.050124664
0.016574893 0.100817144 0.057680804 0.0719828 0.13114162 0.12729979 0.104878835 0.12218028
0.06633802 0.040696587 0.09126812 0.12841187 -0.14206922 -0.16485316 -0.07217149 -0.032919213

conv2.bias f4 [32]
00000000: a852 b7bd 10b0 c03b 29bc 033e 3ea8 c0bd
00000010: ae1c 0e3c 2118 323b ee98 63bd 4b8f 5a3d
00000020: ce9d d03d de67 203d 5be1 debb 0cdf 3cbe
00000030: 7a21 43bd 3387 1dbe 21ba c43d c7c3 ea3d
00000040: 1baa 413e cfc8 683d 566a dfbd 23e3 a6bd
00000050: 8209 e63d e931 02be f00d a3bd 9a34 d6bd
00000060: 3467 7dbd 4528 473d 957e b5bd b23d 103e
00000070: a27f b6bd 3aa5 b33d a46c 223c caa9 76bc
-0.08951312 0.0058803633 0.12864746 -0.0940709 0.00867383 0.0027175026 -0.055565767 0.05335931
0.10186349 0.039161555 -0.006801767 -0.1844446 -0.047639348 -0.15383606 0.09605814 0.11463123
0.18912546 0.05683213 -0.10908954 -0.08148792 0.11232282 -0.12714352 -0.07961643 -0.10459252
-0.061866 0.04862239 -0.08862034 0.14086035 -0.08911063 0.08771749 0.009913597 -0.015055129

conv3.weight f4 [32, 32, 3, 3]
00000000: b794 a8bc 5122 08bc e0ce e9bc b7e8 e73c
00000010: e3a9 fc3c 5d60 263d 0a0f 033e 8546 273e
00000020: 6a53 503e c7d0 9a3c e324 913d 0292 913c
00000030: 2740 c4bd 7501 063d 6797 e53c db16 04be
00000040: 3404 d53b cad3 b5bd 3fe0 b93d 2502 b2bc
00000050: 8804 083e 3a8b f83d 5f3a 08bd 74ca 343d
00000060: 20e2 133e 6033 813d 9fcd 003e 7594 d2bc
00000070: dc4b 163c 72dc 9e3b 6d86 aa3c c987 063a
00000080: a392 153e 87cd fc3d 7315 643e 57fd 8d3e
00000090: 3002 b4bd bca4 4a3d 9df4 a2bd 8012 cbbd
000000a0: 4082 653d a202 a0bd c0dc 69bd a5a0 bd3b
000000b0: 127e 85bd b44d a6bd 1051 13be 1215 d6bd
000000c0: 2dc5 55bd 09f7 d7bd 3de7 b4bd 9fbf ccbc
000000d0: aaf5 04be 0fd3 4ebe 03c8 e43c 03d6 0dbe
000000e0: 7c93 63bd 5592 4a3d f4bf a3bc 6163 71bb
000000f0: 4ad4 253e f522 5c3e 19d1 423e 0711 19bc
00000100: cc2c 1ebd a09c d7bd 6619 0abe e88e d53c
00000110: 52f1 4abd d72e fdbd 8296 c4bd 3ae2 17be
00000120: 4241 97bc fc14 81bd cfaf b43c ec08 d43c
00000130: 4197 23bd 82f5 b9bd 36e2 973c 0f49 b2bd
00000140: 3d25 7dbc e66a ac3d d5fa c3bb c964 753d
00000150: 47d3 9a3d 606c 1fbc d9c7 a53d 81a0 813e
00000160: fdcb 013e e1b2 643e e101 f2bd c100 83ba
00000170: d181 74bd 622a c0bd 2b7d f53c 9c4d 9fbd
00000180: 2d3b 89be f3aa 7abe 6c6f 7fbe 82f1 14bd
00000190: 03d5 4ebc 4c68 b43d 7481 2b3d 673c 4cbd
000001a0: fd63 383d 13ed 1a3d 23c7 20bd d2fe d53d
000001b0: 56d0 a8bd 5d45 d93c 3244 99bd 7e68 fbbd
000001c0: 2dbc 2a3d c12e a9bc cac0 cbbd 4673 00be
000001d0: 23d6 0dbe e3df 7ebd 5002 99bc 3eb5 8b3a
000001e0: f9cb a5bd 6b80 1f3d de36 3dbd 4496 30bc
000001f0: 52a0 cabc 4113 6ebd a5b0 06bb 8bde e8bd
00000200: df12 c5bb 64ee 3b3d 1aea 09bc 08ee 7fbd
00000210: 0491 00bd c768 0fbd 4390 1b3d 176c 3abd
00000220: d460 f13c b0dc fc3c fa77 25bd 299a 873d
00000230: 8484 243d 963f 2fbe e1f6 21be ca48 10be
00000240: 7b0a 60bb c6cc e2bb bc07 ad3d 6196 a13d
00000250: 946b 7ebd 2ce0 083e 1650 ec3b 1e39 7dbd
00000260: fae0 d93c 7c1a 883c 749d 00bd 4caa b33c
00000270: 185f 35bc b287 68bb fbaf 78bd ef38 473d
00000280: 5f59 a5bd ffe9 4f3b 0e30 823d f2e4 8f3d
00000290: 6ed2 9e3b 4461 843d 2d85 3d3e ae7c de3d
000002a0: 1d34 453d 3aaf 6e3e acf7 603e a5ce ee3c
000002b0: d288 8b3d 9353 59bd 4c0f c63c 6c72 a83d
000002c0: 90d9 2dbd ceb7 d5bd 5358 47bb 4651 62bd
000002d0: 5816 d3bd 226e d7bd 325b 0f3d 65dd 413b
000002e0: 2bb7 46be 5add 0dbe 7284 b83c af63 8cbe
000002f0: b72f 84be 728a 7d3d 2b87 ac3d 1b6c 9c3c
00000300: f7a2 a0bc 0a8d 683c 48b0 debc 5731 42bd
00000310: 74c4 103d 590f 123d 9595 7c3d 2129 0f3e
00000320: 983b a83c 61b9 8fbd ff69 913d 15c0 eabc
00000330: 3988 4f3c 6cfa 7a3d 0ec2 a4bb 98af 833d
00000340: 6197 893d 38a4 28bd 5e96 cbbc 617a 913d
00000350: e1f8 4a3d 60e7 15bd 921d 653d fe56 193d
00000360: 3758 983d 4fb7 4fbc 9b32 6d3d d127 e43d
00000370: 8f05 bebc af6a 163d 33c8 173e 9f42 133e
00000380: 1a7e 423e 8115 0cbe 3328 10be 5030 91bd
00000390: 32dc 2a3c 6ea8 5fbd 1796 acbd 5cac 163d
000003a0: ee3b 4cbe b301 2bbe 9548 ca3d d77e 953d
000003b0: 5dbe 8a3d 9ed2 673d e1fd c03d 98bd b93c
000003c0: 3ead 83bc 0d76 723d 7918 683d 3db2 e43d
000003d0: e985 353c 8692 923d 1fce 933d 6043 493b
000003e0: 1763 943c 4654 a33d 7e2f d33d 1b2b 653d
000003f0: 6249 013d 80e3 59bb d812 bf3c ec06 a53d
-0.020578725 -0.008308963 -0.028541028 0.02830921 0.030842727 0.040619243 0.12798706 0.16335495
0.2034432 0.01889838 0.07087114 0.017769817 -0.095825486 0.032716233 0.028026296 -0.12899344
0.006500745 -0.08878286 0.09075975 -0.021729538 0.13282979 0.1213593 -0.033258792 0.044138387
0.14441729 0.06308627 0.12578438 -0.025705555 0.00917336 0.0048480565 0.020816052 0.0005131928
0.14606719 0.12343889 0.22273807 0.27732345 -0.0878948 0.04947351 -0.079568125 -0.09915638
0.05603242 -0.07813002 -0.05709529 0.0057869726 -0.06518187 -0.081202894 -0.14386392 -0.104532376
-0.052189995 -0.10545165 -0.08833168 -0.024993716 -0.12984338 -0.201977 0.027927404 -0.1385117
-0.055560574 0.04945596 -0.019988991 -0.0036832916 0.16194263 0.2149771 0.19025077 -0.009342439
-0.03861694 -0.10527921 -0.13486251 0.02606912 -0.049546547 -0.123624496 -0.095990196 -0.14832392
-0.018463735 -0.063028306 0.022056488 0.02588316 -0.03993917 -0.0908003 0.018540483 -0.08705341
-0.015450773 0.08418827 -0.0059808292 0.05991057 0.07559829 -0.009730428 0.080947585 0.25317767
0.12675472 0.22333862 -0.118167646 -0.0009994732 -0.059694115 -0.09383084 0.029966911 -0.07778475
-0.2680296 -0.24479274 -0.24944848 -0.036363132 -0.012624028 0.088089556 0.041871503 -0.04986229
0.04501723 0.037823748 -0.03925241 0.10448994 -0.08242862 0.026522333 -0.0748371 -0.1227579
0.041683365 -0.020652177 -0.09948881 -0.12543973 -0.13851218 -0.062225234 -0.01867786 0.0010658873
-0.08095545 0.03894083 -0.046194904 -0.010778014 -0.02473465 -0.05812383 -0.0020552066 -0.11370572
-0.0060142125 0.045881644 -0.008417631 -0.062482864 -0.031388298 -0.035012033 0.037979376 -0.04551324
0.029465117 0.03086695 -0.04039762 0.066212006 0.04016544 -0.171141 -0.15816833 -0.14090267
-0.0034185934 -0.0069213836 0.08448741 0.078900106 -0.062114313 0.13366765 0.0072116954 -0.06182205
0.026596535 0.016614191 -0.03140016 0.02193179 -0.011070035 -0.0035481271 -0.060714703 0.04863828
-0.08073687 0.0031725166 0.06356822 0.0702609 0.0048468625 0.064638644 0.18507834 0.108636245
0.048145402 0.23309031 0.2196948 0.02915127 0.06813206 -0.05305822 0.024177216 0.08224949
-0.042443812 -0.104354486 -0.0030417636 -0.05525329 -0.10306996 -0.10519053 0.03499908 0.0029581424
-0.1940581 -0.1385397 0.022524092 -0.27419803 -0.25817654 0.06189961 0.08424219 0.019094517
-0.019608958 0.014193783 -0.027183667 -0.047410335 0.035343602 0.035659168 0.06166609 0.13980533
0.020536229 -0.0701778 0.07100295 -0.028656045 0.012666755 0.061273977 -0.005028016 0.06429976
0.06718326 -0.041172236 -0.024851974 0.0710342 0.049553756 -0.03659761 0.055936404 0.037436478
0.07438701 -0.0126779815 0.05790959 0.11140407 -0.02319601 0.036722835 0.14822464 0.14380883
0.18993416 -0.13680078 -0.14077835 -0.07089293 0.010428475 -0.054603986 -0.08427065 0.03678547
-0.19944736 -0.16699867 0.09877125 0.072995834 0.0677459 0.056597345 0.094234236 0.022673413
-0.01607382 0.059194613 0.056663964 0.11166809 0.01107929 0.071568534 0.07217049 0.0030710325
0.018113656 0.07975058 0.10311793 0.05594931 0.031564124 -0.0033247173 0.023324415 0.08057961

conv3.bias f4 [32]
00000000: 6b61 193d 993f e03d b634 573d 71b6 6f3e
00000010: ee27 313e b380 eebd f045 033e 7a42 193e
00000020: acea 3cbe f388 bebd 8581 eb3d 2065 9e3d
00000030: d148 c8bd ac79 2dbd 5c46 a03c 713e 4c3d
00000040: b9c6 29bc 6356 113e 5f25 3dbe ebd6 59bd
00000050: edf1 78bc ccb4 d23c e907 84be c63b 553e
00000060: b8f0 1e3e e35e 193c 07bf 643d 17d5 113c
00000070: 704c 60bd 0afa b1bd f0a0 40bd d3fa 663e
0.03744642 0.1094963 0.052540503 0.2340944 0.17300388 -0.11645641 0.12819648 0.14966765
-0.18448895 -0.09303465 0.11499313 0.07734132 -0.097795136 -0.042352363 0.0195648 0.049864236
-0.010362321 0.1419311 -0.18471287 -0.053183477 -0.015194398 0.025720976 -0.25787285 0.20823583
0.15521514 0.009361002 0.05584624 0.008900902 -0.054760396 -0.08690269 -0.047028482 0.2255662

conv4.weight f4 [32, 32, 3, 3]
00000000: 641b 3f3c eafa 353d 6b8b b7bd 72b2 8d3d
00000010: 3f67 bab9 a490 7a3c e4bc 343e 8145 d53d
00000020: 08e8 e1bb ac04 2e3c bcd3 b5bc 73d3 75bc
00000030: f9ee 1ebe d4a2 31be 0727 f0bc b6cc bdbd
00000040: 1026 02be d10a b9bc 0393 a83c d24b 613b
00000050: d84d f83c 905a 06be f844 d0bd a5b5 6abd
00000060: 600b dbbd c761 45be 6ba9 2dbd a927 ee3d
00000070: 95de 533d 46ee 463c 21f3 93bc e956 15be
00000080: 3301 79bc c99d bdbd 51d5 26bd b01e 1bbc
00000090: 6095 173d edc8 75bd 670d a7bc a0fc 08be
000000a0: c6fa 1abe 4655 18bd c3fc 17be 7a78 4abe
000000b0: eca9 aebd 4bc3 f8bd 8ab5 d7bd 2735 c93c
000000c0: d76d 243e 76db 1d3e a8bd 2d3d 1e04 363d
000000d0: 1d0c 2f3e 4f68 a23d 813d 6ebe d6d8 50be
000000e0: 314f 16be 23a2 33be 03ca 9abd 4637 59be
000000f0: c465 0dbe d2d0 0ebe e1c5 27be 5496 6a3e
00000100: 2332 0d3e 21f8 8fbc 8f63 edbd 5855 07be
00000110: 3c81 bfbb bc67 05be b10d 80bd bd17 30bd
00000120: e131 a63d 1745 bd39 abfc 05bc 600e 063e
00000130: 8c19 87bc bda9 9b3c 5aa4 fa3d b74f 203c
00000140: f443 843d cfad 11be 8c6f abbd be6e 213c
00000150: 8cb5 8a3c 739f e03d b8d3 f53c a653 febb
00000160: 6694 28bd 2df9 863b 6487 303d 1fb0 033e
00000170: 7b1c 2d3d 9c1f 60be 5ee1 2fbe 61d1 afbd
00000180: 616e 3bbe 1f7d 91be 4693 36be 0a40 09bd
00000190: 1616 e93d c778 d93d ee26 22be 1e7d e1bd
000001a0: 8246 2a3d b75f bfbd b0f7 06be 219d be3d
000001b0: 11f8 b6bd a5e9 69be b5d9 0ebe 592c 583e
000001c0: c48f a53d 5299 3e3d 9b0b 243e 0bd2 d53d
000001d0: 6a7c 473d 4094 fabc 8dd8 6fba c5f9 973d
000001e0: df0b 92bd d4ce 07bd 071a 043d 3369 1bbe
000001f0: 6ebf 49bc aaee dabd 8dd2 b7bd 1f59 e0bd
00000200: d19b f5bd 2fe5 abbb 3b3d d9bc 6776 2abd
00000210: 7456 d5bc 3cec a03c 86e8 d1bd 744f 053e
00000220: d56f 283e d706 7a3d 8d9d 4abd e71a e73c
00000230: 08f8 f0bd 2495 24bc 23cb eabd c7bc 7c3c
00000240: e0e8 c83c 4ecd 44bd 376a 91bd 379e bcbd
00000250: d21f f0bd 70b5 a2bd f81b 35be 1271 c0bd
00000260: 9a2b c0bd e135 b5bd 4304 49bd fa87 ea3c
00000270: 0fbb f1bd 09db af3c 411a 443c 2aa6 c0bd
00000280: d364 f0bd 5b00 6cbd 496f 0e3d dabd 163b
00000290: e715 233c d2dc 293e d406 463e 1f61 40bc
000002a0: e1bc 373e 91c5 453e d4cd b83d 2bb0 df3d
000002b0: 3a38 643d 6346 2e3e 1b7f 87bd 8ab4 fb3c
000002c0: 199c c83d 296c bc3d 73f6 2dbd 479a ef3d
000002d0: 701c 00be 524c 88bd 62f2 803d 19ff 45be
000002e0: 497d 1abe a6fc 8bbd 0e25 41be 40a5 15be
000002f0: 4087 3abd ac97 b9bd 1c1f a1bb 1f3b b9bd
00000300: 825f 06bd c246 333b bc99 debd d69e ffbd
00000310: 8b46 a1bd 6d0b 2bbe 6108 fd3d 8b7c a43d
00000320: 532f ebbc c05a cb3d 6579 573c 94ee 82bc
00000330: e5c2 ec3d e9d7 b63d 696e aa3c 5d2a 413e
00000340: 4d6f ed3b ed37 e73c bfa1 18bc bb55 04be
00000350: b0fd 62bd 94e4 69bd 1cba 50bd 38c4 6fbd
00000360: 9f56 0c3b 0716 bb3d b385 d63c e9cd 3fbd
00000370: f312 a7bb 6e77 ce3c e06b b4bc e5ba 323c
00000380: 2254 913d 3bc5 a3bd fb3f cebd f75e 58bd
00000390: 4f6d e6bd 4c73 37bd e1ef 96bd 9b29 06be
000003a0: 52da 21be a773 5ebd 7cb5 993d 6f59 863c
000003b0: 7cfb 6f3d 0ed5 83bc 44c1 673d 2fa5 513b
000003c0: 6a7f 883d 45f9 483d 5d7c 543d ab37 5e3d
000003d0: bc96 4d3d be51 8abd 805f c03d 2876 633c
000003e0: 0803 9d3c eb14 013e 0a8f 263e 575e a33a
000003f0: 061e b7bd 0b44 2bbc aa8f 4bbd eacf 21bd
0.011664245 0.044428743 -0.08962139 0.06918801 -0.0003555361 0.015293274 0.17650181 0.104136474
-0.0068941154 0.010621231 -0.02219569 -0.015004027 -0.15520848 -0.1734727 -0.029315485 -0.09267561
-0.12709832 -0.022588165 0.020577913 0.0034377468 0.030310556 -0.13120484 -0.10169405 -0.057302136
-0.10695529 -0.1927558 -0.042397898 0.11628658 0.051725943 0.01214177 -0.018060269 -0.14583935
-0.01519804 -0.09258611 -0.040730778 -0.009467766 0.03700769 -0.06000607 -0.020392133 -0.13377619
-0.15134725 -0.037190698 -0.14842515 -0.1977252 -0.08528504 -0.12146624 -0.10532673 0.024561478
0.16057526 0.15415749 0.0424172 0.04443752 0.17094465 0.079300515 -0.2326565 -0.20395216
-0.14678647 -0.17542319 -0.07558062 -0.21212491 -0.13808352 -0.13946846 -0.16384079 0.22908908
0.13788657 -0.017574372 -0.11591255 -0.1321615 -0.0058442634 -0.13027853 -0.062526114 -0.04299139
0.081149824 0.00036100365 -0.0081779165 0.13091421 -0.016491674 0.019001836 0.12238379 0.0097846305
0.064582735 -0.14226459 -0.08370885 0.009853063 0.016932271 0.109679125 0.030008182 -0.0077614365
-0.04115715 0.0041190595 0.04309787 0.12860154 0.04226349 -0.21887058 -0.17175815 -0.08584858
-0.18303825 -0.28415772 -0.17829618 -0.033508338 0.11381166 0.106187396 -0.15835163 -0.11010192
0.041571148 -0.09344428 -0.13180423 0.09307314 -0.08934034 -0.22843035 -0.13950236 0.21110667
0.08084062 0.046532936 0.16020052 0.10440453 0.048702635 -0.03058827 -0.0009149395 0.07420687
-0.071311705 -0.03315623 0.032251384 -0.15176849 -0.012313707 -0.10690053 -0.08975706 -0.109544985
-0.1199261 -0.0052458267 -0.026518455 -0.041616824 -0.0260422 0.019643895 -0.102494285 0.1301859
0.1644891 0.06104168 -0.04946666 0.02821107 -0.11766058 -0.0100453235 -0.114645265 0.015425867
0.024525106 -0.048047356 -0.07100337 -0.092098646 -0.11724819 -0.07944763 -0.1768645 -0.093965665
-0.09383316 -0.08848167 -0.04907633 0.028629292 -0.11803257 0.021466749 0.01196915 -0.09406693
-0.11737981 -0.057617527 0.0347741 0.0023001344 0.009953952 0.16588143 0.19338542 -0.0117419055
0.17943145 0.19313647 0.090236336 0.10922273 0.055717684 0.17019038 -0.0661604 0.030725736
0.09795398 0.092003174 -0.04247136 0.11699348 -0.12510848 -0.06655182 0.06296231 -0.19335593
-0.15086855 -0.06835298 -0.18861791 -0.14613819 -0.04553914 -0.09062132 -0.0049170386 -0.090444796
-0.032805927 0.0027355407 -0.10869166 -0.124814674 -0.07874783 -0.16703577 0.12355114 0.08031567
-0.02870909 0.099294186 0.013151501 -0.015982904 0.11560611 0.089279 0.0208046 0.18863817
0.007245934 0.02822491 -0.009315907 -0.12923329 -0.055417717 -0.057102755 -0.050958738 -0.05853674
0.0021413935 0.09135061 0.0261868 -0.04682723 -0.0050986945 0.025203433 -0.022024095 0.010908817
0.07096125 -0.07996603 -0.10070797 -0.05282494 -0.11251318 -0.04478769 -0.07369972 -0.13101809
-0.15805939 -0.054309513 0.075053185 0.016400067 0.058589444 -0.016092803 0.056580797 0.0031989326
0.06664927 0.049065847 0.051876415 0.054252308 0.05019258 -0.06753872 0.09393215 0.013883151
0.019166484 0.12605636 0.16265503 0.0012464029 -0.089412734 -0.010453234 -0.049697556 -0.039504923

conv4.bias f4 [32]
00000000: e2c1 5ebd 31a9 ce3c 3fc8 0f3c 5e59 ca3d
00000010: 82b6 59be ee8d 5e3e 66d5 25bc 0184 c1bd
00000020: 3215 a43d 404b 48bd d25b 2c3d 803b c9bb
00000030: 583b 00be 0b06 91bd 6f2c eb3d 64cf 14bd
00000040: 8fbc e3bb 3993 b2bc c686 7d3d 9268 9cbd
00000050: 9f1d 863d bbb8 973d d4e2 133e 8bd9 12bc
00000060: 5835 5fbc 0c31 54bd c9ca 44bb ba61 783c
00000070: 40e6 d8bc c14c 88be c297 2e3e d291 77be
-0.05438412 0.025227161 0.00877577 0.09880327 -0.21261027 0.2173383 -0.010121679 -0.09449006
0.08011855 -0.04889989 0.042079754 -0.006141126 -0.12522638 -0.07081231 0.114830844 -0.036330596
-0.006949968 -0.021798717 0.061896108 -0.07637133 0.065486185 0.074082814 0.14441997 -0.008962999
-0.013623558 -0.051804587 -0.0030028096 0.015160019 -0.02647698 -0.2662106 0.17050079 -0.2417672

conv5.weight f4 [16, 32, 3, 3]
00000000: 62bd 503c b805 1abd 5f9d 15be 02bb ee3d
00000010: 59d9 033c a418 4f3d 54b5 2f3d 5f6e 57bb
00000020: f0d2 f9bd 4067 2d3d cdd4 8dbd 2111 b7bc
00000030: 163e 533e 3750 313e 0e74 86bd 8c05 db3d
00000040: 907a 0d3e d0ea 35be 2df8 29bd ba9c 333d
00000050: cc12 1bbe 363c a0bd 4f31 5a3d 7e83 133e
00000060: 6d43 ec3c a29b c63d d7fe 013e 59e3 95bd
00000070: 2463 9ebc c1ce 293e 0a54 a7bd b4af adbd
00000080: 5ddb 7d3d 480b 09be cd0e 243d d9a9 953d
00000090: 591d f73d cdcc c5bc 74df 0dbe 1c34 0c3e
000000a0: c3b8 4abb bdbb 7d3c 4fc8 563d 64d7 27be
000000b0: 44e8 37be 8d38 39bd 081c ef3d 1e51 a03d
000000c0: dcbe 343d f434 75be 6048 4f3e 17ab 473d
000000d0: 644b 50be 1ff5 8cbc eaa8 f83d a718 52be
000000e0: 6b4c 0d3d 5756 4a3d b980 7c3d ad15 fabd
000000f0: 7982 303e 631a f33c aa83 92bd b3a2 d43d
00000100: 7cf3 2abe a44f a5bc 738b 4a3e 6b9e 853a
00000110: def4 27bd 94e0 953d d220 86bd 79b4 6cbe
00000120: 8577 a7bd 34b1 283e 528d afbd b297 0dbe
00000130: 677e fa3c 7230 f9ba a7e0 8abd 2ea2 71bc
00000140: 1e0e 013e f52b 2b3e ba41 54bd 3df1 95bd
00000150: 04a0 5c3e 87b4 533d 2271 04be 3573 8fbd
00000160: b314 94bd 14b3 7fbe 0c69 0f3e cdb7 cfbd
00000170: 9380 813d e0e0 ed3b 03fa bbbd cdac d4bd
00000180: ad94 ef3d d626 7c3d 1a97 0dbd 2cf8 1bbe
00000190: 692f d93d bde1 3b3d 6959 09be d319 bdbc
000001a0: e225 1d3e bad7 36bd 1f14 65bd e0b8 d73d
000001b0: 899b 1fbe 73dd ee3d cbb8 b1bc 1c3b 38be
000001c0: 09e5 e8bd 323e 303d b74f 13be 807a c7bd
000001d0: 0786 173e 9d41 ffbd a8c3 edbc bf62 1d3e
000001e0: 1e32 83bd 14db 02be 15b3 493d 07e5 e1bd
000001f0: fb2f cebd 3091 a83d 410b 8abe 2477 3f3d
00000200: fb61 4e3e 1169 89be 8b6e 33be ee3a c83d
00000210: a9a2 07be e230 21bd e4f3 183e 353b 0a3e
00000220: d2b4 a5bd e86c 25bd d078 0b3d 6dda 773c
00000230: 113f b9bd 4a76 a6bb c10f 0cbd 31ba 6fbe
00000240: 4086 0bbd 6b31 13be 3a82 723c e6a5 80bd
00000250: 53cb 8c3c 7fb3 6a3c ce44 143e 892c 653e
00000260: 9087 74bd 413b b03d 67a5 09be 899f f73c
00000270: 6a74 eb3d 092c 17bd a73d 8b3d 0655 a23d
00000280: 0c72 7ebd 526c 53be e1eb cc3d 79a0 863d
00000290: 5067 76bd 3cc3 103e 79ef 13be 93df 5cbe
000002a0: 37f4 0cbe b1d4 92be f16e 67be ad91 58be
000002b0: 37e5 f53c c7d9 98bd 05de 1dbe 3a08 083e
000002c0: c545 643e af37 f53c ff60 133e 37c8 bb3e
000002d0: c139 c43d f0af 34be 5826 003d 81e1 493e
000002e0: d551 c5bc 8176 7fbd beb9 e33d 68a3 5a3d
000002f0: 5339 0bbe 7954 cd3d 8c89 ebbc 052f b33d
00000300: e464 c03d 1cc6 693d 0d04 413b 1878 eb3d
00000310: c1b3 cb39 b74f 69be 74f0 34bd 2e4f 09bc
00000320: 0dc9 bb3d 7b3f f0bd 2764 ccbd 73f7 923d
00000330: 8d6d ee3b d186 d43b 4836 373e 41ee 06be
00000340: c758 d3bc 2cb7 993c 56ef a4bd 82a6 be3c
00000350: d230 b83e 986a 49bd 6930 923d 97a6 e33d
00000360: 4c37 f8bd 206b c6bc 6601 d9bb d318 3bbe
00000370: f54d dbbc 0566 a33d 77bc 5bbd 47a0 a83d
00000380: 0da2 8f3e 6c20 183e 44f4 353e 21fd f33d
00000390: 2313 2dbe c41a f63d 8144 7e3d 4e55 84be
000003a0: 7918 e43c 3f3e 193e 6ba4 683d 5d36 bf3d
000003b0: de65 b63a 093f eb3c 7ebb 3b3e 16fb 9d3d
000003c0: 0cab 1dbe e398 1abd 1c87 1f3e 530d 44bd
000003d0: 7192 5dbe 3361 173d c2d9 003d 4108 073e
000003e0: d163 ea3c a19d 263e 3ce5 bb3d 5ce4 e9bd
000003f0: 6678 07be 19c8 d33d 14b0 8d3e 3a5d 26be
0.012740465 -0.03760311 -0.14610814 0.11656763 0.008047425 0.05056061 0.042897537 -0.0032872183
-0.12198436 0.042334795 -0.06925354 -0.022347035 0.20629153 0.17315756 -0.065651044 0.10694417
0.13816285 -0.17765355 -0.041496444 0.043850638 -0.15143889 -0.07823984 0.05326968 0.14405629
0.028840745 0.09697653 0.1269487 -0.07318754 -0.019334383 0.16582777 -0.08170326 -0.08480778
0.06197678 -0.1338321 0.040053178 0.073077865 0.120661445 -0.024145508 -0.13854772 0.13691753
-0.003093288 0.015486655 0.052437123 -0.16390759 -0.17959696 -0.045219947 0.116752684 0.07827972
0.04412733 -0.23945981 0.20242453 0.04874715 -0.20341259 -0.017206727 0.12141593 -0.20517217
0.034496706 0.049398746 0.061646197 -0.122111656 0.17237271 0.029675668 -0.07154019 0.10382595
-0.16694444 -0.020179577 0.19779758 0.0010194307 -0.041005008 0.073182255 -0.06549229 -0.2311572
-0.081770934 0.16473848 -0.085718766 -0.13827398 0.030577851 -0.001901163 -0.0678113 -0.014748139
0.12603042 0.16715987 -0.051820494 -0.07321403 0.21545416 0.051685836 -0.12933782 -0.07004396
-0.072305106 -0.24970657 0.14004916 -0.10142479 0.06323352 0.007259473 -0.09178545 -0.10384522
0.116982795 0.061560474 -0.03456793 -0.15231389 0.10604746 0.045869578 -0.13413014 -0.023083603
0.15346482 -0.044639327 -0.055927392 0.10533309 -0.15586676 0.11663332 -0.021694561 -0.17991298
-0.1137181 0.043028064 -0.14385878 -0.09740162 0.14797221 -0.124636866 -0.02902396 0.153697
-0.064060435 -0.12778884 0.04924305 -0.110300116 -0.10067745 0.08230817 -0.2696171 0.04674448
0.20154564 -0.26837972 -0.17522638 0.09776865 -0.13245644 -0.03935326 0.14936787 0.13499148
-0.08091129 -0.040387064 0.034050763 0.01512776 -0.09045232 -0.005080019 -0.03419471 -0.2341087
-0.034063578 -0.1437432 0.014801556 -0.062816426 0.017186796 0.014325022 0.14479372 0.2238027
-0.059699595 0.08605052 -0.13442002 0.03022744 0.114968136 -0.03690723 0.067988686 0.07926373
-0.062120482 -0.2064679 0.10005928 0.065735765 -0.06015712 0.14136976 -0.1444682 -0.21569662
-0.13765036 -0.28677896 -0.22600915 -0.21149321 0.030016525 -0.07463413 -0.15416725 0.13284388
0.2229224 0.029933779 0.1439247 0.3667619 0.09581328 -0.1764524 0.031286567 0.19714929
-0.024086872 -0.062368874 0.11119412 0.053378493 -0.13596086 0.100258775 -0.02875211 0.08749203
0.09394243 0.057073697 0.0029451877 0.114975154 0.00038853104 -0.22784315 -0.044174626 -0.008380694
0.09169207 -0.11730858 -0.0998004 0.071761034 0.007276243 0.006485798 0.178918 -0.13176824
-0.025799168 0.018764101 -0.08053462 0.023272756 0.35974747 -0.04917392 0.0713814 0.11115759
-0.12119922 -0.024221003 -0.006622481 -0.18271188 -0.026770571 0.07978443 -0.05364653 0.082336955
0.28053322 0.14856118 0.17768961 0.11913515 -0.16901831 0.12016824 0.06207705 -0.25846332
0.0278437 0.14965151 0.056797426 0.09336541 0.0013915857 0.028716581 0.18333241 0.077139065
-0.1539728 -0.03774346 0.15578884 -0.04786427 -0.21637894 0.03695793 0.03145767 0.13186742
0.02861205 0.16271068 0.09174582 -0.11420509 -0.13229522 0.103409 0.276734 -0.162465

conv5.bias f4 [16]
00000000: cd19 c4bd 4ccb 45be e921 133d 58e8 3cbe
00000010: d97d b13d feac 2f3e cddd 0cbd 0b70 f3bc
00000020: 1d42 71bd f7b9 54bd e923 b6bd 592d 133e
00000030: 6f81 0d3e 1a1a 02bd 8b84 52be 8b80 2bbe
-0.095752336 -0.19315833 0.03592101 -0.18448007 0.08666582 0.17155835 -0.034391213 -0.029716512
-0.05890094 -0.051935162 -0.08893568 0.14372768 0.13818906 -0.031763174 -0.20558374 -0.16748254

fc1.weight f4 [128, 400]
00000000: 87fc 503d b2b9 75bd 3ea4 af3e e9da 25be
00000010: 6b36 6f3d 7d0f 363e 9791 c8bc 40ef 923d
00000020: 9995 7cbd 59f3 933e 81c4 dcbd 3c18 13be
00000030: 50be 6abe 072c 3a3d 2235 34be 93c1 0cbd
00000040: e6ea 26bd b1c8 89bd 0a16 363d 5b7c 3bbe
00000050: 2d34 133e 4c8d 1a3e 0bb6 9cbd b702 66be
00000060: a379 94bc 3547 223c 62af a33d d9a4 e53d
00000070: 64ca 3a3b 6178 393c 3bac 88bd beda 42be
00000080: 92eb 39bd e152 9cbd 7802 ddbc 4bd9 dcbd
00000090: 1070 d4bd d821 f03d 242c ab3d ec72 a7bd
000000a0: 27a8 093d db55 8c3d 7bf7 22bd 4a50 043e
000000b0: 637e 523e 4c04 dabb 7db1 99bd 2034 27bd
000000c0: 8a41 1e3c aecd 4cbd cac2 593d d1e1 233e
000000d0: de8c 2abd 89f7 44be ff7a be3d 2c81 833d
000000e0: 7ae7 e6bd 57e5 0fbd 5d62 c33c 8389 aebc
000000f0: b201 d5bd 6095 eabd 316e e53d 1e8f cbbd
00000100: 9e52 6e3e fdad 833d 5b59 223e 0ba7 553e
00000110: fba4 4ebd b3eb 353e 1c4e 273e 8615 21bd
00000120: c175 0b3e c842 0cbd 466f ee3d 2052 a03c
00000130: e8fe 913d 58f0 b03d 992a 1e3d 08bb 183e
00000140: 6834 14be be9b a7bd 61b4 38bd ccb5 c23c
00000150: 1ce5 c7bd 333c 32be aad0 f7bc dd23 ac39
00000160: 5ae1 cd3d cff5 9cbd eef2 763d 5fcd 69bc
00000170: 3729 01bd d15a e73d 2f76 093d ec0c 36bd
00000180: 46f8 a63c 2b5c df3d 277d cb3d 8eca 0bbe
00000190: d4ea 4dbd 376d 70be 961a fabd 395c 6b3d
000001a0: 0d37 00be f938 ecbd 89e5 dfbd e6e5 2ebe
000001b0: 30ae 2cbd 7dcd 153e 413c af3b 9498 d83d
000001c0: af8c c5bd 527a babd bdfd 00be 5b75 f43d
000001d0: 7979 6ebb 0f6d bfbd 6632 05bd e58b 1e3d
000001e0: 594d 023e b818 ba3d f1f0 b2bc 73db 1ebd
000001f0: 465c 273e 242c b73c 0a6d 103c eac8 0d3e
00000200: e48f 203e 33fd 653e 9eaa c33d faa6 8d3c
00000210: 31e6 bfbd 6100 1f3e 204b 0cbe 684e 193c
00000220: 630e 84bd 5572 63bc 7814 c53d cb07 83be
00000230: 515f a0bd 0863 b5bb 0fa4 e6bd 0d79 ad3d
00000240: 72da 30bd 4279 5bbb d515 143e ae98 f2bd
00000250: 3a27 653e 0def cbbd 68ce b3bd f7a5 e1bd
00000260: 1643 a03b 0bd0 cdbd 2932 f5bb 05ec 1bbe
00000270: 05eb a93b 76a3 e1bc 4098 c2bd f5b7 09be
00000280: 1870 44be ff58 f6bd 8ce9 b2ba f07b 773c
00000290: 3be2 2f3e 91c2 013b 2beb 873d 046e d43c
000002a0: 54f7 4d3e 7aaf 933c dc8d 253e 6761 0bbe
000002b0: a100 763c 886f adbb 4b47 963d de2f 103c
000002c0: 826a ad3d 5c23 8c3d 41d9 6b3d 50f1 cf3d
000002d0: 84f4 a8bd 285a 293e 4131 793c 1850 adbd
000002e0: d944 58be 11ad abbd f48b 7abe 48e4 613e
000002f0: 6383 1c3c 64cc 863d 369f bf3d 08f8 d3bc
00000300: 1910 b33d 23e4 babd f074 783e 7615 483d
00000310: f662 5fbe 7f46 15bd 2742 80bd ab1c 0e3d
00000320: 4503 413d fc51 4ebd a648 84bd 1cec 9bbd
00000330: 90e9 f8bc 60c4 85bd b2cd 10be 4e66 fbbd
00000340: 79ec e1bd 6b7a 1e3e 7d31 7fbe f8f3 38bd
00000350: 516d 1abd d972 acbd 4b9f aa3c 659e 0e3e
00000360: f864 463d e163 c2bd 024a 953d bfdc 30be
00000370: ae66 8c3d 8364 13be ebee 3dbc f1e6 61bd
00000380: ecd3 db3c e95c 4ebd b81a eebd f74d dc3c
00000390: e15a 0cbb 6e06 cabd 24bf a33d 1a95 3c3d
000003a0: e10f 46be 83e0 003c c059 073d 93a2 30bd
000003b0: 2a39 5d3d 85e6 58bd f9e2 6fbe d12b ffbd
000003c0: f33c a03b b443 06bd 6de1 0a3e 6939 a4bd
000003d0: ab30 573e c86b de3d 18a6 4cbd 2bf2 df3d
000003e0: 99d7 ed3c 7ce5 1bbd b63a c7bc c9fa be3d
000003f0: 7d83 2f3d e1c5 6b3e 8345 17be b1f1 aebd
0.05102208 -0.059991546 0.34304994 -0.16196789 0.058401506 0.17779346 -0.024483485 0.071745396
-0.061666105 0.28896597 -0.10779668 -0.14364713 -0.22924161 0.045452144 -0.17598394 -0.034364294
-0.04075136 -0.06727732 0.04445461 -0.18309157 0.14375372 0.15092963 -0.076519094 -0.22461973
-0.018124407 0.009904672 0.07992436 0.11213083 0.0028501982 0.0113202045 -0.06673475 -0.19028756
-0.045390673 -0.076329954 -0.026978716 -0.10783633 -0.10372937 0.11725205 0.083580285 -0.081762165
0.03360763 0.06852313 -0.039786797 0.12921253 0.20556025 -0.0066533443 -0.07504556 -0.040821195
0.00965918 -0.05000084 0.05316428 0.16004111 -0.041638248 -0.19235052 0.093008034 0.06421122
-0.112746194 -0.035130825 0.023850614 -0.021305805 -0.10400714 -0.11454272 0.11202658 -0.09939407
0.23273703 0.0642967 0.15854399 0.20864503 -0.050450306 0.17765693 0.1633839 -0.039327167
0.13619138 -0.034243375 0.116423175 0.01957041 0.07128698 0.08639592 0.038614843 0.14915097
-0.14473116 -0.08184002 -0.045093898 0.023768328 -0.09760496 -0.17405777 -0.030250866 0.00032833117
0.10052748 -0.07664072 0.06029027 -0.014270156 -0.031533446 0.11296619 0.033559974 -0.044445917
0.020382058 0.109062515 0.0993598 -0.13651487 -0.050272778 -0.23479162 -0.12212102 0.057460997
-0.12521 -0.11534304 -0.10932452 -0.17079887 -0.042158306 0.14629169 0.005347759 0.10575977
-0.09645974 -0.09105362 -0.12596793 0.11936446 -0.0036388321 -0.09346973 -0.032518767 0.038707633
0.12724818 0.09086746 -0.021843405 -0.0387835 0.16343793 0.022359915 0.008815059 0.13846174
0.1567989 0.22459869 0.09554027 0.017291535 -0.093700774 0.15527488 -0.13700533 0.009357072
-0.064480565 -0.013882239 0.09623045 -0.25591883 -0.0783068 -0.005535487 -0.112617604 0.08470354
-0.043177076 -0.0033489023 0.14461453 -0.118455276 0.22378245 -0.09957705 -0.08779603 -0.110179834
0.0048908098 -0.10049447 -0.007482786 -0.15226753 0.005185487 -0.027543765 -0.09501696 -0.1344908
-0.19183385 -0.120286934 -0.0013649925 0.015105233 0.17176144 0.0019799809 0.066366516 0.025931366
0.2011388 0.01802801 0.16167396 -0.13611375 0.015014798 -0.0052928366 0.07337817 0.008800475
0.084675804 0.06842682 0.057580236 0.101534486 -0.08249763 0.16538298 0.015209497 -0.08462542
-0.21120013 -0.08382619 -0.2446745 0.22059739 0.009552809 0.06581953 0.09356539 -0.025875106
0.08743305 -0.09125545 0.24263358 0.04884859 -0.21815094 -0.036444183 -0.062626176 0.03469531
0.04712226 -0.050371155 -0.06459169 -0.07613394 -0.030384809 -0.06531596 -0.14140967 -0.122753724
-0.11031432 0.15476386 -0.24921222 -0.04515454 -0.03770191 -0.08420343 0.02082791 0.1392761
0.048436135 -0.09491707 0.072895065 -0.17271708 0.06855522 -0.14393811 -0.011592607 -0.055151884
0.02683445 -0.050381575 -0.1162619 0.026892645 -0.0021416473 -0.098645076 0.079954416 0.04604063
-0.19341995 0.007866028 0.033044577 -0.043123793 0.054009594 -0.052954216 -0.23426427 -0.12459529
0.004890078 -0.03277941 0.13562556 -0.080187626 0.21014659 0.108604014 -0.049963087 0.10934862
0.029033469 -0.03806065 -0.024319988 0.09325177 0.042850006 0.23024704 -0.1477261 -0.08542193

fc1.bias f4 [128]
00000000: 52d7 8ebd 8e06 edbd 94ad 15be adee 9cbd
00000010: be74 1f3a fec8 163d 20db 3b3d 3c43 13bd
00000020: 2f99 4ebd ffd4 3cbe 5d83 12bd e3b5 e0bd
00000030: 980e b9bc b7ab b73c 2ca2 2bbd 7070 f1bd
00000040: 4132 8cbd 9dc7 e6bc 2714 1b3e 6b0a 61bd
00000050: ae34 12ba 50dc c13c b825 afb8 9469 d8bd
00000060: c0fc f4bb d7fd 283e 5aa1 efba bb05 48bd
00000070: e68a 7ebd de91 923c c20b fabd 6139 7c3b
00000080: 4c1d 94bd 5e0c 5cbd f76b bbbb 6c5f 283d
00000090: b94e 9dbd 3637 893c b0b3 e23c 30fe 98bd
000000a0: 43b5 adbd a38d 3cbe b05c 2bbd 3e8f 35bd
000000b0: 56e6 f5bd 3d6d 1d3d b835 bcbc 46c8 6ebd
000000c0: de10 43bc ef28 b23d 9af7 4bbb 2f8c b13c
000000d0: e2ab cfbd 8299 20bd eed4 12bd a8ff b2bd
000000e0: b460 48be b17e 27bd 3510 c7bc 3444 8abd
000000f0: 276a 1dbc 4fc9 d2bd 1b39 7abb ddcb 9dbc
00000100: f3fc 853d 22df b2bb 2da2 0bbd b5c0 a53d
00000110: 3e29 10bc f0a9 ee3d 1b7b 413b fa6c 14be
00000120: 4dc4 1dbe 65b8 52bd c14c 323d 917f 82ba
00000130: ecea 20bd 7218 9cbd a69d 68bd 2e94 61bc
00000140: d251 2abc 77d0 b7bc be2a b43d 295b 22bd
00000150: f681 47bc 3f18 06bd 9d13 10be 0daa fabc
00000160: 31ee 64bd d479 c5bd df9b 183d 580d 163e
00000170: 4ac6 db3b efbe 563d 3113 9c3d 102e aebd
00000180: 2aee 233d 4a27 bbbc e3ad 8abc 2355 38bd
00000190: 3f2b af3c ae66 e8bd dcc8 3dbd 8ae5 46bd
000001a0: f541 c53c 2311 8ebd c23a 96bd cb46 0a3b
000001b0: b9a1 4dbd 4c0d 983b 75c2 a4bc 34ba c63b
000001c0: 2876 7dbc 5cf4 7bbd db07 843d 3503 4cbd
000001d0: 3412 36bd 1f35 05be 20b8 d2bd a999 91bc
000001e0: 031e 3cbd 9bcd 313d e916 afbd 7632 0abe
000001f0: de2b 483c 0423 1b3e b101 3cbd d848 54bb
-0.06974663 -0.11573516 -0.14616996 -0.07662711 0.00060827646 0.036812775 0.04586327 -0.03595279
-0.050439056 -0.18440627 -0.03576981 -0.10972192 -0.022589967 0.022420747 -0.041902706 -0.11789024
-0.06845523 -0.028171355 0.15144406 -0.054941576 -0.0005577308 0.023664623 -8.351676e-05 -0.105670124
-0.007476419 0.16503082 -0.001828234 -0.04883359 -0.062144183 0.01789182 -0.12209274 0.003848635
-0.072321504 -0.05372273 -0.0057196575 0.041106626 -0.07681031 0.01674996 0.027673572 -0.074703574
-0.084818386 -0.18413405 -0.04183644 -0.04432606 -0.12006824 0.038434256 -0.022974834 -0.058296464
-0.011905877 0.08699214 -0.0031122924 0.02167329 -0.10140206 -0.039208896 -0.035847597 -0.08740169
-0.1956814 -0.040892307 -0.02429972 -0.0675129 -0.009607828 -0.10292303 -0.003818101 -0.019262249
0.06542387 -0.0054587284 -0.03409021 0.080933966 -0.008798895 0.11653507 0.002952284 -0.14494696
-0.15406914 -0.051445384 0.04353023 -0.0009956231 -0.03928654 -0.0762185 -0.05679097 -0.013768239
-0.010395484 -0.022438271 0.08797215 -0.03963772 -0.012176981 -0.032737967 -0.14069982 -0.030598665
-0.05589122 -0.096423775 0.037258025 0.14653528 0.0067069875 0.052428182 0.07620848 -0.085048795
0.040022053 -0.022845883 -0.016928619 -0.045003068 0.021382926 -0.113477096 -0.046334133 -0.04855875
0.024079302 -0.06936862 -0.07335426 0.0021099325 -0.05020306 0.004640257 -0.020112256 0.0060646776
-0.015470065 -0.061512336 0.06446811 -0.049807746 -0.044450954 -0.13008545 -0.10289025 -0.017773466
-0.04592706 0.04340897 -0.08549292 -0.13495812 0.01221749 0.15150076 -0.04590005 -0.003239205
