Trained_Weights/STRIDE 5/v5.1_15th.pth (torch, 671892 bytes, 10 tensors)

conv1.weight f4 [32, 1, 3, 3]
0	0xbd08cf75	-0.03340097
1	0x3dcbffee	0.09960924
2	0xbd703f29	-0.058653984
3	0x3e053601	0.13008882
4	0x3d3fdb95	0.04684027
5	0x3e537548	0.20650208
6	0x3e0f0422	0.1396642
7	0x3eacc1cf	0.33741614
8	0xbc4af62a	-0.012387792
9	0xbe79d72a	-0.24398485
10	0x3eafb962	0.34321123
11	0x3e9a6dbd	0.3016185
12	0x3ea31467	0.31851503
13	0xbe8f7e8b	-0.28026232
14	0x3ea442ed	0.3208231
15	0xbe755c26	-0.23960933
16	0xbe13bc0d	-0.14427204
17	0x3e003e03	0.12523656
18	0x3e6481a0	0.22315073
19	0x3c8a34ef	0.016870944
20	0xbe85803d	-0.260744
21	0x3e4f0717	0.20217548
22	0x3e76b66a	0.24093023
23	0x3e5b5cbb	0.21422093
24	0x3cf67667	0.030085756
25	0xbd24223f	-0.040071722
26	0xbd2d1c7a	-0.042263485
27	0x3d9284dd	0.07154248
28	0x3e7306f8	0.23733127
29	0xbe0373e4	-0.12837178
30	0xbe7ad063	-0.24493556
31	0xbdaaa4f5	-0.08332244
32	0x3d52a391	0.05142552
33	0x3db4d5d9	0.08829851
34	0x3de5b652	0.112164155
35	0x3e5facbd	0.21843238
36	0xbd0685d3	-0.03284247
37	0x3eb30a73	0.3496891
38	0x3e97bf64	0.29638207
39	0x3e846463	0.2585784
40	0x3df78852	0.12086548
41	0x3e1fb01c	0.15594524
42	0xbc219925	-0.009863173
43	0xbe2fa44e	-0.17152521
44	0x3e871ffd	0.26391593
45	0xbdd92fb1	-0.106047995
46	0x3c01e248	0.007927485
47	0xbdbfe2f0	-0.09369457
48	0x3d361318	0.044451803
49	0x3e31be53	0.17357759
50	0x3e47a16e	0.19495174
51	0xbe59bbd8	-0.21263063
52	0xbeb0152b	-0.3439115
53	0xbe85fc8f	-0.2616925
54	0x3e467c2b	0.19383304
55	0xbc226e7a	-0.009914035
56	0xbeafe3b8	-0.34353423
57	0xbea759c0	-0.3268566
58	0x3dfce8dc	0.12349102
59	0xbe3e93c8	-0.18611062
60	0x3dc05451	0.09391082
61	0xbe6de32b	-0.23231189
62	0x3de10ee5	0.10989169
63	0xbda01dac	-0.078181595
64	0x3e8f004f	0.27929923
65	0x3e00c0c2	0.12573531
66	0x3ea4628e	0.3210644
67	0xbe8c35b0	-0.2738471
68	0x3df641d4	0.120242745
69	0xbd7074b8	-0.05870506
70	0x3e0c615f	0.13709019
71	0x3dbcb65a	0.09214468
72	0xbe5d8ce2	-0.21635774
73	0x3e1c3dfa	0.15258017
74	0xbe841b6b	-0.25802168
75	0x3e79df8e	0.24401686
76	0x3d3865a6	0.045018815
77	0xbdb9eb49	-0.0907808
78	0xbcd700e9	-0.026245551
79	0x3d1b374c	0.037894532
80	0xbebdf1b0	-0.37098455
81	0x3e3f4f44	0.18682581
82	0xbda2206b	-0.079163395
83	0x3d9bb395	0.07602612
84	0x3dafa368	0.08576089
85	0xbe80c963	-0.25153646
86	0x3e3ae0a6	0.18249759
87	0xbe4e4be3	-0.20146136
88	0x3e79e1de	0.24402568
89	0xbd6abb55	-0.05730756
90	0xbe722566	-0.23647079
91	0x3e0c7bcc	0.137191
92	0xbe678c30	-0.22612071
93	0x3e60bd4e	0.21947214
94	0xbbd20870	-0.0064096972
95	0xbdef57ef	-0.11686694
96	0x3da96df3	0.08272924
97	0x3ddae32d	0.106878616
98	0xbdf75a25	-0.120777406
99	0xbd322ee4	-0.04350175
100	0x3e884985	0.2661859
101	0x3d16bf0a	0.036803283
102	0x3e0ce62d	0.1375968
103	0x3ea852e0	0.3287573
104	0xbc5be208	-0.013420589
105	0x3e17eb40	0.14835835
106	0xbe18f00a	-0.14935318
107	0xbe7009b4	-0.23441201
108	0xbe6d429f	-0.23169945
109	0x3e81f13c	0.2537936
110	0x3e80c3ac	0.25149286
111	0xbd54e1ea	-0.05197326
112	0x3e976586	0.29569644
113	0x3c5a0d0b	0.013308774
114	0x3e330d49	0.17485537
115	0xbe141e35	-0.14464648
116	0xbd609ea4	-0.05483879
117	0x3e7cc7e3	0.24685626
118	0xbe257eee	-0.16161701
119	0x3e53551b	0.20637934
120	0xbd08ea7f	-0.033426758
121	0x3d21d570	0.03951019
122	0x3e80e78b	0.25176653
123	0x3d82bd67	0.06383782
124	0xbdb677c3	-0.089095615
125	0x3eaec63b	0.34135613
126	0xbeb77690	-0.35832644
127	0x3e3eb4ee	0.18623707
128	0xbe804329	-0.2505124
129	0xbdf4d496	-0.1195461
130	0xbe094d6d	-0.13408442
131	0xbe89b7df	-0.26898095
132	0x3d85fcf5	0.06542388
133	0x3e7d2ec1	0.24724866
134	0x3e099c0c	0.13438433
135	0x3e83000e	0.2558598
136	0x3d70d570	0.0587973
137	0xbdcabfab	-0.09899839
138	0x3ec28b7a	0.37997037
139	0x3de984ef	0.11402308
140	0x3e48d31d	0.19611783
141	0xbe79e2ee	-0.24402973
142	0xbdaee93c	-0.0854058
143	0xbd9204a4	-0.071297914
144	0xbe431d2c	-0.19054097
145	0x3d185193	0.03718717
146	0x3e0a8eff	0.13531111
147	0x3e657a68	0.22409976
148	0xbdf2f9f0	-0.11864078
149	0x3e067e79	0.13134183
150	0x3d1af372	0.037829824
151	0x3e57fde7	0.2109295
152	0x3d9e2fe3	0.077239774
153	0x3dbdfe0c	0.09276971
154	0xbe5ddf99	-0.21667327
155	0xbe288c11	-0.16459681
156	0xbeae2bba	-0.34017736
157	0xbb7574ce	-0.0037453654
158	0x3e9c59b2	0.30537182
159	0x3d628da3	0.055310857
160	0xbea34b16	-0.31893224
161	0xbe877ad5	-0.264609
162	0x3e000ce5	0.12504919
163	0x3e4c39a3	0.19943862
164	0x3e14f6f9	0.14547338
165	0xbdb6d15b	-0.0892665
166	0x3dd7825b	0.1052291
167	0x3ca8692a	0.020557959
168	0xbd8ef453	-0.06980195
169	0x3e51b656	0.20479712
170	0xbca9796f	-0.020687787
171	0x3c71f423	0.014767679
172	0xbe2e6371	-0.17030121
173	0x3ebe3e6a	0.37156993
174	0xbd64f34f	-0.0558961
175	0x3e49e879	0.19717588
176	0xbe575c36	-0.2103127
177	0xbe6c7139	-0.23090066
178	0x3e613326	0.21992168
179	0xbe52b5b5	-0.20577128
180	0x3da728f0	0.08162105
181	0x3ea8258e	0.32841152
182	0x3c3e41de	0.011612384
183	0x3d19053b	0.037358504
184	0xbdfb5ba8	-0.122733414
185	0xbe2f81d2	-0.17139366
186	0xbe8f1330	-0.27944326
187	0xbce754c0	-0.028238654
188	0xbe1796ac	-0.1480357
189	0x3e3f2745	0.18667324
190	0x3e547017	0.20745884
191	0x3e30abb6	0.17253003
192	0x3e3b4efd	0.1829185
193	0xbe6c20ae	-0.23059341
194	0x3ead54c9	0.33853748
195	0xbe2f3c52	-0.17112854
196	0x3e6af94e	0.22946665
197	0x3e9a1baa	0.3009923
198	0xbd99ef4e	-0.07516347
199	0x3e9e6e22	0.309434
200	0x3e970d45	0.2950231
201	0x3e5766cc	0.21035308
202	0x3e2b9c42	0.16758826
203	0xbc619ded	-0.013770563
204	0x3e0c0e6a	0.13677374
205	0x3ccfd075	0.025367955
206	0xbe313dc9	-0.17308725
207	0x3e2e476b	0.17019431
208	0x3e621594	0.22078544
209	0x3e86581d	0.262391
210	0xbe5a860d	-0.21340199
211	0xbe931cc2	-0.28732878
212	0x3d2e6b13	0.042582583
213	0x3eabc207	0.3354647
214	0xbd12a5d4	-0.035802677
215	0x3e757529	0.23970474
216	0x3e492db9	0.19646348
217	0xbe8dfb98	-0.27731013
218	0xbeb7d61c	-0.3590554
219	0x3c5ec73b	0.013597305
220	0x3e16d8ea	0.14731184
221	0x3d886da0	0.06661534
222	0xbe9eb154	-0.30994666
223	0x3e293dfb	0.1652755
224	0xbdc06bdb	-0.09395572
225	0xbe5929d7	-0.21207367
226	0xbe00fa1a	-0.12595406
227	0xbe9e4a79	-0.30916193
228	0xbe08d6c9	-0.13363184
229	0x3e16530d	0.14680119
230	0x3c12ecda	0.008967603
231	0x3e84ec5f	0.25961587
232	0xbe60aecd	-0.21941681
233	0xbde2e10d	-0.11078081
234	0x3e6fbcae	0.2341182
235	0xbd30dd18	-0.0431796
236	0x3ea08b9f	0.31356522
237	0x3e4c4bcc	0.19950789
238	0x3e62e079	0.22155942
239	0x3dc62cd7	0.09676521
240	0xbe9583f6	-0.2920224
241	0xbd24af32	-0.04020614
242	0xbe65901d	-0.22418256
243	0xbe8f19e9	-0.27949455
244	0xbb876001	-0.0041313176
245	0x3dce9f73	0.10089006
246	0xbe2685a7	-0.16261922
247	0xbcc08fcd	-0.02350607
248	0xbd1244b9	-0.03571007
249	0xbdc78452	-0.09742035
250	0x3e0a1207	0.1348344
251	0xbe6e7148	-0.23285401
252	0xbe0f1262	-0.13971856
253	0x3e1a8520	0.15089846
254	0x3e0405f2	0.12892893
255	0x3ded7b10	0.11595738

conv1.bias f4 [32]
0	0xbe2b571a	-0.16732445
1	0xbea55f36	-0.32299203
2	0x3cafe47a	0.02147125
3	0x3dddae97	0.10824316
4	0xbe6a063c	-0.2285394
5	0x3dea0923	0.11427524
6	0x3e25c9f1	0.16190316
7	0xbe8cfc07	-0.27536032
8	0x3e14cd78	0.14531505
9	0xbe87a069	-0.2648957
10	0x3d6af00e	0.05735784
11	0xbdeb47b1	-0.114882834
12	0xbdb9db4f	-0.09075033
13	0xbde16378	-0.110053
14	0x3e84f398	0.25967097
15	0xbe5bbe83	-0.21459393
16	0xbe95064a	-0.2910636
17	0x3e264bd5	0.16239865
18	0x3bd0f6ca	0.006377076
19	0x3c4c16da	0.01245662
20	0x3d3cbf82	0.046081074
21	0xbc19cc12	-0.009387033
22	0xbe9494b5	-0.29019704
23	0xbdfe99de	-0.124316916
24	0x3de70df3	0.112819575
25	0x3e47413e	0.19458482
26	0xbdac1156	-0.08401744
27	0x3e7436e1	0.2384906
28	0xbd2d4534	-0.042302325
29	0xbda7d353	-0.08194604
30	0xbe9f8417	-0.31155464
31	0xbe0a0a0e	-0.13480398

conv2.weight f4 [32, 32, 3, 3]
0	0xbe31050e	-0.17287084
1	0xbe96bcd2	-0.29440933
2	0xbe11f170	-0.14252257
3	0xbda81add	-0.08208249
4	0xbe801a22	-0.25019938
5	0xbe0997a2	-0.1343675
6	0xbe12f42a	-0.14350954
7	0xbe779e29	-0.24181427
8	0xbdd25fa5	-0.10272149
9	0xbd9a1eeb	-0.075254284
10	0xbd6100ac	-0.05493228
11	0x3d6e3168	0.058152586
12	0xbd0a64f1	-0.03378767
13	0x3cf208a1	0.02954513
14	0xbd1ae1d0	-0.037813008
15	0xbd42e4d1	-0.047581498
16	0xbd800ff3	-0.06253042
17	0xbca2a87e	-0.019855734
18	0xbd1e52ed	-0.038653303
19	0xbd9c0f11	-0.07620061
20	0xbcb4f947	-0.022091521
21	0xbbd956e5	-0.006632673
22	0xbd13950d	-0.036030818
23	0xbd8449e3	-0.06459405
24	0xbcc97950	-0.02459398
25	0xbcc5e82a	-0.024158556
26	0x3cecb8b6	0.02889667
27	0xbd67b15d	-0.05656563
28	0xbc66edbc	-0.014094766
29	0xbd29d623	-0.041463982
30	0xbd951017	-0.072784595
31	0xbd58a987	-0.05289605
32	0xbbf560de	-0.007488354
33	0xbd44f34e	-0.048083596
34	0xbc8bab1f	-0.01704937
35	0x3b4f9327	0.0031673403
36	0xbdd6495c	-0.10463211
37	0xbe589925	-0.2115217
38	0xbd892603	-0.06696703
39	0xbe019e24	-0.12657982
40	0xbe552c68	-0.20817721
41	0xbe05b4a2	-0.13057187
42	0xbe023a8f	-0.12717651
43	0xbe4e7f8a	-0.2016584
44	0xbd7d479a	-0.061835863
45	0x3d56bdcc	0.0524271
46	0x3e38c9c7	0.18045722
47	0x3d8657d1	0.065597184
48	0x3cb22137	0.021744354
49	0x3e20ce1e	0.15703627
50	0x3dc2485c	0.09486458
51	0x3e088e0e	0.1333544
52	0x3e4201d7	0.18946014
53	0x3e16c65a	0.14724103
54	0x3d993ac9	0.074819155
55	0x3d57c6bd	0.052679766
56	0xbd4d1d3f	-0.05007672
57	0x3de5ccd7	0.11220711
58	0x3dcd5ba5	0.100272454
59	0x3d4229f0	0.047403276
60	0x3e00eb4c	0.12589759
61	0x3da93c81	0.08263493
62	0xbcaaabd1	-0.020833882
63	0xbd13c545	-0.036076803
64	0xbda5c252	-0.08093704
65	0x3d1326df	0.035925742
66	0x3c276167	0.010216094
67	0xbac41791	-0.0014960637
68	0xbc048649	-0.008088657
69	0xbd29ba84	-0.04143764
70	0xbd0a7a8a	-0.03380827
71	0xbd398f70	-0.04530281
72	0x3e0179ba	0.12644091
73	0xbc11535c	-0.008869972
74	0xbd3b4b96	-0.04572638
75	0x3e271fcf	0.16320728
76	0x3d8a4390	0.06751168
77	0xbded4751	-0.11585868
78	0x3d4bf8fe	0.049798004
79	0x3d4aabf5	0.049480397
80	0x3d0614de	0.032734744
81	0xb8a4f7b8	-7.8662706e-05
82	0x3d361753	0.044455837
83	0xbb996242	-0.0046809027
84	0xbcbd2ed6	-0.023093622
85	0x3bbc6111	0.005748876
86	0x3d3856fb	0.045004826
87	0x3d00861c	0.031377897
88	0xbcbc0bdb	-0.022954872
89	0xbb3e7853	-0.0029063418
90	0x3d09721d	0.033556093
91	0xbd2bda28	-0.041956097
92	0xbd5b24da	-0.05350194
93	0x3d09d376	0.03364893
94	0x3d2ca92c	0.042153522
95	0xbd8e942b	-0.069618545
96	0xbce29222	-0.027657572
97	0x3c3926f8	0.011300795
98	0xbc2e5e5e	-0.010642616
99	0xbd823c7c	-0.06359193
100	0xbd5c00aa	-0.05371157
101	0xbd5ad695	-0.053427298
102	0xbd8e34b8	-0.06943649
103	0xbe4357b2	-0.19076422
104	0xbe2317f4	-0.15927106
105	0xbd6bd030	-0.05757159
106	0xbe62aa03	-0.22135167
107	0xbd942289	-0.072331496
108	0xbd26c39c	-0.04071389
109	0xbd7de90a	-0.06198982
110	0x3cd828b0	0.026386589
111	0xbe2beb43	-0.16788964
112	0xbe10e14e	-0.14148447
113	0xbd94681a	-0.07246418
114	0xbe20a240	-0.15686893
115	0xbdb62300	-0.088933945
116	0xbd9235f0	-0.07139194
117	0xbde86a1c	-0.11348364
118	0xbd8f4d65	-0.06997184
119	0xbd4b3ad3	-0.049616646
120	0xbe094f67	-0.13409196
121	0xbde5e108	-0.11224562
122	0xbd32a398	-0.043613046
123	0xbddae71b	-0.10688611
124	0xbe049115	-0.1294597
125	0xbd28689e	-0.041115396
126	0x3d8123d7	0.06305664
127	0x3cfd5020	0.030921996
128	0x3c5fece3	0.013667318
129	0x3c1f5565	0.0097249495
130	0x3c93660d	0.017992998
131	0xbd1632f1	-0.036669675
132	0x3d828bb8	0.063743055
133	0x3c02e237	0.007988504
134	0xbcecfe1c	-0.028929763
135	0xbd5e4a44	-0.054270044
136	0xbc2c54c5	-0.0105182575
137	0xbd6c30c3	-0.05766369
138	0x3c18ab43	0.009318176
139	0xbd2aa1eb	-0.041658323
140	0xbd4f9315	-0.050677378
141	0xbcb402ac	-0.02197393
142	0xbce41595	-0.027842322
143	0xbd52ed5a	-0.051495887
144	0xbcf746cf	-0.030185131
145	0xbc9d73fa	-0.019220341
146	0xbd092d8f	-0.033490714
147	0xbd440180	-0.047852993
148	0xbc256285	-0.01009429
149	0x3c0df4aa	0.0086642895
150	0xbaaabbaf	-0.0013025905
151	0x3cf9277b	0.030414334
152	0x3d0dc1a7	0.03460851
153	0x3e2d721b	0.16938059
154	0x3e155d08	0.1458627
155	0x3de53d9f	0.11193394
156	0x3d6845ff	0.05670738
157	0x3e4ede94	0.20202094
158	0x3e2fb34f	0.17158245
159	0x3e26c8d5	0.16287549
160	0x3e68e7ef	0.22744726
161	0x3e04c864	0.12967068
162	0xbc94f490	-0.018183023
163	0xbc9b5a2d	-0.018963898
164	0x3cd9f317	0.026605172
165	0xbd6fcf89	-0.05854753
166	0xbda3701a	-0.07980366
167	0xbb2ddd96	-0.002652978
168	0xbd2a7dc6	-0.041623853
169	0xbb202ab0	-0.0024439506
170	0xbc949791	-0.018138679
171	0xbd3b582a	-0.045738377
172	0x3d73247d	0.05936097
173	0xbd1855d3	-0.037191223
174	0xbd692241	-0.056917433
175	0x3d32451f	0.04352295
176	0xbbfc4d01	-0.0076996093
177	0xbd446b7c	-0.047954068
178	0xbd123acf	-0.035700615
179	0x3b9dc2c1	0.0048144762
180	0x3d948c82	0.07253362
181	0x3d2f43bd	0.04278921
182	0x3de041a6	0.109500214
183	0x3d882a16	0.06648652
184	0x3d154ad1	0.036448304
185	0xbd09e4c5	-0.033665437
186	0x3c5c3605	0.013440614
187	0x3d3e5a44	0.046472803
188	0x3d115818	0.035484403
189	0xbd9aa9eb	-0.075519405
190	0xbdcb2aab	-0.09920248
191	0x3d5f95e4	0.054586306
192	0xbdbe79f1	-0.09300602
193	0xbd68fbec	-0.056880876
194	0xbd80843d	-0.062752225
195	0xbdaf2069	-0.085511036
196	0xbbc4c0d6	-0.006004433
197	0xbc7db240	-0.015484393
198	0xbde62697	-0.11237829
199	0xbd8351b2	-0.064120665
200	0xbd849039	-0.06472821
201	0xbb723c6b	-0.0036962281
202	0xbdc87524	-0.09787968
203	0xbdfb060b	-0.12257012
204	0xbcb0fc52	-0.02160469
205	0xbdd6dc31	-0.10491217
206	0x39391d8c	0.00017653982
207	0xbdef2c3b	-0.11678358
208	0xbdde39f2	-0.10850896
209	0x3d6265d0	0.055272877
210	0xbd7c609d	-0.061615575
211	0xbdf712df	-0.12064146
212	0xbbc9d826	-0.0061598
213	0xbd63e0ff	-0.055634495
214	0xbddef4f2	-0.10886563
215	0xbd59481a	-0.053047277
216	0x3ca4833a	0.020082105
217	0xbdaa8181	-0.08325482
218	0xbd76e447	-0.060276296
219	0x3ddade03	0.106868766
220	0x3d575941	0.052575354
221	0xbd8016ce	-0.0625435
222	0x3d1c3214	0.038133696
223	0x3cc1ae83	0.023642784
224	0xbb6b7183	-0.0035925813
225	0x3dd0e3fc	0.101997346
226	0x3db8bf0f	0.090208165
227	0xbcb0ebf0	-0.021596879
228	0x3e120ef3	0.14263515
229	0x3e5783fc	0.21046442
230	0x3d00c50f	0.03143793
231	0x3e1a7e6c	0.15087289
232	0x3e205d37	0.15660559
233	0xbc2639b2	-0.010145592
234	0xbcbeda92	-0.023297582
235	0x3bdefd86	0.0068051247
236	0x3cb2cf96	0.0218275
237	0xbd9f1a0f	-0.07768642
238	0xbde0e4dc	-0.109811515
239	0xbd11d74b	-0.03560571
240	0xbb29e0ed	-0.002592142
241	0xbdc99557	-0.098429374
242	0xbd808332	-0.062750235
243	0xbd1dd599	-0.03853378
244	0x3d89437d	0.067023255
245	0xbce7dbbe	-0.028303023
246	0xbc5ba5df	-0.013406246
247	0x3cba10a8	0.02271302
248	0x3d8952b0	0.067052245
249	0x3aacb0cc	0.0013175248
250	0xbb1cb554	-0.002391179
251	0x3d21e1ac	0.039521858
252	0xbd5c0ed3	-0.053725075
253	0xbcb5a286	-0.022172224
254	0xbd5ff687	-0.054678466
255	0xbd4a986c	-0.049461767

conv2.bias f4 [32]
0	0x3d153302	0.036425598
1	0xbd240579	-0.04004428
2	0xbcf37b6b	-0.029721936
3	0x3d61fb48	0.05517128
4	0x3cdbb6b5	0.02682052
5	0x3cabe29b	0.020982077
6	0x3ce61695	0.02808694
7	0xbd732708	-0.059363395
8	0xbd2b7548	-0.041859895
9	0xbc2ce572	-0.010552751
10	0x3b564ab2	0.003269833
11	0x3cb11390	0.021615773
12	0xbb7bd00c	-0.0038423566
13	0xbc8bedd8	-0.017081186
14	0xbc60eb91	-0.013728038
15	0x3b632a30	0.0034662597
16	0x3c0d01ed	0.008606416
17	0xbd41679e	-0.047217958
18	0x3cbe4297	0.023225112
19	0xbd7203c9	-0.05908564
20	0x3cfebab5	0.031094888
21	0x3c865391	0.01639727
22	0x3c196f57	0.009364924
23	0xbd0db79b	-0.034598928
24	0x3c555743	0.013021293
25	0x3d28145a	0.041035034
26	0xbc73a362	-0.0148704965
27	0xbdadfba4	-0.08495262
28	0x3d01ff84	0.03173782
29	0x3cc90dd4	0.024542727
30	0xbd11a815	-0.035560686
31	0x3d9f966e	0.07792364

conv3.weight f4 [32, 32, 3, 3]
0	0xbca37ed0	-0.01995793
1	0x3db2ec04	0.08736423
2	0x3e0922b2	0.13392141
3	0xbccbfc88	-0.02490069
4	0x3c9e98f7	0.019360049
5	0xbb70d64a	-0.003674882
6	0x3d9696da	0.073529914
7	0xbe092fb7	-0.13397108
8	0xbe45b56e	-0.19307491
9	0x3d60d307	0.05488875
10	0xbd0c32f2	-0.034228273
11	0xbe17abf2	-0.14811686
12	0x3c2fb524	0.01072434
13	0x3dd39de8	0.103328526
14	0xbd05a831	-0.032631103
15	0xbda655af	-0.081218116
16	0x3e390eda	0.18072072
17	0x3e011fa2	0.12609723
18	0xbd1db35e	-0.038501136
19	0xbd21c9c7	-0.03949907
20	0xbdbce7f5	-0.0922393
21	0x3d0f71ae	0.035020523
22	0x3dbc157a	0.09183784
23	0xbb67b7dc	-0.0035357391
24	0xbd8a4d9d	-0.06753085
25	0x3e1bf09a	0.15228501
26	0x3e0b3ed7	0.1359819
27	0x3d50bee1	0.050963286
28	0x3d342fab	0.043990772
29	0x3de1791d	0.11009429
30	0x3d42838e	0.04748874
31	0xbda14eb4	-0.078763396
32	0x3d8fdef4	0.07024947
33	0x3c8d4989	0.017246978
34	0xbdcdea75	-0.10054485
35	0xbe19b579	-0.15010633
36	0x3c90b24e	0.017663147
37	0x3d20d9ad	0.03927009
38	0x3d92c048	0.07165581
39	0xbc067917	-0.008207581
40	0xbd69711c	-0.056992635
41	0x3d62a717	0.05533513
42	0xbcbcc493	-0.023042953
43	0xbe238e60	-0.1597228
44	0xbdd9129c	-0.105992526
45	0xbc3901c4	-0.011291925
46	0x3d23e73f	0.040015455
47	0x3df09725	0.117475785
48	0x3d288190	0.041139185
49	0xbd8531d5	-0.06503645
50	0xbd50db71	-0.050990526
51	0x3e11bec9	0.14232935
52	0xbdaf9d87	-0.08574968
53	0xbe1c94ba	-0.1529111
54	0x3d837f4f	0.064207666
55	0x3e0271db	0.12738745
56	0x3e2d1471	0.16902329
57	0xbc602bf4	-0.013682354
58	0xbd9488ac	-0.072526306
59	0x3d622f18	0.055220693
60	0xbc06ade6	-0.008220172
61	0xbdc3de3d	-0.09563873
62	0xbe1f6b93	-0.1556838
63	0xbd010a29	-0.03150383
64	0xba72dc3d	-0.00092643854
65	0xbe052b5c	-0.13004822
66	0xbd5052e7	-0.05086031
67	0x3dba9bf8	0.0911178
68	0x3c9c5c0c	0.01908686
69	0xbc599c95	-0.013281961
70	0x3dd04634	0.1016964
71	0x3e099542	0.13435844
72	0x3d4a8370	0.049441755
73	0xbd12d262	-0.035845168
74	0xbe3c88d3	-0.1841157
75	0xbd18f9ce	-0.037347607
76	0x3cad8d7a	0.021185625
77	0x3cf00be3	0.029302543
78	0xbdaaa1bf	-0.08331632
79	0x3e524271	0.20533158
80	0x3e37df89	0.17956366
81	0x3d40f502	0.047108658
82	0xbdbf55a9	-0.0934251
83	0xbd6c9cee	-0.057766847
84	0xbc6e6971	-0.014551506
85	0x3d93464b	0.07191142
86	0xbc01cd31	-0.007922457
87	0x3c9c47e4	0.019077249
88	0x3da5090f	0.080583684
89	0x3e559cd7	0.20860611
90	0x3b15996c	0.0022827042
91	0xbd97c0d1	-0.07409824
92	0xbe0e27b5	-0.13882335
93	0x3cd8baad	0.026456201
94	0xbc96e651	-0.01842037
95	0x3c85d34b	0.016336104
96	0xbd60638a	-0.054782428
97	0x3e102cc8	0.14079583
98	0x3dfbd523	0.12296512
99	0x3d41cfc8	0.047317296
100	0xbd23e463	-0.04001273
101	0xbd8e4e4e	-0.06948529
102	0xbd5bc64c	-0.053655908
103	0x3a03ea56	0.0005032172
104	0xbce87dde	-0.02838033
105	0xbd1ed982	-0.03878165
106	0x3de0e282	0.10980703
107	0x3d04bc5c	0.032406196
108	0x3d8d0868	0.06886369
109	0x3e148425	0.14503534
110	0x3e558031	0.20849682
111	0x3d90091f	0.0703299
112	0xbb0d0aa6	-0.002152124
113	0x3bddce56	0.006768982
114	0x3dcf0a7d	0.10109422
115	0xbe5a2dd2	-0.21306542
116	0xbe1b362a	-0.1515738
117	0xbd2ad065	-0.041702647
118	0x3df6c4cf	0.12049257
119	0x3e04cc48	0.12968552
120	0x3d6816f3	0.05666251
121	0xbdedf70e	-0.116193876
122	0x3d216cd9	0.039410446
123	0x3cf6eef5	0.03014324
124	0xbe27dd3d	-0.1639299
125	0xbe55774c	-0.2084629
126	0xbbca64f7	-0.0061765867
127	0xbdd3aecc	-0.10336074
128	0xbe1239e7	-0.142799
129	0x3d206bfc	0.039165482
130	0x3b35c30b	0.0027734663
131	0xbdb269b5	-0.08711568
132	0xbc17e971	-0.009271965
133	0x3e46044c	0.19337577
134	0x3de2d678	0.11076063
135	0x3bcf3f29	0.006324668
136	0xbdceefed	-0.10104356
137	0xbdc64dec	-0.09682831
138	0xbcac3d69	-0.021025376
139	0x3d81a350	0.063299775
140	0x3baddb5c	0.0053056907
141	0xbd538034	-0.051635936
142	0x3e1631da	0.14667454
143	0x3e1f7d26	0.15575084
144	0x3ce34dc9	0.027747052
145	0xbe000cc9	-0.12504877
146	0xbe10d586	-0.14143953
147	0x3cb262de	0.02177566
148	0x3da37a99	0.07982368
149	0xbdabd083	-0.0838938
150	0xbc4f5175	-0.012653698
151	0x3dd719a8	0.105029404
152	0x3dd40e4c	0.103542894
153	0xbc518bd5	-0.012789686
154	0xbdde01c3	-0.1084018
155	0xbdf73835	-0.120712675
156	0x3d18204e	0.037140183
157	0x3de0c772	0.10975541
158	0x3d2b4386	0.041812442
159	0xbc68ee9d	-0.014217046
160	0x3e038787	0.12844668
161	0x3e56009c	0.2089867
162	0x3d0b7ce6	0.03405466
163	0x3e0b5e45	0.1361018
164	0x3de3b52b	0.111185394
165	0x3d98bb4b	0.07457598
166	0xbdb24dd2	-0.08706249
167	0xbbec2c73	-0.007207447
168	0x3db50821	0.08839441
169	0xbe2aade9	-0.16667904
170	0xbe186e62	-0.14885858
171	0xbbb41c26	-0.0054965196
172	0xbd921260	-0.07132411
173	0xbd5d90f6	-0.054093324
174	0xbd9f0ea7	-0.077664666
175	0xbc05460d	-0.008134377
176	0x3c1cc2fe	0.009567974
177	0xbd4a9222	-0.04945577
178	0x3e0e1d46	0.13878354
179	0x3e1084e4	0.14113194
180	0xbbe24cde	-0.006906136
181	0x3cb62f69	0.022239404
182	0x3e1475b7	0.1449803
183	0xbca31a22	-0.019909922
184	0xbccea547	-0.025225295
185	0x3cbef13d	0.02330839
186	0x3d1d76b1	0.03844327
187	0xbe151e28	-0.14562285
188	0xbcf02de6	-0.029318761
189	0x3d0bb7cc	0.03411083
190	0x3db9ede1	0.09078575
191	0x3e063c26	0.13108882
192	0x3cca6125	0.024704525
193	0xbd9ddbd0	-0.077079415
194	0xbdd350d3	-0.1031815
195	0xbd5c04f0	-0.053715646
196	0xbe4dca2c	-0.20096654
197	0xbdef7562	-0.11692311
198	0x3d0a2362	0.03372515
199	0xbcbb5607	-0.02286817
200	0xbe2e9480	-0.17048836
201	0x3cdb9887	0.02680613
202	0x3d75b473	0.059986543
203	0x3cac75ad	0.021052206
204	0xbb8958c6	-0.004191491
205	0x3e336850	0.17520261
206	0x3e587ab0	0.21140552
207	0x3d7aa711	0.061194483
208	0xbdb19fc9	-0.08673055
209	0xbdd6d15e	-0.10489152
210	0x3c0b1964	0.00848994
211	0x3d31c3ae	0.043399505
212	0xbd3445ab	-0.044011753
213	0xbbde51de	-0.0067846617
214	0x3ddcc82a	0.10780366
215	0x3e2ff381	0.17182733
216	0x3c933d5d	0.017973596
217	0xbe0304ca	-0.12794796
218	0xbdcc94e5	-0.09989337
219	0xbcbf8ca4	-0.023382492
220	0x3dccbabf	0.099965565
221	0x3c5a7683	0.013333919
222	0xbd800afb	-0.06252094
223	0x3e6bd2bf	0.23029612
224	0x3e039ff3	0.12853985
225	0x3c2a20b7	0.010383776
226	0xbb449d79	-0.0030001088
227	0xbdcebb2a	-0.100942925
228	0x3d3a1e10	0.045438826
229	0x3d12c025	0.035827775
230	0x3d11c614	0.035589293
231	0x3d7651fe	0.060136788
232	0x3e2d69e2	0.16934922
233	0x3e0f53ac	0.13996762
234	0xbd34a27a	-0.044100262
235	0x3dd088f1	0.101823695
236	0x3dcf0808	0.10108954
237	0xbce74792	-0.02823237
238	0xbd95ff75	-0.07324115
239	0x3cc99257	0.024605913
240	0x3d416479	0.04721496
241	0xbe2a00e3	-0.16601901
242	0xbe12221b	-0.14270823
243	0x3d03fd6a	0.032224096
244	0xbd1de868	-0.038551718
245	0xbdcfe343	-0.101507686
246	0x3b11005d	0.002212546
247	0xbc2697c2	-0.010168018
248	0xbd6bb92e	-0.057549648
249	0xbd2361da	-0.03988824
250	0x3daf9968	0.08574182
251	0x3db825f7	0.08991616
252	0xbd4f7f82	-0.05065871
253	0xbddc59a5	-0.10759286
254	0xbe0b4f69	-0.13604511
255	0xbd594a94	-0.05304964

conv3.bias f4 [32]
0	0x3d94213b	0.07232901
1	0xbd2cfad1	-0.042231385
2	0xbd0e3e1f	-0.034727212
3	0xbe052446	-0.13002118
4	0xbbb7483a	-0.005593327
5	0x3c924866	0.017856788
6	0x3d718b1e	0.058970563
7	0xbdd52af7	-0.104085855
8	0xbc025d31	-0.007956789
9	0x3cea2157	0.02858035
10	0xbd0bdf47	-0.03414848
11	0x3c0a19a3	0.008428964
12	0x3d239246	0.03993442
13	0xbd802f46	-0.06259017
14	0xbc474283	-0.012161854
15	0x3acabc1e	0.001546744
16	0xbcbad597	-0.022806926
17	0x3c95ad74	0.018271185
18	0x3d7e1690	0.062033236
19	0xbd6dac75	-0.058025796
20	0x3c683005	0.014171605
21	0x3d4ee806	0.050514244
22	0xbd514c5b	-0.05109821
23	0xbd26a095	-0.040680487
24	0x3c0643c3	0.008194867
25	0x3d19b5b7	0.037526812
26	0x3d6387ce	0.055549435
27	0xbcb0e60d	-0.021594072
28	0x3cfc22e7	0.030778361
29	0x3d9aa803	0.07551577
30	0xbc7babc0	-0.015360773
31	0x3d46afd0	0.04850751

fc1.weight f4 [128, 1152]
0	0x3d81be49	0.06335122
1	0xbd814897	-0.063126735
2	0xbda718e0	-0.081590414
3	0xbd3b8711	-0.045783106
4	0xbdaafbde	-0.08348821
5	0x3c396c9a	0.011317397
6	0xbd94e7d0	-0.07270777
7	0xbd32b8e9	-0.043633375
8	0x3ca57bf5	0.020200709
9	0xbc3b1ad5	-0.0114199715
10	0x3c6f7fac	0.014617842
11	0xbd68afcb	-0.056808274
12	0x3ccba704	0.024859913
13	0x3cf40021	0.029785218
14	0xbd0080f3	-0.031372976
15	0xbd81d230	-0.06338918
16	0xbd987a02	-0.07445146
17	0xbd9fa4e3	-0.077951215
18	0x3c50bf21	0.012740881
19	0xbd820b6f	-0.06349837
20	0x3c61aec8	0.013774581
21	0xbd28fd1d	-0.041257013
22	0x3d4b840b	0.049686473
23	0x3d151706	0.03639891
24	0xbd17c1a7	-0.037049916
25	0xbb053d73	-0.0020330816
26	0x3d007093	0.03135736
27	0xbd815cdd	-0.063165404
28	0xbda59adf	-0.0808618
29	0x3d88bce7	0.06676655
30	0x3d95c8a6	0.07313661
31	0x3d2caa11	0.042154375
32	0xbda8e118	-0.08246058
33	0xbd435681	-0.04768992
34	0xbdaa8dbd	-0.08327816
35	0x3c5b2fff	0.013378142
36	0x3cab89a9	0.020939665
37	0xbddd8cd3	-0.10817876
38	0xbcf09941	-0.029369952
39	0xbdccf5f4	-0.10007849
40	0xbdc8ca2f	-0.098041885
41	0xbd528a90	-0.051401675
42	0xbd30a5f4	-0.043127015
43	0xbd09610f	-0.033539828
44	0xbd4f9795	-0.05068167
45	0xbd30acbd	-0.043133486
46	0xbd0b8ed7	-0.03407177
47	0x3bff31cd	0.007787919
48	0x3baf12af	0.0053428034
49	0x3d874b68	0.066061795
50	0xbc7565f9	-0.014977925
51	0x3daa1bc7	0.08306079
52	0x3ba32e7b	0.004979906
53	0xbd5468c7	-0.051857736
54	0xbcd63c76	-0.026151877
55	0xbcc21be1	-0.023694934
56	0xbd7cdced	-0.06173413
57	0x3d5ea4fc	0.05435656
58	0xbcba4726	-0.022739004
59	0xbd7c6d24	-0.061627522
60	0x3ca7d623	0.02048785
61	0x3d3ea3da	0.04654298
62	0x3b6cc55f	0.0036128385
63	0x3dc1133e	0.09427498
64	0x3d07e873	0.033180665
65	0x3d015985	0.031579513
66	0x3c4b8b95	0.012423416
67	0x3d46dcfa	0.048550583
68	0x3d7df3f3	0.062000226
69	0xbd99b7a2	-0.07505728
70	0xbc9d3955	-0.019192377
71	0xbc7b1f31	-0.015327261
72	0xbdbf67f4	-0.09345999
73	0xbdde4e8b	-0.10854825
74	0xbd0fa44e	-0.035068803
75	0xbd54551a	-0.05183897
76	0xbbc4efab	-0.006010016
77	0xbc58f198	-0.013241194
78	0xbcd1cacd	-0.025609398
79	0xbd1ac0ab	-0.0377814
80	0xbd2e5239	-0.042558882
81	0xbc5af7c9	-0.013364741
82	0xbd542e3d	-0.05180191
83	0xbc595db4	-0.0132669695
84	0x3ca8b2cc	0.02059307
85	0xbbbd1312	-0.0057700956
86	0xbb7fcbab	-0.0039031308
87	0xbcbadc99	-0.022810267
88	0xbc3cd7d4	-0.011526067
89	0xbd26a0c6	-0.04068067
90	0xbd728315	-0.05920704
91	0xbdaf9a37	-0.08574336
92	0x3cf4d716	0.029887717
93	0xbd315a86	-0.04329922
94	0x3d91aef8	0.07113451
95	0xbdad32af	-0.08456933
96	0xbc241ac9	-0.010016152
97	0xbabc5141	-0.0014367477
98	0x3da10c32	0.07863654
99	0xbc7d6bd7	-0.015467606
100	0xbd76b41d	-0.060230363
101	0x3d8e5466	0.069496915
102	0x3d45d5e8	0.0482997
103	0x3d2067a9	0.039161358
104	0xbe068e3b	-0.13140194
105	0x3b550fbe	0.0032510604
106	0xbe03c836	-0.12869343
107	0xbccc8283	-0.024964577
108	0x3bd4e00f	0.0064964364
109	0xbdf29e32	-0.118465796
110	0xbd794812	-0.060859747
111	0xbd8f4887	-0.06996255
112	0xbdc49fdd	-0.09600804
113	0xbd936c65	-0.07198409
114	0xbc960044	-0.018310674
115	0xbcd68719	-0.026187466
116	0xbd6e0869	-0.05811349
117	0xbe3c5410	-0.18391442
118	0xbe19b5db	-0.15010779
119	0xbdca8ed8	-0.098905265
120	0x3c7c2b38	0.0153911635
121	0xbc5150d7	-0.012775621
122	0xbd6d6a7b	-0.057962876
123	0x393c564c	0.00017961225
124	0xbda3ad93	-0.07992091
125	0x3cfe3864	0.031032749
126	0xbc0c897f	-0.0085777035
127	0xbc89200e	-0.016738918
128	0xbd9fa495	-0.077950634
129	0xbd5fd837	-0.054649558
130	0x3b3673f0	0.00278401
131	0xbd7fbda6	-0.062436722
132	0x3d07fae4	0.033198252
133	0xba279b20	-0.000639366
134	0xbd3ba45c	-0.045811042
135	0x3da1b752	0.07896294
136	0xbd0fe0fa	-0.035126664
137	0x3d43e355	0.047824223
138	0xbcbdd9cf	-0.023175148
139	0x3b98efa5	0.0046672397
140	0xbb67f057	-0.0035391056
141	0x3b39c29e	0.002834476
142	0xbc671a87	-0.014105446
143	0x3bbe1b02	0.0058015594
144	0xbd0279a9	-0.031854305
145	0xbe21c89c	-0.15799183
146	0xba514dbc	-0.00079843006
147	0x3c8f3cd7	0.017485065
148	0x3d52f7e5	0.051505942
149	0xbcd562a0	-0.026048005
150	0x3d47158a	0.048604526
151	0xb9a584f2	-0.00031570304
152	0x3d3269fd	0.04355811
153	0x3b09a499	0.002100265
154	0x3c771102	0.015079739
155	0xbc08c746	-0.008348292
156	0xbdf9fb72	-0.122061625
157	0xbc5e0628	-0.013551272
158	0xbaed095e	-0.0018084457
159	0x3d564a6b	0.052317064
160	0x3cae222b	0.021256527
161	0x3d6e49c5	0.05817582
162	0x3d27ace3	0.040936362
163	0xbcc705e6	-0.024294805
164	0xbd18067f	-0.03711557
165	0xbc042a4f	-0.008066728
166	0xbc904565	-0.017611215
167	0x3bbf7035	0.0058422335
168	0xbd8d29f5	-0.06892768
169	0xbd000b75	-0.031260926
170	0xba14fdb0	-0.00056835543
171	0xba9cabb7	-0.001195303
172	0x3ce0cf3e	0.02744257
173	0xbd11fa11	-0.035638873
174	0x3cbafecb	0.022826573
175	0xbc88fceb	-0.016722163
176	0x3d8f9275	0.07010356
177	0x3db1c512	0.08680166
178	0x3d9a8701	0.07545281
179	0x3d9c1a48	0.076222
180	0x3ca435e0	0.02004522
181	0x3dffc0f4	0.12487975
182	0x3dfe5233	0.12418022
183	0x3dc13bb8	0.094352186
184	0x3d9904eb	0.07471641
185	0x3c31ccd0	0.010852054
186	0x3cda7a75	0.02666972
187	0x3da8b240	0.082371235
188	0x3d1fe616	0.039037786
189	0x3b3d62d5	0.002889802
190	0xbcb3ef9c	-0.02196484
191	0x3d3a14c2	0.045429952
192	0x3ba82baa	0.0051321583
193	0x3c089a90	0.008337632
194	0x3c87e289	0.016587513
195	0xbc4f309d	-0.012645868
196	0x3d01b3e0	0.031665683
197	0x3dae14ec	0.08500084
198	0x3d6fc698	0.058539003
199	0x3d30fa04	0.043207183
200	0x3d81d4eb	0.06339439
201	0x3c8856cb	0.016642949
202	0xbcf8ba06	-0.03036214
203	0x3d3ee58c	0.04660563
204	0x3c2896e0	0.010289878
205	0x3c4c9970	0.012487754
206	0xbd619229	-0.05507103
207	0x3c4ebaa0	0.012617737
208	0xbc6120bf	-0.013740717
209	0xbd615a21	-0.055017594
210	0xbcdb9e07	-0.026808752
211	0xbc69404d	-0.014236522
212	0x3d38c95b	0.045113903
213	0x3c506804	0.012720112
214	0x3d760f76	0.06007334
215	0x3aba3328	0.001420592
216	0x3c82ab8d	0.015950942
217	0x3e160fde	0.1465449
218	0x3da6e960	0.081499815
219	0x3e1b4d98	0.15166318
220	0x3da3670c	0.07978639
221	0x3d38dbbd	0.045131434
222	0x3cc6be54	0.024260677
223	0x3d5941be	0.053041212
224	0x3d39ed80	0.045392513
225	0x3d9200bc	0.07129046
226	0x3cb670a0	0.0222705
227	0x3d0df6cf	0.034659203
228	0xbc990145	-0.018677363
229	0xbca329a6	-0.01991732
230	0xbc5365fe	-0.012902735
231	0x3c3849e1	0.011248083
232	0x3cba4716	0.022738975
233	0xbcd6dc30	-0.02622804
234	0x39231238	0.00015551678
235	0x3c443287	0.011974937
236	0x3e09a7c3	0.13442902
237	0xbd557427	-0.052112725
238	0x3d3c1c35	0.045925338
239	0x3d863f1f	0.06555008
240	0xbbb58718	-0.005539786
241	0xbd279ac9	-0.0409191
242	0xb675fce0	-3.6655038e-06
243	0xbd5fcea3	-0.054640424
244	0xbd47ce3f	-0.048780676
245	0x3d419743	0.047263395
246	0xbd91d3da	-0.071204856
247	0xbcb41eb1	-0.021987291
248	0xbc63a911	-0.013895289
249	0x3db342ab	0.0875295
250	0x3c686b25	0.0141857015
251	0xbd4231db	-0.047410827
252	0xbe2df1ff	-0.16986845
253	0xbd949302	-0.07254602
254	0x3d4aee58	0.04954371
255	0x3bd5bc1a	0.0065226676

fc1.bias f4 [128]
0	0xbc831128	-0.015999392
1	0xbcfe91d9	-0.031075405
2	0x3bd067ea	0.006360044
3	0x3c728838	0.014802985
4	0x3d48f13c	0.049058184
5	0x3cdd2e63	0.026999658
6	0xbcd46182	-0.025925402
7	0x3cf36c32	0.029714677
8	0xbd98e99b	-0.07466432
9	0xbd98fdb9	-0.07470269
10	0xbdb6fdf4	-0.089351565
11	0x3b2c260c	0.0026267795
12	0x3c798ab3	0.015230822
13	0xbd88dabb	-0.066823445
14	0x3d03f6f8	0.03221795
15	0x3c1350db	0.008991445
16	0x3bc6d643	0.0060680225
17	0xbcb8004c	-0.022461079
18	0xbc85c216	-0.016327899
19	0xbd5686e5	-0.05237474
20	0xbd9eb901	-0.077501304
21	0xbd5aadb5	-0.053388316
22	0x3b64da82	0.003492028
23	0xbbb0342c	-0.005377313
24	0xbd45f4b3	-0.048329066
25	0x3c929365	0.017892549
26	0x3af33570	0.0018555354
27	0xbc90b428	-0.01766403
28	0xbd49b2c6	-0.049242757
29	0xbb80314c	-0.0039121266
30	0xbbf3eb6b	-0.0074438355
31	0x3b38d54f	0.0028203314
32	0xbd86fcb8	-0.06591171
33	0xbdb30957	-0.08742016
34	0xbaca2f44	-0.0015425463
35	0x3d0c9aa9	0.034327183
36	0xbd6d3dd2	-0.057920285
37	0xbd09db76	-0.03365656
38	0xbdc1a570	-0.09455383
39	0xbb9b4143	-0.0047380044
40	0xbd73c0db	-0.059510093
41	0xbd802acd	-0.062581636
42	0xbd517109	-0.05113319
43	0xbd900e27	-0.07033949
44	0x3c5790f8	0.013157122
45	0x3c055ba2	0.008139523
46	0xbd493a00	-0.04912758
47	0xbc98b443	-0.018640643
48	0xbda9496d	-0.08265958
49	0xbde030be	-0.10946797
50	0x3c0915e2	0.008367034
51	0xbd34b80c	-0.044120833
52	0xbde5fe36	-0.112301275
53	0xbdc4a734	-0.09602204
54	0xbbcd85c5	-0.00627205
55	0xbb278a96	-0.0025564781
56	0xbc848341	-0.016175868
57	0x3a9fcffa	0.0012192719
58	0xbd9594b5	-0.07303754
59	0xbcfd34e3	-0.030909007
60	0xbc808e86	-0.01569296
61	0x3d0f4eb1	0.034987155
62	0xbd245ea4	-0.04012932
63	0x3c1306e4	0.008973811
64	0xbacee5a0	-0.0015784986
65	0xbd9f4a49	-0.07777841
66	0x3c1a41da	0.009415114
67	0xbc8b9b7f	-0.01704192
68	0xbc041e0f	-0.008063807
69	0xbdc4be38	-0.09606594
70	0xbdd809ec	-0.105487674
71	0xbb3cd330	-0.00288124
72	0xbd563fbe	-0.052306883
73	0xbc9567fe	-0.018238064
74	0xbc9363ce	-0.017991927
75	0xbc2ba8af	-0.010477229
76	0x3b530984	0.0032201717
77	0xbca95cfd	-0.020674223
78	0xbcbc61ab	-0.02299579
79	0xbcbec31b	-0.023286393
80	0x3c9082ff	0.017640589
81	0x3c3e143c	0.011601504
82	0xbd2c98d6	-0.042137943
83	0xbbc81e1f	-0.0061071063
84	0xbd0abc13	-0.033870768
85	0xbcad4264	-0.021149822
86	0xbc1953df	-0.009358375
87	0xbc7486a5	-0.01492468
88	0xbcdf36cb	-0.027247807
89	0x3d601ffe	0.05471801
90	0xbc3c4bcc	-0.011492681
91	0x3cca3180	0.024681807
92	0xbd60609a	-0.054779626
93	0xbdaf9280	-0.085728645
94	0xbbed4262	-0.0072405795
95	0x3bad1c2d	0.0052829
96	0xbd65e4c0	-0.056126356
97	0x3d41760e	0.047231726
98	0xbc83de7f	-0.016097305
99	0x3cf5fb4d	0.030027056
100	0xbc73e975	-0.014887203
101	0xbc8114c6	-0.015756976
102	0xbd5f2563	-0.054479014
103	0xbb96b3af	-0.0045990567
104	0x3ca14c2c	0.019689642
105	0x3d1f8f64	0.038955107
106	0xbcabf13a	-0.02098905
107	0x3cdc77de	0.026912626
108	0xbcd75177	-0.026283963
109	0xbb27afda	-0.0025586993
110	0xbc4cfac4	-0.012510959
111	0xbd2ef4f6	-0.04271408
112	0xbcb3e917	-0.021961732
113	0xbd0b0916	-0.033944212
114	0xbd7ead44	-0.062176958
115	0xbb57fcc5	-0.003295706
116	0xbc3324d3	-0.010934073
117	0x3ca3d5da	0.019999433
118	0xbcd37b09	-0.025815504
119	0xbd12fe7f	-0.035887238
120	0x3c29584f	0.010335996
121	0x3c6a2d1b	0.014292981
122	0x3c9b8da1	0.018988432
123	0xbd2d97d5	-0.042381126
124	0xbac00d44	-0.0014652391
125	0xbd35f96c	-0.04442732
126	0xbc81b329	-0.0158325
127	0xbd602f40	-0.05473256

fc2.weight f4 [5, 128]
0	0xbea34330	-0.31887197
1	0xbe2d5253	-0.16925935
2	0x3e56e269	0.20984806
3	0x3df54e5c	0.119778365
4	0xba902aeb	-0.0010999119
5	0x3d13c231	0.036073867
6	0x3cced966	0.025250148
7	0x3de7d49f	0.11319851
8	0xbd4b2712	-0.049597807
9	0xbe3551ff	-0.1770706
10	0x3d81194b	0.063036524
11	0xbe0d2008	-0.1378175
12	0xbe867fab	-0.26269278
13	0xbbc3f65f	-0.0059802975
14	0xbe629530	-0.22127223
15	0x3c918da5	0.017767737
16	0x3e7bfa34	0.24607164
17	0xbe174618	-0.14772832
18	0xbe0d0ccb	-0.13774411
19	0xbe399d78	-0.18126476
20	0xbdbada2f	-0.091236465
21	0xbb3f3673	-0.0029176741
22	0xbddc69dc	-0.107623786
23	0xbe9b3385	-0.30312744
24	0x3ca10457	0.01965539
25	0xbdadd0d4	-0.084870964
26	0xbe97f484	-0.29678738
27	0xbe1e9bb9	-0.15489091
28	0x3e0cee74	0.13762838
29	0xbe5cfaa5	-0.21579988
30	0x3d6d0f9f	0.057876226
31	0xbcd949a2	-0.026524369
32	0xbe864408	-0.2622378
33	0xbe5d1d16	-0.21593127
34	0xbe4d9f07	-0.20080195
35	0xbe093b91	-0.13401629
36	0x3d920407	0.071296744
37	0x3da3f0ee	0.08004938
38	0xbe1cb68b	-0.1530401
39	0xbe6a82bc	-0.22901434
40	0xbe98c66f	-0.29838893
41	0x3d9bb850	0.07603514
42	0x3da1e7a8	0.07905513
43	0x3df3721b	0.11886998
44	0xbd9733c5	-0.07382921
45	0x3dbd6093	0.09246936
46	0xbddbc60b	-0.10731133
47	0xbe351e2f	-0.17687295
48	0xbe0f95f6	-0.1402205
49	0xbe27a1f9	-0.16370381
50	0xbe49f1f4	-0.19721204
51	0xbd75ea88	-0.06003812
52	0xbdd239c6	-0.10264926
53	0x3dceb94b	0.100939356
54	0x3db33acb	0.08751448
55	0xbda87c44	-0.08226827
56	0x3da214c7	0.07914119
57	0xbe62b245	-0.22138317
58	0x3d91d898	0.0712139
59	0xbe35e434	-0.17762834
60	0x3bbce087	0.0057640704
61	0xbea6aa06	-0.32551593
62	0x3ce1dcc8	0.027571097
63	0xbe804913	-0.2505575
64	0xbe2b162a	-0.16707674
65	0x3b908cf6	0.004411335
66	0xbd383ef9	-0.04498193
67	0xbda72620	-0.08161569
68	0x3dc88d83	0.09792616
69	0x3d9de1a7	0.077090554
70	0xbe6407f1	-0.22268654
71	0xbdb9f791	-0.09080423
72	0xbe606c97	-0.21916424
73	0x3e4f3dd7	0.20238434
74	0x3d54eeb6	0.051985465
75	0xbdbe040d	-0.092781164
76	0x3d92157b	0.07133003
77	0xbe4d5cf8	-0.20054996
78	0x3c2564d9	0.010094845
79	0xbe398b58	-0.18119562
80	0x3e354374	0.17701513
81	0xbe936e6e	-0.2879519
82	0x3da48d4c	0.08034763
83	0xbc8b16e9	-0.016978698
84	0x3e837b29	0.256799
85	0x3def55f5	0.11686317
86	0xbe1cb6ed	-0.15304156
87	0xbe871e63	-0.2639037
88	0xbdf827f0	-0.121169925
89	0xbdd9237c	-0.10602471
90	0xbd9582b1	-0.07300318
91	0x3df787de	0.120864615
92	0x3e2599ec	0.16171998
93	0xbde49d41	-0.11162806
94	0xbe6057e9	-0.21908535
95	0xbe0a668f	-0.13515685
96	0xbcd8919b	-0.026436618
97	0x3d472252	0.048616715
98	0x3dcc568f	0.09977447
99	0x3dacc627	0.08436232
100	0x3dec9518	0.11551875
101	0x3e826088	0.25464272
102	0xbdd80fab	-0.105498634
103	0x3e0384ba	0.128436
104	0xbe5201fc	-0.2050857
105	0x3dff3b94	0.124625355
106	0x3d1c3c9c	0.03814374
107	0xbe69ead5	-0.22843488
108	0xbeabdb55	-0.33565775
109	0x3c4e1e1e	0.012580423
110	0xbe712556	-0.23549399
111	0x3df2d135	0.11856309
112	0x3e16e5ea	0.14736143
113	0xbe306781	-0.17226984
114	0x3d79685d	0.060890544
115	0xbb283065	-0.002566361
116	0xbdd5c83f	-0.104385845
117	0xbdb6e579	-0.08930487
118	0x3db45048	0.08804375
119	0x3e038c77	0.12846552
120	0xbe478f41	-0.19488241
121	0x3dce6f52	0.100798264
122	0xbe6f41e0	-0.23364973
123	0x3dcb3546	0.099222705
124	0xbde2708b	-0.11056622
125	0xbd5357aa	-0.051597275
126	0xbd2adb3c	-0.041712984
127	0x3d2b5c5e	0.041836135
128	0x3d9b7cde	0.07592176
129	0xbd85e789	-0.065383025
130	0xbd9bddb1	-0.07610644
131	0x3d34fc33	0.04418583
132	0x3d8b6321	0.06806017
133	0x3d5c278f	0.053748664
134	0x3e4ec833	0.20193557
135	0xbdadd757	-0.084883384
136	0xbe44aeed	-0.19207354
137	0x3da47141	0.08029414
138	0xbd495274	-0.0491509
139	0xbe1dedce	-0.15422747
140	0x3dd9e952	0.106402054
141	0xbe6e7fd5	-0.23290952
142	0xbdce593b	-0.10075613
143	0xbb8ce05f	-0.004299208
144	0x3da08ba9	0.07839138
145	0x3d8ca6d2	0.06867756
146	0xbe0897ee	-0.13339207
147	0xbd111374	-0.035418943
148	0xbe252036	-0.16125569
149	0xbdea90a4	-0.11453369
150	0x3dfa8f3d	0.12234352
151	0x3e02771b	0.12740748
152	0xbe0742cd	-0.13209076
153	0xbe3ad8f1	-0.18246819
154	0x3b5e7f65	0.0033950445
155	0x3e080fab	0.13287227
156	0x3c75999f	0.014990239
157	0x3daa1288	0.08304316
158	0x3e1d31d0	0.15351033
159	0x3e08b8f0	0.13351798
160	0x3dadb60f	0.084819905
161	0x3ca57798	0.020198628
162	0xbd96b519	-0.073587604
163	0x3d3af864	0.04564704
164	0xbdf91db9	-0.12163872
165	0x3e4db75f	0.20089482
166	0xbe0366b6	-0.1283215
167	0xbc8affcc	-0.016967677
168	0x3d9c2bac	0.07625517
169	0x3db00c4f	0.08596098
170	0x3c9bc9ec	0.019017182
171	0xbe471a72	-0.19443682
172	0xbe0b50ac	-0.13604993
173	0x3dd8367f	0.10557269
174	0x3cf17b3b	0.029477706
175	0x3d900e2d	0.07033954
176	0x3bdb88a1	0.006699637
177	0x3d46b00a	0.048507728
178	0x3c04bfc3	0.00810236
179	0x3b20e175	0.0024548445
180	0xbe0cf5d8	-0.13765657
181	0xbe11332e	-0.1417968
182	0x3dc7e104	0.09759715
183	0xbda12d24	-0.07869938
184	0xbdab156d	-0.08353696
185	0x3d349d93	0.044095587
186	0xbd06337a	-0.032763936
187	0x3c336eec	0.010951739
188	0x3e078646	0.13234815
189	0x3d98f470	0.07468498
190	0xbd1861d1	-0.03720266
191	0x3dcb2798	0.09919661
192	0xbe477e5e	-0.19481799
193	0xbca19da0	-0.019728482
194	0x3dd259b5	0.102710165
195	0x3e36ef94	0.1786483
196	0x3e0a5c4b	0.1351177
197	0xbe2ab1a1	-0.16669323
198	0x3d67804d	0.05651884
199	0xbe465470	-0.19368148
200	0xbd8b419c	-0.06799623
201	0xbc7dcfca	-0.015491435
202	0xbe677839	-0.22604455
203	0xbdeab4d7	-0.11460274
204	0x3e5ac251	0.21363188
205	0x3dd08ab6	0.10182707
206	0xbe36a13e	-0.17834947
207	0xbe187f78	-0.14892375
208	0xbd378e7f	-0.04481363
209	0x3cf3760b	0.029719373
210	0xbda8017e	-0.082034096
211	0xbd157779	-0.03649089
212	0x3b95084c	0.004548108
213	0xbdef0539	-0.11670918
214	0x3b9c52c6	0.0047706096
215	0x3df9ecf3	0.122033976
216	0xbd62aa02	-0.055337913
217	0x3d4ce8e8	0.050026804
218	0xbd9a003f	-0.07519578
219	0xbcf4b3e5	-0.029870937
220	0x3e514a72	0.20438555
221	0xbd94e2e2	-0.07269837
222	0x3da8780e	0.082260236
223	0xbc19879d	-0.009370712
224	0x3d1a9ace	0.03774529
225	0x3d8e7cb5	0.0695738
226	0x3e5a6a60	0.21329641
227	0xbe601603	-0.21883397
228	0x3d844779	0.06458945
229	0xbcc039ca	-0.023465056
230	0x3e091a07	0.13388835
231	0xbd3d7cc7	-0.046261575
232	0xbd242df7	-0.040082898
233	0xbe24e94e	-0.16104624
234	0xbe75fa22	-0.240212
235	0xbb527c5a	-0.0032117576
236	0xbd7e2ce2	-0.062054522
237	0xbd2bf60c	-0.041982695
238	0xbdc1fbe0	-0.094718695
239	0x3d203d8c	0.039121196
240	0x3dbadfd3	0.09124722
241	0xbe09cac3	-0.13456254
242	0x3b8d5237	0.0043127793
243	0x3dee14d9	0.1162507
244	0xbbf4f4a4	-0.0074754525
245	0x3e21afb6	0.15789685
246	0xbe484ab8	-0.19559753
247	0x3def801f	0.11694359
248	0xbc89b530	-0.01681003
249	0x3e3be955	0.18350728
250	0x3dae1f7a	0.085020974
251	0xbe64099e	-0.22269294
252	0x3db969ea	0.09053405
253	0x3e426d36	0.18986973
254	0xbd84a04b	-0.06475886
255	0xbddf30fc	-0.10898015

fc2.bias f4 [5]
0	0xbd279d45	-0.04092147
1	0x3bb1c40f	0.0054249833
2	0xbc8e1fb7	-0.017349107
3	0x3c0a831b	0.00845411
4	0xbd017421	-0.03160489
