Trained_Weights/STRIDE 5/v5.1_5th.pth (torch, 671878 bytes, 10 tensors)

conv1.weight f4 [32, 1, 3, 3]
-0.034735136 0.09724467 -0.057853844 0.12157988 0.036534987 0.19870412 0.13046534 0.32649514
-0.021354642 -0.2500964 0.3333398 0.28904507 0.3075441 -0.29569408 0.30259287 -0.2513685
-0.15975907 0.10602254 0.2448203 0.04026294 -0.22568363 0.21343161 0.25022277 0.23604155
0.042657208 -0.029923392 -0.021692937 0.1112902 0.2764078 -0.07889013 -0.22048318 -0.056745563
0.09078693 0.105571285 0.1361036 0.2548794 -0.03229676 0.34840217 0.2963184 0.2532504
0.11277085 0.1480217 -0.015506953 -0.17958815 0.2557397 -0.10417873 0.010578727 -0.09440913
0.053774986 0.18479566 0.20320924 -0.20214245 -0.33169585 -0.2518131 0.1973149 -0.0023584892
-0.3348696 -0.31693846 0.13803387 -0.16973414 0.1050483 -0.21749811 0.12679464 -0.08778825
0.26757666 0.1156229 0.30485877 -0.29271322 0.102559224 -0.075382285 0.11865642 0.0741839
-0.21662936 0.15853703 -0.24698906 0.24879695 0.057372797 -0.071717374 -0.019912995 0.05100492
-0.35078976 0.16974956 -0.100688666 0.04932671 0.06725363 -0.27589196 0.15129189 -0.2182076
0.22228521 -0.08626613 -0.22904095 0.17212303 -0.15329525 0.2115966 0.010606605 -0.054436717
0.0713278 0.11672536 -0.06563888 -0.05391398 0.25784314 0.038085252 0.12053043 0.31303948
-0.019781237 0.1331369 -0.16303447 -0.23928888 -0.22934526 0.25300583 0.25081876 -0.055089712
0.28888777 0.0052500376 0.17100342 -0.15176003 -0.06339529 0.25244164 -0.15896676 0.20943205
-0.034237217 0.034877453 0.24671835 0.062151905 -0.09402682 0.33512834 -0.3461039 0.20048852
-0.23687541 -0.10307016 -0.115030505 -0.24988137 0.08166077 0.26559106 0.15337485 0.23879403
0.04194788 -0.110094145 0.35851964 0.0923243 0.17938226 -0.26400414 -0.1054837 -0.087628365
-0.19992161 0.024732962 0.122911 0.20956871 -0.13719149 0.11244673 0.023116013 0.19280015
0.058169745 0.093105465 -0.21510215 -0.16548748 -0.33318716 0.0055779237 0.31294262 0.062911384
-0.30899498 -0.25598565 0.14930397 0.22109526 0.1702397 -0.07190538 0.11842538 0.03657441
-0.05143591 0.21991444 -0.004335306 0.015038258 -0.17490637 0.3481679 -0.046660174 0.20542364
-0.22209333 -0.21781963 0.23263362 -0.2125005 0.07503368 0.32465017 0.0060682027 0.04564672
-0.110871844 -0.16136728 -0.2615596 -0.008448273 -0.13025402 0.19897857 0.21492201 0.18033683
0.18809168 -0.23066051 0.3374696 -0.16670749 0.22993663 0.29889587 -0.07878764 0.3035681
0.29065508 0.20066313 0.15529855 -0.024900274 0.12655017 0.0131381815 -0.18430188 0.17193216
0.21943897 0.26190063 -0.21792254 -0.2955034 0.03448415 0.3303151 -0.043509573 0.23133591
0.19890927 -0.2676257 -0.34453088 0.021542536 0.16190334 0.08714195 -0.30210835 0.17771836
-0.07581256 -0.21012013 -0.120586164 -0.3027793 -0.12668175 0.15801504 0.021983959 0.26625675
-0.20905736 -0.098096065 0.23560643 -0.045555554 0.31231937 0.19830379 0.21593283 0.09123403
-0.29113346 -0.04243842 -0.22704639 -0.26201403 0.014552948 0.116583794 -0.13789536 0.0034877069
-0.010594935 -0.07229828 0.16233401 -0.20692195 -0.13251494 0.15736201 0.13929132 0.11496147
00000000: 6e46 0ebd 3728 c73d 27f8 6cbd dffe f83d
00000010: b6a5 153d 1879 4b3e b598 053e 5f2a a73e
00000020: eeef aebc a30c 80be 84ab aa3e b7fd 933e
00000030: 6c76 9d3e 3765 97be 74ed 9a3e 5fb3 80be
00000040: e297 23be 5822 d93d 2cb2 7a3e c1ea 243d
00000050: 9c19 67be d18d 5a3e 331d 803e e0b4 713e
00000060: 53b9 2e3d e721 f5bc 63b5 b1bc 1eec e33d
00000070: 5385 8d3e 2691 a1bd 58c6 61be 096e 68bd
00000080: 7fee b93d c235 d83d be5e 0b3e 8d7f 823e
00000090: 9b49 04bd c561 b23e 0cb7 973e 09aa 813e
000000a0: 67f4 e63d 0093 173e e010 7ebc f5e5 37be
000000b0: 50f0 823e a85b d5bd 6652 2d3c 9359 c1bd
000000c0: 2943 5c3d 133b 3d3e 1516 503e 6efe 4ebe
000000d0: 0ad4 a9be a6ed 80be eb0c 4a3e e290 1abb
000000e0: 0774 abbe c245 a2be c058 0d3e c9ce 2dbe
000000f0: 9023 d73d d3b7 5ebe 74d6 013e 53ca b3bd
00000100: cfff 883e b3cb ec3d 7316 9c3e 82de 95be
00000110: 920a d23d 0762 9abd 2302 f33d bbed 973d
00000120: 16d4 5dbe 8857 223e b3ea 7cbe a1c4 7e3e
00000130: bdff 6a3d 8fe0 92bd 9420 a3bc 89ea 503d
00000140: b79a b3be d4d2 2d3e dc35 cebd ce0a 4a3d
00000150: 45bc 893d b641 8dbe 43ec 1a3e d071 5fbe
00000160: bc9e 633e 4cac b0bd b689 6abe 0541 303e
00000170: 6ef9 1cbe c7ac 583e 53c7 2d3c 09f9 5ebd
00000180: 4f14 923d b50d ef3d ad6d 86bd e8d4 5cbd
00000190: 0404 843e 48ff 1b3d a8d8 f63d b646 a03e
000001a0: 430c a2bc 0a55 083e 82f2 26be 2508 75be
000001b0: 7cd9 6abe fb89 813e 516b 803e c0a5 61bd
000001c0: 19e9 933e 8208 ac3b 851b 2f3e fb66 1bbe
000001d0: 64d5 81bd 0840 813e 2fc8 22be 5b75 563e
000001e0: 533c 0cbd a9db 0e3d bca3 7c3e ff92 7e3d
000001f0: 2291 c0bd f195 ab3e 8834 b1be dd4c 4d3e
00000200: 788f 72be 7316 d3bd 1d95 ebbd e7e0 7fbe
00000210: c33d a73d 8dfb 873e 4c0e 1d3e 6c86 743e
00000220: 8ad1 2b3d 0a79 e1bd e38f b73e 8614 bd3d
00000230: fcaf 373e 8d2b 87be d707 d8bd 8076 b3bd
00000240: 40b8 4cbe c89c ca3c c3b8 fb3d 2e99 563e
00000250: ed7b 0cbe 794a e63d cb5d bd3c 676d 453e
00000260: 6643 6e3d 14ae be3d bd43 5cbe 8d75 29be
00000270: 8297 aabe 04c7 b63b 043a a03e afd7 803d
00000280: 9734 9ebe 8d10 83be 24e3 183e cc66 623e
00000290: 5153 2e3e 2143 93bd 0189 f23d 0ccf 153d
000002a0: 76ae 52bd 4031 613e 2f0f 8ebb 0763 763c
000002b0: a81a 33be 1043 b23e bd1e 3fbd 935a 523e
000002c0: 6f6c 63be 1c0c 5fbe 8237 6e3e bb99 59be
000002d0: 42ab 993d 8c38 a63e c6d7 c63b 0ef8 3a3d
000002e0: c710 e3bd 773d 25be 24eb 85be a06a 0abc
000002f0: 4f61 05be 0ac1 4b3e 8414 5c3e 38aa 383e
00000300: 1b9b 403e 4532 6cbe d1c8 ac3e 5eb5 2abe
00000310: 8274 6b3e e108 993e 6a5b a1bd 476d 9b3e
00000320: bed0 943e a37a 4d3e 9506 1f3e a9fb cbbc
00000330: 5e96 013e 8741 573c a2b9 3cbe fc0e 303e
00000340: 9cb4 603e d717 863e 1627 5fbe 394c 97be
00000350: 413f 0d3d 101f a93e 1837 32bd 52e3 6c3e
00000360: dfae 4b3e 3c06 89be 5a66 b0be f979 b03c
00000370: fdc9 253e 7b77 b23d f2ad 9abe cdfb 353e
00000380: 9e43 9bbd bb29 57be e1f5 f6bd e305 9bbe
00000390: dcb8 01be b2ce 213e b417 b43c ce52 883e
000003a0: 2213 56be 97e6 c8bd d042 713e 7698 3abd
000003b0: 53e8 9f3e 2610 4b3e 7f1d 5d3e e8d8 ba3d
000003c0: 720f 95be e9d3 2dbd d97e 68be b426 86be
000003d0: 7d6f 6e3c 7cc3 ee3d 7134 0dbe 0392 643b
000003e0: 6196 2dbc 1f11 94bd e33a 263e 59e3 53be
000003f0: ffb1 07be 8223 213e 62a2 0e3e eb70 eb3d

conv1.bias f4 [32]
-0.15236937 -0.31842235 0.06886121 0.16070402 -0.21255966 0.100397244 0.14986527 -0.26781157
0.13459057 -0.2713331 0.086512566 -0.09886319 -0.0739904 -0.09019519 0.25693786 -0.20996441
-0.28575456 0.14675711 0.053480305 -0.023839328 0.027430251 0.016016794 -0.2786193 -0.10722086
0.099778764 0.18168195 -0.061653987 0.23533784 -0.01658988 -0.0661492 -0.30968168 -0.11924798
00000000: b706 1cbe 4108 a3be 1b07 8d3d 988f 243e
00000010: 3da9 59be 129d cd3d 4876 193e 991e 89be
00000020: 1cd2 093e 2cec 8abe 802d b13d c978 cabd
00000030: 4788 97bd 41b8 b8bd 5c8d 833e e900 57be
00000040: 6c4e 92be 7f47 163e 2a0e 5b3d b24a c3bc
00000050: 68b5 e03c a735 833c 30a7 8ebe 9c96 dbbd
00000060: cf58 cc3d d50a 3a3e e488 7cbd 67fc 703e
00000070: 80e7 87bc 3b79 87bd 998e 9ebe 4938 f4bd

conv2.weight f4 [32, 32, 3, 3]
-0.16884716 -0.21250217 -0.124080665 -0.08633075 -0.16046877 -0.11338896 -0.13708459 -0.18627572
-0.080826156 -0.08170396 -0.077614695 0.01956776 -0.032628547 0.026366476 -0.06502656 -0.050582048
-0.07413871 -0.048384674 -0.028567173 -0.053684928 -0.008085419 -0.002252904 -0.00998477 -0.041214243
-0.018823294 -0.0013535793 0.04794141 -0.043745074 0.0020376935 -0.03766919 -0.0608197 -0.03809386
-0.0018497198 -0.035942644 -0.0019578172 0.014754182 -0.07817041 -0.1883406 -0.09965974 -0.0942438
-0.11186767 -0.12527469 -0.10028487 -0.14661609 -0.060270254 0.06620058 0.11471717 0.05709704
0.046655755 0.13676305 0.106323525 0.1343742 0.15182109 0.12504224 0.083711036 0.060868457
-0.014901877 0.10442671 0.059711143 0.072785035 0.11285742 0.06479033 0.015171017 -0.0477865
-0.09249367 0.008660516 -0.0013200848 0.0019037734 -0.02385167 -0.052714795 -0.03477186 -0.061555512
0.118209004 0.0018774485 0.027565712 0.13349745 0.073581666 -0.047580633 0.021823136 0.058219485
0.070023626 -0.013261635 0.029781083 -0.022725498 -0.03590157 -0.008653972 0.029502695 0.0177643
-0.037242167 -0.019224506 0.0344877 -0.030423636 -0.032854643 0.027639825 0.047339562 -0.05661382
-0.030252818 0.018817862 0.002152754 -0.08879198 -0.055925883 -0.064367376 -0.111854665 -0.09020959
-0.0835973 -0.10292744 -0.16615804 -0.06433059 -0.03632328 -0.059585135 -0.009195249 -0.14228661
-0.046645004 -0.075588465 -0.13686565 -0.044202216 -0.0879321 -0.08907185 -0.04250236 -0.066141
-0.101780035 -0.07131025 -0.049741905 -0.07311996 -0.09847269 -0.038149852 0.0772816 0.052987173
0.044081178 0.020137716 0.018909283 -0.026966246 0.07682839 0.017511675 -0.005749186 -0.06585487
-0.020162825 -0.0792521 -0.011688521 -0.034113545 -0.04350225 -0.046386987 -0.029207781 -0.05980939
-0.04351749 -0.025781697 -0.049376354 -0.058863685 -0.014280675 -0.0116504645 -0.009047993 0.024400048
0.017869418 0.16169377 0.09261615 0.11253747 0.06935483 0.1248906 0.14883451 0.16361341
0.17145133 0.104136206 -0.006422512 -0.0032970053 0.024798388 -0.04740327 -0.052865256 0.008989095
-0.0316095 0.01915748 -0.007941371 -0.050488442 0.04598032 -0.05093589 -0.056554243 0.049650814
-0.004062456 -0.0494932 -0.036359064 -0.0057098195 0.07877564 -0.009100123 0.07619403 0.06327179
0.037092824 0.002740733 -0.0139913885 0.039300174 0.041260794 -0.054732908 -0.07693963 0.052076496
-0.071210906 -0.02514727 -0.05414951 -0.06367445 0.021478986 -0.0036572965 -0.13011365 -0.07192317
-0.09018716 -0.022410182 -0.058530476 -0.11540263 -0.03835588 -0.08397257 -0.011340557 -0.112541586
-0.10836822 0.01175104 -0.03942501 -0.0790053 -0.030091938 -0.032975346 -0.074761935 -0.06048578
0.04819661 -0.025031699 0.009613876 0.09459195 0.023836756 -0.010323629 0.026473505 0.013782592
0.047429726 0.09815003 0.103540964 0.046220034 0.14260332 0.17488992 0.048042692 0.15533614
0.13645215 0.010421858 -0.012863799 -0.0033759526 -0.019493269 -0.06742299 -0.042745583 -0.0030769962
-0.0030108062 -0.062735856 -0.0758487 -0.02441416 0.07170154 -0.013697059 0.0073456294 0.025784444
0.07123484 0.019704767 0.00059128314 0.044200934 -0.035063818 0.008034431 -0.048999898 -0.029786255
00000000: 45e6 2cbe 2b9a 59be 011e febd 2dce b0bd
00000010: ed51 24be 7938 e8bd e75f 0cbe 10bf 3ebe
00000020: 2f88 a5bd 6854 a7bd 74f4 9ebd 914c a03c
00000030: 83a5 05bd 82fe d73c a52c 85bd 1f2f 4fbd
00000040: 09d6 97bd 022f 46bd b405 eabc bae4 5bbd
00000050: b578 04bc 75a5 13bb 2997 23bc 44d0 28bd
00000060: 4f33 9abc 966a b1ba 365e 443d 092e 33bd
00000070: d38a 053b 024b 1abd 141e 79bd 4f08 1cbd
00000080: 4c72 f2ba 9838 13bd b94e 00bb 86bb 713c
00000090: cf17 a0bd 5cdc 40be 681a ccbd e502 c1bd
000000a0: e11a e5bd 0248 00be 2762 cdbd 8722 16be
000000b0: f1dd 76bd 2b94 873d d6f0 ea3d 96de 693d
000000c0: 1b1a 3f3d 9d0b 0c3e 26c0 d93d 6499 093e
000000d0: fd76 1b3e 130b 003e b170 ab3d 3451 793d
000000e0: 0127 74bc acdd d53d ac93 743d 5210 953d
000000f0: cb21 e73d cbb0 843d db8f 783c c7bb 43bd
00000100: 526d bdbd d6e4 0d3c b206 adba 0988 f93a
00000110: 9464 c3bc 78eb 57bd f06c 0ebd a221 7cbd
00000120: 9017 f23d b814 f63a 7dd1 e13c 8eb3 083e
00000130: fcb1 963d e9e3 42bd 6fc6 b23c 8e77 6e3d
00000140: 8c68 8f3d 5447 59bc 75f7 f33c d32a babc
00000150: 860d 13bd 64c9 0dbc a3af f13c 7086 913c
00000160: 3e8b 18bd b67c 9dbc f942 0d3d fd3a f9bc
00000170: 9792 06bd ea6c e23c 21e7 413d e5e3 67bd
00000180: c2d4 f7bc eb27 9a3c 3815 0d3b 92d8 b5bd
00000190: 8a12 65bd 0bd3 83bd 0f14 e5bd cebf b8bd
000001a0: 1035 abbd 9fcb d2bd 5525 2abe c2bf 83bd
000001b0: b8c7 14bd 8b0f 74bd aba7 16bc 95b3 11be
000001c0: d50e 3fbd 20ce 9abd 8226 0cbe 620d 35bd
000001d0: bf15 b4bd 4d6b b6bd f416 2ebd ef74 87bd
000001e0: 0d72 d0bd 1c0b 92bd 2bbe 4bbd ebbf 95bd
000001f0: 0dac c9bd 0543 1cbd d145 9e3d 1409 593d
00000200: 778e 343d daf7 a43c a4e7 9a3c 51e8 dcbc
00000210: 3458 9d3d a574 8f3c ab63 bcbb ebde 86bd
00000220: 822c a5bc ed4e a2bd 3681 3fbc a5ba 0bbd
00000230: 6a2f 32bd 4800 3ebd 2845 efbc b1fa 74bd
00000240: 653f 32bd 2334 d3bc dc3e 4abd 0c1b 71bd
00000250: 7ef9 69bc 97e1 3ebc 093e 14bc 9ce2 c73c
00000260: e362 923c 0d93 253e 89ad bd3d 0c7a e63d
00000270: e809 8e3d a5c6 ff3d 1368 183e 468a 273e
00000280: f090 2f3e 5d45 d53d ef73 d2bb 9212 58bb
00000290: fd25 cb3c ee29 42bd 3d89 58bd ff46 133c
000002a0: f778 01bd 26f0 9c3c 861c 02bc f8cc 4ebd
000002b0: dc55 3c3d 27a2 50bd 6ca5 67bd a75e 4b3d
000002c0: 5a1e 85bb 62b9 4abd 3eed 14bd 7019 bbbb
000002d0: 1f55 a13d af18 15bc 9e0b 9c3d a494 813d
000002e0: a5ee 173d df9d 333b 233c 65bc 38f9 203d
000002f0: 1401 293d 9d2f 60bd 8692 9dbd 2a4e 553d
00000300: 06d7 91bd a601 cebc e0cb 5dbd c067 82bd
00000310: b3f4 af3c 41af 6fbb 833c 05be 744c 93bd
00000320: 0cb4 b8bd 8f95 b7bc a7bd 6fbd 3758 ecbd
00000330: 0e1b 1dbd d0f9 abbd becd 39bc 347c e6bd
00000340: 28f0 ddbd 6f87 403c 1f7c 21bd 88cd a1bd
00000350: 5e83 f6bc 2811 07bd c91c 99bd f0bf 77bd
00000360: cf69 453d 470f cdbc 8583 1d3c 6db9 c13d
00000370: 4d45 c33c 7024 29bc f7de d83c 61d0 613c
00000380: ac45 423d e202 c93d 490d d43d 3851 3d3d
00000390: 9b06 123e 5816 333e 6ac8 443d 7010 1f3e
000003a0: 1dba 0b3e 71c0 2a3c afc2 52bc 163f 5dbb
000003b0: 59b0 9fbc 1115 8abd fe15 2fbd 6ea7 49bb
000003c0: f250 45bb a87b 80bd 9056 9bbd 3400 c8bc
000003d0: 42d8 923d a169 60bc 9bb3 f03b e639 d33c
000003e0: 92e3 913d e46b a13c 5700 1b3a 0a0c 353d
000003f0: 149f 0fbd d9a2 033c 1eb4 48bd 4e02 f4bc

conv2.bias f4 [32]
0.051334634 -0.032301955 -0.011796028 0.024970086 0.030123973 -0.0027400192 0.015400516 -0.06382323
-0.032693084 -0.027117478 0.018341687 0.02492503 -0.018885259 -0.023718003 -0.004685938 0.0047057015
0.030376598 -0.045412082 0.0096341325 -0.04977992 0.009534195 0.012523632 0.018904017 -0.042862058
0.019601567 0.03253447 -0.033417843 -0.07333684 0.014006947 0.032944273 -0.024845555 0.06658234
00000000: 4444 523d 0e4f 04bd 2144 41bc 118e cc3c
00000010: 8dc6 f63c e591 33bb 7252 7c3c c1b5 82bd
00000020: 2fe9 05bd 7925 debc 4e41 963c 942f cc3c
00000030: 42b5 9abc 424c c2bc 7f8c 99bb 4932 9a3b
00000040: 58d8 f83c 0502 3abd 7bd8 1d3c 08e6 4bbd
00000050: 5035 1c3c eb2f 4d3c 99dc 9a3c 2090 2fbd
00000060: 7793 a03c dd42 053d 26e1 08bd a031 96bd
00000070: 657d 653c 93f0 063d e888 cbbc 525c 883d

conv3.weight f4 [32, 32, 3, 3]
-0.012580185 0.065620735 0.09362738 -0.024737943 0.030210586 -0.020588038 0.055138208 -0.103951745
-0.14609683 0.04589307 -0.015070285 -0.10222524 0.011723109 0.09163736 -0.0036975716 -0.06598557
0.1423593 0.09523673 -0.0504462 -0.02513955 -0.044456065 0.04153974 0.07914111 0.032568254
-0.044661257 0.11196869 0.1143535 0.068793364 0.03551347 0.06379105 0.04064793 -0.060601
0.031606533 -0.010140555 -0.05671139 -0.12993649 0.02353384 0.016540747 0.026912708 -0.0014927533
-0.04179621 0.047830727 -0.023514088 -0.12639274 -0.06316995 0.000594459 0.038569763 0.059579086
0.02454104 -0.03523446 -0.07088171 0.093035914 -0.04361709 -0.13689485 0.07605211 0.108123094
0.12363152 -0.016153868 -0.063933395 0.023607608 -0.020021323 -0.055096082 -0.1278447 -0.03855456
0.011571877 -0.08223411 -0.050696954 0.061939772 0.018683564 0.020265173 0.06978822 0.11692501
0.038284358 -0.015746398 -0.13564433 -0.036025763 0.008651912 0.058821037 -0.06864448 0.16559649
0.15153976 0.037985176 -0.07519231 -0.031733226 -0.032118987 0.04677296 -0.022794215 0.02699067
0.047957297 0.17038815 -0.008638105 -0.059225783 -0.08909931 0.032849044 -0.034651127 0.044449292
-0.032486834 0.10074703 0.09629769 0.04193305 -0.016922522 -0.015595764 -0.047009297 -0.027292222
-0.02708782 -0.03900552 0.058884766 -0.000231492 0.08054589 0.1245442 0.15961143 0.06881805
0.0041705403 -0.034502503 0.08491402 -0.17679276 -0.12167937 -0.034151647 0.097851604 0.0775638
0.05487898 -0.10289658 0.018343577 0.01819773 -0.125983 -0.17096919 -0.014468878 -0.07770608
-0.09442955 0.03609948 0.0007020221 -0.051251713 -0.0058688195 0.15480265 0.07602734 0.0014332348
-0.0739407 -0.043316685 -0.023131147 0.048716467 0.010341962 -0.054095075 0.11100437 0.105224356
0.010910259 -0.11389863 -0.09889008 0.023760973 0.06628138 -0.043982975 0.0051555363 0.06164171
0.08503819 -0.020099774 -0.08659545 -0.06945014 0.038401015 0.093847774 0.056833945 -0.0051868614
0.09138573 0.1701614 0.045234777 0.12293773 0.0661668 0.070101514 -0.07472195 -0.039914142
0.06921102 -0.12589099 -0.12503248 -0.017550308 -0.05847083 -0.016306724 -0.07666315 -0.018758766
0.040367573 -0.032362092 0.09809275 0.121518366 0.008417701 0.009836032 0.100541756 -0.024842625
-0.012024254 -0.015345883 0.021829361 -0.10161253 -0.015617798 0.029867819 0.045277696 0.07495839
0.03252041 -0.038146023 -0.04661011 -0.0041865087 -0.15795748 -0.062812254 0.02323358 -0.0062863217
-0.12437139 0.0295809 0.046418533 0.04662602 0.012208929 0.13166694 0.17842866 0.055868603
-0.06558913 -0.05524925 0.008519136 0.020782653 -0.04682785 0.0040649353 0.072095536 0.124736756
0.0077731637 -0.10974625 -0.056980174 -0.026081016 0.087581664 0.039361395 -0.051457215 0.18878439
0.091577604 0.010843646 0.022290368 -0.0534659 0.034141157 0.014861048 0.01091513 0.045392442
0.14024512 0.08712115 -0.026605928 0.09028467 0.05688485 -0.032429993 -0.05901523 -0.016088191
0.025356285 -0.12441249 -0.12331286 0.01865559 -0.026179785 -0.060341828 0.0053187134 -0.020988999
-0.021646656 -0.017522404 0.047605794 0.0678708 -0.058148365 -0.08867304 -0.099034764 -0.06302768
00000000: 1f1d 4ebc 2a64 863d b6bf bf3d 3aa7 cabc
00000010: 317c f73c 3fa8 a8bc 9ad8 613d a7e4 d4bd
00000020: 689a 15be 5ffa 3b3d 5be9 76bc 775b d1bd
00000030: 4812 403c 5eac bb3d f552 72bb 7123 87bd
00000040: a3c6 113e 7a0b c33d ada0 4ebd 75f1 cdbc
00000050: 9017 36bd 9325 2a3d bc14 a23d 4a66 053d
00000060: b9ee 36bd d74f e53d 2b32 ea3d 89e3 8c3d
00000070: 9376 113d e2a4 823d 727e 263d c138 78bd
00000080: da75 013d 9224 26bc 344a 68bd 120e 05be
00000090: 0aca c03c 7680 873c 0a78 dc3c 7da8 c3ba
000000a0: 8132 2bbd 27ea 433d 9ea0 c0bc 196d 01be
000000b0: 3f5f 81bd 78d5 1b3a 54fb 1d3d 3309 743d
000000c0: 4b0a c93c 0252 10bd 6e2a 91bd 9d89 be3d
000000d0: d5a7 32bd 2a2e 0cbe 35c1 9b3d a46f dd3d
000000e0: 8632 fd3d 1e55 84bc 83ef 82bd be64 c13c
000000f0: c203 a4bc 6eac 61bd b9e9 02be 63eb 1dbd
00000100: f897 3d3c 5b6a a8bd 9ca7 4fbd 8fb4 7d3d
00000110: 460e 993c 2603 a63c 20ed 8e3d 6176 ef3d
00000120: 0fd0 1c3d 97fe 80bc 59e6 0abe c08f 13bd
00000130: c0c0 0d3c 54ee 703d 7a95 8cbd 2092 293e
00000140: 3d2d 1b3e 5896 1b3d 6dfe 99bd b3fa 01bd
00000150: 338f 03bd 0195 3f3d efba babc 8a1b dd3c
00000160: df6e 443d 3b7a 2e3e d786 0dbc bc96 72bd
00000170: b379 b6bd b88c 063d 57ee 0dbd 7610 363d
00000180: ea10 05bd 7554 ce3d b937 c53d fdc1 2b3d
00000190: 1aa1 8abc 6085 7fbc d28c 40bd f093 dfbc
000001a0: 47e7 ddbc 41c4 1fbd 2731 713d a9bc 72b9
000001b0: 3ef5 a43d 0811 ff3d 2e71 233e 7af0 8c3d
000001c0: 07a9 883b 7f52 0dbd 67e7 ad3d 2909 35be
000001d0: 0933 f9bd 99e2 0bbd 6c66 c83d c5d9 9e3d
000001e0: c8c8 603d 71bb d2bd 4545 963c 6813 953c
000001f0: b001 01be 8c12 2fbe df0e 6dbc 5e24 9fbd
00000200: 4864 c1bd 0cdd 133d e807 383a 51ed 51bd
00000210: 3a4f c0bb 9684 1e3e 39b4 9b3d 61db bb3a
00000220: 396e 97bd d66c 31bd 887d bdbc eb8a 473d
00000230: 5571 293c cc92 5dbd 4256 e33d de7f d73d
00000240: f1c0 323c af43 e9bd e286 cabd 5fa6 c23c
00000250: 88be 873d 7e27 34bd c6ef a83b 057c 7c3d
00000260: 8128 ae3d 48a8 a4bc f558 b1bd e03b 8ebd
00000270: 624a 1d3d 4333 c03d b6ca 683d 8cf6 a9bb
00000280: 7128 bb3d ca3e 2e3e 1a48 393d c7c6 fb3d
00000290: 7682 873d 6291 8f3d d207 99bd 037d 23bd
000002a0: 82be 8d3d 91e9 00be 8408 00be aac5 8fbc
000002b0: 1c7f 6fbd ae95 85bc 9201 9dbd fcab 99bc
000002c0: 7858 253d 1d8e 04bd dae4 c83d 9fde f83d
000002d0: 66ea 093c 4f27 213c d6e8 cd3d c382 cbbc
000002e0: 6001 45bc 4c6d 7bbc 7dd3 b23c 3b1a d0bd
000002f0: cbe1 7fbc 5bad f43c 1b75 393d c983 993d
00000300: 1f34 053d 013f 1cbd 3eea 3ebd fb2e 89bb
00000310: 9bbf 21be b6a3 80bd 5954 be3c 7dfd cdbb
00000320: 6db6 febd a553 f23c 5c21 3e3d edfa 3e3d
00000330: f607 483c b3d3 063e 01b6 363e 7ad6 643d
00000340: 9853 86bd 0a4d 62bd d993 0b3c 6240 aa3c
00000350: 8fce 3fbd 2633 853b d3a6 933d fc75 ff3d
00000360: 06b6 fe3b a4c2 e0bd 0b64 69bd dba7 d5bc
00000370: 045e b33d 6a39 213d cdc4 52bd b250 413e
00000380: 0a8d bb3d 8ca9 313c 4a9a b63c 0fff 5abd
00000390: 99d7 0b3d c17b 733c 60d5 323c 6ded 393d
000003a0: 6b9c 0f3e 936c b23d adf4 d9bc 2be7 b83d
000003b0: 1700 693d 50d5 04bd f4b9 71bd 62cb 83bc
000003c0: fcb7 cf3c facb febd 748b fcbd 9cd3 983c
000003d0: fd76 d6bc fe28 77bd 9a48 ae3b 1ff1 abbc
000003e0: 5454 b1bc 258b 8fbc 4bfe 423d d9ff 8a3d
000003f0: fb2c 6ebd 369a b5bd bdd2 cabd a814 81bd

conv3.bias f4 [32]
0.07291794 -0.0227532 -0.0100611495 -0.094229475 0.026026687 0.0127733005 0.043329075 -0.09472188
-0.017748555 0.013113235 -0.03772191 0.013517262 0.042125665 -0.046904974 -0.0032781893 0.010846846
-0.01933336 0.026632564 0.03372565 -0.06470493 0.0028100663 0.04526311 -0.057262097 -0.04510317
-0.008367397 0.04533748 0.043511953 -0.020969419 0.021958921 0.05441872 -0.04672307 0.032987274
00000000: 0056 953d eb64 babc 85d7 24bc 62fb c0bd
00000010: eb35 d53c 1b47 513c d479 313d 8cfd c1bd
00000020: 6b65 91bc e5d8 563c 4a82 1abd 8277 5d3c
00000030: f68b 2c3d 6e1f 40bd e4d6 56bb f8b6 313c
00000040: ff60 9ebc 892c da3c e823 0a3d 0584 84bd
00000050: 1729 383b d065 393d a98b 6abd 1abe 38bd
00000060: 6817 09bc cbb3 393d 9739 323d 0fc8 abbc
00000070: 32e3 b33c 2ae6 5e3d b160 3fbd aa1d 073d

fc1.weight f4 [128, 1152]
0.038285647 -0.054820865 -0.04078794 -0.036423456 -0.034639396 0.016757017 -0.03438501 -0.02685543
0.011990007 -0.028250014 -0.0037944731 -0.009484144 0.024289086 0.021251637 -0.011597567 -0.032084998
-0.010744439 -0.016906213 -0.012305745 -0.019814603 0.0015892661 -0.025817119 -0.00088479806 -0.0008512978
-0.0053376122 -0.017446458 -0.0014030709 -0.04155449 -0.035218216 0.0108898925 0.022416603 0.03235514
-0.05908074 -0.098156944 -0.036425237 -0.010371144 0.01401606 -0.06790941 -0.016317783 -0.031828407
-0.022626856 -0.005488022 -0.019833976 -0.028395772 -0.042468224 -0.02452387 -0.0010003647 0.026469404
0.015379085 0.02336684 0.0007431003 0.04938515 0.0020421231 -0.022988489 -0.022147628 -0.015680065
0.0067286 0.0065451493 -0.018583437 -0.053524878 0.024011454 0.005803854 0.030818552 0.008091508
-0.02671233 0.014981243 -0.0018869893 0.013526875 0.044701226 -0.06443479 -0.025959391 -0.035587527
-0.05972216 -0.09930148 0.0196903 -0.027878687 0.010119045 -0.010065791 -0.02096692 -0.035003465
-0.0035551235 -0.020690022 0.020431748 0.016280986 0.008543172 -0.024677448 0.012801363 -0.024692055
0.011956897 -0.014947349 -0.051056307 -0.042503584 -0.01593237 -0.008352618 0.028090542 -0.056147903
0.000556755 -0.014824004 0.055611093 -0.027783994 -0.02474382 0.030839141 0.031859092 -0.0028738712
-0.09546544 -0.07340946 -0.07751245 -0.031663064 -0.004109258 -0.07319945 -0.026059143 -0.0263589
-0.014261203 -0.014504653 -0.01899053 -0.015333305 -0.03741458 -0.09628042 -0.07279476 -0.012686171
0.012322514 -0.031402506 -0.03887749 0.0182782 -0.052293893 0.034682818 -0.0046460023 -0.03367288
-0.043431137 -0.027292954 0.013794546 -0.029497819 0.025433803 -0.013459167 -0.020919945 0.06164099
-0.025641302 0.0137199145 -0.019661272 -0.008794147 0.0003162042 -0.012734793 -0.03427176 -0.008768298
-0.069822215 -0.12814413 -0.00078971323 -0.0077486415 0.059725042 -0.021945572 0.0138593735 -0.0694714
0.04467269 -0.02284528 -0.0011660666 0.00882153 -0.016660739 -0.010246004 -0.007202684 -0.0032984782
0.019218946 0.026155109 0.02101073 -0.025032576 -0.041417316 -0.040030472 -0.017978616 -0.018111212
-0.015907366 -0.0037969449 0.0035801872 -0.035220318 0.031750347 0.018742468 0.010791706 -0.026716445
0.03176609 -0.027749835 0.0025921606 0.017539227 0.032650888 0.107198276 0.060874857 0.06682923
0.034776777 -0.01275969 -0.01025629 0.060078274 0.0075875535 -0.0010279568 -0.0137335025 -0.008499576
0.012635457 0.0073515233 0.015965747 -0.014871211 -0.010951661 0.033546407 0.05894871 0.023178685
0.034193825 0.014523095 0.011249717 0.060824774 -0.0057828045 0.013066029 -0.030735524 0.015484688
0.0043304185 -0.0037737277 0.0041130623 -0.011318924 0.036046717 0.055716883 0.017839413 0.028369304
0.014509391 0.10665842 0.045470223 0.07179264 0.03186505 -0.015109014 0.022350116 0.036520388
0.010572956 0.04047029 -0.016650634 -0.01885324 -0.033683542 -0.0072628306 -0.019812992 -0.00010217326
0.011309863 -0.047515556 -0.0113876145 0.013609468 0.027990088 -0.044805054 0.009986495 0.014868941
0.004284302 -0.020896656 -0.02926354 -0.026263025 -0.0091968905 -0.0001225703 -0.05003363 -0.0022144967
-0.01158151 0.033969536 0.010473267 -0.023408843 -0.113993086 -0.04957629 0.036606763 0.00258081
00000000: 69d1 1c3d d88b 60bd 4111 27bd c330 15bd
00000010: 0ae2 0dbd 0346 893c 4cd7 0cbd ebff dbbc
00000020: bc71 443c 936c e7bc b2ac 78bb 6263 1bbc
00000030: e8f9 c63c ea17 ae3c b903 3ebc 8f6b 03bd
00000040: 7209 30bc e67e 8abc 099e 49bc 3c52 a2bc
00000050: ec4e d03a 6c7e d3bc cbf1 67ba a129 5fba
00000060: 23e7 aebb e0eb 8ebc 3fe7 b7ba 0a35 2abd
00000070: fa40 10bd 856b 323c 06a3 b73c d386 043d
00000080: a5fe 71bd 8206 c9bd a132 15bd bbeb 29bc
00000090: 9ea3 653c 1714 8bbd dfac 85bc 815e 02bd
000000a0: f55b b9bc ded4 b3bb dd7a a2bc 409e e8bc
000000b0: 29f3 2dbd 48e6 c8bc ab1e 83ba 5dd6 d83c
000000c0: 8ff8 7b3c d16b bf3c 9ecc 423a 1548 4a3d
000000d0: 24d5 053b 5b52 bcbc f16e b5bc 7b73 80bc
000000e0: 967b dc3b b178 d63b 4b3c 98bc e73c 5bbd
000000f0: abb3 c43c 422e be3b 3077 fc3c 3f92 043c
00000100: d1d3 dabc e373 753c db54 f7ba d39f 5d3c
00000110: a218 373d 63f6 83bd caa8 d4bc 3ac4 11bd
00000120: 399f 74bd 935e cbbd 8d4d a13c d861 e4bc
00000130: 5aca 253c fdea 24bc d1c2 abbc cb5f 0fbd
00000140: 13fd 68bb 1f7e a9bc 7b60 a73c b45f 853c
00000150: a9f8 0b3c 5c28 cabc cfbc 513c fe46 cabc
00000160: dce6 433c bae5 74bc 6b20 51bd 3d18 2ebd
00000170: 9a84 82bc 6bd9 08bc 231e e63c 58fb 65bd
00000180: 32f3 113a 61e0 72bc 75c8 633d 429b e3bc
00000190: 8db3 cabc 5ea2 fc3c ae7e 023d 8f57 3cbb
000001a0: 6283 c3bd b357 96bd d9be 9ebd 21b1 01bd
000001b0: f4a6 86bb 98e9 95bd fc79 d5bc 9fee d7bc
000001c0: d2a7 69bc eda4 6dbc 0792 9bbc 8b38 7bbc
000001d0: 0840 19bd ab2e c5bd 6b15 95bd a8d9 4fbc
000001e0: 5fe4 493c ea9f 00bd 013e 1fbd 2abc 953c
000001f0: 1f32 56bd 920f 0e3d 7e3d 98bb 93ec 09bd
00000200: d9e4 31bd 7995 dfbc 8502 623c 69a5 f1bc
00000210: 8d5a d03c d783 5cbc 4e60 abbc 437b 7c3d
00000220: b50d d2bc 7ec9 603c ad10 a1bc 5315 10bc
00000230: 36c8 a539 98a5 50bc 8c60 0cbd e8a8 0fbc
00000240: f3fe 8ebd 3738 03be c204 4fba 51e8 fdbb
00000250: 3fa2 743d 33c7 b3bc 6d12 633c 0547 8ebd
00000260: b6fa 363d 0626 bbbc b4d6 98ba 2e88 103c
00000270: 1a7c 88bc dbde 27bc 7e04 ecbb 482b 58bb
00000280: 0d71 9d3c 3d43 d63c b21e ac3c 1e11 cdbc
00000290: 34a5 29bd fef6 23bd e447 93bc f75d 94bc
000002a0: 2a50 82bc 2ad6 78bb 93a1 6a3b 2e43 10bd
000002b0: a70c 023d ce89 993c b2cf 303c 72dc dabc
000002c0: 291d 023d 9f53 e3bc 3de1 293b 6dae 8f3c
000002d0: f0bc 053d c58a db3d ea57 793d c3dd 883d
000002e0: 1872 0e3d 050e 51bc 000a 28bc a314 763d
000002f0: 03a1 f83b 82bc 86ba 7c02 61bc ce41 0bbc
00000300: f304 4f3c 0ce5 f03b 99ca 823c 61a6 73bc
00000310: 986e 33bc f567 093d 3474 713d 3ae1 bd3c
00000320: d30e 0c3d 47f2 6d3c bc50 383c 6623 793d
00000330: ae7d bdbb e612 563c 11c9 fbbc 7db3 7d3c
00000340: 2fe6 8d3b a550 77bb dec6 863b 0273 39bc
00000350: b9a5 133d 6337 643d f623 923c be66 e83c
00000360: ccb8 6d3c bb6f da3d fc3e 3a3d 0508 933d
00000370: ed84 023d cc8b 77bc 9717 b73c 6796 153d
00000380: 313a 2d3c 2dc4 253d e966 88bc 1c72 9abc
00000390: c1f7 09bd 0afd edbb db4e a2bc da45 d6b8
000003a0: 014d 393c ac9f 42bd 1e93 3abc 3ffa 5e3c
000003b0: 784b e53c 8185 37bd 659e 233c dc9c 733c
000003c0: 5463 8c3b 772f abbc 17ba efbc 8e25 d7bc
000003d0: 8eae 16bc 3786 00b9 10f0 4cbd 1721 11bb
000003e0: 60c0 3dbc a423 0b3d 1198 2b3c e7c3 bfbc
000003f0: 3575 e9bd 8210 4bbd f9f0 153d cf22 293b

fc1.bias f4 [128]
-0.009886869 0.0043429863 0.011482953 0.027402787 0.034975547 0.00022725674 -0.0007641992 0.020270629
-0.05607155 -0.05155847 -0.052657913 -0.0069580902 0.009830125 -0.026089182 0.017310627 0.014946026
0.022957712 -0.011494465 -0.0146266185 -0.016169986 -0.045792516 -0.033870768 9.36274e-05 0.00019902951
-0.03236149 0.02885403 0.008957425 -0.016280118 -0.029304879 -0.0008678469 -0.015657436 0.01904361
-0.045156173 -0.0782704 0.021016166 0.028936984 -0.028706184 -0.024054814 -0.07625602 -0.0012628287
-0.06139895 -0.03853907 -0.026727403 -0.022933671 0.026797475 0.023509515 -0.04208018 -0.021899918
-0.05691174 -0.073119394 0.014189944 -0.013342154 -0.0656675 -0.05215187 -0.003337923 -0.0018182634
0.0076940837 0.006025954 -0.06303747 -0.025820289 -0.0037502323 0.018838447 -0.02820921 0.0017986496
-0.004354199 -0.033031475 0.035927083 -0.030122146 0.018527735 -0.06441271 -0.06980458 0.022920795
-0.033438627 -0.016290292 -0.0066601606 0.01668953 0.0047380985 -0.00022078566 -0.005887594 -0.0098902555
0.014333259 0.014971398 -0.03694129 0.0029826085 -0.016824806 -0.009819872 0.013981576 -0.008664613
-0.01371371 0.04084446 -0.0029778178 0.027170677 -0.037334528 -0.058587357 -0.0011283114 0.009599186
-0.036737435 0.024713729 0.014833769 0.036976304 -0.0062703155 -0.003861062 -0.025376007 0.012762875
0.01935733 0.04380536 0.005020449 0.014728773 -0.029404629 0.0018510222 -0.0013841861 -0.033775147
-0.004940922 -0.009812967 -0.040293213 0.01489493 -0.0026059141 0.030983264 -0.024733355 -0.022581749
0.013335518 -0.0019584093 -0.0013158448 -0.029010223 0.0051386342 -0.009626519 -0.00017128904 -0.029428795
00000000: 89fc 21bc 9c4f 8e3b ff22 3c3c cf7b e03c
00000010: 8542 0f3d c44b 6e39 8a54 48ba 970e a63c
00000020: 48ab 65bd f92e 53bd d3af 57bd b100 e4bb
00000030: 880e 213c fbb8 d5bc 04cf 8d3c 2de0 743c
00000040: d011 bc3c 4853 3cbc 7ca4 6fbc eb76 84bc
00000050: ef90 3bbd 13bc 0abd d459 c438 94b2 5039
00000060: 7b8d 04bd 495f ec3c 2ac2 123c e25d 85bc
00000070: c910 f0bc 3880 63ba 0644 80bc 5801 9c3c
00000080: aef5 38bd 3b4c a0bd 182a ac3c 410d ed3c
00000090: 3b29 ebbc 9a0e c5bc 1e2c 9cbd 8085 a5ba
000000a0: 777d 7bbd 25db 1dbd 6df3 dabc 65df bbbc
000000b0: 6186 db3c 0797 c03c 445c 2cbd 7567 b3bc
000000c0: 491c 69bd 9fbf 95bd f07c 683c 0d99 5abc
000000d0: af7c 86bd 339d 55bd 0ec1 5abb cc52 eeba
000000e0: a71e fc3b 5e75 c53b ca19 81bd 1285 d3bc
000000f0: 75c6 75bb 1653 9a3c 0017 e7bc aac0 eb3a
00000100: abad 8ebb 034c 07bd 4728 133d b8c2 f6bc
00000110: 7ac7 973c d0ea 83bd b4f5 8ebd 64c4 bb3c
00000120: f1f6 08bd 3873 85bc 7a3d dabb 7bb8 883c
00000130: 0d42 9b3b b382 67b9 b8ec c0bb bd0a 22bc
00000140: 0cd6 6a3c 984a 753c c04f 17bd de77 433b
00000150: 2dd4 89bc 87e3 20bc fb12 653c 05f6 0dbc
00000160: 78af 60bc 854c 273d 7e27 43bb 0a95 de3c
00000170: 17ec 18bd 4cf9 6fbd d9e3 93ba e745 1d3c
00000180: fe79 16bd 7274 ca3c 5609 733c 7774 173d
00000190: 3877 cdbb df09 7dbb 58e1 cfbc 611b 513c
000001a0: 4393 9e3c 406d 333d 9482 a43b f450 713c
000001b0: fae1 f0bc 009e f23a 946d b5ba cf57 0abd
000001c0: 75e7 a1bb 91c6 20bc 7f0a 25bd dd09 743c
000001d0: fcc7 2abb 9dd0 fd3c 9b9d cabc 5cfd b8bc
000001e0: 377d 5a3c a858 00bb 6d78 acba d9a6 edbc
000001f0: fd61 a83b 8cb8 1dbc 0d9c 33b9 a814 f1bc

fc2.weight f4 [5, 128]
-0.19531535 -0.11448059 0.14030674 0.09137111 -0.0028822876 0.0036538006 0.0038344276 0.059998244
-0.10674822 -0.16998725 0.039691165 -0.07654519 -0.16287833 -0.0035616497 -0.1285323 -0.016927147
0.13793343 -0.1006841 -0.08084728 -0.11313828 -0.07139202 -0.01432551 -0.057346646 -0.21964824
0.013110493 -0.0603147 -0.21295191 -0.12297727 0.120471455 -0.16480875 0.034331527 -0.0895485
-0.17917085 -0.15531774 -0.07820191 -0.11759347 0.05556573 0.01998908 -0.095542245 -0.149738
-0.19779322 0.051842947 0.07376591 0.099919654 -0.060356144 0.08417264 -0.08207217 -0.1588942
-0.1323968 -0.1253138 -0.15004642 -0.024238754 -0.0463416 0.08862734 0.08055575 -0.0643984
0.06384783 -0.15844001 0.051161066 -0.1408921 -0.0017209116 -0.2530448 0.02378837 -0.14236555
-0.13276006 0.0054451907 -0.03600818 -0.04222623 0.06901895 0.07190667 -0.1456304 -0.07411937
-0.16736586 0.1413766 0.06001553 -0.06778252 0.055482958 -0.11449355 -0.029561654 -0.13259922
0.16047406 -0.19733123 0.05961051 -0.028088914 0.21254796 0.08960594 -0.12143289 -0.15597191
-0.08917589 -0.09940645 -0.06373377 0.08741258 0.1017478 -0.07413542 -0.13113011 -0.11912162
-0.02390968 0.03261594 0.05638107 0.04298332 0.08987055 0.1980073 -0.048134904 0.0978855
-0.16745627 0.11312487 0.02011271 -0.18371892 -0.2334194 0.016338157 -0.17116146 0.11437924
0.1097207 -0.11388038 0.035525627 -0.001439758 -0.08662933 -0.08093351 0.06632456 0.12032258
-0.13404705 0.048640948 -0.17794664 0.07885392 -0.051000066 -0.029341687 -0.086593084 0.03269651
0.05825867 -0.017922023 -0.029822515 0.030712353 0.060635462 0.040401716 0.12710522 -0.072214715
-0.080391064 0.051681478 -0.064297125 -0.079627626 0.08878045 -0.16284826 -0.029144712 -0.02091432
0.078135125 0.056439728 -0.058315802 -0.02337777 -0.106488355 -0.102517046 0.061143737 0.098738104
-0.0989478 -0.13354652 -0.0127665205 0.1094286 0.024702653 0.06971105 0.09719411 0.10904138
0.07010826 0.013972118 -0.018495053 0.05661846 -0.09597717 0.12285733 -0.051384654 0.01744615
0.027221363 0.08235265 0.03786716 -0.13353488 -0.14889784 0.011010287 0.03629712 0.06018553
0.027059674 -9.36506e-05 -0.0006066923 -0.011943575 -0.07505452 -0.1262383 0.09941446 -0.059115272
-0.033719335 0.036598153 -0.043978665 -0.019372057 0.08768111 0.0795636 -0.036530733 0.006325098
-0.124169126 -0.0144270845 0.08464007 0.12392958 0.08638771 -0.11874979 0.059220456 -0.12964013
-0.027129725 0.005572003 -0.12552822 -0.043031633 0.12611388 0.09363382 -0.085821144 -0.10958058
-0.04478158 0.041589927 -0.026375085 -0.07360825 0.009996682 -0.08226233 0.0477499 0.09723882
-0.040696874 0.039165124 -0.08870234 -0.04941262 0.12827875 -0.0016199071 0.08904637 -0.012138964
0.039682996 0.060977567 0.15110675 -0.12923825 0.045935072 0.03234273 0.06162709 -0.054610357
-0.035918444 -0.14174029 -0.17023785 0.0099579645 -0.042782985 -0.032643463 -0.042740047 -0.020427546
0.07665945 -0.10077477 0.0056950157 0.060143508 -0.008921358 0.11868158 -0.12970348 0.07720622
-0.009070685 0.12893735 0.09201539 -0.1713662 0.0048493505 0.11701438 -0.035288624 -0.08874896
00000000: bf00 48be cd74 eabd 92ac 0f3e c720 bb3d
00000010: c3e4 3cbb 9a74 6f3b 054b 7b3b b8c0 753d
00000020: d09e dabd 2311 2ebe 3493 223d b9c3 9cbd
00000030: 94c9 26be 916a 69bb f99d 03be cdaa 8abc
00000040: 6c3e 0d3e 7733 cebd 4293 a5bd 0bb5 e7bd
00000050: fb35 92bd 8bb5 6abc 51e4 6abd 78eb 60be
00000060: 65cd 563c 8c0c 77bd 1110 5abe 82db fbbd
00000070: bdb9 f63d a0c3 28be 379f 0c3d 3465 b7bd
00000080: 9078 37be 9d0b 1fbe 5328 a0bd d8d4 f0bd
00000090: e498 633d 24c0 a33c a7ab c3bd eb54 19be
000000a0: 4e8a 4abe 4559 543d 9512 973d ada2 cc3d
000000b0: 0138 77bd b562 ac3d 7415 a8bd 29b5 22be
000000c0: 0793 07be 4352 00be c5a5 19be 5a90 c6bc
000000d0: b1d0 3dbd 4082 b53d 6afa a43d 4fe3 83bd
000000e0: a7c2 823d 193e 22be 448e 513d 0546 10be
000000f0: 3690 e1ba 178f 81be d4df c23c 46c8 11be
00000100: 41f2 07be 926d b23b 507d 13bd 69f5 2cbd
00000110: cf59 8d3d ce43 933d 2320 15be e5cb 97bd
00000120: f561 2bbe 07c5 103e d8d2 753d 90d1 8abd
00000130: 1942 633d 987b eabd 482b f2bc 17c8 07be
00000140: 5053 243e 3311 4abe 262a 743d b91a e6bc
00000150: 2ca6 593e 5283 b73d cfb1 f8bd 1ab7 1fbe
00000160: d9a1 b6bd 9c95 cbbd da86 82bd 5e05 b33d
00000170: 2761 d03d 50d4 97bd f946 06be 09f6 f3bd
00000180: 3cde c3bc 4b98 053d d6ef 663d 470f 303d
00000190: 0d0e b83d 6dc2 4a3e 1b29 45bd 3178 c83d
000001a0: a879 2bbe 03ae e73d 69c3 a43c d020 3cbe
000001b0: 7f05 6fbe 99d7 853c f344 2fbe aa3f ea3d
000001c0: 3fb5 e03d 1e3a e9bd 5283 113d 43b6 bcba
000001d0: b86a b1bd 78c0 a5bd 2cd5 873d af6b f63d
000001e0: a143 09be bb3b 473d a537 36be 2a7e a13d
000001f0: 72e5 50bd fa5d f0bc b757 b1bd c7ec 053d
00000200: a5a0 6e3d 35d1 92bc 594e f4bc 7998 fb3c
00000210: e45c 783d 457c 253d df27 023e 4fe5 93bd
00000220: 12a4 a4bd f5af 533d 36ae 83bd cf13 a3bd
00000230: 86d2 b53d b2c1 26be e4c0 eebc 8254 abbc
00000240: 4f05 a03d 582d 673d 8ddc 6ebd bd82 bfbc
00000250: 9116 dabd 75f4 d1bd db71 7a3d 3437 ca3d
00000260: 25a5 cabd 6bc0 08be ab2a 51bc 1a1c e03d
00000270: 385d ca3c abc4 8e3d b50d c73d 1651 df3d
00000280: eb94 8f3d 4feb 643c f082 97bc c2e8 673d
00000290: ae8f c4bd a09c fb3d b778 52bd 3aeb 8e3c
000002a0: 56ff de3c 82a8 a83d 981a 1b3d 5ebd 08be
000002b0: ad78 18be 7e64 343c 4aac 143d 1a85 763d
000002c0: 40ac dd3c 4866 c4b8 6e0a 1fba fcae 43bc
000002d0: 2fb6 99bd 9d44 01be cf99 cb3d db22 72bd
000002e0: 491d 0abd f2e7 153d f922 34bd 26b2 9ebc
000002f0: 2792 b33d 3ef2 a23d 40a1 15bd c542 cf3b
00000300: 624c febd 945f 6cbc c657 ad3d cbce fd3d
00000310: 0aec b03d 1733 f3bd 2691 723d 62c0 04be
00000320: 283f debc 5995 b63b 788a 00be f041 30bd
00000330: ff23 013e 17c3 bf3d ffc2 afbd c86b e0bd
00000340: e46c 37bd 335a 2a3d 9010 d8bc ecbf 96bd
00000350: 20c9 233c 2779 a8bd 6695 433d 2525 c73d
00000360: c4b1 26bd 9c6b 203d 93a9 b5bd e364 4abd
00000370: 815b 033e 1053 d4ba f15d b63d 81e2 46bc
00000380: a38a 223d 9dc3 793d babb 1a3e 0857 04be
00000390: 6a26 3c3d cf79 043d b06c 7c3d 1caf 5fbd
000003a0: 381f 13bd 5e24 11be d552 2ebe bb26 233c
000003b0: 363d 2fbd 27b5 05bd 3010 2fbd ab57 a7bc
000003c0: a1ff 9c3d 0163 cebd 419d ba3b 0a59 763d
000003d0: e32a 12bc 540f f33d fdd0 04be 4b1e 9e3d
000003e0: 369d 14bc 2708 043e 9172 bc3d 9f7a 2fbe
000003f0: 4de7 9e3b 3ca5 ef3d ce8a 10bd 04c2 b5bd

fc2.bias f4 [5]
-0.059721656 -0.0014670453 -0.016195383 0.005652701 -0.010998632
00000000: b29e 74bd df49 c0ba 2eac 84bc 4b3a b93b
00000010: 9b33 34bc
