Trained_Weights/STRIDE 5/v5.1_20th.pth (torch, 671892 bytes, 10 tensors)

conv1.weight f4 [32, 1, 3, 3]
00000000: 5690 02bd 7347 d13d ed55 6fbd b485 093e
00000010: d401 553d 3bcf 553e 6345 123e 38f8 ae3e
00000020: 2926 2bbc ec88 76be 95cb b23e d33e 9e3e
00000030: 1c75 a53e af9d 8bbe 8295 a83e 48b6 72be
00000040: b3f5 0dbe dd37 073e aa59 623e 36f5 403c
00000050: 9475 8fbe c88c 503e 3bfd 743e ede7 493e
00000060: 0bfa ff3c c4b7 29bd 7fa0 6cbd 47c1 753d
00000070: fcc0 6b3e 44f7 12be d4e2 81be 8a18 b7bd
00000080: bf99 153d 03cf aa3d ce38 dc3d eb60 513e
00000090: f230 04bd a62b b43e 584b 983e e3ce 853e
000000a0: 922f 003e d59c 223e 6966 0ebc 73be 2cbe
000000b0: 70fd 873e aa10 dcbd 1b90 b73b cd54 bfbd
000000c0: f8fd 253d 6abf 2c3e c6c0 453e fe1d 5dbe
000000d0: c256 b2be fbed 86be 4f62 453e d767 64bc
000000e0: 831d b2be 8222 a9be 9133 f03d 5c92 44be
000000f0: ff01 bc3d ebaf 72be 4eba d73d b906 96bd
00000100: 3f2e 923e 1d3c 063e 07d0 a73e e728 88be
00000110: 46d2 013e b4ba 5bbd ce1a 133e 6342 c83d
00000120: 5140 5bbe 6be2 183e fc89 87be 96cd 793e
00000130: 58a4 203d fc0c ccbd 0ff0 d0bc fb35 073d
00000140: d3f7 c1be e401 473e e1c4 8dbd dd4c b53d
00000150: 5d2a c03d 83dc 76be 1237 483e 639b 48be
00000160: ea2c 813e 95da 3bbd 37ba 61be c13a 0b3e
00000170: 2e79 81be 9291 723e 85ef fabb 034b 14be
00000180: b01d d73d 1f65 e03d ea2c 13be 584c 10bd
00000190: b230 8b3e b558 133d 303b 163e 3b6b ab3e
000001a0: 23c5 65bc bb3f 1e3e df1b 15be 52f3 71be
000001b0: e0c0 6dbe 233e 833e 4bb0 813e 0b74 4fbd
000001c0: 3d7c 993e c77e 863c 8cc9 323e 55a9 11be
000001d0: 5edc 59bd f7c8 793e 1f7a 25be 5031 533e
000001e0: 0dac 09bd 400a 2c3d b4e7 813e c0be 803d
000001f0: e3fb b2bd 7b6b af3e 3f14 bbbe 54bb 363e
00000200: 74d5 83be 1778 02be 601c 12be 1b8e 8dbe
00000210: f4b6 763d 21c2 763e cc92 033e 4daa 873e
00000220: 51f2 883d 7cd7 c0bd ecac c73e d18c fb3d
00000230: 2139 4e3e 1d46 72be 54c4 a0bd b01a 89bd
00000240: 6325 3fbe 0f59 303d 35aa 103e d243 6c3e
00000250: c6cf e1bd 3556 0e3e 0548 323d 67ed 5f3e
00000260: b5fa ac3d 5566 bb3d fc48 60be daa2 28be
00000270: 61ee afbe 412c 0abc f14f 9b3e 36af 583d
00000280: 672f a5be 7332 88be aff1 ee3d 7317 483e
00000290: 2061 0a3e 9aa2 c4bd ba54 d13d d8d1 253c
000002a0: db5c a0bd 70ff 4b3e f469 07bd 4e6c 3bba
000002b0: f47d 33be 698b c53e b5c9 92bd 9492 443e
000002c0: 762e 49be 8118 80be 5121 573e 918f 4abe
000002d0: 482e b63d c106 a93e ca2a 683c f20c 1d3d
000002e0: 5088 02be 3036 32be 391b 91be ef12 15bd
000002f0: 7740 1dbe b9a8 383e b2e9 523e ea43 2e3e
00000300: 51d2 373e 11e9 6abe ab58 ad3e fc37 33be
00000310: 46df 6a3e a3aa 993e 13c9 93bd 067c a03e
00000320: 4973 983e c970 5c3e 4d75 313e 3597 20bc
00000330: 675c 0f3e af5d f33c 6229 2ebe 5bbb 2d3e
00000340: 350f 643e 5ff1 863e 2648 59be 5049 91be
00000350: dd62 383d b0b7 ab3e 58f9 09bd d0e1 763e
00000360: 35c0 493e e9a2 90be 662c bcbe 4aa4 613c
00000370: 80cf 113e 3039 713d 3e65 9dbe 34ae 273e
00000380: 7a63 c8bd b3ba 5abe ada6 04be 8016 a0be
00000390: 4fca 0bbe dc3f 113e f406 903b 7979 843e
000003a0: 0bf4 63be 947a e9bd 0dd0 733e 5f31 1dbd
000003b0: bc91 a13e e8a0 4e3e 1f9e 653e bfba c63d
000003c0: e0a0 96be 87ba 2bbd e9f3 68be 1051 93be
000003d0: 4e05 48bc 7c13 c33d 9ec9 30be 0436 08bd
000003e0: df32 2ebd e4d8 d8bd 1f32 013e 98e7 74be
000003f0: 7722 12be 3346 1a3e 353e 003e 951c ee3d
-0.03187593 0.10218706 -0.058431555 0.1342991 0.052003697 0.20879833 0.14284281 0.3417375
-0.01044611 -0.24075669 0.34920946 0.30907306 0.3231591 -0.2726874 0.32926565 -0.23702347
-0.13863258 0.13204904 0.22104517 0.011777213 -0.28019392 0.20366204 0.23924725 0.19717379
0.03124716 -0.04143502 -0.05777025 0.059998777 0.23022836 -0.14352137 -0.2536837 -0.08940227
0.036523577 0.083402656 0.10753022 0.20447128 -0.03227324 0.3518955 0.29744983 0.26134405
0.12518147 0.15880139 -0.008691409 -0.16869526 0.26560545 -0.10745366 0.0056018955 -0.09342346
0.040525407 0.16869894 0.19311818 -0.21593472 -0.34831816 -0.2635344 0.19275783 -0.013940773
-0.3478814 -0.3303414 0.117285855 -0.19196457 0.09180068 -0.2369992 0.10533582 -0.07325501
0.28550908 0.13108869 0.327759 -0.26593706 0.12677869 -0.05364485 0.14365694 0.09778287
-0.21411254 0.14930122 -0.2647246 0.24394831 0.03921923 -0.09963414 -0.025505094 0.033010464
-0.37884387 0.19434315 -0.06922317 0.08852551 0.0938308 -0.24107556 0.19552258 -0.19590525
0.2522958 -0.045862753 -0.22043692 0.13596632 -0.25287765 0.23688343 -0.0076579475 -0.1448174
0.10503709 0.10956787 -0.14372602 -0.035229057 0.2718559 0.03597327 0.14671016 0.33480248
-0.014024052 0.15453999 -0.14561413 -0.23627976 -0.23218107 0.25633344 0.25329813 -0.050647777
0.299776 0.016417874 0.17459697 -0.14224751 -0.053188674 0.24393068 -0.16159867 0.2062428
-0.033611346 0.042001963 0.25372088 0.06286383 -0.0873945 0.3426169 -0.36538884 0.17844898
-0.2574879 -0.12741123 -0.14268637 -0.2764748 0.06023307 0.24097492 0.12848967 0.26497117
0.06686843 -0.094161004 0.38999116 0.12282718 0.2013898 -0.23659559 -0.078499466 -0.06694543
-0.18666606 0.043053683 0.14127429 0.23072746 -0.11025958 0.13900073 0.043525714 0.21867906
0.08446256 0.09150378 -0.21902841 -0.16468373 -0.34361556 -0.0084334025 0.30334428 0.05290147
-0.32262728 -0.2660099 0.11667191 0.19540195 0.13513613 -0.09601326 0.102212384 0.010120831
-0.07830211 0.1992166 -0.03306003 -0.00071496225 -0.17528516 0.38582924 -0.07167379 0.1919654
-0.1964663 -0.25018695 0.21008803 -0.19781329 0.08895546 0.33012965 0.014170358 0.038342424
-0.12747312 -0.17403483 -0.28341082 -0.03639501 -0.15356623 0.18033113 0.2059696 0.17018095
0.17951323 -0.2294047 0.3385671 -0.17501825 0.22936735 0.30012998 -0.07216086 0.31344622
0.29775456 0.21527399 0.17329903 -0.009801676 0.14000092 0.029707758 -0.17007974 0.16966002
0.22271426 0.26356027 -0.21218929 -0.28376245 0.04501616 0.3353858 -0.03368506 0.24109578
0.19702227 -0.2824929 -0.36752623 0.01377208 0.14239311 0.05889243 -0.30741304 0.16375047
-0.09784599 -0.21360283 -0.12954207 -0.31267166 -0.13651393 0.14184517 0.00439536 0.25873926
-0.22261064 -0.11400333 0.23809834 -0.038377162 0.315565 0.20178568 0.224236 0.09703588
-0.29419613 -0.041925933 -0.22749294 -0.28772783 -0.012208296 0.09525201 -0.17264411 -0.03325464
-0.042528983 -0.105882436 0.12616776 -0.23916471 -0.1427096 0.15065841 0.1252373 0.11626545

conv1.bias f4 [32]
00000000: 21e8 2ebe 0904 a5be 870a 2e3b 0bdb b73d
00000010: 3b41 6ebe 3819 f13d c8db 283e 523a 8dbe
00000020: 6038 173e 72af 84be f738 543d ebd7 f3bd
00000030: 4d2a c4bd c33b eebd 5f53 843e ea23 5bbe
00000040: 34b5 94be 1442 2a3e 00ce 58bc fad5 b83c
00000050: 0b84 543d 82fb 9dbc 3cb3 95be e8cb 04be
00000060: 61eb f03d 2e9e 4a3e b0e4 bbbd 2b70 733e
00000070: 33ad 52bd 460e afbd ce78 9ebe a0f9 0dbe
-0.17080738 -0.3222964 0.0026556568 0.08977326 -0.23267071 0.11772388 0.1649009 -0.27583557
0.14767599 -0.25915104 0.05181214 -0.119064175 -0.09578381 -0.116324924 0.25844857 -0.21400419
-0.29044497 0.1662677 -0.013232708 0.02256297 0.05188374 -0.019284967 -0.29238307 -0.12968409
0.11763645 0.19786903 -0.09174478 0.23773257 -0.051434707 -0.08547644 -0.30951542 -0.13864756

conv2.weight f4 [32, 32, 3, 3]
00000000: 0c30 48be a35e b9be dbe1 19be 9db0 babd
00000010: 7f4a 99be 0174 f4bd 0a36 f9bd 6b3f 73be
00000020: 3d2b 98bd 3a1c 8bbd e9a0 1abd 59ed a73d
00000030: 5f16 1fbd 6eed 0c3d d327 abbc 9783 2ebd
00000040: f8a6 45bd 6180 313b 6f93 31bd 7e0b bebd
00000050: 474d fabc f28a 43bc 3222 66bd 3fbe 9abd
00000060: da0d bebc ab46 09bd dba6 d23c f091 8abd
00000070: 1f38 c7bc 4ab9 38bd 1980 a5bd b9a0 70bd
00000080: f63b 07bc 1dec 54bd e1ae b9bc de9f 743a
00000090: b9d8 f8bd 0190 6dbe ae3a 60bd ffb4 30be
000000a0: bc89 8bbe 7199 03be 43c1 04be 4f5c 50be
000000b0: feaf 16bd 3cb6 963d 9774 803e 736d 9d3d
000000c0: b1f7 1238 360e 203e 08ba 873d 501a c93d
000000d0: 2df9 313e 36e6 ed3d 6a96 aa3d f127 6f3d
000000e0: 9c07 8ebd 86fc 0e3e 0c4c fc3d 1ce5 d23c
000000f0: 9d53 f23d 63f2 843d 8e39 83bd 90fc eabc
00000100: 2bde 9cbd a043 573d c6b9 4a3c 7afc 74bb
00000110: 6000 d73b b44d d8bc c2d7 adbc 3902 aabc
00000120: 23ef 153e c3c3 8fbc 40a0 a2bd bb47 393e
00000130: 99ee 513d 434c 1fbe 2fff 213d 549d b53c
00000140: fa8b d6bb 18e2 1c3c 76c8 633d 6778 0a3c
00000150: ec51 6abc 8deb 653c 5826 643d 3a73 2e3d
00000160: a2a2 50bc c4be 2b3c f16e 1b3d ad1b 54bd
00000170: 2ff1 86bd 54a3 3f3d b8b5 2a3d a7c5 95bd
00000180: cdb2 a3bc 83a1 0d3c 28c5 80bc 6f18 26bd
00000190: 9723 96bd 9850 3fbd 5b22 b1bd 316d 8fbe
000001a0: 8bc1 42be c56d 39bd deee 71be a2a4 3cbd
000001b0: 4c42 60bd 9aeb a3bd 9d02 313d b7ca 68be
000001c0: 30c3 4cbe a90a 81bd 8b6d 2dbe 8ac9 afbd
000001d0: 204f 21bd 45e5 0bbe ea9a b7bd 79f0 3bbd
000001e0: ffe9 24be 9862 09be d67b 17bd 68b5 debd
000001f0: 2e1c 02be 7375 d4bc b00d 383d 4e55 813c
00000200: 9b9f b9bb 4255 1a3c 42f8 c93c 40a4 24bd
00000210: da6d 5d3d c5b0 beba 1e31 3ebd 5487 19bd
00000220: 79e9 acbb c728 2fbd 4f4c 4c3c 00b5 74bd
00000230: caed 60bd a1f9 ccbb ca40 d3bc 35b4 17bd
00000240: adf3 dabc 00cb 89bc 2fc2 abbc 5070 27bd
00000250: af2c 10bb 4ad6 ec3c 23d3 643c 4a89 3d3d
00000260: 7824 6c3d 55fc 413e 099b 4a3e 298e e83d
00000270: e619 843d 42d7 823e b659 293e 6340 123e
00000280: 62dd 693e a2fa cf3d c5bc e6bc d0b8 f7bc
00000290: 0bdb dc3c 9dad 97bd cff4 c9bd 8539 ffbb
000002a0: 5c79 3ebd 374b 3cbc 1e74 76bc 3163 42bd
000002b0: 3c24 983d 0efa c3bc a42c 96bd 0a8f 0e3d
000002c0: ba7f 85bc 655d 81bd e6bc 36bd a8ae 1e3c
000002d0: 35f3 de3d 558b bd3d 3363 013e da46 4c3d
000002e0: dc0d e93b cae4 a6bd c0f9 63bc db6d 4a3c
000002f0: 2f3f d23b a536 c0bd c573 eebd 4f9a 503d
00000300: 6832 eabd c670 a0bd 6b35 8bbd af77 bfbd
00000310: 3e52 7cbc de4c 5bbc de21 cbbd 4234 8bbd
00000320: 85b0 46bd 680f 3ebc 127e 00be e067 f0bd
00000330: ef4f d8bb ad5f c7bd c4d1 f83c 481d ffbd
00000340: 9dfe fbbd 8797 863d dfe1 adbd 13f0 14be
00000350: bc2f e63b 67a6 4cbd dbd6 c7bd 3966 ddbc
00000360: 9482 623c 4511 b3bd 97b0 a5bd 0531 163e
00000370: 4c79 953d 3605 afbd b6ce 263d 98c4 9cbb
00000380: 7b88 3dbd 53dd cf3d 08b4 aa3d 6d02 5cbd
00000390: 840e 293e 3cf3 773e 36de b93c 2520 0d3e
000003a0: 3c9b 1a3e 71b7 42bd 22e4 62bc c604 723c
000003b0: 2af4 323d 024e f4bd b887 38be bf7a 86bd
000003c0: 2dda 93bc 13d0 ffbd 8b74 3fbd 427d 4ebd
000003d0: 4cfd 8c3d f2df 16bd 6d6a d8bc 1066 d83c
000003e0: cfac 773d 871c a4bc abb2 47bc 8b75 c43c
000003f0: 669e 9abd 406e 42bd ef6c 79bd 1212 96bd
-0.19549578 -0.36205015 -0.15027563 -0.091157176 -0.29939649 -0.119361885 -0.1216851 -0.23754661
-0.07430122 -0.06792493 -0.037751112 0.08199567 -0.038839694 0.034406118 -0.020893013 -0.042605963
-0.048254937 0.0027084576 -0.043353494 -0.09279536 -0.030554427 -0.011934983 -0.056184955 -0.07555818
-0.023199964 -0.03351466 0.025714329 -0.067661166 -0.024318753 -0.04509858 -0.08081073 -0.058747027
-0.008254042 -0.051982988 -0.022666397 0.00093316834 -0.121507116 -0.23199464 -0.05474346 -0.17256545
-0.2725352 -0.12851502 -0.12964348 -0.20347713 -0.036788933 0.07358977 0.2508895 0.076868914
3.5039793e-05 0.15630421 0.066272795 0.09819472 0.1738021 0.11616175 0.083294705 0.0583877
-0.06935045 0.13963518 0.12319192 0.025744013 0.11832354 0.06491544 -0.06407462 -0.028684884
-0.07659563 0.052554727 0.012373393 -0.0037381933 0.006561324 -0.02640424 -0.021221045 -0.020753013
0.14642005 -0.017549401 -0.079407215 0.18093769 0.051252935 -0.15556435 0.039550003 0.022169746
-0.006547448 0.009575389 0.055611096 0.008451558 -0.014301758 0.01403321 0.05570063 0.042590357
-0.012734087 0.010482494 0.0379476 -0.051784206 -0.06588971 0.04678662 0.041677207 -0.0731309
-0.01998272 0.008644464 -0.015719011 -0.040550645 -0.07331007 -0.04670772 -0.08649131 -0.28012994
-0.19019143 -0.0452707 -0.23626277 -0.046055444 -0.054750726 -0.08003922 0.043215383 -0.2273358
-0.19996333 -0.063008614 -0.16936319 -0.085833624 -0.0393821 -0.13661678 -0.089650944 -0.04588363
-0.16104887 -0.13416517 -0.036983334 -0.10874444 -0.12706062 -0.02593491 0.04493493 0.015787747
-0.0056647784 0.009419741 0.024654511 -0.040195704 0.05405984 -0.0014548531 -0.04643356 -0.037482575
-0.0052768555 -0.042763498 0.012469365 -0.059742928 -0.054914273 -0.006255344 -0.02578773 -0.037037093
-0.026727522 -0.01682043 -0.020966617 -0.040878594 -0.002199929 0.028910775 0.013966355 0.046273507
0.057651967 0.18943913 0.19785704 0.1135524 0.06450252 0.25554854 0.16538128 0.14282374
0.22838357 0.10155226 -0.028166184 -0.030239493 0.026959917 -0.07406161 -0.09861147 -0.0077888393
-0.046502456 -0.011492542 -0.015042333 -0.047457878 0.07428786 -0.023922946 -0.07332733 0.03480438
-0.016296256 -0.06316642 -0.04461374 0.009685196 0.10886232 0.09255091 0.12635498 0.049872257
0.007112248 -0.08149107 -0.0139145255 0.012355293 0.0064162235 -0.093854226 -0.11643175 0.05092841
-0.114353955 -0.0783401 -0.06797298 -0.09349 -0.015400467 -0.013385026 -0.09918569 -0.06797077
-0.048508186 -0.011600353 -0.12548092 -0.117385626 -0.0066013257 -0.097350456 0.030373462 -0.12456757
-0.12304423 0.0657187 -0.08490347 -0.14544706 0.0070247333 -0.04996338 -0.09757777 -0.027026283
0.013825078 -0.08743528 -0.080903225 0.14667137 0.07298526 -0.08545916 0.04072448 -0.004784178
-0.046272736 0.10149636 0.083351195 -0.05371325 0.16509444 0.2421388 0.022688966 0.13781793
0.1509828 -0.047538225 -0.013848336 0.014771646 0.043689884 -0.11928941 -0.18020523 -0.06566381
-0.01804837 -0.12490859 -0.046742003 -0.050412424 0.0688425 -0.036834665 -0.026417935 0.026415855
0.060467537 -0.020033134 -0.012188594 0.02398183 -0.07549743 -0.047468424 -0.060894903 -0.073276654

conv2.bias f4 [32]
00000000: 28f5 bf3c 377b 26bd 1dd9 07bd 7464 863d
00000010: dfb7 c93c e636 db3c 97f5 013d b609 5ebd
00000020: dbf0 2dbd 8098 2cbb bce7 c7ba da13 843c
00000030: 8de0 023a cc89 9bbc 4e7e 75bc e241 de3b
00000040: 21f2 32bb 90df 45bd 0eb5 de3c b6ff 7fbd
00000050: 4372 263d a140 993c 1cfc e63b d655 f5bc
00000060: e148 403c 6c70 2d3d 94e7 05bc bde0 b6bd
00000070: 7991 203d 2c7a b63c 900d 25bd 57a4 9d3d
0.02343233 -0.04064485 -0.03316604 0.06562129 0.02462381 0.026759576 0.031728353 -0.05420848
-0.042466026 -0.0026336014 -0.0015251557 0.016122747 0.0004992567 -0.018986605 -0.014983727 0.006782756
-0.0027304965 -0.04830891 0.027185943 -0.062499724 0.040636312 0.018707575 0.0070490967 -0.029948156
0.011736126 0.042343542 -0.008172888 -0.08929584 0.039201234 0.022275053 -0.040296137 0.07697361

conv3.weight f4 [32, 32, 3, 3]
00000000: 559f 45bc 6e39 b53d 214f 183e 5945 d1bc
00000010: 1a36 603c 57e0 5cbb ddb5 873d bc02 1bbe
00000020: a41c 51be 7f8a 2a3d 1196 30bd f83c 2cbe
00000030: c49a 9f3a 7456 c93d 88e7 46bd 42e2 9fbd
00000040: 6bed 463e a015 023e fbf5 4abd cbc7 39bd
00000050: 8d46 debd 1168 cc3c d293 ae3d 6e66 9fbc
00000060: 57e8 7fbd 93ba 293e c1e8 0d3e 2f6d 7e3d
00000070: a51f 493d a06c fb3d 0938 773d 8671 8ebd
00000080: 294e b63d 2647 423c a40c e8bd f6c0 19be
00000090: 7c50 ba3c daa5 473d 7f02 b53d a57f 0ebc
000000a0: e837 79bd 71ed 5f3d b0dd fabc 25a0 35be
000000b0: 8056 eabd b1ab 863c 63a3 1c3d ce67 113e
000000c0: 7f67 6d3d 7b56 90bd e867 03bd 2984 193e
000000d0: c6f3 d2bd d9e3 12be ed88 983d 200b 0b3e
000000e0: 64ac 3f3e 194c 96bb fa03 87bd 7f85 8d3d
000000f0: 5401 61bc 5773 dfbd e962 24be 1ed9 53bd
00000100: 034a 673b 7650 1abe b205 2ebd ce16 cb3d
00000110: de24 8e3c 0874 75bc a70d f63d b73f fd3d
00000120: 99ac 183d 4cff 38bd be7a 50be 93b6 3fbd
00000130: 7ce9 833c cd13 723c 65cc a2bd cb94 5f3e
00000140: 416e 3a3e 2163 103d 3f8b b6bd 98c3 8abd
00000150: 463a 85bb e970 a83d 4f38 283a f058 db3c
00000160: 7912 c63d 604e 5a3e 14d7 3abc 6e27 a5bd
00000170: 2a06 22be f591 8a3c 6f72 c9bc 5b65 883a
00000180: fcaf 53bd 2864 1e3e 794f fd3d a000 123d
00000190: 6234 4bbd df28 b6bd 5fa8 50bd 50ec 5f3c
000001a0: 594f c0bc d990 0cbd 1a90 083e 0fdb e53c
000001b0: 3da5 993d 3c26 1b3e c820 633e a212 9f3d
000001c0: 4c38 cb3b 6661 b83c 113c bd3d d19b 68be
000001d0: b730 22be 1ea0 04bd d205 043e 93b5 183e
000001e0: cab2 793d e8de e6bd f8ba 473d 48c6 cb3c
000001f0: 2c75 38be 6047 59be 28ca 4cbc ae4b eebd
00000200: af62 23be c821 063d 9dec 07bc 1275 d0bd
00000210: fbc0 72bb ac25 533e ea01 ee3d daec 0e3b
00000220: 8f54 eabd 623f eabd 00cb b0bc c9e7 863d
00000230: 390e 083c e24d 37bd 3dcf 273e 96f6 273e
00000240: eb19 923c 5f5b 06be 7016 1fbe 34dc 343c
00000250: 143a 8f3d 6798 cfbd f19b e3bb 61af f03d
00000260: 9716 d83d 9a71 bebc ddc8 f1bd 74be 10be
00000270: 2b81 043d 759a e03d 2dec 143d 9bcf 10bc
00000280: da1a 133e 1c2e 5b3e fd93 3e3d 5ef1 123e
00000290: e1fe 043e 113c ac3d a626 a3bd 9050 0c3c
000002a0: bdfa ae3d 311f 38be 9b02 1abe 3e7c a3bc
000002b0: 8735 a4bd 2b89 98bd 991e b5bd 1b37 96bc
000002c0: 9ed6 f9bb 59a4 4ebd ab4f 193e 5689 0f3e
000002d0: e2e5 883b b453 f03c 757f 233e fab5 00bc
000002e0: 3a87 84bc a874 293d 1fe0 073d 77ea 22be
000002f0: 1976 f1bc 9ebf d93c 24f8 033e b21e 093e
00000300: 33c3 a83c c91a d7bd ba88 0cbe b06d 75bd
00000310: be4e 5bbe 5d0a 06be c840 a63c d6c5 00bd
00000320: 7b88 43be 904c 913c 0732 5f3d 87a2 073c
00000330: 9857 f4ba 6e9d 413e fcb4 5a3e 809d 623d
00000340: fa0e b9bd d402 f6bd 9d16 513c fcf2 553d
00000350: f012 23bd cb2b 2939 5423 043e c832 323e
00000360: e850 cc3b 3424 0cbe 9adf f4bd 48f7 fcbc
00000370: 5185 c33d 5e76 a53a bbea 6ebd 323e 783e
00000380: f5e2 083e 3ff4 833c 1f31 8abc 15bc d9bd
00000390: 15ad 4e3d f486 513d f8e4 673d 0c8c 8d3d
000003a0: 2082 3f3e a61f 1d3e 2a69 0ebd ee41 db3d
000003b0: 0c13 eb3d cafc 8abc 169b 87bd de46 2d3d
000003c0: 571a 253d 4b32 37be 5dc0 15be fe21 a83c
000003d0: a528 3cbd 439c f3bd 711e 06bc 4c8a a6bc
000003e0: 51d2 99bd 0779 1bbd 6e06 c63d eae5 ba3d
000003f0: f9f2 6fbd 68a6 d8bd c60e 17be c258 41bd
-0.0120619135 0.088488445 0.14873935 -0.025545763 0.013684774 -0.0033703053 0.066264845 -0.15137762
-0.20421082 0.041635986 -0.043111864 -0.16820133 0.0012176861 0.09830943 -0.04856065 -0.07806827
0.19426505 0.12703562 -0.04955099 -0.045356553 -0.108533 0.024951966 0.08524288 -0.019458022
-0.062477436 0.16575079 0.1385832 0.062115844 0.049102444 0.12276578 0.060356174 -0.069552466
0.089016266 0.011857783 -0.11330536 -0.15015015 0.022743456 0.048742153 0.08838367 -0.008697425
-0.060844332 0.0546698 -0.030623287 -0.17736872 -0.1144228 0.01643929 0.038241755 0.14199755
0.05796003 -0.07047745 -0.032081515 0.14991821 -0.10300402 -0.1434473 0.074479915 0.13578463
0.18718106 -0.0045867083 -0.06592555 0.06910228 -0.013733227 -0.10910671 -0.16053356 -0.05172073
0.0035291917 -0.15069756 -0.0424859 0.09916459 0.017351564 -0.014981277 0.12014323 0.12365668
0.037273977 -0.045165345 -0.20359322 -0.046804976 0.016102545 0.014775229 -0.079491414 0.21834104
0.18206121 0.035250787 -0.08913278 -0.06775588 -0.0040657846 0.08224661 0.0006417082 0.026775807
0.09671492 0.2131896 -0.011403818 -0.08064161 -0.15822664 0.0169153 -0.024590699 0.0010406183
-0.051681504 0.15467894 0.12368674 0.035645127 -0.049610503 -0.08894514 -0.05094182 0.013667181
-0.023475336 -0.034317825 0.1333622 0.028058557 0.0750222 0.15151304 0.22180474 0.07767226
0.0062017795 0.02250738 0.092399724 -0.22715689 -0.15838896 -0.032379262 0.12892845 0.14913015
0.060961522 -0.11272985 0.04876229 0.024874821 -0.18013448 -0.21218634 -0.01249937 -0.116355285
-0.15955614 0.03274706 -0.008296159 -0.101785794 -0.0037041295 0.2061984 0.11621459 0.0021808655
-0.114419095 -0.114378706 -0.021581173 0.06587178 0.008304172 -0.04475201 0.16387649 0.16402659
0.017834624 -0.13120793 -0.15535903 0.011038829 0.069934994 -0.1013649 -0.00694608 0.11752201
0.10551184 -0.023247529 -0.1180589 -0.14135152 0.032349747 0.1096696 0.036358047 -0.0088385595
0.14365712 0.21404308 0.04652785 0.14349887 0.12987854 0.08409894 -0.07966356 0.0085641295
0.08543918 -0.17980649 -0.15040056 -0.019956704 -0.08018022 -0.07448038 -0.08843727 -0.018336823
-0.0076244613 -0.050449703 0.14971797 0.14017233 0.004177795 0.029336788 0.1596659 -0.007855887
-0.016177762 0.041371018 0.033172723 -0.15909754 -0.029475259 0.026580628 0.12887627 0.13390616
0.02060089 -0.10503156 -0.13724032 -0.05991906 -0.21416757 -0.13089891 0.020294562 -0.03143867
-0.19095032 0.017736703 0.05449107 0.008278496 -0.0018641828 0.18907711 0.21358103 0.055325985
-0.0903606 -0.12012258 0.012761739 0.05223368 -0.039812982 0.0001613341 0.12904102 0.17402184
0.0062352307 -0.13685685 -0.11956711 -0.030879632 0.095469125 0.0012623777 -0.058329325 0.24242476
0.13367827 0.016107677 -0.016869126 -0.10631577 0.050458033 0.051154092 0.056614846 0.069114774
0.18701982 0.15344104 -0.03476826 0.107059345 0.11478242 -0.016966242 -0.06621377 0.042303912
0.040308323 -0.17890279 -0.14624162 0.020524021 -0.0459372 -0.11895039 -0.008185969 -0.020329617
-0.07510818 -0.037957218 0.09669195 0.09125884 -0.058581326 -0.105786145 -0.1475173 -0.047203787

conv3.bias f4 [32]
00000000: 488c ad3d 78ef 18bd a84a 13bd 59c4 09be
00000010: eac7 02bd 7e46 9d3c b956 9f3d d083 d1bd
00000020: 185f d93b 6d9c 353d d463 d3bc 4379 783c
00000030: 823e 323d 3159 7dbd 48b9 73bc fc96 d63a
00000040: c646 96bc 8034 0c3c 7236 543d 7419 4cbd
00000050: 373a 5c3c f26b 063d e1fa 8fbd 94e6 e5bc
00000060: c0d4 d8ba ddab 2c3d 62c0 893d cbe5 96bc
00000070: a286 013c cc07 b03d 5bc2 373c 1eca 4c3d
0.08474022 -0.03733775 -0.03595987 -0.13453807 -0.031928934 0.019198652 0.07780213 -0.10230219
0.0066336505 0.044338632 -0.025804438 0.01516563 0.043516643 -0.061852638 -0.014875717 0.0016371901
-0.018344294 0.008557439 0.051809736 -0.04982896 0.013441614 0.03281779 -0.07030273 -0.02806405
-0.0016542897 0.04215609 0.06726147 -0.01842012 0.007905634 0.08595237 0.011215772 0.04999744

fc1.weight f4 [128, 1152]
00000000: e33c 613d d9c3 27bd 23f5 dfbd e947 3ebd
00000010: f145 9abd 1e52 5cbb f0d7 ddbd 66af 2fbd
00000020: d93f 593d 5d5c 56bc 8cc4 433d 7481 4cbd
00000030: 05dd 8cbc 1655 c23c e41d 79bd b872 cabd
00000040: 7760 b3bd 6f56 25bd 2fd2 863c d289 c2bd
00000050: 19b4 ce3c 7ba7 3bbd a36d 5d3d ff19 f43c
00000060: bc73 2ebd 4eb5 81bc 87e7 d33c 8c3a 43bd
00000070: a236 b6bd c81d 943d 1779 aa3d cc89 863d
00000080: f865 ffbd 5cbd 093c 669e 9abd 8f60 c8bb
00000090: 4627 a43c eb78 dfbd 26b7 73bc 366b debd
000000a0: b7bc a2bd 8256 38bd d6e3 23bd 3aa6 fb3a
000000b0: d0d9 bebc 5035 abbc 6787 16bd 3a9d 463d
000000c0: 33ef 58bc 466a af3d 967f 81bc a376 aa3d
000000d0: c3c9 ae3b 022f 7dbc b0ac 1abd 1d72 1dbd
000000e0: d4a3 bdbd c557 573d 3d2c 02bd deb9 93bd
000000f0: f16f 863c 6c8e 5b3d aa9a e9bb 86c5 0e3e
00000100: 19f2 073d b8c3 b03c b907 0a3c 4c1a 2c3d
00000110: a87a 023d 3b93 97bd 769d 40bc d248 d5bb
00000120: 5949 acbd e0c4 dbbd 0e77 32bd 4b7c 3bbb
00000130: 4834 183c 70ac 22bc 4b42 11bd dadc dbbc
00000140: 7af1 c4bc 4ad8 b4bc 8d82 21bd e09c 7eb7
00000150: ddb2 6bba 88df 4e3c c0b8 79b7 4e3c 5cbd
00000160: a53a 203c 5500 bb3b ad67 c0bd 8d5a b5bd
00000170: 65b5 3f3d 0186 ccbd d416 de3d 73a8 74bd
00000180: 7e0b 06bd 7cdd fd3a 35f0 ee3d 9571 72bc
00000190: 9a54 8bbd c772 9d3d 6d49 4b3d 765b 203d
000001a0: 23f2 1ebe 79ee 813d 27e6 23be f7a2 12bd
000001b0: bb19 283c 2b52 f7bd f71a 90bd bc35 6bbd
000001c0: b625 92bd 45a8 3ebd b322 a6bc bbc0 c6bc
000001d0: db1c 7abd ab84 37be 3e62 e0bd 2a0a bbbd
000001e0: de4c 9d3c 5e9f 243b 401c 5bbd 7878 393c
000001f0: 120e 8bbd f19a a03d 94ac 87bc 7ddd 73bc
00000200: c23e b9bd 93d7 99bd 56b5 733c e877 35bd
00000210: 3842 083d 0724 c739 98b2 53bd aafb 6a3d
00000220: bb68 94bd 30f7 5b3d 2241 bbbc 6fb8 f03b
00000230: b13d 6bbc a3a7 ac3c 03e4 95bc 926c 603c
00000240: dcc2 a2bd 8015 3bbe bf18 5bbc 6cbf c5bb
00000250: d26d 3b3d 9631 2fbd 4389 a23d 771b 913d
00000260: 05c5 903d a7ec 3c3d 683b 5bbc f8b3 27bd
00000270: 9aa7 0cbe 3d43 70bc c62d 3fbc 1e74 183d
00000280: c17e 2b3d 42e2 843d 3e44 3b3d 1477 03bd
00000290: b1df 2cbd dfd4 063d c617 d2bb ccf6 ff3c
000002a0: de3c abbd 6c6e 0ebd 6dbb 013c 906d 5cbc
000002b0: d482 87bb 3434 d9bd ce8e ae3c 5017 fdbb
000002c0: bd78 963d 8332 cc3d 46ba 0e3e 119b c63d
000002d0: b32a 5e3c f02b 063e 1b1a 073e addf 8d3d
000002e0: 249f 463d 8ea3 c33c bc5a 303d 9483 923d
000002f0: 2574 6c3c 25c4 3dbc d3a1 50bd 7f26 243d
00000300: 5a0e c53c 2370 fc3c d3ee 183d d745 483c
00000310: ee90 0b3d 09a2 603d 781e 8f3d 88c5 823d
00000320: 5507 4a3d 8640 d73c 3eea 0fbd 2d76 353d
00000330: a628 2b3c fcb8 043d 9ab6 a2bd eb01 043c
00000340: f259 d3bc 7940 54bd 8ec6 b1bb 5659 f33a
00000350: 1bd8 ad3d 28dd cdbc 13b6 4a3d a3aa ff3b
00000360: d343 893c 6ef7 253e 17fb 973d bece 133e
00000370: 85c3 383d aaae e63c b962 483c 1954 0b3d
00000380: ca52 c23c f229 4d3d 92a0 ad39 bd37 d83c
00000390: e8d2 a1bc b573 03bd a9cf 04bd 4e87 913b
000003a0: d95e 623c 7c6b 84bd 3372 963b 38cc 793c
000003b0: c9f7 223e 393c 1fbd f0d4 8a3d 1e29 523d
000003c0: 2802 dfbb 3160 39bd 14bd 1b3c b52a 42bd
000003d0: a256 48bd 830f 693d 9da1 9cbd 3bd9 81bc
000003e0: 7006 cc38 c742 ca3d 8f18 0f3c 83f2 55bd
000003f0: 1b6b 26be 98df 90bd d27a 903d 9eed fc3c
0.054989707 -0.04095826 -0.10935428 -0.046455298 -0.075328715 -0.0033618282 -0.108322024 -0.042891882
0.053039405 -0.013083545 0.047794864 -0.049928144 -0.017195234 0.023722213 -0.06081952 -0.09885162
-0.087586336 -0.040365633 0.016457645 -0.094989434 0.025232362 -0.04581402 0.054059636 0.029797552
-0.04259084 -0.015833523 0.025867237 -0.047663257 -0.08897139 0.07232243 0.08323877 0.065692514
-0.12470621 0.008406963 -0.07549743 -0.0061150263 0.020038258 -0.10911735 -0.014875209 -0.108602926
-0.07946151 -0.045004375 -0.040012203 0.001919932 -0.02329722 -0.020899445 -0.036750223 0.048489787
-0.013240623 0.08565192 -0.015807908 0.083234094 0.0053341105 -0.015453102 -0.037762344 -0.038438905
-0.09259763 0.052573938 -0.03178047 -0.07213186 0.0164108 0.05360262 -0.007129033 0.13942537
0.033189867 0.021577701 0.008424693 0.042017266 0.031855255 -0.07401129 -0.011756292 -0.006508925
-0.084124275 -0.1073091 -0.04357057 -0.002860802 0.009289809 -0.009928808 -0.035463613 -0.026838709
-0.024040926 -0.02207579 -0.039431144 -1.5176105e-05 -0.0008991191 0.012626536 -1.4884572e-05 -0.05376845
0.009779607 0.0057068267 -0.093947746 -0.08855162 0.04680385 -0.09986497 0.10844198 -0.05973096
-0.032725804 0.0019368376 0.116669096 -0.014797588 -0.06803246 0.07687908 0.04963057 0.039149724
-0.15522055 0.06344313 -0.16005765 -0.035799947 0.010260041 -0.12076219 -0.07036393 -0.057424292
-0.07136099 -0.046547193 -0.020280218 -0.024261823 -0.061062675 -0.17921703 -0.10956238 -0.09132798
0.019201692 0.0025119404 -0.05349374 0.011320226 -0.06789793 0.07842053 -0.016561784 -0.01488435
-0.09045173 -0.07511821 0.014874777 -0.044303805 0.033266276 0.0003798308 -0.051683992 0.05736891
-0.07246538 0.053702533 -0.022858206 0.007346205 -0.01435797 0.02107603 -0.018297201 0.01369776
-0.07947323 -0.1826992 -0.013372599 -0.006034782 0.04575903 -0.0427719 0.07936337 0.07085317
0.070688285 0.046124127 -0.013380863 -0.040943116 -0.1373581 -0.014664468 -0.011668628 0.037220113
0.04186893 0.06488468 0.045719378 -0.032095984 -0.042205516 0.032917853 -0.0064115254 0.031245612
-0.08361219 -0.034773275 0.007918221 -0.013453856 -0.004135469 -0.1060566 0.021308329 -0.0077237263
0.07347248 0.09970572 0.13938245 0.09697545 0.013559985 0.13102698 0.13193552 0.069274284
0.048491612 0.0238817 0.04305528 0.07154003 0.014431988 -0.011582409 -0.050935578 0.040075775
0.024054695 0.03081519 0.037337136 0.012223682 0.034073763 0.05484203 0.06988233 0.06385332
0.0493234 0.026275884 -0.0351355 0.044302154 0.010446703 0.032402977 -0.07944985 0.008057098
-0.025799725 -0.0518193 -0.005425281 0.0018566053 0.084884845 -0.02512987 0.049490046 0.007802324
0.016755974 0.16207668 0.074209385 0.14434335 0.045108337 0.028159458 0.012230569 0.03401575
0.023721118 0.05008883 0.00033116766 0.026393766 -0.019753888 -0.03209277 -0.032424603 0.0044411784
0.013816559 -0.064658135 0.0045912503 0.015246443 0.15914835 -0.038875792 0.06778896 0.051308744
-0.006805677 -0.04525775 0.009505529 -0.04740401 -0.048910744 0.05689956 -0.07648013 -0.015850654
9.728677e-05 0.09876018 0.008733883 -0.05223323 -0.16251795 -0.07073897 0.07054676 0.030875023

fc1.bias f4 [128]
00000000: 0cbb 92bc 032c 46bd 269b e23b 802b ac3b
00000010: 5608 4c3d 1908 b73c 174c a0bc 6f1c ac3c
00000020: 5fc1 9abd 9f9e b3bd 80d8 cbbd efe4 2abc
00000030: c825 8d3c 032f 93bd e6ad 923c fcf4 3c3c
00000040: 3e21 57bb 832e e8bc 91c3 01bd 8f0d 6cbd
00000050: 2f51 c9bd 0ca9 82bd 8767 323c 66c3 5cbb
00000060: 79e7 39bd cdc0 5b3c ffdd 10bc cee0 c3bc
00000070: 8cd7 5bbd ca7b d3bb 5728 86bc 11a0 853b
00000080: b8c6 99bd 7a56 d5bd b860 7fbb 3641 b53c
00000090: 29fd 64bd 71a6 d9bc f1bc e7bd 9bb1 a5bb
000000a0: 5f5c 71bd fc10 81bd 325f 83bd 8669 a3bd
000000b0: da38 533c ac2b f3b8 a993 79bd 7b12 acbc
000000c0: 30b1 b0bd 5c3e dcbd 920b c5bb 4d42 61bd
000000d0: 1ab8 f9bd e264 b9bd c49b 84bc 5442 75bc
000000e0: 8cbf 0bbd 0733 b2bb 185a aabd 37ca 3abd
000000f0: 433e 95bc 0321 ee3c 004f 64bd 332b a33b
00000100: e1d2 88bc 6028 91bd 5523 b23b ed34 f4bc
00000110: aacc c5bb 1cc3 d7bd 2bae f0bd 656f 7bbc
00000120: 9cdf 97bd 9800 fcbc 8d9b dbbc 4122 cbbc
00000130: 3b67 373c 4eca ebbc 7351 01bd 3d09 c1bc
00000140: ef88 793c 5023 993c f064 87bd 21f1 54bc
00000150: 0a27 59bd a602 b0bc d0d6 f2bc 00f1 a1bc
00000160: d638 14bd a85a 593d 4d1a 1abc 8345 1b3c
00000170: a05c 79bd e231 dfbd de7a 2ebc 9992 223b
00000180: cc0a 72bd 8691 693d 7fbd 02bd 7bc7 7b3c
00000190: d38d d7bc 67aa 5cbc e35d 55bd 41f4 afbb
000001a0: 4bb8 dc3c 5a80 d23c d8c5 febc 8f77 223d
000001b0: e779 f9bc 3d51 28bc 8a2e 1fbc 0e95 52bd
000001c0: a3f6 1bbc aece 1cbd 77ca 83bd f531 f0bb
000001d0: 19ef 213c 8728 a63c 6fa8 e8bc a45d e1bc
000001e0: 88a1 d63c 349b 3c3b 54b9 8c3b 2627 3fbd
000001f0: aeda 9ebb b52c 28bd 288b d1bc eba7 8cbd
-0.017911457 -0.048381817 0.006915468 0.005254209 0.049812637 0.022342728 -0.019567532 0.021009652
-0.07556414 -0.08770489 -0.099534035 -0.010430559 0.01722993 -0.07186701 0.017905187 0.011533018
-0.003282621 -0.028342491 -0.031680647 -0.057630118 -0.09829938 -0.063798994 0.010888941 -0.0033685802
-0.045386765 0.0134126665 -0.0088419905 -0.023910906 -0.05367236 -0.006453966 -0.016376657 0.0040779193
-0.07508606 -0.10416885 -0.003896756 0.022125822 -0.055905495 -0.026568623 -0.113153346 -0.0050565726
-0.058925983 -0.06302068 -0.064146414 -0.079791114 0.012891972 -0.000115952775 -0.060931835 -0.021004906
-0.08627546 -0.107540816 -0.006013342 -0.05499487 -0.12193318 -0.09052445 -0.016187556 -0.014969427
-0.03411822 -0.005438212 -0.08317965 -0.045603003 -0.018218165 0.029068476 -0.055739403 0.004979515
-0.016702117 -0.07087779 0.005436341 -0.029810393 -0.0060363607 -0.10535261 -0.1175197 -0.015346383
-0.07415697 -0.030762002 -0.02680757 -0.024796607 0.011194046 -0.02878299 -0.031571817 -0.023563975
0.015230401 0.018693596 -0.06611049 -0.012996943 -0.053015746 -0.021485638 -0.029643446 -0.019768238
-0.036187015 0.053064972 -0.009405685 0.009477022 -0.06087935 -0.10898186 -0.010649411 0.0024806617
-0.059092328 0.057023548 -0.031919 0.015367384 -0.026312744 -0.013468361 -0.05209149 -0.0053696935
0.026943346 0.025695968 -0.031100199 0.0396648 -0.030453635 -0.010273275 -0.009715686 -0.05141168
-0.009519252 -0.038283043 -0.064351015 -0.007330174 0.0098836655 0.020282997 -0.028400628 -0.027510472
0.026200071 0.0028779032 0.004294554 -0.046668194 -0.004847846 -0.04105826 -0.02557905 -0.06867965

fc2.weight f4 [5, 128]
00000000: 08ed bbbe ad8d 44be 2362 673e 247a eb3d
00000010: 5d17 2d3c c888 043d faa8 683d 2b82 ec3d
00000020: 9ac2 02bd c67f 47be d10c 873d 5c47 04be
00000030: 31ff 91be 28cc ffbc 34fc 82be 14ab e63c
00000040: 83e5 833e b5c1 4abe a8a7 25be b857 56be
00000050: 1fac b4bd ec49 073c 85e3 06be a59e acbe
00000060: 0049 ca3c 27f6 dabd b970 a2be 5dc4 33be
00000070: 069b 063e 092e 55be 6274 303d 026c 65bd
00000080: 7eda 99be c1dc 93be 5259 72be 59c3 26be
00000090: 4477 9a3d 5155 8d3d bc76 2fbe 4431 69be
000000a0: 5bef a6be 47f3 9e3d 821b 973d 7b5e f33d
000000b0: 8878 9fbd a689 a43d 8565 14be 818a 4dbe
000000c0: 2b14 1fbe f790 23be e8a5 5dbe 6471 99bd
000000d0: 8ac7 bdbd 63aa c93d 3a86 b03d 1bd2 9bbd
000000e0: dcea b63d 3674 72be 4862 b63d 93a4 45be
000000f0: cc01 c4bb 7e2a bebe 5419 7c3d d2a4 89be
00000100: a727 28be 32a7 843c c852 6dbd cc40 b4bd
00000110: 8453 e83d b465 a23d eb1b 75be ee3f c3bd
00000120: a09b 7fbe eeb9 4b3e 8ea5 373d ea67 f5bd
00000130: 09b2 bc3d 9f13 77be f438 063c e5ce 53be
00000140: 4e37 2d3e 91da 9cbe 1b09 b83d e245 d3bb
00000150: 0642 823e 4cf0 053e 20e9 4ebe a451 9dbe
00000160: aa85 0cbe eea7 d4bd 047d 87bd 54c6 063e
00000170: 3357 313e 37e3 10be 65aa 75be f769 0cbe
00000180: 83c9 67bc 93c6 6e3d d2dc cc3d 11e6 d43d
00000190: 9b78 033e b5f8 853e d21e d6bd cfb1 013e
000001a0: bf8a 6dbe 5367 083e 3d19 1e3d 6cc2 80be
000001b0: fe44 b7be e467 c3bc 4065 91be 2da9 f93d
000001c0: e03e 083e 6b66 51be 0b0a 873d 725a 81bb
000001d0: 5537 ecbd 2465 d4bd f964 8a3d 9957 073e
000001e0: 2d17 62be fa93 da3d bd02 86be ae71 d63d
000001f0: ebff 09be e122 25bd 38de 65bd 9b56 3d3d
00000200: 9c3b 7b3d 9735 9abd c795 b9bd d305 473d
00000210: d6ca 8b3d b936 7d3d a792 593e fbb1 a3bd
00000220: 9f33 53be bd87 b33d 54f8 4cbd 16e4 29be
00000230: b0e6 e63d 3765 80be fd0e bcbd bc9e 563c
00000240: 76f5 903d b9c4 a83d 9fe4 21be faf6 ddbc
00000250: e094 2bbe ed63 f9bd 3333 063e 4210 063e
00000260: 5808 20be 81a4 44be 3e9e ae3b b70c 133e
00000270: df88 3b3c 451a cf3d 83de 323e 895a f83d
00000280: 2522 c53d 4a38 d83a dd62 d0bd 3112 853d
00000290: 3997 17be ef6f 663e 5bc5 05be 5fdc 24bc
000002a0: 02b1 c13d 8e57 e43d f93c dd3c f1ab 5dbe
000002b0: 4fbd 05be 01e5 e73d fe18 c43c 70da a63d
000002c0: 1842 aeba 7a25 8f3d f31a 2c3c 8ff4 d13b
000002d0: 6a8e 17be 83f4 2cbe 00b9 d83d cc6d e3bd
000002e0: 59c2 d4bd 234e 6e3d d526 c6bc e063 07ba
000002f0: 06c8 263e fd39 9d3d 3c8e 3cbd c65b d63d
00000300: 9fea 47be c255 21bd 1703 e03d f129 4f3e
00000310: e92d 013e cbc3 59be a1ab 5a3d a308 54be
00000320: d344 94bd 5ae4 723a e446 6cbe 1334 05be
00000330: 5730 663e 5cc2 a93d 383f 4fbe 9659 22be
00000340: 3fad 1bbd aa6f 0a3d 90b3 ccbd 6b00 50bd
00000350: e558 daba 51fc f6bd 6197 ff3b 6c83 033e
00000360: 6c86 28bd 0f46 393d c863 a0bd 709e cebc
00000370: c015 6c3e 80f7 babd 6b74 a23d 2130 333c
00000380: 1156 e13c cbad 8c3d ed0b 643e c92f 81be
00000390: 9f45 993d 3ed3 e6bc da57 133e 926f a2bd
000003a0: 58cc b0bc e2e6 04be 1a01 8bbe 5bd6 20bc
000003b0: cdee 6dbd 6662 45bd 318b f5bd 3a84 1d3d
000003c0: aa1a be3d 5665 1ebe 432b 763c 9cb6 0a3e
000003d0: 73b7 e53a ad46 493e 3905 4cbe f3bc 033e
000003e0: 1ee7 28bd 334b 463e 65c4 da3d e45b 7dbe
000003f0: 7949 e13d 264f 673e 69ad 91bd f6e9 c4bd
-0.36704278 -0.1919467 0.2259603 0.11497906 0.010564652 0.032357007 0.056801774 0.11548265
-0.031923868 -0.19482335 0.065942414 -0.12917846 -0.28515008 -0.031225279 -0.2558304 0.028157748
0.2576104 -0.19800456 -0.16177237 -0.209319 -0.08821892 0.00825737 -0.1317273 -0.33714786
0.024693012 -0.10691481 -0.31726626 -0.17555375 0.13145074 -0.20818342 0.04307974 -0.056011207
-0.3004951 -0.2887936 -0.23666885 -0.16285457 0.07542279 0.069010384 -0.17135137 -0.227727
-0.3260449 0.07761245 0.073782936 0.11883255 -0.077866614 0.08034067 -0.14491852 -0.20072366
-0.15535037 -0.15973268 -0.2164532 -0.07492331 -0.09266575 0.09846952 0.08619352 -0.07608434
0.089315146 -0.23677143 0.089054644 -0.19301061 -0.0059816595 -0.37141794 0.061547592 -0.2688356
-0.16421376 0.016193006 -0.057940274 -0.088014215 0.11344054 0.079295546 -0.23936431 -0.09533678
-0.2496171 0.19895145 0.04483562 -0.11982711 0.09213645 -0.24128579 0.00819229 -0.20684393
0.16915628 -0.30635503 0.08986112 -0.0064475397 0.25440997 0.13079947 -0.20206118 -0.3072635
-0.13722864 -0.103835925 -0.06615642 0.13161594 0.1731842 -0.14149176 -0.23990782 -0.13712297
-0.014147165 0.058294844 0.10003056 0.10395444 0.12838976 0.2616631 -0.10455097 0.12665485
-0.23197459 0.13320665 0.038598288 -0.25148332 -0.35794824 -0.02385325 -0.2839756 0.12190471
0.13305235 -0.20449226 0.065937124 -0.0039475495 -0.11533991 -0.103708535 0.0675754 0.1321701
-0.22079153 0.106727555 -0.26173964 0.104709014 -0.13476531 -0.040316466 -0.056120127 0.04622517
0.061336145 -0.07529753 -0.09061771 0.04858954 0.06825797 0.061819766 0.2124735 -0.079929315
-0.2062516 0.087661244 -0.05004151 -0.16590914 0.11274469 -0.2507722 -0.09182546 0.013099369
0.07078068 0.08240647 -0.15809868 -0.027095307 -0.1675601 -0.121772625 0.13105468 0.1309214
-0.15628183 -0.19203378 0.0053289225 0.14360319 0.011446207 0.101124324 0.17467694 0.12126643
0.09625653 0.0016496268 -0.10175107 0.0649761 -0.1480378 0.22503637 -0.13063566 -0.010062306
0.0945759 0.11149512 0.027006613 -0.21647622 -0.13060497 0.11322976 0.023937698 0.081471324
-0.0013294844 0.0698957 0.010504472 0.0064073275 -0.1480042 -0.16890149 0.10582161 -0.111049265
-0.103886314 0.058179986 -0.024188438 -0.0005164724 0.1628724 0.07677076 -0.046034083 0.10466723
-0.19523095 -0.039388426 0.10938089 0.20230843 0.1261517 -0.21266095 0.053386334 -0.2070642
-0.0723969 0.00092655944 -0.23073918 -0.13008146 0.22479378 0.08289024 -0.2023896 -0.15854487
-0.038007017 0.033797897 -0.09995186 -0.05078165 -0.0016658573 -0.12059844 0.007800028 0.12843102
-0.04114382 0.04523283 -0.07831532 -0.025222033 0.23055172 -0.09129238 0.07932361 0.010936768
0.02750686 0.06869086 0.22270174 -0.2523177 0.07483982 -0.0281769 0.14388981 -0.079314366
-0.021581814 -0.129787 -0.27149278 -0.009816731 -0.058089066 -0.048189543 -0.11989439 0.03845618
0.092824295 -0.15468344 0.015024963 0.13546222 0.0017525986 0.19655867 -0.19923867 0.12865047
-0.041236036 0.19364624 0.106819905 -0.24742085 0.11000342 0.22588786 -0.071131535 -0.09614937

fc2.bias f4 [5]
00000000: 251c 20bd d580 a43b 6801 5dbc 56ce 573c
00000010: 971b 31bd
-0.03908934 0.005020241 -0.013489105 0.013171753 -0.043239202
