Trained_Weights/STRIDE 5/v5.2_5th.pth (torch, 681666 bytes, 12 tensors)

conv1.weight f4 [32, 1, 3, 3]
0	0xbe45687e	-0.19278142
1	0xbdb09117	-0.08621424
2	0xbdda0da2	-0.106471315
3	0x3e107ee4	0.14110905
4	0x3e9b24d7	0.30301544
5	0xbe07a920	-0.1324811
6	0xbe2248a4	-0.15848023
7	0xbe92e677	-0.28691456
8	0xbc8f8fe2	-0.017524663
9	0xbe1206c0	-0.14260387
10	0x3d13a55f	0.036046382
11	0xbe4510b1	-0.19244649
12	0xbeaaa512	-0.33329064
13	0xbe90ddea	-0.28294307
14	0xbea7f5ed	-0.32804814
15	0xbe579ba8	-0.21055472
16	0x3e43de79	0.19127835
17	0xbe32ab1b	-0.17448084
18	0x3d491a3b	0.04909728
19	0x3e021d67	0.12706529
20	0xbe1e8ab7	-0.15482603
21	0xbe5bda70	-0.21470046
22	0x3dfde351	0.12396873
23	0xbea0c95c	-0.31403625
24	0xbe6d210a	-0.23157135
25	0xbd5cfb3b	-0.05395053
26	0x3e4774b0	0.19478106
27	0x3e2da676	0.16958031
28	0x3e287b0e	0.16453192
29	0xbdb778af	-0.089585654
30	0xbd7c756b	-0.061635416
31	0x3dec7884	0.11546424
32	0x3ddce892	0.10786547
33	0x3eadaea1	0.33922294
34	0x3e67ffda	0.22656193
35	0xbdded2bc	-0.10880038
36	0x3e35c450	0.17750669
37	0x3da3ed23	0.080042146
38	0xbd4e83aa	-0.050418533
39	0x3da42365	0.080145635
40	0x3e69eca9	0.22844185
41	0xbd8e5316	-0.06949441
42	0x3db114a0	0.08646512
43	0xbe70b622	-0.23506978
44	0x3dd8cc0c	0.10585794
45	0x3ce0fd0e	0.027464416
46	0xbe2604d6	-0.16212782
47	0xbda71407	-0.08158117
48	0xbbeba4ad	-0.0071912617
49	0x3d0e5fb4	0.03475924
50	0x3e466c98	0.19377363
51	0xbdaefeb8	-0.085446775
52	0xbe803ec8	-0.25047898
53	0x3e2b7927	0.16745435
54	0x3dacdba2	0.08440329
55	0x3e27994a	0.16367069
56	0xbcee12de	-0.029061731
57	0x3ea154e5	0.31510082
58	0xbe26e016	-0.1629642
59	0x3e3b1624	0.18270165
60	0xbdfe5a68	-0.124195874
61	0xbe364804	-0.1780091
62	0x3e932cc9	0.28745106
63	0x3dd35a57	0.10319965
64	0x3e58a247	0.21155654
65	0x3eaa82ea	0.33303005
66	0x3e9dcfc6	0.3082258
67	0x3d310779	0.043220017
68	0x3bc999c0	0.0061523616
69	0x3e5f6a0f	0.21817802
70	0xbd99e384	-0.07514098
71	0xbe852a0c	-0.26008642
72	0x3e6097e1	0.21932937
73	0x3ebc575f	0.3678541
74	0xbd23d33b	-0.039996367
75	0xbd88fd0b	-0.06688889
76	0xbe8cccae	-0.27499908
77	0x3e714922	0.23563054
78	0xbdc4c54c	-0.09607944
79	0x3da8d19f	0.08243107
80	0xbe6ae70e	-0.22939703
81	0x3e2b9f8e	0.16760084
82	0xbddeab34	-0.10872498
83	0x3e7dbad6	0.24778304
84	0xbe426eab	-0.18987529
85	0xbe14129c	-0.14460224
86	0x3e03a980	0.12857628
87	0x3d227d89	0.0396705
88	0xbea1114b	-0.31458506
89	0xbdca1f65	-0.09869269
90	0x3ebad10e	0.3648762
91	0xbd4121c8	-0.047151357
92	0x3e08e64d	0.13369103
93	0xbcec682a	-0.028858263
94	0xbe0cc05b	-0.13745253
95	0x3e5c807f	0.21533392
96	0xbe8cb489	-0.27481487
97	0xbe34ac55	-0.17643864
98	0x3d1c7cb9	0.038204882
99	0x3e1cd519	0.15315665
100	0x3dc89ff3	0.09796133
101	0x3e313b31	0.17307736
102	0x3e48f4b3	0.19624595
103	0xbe4f2b39	-0.20231332
104	0x3e223e6c	0.15844125
105	0xbd17560d	-0.0369473
106	0x3e8d18e1	0.27558044
107	0x3daef16d	0.08542142
108	0xbdc8274b	-0.097731195
109	0x3d971b80	0.07378292
110	0xbe801071	-0.25012544
111	0x3e7f6690	0.24941468
112	0x3da0c004	0.07849124
113	0x3e2839e7	0.16428338
114	0x3e804faa	0.2506078
115	0xbd8915ef	-0.066936366
116	0x3e216f4d	0.15765114
117	0x3db4217b	0.087954484
118	0x3c20e50e	0.009820236
119	0xbe92f1c6	-0.28700083
120	0x3e8320b6	0.25610894
121	0x3e854a6b	0.2603334
122	0x3e13fb68	0.14451373
123	0xbe2d99e0	-0.1695323
124	0x3e468004	0.19384772
125	0x3eb055e8	0.3444054
126	0xbe3f3ce2	-0.18675569
127	0xbcbead93	-0.023276126
128	0x3ea12faa	0.31481677
129	0x3eb1a372	0.3469501
130	0xbe51bcb8	-0.20482147
131	0xbb8224ab	-0.0039716563
132	0x3eb3f7ee	0.35150093
133	0x3cb665f6	0.022265416
134	0xbe6f39c4	-0.2336188
135	0xbd0664c6	-0.03281095
136	0x3e7bb82e	0.24581978
137	0xbc84a2a3	-0.016190832
138	0x3d972252	0.07379593
139	0x3e7498d3	0.23886423
140	0xbea5d069	-0.32385567
141	0xbe9cb29b	-0.30605015
142	0x3d93be4d	0.07214031
143	0x3c5f219f	0.013618856
144	0xbe90be6b	-0.28270277
145	0xbe9c5703	-0.30535135
146	0x3b119507	0.0022214071
147	0xbc2b109c	-0.010440972
148	0x3d4b5359	0.049640033
149	0x3dae658e	0.08515464
150	0xbc459518	-0.0120594725
151	0xbe0b42b5	-0.13599665
152	0x3de2910a	0.1106282
153	0x3db82be2	0.08992745
154	0xbe8c4062	-0.2739287
155	0x3e28209c	0.1641869
156	0x3d69337f	0.056933876
157	0xbd4bb907	-0.049737003
158	0xbcdb4073	-0.02676413
159	0x3e74cef0	0.23907065
160	0xbde20272	-0.11035623
161	0x3e9e2c03	0.30892953
162	0x3e8c4c7f	0.27402112
163	0x3ea5ce27	0.32383844
164	0x3bd5555d	0.0065104202
165	0xbd3e2d37	-0.04642984
166	0xbe319c1c	-0.17344707
167	0x3df00a9f	0.11720776
168	0x3d68e68d	0.056860495
169	0x3e7731c2	0.24140075
170	0xbe8f3478	-0.27969718
171	0x3e0f05e9	0.13967098
172	0x3e84c49c	0.2593125
173	0xbeaf5add	-0.3424901
174	0xbe35bccc	-0.17747802
175	0xbeacd925	-0.33759418
176	0xbe1d5fa7	-0.1536852
177	0x3e7eec2d	0.24894781
178	0xbbd51939	-0.006503251
179	0xbccc9b5c	-0.024976425
180	0x3d476839	0.04868338
181	0xbd75348e	-0.059864573
182	0xbe77154f	-0.24129222
183	0xbdc80129	-0.09765846
184	0x3d0a44d4	0.033757046
185	0x3e7802e6	0.24219856
186	0xbeb56b45	-0.35433403
187	0xbceaa9e0	-0.028645456
188	0x3e2507b8	0.16116226
189	0x3d8e783a	0.06956525
190	0x3e7e2517	0.24818836
191	0xbe06a254	-0.13147861
192	0xbeb2a594	-0.3489195
193	0xbdfcfc7f	-0.12352847
194	0x3e8a000f	0.2695317
195	0x3dbb3783	0.091414474
196	0xbe55acf7	-0.20866762
197	0xbe65b06d	-0.22430582
198	0xbe208bc7	-0.15678321
199	0xbd98bace	-0.07457505
200	0xbe1b255b	-0.15150969
201	0xbe0723ae	-0.13197204
202	0xbea6ed0f	-0.32602736
203	0x3e062b10	0.13102365
204	0x3e552a5f	0.20816945
205	0xbe956110	-0.29175615
206	0x3e6aac2a	0.22917238
207	0xbe074bfb	-0.13212578
208	0x3e810b73	0.25204048
209	0xbe0321d2	-0.1280587
210	0xbeafa598	-0.34306026
211	0xbe35fa0f	-0.17771171
212	0x3dc4161c	0.095745295
213	0x3dab3691	0.08360017
214	0xbe2241d1	-0.1584542
215	0xbe81386e	-0.25238365
216	0xbe94df14	-0.29076445
217	0x3e1c74d3	0.1527894
218	0xbe8fd729	-0.28093842
219	0x3bcfcb09	0.0063413423
220	0xbe443387	-0.19160281
221	0xbe605337	-0.21906744
222	0xbb90e06c	-0.0044212844
223	0xbd8d990a	-0.069139555
224	0xbd1a788b	-0.037712615
225	0x3e555efc	0.20837015
226	0xbde32487	-0.110909514
227	0xbd8ddc33	-0.06926765
228	0xbe403896	-0.18771586
229	0x3eb79b4f	0.3586068
230	0x3e69c292	0.22828129
231	0xbe43b594	-0.19112235
232	0x3eb5d5c8	0.35514665
233	0x3c67a639	0.014138752
234	0x3dac1249	0.08401925
235	0xbe17d583	-0.14827542
236	0x3d29c662	0.04144896
237	0x3e053d82	0.13011745
238	0x3dc70eea	0.097196415
239	0x3e233214	0.15937072
240	0xbe53475c	-0.2063269
241	0xbe28cf5e	-0.16485354
242	0x3cd6f410	0.026239425
243	0xbd82ccd6	-0.063867256
244	0x3e4b47f1	0.19851662
245	0xbba32e71	-0.0049799015
246	0x3db42bbe	0.08797406
247	0xbd90b1bd	-0.07065151
248	0xbe894eac	-0.26817834
249	0xbdca2bf3	-0.09871664
250	0x3e79d5c0	0.24397945
251	0xbd8e5946	-0.06950621
252	0xbdea6d4f	-0.1144663
253	0xbe653f12	-0.2238734
254	0x3d9a9556	0.07548015
255	0xbdaafd23	-0.08349063

conv1.bias f4 [32]
0	0x3ce8c4ec	0.028414212
1	0x3da6585f	0.08122324
2	0x3e2bbced	0.16771288
3	0xbdbe0cff	-0.092798226
4	0xbdd52231	-0.10406912
5	0x3e89e676	0.2693364
6	0xbd47b91a	-0.04876051
7	0xbe5d4eae	-0.21612045
8	0xbe8fe936	-0.28107613
9	0x3da522e4	0.080632955
10	0xbd7376b7	-0.059439387
11	0xbe95901c	-0.2921151
12	0x3e51a846	0.20474347
13	0xbea80b5f	-0.32821175
14	0xbdd8b2e2	-0.10580994
15	0x3e5c7229	0.21527924
16	0x3e0ad7cf	0.13558887
17	0xbea378f0	-0.31928205
18	0xbd90976c	-0.070601314
19	0x3e012f88	0.12615788
20	0x3dd16b7c	0.10225579
21	0x3dcf3b78	0.10118765
22	0x3d6830c0	0.056687117
23	0x3e949321	0.290185
24	0xbdb834c8	-0.08994442
25	0xbe805a68	-0.25068974
26	0x3cad9a0b	0.021191617
27	0x3c6738e6	0.014112687
28	0x3d8b4a1c	0.068012446
29	0x3e29ea3e	0.16593263
30	0x3e6752ba	0.22590151
31	0x3e1afcc7	0.1513549

conv2.weight f4 [32, 32, 3, 3]
0	0x3d4dbb5b	0.050227504
1	0x3c0f37f2	0.008741366
2	0xbd1f5a1b	-0.03890429
3	0x3ca1d07b	0.019752732
4	0x3d255414	0.040363386
5	0x397a7eb8	0.00023889064
6	0x3d21c4cc	0.03949432
7	0x3be83600	0.0070865154
8	0x3cbaabde	0.02278703
9	0x3c25e1ee	0.010124667
10	0x3ca21d88	0.019789472
11	0x3d056845	0.032570142
12	0x3d3d501f	0.046218988
13	0x3afce86a	0.0019295339
14	0x3cbdf932	0.023190115
15	0x3d308a64	0.04310073
16	0xbcb38d90	-0.021918088
17	0xbcc006de	-0.023440775
18	0x3d0e110f	0.034684237
19	0xbd36b1be	-0.044603102
20	0xbc2df975	-0.010618557
21	0xbc6530bd	-0.013988671
22	0x3d08b66a	0.03337709
23	0x3d342766	0.043982886
24	0x3ae2a40a	0.0017291319
25	0xbc126eb1	-0.008937524
26	0x3a2bf855	0.00065601367
27	0xbd286051	-0.04110748
28	0x3c3339b9	0.010939055
29	0x3d27cc1c	0.04096614
30	0xbd741edc	-0.059599742
31	0x3c755c8c	0.014975678
32	0xbcfd2cbb	-0.030905118
33	0x3d1ed27d	0.038774956
34	0xbd7de4a2	-0.06198562
35	0x3d6a5ac7	0.05721548
36	0xbc04586b	-0.008077721
37	0xb9f6b3d0	-0.00047054747
38	0x3cd8928b	0.026437065
39	0x3d382088	0.0449529
40	0xbcbd4a3c	-0.023106687
41	0xbb7c83b2	-0.0038530645
42	0xbd23e53e	-0.040013544
43	0xbd3564ff	-0.04428577
44	0x3ced13db	0.028940132
45	0x3d37bcb6	0.044857703
46	0xbb9e398b	-0.004828637
47	0xbceac696	-0.028659146
48	0xbbaee9ab	-0.005337914
49	0xbcb6d527	-0.022318436
50	0x3cf6c0a1	0.03012115
51	0x3d55aa6c	0.05216448
52	0xbbd13c50	-0.0063853636
53	0xbd3e7245	-0.046495695
54	0x3d2197a3	0.039451253
55	0xbd211e28	-0.0393354
56	0x3ce154cf	0.02750626
57	0xbc0f7b35	-0.008757402
58	0x3d275ffe	0.04086303
59	0xbc7f8704	-0.015596155
60	0x3cd05ffe	0.025436398
61	0xbd042871	-0.03226513
62	0x3cf89bac	0.030347668
63	0xbb70d3a8	-0.003674725
64	0xbd0c4eac	-0.034254715
65	0xbd9f5778	-0.07780355
66	0xbc88e9c9	-0.01671304
67	0x3c370230	0.011169955
68	0x3c923678	0.017848238
69	0xbd60ea09	-0.054910693
70	0xbcc187e4	-0.023624368
71	0xbd4d47c1	-0.050117258
72	0xbd42f027	-0.04759231
73	0x3c511b6a	0.012762884
74	0xbd262d3a	-0.040570475
75	0xbd09291e	-0.033486478
76	0xbd55fc70	-0.052242696
77	0xbd5441cf	-0.051820572
78	0xbd02e23c	-0.031954035
79	0x3d6d7093	0.057968687
80	0x3d4ecf7f	0.050490852
81	0xbd3acf78	-0.045608014
82	0xbd115c05	-0.035488147
83	0x3ccc3c36	0.024931055
84	0xbd4d5afb	-0.050135594
85	0x3cc8c62c	0.024508558
86	0x3d2e1c08	0.0425072
87	0x3a5b233a	0.0008359436
88	0xbc68a416	-0.014199277
89	0x3ca29ab6	0.019849163
90	0xbcbf320b	-0.023339292
91	0x3d6940b8	0.056946486
92	0x3d33745a	0.043812133
93	0xbd11fe8d	-0.03564315
94	0x3d77232b	0.060336273
95	0x3d507706	0.05089476
96	0x38777c22	5.9004997e-05
97	0xbc925c4f	-0.017866282
98	0xbd29b8b9	-0.04143593
99	0x3c93e82f	0.01805505
100	0x3d4224a8	0.04739824
101	0x3d067a48	0.03283146
102	0xbd1ae320	-0.03781426
103	0x3ab53cae	0.0013827288
104	0x3cc8cc59	0.024511503
105	0xbce998f0	-0.02851531
106	0xbd20edf8	-0.039289445
107	0x3d5dc265	0.054140467
108	0xbcee2cad	-0.029074037
109	0x3cb2fc0e	0.021848705
110	0x3c410422	0.0117807705
111	0x3d42f5c7	0.047597673
112	0x3d0f8d4f	0.03504687
113	0x3c74eec0	0.014949501
114	0x3b5776f5	0.00328773
115	0xbcb27015	-0.02178196
116	0x3d0d306f	0.034470018
117	0xbd367c5c	-0.044552192
118	0xbd79e7c7	-0.061012056
119	0x3d35dfdf	0.044402953
120	0xbc4161fb	-0.0118031455
121	0xbc5f6d3b	-0.013636882
122	0x3d1440b3	0.036194514
123	0xbc9c0efb	-0.019050112
124	0xbced1bb5	-0.028943876
125	0xbcd037b4	-0.025417186
126	0xbc4f2edf	-0.012645452
127	0x3bacb0c5	0.005270096
128	0x3d709db5	0.05874415
129	0xbd3ebda8	-0.04656759
130	0x3d644075	0.055725534
131	0xbceda08b	-0.029007217
132	0x3d50a8c6	0.050942205
133	0x3bd990d6	0.0066395802
134	0xbd2736b3	-0.04082365
135	0xbd7da34f	-0.06192332
136	0x3d38ec3c	0.045147166
137	0xbd0a235f	-0.03372514
138	0x3cec4fee	0.028846707
139	0xbc6bb71c	-0.014386918
140	0x3ca51975	0.02015374
141	0x3d0ecb89	0.034862075
142	0xbd4cc243	-0.04998995
143	0x3ceb6773	0.028735852
144	0xb9c340c3	-0.0003724155
145	0x3d400d48	0.046887666
146	0x3ce168ad	0.027515734
147	0x3c7cc83f	0.015428602
148	0x3d936c1e	0.07198356
149	0x3cc2184d	0.023693228
150	0xbd2d561e	-0.042318456
151	0x3d834f68	0.0641163
152	0xbd1daffe	-0.038497917
153	0xbcac9c98	-0.021070763
154	0xbd00dc01	-0.031459812
155	0xbcc71a7d	-0.024304623
156	0x3cd053bd	0.025430555
157	0xbaa82b73	-0.0012830332
158	0x3d43e4a2	0.047825463
159	0xbd14a937	-0.03629419
160	0xbd4d1f9f	-0.050078984
161	0x3d524aac	0.051340744
162	0xbca45118	-0.0200582
163	0xbd7cd21d	-0.061723817
164	0xbd064bf2	-0.03278727
165	0xbd452584	-0.04813148
166	0xbd1f9595	-0.038961012
167	0x3c497d1d	0.012297896
168	0x3c180f02	0.009280922
169	0xbd125c81	-0.03573275
170	0x3cbea559	0.023272203
171	0x3d5bf468	0.05369988
172	0x3d2e9de4	0.042631045
173	0xbd6c4f7e	-0.057692997
174	0x3cb55389	0.02213456
175	0x3bbc8fac	0.0057544317
176	0x3c0c1aaf	0.008551284
177	0x3c41a437	0.011818937
178	0xbd370769	-0.0446848
179	0xbce32ad8	-0.02773039
180	0xbd0ef6ca	-0.034903325
181	0xbd47de23	-0.04879583
182	0xbd2ce691	-0.042212073
183	0x3a9cbaa1	0.0011957475
184	0xbce9e71c	-0.028552584
185	0xbcada5fb	-0.02119731
186	0xbd03311b	-0.032029252
187	0x3d15408b	0.036438506
188	0x3d2114ef	0.039326604
189	0xbd59797c	-0.053094372
190	0x3cc3c8e3	0.023899501
191	0xbc9fa7a7	-0.019489123
192	0x3c9bacb6	0.019003253
193	0xbc9ab1f3	-0.01888368
194	0x3bad1916	0.0052825315
195	0xbd4bae46	-0.049726747
196	0x3c124dc4	0.008929674
197	0xbca12172	-0.019669268
198	0x3d4e12c8	0.05031088
199	0x3d360009	0.044433627
200	0x3d85bc81	0.06530095
201	0x3d58ed9a	0.05296097
202	0x3c5c965c	0.013463583
203	0x3cbc9dee	0.023024525
204	0x3d674c68	0.05646935
205	0x3d3d6c49	0.046245847
206	0xbc6f0f0a	-0.014590988
207	0xbd53a127	-0.05166736
208	0x3d3924c9	0.045201097
209	0x3d7d1864	0.06179084
210	0xbd314056	-0.043274246
211	0x3cbd2938	0.023090944
212	0x3d342a54	0.04398568
213	0xbd14f5e6	-0.03636732
214	0x3d01f99a	0.03173218
215	0xbcac0882	-0.02100015
216	0x3c86d271	0.016457768
217	0x3d66d0ef	0.0563516
218	0x3bd0325b	0.006353659
219	0xbd0abac9	-0.03386954
220	0xbd19a5ee	-0.03751176
221	0x3d277524	0.0408832
222	0x3d2462fc	0.04013346
223	0x3c28c572	0.010300981
224	0x3d35c7ec	0.044380113
225	0x3cee204a	0.029068131
226	0x3d3e2e4d	0.046430875
227	0x3c293b40	0.010329068
228	0xbcf0460b	-0.029330274
229	0xbd3c8a69	-0.046030436
230	0x3d3479e1	0.044061545
231	0xbcda944f	-0.026682047
232	0x3c8c448d	0.017122531
233	0xbd42d898	-0.04756984
234	0xbd501386	-0.05079987
235	0x3d597c28	0.05309692
236	0xbd06aa75	-0.032877404
237	0x3bea80ed	0.0071564824
238	0xbd2b2e6c	-0.04179232
239	0xbcefc30f	-0.029267816
240	0x3d4f3e14	0.05059631
241	0xbd46b535	-0.048512656
242	0x3cc2b9d5	0.023770252
243	0x3c4447ae	0.01197998
244	0xbd812734	-0.063063055
245	0xbcd22479	-0.025652157
246	0x3d42df16	0.047576033
247	0xbd155eb7	-0.03646728
248	0xbd19b3af	-0.037524875
249	0x3c9cb179	0.019127594
250	0xbc75467d	-0.014970419
251	0x3c58c8cd	0.013231468
252	0xbb654026	-0.0034980862
253	0xbcaad118	-0.020851657
254	0x3b39ace2	0.0028331806
255	0xbc3a5424	-0.0113726

conv2.bias f4 [32]
0	0xbd273605	-0.040823
1	0xbd5b57cf	-0.053550538
2	0xbcbf0226	-0.023316454
3	0xbc702985	-0.0146583365
4	0x3cf59b23	0.029981202
5	0x3ccc755d	0.024958307
6	0x3d318492	0.04333932
7	0xbd20212e	-0.039094143
8	0xbd4bd388	-0.04976228
9	0x3c258f86	0.010105019
10	0x3b48f5fa	0.0030664192
11	0xbd261323	-0.040545594
12	0xbd7d2444	-0.061802164
13	0x3d310169	0.043214235
14	0x3d6cdcfb	0.05782793
15	0x3c80579c	0.015666775
16	0x3ce04932	0.027378652
17	0xbd1d20b1	-0.038361255
18	0x39d07d35	0.00039766138
19	0x3d7d3ccc	0.06182556
20	0xbcbf08e8	-0.023319677
21	0x3d3e5444	0.04646708
22	0xbd035764	-0.032065764
23	0xbcda8350	-0.026673943
24	0xbc1230ea	-0.008922795
25	0x3d13a991	0.036050383
26	0xbcb05ed7	-0.021529598
27	0x3d109d77	0.03530642
28	0x38d70b67	0.00010254123
29	0xbd7cbfe2	-0.06170643
30	0x3d04850d	0.03235345
31	0xbcdafe32	-0.026732538

conv3.weight f4 [32, 32, 3, 3]
0	0x3cbd68fc	0.02312135
1	0x3d57508f	0.05256706
2	0x3d1a7179	0.037705872
3	0x3d17f0d6	0.037094913
4	0x3cd7e64b	0.02635493
5	0xbd9ba041	-0.075989254
6	0x3bf20b2f	0.007386587
7	0xbd0167c2	-0.03159309
8	0xbd6b72ae	-0.057482414
9	0xbd98b299	-0.0745594
10	0x3ce0d96e	0.027447429
11	0xbcd20be7	-0.025640441
12	0xbc9f69e3	-0.01945967
13	0xbca4128d	-0.020028377
14	0x3d951c7b	0.07280823
15	0x3bc9be63	0.006156729
16	0xbcbc8cba	-0.023016322
17	0x3d39c26e	0.04535144
18	0xbbfd1cd7	-0.0077243852
19	0xbc9831f2	-0.018578503
20	0xbd768775	-0.060187776
21	0xbd040f24	-0.032241
22	0x3c10a1a1	0.008827598
23	0xbd9d9032	-0.07693519
24	0xbda66067	-0.08123856
25	0xbd66ec54	-0.056377724
26	0xbd7deb74	-0.061992124
27	0x3d1e0934	0.038582996
28	0xbd3909d2	-0.04517538
29	0x3caac21a	0.020844508
30	0xbc0f0241	-0.008728565
31	0xbba25c12	-0.0049548233
32	0x3c584316	0.013199588
33	0x3d70b2bd	0.058764208
34	0xbd17c322	-0.037051328
35	0x3d084660	0.03327024
36	0xbce46e6a	-0.02788468
37	0xbd67bace	-0.056574635
38	0xbdbe1720	-0.092817545
39	0xbd44a6e7	-0.048010733
40	0x3ccd6710	0.025073558
41	0xbdc3e725	-0.09565572
42	0x3caf395f	0.021389661
43	0xbd705cac	-0.05868213
44	0xbdd74b72	-0.10512437
45	0xbd932ca6	-0.071862504
46	0x3cdfaa96	0.027303021
47	0x3b7b56b9	0.0038351251
48	0x3c8ffa98	0.017575547
49	0x3d55d05c	0.05220066
50	0x3db27017	0.08712786
51	0x3d5e4b7c	0.054271206
52	0x3d99b113	0.07504477
53	0x3cbb6ae3	0.022878116
54	0xbd4d403f	-0.050110098
55	0xbb8f5f8d	-0.004375404
56	0xbc6c0acc	-0.014406871
57	0xbd6ba96b	-0.057534616
58	0x3d8a3665	0.06748656
59	0x3d41d46c	0.047321722
60	0xbd350bfa	-0.044200875
61	0xbd5f2791	-0.054481093
62	0x3d3c0d9e	0.045911424
63	0x3dad4911	0.08461202
64	0x3d5f522e	0.054521732
65	0x3c4f2ce4	0.01264498
66	0xbc078a04	-0.008272652
67	0xbd5732d2	-0.0525387
68	0xbda7757a	-0.08176704
69	0x3d47d1ff	0.048784252
70	0xbd9d83d9	-0.076911636
71	0xbc45d05c	-0.0120736025
72	0x3c0664f4	0.00820278
73	0x3c312b4b	0.0108135445
74	0xbc0499a3	-0.0080932705
75	0x3d379261	0.044817332
76	0xbccce7cb	-0.025012871
77	0xbcffab34	-0.031209566
78	0x3d57653f	0.05258679
79	0x3d13febb	0.0361316
80	0xbcefc02e	-0.029266443
81	0xbd04b0fd	-0.03239535
82	0xbc4513ae	-0.012028618
83	0x3d6ad27c	0.05732964
84	0x3b4ae168	0.0030957107
85	0x3c1fa3e3	0.0097436635
86	0x3dbb60af	0.091493
87	0x3d672f66	0.056441687
88	0x3d18379c	0.03716241
89	0x3d77ec82	0.060528286
90	0x3d242859	0.04007754
91	0x3d99f305	0.075170554
92	0x3d1f8d44	0.03895308
93	0x3d85aa42	0.06526615
94	0xbd12bd14	-0.03582485
95	0xbd850d2d	-0.06496654
96	0xbcf43efb	-0.029815188
97	0x3c7954e7	0.015217996
98	0xbd3f9d7a	-0.04678104
99	0xbcfa1f08	-0.030532375
100	0xbd7b202d	-0.061309982
101	0x3cbdf7c6	0.023189437
102	0xbd18a5cf	-0.037267502
103	0xbc0201e5	-0.007935022
104	0x3cf055ce	0.02933779
105	0xbce71bfd	-0.028211588
106	0xbc7d889c	-0.015474465
107	0x3d9b43bd	0.075812794
108	0x3d5ed23b	0.05439971
109	0xbd3399f2	-0.043847986
110	0x3dc30441	0.09522296
111	0xbc1392f4	-0.009007204
112	0x3c5422e6	0.012947774
113	0x3d089688	0.033346683
114	0xbb8110ab	-0.0039387546
115	0x3cf12d67	0.029440595
116	0x3cccd1a5	0.02500231
117	0x3cf1e8e8	0.029530004
118	0x3cb74cbd	0.022375459
119	0xbd5f54e3	-0.054524314
120	0xbd704465	-0.058658976
121	0x3d8e27da	0.06941195
122	0x3d4ca7a6	0.04996457
123	0xbbe7badf	-0.0070718373
124	0x3ce5bc5b	0.028043916
125	0x3d4acbc8	0.049510747
126	0x3bab670a	0.005230789
127	0x3cddb438	0.027063474
128	0xbd8ffeda	-0.07031031
129	0x3d2a3b86	0.041560672
130	0x3c999e98	0.018752381
131	0xbd6d8f4a	-0.05799798
132	0xbbf0e133	-0.0073510646
133	0x3a4572a6	0.00075320376
134	0xbd7710e4	-0.060318843
135	0x3adb8ded	0.0016750671
136	0x3d24e6ef	0.040259298
137	0xbd8acba4	-0.067771226
138	0x3ceaa278	0.028641924
139	0x3b12b057	0.0022382939
140	0xbdfe70fc	-0.12423894
141	0x3ba35f0f	0.004985697
142	0xbdddf72b	-0.10838159
143	0xbd0182f2	-0.03161902
144	0x3c21b13a	0.009868914
145	0x3d9acaad	0.075581886
146	0xbcc10fd2	-0.023567114
147	0x39fa3764	0.00047724985
148	0x3d1614e6	0.036641024
149	0xbdc6ce9d	-0.09707377
150	0x3b8be1b1	0.004268848
151	0x3d110825	0.035408158
152	0xbd9d3391	-0.07675851
153	0xbd2f5da3	-0.04281391
154	0xbd824560	-0.063608885
155	0xbc35556a	-0.011067728
156	0xbd06978a	-0.032859363
157	0x3ca79bfb	0.02046012
158	0xbd13e298	-0.03610477
159	0x3d08ea01	0.03342629
160	0x3c60dfd4	0.01372524
161	0xbcb80a1a	-0.022465754
162	0xbc8d4952	-0.017246876
163	0x3ce8bb4b	0.02840962
164	0xbd816fe1	-0.06320167
165	0x3d27b5f8	0.040945023
166	0xbd114c50	-0.035473168
167	0xbccd634e	-0.025071766
168	0xbd4d999e	-0.05019533
169	0xbd8e173e	-0.06938027
170	0xbc05f9de	-0.008177249
171	0x3d244645	0.040106077
172	0xbca9b722	-0.020717207
173	0xbd839d75	-0.06426517
174	0x3d576982	0.052590854
175	0xbdc32b69	-0.09529764
176	0xbda0e8d0	-0.078569055
177	0xbb9ad6d6	-0.0047253175
178	0x3c8c35b6	0.017115455
179	0xbdd70796	-0.10499494
180	0x3d5c2344	0.05374457
181	0x3c19f910	0.00939776
182	0x3d3965cf	0.045263108
183	0x3d1806b6	0.037115775
184	0x3bd8acf1	0.006612413
185	0xbcf28bd1	-0.029607685
186	0xbd30e666	-0.043188475
187	0xbd1c51e4	-0.038164034
188	0xbd251bad	-0.040309597
189	0x3d3653ad	0.044513393
190	0xbd1b9aa9	-0.037989292
191	0xbd8750d2	-0.06607212
192	0xbd5eecc2	-0.05442501
193	0xbd9e4cd8	-0.077295005
194	0xbdac233b	-0.08405157
195	0xbd6657eb	-0.05623619
196	0xbdb0eb6d	-0.08638654
197	0xbde85a29	-0.11345322
198	0xbc09c49a	-0.00840869
199	0xbcebf990	-0.028805524
200	0x3d11a242	0.03555513
201	0x3d106fdb	0.035262924
202	0x3d00ce48	0.031446725
203	0xbd892106	-0.06695752
204	0x3af4fd6c	0.0018691248
205	0xbd839d41	-0.06426478
206	0xbd585291	-0.052813116
207	0x3d8db0cb	0.06918486
208	0xb9f45620	-0.00046603475
209	0x3d3a5961	0.045495395
210	0x3ae1952b	0.0017210593
211	0x3b958a84	0.0045636315
212	0xbd49c4bb	-0.049259882
213	0x3cc865ed	0.024462664
214	0x3cbe68f3	0.023243403
215	0xbce6040b	-0.0280781
216	0x3d9134a4	0.070901185
217	0x3d5bba54	0.053644493
218	0x3c2781c8	0.010223813
219	0x3c723380	0.014782786
220	0x3c85c7c4	0.016330607
221	0xbc7ba550	-0.015359238
222	0x3c3196b1	0.01083915
223	0x3c9ead17	0.019369645
224	0xbd8365bc	-0.06415889
225	0xbd0e8c01	-0.034801487
226	0xbcc776ec	-0.024348699
227	0xbc22d1b4	-0.009937692
228	0x3ca6b191	0.020348342
229	0x3af690e9	0.0018811497
230	0x3bcba8d5	0.0062151947
231	0xbcdba92d	-0.026814068
232	0x3d18fa29	0.037347946
233	0xbd9f3151	-0.07773078
234	0xbd7b36e3	-0.06133164
235	0x3c5a57d6	0.013326606
236	0xbcaa384d	-0.0207788
237	0xbb87b26a	-0.0041411417
238	0x3d712dbd	0.05888151
239	0x3c62b097	0.013836048
240	0xbcd24f56	-0.025672596
241	0x3bf57ef8	0.0074919425
242	0xbc1031f1	-0.008800969
243	0x3da0246b	0.07819446
244	0x3c88af38	0.016685113
245	0x3c5d2de9	0.013499715
246	0x3c94e3b9	0.018174993
247	0xbd0b7913	-0.034051012
248	0xbdb8e400	-0.090278625
249	0x3d38aff2	0.04508967
250	0xbd32a405	-0.043613452
251	0xbd7796eb	-0.06044666
252	0x3ca70a85	0.020390758
253	0x3a68f62f	0.0008886782
254	0x3d1a1b7d	0.03762387
255	0x3d589fa4	0.05288662

conv3.bias f4 [32]
0	0x3cee8f8a	0.02912118
1	0x3c9c6308	0.01909019
2	0xbd0fc069	-0.035095606
3	0xbd137ce1	-0.036007766
4	0xbb5c9b0d	-0.0033661753
5	0xbd407397	-0.046985235
6	0x3b171f7b	0.0023059535
7	0xbc25f6fe	-0.010129688
8	0xbcf120d9	-0.029434608
9	0x3d1961c3	0.03744675
10	0xbb0753c8	-0.0020649303
11	0xbd277142	-0.040879495
12	0x3adc9440	0.001682885
13	0x3d83db0e	0.06438266
14	0xbd169fcf	-0.0367735
15	0xbc7ad1e0	-0.015308827
16	0x3d6787c6	0.056525968
17	0xbd79528e	-0.060869746
18	0xbb22ab3f	-0.002482131
19	0xbd4d5e63	-0.050138842
20	0x3c8c2927	0.017109467
21	0x3cc3b96e	0.02389213
22	0xbd8b9d40	-0.068171024
23	0xbb01aa73	-0.0019785434
24	0x3d8569bd	0.065143086
25	0xbd0bf4e0	-0.034169078
26	0xbd2f185c	-0.04274784
27	0xbbaeb364	-0.0053314436
28	0x3a85b40a	0.001020075
29	0xbd18088d	-0.03711753
30	0x3cde4522	0.027132574
31	0x3c83e77c	0.016101591

conv4.weight f4 [8, 32, 3, 3]
0	0xbd5309e1	-0.051523093
1	0xbc8980af	-0.016784994
2	0x3dc5180d	0.09623728
3	0xbcff2044	-0.031143315
4	0xbd1fa48b	-0.03897528
5	0xbc66ee0b	-0.01409484
6	0xbd35f655	-0.044424374
7	0xbd853a00	-0.06505203
8	0xbcabb47e	-0.020960089
9	0x3d5769e3	0.052591216
10	0xbd45182c	-0.048118755
11	0xbdc95c4e	-0.09832059
12	0x3d5f0527	0.054448273
13	0x3c9b1652	0.018931542
14	0xbd24de76	-0.040251218
15	0xbc546a0c	-0.012964737
16	0x3da9f3e1	0.08298469
17	0x3d281a80	0.041040897
18	0x3dea0a9b	0.11427804
19	0x3da57b8f	0.080802076
20	0xbd3a0a40	-0.04541993
21	0x3d36ff5e	0.04467713
22	0x3dc955b4	0.098308
23	0x3c27a50a	0.0102322195
24	0xbc5faaca	-0.013651559
25	0xbd08f766	-0.033439063
26	0xbbf0ae90	-0.007345028
27	0xbc8cbecd	-0.017180825
28	0xbd1b673a	-0.03794024
29	0xbd934108	-0.07190138
30	0x3d8f7326	0.07004385
31	0x3cde4acd	0.027135277
32	0xbca738bb	-0.020412793
33	0xbc40858f	-0.011750593
34	0xbc68fd15	-0.014220496
35	0x3c48b352	0.012249785
36	0x3d172ab5	0.036905963
37	0x3cac6144	0.021042474
38	0xbd8fade7	-0.07015591
39	0x3daa3325	0.08310536
40	0x3cecb0a9	0.028892832
41	0xbda45d26	-0.08025579
42	0xbc99c97d	-0.018772835
43	0xbc2ff043	-0.010738435
44	0xbd6b34a0	-0.057423234
45	0x3d2519f0	0.04030794
46	0x3b72e96f	0.0037065407
47	0xbe0c9278	-0.13727748
48	0x3d785d33	0.060635757
49	0x3d639568	0.055562407
50	0xbd52125f	-0.05128705
51	0x3be9d543	0.0071360185
52	0xbc63c7ca	-0.013902614
53	0x3d5d09a0	0.053964257
54	0xbd66c4b2	-0.056339927
55	0x3ce17a02	0.027523998
56	0x3dcdde8f	0.10052215
57	0xbdb13bde	-0.08653997
58	0xbbbd3b38	-0.0057748817
59	0x3b805141	0.003915936
60	0x3ce72ae5	0.028218696
61	0xbc830659	-0.015994238
62	0x3cf7ec03	0.030263906
63	0xbd8604c8	-0.06543881
64	0xbd42b4af	-0.047535595
65	0x3d0b24d5	0.033970673
66	0xbce92767	-0.028461171
67	0xbd25b4d5	-0.040455658
68	0xbc6aebb5	-0.0143384235
69	0x3cce2d69	0.025168138
70	0xbd40bf40	-0.04705739
71	0x3d062f95	0.03276022
72	0x3dc78612	0.09742369
73	0x3c635252	0.013874607
74	0xbdbb2ae8	-0.09139043
75	0x3d2d45b3	0.0423028
76	0x3d8fac71	0.070153125
77	0x3a3b38b6	0.00071419345
78	0x3cacd9cd	0.02109995
79	0x3c7b5849	0.015340873
80	0x3c1228de	0.008920876
81	0x3cbe65bd	0.023241872
82	0xbd96abca	-0.07356985
83	0xbddeb009	-0.1087342
84	0x3d92251f	0.071359865
85	0x3c56df1d	0.013114718
86	0xbd0708bc	-0.032967314
87	0x3c0b5fc4	0.008506719
88	0xbc5e3752	-0.013562994
89	0x3c8e8513	0.01739744
90	0xbdb4f549	-0.08835847
91	0x3d127eb1	0.035765354
92	0x3d6400a7	0.055664685
93	0xbd9c1e12	-0.07622923
94	0xbcc01af1	-0.023450347
95	0x3ce80b77	0.02832578
96	0x3d55d234	0.05220242
97	0xbd9127b8	-0.07087654
98	0xbc6cf6f9	-0.01446318
99	0xbc1d6904	-0.009607557
100	0xbd15264e	-0.036413483
101	0xbe01696a	-0.12637869
102	0x3d1f72ae	0.038927726
103	0x3cf10fc1	0.029426457
104	0xbb8146f1	-0.0039452245
105	0xbd79cc0a	-0.060985602
106	0x3d1ba085	0.03799488
107	0xbd54edf1	-0.05198473
108	0xbc1e077d	-0.00964534
109	0xbd3ac123	-0.045594346
110	0x3c1b57ae	0.009481354
111	0x39f14352	0.0004601726
112	0xbd88ccd7	-0.06679695
113	0xbc248870	-0.010042295
114	0x3d30eecf	0.043196496
115	0xbc4b07b6	-0.012391975
116	0xbda89d94	-0.08233181
117	0xbe00c087	-0.12573443
118	0x3d5543b1	0.05206651
119	0x3d9527ba	0.07282968
120	0xbdd907c6	-0.10597186
121	0xbdb908a4	-0.09034851
122	0xbc0daa56	-0.008646568
123	0xbbc9321d	-0.006140007
124	0xbb25447c	-0.0025217822
125	0xbdac6273	-0.08417215
126	0xbce48f6e	-0.027900424
127	0xbdc28098	-0.094971836
128	0xbc21a7b8	-0.009866647
129	0xbdba4410	-0.09095013
130	0xbd2709cc	-0.040780827
131	0xbcd4a471	-0.025957318
132	0x3bb2e6f9	0.005459663
133	0x3d050261	0.03247297
134	0x3d64ff44	0.055907503
135	0xbdb786b0	-0.089612365
136	0x3d8aafa6	0.067717835
137	0x3c9a1c67	0.018812371
138	0xbdd49a21	-0.1038096
139	0x3cddb95a	0.027065922
140	0x3cf2d386	0.029641878
141	0x3bb25023	0.005441682
142	0x3c228c60	0.009921163
143	0xbc9f91de	-0.019478735
144	0x3db915e7	0.09037381
145	0xbcd626f4	-0.026141621
146	0xbe05026a	-0.12989202
147	0xbc39f774	-0.011350501
148	0xbd2f24d0	-0.042759717
149	0xbda849fc	-0.082172364
150	0x3d691693	0.056906294
151	0x3ca2abfc	0.0198574
152	0x3d7e2b72	0.06205315
153	0xbd017ce9	-0.031613264
154	0xbc88d853	-0.016704714
155	0x3dbe3322	0.092870966
156	0xbdb5e84b	-0.08882197
157	0xbda5c8c6	-0.08094935
158	0xbd88c731	-0.06678618
159	0x3d5fa5e2	0.054601558
160	0x3ce640f9	0.028107153
161	0xbd29db60	-0.041468978
162	0xbc9707b7	-0.018436296
163	0x3a780176	0.0009460667
164	0x3c7f884a	0.015596459
165	0xbc7b8fab	-0.015354077
166	0xbd277874	-0.040886357
167	0x3d2ba323	0.041903626
168	0xbd4f71c4	-0.050645605
169	0xbc74582d	-0.014913601
170	0x3d153b6d	0.036433626
171	0x3e00c1a1	0.12573864
172	0x3d85da08	0.06535727
173	0xbd912124	-0.07086399
174	0x3c50667f	0.0127197495
175	0x3db70a22	0.089374796
176	0xbd9fb01a	-0.077972606
177	0x3cd1bfac	0.025604092
178	0xbbf9a699	-0.007618737
179	0x3b63f157	0.00347813
180	0x3daf39d9	0.085559554
181	0xbd5bfdc8	-0.05370882
182	0xbd8f759b	-0.07004853
183	0x3d852e07	0.0650292
184	0x3bfbda41	0.00768593
185	0xbc7aa4fa	-0.015298123
186	0x3b77d296	0.0037814728
187	0x3c2a216b	0.010383944
188	0xbd896576	-0.06708805
189	0xbc7ede65	-0.015555953
190	0x3dc2279d	0.09480212
191	0x3e0c12d3	0.13679056
192	0xbda0827d	-0.07837389
193	0xbd0e3a29	-0.034723435
194	0x3d9644b9	0.073373266
195	0xbcd13059	-0.02553575
196	0x3aee87bd	0.0018198412
197	0x3d687d40	0.056760073
198	0x3db978b5	0.09056226
199	0xbc904e05	-0.017615328
200	0xbc8bcdad	-0.017065847
201	0x3d9410ae	0.07229744
202	0x3bf182ea	0.0073703425
203	0xbaa66e4a	-0.0012697664
204	0x3be774d3	0.007063487
205	0x3d9986a4	0.07496384
206	0x3cff5d66	0.031172466
207	0x3cb8f700	0.022578716
208	0xbd67019c	-0.05639802
209	0xbdf25be2	-0.118339315
210	0x3c19974c	0.009374451
211	0xbbff7553	-0.0077959686
212	0xbdd30b7d	-0.103049256
213	0x3d1bdd4e	0.03805285
214	0x3cd6c945	0.02621902
215	0x3d592468	0.053013235
216	0x3c2dbdc0	0.010604322
217	0xbd9abac3	-0.07555153
218	0xbdc9d550	-0.09855139
219	0x3d8518e3	0.064988874
220	0x3d2702d3	0.040774178
221	0xbd4c714d	-0.04991274
222	0x3d3f91db	0.046769958
223	0x3ccec17d	0.025238747
224	0x3cad02f7	0.021119578
225	0x3bcf0588	0.006317798
226	0x3d64736a	0.05577413
227	0x3dcb35ed	0.09922395
228	0xbc8b6969	-0.017018037
229	0xbbbabfda	-0.00569914
230	0x3d48f817	0.049064722
231	0x3bb7586f	0.005595259
232	0xbd8e461e	-0.069469675
233	0xbc93b3c1	-0.01803005
234	0xbd7d59b8	-0.06185314
235	0x3cd6b460	0.026209056
236	0x3de3194a	0.11088808
237	0x3b8003c1	0.0039066975
238	0xbce4fa0e	-0.027951267
239	0x3d4cecf3	0.05003066
240	0xbc7a22a3	-0.015267047
241	0x3c014cdf	0.007891863
242	0x3b9327d1	0.0044908305
243	0xbbb5a9e1	-0.005543933
244	0x3d0c0d76	0.034192525
245	0x3ddb87fc	0.10719296
246	0xbbca7f0e	-0.006179697
247	0x3b9f202f	0.0048561315
248	0x3d8dfe8e	0.06933318
249	0x3c068002	0.00820923
250	0xbd023a6c	-0.031793997
251	0xbdbe1c92	-0.09282793
252	0xbc5c91bd	-0.013462481
253	0x3d59efd2	0.053207226
254	0x3ddd643f	0.10810136
255	0xbd9324b6	-0.071847364

conv4.bias f4 [8]
0	0x3c874753	0.016513502
1	0xbc348bd4	-0.011019666
2	0xbd122923	-0.035683762
3	0x3bca4759	0.006173056
4	0xbc0a5de1	-0.008445234
5	0x3d133653	0.03594048
6	0x3b9a1b07	0.004702929
7	0xbc316681	-0.0108276615

fc1.weight f4 [128, 1152]
0	0xbd6da2a1	-0.058016423
1	0x3c6428e1	0.013925762
2	0xbd3aa841	-0.045570616
3	0x3cf5e448	0.03001608
4	0xbe0b3fb8	-0.13598526
5	0x3ca9a35f	0.020707784
6	0xbd18a769	-0.03726903
7	0xbd910026	-0.070801064
8	0x3d516975	0.051125962
9	0xbd1bb211	-0.038011614
10	0x3c03eec3	0.008052531
11	0xbc955c9c	-0.018232636
12	0xbd6c8553	-0.057744335
13	0x3ce80c44	0.028326161
14	0xbb92c8d4	-0.004479507
15	0xbc9392f9	-0.018014418
16	0xbd056943	-0.03257109
17	0xbe0c0fb2	-0.13677862
18	0x3bb86dec	0.005628338
19	0xbba17844	-0.004927667
20	0x3cba552f	0.022745697
21	0xbd1a0a94	-0.037607744
22	0xbd3028c1	-0.043007616
23	0xbc61dd97	-0.013785741
24	0x3bbdb1ec	0.005789032
25	0x3cc8754f	0.02447
26	0xbc4fe945	-0.012689893
27	0xbd429103	-0.047501575
28	0xbc960d8c	-0.018317007
29	0xbded090e	-0.11573993
30	0x3c60b88d	0.013715875
31	0x3ddd0a51	0.10792983
32	0xbcddc909	-0.0270734
33	0xbdba94fa	-0.09110446
34	0x3cd1e4d8	0.025621817
35	0xbd196556	-0.037450157
36	0xbd9dd1d8	-0.0770604
37	0x3de0db2e	0.10979305
38	0x3c359fa4	0.011085425
39	0x3ca55388	0.020181432
40	0xbc2dc028	-0.010604896
41	0xbd4aefc5	-0.04954507
42	0x3d1d3768	0.038382918
43	0x3c8c8065	0.017151067
44	0xbb7220c6	-0.0036945804
45	0xbd671291	-0.05641419
46	0xbca43daf	-0.020048944
47	0x3bebddb9	0.0071980623
48	0xbda38f37	-0.079863004
49	0x3aa06216	0.0012236263
50	0x3c449f41	0.01200086
51	0xbd18b353	-0.037280392
52	0x3d9aa3e8	0.07550794
53	0x3be55f3d	0.0069998787
54	0x3abc6e41	0.001437612
55	0xba917491	-0.0011097362
56	0x3c890ca2	0.016729657
57	0xbcc17a6c	-0.023617946
58	0xbd2bdd1f	-0.041958924
59	0x3ca67d88	0.02032353
60	0xbc8ce04f	-0.017196802
61	0x3bb70db1	0.005586349
62	0x3cf96dc7	0.030447854
63	0xbdb017e1	-0.085983045
64	0x3d2fc577	0.042912927
65	0xbbd41211	-0.0064718802
66	0x3d7a3a9e	0.061091058
67	0xbd7311ce	-0.05934315
68	0x3d031f53	0.032012295
69	0xbd9a94c6	-0.075479075
70	0x3ad2395a	0.0016038821
71	0x3bfd5a16	0.0077316863
72	0x3d006a3d	0.031351317
73	0xbdaa5e82	-0.08318807
74	0xbd029227	-0.031877663
75	0xbc4c7485	-0.012478952
76	0x3d80b7b1	0.06285036
77	0x3d1dee2f	0.038557228
78	0xbda6c433	-0.08142891
79	0x3dbe7f0b	0.09301575
80	0xbc39fc97	-0.011351726
81	0xbd10c83c	-0.03534721
82	0x3d44164e	0.047872834
83	0xbd9cc693	-0.076550625
84	0xbb001919	-0.001954621
85	0xbd39607a	-0.045258023
86	0xbd810936	-0.06300585
87	0xbd9a467b	-0.07532974
88	0x3c04c130	0.0081027
89	0x3d66ba54	0.05633004
90	0xbc7d09b5	-0.015444209
91	0x3d80e111	0.06292928
92	0x3a403917	0.0007332726
93	0x3d21a6e6	0.039465807
94	0x3c07fd63	0.008300158
95	0xbd0ecbfd	-0.034862507
96	0x3cc2ea95	0.023793498
97	0x3c1377ab	0.009000699
98	0xbdde965d	-0.10868523
99	0x3cac9efb	0.021071902
100	0xbd051d2f	-0.032498535
101	0x3c54dd6f	0.012992247
102	0x3de5f9f6	0.11229317
103	0x3cf6bb95	0.030118743
104	0xbd028a22	-0.031870015
105	0xbcc302eb	-0.023805102
106	0x3d86c0ed	0.065797664
107	0xbdd7304f	-0.10507261
108	0xbd0da611	-0.0345822
109	0xbd42c2ed	-0.047549177
110	0xbc2e5394	-0.010640044
111	0xbbd8d283	-0.006616892
112	0x3d82d88b	0.063889585
113	0xbd1592bd	-0.036516894
114	0x3d1bc8ca	0.038033284
115	0x3dbbed08	0.091760695
116	0xbd3d50d5	-0.046219666
117	0xbc81f6eb	-0.01586481
118	0x3e09f991	0.13474108
119	0xbd7873ed	-0.06065743
120	0xbd236a2e	-0.039896183
121	0x3c916050	0.01774612
122	0xbd392212	-0.045198508
123	0xbd0c8a55	-0.03431161
124	0x3d09473e	0.033515207
125	0xbd4227d9	-0.047401283
126	0x3cf89d1c	0.030348353
127	0xbc2b4daf	-0.010455533
128	0xbd9a5b1b	-0.07536908
129	0xbd3884b2	-0.045048423
130	0xbd6f9c70	-0.0584988
131	0x3d1dbe4c	0.03851156
132	0x3c7b86a0	0.015351921
133	0xbd5b0e2f	-0.053480323
134	0x3d05d3d3	0.032672714
135	0x3d8ca481	0.06867314
136	0xbaceac9b	-0.0015767993
137	0x3c5a2a14	0.013315696
138	0xbc5f40e3	-0.01362631
139	0x3c640f0d	0.013919604
140	0xbd9aa844	-0.07551625
141	0xbdaf9f77	-0.085753374
142	0xbda9dc8b	-0.08294018
143	0x3ac88fa9	0.0015301603
144	0xbd153f4c	-0.036437318
145	0x3ca94ef9	0.02066754
146	0xbd13ed9b	-0.03611527
147	0xbb5933a8	-0.0033142362
148	0xbd68d495	-0.05684336
149	0x3c1c2328	0.009529866
150	0xbd61f084	-0.055161014
151	0x3cfdac86	0.030966055
152	0x3b19b025	0.0023450938
153	0xbcc00147	-0.02343811
154	0x3d70c4cb	0.058781426
155	0x3c6d9249	0.014500209
156	0xbd9ee9d2	-0.077594414
157	0xbce94e6e	-0.028479781
158	0xbd0d3ae3	-0.034479987
159	0xbbc3d0ab	-0.005975803
160	0xbd6bdaf0	-0.057581842
161	0xbdaed32f	-0.08536374
162	0x3d083bd4	0.03326018
163	0x3d2f9c5c	0.042873725
164	0x3beece28	0.0072877593
165	0xbc851675	-0.01624606
166	0x3cd40e51	0.025885733
167	0x3d73ca6c	0.059519216
168	0x3c014d86	0.007892018
169	0x3c669503	0.014073613
170	0x3cb7082b	0.022342762
171	0xbdb4f387	-0.08835512
172	0xbd5866a2	-0.052832253
173	0xbd9ea57f	-0.077464096
174	0x3c597783	0.013273123
175	0x3dc8f1dd	0.09811757
176	0xbd656565	-0.0560049
177	0xbc853ee4	-0.01626534
178	0x3d665966	0.0562376
179	0x3bf03e50	0.007331647
180	0xbd2e3187	-0.0425277
181	0xbc334be7	-0.0109433895
182	0xbd620897	-0.055183973
183	0xbd7ab20c	-0.061204955
184	0xbd7a666c	-0.061132833
185	0xbd5e4aa5	-0.054270405
186	0x3b13c8a4	0.002255001
187	0x3ba3c5cb	0.004997944
188	0xbd53bac9	-0.051691804
189	0xbc73c4c5	-0.0148784565
190	0x3d340a5e	0.0439552
191	0x3d5917f8	0.053001374
192	0xbd0a970e	-0.033835463
193	0xbd592e9b	-0.053022962
194	0xbd39496d	-0.04523604
195	0xbdf20f0e	-0.11819278
196	0xbd002951	-0.031289402
197	0xbc28d136	-0.010303786
198	0x3b835fdf	0.0040092315
199	0xbd1aa578	-0.03775546
200	0xbcce7ab1	-0.025204988
201	0xbbe687f8	-0.0070352517
202	0xbcb34f6f	-0.021888463
203	0x3d2a35d3	0.041555237
204	0x3cc1d7f8	0.023662552
205	0xbd0c5cd4	-0.034268215
206	0xbcb12250	-0.021622807
207	0xbdad443f	-0.084602825
208	0x3d8f6088	0.07000834
209	0xbcddc96f	-0.02707359
210	0x38e499a4	0.00010900505
211	0xbd965430	-0.07340276
212	0xbd713636	-0.05888959
213	0x3cb263da	0.021776129
214	0x3dea11ed	0.114292
215	0x3d7c1428	0.06154266
216	0xbd44329e	-0.047899835
217	0xbda54dcc	-0.08071479
218	0xbd4ee674	-0.050512746
219	0x3b85f3ac	0.004087886
220	0x3d553b8d	0.052058745
221	0xbd295302	-0.041338928
222	0xbd801896	-0.062546894
223	0x3d576c1b	0.05259333
224	0xbc75888c	-0.014986169
225	0x3c81160a	0.01575758
226	0x3ce3719e	0.027764138
227	0xbcb096f7	-0.02155636
228	0xbd126b33	-0.035746764
229	0xbd13f78e	-0.03612476
230	0xbda61e5a	-0.08111258
231	0xbb577302	-0.0032874946
232	0xbd57131d	-0.052508462
233	0x3dae9a3e	0.08525513
234	0x3c3e09de	0.011599032
235	0x3cb3dfe1	0.02195734
236	0xbd6992e5	-0.057024855
237	0x3cafafea	0.021446187
238	0xbcd21bf3	-0.025648093
239	0xbb9132fe	-0.0044311276
240	0x3cd56530	0.026049227
241	0xbcdcfc31	-0.026975723
242	0xbd0629f9	-0.032754872
243	0xbc6e7450	-0.014554098
244	0x3ccd0de0	0.02503103
245	0x3d496357	0.049167003
246	0x3c56cc3b	0.013110216
247	0x3d4d24f7	0.05008408
248	0xbd103023	-0.035202157
249	0x3c064603	0.008195403
250	0x3d04d799	0.032432172
251	0xbd5c87c0	-0.0538404
252	0xbdad315d	-0.08456681
253	0x3bd3291b	0.006444109
254	0xbd1dc891	-0.038521353
255	0xbc1d6df8	-0.009608738

fc1.bias f4 [128]
0	0x3d2489c4	0.040170446
1	0xbd26ee00	-0.04075432
2	0x3cb72c2d	0.022359932
3	0xbd44abaf	-0.048015293
4	0xbd2dc51d	-0.04242431
5	0x3b1d8c2b	0.0024039845
6	0x3ba836d3	0.0051334887
7	0x3c1b7eac	0.00949065
8	0xba9d8610	-0.0012018103
9	0x3d702876	0.058632337
10	0xbd560d3b	-0.05225871
11	0x3d187680	0.037222385
12	0xbbedf063	-0.0072613223
13	0xbc4152a8	-0.011799492
14	0x3cb82ed6	0.02248327
15	0xbd04d4d1	-0.03242952
16	0x3c24fa43	0.010069433
17	0x3d4aeed1	0.04954416
18	0x3bcc1535	0.006228114
19	0xbcddc3c1	-0.027070882
20	0xbbee69a3	-0.0072757765
21	0x391e3414	0.00015087455
22	0xbcec3902	-0.028835777
23	0x3c9b46a1	0.018954577
24	0xbbe4a522	-0.006977693
25	0x3d172c67	0.03690758
26	0xbc576bbc	-0.0131482445
27	0xbbb41d85	-0.005496683
28	0x3c7b67c7	0.015344567
29	0x3cb372d3	0.021905338
30	0xbb821e06	-0.003970864
31	0xbc4f58d9	-0.01265546
32	0x3c039928	0.008032121
33	0x3d5114fa	0.051045395
34	0x3d01b4ed	0.031666685
35	0xbba2e98c	-0.0049716886
36	0xbd195f37	-0.03744432
37	0xbcec9c4b	-0.02888312
38	0xbccc1af9	-0.024915205
39	0xbd028301	-0.031863216
40	0x3cc85bc7	0.024457825
41	0x3d111f0f	0.03543001
42	0xbbda8fbb	-0.006669966
43	0xbd28c2b2	-0.0412013
44	0xbcec3865	-0.028835485
45	0xbd0ec1d9	-0.034852836
46	0x3b09edf1	0.0021046365
47	0xbc1c5c91	-0.009543554
48	0x3d243400	0.040088654
49	0xbc920e2b	-0.017829021
50	0x3d086608	0.03330043
51	0x3d715e7b	0.058927994
52	0x3a9bc7eb	0.0011885142
53	0x3d0fd446	0.03511455
54	0x3bb9b7e8	0.0056676753
55	0xbd62c6eb	-0.055365484
56	0x3a96f241	0.0011516289
57	0xbd911ad0	-0.07085192
58	0x3d3c6df7	0.04600331
59	0x3c4702e4	0.012146685
60	0xbd218457	-0.03943285
61	0xbccea9f8	-0.025227532
62	0xbc9855b7	-0.01859556
63	0x3b7de243	0.0038739599
64	0x3cb331b4	0.021874286
65	0x3c52414b	0.01283295
66	0xbd0cf694	-0.034414843
67	0xbc3465af	-0.011010571
68	0xbd4f3d69	-0.050595675
69	0x3d095588	0.033528835
70	0x3b2fe494	0.0026839124
71	0x3d27c1a6	0.040956162
72	0xbd05e68b	-0.032690566
73	0x3cae34b3	0.021265363
74	0xbd23b928	-0.0399715
75	0x3d095955	0.03353246
76	0x3cdaaee7	0.026694728
77	0x3d3d7e18	0.04626283
78	0x3c13c604	0.009019379
79	0xbd4d98b9	-0.050194476
80	0x3c64087e	0.01391804
81	0xbc910a57	-0.017705126
82	0x3b0e0424	0.0021669948
83	0xbc3889f2	-0.0112633575
84	0x3a1f71cf	0.00060823275
85	0xbd7ed1ca	-0.06221179
86	0xbd130d35	-0.035901267
87	0xbc965c7e	-0.01835465
88	0x3c2c4499	0.010514402
89	0xbcf7b964	-0.030239768
90	0x3c47d138	0.012195878
91	0x3cefa946	0.02925552
92	0x3cd6a154	0.026199974
93	0x3cc77130	0.024345964
94	0xbc84895e	-0.016178783
95	0x3ce0bbaf	0.027433245
96	0x3cc3a64e	0.023883011
97	0x3d3a65aa	0.04550711
98	0xbd09d254	-0.03364785
99	0xbce9566e	-0.028483596
100	0xbd29f6c3	-0.041495096
101	0x3d4f35df	0.050588485
102	0xbd31b47b	-0.04338501
103	0xbc4f6d49	-0.012660333
104	0x3c77d326	0.015126025
105	0xbca9c190	-0.02072218
106	0x3cd961a2	0.026535813
107	0xbd2007c1	-0.039069895
108	0x3d0c148b	0.03419928
109	0x3a3b57b7	0.00071465544
110	0x3d397475	0.045277078
111	0xbd62caad	-0.055369068
112	0xbd024b9b	-0.031810384
113	0xbd45e24c	-0.048311517
114	0xbcdd9976	-0.027050715
115	0x3baf7f3c	0.0053557437
116	0x3cc9d7c5	0.02463902
117	0xbcf779ac	-0.030209385
118	0x3c484336	0.012223056
119	0x3d51c7dc	0.05121599
120	0x3cc4b9c5	0.024014363
121	0xbd4192ea	-0.04725925
122	0x3cbc1442	0.022958878
123	0xbd0708d5	-0.032967407
124	0xbcfc71d0	-0.030815989
125	0xbcec67a1	-0.028858008
126	0xbd3826ff	-0.044959065
127	0x3d37f0ca	0.04490737

fc2.weight f4 [5, 128]
0	0x3b05ed5c	0.0020435667
1	0xbd78fe52	-0.060789414
2	0xbe23c3e8	-0.15992701
3	0x3d80e7b9	0.062941976
4	0xbe6e9453	-0.23298769
5	0x3d809cb8	0.06279892
6	0xbc37eeaa	-0.011226336
7	0x3deeae36	0.11654322
8	0xbdde8185	-0.10864548
9	0x3dc18749	0.09449632
10	0x3cb019b1	0.021496626
11	0xbc94c007	-0.018157972
12	0x3db266f8	0.08711046
13	0xbdc42775	-0.09577838
14	0xbd99297b	-0.07478615
15	0xbd170528	-0.03687015
16	0xbd7ccd82	-0.061719425
17	0xbdfec73e	-0.12440346
18	0xbe3f0956	-0.18655905
19	0x3d6396b0	0.05556363
20	0xbe29df36	-0.16589054
21	0xbe1839f0	-0.14865851
22	0xbc031ab2	-0.00800197
23	0x3e185b81	0.14878656
24	0xbe390710	-0.180691
25	0xbbcf37b6	-0.00632378
26	0x3d706ece	0.05869942
27	0x3de086ae	0.10963188
28	0x3cb4b80f	0.022060422
29	0xbe8de455	-0.27713266
30	0x3e1933bf	0.14961146
31	0xbd133154	-0.035935715
32	0xbe86b672	-0.2631107
33	0xbd10a1a4	-0.035310403
34	0x3e00581f	0.12533616
35	0xbbfc2fc7	-0.007696125
36	0xbe2216b5	-0.15828975
37	0x3ced26cf	0.02894917
38	0xbcb74775	-0.02237294
39	0x3d87a044	0.06622365
40	0xbe351ae0	-0.17686033
41	0xbd103000	-0.035202026
42	0xbdeb7cb5	-0.11498395
43	0xbd899767	-0.06718331
44	0x3cb67a00	0.022274971
45	0xbd1d8cbb	-0.03846429
46	0xbd076329	-0.03305355
47	0x3df1bcf9	0.11803622
48	0x3d46464a	0.048406877
49	0xbe08c253	-0.13355379
50	0xbd8e4016	-0.06945817
51	0xbc1ea051	-0.009681777
52	0x3ce61fea	0.02809139
53	0xbde5e6d6	-0.11225669
54	0x3d794abe	0.060862295
55	0x3d5f29d6	0.054483257
56	0x3def8e3e	0.116970524
57	0xbd8e2f39	-0.06942601
58	0xbdf1d18c	-0.11807546
59	0x3e0c4ef7	0.13701998
60	0xbde873b7	-0.11350196
61	0xbe06ac63	-0.13151698
62	0xbd87f69c	-0.06638834
63	0x3d02a412	0.03189475
64	0xbe19ff46	-0.15038785
65	0x3d676cef	0.05650037
66	0xbe853948	-0.26020265
67	0xbd92bcfe	-0.07164954
68	0xbe09f933	-0.13473968
69	0xbe04b7cb	-0.12960736
70	0x3d93f3b6	0.072242185
71	0xbe08a3fe	-0.13343808
72	0xbe343866	-0.1759964
73	0xbd14e2d6	-0.03634914
74	0xbe00b77d	-0.12569995
75	0xbe3ac61d	-0.18239637
76	0x3dd7a3cd	0.105292894
77	0xbb1d0ea1	-0.0023965018
78	0x3dd2bc97	0.10289877
79	0xbbbb2412	-0.005711087
80	0xbe394985	-0.18094452
81	0xbda123ab	-0.07868131
82	0x3e24b14e	0.16083261
83	0xbe1202e4	-0.14258915
84	0xbdaa78ca	-0.0832382
85	0x3deb4a5f	0.114887945
86	0x3d21eedf	0.039534446
87	0xbd89f1c7	-0.067355685
88	0xbe0d7855	-0.13815434
89	0xbd8f6a49	-0.07002694
90	0xbe266229	-0.16248383
91	0x3dde1969	0.1084469
92	0xbd859199	-0.06521911
93	0xbe8c5d93	-0.2741514
94	0xbcd82e16	-0.026389163
95	0xbe2aac39	-0.1666726
96	0xbe0bbc52	-0.13646057
97	0xbe15eeb2	-0.14641836
98	0x3dfe3f96	0.12414472
99	0xbdaf1ba1	-0.08550192
100	0xbe8baba1	-0.2727938
101	0xbc604433	-0.013688135
102	0x3c1e9f65	0.009681557
103	0xbdcce3b7	-0.10004371
104	0x3e18e77b	0.14932053
105	0xbe5bbc5d	-0.21458574
106	0x3d8c3ef7	0.06847947
107	0xbd2e056f	-0.04248565
108	0xbe05ff79	-0.13085736
109	0xbe1fda63	-0.15610652
110	0x3ddb832e	0.1071838
111	0xbdf0bf4c	-0.11755237
112	0xbde15824	-0.110031396
113	0x3bd0c173	0.006370717
114	0x3d5fa54e	0.054601006
115	0x3dcef3ca	0.10105093
116	0x3e09c2a0	0.1345315
117	0xbe124ca6	-0.14287052
118	0xba9b80b8	-0.0011863923
119	0x3ce59847	0.028026713
120	0x3d8cd228	0.068760216
121	0xbe337675	-0.17525657
122	0xbe30ba62	-0.172586
123	0x3d584978	0.05280444
124	0xbd7393b3	-0.05946703
125	0x3d89ffec	0.06738266
126	0xbe0e8900	-0.13919449
127	0x3df8a9f1	0.12141789
128	0x3d097bf8	0.03356549
129	0xbd55338b	-0.05205111
130	0xbd56ff3a	-0.052489497
131	0xbd900625	-0.07032422
132	0xbd4df926	-0.050286435
133	0x3d99ed24	0.07515934
134	0x3ae21f6c	0.0017251796
135	0x3dd20d7e	0.1025648
136	0x3d85f6e6	0.06541233
137	0x3ddfffca	0.1093746
138	0x3c7bb8cc	0.015363883
139	0x3d262547	0.040562894
140	0xbd3e3855	-0.04644044
141	0xbd071169	-0.032975588
142	0x3bbb2b91	0.0057119806
143	0x3db35ace	0.08757554
144	0x3d59efe3	0.05320729
145	0x3e0bde54	0.1365903
146	0x3cc0b658	0.023524448
147	0xbdfeaeaa	-0.12435658
148	0xbe34e57b	-0.17665665
149	0xbdb68472	-0.08911981
150	0xbe07edcc	-0.13274306
151	0xbd8849c6	-0.06654696
152	0x3cf4bf8b	0.029876491
153	0x3def5118	0.11685389
154	0xbe30f23d	-0.17279907
155	0x3bd79932	0.0065795416
156	0x3d989d30	0.07451856
157	0x3da0ba9f	0.07848095
158	0x3d3fa67a	0.046789624
159	0x3d117214	0.035509184
160	0x3d4465c4	0.047948614
161	0x3c9fbd6c	0.019499503
162	0xbc3eca5b	-0.011644925
163	0x3d8fdfea	0.0702513
164	0x3c4e754a	0.012601206
165	0xbd928211	-0.071537144
166	0x3e08eeef	0.13372396
167	0xbcc5cd25	-0.024145672
168	0x3dec52d1	0.115392335
169	0x3dac7444	0.084206134
170	0x3dadaff0	0.08480823
171	0x3dd91e4d	0.106014825
172	0xbe006db6	-0.12541851
173	0xbd8cb3cf	-0.06870233
174	0x3d3c3dc7	0.045957353
175	0xbdda0552	-0.10645546
176	0x3dd677d7	0.104720764
177	0xbdfc974d	-0.12333546
178	0x3db4d632	0.08829917
179	0x3dbecc73	0.09316339
180	0xbe2d9b57	-0.16953789
181	0x3cb316f5	0.021861533
182	0x3e0b53f3	0.13606243
183	0xbdff2746	-0.12458663
184	0xbe086bc7	-0.13322364
185	0x3d6d5c7f	0.05794954
186	0x3d8b0024	0.06787136
187	0xbd338300	-0.043826103
188	0xbdd482ff	-0.10376548
189	0x3cef5d01	0.029219152
190	0x3de5a882	0.11213781
191	0xbe265670	-0.16243911
192	0x3da599bc	0.08085963
193	0x3ca3f529	0.020014362
194	0xbce33d53	-0.027739203
195	0xbe07029c	-0.13184589
196	0xbcc22801	-0.023700716
197	0x3dc70e94	0.097195774
198	0xbdcd781e	-0.10032676
199	0x3daf55bd	0.08561275
200	0xbdfbf655	-0.123028435
201	0xbdca7ccf	-0.098870866
202	0x3b737d2d	0.0037153468
203	0x3d7b3fd8	0.061340183
204	0x3dc93d24	0.09826115
205	0x3da38cfd	0.07985876
206	0xbd132172	-0.035920568
207	0xbc81b9f6	-0.015835743
208	0xbd9aa365	-0.07550696
209	0x3cb4042d	0.021974647
210	0x3bd12c09	0.006383423
211	0x3dfd784f	0.12376463
212	0xbd11a4f0	-0.035557687
213	0xbd4084e9	-0.047001753
214	0xbdc89094	-0.09793201
215	0x3deba79f	0.115065806
216	0x3c5e95c0	0.013585508
217	0x3d5b4f4b	0.053542417
218	0xbd34fc74	-0.04418607
219	0xbd9a45ac	-0.0753282
220	0xbd67c25e	-0.056581847
221	0x3ddf593b	0.10905691
222	0x3de2b8a2	0.11070372
223	0x3b028e42	0.0019921218
224	0xbd42feac	-0.047606155
225	0x3d8ce1c6	0.06879
226	0xbde1c62a	-0.11024125
227	0x3dd7c97c	0.10536477
228	0xbce541fa	-0.027985562
229	0x3d99cffe	0.075103745
230	0xbb6cdddf	-0.0036142988
231	0xbd5e6143	-0.054291975
232	0xbd9e67e8	-0.07734662
233	0x3d672259	0.05642924
234	0xbcdd1236	-0.026986223
235	0x3bc35bcd	0.0059618712
236	0x3d6a11e2	0.05714596
237	0x3dc6f7df	0.097152464
238	0xbb6fd7cb	-0.0036597128
239	0xbdf0ba21	-0.11754251
240	0xbdd02010	-0.101623654
241	0x3d83217e	0.064028725
242	0xbde692dd	-0.11258481
243	0x3d5e5dae	0.05428856
244	0x3dd50879	0.10402007
245	0xbd3444c0	-0.044010878
246	0x3c49aebd	0.012309727
247	0x3d8d31d6	0.06894271
248	0xbd87c948	-0.06630188
249	0x3d0f29de	0.034952037
250	0x3d91b644	0.071148425
251	0xbdc30d0f	-0.09523975
252	0x3d4ac2b6	0.049502097
253	0xbdaa6ce9	-0.08321554
254	0xbda62357	-0.08112209
255	0x3cd474c1	0.025934579

fc2.bias f4 [5]
0	0x3db4f54e	0.08835851
1	0x3d14785e	0.036247604
2	0x3dc0dab3	0.094167136
3	0xbd70cb85	-0.05878784
4	0x3d1d3369	0.038379107
