Trained_Weights/STRIDE 5/v5.2_10th.pth (torch, 681682 bytes, 12 tensors)

conv1.weight f4 [32, 1, 3, 3]
0	0xbe3ec859	-0.18631114
1	0xbda2577d	-0.07926843
2	0xbdca84a6	-0.09888582
3	0x3e177f9c	0.14794773
4	0x3e9eec3a	0.31039602
5	0xbdfeefed	-0.12448106
6	0xbe1b2165	-0.15149458
7	0xbe8f1ed2	-0.27953202
8	0xbc2600d0	-0.01013203
9	0xbe0c327a	-0.1369113
10	0x3d32c169	0.04364148
11	0xbe3b7f27	-0.18310224
12	0xbea6dce1	-0.32590392
13	0xbe8c955a	-0.27457696
14	0xbea3d84b	-0.32000956
15	0xbe4f43a9	-0.20240654
16	0x3e4ac388	0.19801152
17	0xbe2cca64	-0.16874081
18	0x3cf795d3	0.030222809
19	0x3de350d0	0.11099398
20	0xbe2e6a64	-0.17032772
21	0xbe71e9cb	-0.23624341
22	0x3dd814ff	0.1055088
23	0xbea93460	-0.3304777
24	0xbe7f669a	-0.24941483
25	0xbd8ca552	-0.0686747
26	0x3e3a62a3	0.1820169
27	0x3e2e37ac	0.17013425
28	0x3e27c64c	0.16384238
29	0xbdc03db5	-0.0938677
30	0xbd7f5baf	-0.062343296
31	0x3de9cf3e	0.114164814
32	0x3dd485fe	0.103771195
33	0x3ead476c	0.33843553
34	0x3e67d65f	0.2264037
35	0xbde3c54b	-0.11121615
36	0x3e3a55a0	0.18196726
37	0x3da6a1a0	0.08136296
38	0xbd45ac3a	-0.04825995
39	0x3dad1484	0.08451179
40	0x3e6b39bb	0.22971241
41	0xbd8a11a9	-0.0674165
42	0x3dbb474e	0.0914446
43	0xbe6e191a	-0.23251763
44	0x3ddf6d88	0.10909563
45	0x3b1a43dc	0.0023538982
46	0xbe407178	-0.18793285
47	0xbddf086c	-0.10890278
48	0xbd019337	-0.031634536
49	0x3c256107	0.010093934
50	0x3e2c21e8	0.16809809
51	0xbde1bff6	-0.11022942
52	0xbe8ceb40	-0.27523232
53	0x3e11638d	0.14198132
54	0x3da0cc30	0.07851446
55	0x3e21cebc	0.15801519
56	0xbd0ca6d2	-0.03433878
57	0x3e9e64d5	0.30936304
58	0xbe2c77c6	-0.16842565
59	0x3e35b1a9	0.17743553
60	0xbe04c52c	-0.1296584
61	0xbe3bb017	-0.18328892
62	0x3e9089f4	0.2823025
63	0x3dda093d	0.10646293
64	0x3e591d56	0.21202597
65	0x3eaa1ea0	0.3322649
66	0x3e9eaf27	0.30993006
67	0x3d325ce5	0.043545622
68	0x3bc1e19b	0.005916787
69	0x3e618fad	0.22027464
70	0xbd96c414	-0.07361618
71	0xbe84db78	-0.2594869
72	0x3e7cd09f	0.24688958
73	0x3eca691e	0.39533323
74	0xbc4369e7	-0.011927105
75	0xbd20af25	-0.03922953
76	0xbe7d83b0	-0.24757266
77	0x3e86f840	0.26361275
78	0xbd8d67b1	-0.06904543
79	0x3ddf727e	0.109105095
80	0xbe4f688f	-0.2025473
81	0x3e251cbf	0.16124247
82	0xbdec7b4b	-0.11546954
83	0x3e77892c	0.2417342
84	0xbe46a2c2	-0.19398025
85	0xbe189489	-0.14900412
86	0x3dfe4bbd	0.1241679
87	0x3d0e2e4f	0.034712132
88	0xbea3b04d	-0.31970444
89	0xbdd53f40	-0.104124546
90	0x3ebe7414	0.37197936
91	0xbd27b764	-0.04094638
92	0x3e12cc80	0.14335823
93	0xbcb233dd	-0.021753246
94	0xbe05ca3e	-0.1306543
95	0x3e680bbe	0.2266073
96	0xbe8947f2	-0.26812702
97	0xbe2d3916	-0.16916308
98	0x3d4c6e96	0.04991015
99	0x3e22dd85	0.15904815
100	0x3dd3cfe7	0.103423886
101	0x3e366a35	0.17813952
102	0x3e4e5591	0.20149828
103	0xbe4a298b	-0.1974241
104	0x3e26ec3b	0.16301052
105	0xbcff5f88	-0.031173483
106	0x3e8ff102	0.28113562
107	0x3db9d0cd	0.09073029
108	0xbe066a37	-0.13126455
109	0x3d195037	0.037430014
110	0xbe9394c7	-0.28824446
111	0x3e5be2c6	0.21473226
112	0x3d272be0	0.040813327
113	0x3e004380	0.12525749
114	0x3e5d0b73	0.21586399
115	0xbdd47fa3	-0.10375907
116	0x3df47367	0.11936074
117	0x3dc38225	0.095463075
118	0x3c8afc8c	0.016966127
119	0xbe8f85c3	-0.2803174
120	0x3e86e021	0.26342872
121	0x3e88e2fc	0.26735675
122	0x3e1ac430	0.15113902
123	0xbe25e1e7	-0.16199456
124	0x3e4e2421	0.2013097
125	0x3eb3fea7	0.35155222
126	0xbe3b6dc2	-0.18303588
127	0xbc969b8c	-0.018384717
128	0x3ea2b087	0.31775305
129	0x3eb2e3e7	0.349395
130	0xbe4cedd8	-0.20012605
131	0xba24c2e0	-0.0006285142
132	0x3eb64a98	0.35603786
133	0x3ceffa4d	0.029294157
134	0xbe68bbe3	-0.22727923
135	0xbd99440a	-0.074836805
136	0x3e4dd160	0.20099401
137	0xbd737f31	-0.05944747
138	0x3d059fb0	0.032622993
139	0x3e46daf7	0.19419466
140	0xbebbed0f	-0.367043
141	0xbeb25657	-0.34831497
142	0x3cd6b671	0.026210042
143	0xbcff3204	-0.031151779
144	0xbe938337	-0.28811046
145	0xbe9eeb36	-0.31038827
146	0xbb0565f6	-0.0020354963
147	0xbc799f4c	-0.015235733
148	0x3d37dc8a	0.044888057
149	0x3da6b15e	0.08139299
150	0xbc8f793d	-0.017513866
151	0xbe10fa9a	-0.14158097
152	0x3dd9846c	0.106209606
153	0x3dd68f60	0.10476565
154	0xbe846ab1	-0.2586265
155	0x3e36c78e	0.17849562
156	0x3d92824d	0.07153759
157	0xbd0d1075	-0.034439523
158	0xbc4fb900	-0.012678385
159	0x3e822e8c	0.25426137
160	0xbdc12257	-0.09430378
161	0x3ea5af1a	0.32360154
162	0x3e8c3c27	0.27389643
163	0x3ea56a3f	0.32307622
164	0x3b935486	0.00449616
165	0xbd41382a	-0.047172703
166	0xbe327f7b	-0.17431442
167	0x3deb7068	0.11496049
168	0x3d678022	0.05651868
169	0x3e771006	0.24127206
170	0xbe90062f	-0.28129718
171	0x3e05db0c	0.13071841
172	0x3e801e34	0.25023043
173	0xbeb3eb96	-0.35140675
174	0xbe3eb59b	-0.18623964
175	0xbeb15fb7	-0.34643337
176	0xbe26bcda	-0.16282979
177	0x3e7694a2	0.24080136
178	0xbc76f569	-0.015073159
179	0xbd0ca86a	-0.0343403
180	0x3d2310bb	0.039810877
181	0xbd895096	-0.06704824
182	0xbe7daa87	-0.24772082
183	0xbdd8b423	-0.10581233
184	0x3cdde287	0.027085556
185	0x3e71bebe	0.23607919
186	0xbeb9cbf5	-0.3628842
187	0xbd13a1fe	-0.03604316
188	0x3e1dea29	0.15421356
189	0x3d83f2fd	0.06442831
190	0x3e794a83	0.2434483
191	0xbe0ac980	-0.13553429
192	0xbeb51d5d	-0.35373965
193	0xbe0305f8	-0.12795246
194	0x3e880b5b	0.26571164
195	0x3db0211d	0.08600066
196	0xbe5ada2a	-0.21372285
197	0xbe6a69b3	-0.22891884
198	0xbe1e8d3e	-0.15483567
199	0xbd951c51	-0.072807916
200	0xbe16b9f3	-0.14719371
201	0xbe040a14	-0.1289447
202	0xbea5c7ee	-0.32379097
203	0x3e0a726c	0.13520211
204	0x3e57eba7	0.21085988
205	0xbe94c090	-0.29053164
206	0x3e6e0399	0.2324356
207	0xbe0f5f9a	-0.14001313
208	0x3e7ac4b4	0.24489099
209	0xbe0a03c6	-0.13478002
210	0xbeb3a0ca	-0.3508361
211	0xbe3d391a	-0.18478814
212	0x3db67833	0.08909645
213	0x3d9ad533	0.07560196
214	0xbe29e4b4	-0.1659115
215	0xbe84da1a	-0.25947648
216	0xbe83ae9c	-0.25719154
217	0x3e3f5358	0.18684137
218	0xbe7c1eb9	-0.24621095
219	0x3d2a63ea	0.04159919
220	0xbe1f3995	-0.1554931
221	0xbe3bd3a6	-0.18342456
222	0x3cf7e11d	0.03025871
223	0xbd0f3817	-0.0349656
224	0xbba3c453	-0.004997769
225	0x3e6c83c0	0.23097134
226	0xbdaf6411	-0.08564008
227	0xbd41a199	-0.047273252
228	0xbe29e9dc	-0.16593117
229	0x3ec451f0	0.38343763
230	0x3e80028d	0.25001946
231	0xbe2dbc00	-0.16966248
232	0x3ec266ee	0.37969154
233	0x3d136aed	0.035990644
234	0x3d9aa4d8	0.07550973
235	0xbe21468a	-0.15749565
236	0x3d03d002	0.032180794
237	0x3dff70a3	0.124726556
238	0x3db9b68f	0.090680234
239	0x3e1bd464	0.1521774
240	0xbe58f4c1	-0.21187116
241	0xbe303359	-0.17207088
242	0x3c924c74	0.017858721
243	0xbd7a2a8d	-0.061075736
244	0x3e52a2cd	0.20569916
245	0xbbb9b526	-0.0056673465
246	0x3dafc0c5	0.0858169
247	0xbd8df8f3	-0.06932249
248	0xbe8c3021	-0.2738047
249	0xbdcf1421	-0.10111261
250	0x3e7bac30	0.24577403
251	0xbd930e0e	-0.07180415
252	0xbe066fe9	-0.13128628
253	0xbe775c2f	-0.24156259
254	0x3d66e252	0.05636818
255	0xbdd0090f	-0.10157978

conv1.bias f4 [32]
0	0x3d2a7d03	0.041623127
1	0x3dbf03e8	0.09326917
2	0x3e21abc9	0.15788187
3	0xbdcf1755	-0.10111872
4	0xbdd6e7f2	-0.10493459
5	0x3e80e121	0.2517176
6	0xbd772eff	-0.060347553
7	0xbe62ba6a	-0.22141424
8	0xbe857d0d	-0.2607197
9	0x3da113db	0.07865115
10	0xbd468af7	-0.04847237
11	0xbe963e1e	-0.29344267
12	0x3e2b2296	0.16712412
13	0xbea7d7da	-0.3278187
14	0xbdd8c486	-0.10584359
15	0x3e361fd9	0.17785586
16	0x3e0d5f58	0.13805902
17	0xbe9fa042	-0.31176955
18	0xbda0223d	-0.078190304
19	0x3dfc58b0	0.12321603
20	0x3dce7aaf	0.10081994
21	0x3dd27459	0.10276098
22	0x3d87bc5e	0.06627725
23	0x3e944c90	0.28964663
24	0xbd5b40db	-0.053528648
25	0xbe74b28d	-0.23896237
26	0x3c643e23	0.01393083
27	0x3c42d216	0.011890909
28	0x3d3a2fe6	0.045455836
29	0x3e2beadc	0.1678881
30	0x3e2f475d	0.17117067
31	0x3e217b35	0.15769656

conv2.weight f4 [32, 32, 3, 3]
0	0x3d7bf571	0.061513368
1	0x3c71a773	0.014749396
2	0xbd1f5474	-0.0388989
3	0x3ca88dd4	0.020575441
4	0x3d1f8bcd	0.038951684
5	0xbb8e753a	-0.0043474706
6	0x3d06d553	0.032918286
7	0x3b4171d6	0.0029517314
8	0x3ca98089	0.020691173
9	0x3cc1c2a7	0.023652388
10	0x3cdbd3f8	0.026834473
11	0x3cf699af	0.030102579
12	0x3d5a05e5	0.053228278
13	0x3b933356	0.0044922037
14	0x3ca34925	0.019932339
15	0x3d0f3598	0.03496322
16	0xbcef7d8a	-0.029234666
17	0xbcf93348	-0.03041996
18	0x3d1f0cc0	0.03883052
19	0xbd2af5dc	-0.041738376
20	0xbc4677ec	-0.012113553
21	0xbc6ab9d4	-0.014326531
22	0x3d0b49a8	0.03400579
23	0x3d2f4c25	0.042797226
24	0xbb8d8695	-0.004319022
25	0xbc612297	-0.013741157
26	0xbb44b5fa	-0.0030015693
27	0xbd6f4599	-0.058415983
28	0xbaedf1d0	-0.0018153731
29	0x3d2f0f7a	0.04273937
30	0xbd806582	-0.06269361
31	0x3c24db37	0.0100620305
32	0xbcd28126	-0.025696348
33	0x3d6a04f1	0.05713362
34	0xbd586620	-0.05283177
35	0x3d8b5213	0.06802764
36	0xbc888fac	-0.01667007
37	0xbc2574eb	-0.010098676
38	0x3cd01a0c	0.025403045
39	0x3d25dc58	0.04049334
40	0xbcdfb393	-0.027307307
41	0xba957dbb	-0.0011405268
42	0xbd01c930	-0.031686008
43	0xbd2890ad	-0.0411536
44	0x3d0ee10c	0.03488259
45	0x3d3f3daf	0.046689685
46	0xbb54c715	-0.0032467295
47	0xbcee9b05	-0.029126653
48	0xbbfb9e7d	-0.0076788054
49	0xbcc01bb7	-0.023450715
50	0x3ce22b00	0.027608395
51	0x3d47047a	0.048588254
52	0xbc004f36	-0.007831385
53	0xbd48d770	-0.049033582
54	0x3cccec44	0.025015004
55	0xbd441013	-0.047866892
56	0x3cde0259	0.027100729
57	0xbcaeaddf	-0.021323143
58	0x3d17b3ed	0.037036825
59	0xbc686ca6	-0.01418606
60	0x3d00f54f	0.031483945
61	0xbcd56003	-0.026046759
62	0x3d0b4606	0.034002326
63	0xbd16aa16	-0.0367833
64	0xbd8a97da	-0.06767245
65	0xbd9bc40b	-0.076057516
66	0xbd064545	-0.032780904
67	0x3aa73c2b	0.001275902
68	0x3d072525	0.03299441
69	0xbd221574	-0.03957124
70	0xbc3afdd4	-0.011413056
71	0xbcda9c3f	-0.026685832
72	0xbd525e4c	-0.05135946
73	0x3c171aba	0.009222681
74	0xbd2e0a67	-0.04249039
75	0xbd119c5d	-0.03554951
76	0xbd546ad7	-0.051859703
77	0xbd4b5b67	-0.049647715
78	0xbd017b9d	-0.031612027
79	0x3d6abf57	0.057311382
80	0x3d50c457	0.050968494
81	0xbd30d044	-0.043167368
82	0xbd19a5f5	-0.037511785
83	0x3ca9e689	0.02073981
84	0xbd5ccb0d	-0.05390458
85	0x3cd12d76	0.025534373
86	0x3d2d25cd	0.042272378
87	0xbc49ac8e	-0.012309207
88	0xbcaf97e1	-0.021434726
89	0x3c67ae73	0.014140713
90	0xbcf3419f	-0.029694377
91	0x3d50e3fe	0.05099868
92	0x3d1d2a43	0.038370382
93	0xbd3a1ce8	-0.045437723
94	0x3d6edd93	0.05831678
95	0x3d517f8d	0.051147033
96	0xbbf22656	-0.007389824
97	0xbcb4626c	-0.022019587
98	0xbd3a06f3	-0.045416784
99	0xb99bf5eb	-0.00029747127
100	0x3d238005	0.03991701
101	0x3d12774d	0.035758305
102	0xbd3090f7	-0.043107
103	0x3b0894cf	0.002084065
104	0x3cfe6412	0.031053577
105	0xbc64b94d	-0.013960195
106	0xbce08c06	-0.027410518
107	0x3d7e9df5	0.06216236
108	0xbcfdb0b1	-0.030968042
109	0x3ca833a1	0.020532431
110	0x3c5a6077	0.013328663
111	0x3d3ff391	0.046863142
112	0x3d0831b9	0.033250544
113	0x3c713126	0.014721191
114	0x3bf29589	0.00740308
115	0xbc9c5c25	-0.019086907
116	0x3d177452	0.036976166
117	0xbd5af5d0	-0.05345708
118	0xbd76f1a7	-0.06028905
119	0x3d4d9515	0.050191004
120	0xbc6b2f2e	-0.01435451
121	0xbc771789	-0.015081295
122	0x3d1d2fe7	0.03837576
123	0xba7dee55	-0.00096866983
124	0xbc837266	-0.01604576
125	0xbc8bf0b7	-0.017082555
126	0xbc9719a9	-0.018444853
127	0xbb2617cb	-0.0025343772
128	0x3d77f072	0.06053204
129	0xbd31f241	-0.043443922
130	0x3d5f65e1	0.05454052
131	0xbcd39914	-0.02582983
132	0x3d72339a	0.059131242
133	0x3c4d2fe1	0.012523622
134	0xbd0839a6	-0.033258103
135	0xbd7cfdf2	-0.06176562
136	0x3d3bdbbd	0.045863856
137	0xbd0baa4d	-0.03409796
138	0x3cda75ab	0.026667437
139	0xbc6e2319	-0.014534735
140	0x3ca91ada	0.020642687
141	0x3d0163f8	0.03158948
142	0xbd560b57	-0.05225691
143	0x3cec045d	0.028810674
144	0x3cd371bc	0.025811069
145	0x3d9d6cc4	0.07686761
146	0x3d0c587a	0.034264065
147	0x3cde05e6	0.027102422
148	0x3da5fb6f	0.08104598
149	0x3c2b2218	0.01044514
150	0xbd54abe3	-0.051921736
151	0x3d8819fc	0.06645581
152	0xbd4f4459	-0.05060229
153	0xbcb00221	-0.02148539
154	0xbcff12eb	-0.03113695
155	0xbcae5504	-0.021280773
156	0x3cedbdb1	0.029021116
157	0x3a23afd4	0.0006244157
158	0x3d4d18de	0.050072543
159	0xbced64a1	-0.028978648
160	0xbd351c7f	-0.04421663
161	0x3d5f3e74	0.05450292
162	0xbd3b59e9	-0.045740042
163	0xbdb3b76e	-0.08775221
164	0xbd1d0b9d	-0.038341153
165	0xbd77ca85	-0.060495872
166	0xbd3effcd	-0.04663067
167	0x3cc5739f	0.024102984
168	0x3c8347fb	0.016025534
169	0xbd1b6dd0	-0.037946522
170	0x3d0964e5	0.033543486
171	0x3d8836be	0.06651066
172	0x3d1ceca5	0.03831162
173	0xbd7c0046	-0.0615237
174	0x3cfdfac4	0.031003363
175	0x3b5517f1	0.003251549
176	0x3c1303bb	0.008973057
177	0x3bfbdcde	0.0076862415
178	0xbd6247c8	-0.055244237
179	0xbcf74cbc	-0.030187957
180	0xbcc543a0	-0.024080098
181	0xbcfe0695	-0.031008998
182	0xbd2d5029	-0.042312775
183	0xbbcb4f14	-0.006204495
184	0xbcdbf9d4	-0.026852526
185	0xbcf43dce	-0.029814627
186	0xbd3a512c	-0.045487568
187	0x3cfdcd9b	0.03098183
188	0x3cd6deca	0.026229281
189	0xbd32798b	-0.043572944
190	0x3cccf190	0.02501753
191	0xbcecbbde	-0.028898176
192	0x3c3bbbe2	0.011458369
193	0xbc6e560e	-0.014546884
194	0x3b65321b	0.0034972492
195	0xbd9ed064	-0.07754591
196	0xbc2fe705	-0.010736232
197	0xbd09ea4a	-0.0336707
198	0x3d957817	0.07298296
199	0x3d6f5370	0.05842918
200	0x3d89f231	0.067356475
201	0x3d873be7	0.06603222
202	0x3cae8c13	0.021307027
203	0x3c922b5c	0.017842941
204	0x3d484a41	0.04889894
205	0x3d32a0d8	0.043610424
206	0xbcc5dbbe	-0.024152633
207	0xbd2caedc	-0.042158946
208	0x3d480aa5	0.048838276
209	0x3d69b869	0.057060633
210	0xbd2f2e95	-0.042769033
211	0x3cd04057	0.025421305
212	0x3d26b2d4	0.040697888
213	0xbd5933b3	-0.05302782
214	0x3ca20f13	0.019782579
215	0xbcf55066	-0.029945564
216	0x3cbe5848	0.023235455
217	0x3d736eb6	0.059431754
218	0x3bc89eba	0.0061224373
219	0xbcf2973e	-0.029613134
220	0xbd146cbe	-0.036236517
221	0x3d22d4d1	0.03975374
222	0x3d1c9852	0.0382312
223	0x3c042f57	0.008067927
224	0x3d2e8f9f	0.042617436
225	0x3cb55a3f	0.02213776
226	0x3d406016	0.046966635
227	0x3c3c566d	0.011495215
228	0xbd0259fc	-0.031824097
229	0xbd3bf7c8	-0.0458906
230	0x3d375f1a	0.04476843
231	0xbca28228	-0.019837454
232	0x3cb4b368	0.022058204
233	0xbd3c5df8	-0.045988053
234	0xbd51ef5a	-0.051253654
235	0x3d5adb94	0.053432062
236	0xbd08e6ff	-0.03342342
237	0xb9c14279	-0.00036861355
238	0xbd36b81e	-0.04460918
239	0xbd00430b	-0.031313937
240	0x3d3de122	0.04635728
241	0xbd47d252	-0.04878456
242	0x3cba3971	0.022732468
243	0x3a51786a	0.00079906604
244	0xbdaddedf	-0.08489775
245	0xbd27a138	-0.040925235
246	0x3d4d687e	0.05014848
247	0xbd4276c0	-0.04747653
248	0xbd147edd	-0.0362538
249	0x3c20524c	0.009785246
250	0xbd163244	-0.03666903
251	0x3c48a7ec	0.012247067
252	0xbb960e7a	-0.0045793625
253	0xbc8cd4fe	-0.017191406
254	0x3c0811c4	0.008305017
255	0xbbde6226	-0.0067866025

conv2.bias f4 [32]
0	0xbd31fe71	-0.043455545
1	0xbd63f6aa	-0.05565516
2	0xbc9cef90	-0.019157201
3	0xbc80a242	-0.01570237
4	0x3d0abf0a	0.033873595
5	0x3cb1301e	0.02162939
6	0x3d06e716	0.032935224
7	0xbd0fa100	-0.03506565
8	0xbd60cf17	-0.054884996
9	0x3bc35f9f	0.0059623267
10	0x3bd5b8b8	0.0065222643
11	0xbd453f0b	-0.048155826
12	0xbd86e679	-0.06586928
13	0x3d29f7dd	0.041496146
14	0x3d8207d6	0.06349151
15	0x3c9ab59a	0.018885422
16	0x3ce4f17d	0.027947182
17	0xbd2b3d69	-0.041806612
18	0xbc4d323d	-0.012524185
19	0x3d8743ae	0.06604706
20	0xbcb52451	-0.022112044
21	0x3d3eee34	0.046613887
22	0xbd108094	-0.03527887
23	0xbc8d82f2	-0.017274354
24	0xbb84d298	-0.004053425
25	0x3d198869	0.037483606
26	0xbcc214e6	-0.023691606
27	0x3d2793d8	0.04091248
28	0xb8a1953f	-7.7048775e-05
29	0xbd83601d	-0.064148165
30	0x3d04bcd4	0.032406643
31	0xbd02aa24	-0.03190054

conv3.weight f4 [32, 32, 3, 3]
0	0x3d03ec0e	0.03220754
1	0x3d609bdf	0.05483615
2	0x3d1a969d	0.037741292
3	0x3d2b1688	0.041769534
4	0x3c846976	0.016163569
5	0xbdc57896	-0.096421406
6	0x3c130322	0.008972915
7	0xbd21624c	-0.039400384
8	0xbd9e5cf0	-0.0773257
9	0xbdcafa13	-0.09910979
10	0x3ce9eba0	0.028554738
11	0xbcfe120b	-0.031014463
12	0xbd399dcd	-0.045316506
13	0xbbf31e2b	-0.007419368
14	0x3d9e5b68	0.07732278
15	0x3b949960	0.0045348853
16	0xbcc9cc43	-0.024633532
17	0x3da7029f	0.08154797
18	0x3c103f23	0.0088041155
19	0xbc4ade37	-0.012382082
20	0xbd7abb00	-0.061213493
21	0xbc722aac	-0.014780682
22	0x3b78912b	0.0037928324
23	0xbdba6619	-0.09101505
24	0xbda96b26	-0.0827239
25	0xbd6405cd	-0.055669595
26	0xbdcfb070	-0.10141075
27	0x3cafb179	0.02144693
28	0xbd54616e	-0.05185073
29	0x3c93c656	0.01803891
30	0xbcc7b88d	-0.024379993
31	0xbb184393	-0.0023233637
32	0x3cba6367	0.022752477
33	0x3d6f7d4d	0.058469106
34	0xbd1808b1	-0.037117664
35	0x3d780a51	0.060556713
36	0xbc13a003	-0.009010318
37	0xbd5603fc	-0.052249894
38	0xbdba5ec4	-0.09100106
39	0xbce4d539	-0.027933704
40	0x3c8d7899	0.01726942
41	0xbddaeb03	-0.10689356
42	0x3ca88787	0.020572437
43	0xbd6f3a5a	-0.058405258
44	0xbe133093	-0.14373998
45	0xbdbc8d6f	-0.09206664
46	0x3cc797ba	0.024364341
47	0x3b0aa6eb	0.002115662
48	0xbb5b1f17	-0.003343528
49	0x3d78df94	0.060760096
50	0x3dcb4f0a	0.09927185
51	0x3d5988c0	0.05310893
52	0x3d957b9d	0.07298968
53	0x3d827057	0.063690834
54	0xbd91db3f	-0.07121896
55	0xbb7eb0d8	-0.0038862731
56	0xbcad331f	-0.02114254
57	0xbda71f3f	-0.081602566
58	0x3dc0b094	0.094086796
59	0x3d431fab	0.047637623
60	0xbd44dc68	-0.04806176
61	0xbd4c8318	-0.04992971
62	0x3d9770a5	0.07394532
63	0x3dd7d489	0.10538585
64	0x3d87802e	0.06616245
65	0x3c5deda4	0.0135454275
66	0x3c38979f	0.011266618
67	0xbd56bf5b	-0.052428585
68	0xbdd2b3af	-0.10288178
69	0x3d4df657	0.050283756
70	0xbd91fadc	-0.07127926
71	0xbd39f48e	-0.04539924
72	0x3cd6aace	0.026204493
73	0x3c9f6089	0.019455211
74	0xbb907def	-0.0044095437
75	0x3d7a8b0b	0.061167758
76	0xbcbe8370	-0.023256034
77	0xbd2e45e0	-0.042547107
78	0x3d68be81	0.056822304
79	0x3d25c2e4	0.040469065
80	0xbd34eb63	-0.044169795
81	0xbd5f09b5	-0.054452617
82	0xbc980804	-0.01855851
83	0x3d50fa00	0.05101967
84	0xbc68f87b	-0.014219399
85	0x3c65d43b	0.0140276505
86	0x3ddc49be	0.10756253
87	0x3d5ace82	0.053419597
88	0x3d0e849e	0.034794442
89	0x3dc0ca9a	0.09413643
90	0x3d75f578	0.06004855
91	0x3daf6a9d	0.08565257
92	0x3d36c1d7	0.044618454
93	0x3da84c86	0.08217721
94	0xbd2f120f	-0.04274183
95	0xbda52819	-0.08064289
96	0xbce6d71c	-0.028178744
97	0x3c8d5b7e	0.017255541
98	0xbda6d3e4	-0.08145884
99	0xbd441a41	-0.0478766
100	0xbd898d86	-0.067164466
101	0x3cb34359	0.0218827
102	0xbd5ec7c8	-0.054389745
103	0x3a6be904	0.00089992606
104	0x3d2bb6a0	0.04192221
105	0xbce24940	-0.027622819
106	0xbc653426	-0.013989484
107	0x3dd57beb	0.10424026
108	0x3d150215	0.03637894
109	0xbd45404e	-0.04815703
110	0x3dc2c455	0.095101036
111	0xbcdf50a3	-0.02726013
112	0x3cae9bc7	0.021314515
113	0x3d431cd0	0.0476349
114	0xbb3fcc2c	-0.0029265983
115	0x3ceb1ac6	0.02869929
116	0x3d74cfd3	0.05976851
117	0x3c90a75b	0.017657926
118	0x3d235deb	0.03988449
119	0xbd752c46	-0.059856676
120	0xbd9c00b0	-0.07617319
121	0x3da5cbad	0.08095489
122	0x3cf71bd1	0.030164631
123	0xbc4cf9fa	-0.012510771
124	0x3cdbc03f	0.026825069
125	0x3d60164c	0.054708764
126	0x3cc54c15	0.02408413
127	0x3cff3f90	0.031158239
128	0xbd8c82c6	-0.068608806
129	0x3d7b65be	0.061376326
130	0x3c01d1ac	0.007923525
131	0xbd8d7bf6	-0.06908409
132	0xbc10e2c7	-0.00884313
133	0x3a746f93	0.0009324487
134	0xbdbe98ab	-0.09306463
135	0x3ca02b01	0.019551756
136	0x3d4305f2	0.04761309
137	0xbd89ea27	-0.06734114
138	0x3d3916b2	0.04518766
139	0xbb23b06e	-0.0024976986
140	0xbe1242bb	-0.14283268
141	0x3b8fab1b	0.004384411
142	0xbdd8735c	-0.10568878
143	0xbd8e8430	-0.069588065
144	0x3cdb7e55	0.026793638
145	0x3dad75c2	0.08469726
146	0xbce9c0d2	-0.028534327
147	0x3c80eab6	0.015736919
148	0x3d2d209d	0.04226743
149	0xbdf2e550	-0.11860144
150	0x3a1aaee4	0.00059006945
151	0x3d258464	0.04040946
152	0xbdeb7b37	-0.11498111
153	0xbd649c90	-0.055813372
154	0xbd85d619	-0.065349765
155	0xbc5af476	-0.013363948
156	0xbd2a8f9b	-0.04164086
157	0x3cf3dcda	0.029768396
158	0xbcccf6ad	-0.025019968
159	0x3d080671	0.033209268
160	0x3c9ec4a9	0.019380884
161	0xbbc69a9e	-0.0060609123
162	0xbc707a7a	-0.014677638
163	0x3d0ef6b8	0.034903258
164	0xbd78ba23	-0.06072439
165	0x3d369cc3	0.044583093
166	0xbcf50589	-0.029909866
167	0xbcadc559	-0.021212267
168	0xbd3d2de1	-0.04618633
169	0xbd846ed3	-0.064664505
170	0xbb3d4020	-0.0028877333
171	0x3d81eab6	0.06343596
172	0xbcc514a3	-0.024057692
173	0xbd73ed7e	-0.059552662
174	0x3d9ab062	0.075531736
175	0xbde9d33b	-0.11417242
176	0xbdadd685	-0.08488182
177	0xbb928828	-0.0044717975
178	0x3c875f4b	0.016524931
179	0xbe15b576	-0.14620003
180	0x3d9d6620	0.076854944
181	0xbd367f63	-0.04455508
182	0x3d6a5bd9	0.0572165
183	0x3d8b6071	0.06805504
184	0xbd49d60c	-0.049276397
185	0xbb69f8dc	-0.003570131
186	0xbce87be5	-0.02837939
187	0xbd4589ab	-0.048226994
188	0xbd75e893	-0.060036253
189	0x3d86d065	0.06582717
190	0xbd1454b4	-0.03621359
191	0xbd7f6a97	-0.06235751
192	0xbd09b961	-0.033624057
193	0xbdaa06fb	-0.08302113
194	0xbdbfef56	-0.093718216
195	0xbd5eae0e	-0.05436521
196	0xbdacc362	-0.08435704
197	0xbe1ca2e7	-0.15296517
198	0x3bfa938e	0.0076469844
199	0xbcaf9730	-0.021434397
200	0x3d223b1e	0.03960716
201	0x3d46c71c	0.04852973
202	0x3d08420b	0.03326611
203	0xbd982382	-0.074286476
204	0x3b9ffa6e	0.0048821485
205	0xbd7e5c47	-0.06209972
206	0xbd8d95c7	-0.069133334
207	0x3db00e30	0.08596456
208	0x3bcd7b19	0.006270778
209	0x3d43931b	0.047747713
210	0x3c9bae2a	0.019003946
211	0xbb827083	-0.0039806976
212	0xbd830c61	-0.063988455
213	0x3ccc7911	0.024960073
214	0x3cb5949c	0.022165589
215	0xbd637ae6	-0.055537127
216	0x3dbf2ed5	0.093351044
217	0x3d6ca7c2	0.057777174
218	0x3c87be1f	0.016570149
219	0x3d153d43	0.036435377
220	0x3b9a0108	0.00469983
221	0xbcd7201a	-0.026260424
222	0x3c519e5e	0.012794105
223	0x3ca9da0b	0.020733854
224	0xbdcada05	-0.09904865
225	0xbc7c93cf	-0.0154161
226	0xbc8bbaf4	-0.01705692
227	0xbb774bc1	-0.0037734362
228	0x3d1f5f0e	0.03890901
229	0xbb3cda33	-0.002881658
230	0xbb41b2ca	-0.002955603
231	0xbcd0c793	-0.02548579
232	0x3d1ea566	0.038731955
233	0xbde2e134	-0.1107811
234	0xbdb054ba	-0.0860991
235	0x3c86f961	0.016476335
236	0xbcdc06e9	-0.026858764
237	0xbce993f0	-0.028512925
238	0x3d98aa3d	0.074543454
239	0x3c949171	0.018135758
240	0xbcdda80d	-0.027057672
241	0x3bd1a5df	0.006397947
242	0x3cee6165	0.029099176
243	0x3dc65e9d	0.09686015
244	0x3cd80384	0.026368864
245	0x3c9925f7	0.01869486
246	0x3d1696a6	0.036764763
247	0xbd3429b0	-0.04398507
248	0xbdcca564	-0.09992483
249	0x3d405dcc	0.04696445
250	0xbd2de731	-0.04245681
251	0xbdb41abc	-0.08794162
252	0x3d18de12	0.037321158
253	0x3a41c236	0.00073913054
254	0x3d2e0898	0.042488664
255	0x3d90b4f6	0.070657656

conv3.bias f4 [32]
0	0x3cf120ce	0.029434588
1	0x3d1b1a50	0.03786689
2	0xbd5881a0	-0.052857995
3	0xbd0d37d6	-0.034477077
4	0x3bf3e6b3	0.007443273
5	0xbd4de8c4	-0.05027081
6	0xbb1e4e0a	-0.0024155402
7	0x3a913bc2	0.0011080431
8	0xbd8e1ed9	-0.069394775
9	0x3d89d061	0.06729198
10	0xbb7eaeb3	-0.0038861453
11	0xbd204c0d	-0.039135028
12	0x3c9b2524	0.018938608
13	0x3db2e067	0.087342076
14	0xbcab31ae	-0.020897713
15	0xbcd18991	-0.025578292
16	0x3d6f74c5	0.05846097
17	0xbd92b351	-0.07163108
18	0xbb37ecc7	-0.0028064714
19	0xbd7d6b6d	-0.061870027
20	0x3cd715e4	0.026255555
21	0xbadfcd95	-0.0017074818
22	0xbdb1358a	-0.0865279
23	0x3b8b98ea	0.004260172
24	0x3dc3ff1d	0.09570143
25	0xbd191f07	-0.037383106
26	0xbd301e71	-0.04299778
27	0xbbb56140	-0.0055352747
28	0x3beb38e3	0.0071784123
29	0xbd726cd8	-0.059185833
30	0x3d14eb1c	0.03635703
31	0x3c4272fb	0.011868234

conv4.weight f4 [8, 32, 3, 3]
0	0xbd500837	-0.050789084
1	0xbbd703e5	-0.0065617436
2	0x3dee5512	0.116373196
3	0xbd2af443	-0.041736852
4	0xbd3c6073	-0.04599042
5	0xbc0b3ec0	-0.0084988475
6	0xbd718dcb	-0.058973115
7	0xbda5966f	-0.080853336
8	0xbd052023	-0.03250135
9	0x3d5cceb5	0.05390807
10	0xbd6cabe9	-0.057781134
11	0xbdfb5e77	-0.12273877
12	0x3d83ba5f	0.06432032
13	0x3cbba662	0.022906486
14	0xbd4e483c	-0.050361857
15	0x39efca61	0.00045736416
16	0x3dc9fb75	0.09862415
17	0x3d443a96	0.047907434
18	0x3e2a4e61	0.16631462
19	0x3dd0bae4	0.101918966
20	0xbd4206b4	-0.047369674
21	0x3d9a212a	0.07525857
22	0x3de8a30c	0.11359224
23	0x3cc32b03	0.02382422
24	0xbccdcce9	-0.025122123
25	0xbc92feff	-0.017943857
26	0x3bc85f78	0.0061148964
27	0x3b757558	0.0037453976
28	0xbd0ffe36	-0.035154544
29	0xbdbddaaa	-0.092702225
30	0x3d9eb623	0.077495836
31	0x3cb96116	0.022629302
32	0xbcf600b3	-0.03002963
33	0xbc3ed7e6	-0.011648154
34	0xbbcf5c2f	-0.006328128
35	0x3caa09f5	0.020756701
36	0x3d7121e1	0.0588702
37	0x3ca74cb9	0.020422326
38	0xbdbf1cf5	-0.09331695
39	0x3db9e5ef	0.090770595
40	0x3cbec713	0.023288285
41	0xbdbeedcc	-0.093227
42	0xbc56e035	-0.013114979
43	0xbb0f4300	-0.0021860003
44	0xbd57de6c	-0.052702352
45	0x3d3390c6	0.04383924
46	0xbc2316eb	-0.009954195
47	0xbe21eabc	-0.158122
48	0x3d826f24	0.06368855
49	0x3d57af49	0.0526574
50	0xbd817670	-0.06321418
51	0x3c81ccbe	0.015844699
52	0xbac042d8	-0.0014668358
53	0x3d82af69	0.06381113
54	0xbd9be677	-0.07612317
55	0x3cfb6342	0.030686978
56	0x3dfbc41b	0.122932635
57	0xbdc31569	-0.09525568
58	0xbb17247e	-0.0023062523
59	0x3c8787b3	0.016544199
60	0x3cbd8757	0.023135824
61	0xbcbccb95	-0.023046294
62	0x3ccaa750	0.024737984
63	0xbdf14b6b	-0.11781963
64	0xbd803ad0	-0.062612176
65	0x3d4d5d86	0.05013802
66	0xbd85046b	-0.06494983
67	0xbd387c9c	-0.04504071
68	0xbc79f819	-0.015256905
69	0x3c4112d9	0.011784279
70	0xbd7ed627	-0.06221595
71	0x3cdbf394	0.026849546
72	0x3e1a9535	0.1509598
73	0x3cc7efed	0.024406398
74	0xbdda7a2b	-0.10667833
75	0x3da3e335	0.08002321
76	0x3da45310	0.080236554
77	0xbb918756	-0.004441182
78	0x3d0b047e	0.03393983
79	0x3d19508f	0.037430342
80	0x3c59d520	0.013295442
81	0x3d00ad49	0.031415258
82	0xbda45443	-0.08023884
83	0xbe0acd56	-0.13554892
84	0x3d92da1c	0.07170507
85	0x3bb1e0be	0.0054284027
86	0xbd5a01ec	-0.05322449
87	0x3c3a8ac9	0.011385628
88	0xbc50c32f	-0.012741848
89	0x3c57c51a	0.013169551
90	0xbde1cd62	-0.11025502
91	0x3d1badd2	0.038007565
92	0x3d9d5fe8	0.07684308
93	0xbdb2c399	-0.087287135
94	0xbca501e2	-0.0201425
95	0x3d1b6e24	0.037946835
96	0x3d4e7aaa	0.05040995
97	0xbda07106	-0.078340575
98	0xbccad7f8	-0.024761185
99	0x3bceb4ed	0.006308189
100	0xbd06e125	-0.03292956
101	0xbe17e9c1	-0.14835264
102	0x3d21b908	0.0394831
103	0x3cc5f434	0.024164297
104	0xbcc2fb49	-0.023801463
105	0xbd804376	-0.06262867
106	0x3d300566	0.0429739
107	0xbd50db96	-0.050990663
108	0xbcbbeea9	-0.02294095
109	0xbd2c013a	-0.041993357
110	0x3cf1d9cd	0.0295228
111	0xbc9e91e8	-0.019356683
112	0xbd9e2528	-0.07721931
113	0xbc018f2b	-0.007907669
114	0x3d13471e	0.035956495
115	0xbcc6b231	-0.02425489
116	0xbdc7965b	-0.09745475
117	0xbe0ca3f2	-0.13734415
118	0x3d76beb6	0.06024047
119	0x3dc7a134	0.09747544
120	0xbe097877	-0.1342486
121	0xbdc955aa	-0.09830792
122	0xbc09e529	-0.008416452
123	0xbc892b0f	-0.016744165
124	0xbc56334b	-0.013073753
125	0xbdc11ae1	-0.09428955
126	0xbdb7b1c9	-0.08969457
127	0xbdf88154	-0.121340424
128	0xbbe8d518	-0.007105481
129	0xbe0732b0	-0.1320293
130	0xbd65eb73	-0.056132745
131	0xbd22fc65	-0.039791483
132	0x3b964ad8	0.004586559
133	0x3c3dcf89	0.011585125
134	0x3d3ed4ea	0.04658977
135	0xbdc08c45	-0.09401754
136	0x3da3f4f4	0.080057055
137	0x3d12fdc9	0.03588656
138	0xbde642a7	-0.11243182
139	0x3cf9d95a	0.03049915
140	0x3d21facf	0.03954583
141	0x38df6507	0.000106522864
142	0x3b03356c	0.0020020856
143	0xbced861a	-0.028994609
144	0x3dcb908e	0.09939681
145	0xbd0a5d42	-0.033780344
146	0xbe1a8807	-0.15090953
147	0xbc1fffb4	-0.009765554
148	0xbd3f36ae	-0.046683006
149	0xbdc67e08	-0.09692007
150	0x3d6c8714	0.057746008
151	0x3ce3b940	0.027798295
152	0x3d8fc2ca	0.07019575
153	0xbd733c32	-0.05938358
154	0xbce3c8ed	-0.02780577
155	0x3ddca79c	0.107741565
156	0xbde42054	-0.111389786
157	0xbdc00e14	-0.09377685
158	0xbda9b4a4	-0.082864076
159	0x3d8405b1	0.06446398
160	0x3c7ec99b	0.015550996
161	0xbd5a1621	-0.05324376
162	0xbd2af73f	-0.0417397
163	0x3b974710	0.0046166256
164	0x3d29028d	0.0412622
165	0xbcf1a72e	-0.029498663
166	0xbd1aab2c	-0.0377609
167	0x3d530922	0.05152238
168	0xbd810b14	-0.06300941
169	0xbcbd4a09	-0.023106592
170	0x3d0a6342	0.033786066
171	0x3e1c662f	0.15273355
172	0x3d82e8a0	0.06392026
173	0xbdb93dbb	-0.09044977
174	0x3d17d080	0.037064075
175	0x3dcbba32	0.09947623
176	0xbd9d4da1	-0.07680822
177	0x3d04b233	0.032396507
178	0xbadfb15e	-0.0017066409
179	0x3c201e06	0.009772783
180	0x3dd3a2e4	0.10333803
181	0xbd871bf7	-0.06597131
182	0xbdc52398	-0.096259296
183	0x3d9c5a40	0.07634401
184	0xba951c98	-0.001137632
185	0xbd03f38b	-0.032214683
186	0x3ca5d371	0.020242425
187	0x3c8ac995	0.016941825
188	0xbd8be78b	-0.06831273
189	0xbcd782c1	-0.026307466
190	0x3dd79fae	0.10528503
191	0x3e2765d6	0.16347441
192	0xbda1eb17	-0.07906168
193	0xbccdbb20	-0.025113642
194	0x3db92f45	0.09042219
195	0xbd0c4fc6	-0.034255765
196	0x39824968	0.00024850224
197	0x3d7768e5	0.06040277
198	0x3dc47142	0.09591915
199	0xbcc41312	-0.023934875
200	0xbd17e203	-0.037080776
201	0x3dd4d3a3	0.10391929
202	0x3c9e4f5b	0.019324949
203	0x3b7dd68f	0.0038732623
204	0x3c91658e	0.01774862
205	0x3daf6ad1	0.085652955
206	0x3d3be517	0.045872774
207	0x3d06146f	0.03273433
208	0xbd7d3492	-0.061817713
209	0xbe0dfd6d	-0.13866206
210	0x3bf3061d	0.0074165002
211	0xbc7b10cb	-0.015323828
212	0xbdf30558	-0.118662536
213	0x3d27f45a	0.041004516
214	0x3cef28f8	0.02919434
215	0x3d519ecc	0.05117683
216	0x3c81f374	0.015863158
217	0xbdb80e94	-0.089871556
218	0xbe005642	-0.12532905
219	0x3d83a155	0.06427256
220	0x3d21bc69	0.039486323
221	0xbd8d22e2	-0.06891419
222	0x3d7e3eba	0.06207154
223	0x3d167e82	0.03674174
224	0x3cb745b7	0.02237211
225	0xbacf60a5	-0.0015821649
226	0x3d744603	0.05963708
227	0x3dfb0c91	0.12258256
228	0xbc73a1c8	-0.014870115
229	0x3a0bd571	0.00053342344
230	0x3d8d4a1c	0.06898901
231	0x3bad355e	0.005285903
232	0xbd9ad67a	-0.075604394
233	0xbca0b6c6	-0.019618403
234	0xbd91ab70	-0.07112777
235	0x3d1c1186	0.03810265
236	0x3e0c0876	0.13675103
237	0x3ba44000	0.005012512
238	0xbca6f764	-0.020381637
239	0x3d84f0af	0.06491219
240	0xbcbc9059	-0.02301805
241	0x3b035670	0.0020040534
242	0x39b4baf2	0.0003447156
243	0xbc80f0e5	-0.015739867
244	0x3d409c87	0.047024276
245	0x3e0b6cf3	0.1361578
246	0xbc2b57a4	-0.010457907
247	0x3b9269e1	0.004468188
248	0x3daae521	0.08344484
249	0xbc241f93	-0.0100172935
250	0xbd24b78f	-0.040214118
251	0xbdbcb313	-0.09213843
252	0xbcba7470	-0.0227606
253	0x3d8356b2	0.0641302
254	0x3e03fc7b	0.12889282
255	0xbd8b4e44	-0.06802037

conv4.bias f4 [8]
0	0x3c5ec13f	0.013595878
1	0xbd57987d	-0.05263566
2	0xbd33a1cc	-0.043855473
3	0x3d07f6e3	0.033194434
4	0xbc461273	-0.01208936
5	0x3d70c03c	0.05877708
6	0x3cbffc37	0.023435695
7	0xbd13a7f2	-0.036048837

fc1.weight f4 [128, 1152]
0	0xbdaf98ef	-0.08574092
1	0x3d269ecd	0.040678788
2	0xbd6f984b	-0.058494847
3	0x3d4d1478	0.05006835
4	0xbe251125	-0.16119821
5	0x3d0e7329	0.034777794
6	0xbd1b8c10	-0.03797537
7	0xbdac8753	-0.084242485
8	0x3d89248a	0.066964224
9	0xbd8c1c58	-0.06841344
10	0x3c13b789	0.009015926
11	0xbd32159f	-0.04347765
12	0xbe018a87	-0.126505
13	0x3d94ccf4	0.07265654
14	0x3adc9af6	0.001683085
15	0x3ac75e70	0.001521064
16	0xbd105c47	-0.035244253
17	0xbe1001d1	-0.14063193
18	0x3cb51532	0.022104833
19	0xbcbc90ba	-0.02301823
20	0x3cebf446	0.028803002
21	0xbd09a50d	-0.03360467
22	0xbce0340e	-0.027368572
23	0xbc12f0f1	-0.008968578
24	0x3a4bcee8	0.0007774667
25	0x3d36969a	0.04457722
26	0x3bab93e8	0.0052361377
27	0xbbf390eb	-0.007433047
28	0xbd1fde73	-0.039030503
29	0xbdfed627	-0.1244319
30	0xbd081c2f	-0.033230003
31	0x3e100e34	0.14067918
32	0xbd281a25	-0.04104056
33	0xbdd93a3d	-0.10606811
34	0x3d800b57	0.06252163
35	0xbd64a5b1	-0.05582208
36	0xbdddc5e7	-0.108287625
37	0x3e0f5038	0.13995445
38	0x3c1daea8	0.009624161
39	0x3cd4995d	0.025952036
40	0xbc9c153a	-0.01905309
41	0xbd38a0b3	-0.04507513
42	0x3d35a1e0	0.04434383
43	0xbd22bfc7	-0.039733674
44	0xbd3f2016	-0.04666146
45	0xbde27ee5	-0.110593595
46	0x3c922842	0.017841462
47	0x3d45b9f5	0.048273046
48	0xbd9caa61	-0.07649685
49	0x3d1871ff	0.03721809
50	0x3d520ae8	0.051279932
51	0xbd708531	-0.05872077
52	0x3db9b19f	0.09067082
53	0xbcf67a34	-0.030087568
54	0xbcf62618	-0.030047461
55	0xbd9353cc	-0.07193717
56	0x3c455a32	0.01204543
57	0xbd60e0a8	-0.05490175
58	0xbca9276a	-0.020648677
59	0x3c9bf251	0.019036444
60	0xbaf19853	-0.0018432237
61	0x3bb0c3a7	0.0053944173
62	0x3d5eebb9	0.05442402
63	0xbd6539e2	-0.055963404
64	0x3d72cc3a	0.059276797
65	0xbcae0e66	-0.0212471
66	0x3da95d67	0.08269768
67	0xbda14ae2	-0.07875611
68	0x3d3e9ebe	0.046538107
69	0xbdd025c3	-0.101634525
70	0xbcb35505	-0.021891126
71	0x3cf747fd	0.030185694
72	0x3b7520e6	0.0037403642
73	0xbd8b46b8	-0.06800598
74	0x3c1536fa	0.009107346
75	0xbc7432cd	-0.01490469
76	0x3d8e285b	0.06941291
77	0x3d864ff2	0.06558217
78	0xbde0573f	-0.10954141
79	0x3dc61048	0.09671074
80	0x3c1c6893	0.009546417
81	0xbd92189a	-0.071335986
82	0x3cd251cc	0.02567377
83	0xbdc29d09	-0.09502608
84	0x3c7da608	0.0154814795
85	0xbc04ca41	-0.008104862
86	0xbcd0371b	-0.025416901
87	0xbd82a185	-0.06378464
88	0xbcb214be	-0.021738406
89	0x3d088d99	0.033338163
90	0xbd1fff94	-0.039062098
91	0x3d40be82	0.047056682
92	0x3d142e5c	0.036177024
93	0x3c923d4e	0.017851498
94	0xbb2c68f1	-0.0026307667
95	0xbd72e8a6	-0.059303902
96	0x3a91cb5f	0.0011123231
97	0x3d43b389	0.04777864
98	0xbd573756	-0.052543007
99	0x3aee2f82	0.0018172117
100	0xbcefc63f	-0.029269336
101	0x3cdb8058	0.026794598
102	0x3e196cb6	0.14982876
103	0x3d377a14	0.044794157
104	0xbd646bd0	-0.05576688
105	0xbd17fbad	-0.03710525
106	0x3d45ff76	0.04833933
107	0xbdf69815	-0.12040726
108	0xbd61e8c3	-0.05515362
109	0xbca007a3	-0.019534891
110	0xbb57fc3c	-0.003295674
111	0x3b1524aa	0.002275745
112	0x3dce4766	0.10072212
113	0xbdb59df7	-0.0886802
114	0x3dc8314e	0.09775029
115	0x3e0e569d	0.13900228
116	0xbce6673a	-0.028125394
117	0x3a4543b1	0.00075250404
118	0x3e0b915d	0.1362967
119	0xbd882d29	-0.066492386
120	0xbce030b4	-0.027366973
121	0x3bf71210	0.007539995
122	0xbd4f59b0	-0.050622642
123	0xbc40e021	-0.0117721865
124	0x3d498438	0.04919836
125	0xbdd01873	-0.10160913
126	0x3d52255d	0.051305164
127	0xbc0ae845	-0.008478229
128	0xbd9055a9	-0.070475884
129	0xbd20a6ba	-0.039221503
130	0xbd2e5a67	-0.042566683
131	0x3d52c985	0.051461715
132	0x3c95beb4	0.01827941
133	0xbd8acf13	-0.067777775
134	0x3d5e308c	0.054245517
135	0x3e21321f	0.15741776
136	0x3c895860	0.016765773
137	0x3c9528c0	0.018207908
138	0x3bb7aea5	0.005605536
139	0xbc94f984	-0.018185385
140	0xbdc4ee4e	-0.096157655
141	0xbd791df4	-0.06081958
142	0xbd8fa313	-0.07013526
143	0xbcca0948	-0.024662629
144	0xbd2b284d	-0.04178648
145	0x3d8a3420	0.06748223
146	0xbd258fc6	-0.040420316
147	0x3c08ef46	0.0083578285
148	0xbd4bc627	-0.04974952
149	0x3bfc9df3	0.0077092587
150	0xbd6104f0	-0.05493635
151	0x3c7ef938	0.015562348
152	0x3ca595bd	0.020213002
153	0xbd7116fd	-0.058859814
154	0x3dc970fa	0.09836002
155	0xbbc1afcc	-0.005910849
156	0xbdcaf28e	-0.09909545
157	0x3c388928	0.011263169
158	0xbd6f3f01	-0.058409695
159	0x3b954bca	0.004556154
160	0xbd95bde2	-0.07311608
161	0xbe0438f7	-0.12912355
162	0x3c0b606d	0.008506876
163	0x3d0aa5a5	0.033849377
164	0x3bc2940a	0.005938058
165	0xbc1c3237	-0.0095334565
166	0x3cb521f3	0.022110915
167	0x3d95705f	0.07296824
168	0x3d195d1e	0.03744232
169	0x3bb50aa5	0.0055249506
170	0x3d138bf4	0.03602214
171	0xbdbddd4d	-0.092707254
172	0xbd83819f	-0.06421208
173	0xbd8edd6d	-0.06975827
174	0x3c176557	0.00924047
175	0x3e17a3c7	0.1480857
176	0xbd9cc2e8	-0.07654363
177	0xbd04fd0c	-0.032467887
178	0x3d975192	0.07388605
179	0x3cf80b02	0.030278686
180	0xbd02a80f	-0.031898554
181	0xbb49b60e	-0.003077868
182	0xbcaccbe9	-0.021093326
183	0xbd031411	-0.03200156
184	0xbd6c14f7	-0.05763718
185	0xbcf9b298	-0.030480668
186	0x39cc9f23	0.00039028478
187	0xbc043896	-0.008070132
188	0xbd887670	-0.06663215
189	0xbcc77f50	-0.0243527
190	0x3dc0d7fb	0.09416195
191	0x3d852e90	0.06503022
192	0xbc97a51d	-0.01851135
193	0xbcd780fc	-0.026306622
194	0xbd097276	-0.033556424
195	0xbe0e9c39	-0.13926782
196	0xbcb07e09	-0.021544473
197	0xbd4dfe02	-0.05029107
198	0xb8a67de4	-7.938946e-05
199	0xbd81f30d	-0.063451864
200	0xbc7a1976	-0.015264859
201	0xbc3d30e8	-0.011547305
202	0xbd050054	-0.032471016
203	0x3d147ccd	0.03625183
204	0x3bfb34e4	0.007666217
205	0xbd1860b6	-0.037201606
206	0x3c33daf8	0.010977499
207	0xbd931370	-0.07181442
208	0x3d8acba8	0.067771256
209	0xbd7112e8	-0.05885592
210	0xbd0a3cf2	-0.03374953
211	0xbdbf4bbe	-0.093406186
212	0xbd4c76ed	-0.049918104
213	0x3cd99969	0.02656241
214	0x3dc5d847	0.09660392
215	0x3da7e24f	0.08197462
216	0xbdc1dc44	-0.094658405
217	0xbd3739fa	-0.044733025
218	0xbd1a2330	-0.037631214
219	0x3c430dd8	0.011905156
220	0x3d1f25c4	0.038854375
221	0xbd164194	-0.036683634
222	0xbd5c2173	-0.053742837
223	0x3d5e0885	0.054207344
224	0x3bf70814	0.007538805
225	0xbc2f1c65	-0.010687922
226	0xbc0f2764	-0.008737419
227	0xbc9102dc	-0.017701559
228	0xbd448831	-0.047981445
229	0xbcec511c	-0.02884727
230	0xbd92fdef	-0.0717734
231	0xbca2d5a0	-0.019877255
232	0xbd75b718	-0.059989065
233	0x3e1ac9c2	0.15116027
234	0x3d3b33bb	0.04570363
235	0x3d642c01	0.055706028
236	0xbce9a8e2	-0.028522912
237	0xbc5c9071	-0.013462172
238	0xbd6557f6	-0.05599209
239	0xbc0022cd	-0.007820797
240	0x3d0f27a4	0.034949914
241	0x3bd54825	0.0065088444
242	0xbd4444be	-0.04791712
243	0xbce056cd	-0.02738514
244	0x3d650477	0.05591246
245	0x3d2c3fd3	0.042053055
246	0x3c98b166	0.018639278
247	0x3d5fc09d	0.05462705
248	0xbd8bab64	-0.068197995
249	0xbc8d3538	-0.01723729
250	0x3cc250be	0.023720142
251	0xbd6c79d8	-0.057733387
252	0xbdf93385	-0.1216803
253	0x3bfd9b13	0.0077394336
254	0xbd888dac	-0.06667647
255	0x3b9ffa0e	0.0048821038

fc1.bias f4 [128]
0	0x3d3870a0	0.045029283
1	0xbba5b8d2	-0.0050574327
2	0x3ced3fae	0.028961029
3	0xbd892503	-0.066965126
4	0xbd78b77b	-0.060721856
5	0x3b0000b4	0.001953167
6	0x3c81368f	0.015773086
7	0x3bf7fe16	0.007568131
8	0xbc39d839	-0.011343055
9	0x3d2f2c53	0.04276688
10	0xbd82682a	-0.06367524
11	0x3d1ca6b9	0.038244937
12	0x3bdc0368	0.0067142732
13	0xbcb5f931	-0.02221355
14	0x3c916363	0.017747587
15	0xbd3c6689	-0.045996223
16	0x3c05e6c6	0.008172696
17	0x3d230bd3	0.0398062
18	0x3bc9fe02	0.0061643133
19	0xbd23ad30	-0.039960086
20	0xbc40716a	-0.01174579
21	0xbb221399	-0.002473092
22	0xbd329bcf	-0.043605622
23	0x3cbe7b1b	0.02325206
24	0xbbd4817a	-0.0064851614
25	0x3cdd4f70	0.027015418
26	0xbd1fb10d	-0.03898721
27	0xbc5a8c13	-0.01333906
28	0x3c874d68	0.016516402
29	0x3c81b1b7	0.015831811
30	0xbc754fe2	-0.014972659
31	0xbcfda8d1	-0.030964287
32	0x3c6bbad2	0.014387803
33	0x3d2c34cb	0.042042535
34	0x3d0ee669	0.034887705
35	0xbcde5042	-0.02713788
36	0xbd6de69a	-0.058081247
37	0xbd343361	-0.04399431
38	0xbd2cf3f0	-0.042224824
39	0xbd1f770e	-0.0389319
40	0x3c93aec3	0.018027669
41	0x3d29ca1f	0.041452523
42	0xbc7dd8b6	-0.015493562
43	0xbd3ca82b	-0.046058815
44	0xbd38b820	-0.04509747
45	0xbd49de65	-0.049284358
46	0xbc4cdfeb	-0.012504558
47	0xbcb99ace	-0.022656824
48	0x3c8a164f	0.01685634
49	0xbcd3b596	-0.025843423
50	0x3d0ab75c	0.03386627
51	0x3d970013	0.07373061
52	0xbcbd5ec1	-0.023116471
53	0x3d35f877	0.044426408
54	0xbcf763bc	-0.030198924
55	0xbda537bc	-0.08067271
56	0xbc9dfbf3	-0.019285178
57	0xbdb1e88f	-0.08686935
58	0x3d14eafd	0.036356915
59	0xbc25acc0	-0.010111988
60	0xbd3e831f	-0.046511766
61	0xbd4cc52d	-0.04999273
62	0xbd027fb9	-0.031860087
63	0xbc298c94	-0.010348458
64	0x3c778dcc	0.015109491
65	0x3cc21d28	0.023695543
66	0xbd2a4669	-0.041571055
67	0xbc68e034	-0.01421361
68	0xbd5c2f3c	-0.053755984
69	0x3cf0bff8	0.029388413
70	0xbc522d78	-0.012828223
71	0x3cc03db6	0.023466926
72	0xbd0cfeb7	-0.034422603
73	0x3cc77939	0.024349796
74	0xbd341a88	-0.043970615
75	0x3d2c6900	0.042092323
76	0x3bd21a25	0.006411808
77	0x3d70aa36	0.058756076
78	0x3b3d61b0	0.0028897338
79	0xbd8d5b3b	-0.069021665
80	0x3c89f06c	0.016838275
81	0xbd13aeac	-0.036055252
82	0xbcb18e33	-0.021674251
83	0xbce265f1	-0.0276365
84	0xbaaad94b	-0.0013034729
85	0xbd865e82	-0.06560995
86	0xbd36f36a	-0.04466573
87	0xbcacb011	-0.021080049
88	0x3aa85e24	0.0012845439
89	0xbd1d2128	-0.0383617
90	0x3c39c634	0.011338759
91	0x3c9162a7	0.017747236
92	0x3ce5ff42	0.028075818
93	0x3d06d2d5	0.03291591
94	0xbcf17022	-0.029472414
95	0x3cae4086	0.021271002
96	0x3ccf377d	0.025295014
97	0x3d2fac2f	0.042888816
98	0xbd2f2f59	-0.042769764
99	0xbd1383aa	-0.036014237
100	0xbd838e0f	-0.0642358
101	0x3d279436	0.04091283
102	0xbd3ee4d4	-0.046604946
103	0x3acdcda9	0.001570155
104	0x3cd0801a	0.025451709
105	0xbc7649c9	-0.01503224
106	0x3cfe914b	0.03107514
107	0xbc8f6ca2	-0.017507855
108	0x3d6d41e9	0.057924185
109	0xbc0e9c4c	-0.008704256
110	0x3d3344f1	0.04376692
111	0xbd9b73af	-0.07590424
112	0xbd32de74	-0.04366918
113	0xbd9e0558	-0.07715863
114	0xbd323283	-0.043505203
115	0xbc959b2b	-0.018262466
116	0xbbdb8da1	-0.006700233
117	0xbd4d5978	-0.050134152
118	0x3ca2b2f8	0.01986073
119	0x3d6c8f31	0.057753745
120	0x3d0b9c00	0.03408432
121	0xbd70fa7b	-0.058832627
122	0x3c4d6c0b	0.0125379665
123	0xbd5433a1	-0.05180705
124	0xbd08d1a9	-0.033403073
125	0xbd2d0aeb	-0.04224674
126	0xbd3b594c	-0.045739457
127	0x3d03e2e6	0.03219881

fc2.weight f4 [5, 128]
0	0x3c18260a	0.009286413
1	0xbdc92a81	-0.0982256
2	0xbe4eda84	-0.20200545
3	0x3d8e26ab	0.06940969
4	0xbe839a90	-0.2570386
5	0x3da3f5e0	0.08005881
6	0xbcc90d03	-0.024542337
7	0x3e22c0d0	0.15893865
8	0xbe21ea02	-0.15811923
9	0x3dfe8afe	0.124288544
10	0x3cb74378	0.022371039
11	0xbc5622ac	-0.01306979
12	0x3deb4481	0.114876755
13	0xbe07c52a	-0.13258806
14	0xbdd70039	-0.10498089
15	0xbd3dbe9f	-0.04632437
16	0xbd8b5b0c	-0.06804475
17	0xbe1513f5	-0.14558394
18	0xbe61a2e5	-0.22034796
19	0x3d93607e	0.07196139
20	0xbe4a38e7	-0.19748269
21	0xbe31cee9	-0.17364086
22	0xbb5fdfe6	-0.0034160553
23	0x3e4705b8	0.19435775
24	0xbe67bb72	-0.22630098
25	0xbb8a87d7	-0.004227619
26	0x3d8d5959	0.06901807
27	0x3e0556aa	0.13021341
28	0x3d12dba6	0.035854004
29	0xbea0d94d	-0.31415787
30	0x3e34910a	0.17633453
31	0xbce435f7	-0.027857764
32	0xbe97dad2	-0.29659134
33	0xbd7d3789	-0.06182054
34	0x3e02be9a	0.12768021
35	0xbc8e3317	-0.017358346
36	0xbe333750	-0.17501569
37	0x3cc5e507	0.02415706
38	0xbce2de78	-0.027693972
39	0x3d966926	0.07344274
40	0xbe7fd5c2	-0.24983886
41	0xbd766f32	-0.060164638
42	0xbe084563	-0.13307719
43	0xbd9eef66	-0.077605054
44	0x3cdc4bed	0.026891673
45	0xbd6e973f	-0.05824971
46	0xbd3071da	-0.043077327
47	0x3dfed4da	0.12442942
48	0x3d4b9387	0.04970124
49	0xbe254d1a	-0.16142693
50	0xbd9274ec	-0.07151207
51	0xbc249374	-0.010044921
52	0x3cf19e07	0.029494299
53	0xbe03b688	-0.12862599
54	0x3d98a05c	0.07452461
55	0x3d6f437d	0.05841397
56	0x3df32b79	0.11873526
57	0xbd919168	-0.07107812
58	0xbe10bbd6	-0.14134154
59	0x3e1fd961	0.15610267
60	0xbdf85c68	-0.12127
61	0xbe1c8a6c	-0.15287179
62	0xbdcc4659	-0.09974355
63	0x3d06e0e1	0.032929305
64	0xbe3c768b	-0.18404596
65	0x3d888d52	0.0666758
66	0xbeb42eec	-0.3519205
67	0xbdbdd017	-0.092682056
68	0xbe284562	-0.16432717
69	0xbe5323d8	-0.20619142
70	0x3d9e8eb5	0.07742063
71	0xbe21ff8d	-0.15820141
72	0xbe6a0e68	-0.22857058
73	0xbd86eb44	-0.06587842
74	0xbe21f268	-0.15815127
75	0xbe6b5963	-0.22983317
76	0x3de278e0	0.11058211
77	0x39d5a5c3	0.00040750028
78	0x3df3834d	0.11890278
79	0x3cf26d44	0.029593118
80	0xbe66cb8a	-0.22538581
81	0xbd8b607b	-0.068055116
82	0x3e525576	0.20540413
83	0xbe40a173	-0.18811588
84	0xbdd28eac	-0.10281119
85	0x3df216c3	0.11820748
86	0x3d5d51e6	0.054033183
87	0xbd9f90dc	-0.077913016
88	0xbe129412	-0.14314297
89	0xbd90a0a0	-0.07061887
90	0xbe513ca8	-0.20433295
91	0x3e01acab	0.12663524
92	0xbda361d7	-0.07977646
93	0xbeb234e8	-0.3480599
94	0xbd425b1c	-0.04745017
95	0xbe4cec16	-0.20011935
96	0xbe28a3da	-0.16468754
97	0xbe1e1627	-0.15438138
98	0x3e08926e	0.13337108
99	0xbda25a8a	-0.07927425
100	0xbea8b565	-0.32950893
101	0xbc8ca2b1	-0.017167421
102	0x3c908ead	0.017646158
103	0xbde5f887	-0.112290435
104	0x3e31ea29	0.17374481
105	0xbe842eb8	-0.25816894
106	0x3dac8215	0.08423249
107	0xbd1267f7	-0.03574368
108	0xbe0c26f7	-0.13686739
109	0xbe32f4a2	-0.17476133
110	0x3df123f6	0.11774437
111	0xbe13b946	-0.14426145
112	0xbe01b44b	-0.12666433
113	0x3b8500cd	0.0040589334
114	0x3d8232cb	0.06357344
115	0x3e0332b6	0.12812313
116	0x3e0cd7ae	0.1375415
117	0xbe2a252f	-0.16615747
118	0xbd571626	-0.052511357
119	0x3d14b703	0.036307346
120	0x3dde3189	0.10849292
121	0xbe768108	-0.24072659
122	0xbe4522c5	-0.19251545
123	0x3d43a49a	0.0477644
124	0xbd6a2e18	-0.057172865
125	0x3da0d0ab	0.078523
126	0xbe310f78	-0.17291057
127	0x3e17372a	0.14767137
128	0x3d58ab36	0.052897654
129	0xbdc967a7	-0.09834223
130	0xbda83716	-0.08213632
131	0xbd9ac6d5	-0.075574555
132	0xbd72ef1a	-0.059310056
133	0x3dda8f86	0.10671906
134	0x3b71203a	0.003679289
135	0x3df739bd	0.120715596
136	0x3d93c935	0.072161116
137	0x3e03f226	0.12885341
138	0x3ca26611	0.01982406
139	0x3d6ab6d9	0.057303283
140	0xbd416dac	-0.047223732
141	0xbd38893b	-0.04505275
142	0xbc29e70e	-0.010370029
143	0x3dad0f79	0.08450217
144	0x3d54fcbe	0.051998846
145	0x3e1d59e9	0.15366329
146	0x3d093c93	0.033505034
147	0xbe132abc	-0.1437177
148	0xbe6f6069	-0.23376621
149	0xbdb3028e	-0.08740722
150	0xbe26741a	-0.16255227
151	0xbddbe964	-0.10737875
152	0x3c4efadb	0.012633051
153	0x3df38b10	0.118917584
154	0xbe604be6	-0.21903953
155	0xbbbc5d5d	-0.0057484345
156	0x3daa9647	0.083294444
157	0x3d9758f9	0.07390017
158	0x3d4663fe	0.048435204
159	0x3d77d45e	0.060505264
160	0x3d40cb75	0.04706903
161	0x3d0e1037	0.034683432
162	0x3c05d99e	0.00816956
163	0x3dc58cc2	0.09645988
164	0x3d2a763f	0.041616675
165	0xbdc27299	-0.09494514
166	0x3e221e77	0.15831934
167	0xbc5dd6bc	-0.013539966
168	0x3e1fbe8a	0.15600029
169	0x3dd4c7a5	0.10389642
170	0x3e03df24	0.1287809
171	0x3dd8fe88	0.10595423
172	0xbe16ab26	-0.14713725
173	0xbde76e5f	-0.113003485
174	0x3d65d9a6	0.05611577
175	0xbe07d7f7	-0.13265978
176	0x3e0424ac	0.12904614
177	0xbe244ebc	-0.1604566
178	0x3dd00b7e	0.10158442
179	0x3dc607f7	0.09669488
180	0xbe471e1d	-0.19445081
181	0x3d0941ac	0.033509895
182	0x3e1ff38c	0.1562025
183	0xbe07d33c	-0.13264173
184	0xbe16cfa8	-0.14727652
185	0x3d573e18	0.05254945
186	0x3dce6969	0.10078699
187	0xbda36dd3	-0.07979932
188	0xbe0c4108	-0.13696682
189	0x3d038256	0.03210672
190	0x3e04deab	0.12975566
191	0xbe4a7a4d	-0.19773217
192	0x3db9b31d	0.09067366
193	0x3c8ddb4a	0.01731648
194	0xbcaa980e	-0.020824458
195	0xbe389749	-0.1802646
196	0xbce648fb	-0.028110972
197	0x3e02fa63	0.12790827
198	0xbdf4f637	-0.11961024
199	0x3d925b82	0.0714636
200	0xbe3f3b46	-0.18674955
201	0xbdc92c62	-0.098229185
202	0x3c41cd71	0.011828766
203	0x3d7bfcfa	0.061520554
204	0x3df8b3dd	0.12143681
205	0x3db1640f	0.08661663
206	0xbd376fa9	-0.04478422
207	0xbcbfb671	-0.023402425
208	0xbe0d868a	-0.13820854
209	0x3d0d5ee5	0.034514327
210	0x3c79b20f	0.015240206
211	0x3debe356	0.1151797
212	0xbdd2688a	-0.102738455
213	0xbd6007b4	-0.054694846
214	0xbe00365a	-0.12520733
215	0x3e1d5186	0.1536313
216	0x3c8df0df	0.01732677
217	0x3dafcef7	0.08584397
218	0xbd5d2a40	-0.05399537
219	0xbdcc3680	-0.099713326
220	0xbda43f20	-0.08019853
221	0x3dbf5d98	0.093440235
222	0x3dfe649d	0.12421534
223	0x3c494910	0.012285486
224	0xbd92fb14	-0.071767956
225	0x3d9ce928	0.076616585
226	0xbe02615f	-0.12732457
227	0x3e1148aa	0.14187875
228	0xbd0500de	-0.03247153
229	0x3dc5f775	0.09666339
230	0xbbbd1fe5	-0.0057716244
231	0xbdf121a9	-0.11773998
232	0xbdc2bbab	-0.09508451
233	0x3d7e6fbb	0.062118273
234	0xbd14ec6e	-0.03635829
235	0x3c9ef3e6	0.01940341
236	0x3dbe741c	0.0929949
237	0x3e064b02	0.1311455
238	0xbbf4488a	-0.0074549364
239	0xbe0ccc59	-0.13749827
240	0xbdd75bf2	-0.10515584
241	0x3d4f23f3	0.050571393
242	0xbdf4c87e	-0.11952303
243	0x3db2179e	0.08695911
244	0x3de879f5	0.113513865
245	0xbd9afc7c	-0.07567689
246	0x3b267c82	0.0025403802
247	0x3dce68d5	0.10078589
248	0xbde36937	-0.111040525
249	0x3d39e14b	0.04538087
250	0x3d951cf9	0.07280917
251	0xbddf1364	-0.1089237
252	0x3dc7195f	0.09721636
253	0xbdad03e1	-0.084480055
254	0xbdbff6e0	-0.093732595
255	0x3cce259d	0.02516442

fc2.bias f4 [5]
0	0x3dc1b68d	0.09458647
1	0x3d1811a5	0.037126202
2	0x3dc5dc9f	0.09661221
3	0xbd697def	-0.057004865
4	0x3cedf5c9	0.029047864
