Trained_Weights/STRIDE 5/v5.2_0th.pth (torch, 681666 bytes, 12 tensors)

conv1.weight f4 [32, 1, 3, 3]
0	0xbe480462	-0.19532922
1	0xbdb6791e	-0.0890982
2	0xbde2dcf9	-0.110773034
3	0x3e0d7dc1	0.13817503
4	0x3e994554	0.29935706
5	0xbe0cc3ef	-0.13746618
6	0xbe253cb3	-0.16136436
7	0xbe94b89c	-0.29047096
8	0xbcaf653b	-0.021410575
9	0xbe15cc8f	-0.14628814
10	0x3ce81b07	0.0283332
11	0xbe4e7772	-0.20162752
12	0xbeaceb71	-0.33773378
13	0xbe9471c0	-0.28993034
14	0xbeaa53d9	-0.33267096
15	0xbe5fcf38	-0.21856391
16	0x3e3d64a3	0.18495421
17	0xbe360a46	-0.17777357
18	0x3df6030e	0.120123014
19	0x3e4db772	0.2008951
20	0xbda6dc8f	-0.08147537
21	0xbe0fb141	-0.14032461
22	0x3e4c2772	0.19936922
23	0xbe763ced	-0.24046679
24	0xbe24f6fa	-0.16109839
25	0x3c73c7ed	0.014879209
26	0x3e8609af	0.26179263
27	0x3e2b7132	0.167424
28	0x3e2860d2	0.16443184
29	0xbdb022bd	-0.08600376
30	0xbd807b84	-0.06273559
31	0x3dec2ca6	0.115319535
32	0x3de18279	0.11011214
33	0x3ead173d	0.33806792
34	0x3e65c358	0.22437799
35	0xbddf6b39	-0.10909123
36	0x3e17eb75	0.14835913
37	0x3d5730d0	0.052536786
38	0xbd9ecb39	-0.077536054
39	0x3d54d956	0.05196508
40	0x3e4e8973	0.2016962
41	0xbdc61dbe	-0.096736416
42	0x3d67c9be	0.05658888
43	0xbe871136	-0.26380318
44	0x3d9c9052	0.076447144
45	0x3d62b867	0.05535164
46	0xbe081bd9	-0.13291873
47	0xbd4e88ed	-0.05042355
48	0x3cb4cab3	0.02206931
49	0x3d837333	0.06418457
50	0x3e6598e9	0.22421612
51	0xbd62ee38	-0.055402964
52	0xbe62139d	-0.22077794
53	0x3e4a5c95	0.1976188
54	0x3db23096	0.08700673
55	0x3e29a79e	0.16567847
56	0xbce32035	-0.027725318
57	0x3ea226b0	0.3167014
58	0xbe259b6d	-0.16172571
59	0x3e3c560d	0.18392201
60	0xbdfbecd3	-0.1230103
61	0xbe34f850	-0.17672849
62	0x3e94267d	0.28935614
63	0x3dc7a37d	0.0974798
64	0x3e56ce5b	0.20977156
65	0x3eaa1e8d	0.33226433
66	0x3e9c296b	0.3050035
67	0x3d28d578	0.041219205
68	0x3b85711a	0.0040723206
69	0x3e5bfcbf	0.21483134
70	0xbda151fe	-0.07876967
71	0xbe8691e4	-0.2628318
72	0x3e406164	0.18787152
73	0x3eacf649	0.3378165
74	0xbd8e24df	-0.06940626
75	0xbdcaf8c6	-0.09910731
76	0xbe9c87bd	-0.3057231
77	0x3e516c93	0.20451574
78	0xbe03667d	-0.12832065
79	0x3d540860	0.0517658
80	0xbe853dd8	-0.26023746
81	0x3e4ebadd	0.2018847
82	0xbd92f6a6	-0.07175951
83	0x3e92705d	0.2860135
84	0xbe211dc7	-0.15734015
85	0xbde1446f	-0.10999381
86	0x3e29045c	0.16505569
87	0x3d975410	0.073890805
88	0xbe8ec0c2	-0.27881438
89	0xbd797030	-0.060898006
90	0x3ea7d31d	0.32778254
91	0xbda71bf9	-0.08159632
92	0x3dc69589	0.0969649
93	0xbd838f84	-0.06423858
94	0xbe309009	-0.17242445
95	0x3e3505df	0.17678021
96	0xbe9d8276	-0.30763596
97	0xbe5711fe	-0.21002957
98	0x3a4d02ea	0.00078205636
99	0x3e1427d2	0.14468315
100	0x3db80dff	0.089870445
101	0x3e2963c4	0.16541964
102	0x3e404331	0.18775631
103	0xbe572996	-0.21011958
104	0x3e1af376	0.15131935
105	0xbd3e3523	-0.046437394
106	0x3e889849	0.26678684
107	0x3d9f27bc	0.077712506
108	0xbd9b294a	-0.07576235
109	0x3dce0806	0.10060124
110	0xbe5fe3ba	-0.21864215
111	0x3e8ac3d4	0.2710253
112	0x3dd5bae0	0.10436034
113	0x3e45fe71	0.19335343
114	0x3e8bc912	0.27301842
115	0xbd2d55d3	-0.042318176
116	0x3e3d8a12	0.18509701
117	0x3d9f62bd	0.07782505
118	0xb9d22b1a	-0.00040086434
119	0xbe982c7d	-0.29721442
120	0x3e7bb132	0.24579313
121	0x3e802f58	0.2503612
122	0x3e0a37bc	0.13497823
123	0xbe393862	-0.18087915
124	0x3e3ba8fc	0.18326181
125	0x3eab78c0	0.33490562
126	0xbe65e101	-0.22449113
127	0xbd7fb603	-0.06242944
128	0x3e8d6125	0.27613178
129	0x3e9e0464	0.30862725
130	0xbe7a0200	-0.24414825
131	0xbd2c5eb6	-0.04208251
132	0x3e9e26fe	0.30889124
133	0xbcaf829e	-0.021424588
134	0xbe8d9863	-0.27655324
135	0x3cb32108	0.021866336
136	0x3e9b86de	0.30376333
137	0x3d2134f4	0.03935714
138	0x3e0221bd	0.12708183
139	0x3e9803b4	0.29690325
140	0xbe8937b1	-0.26800302
141	0xbe80947e	-0.2511329
142	0x3e06f1bb	0.1317815
143	0x3d8f6979	0.07002539
144	0xbe8c0bc5	-0.2735273
145	0xbe97c163	-0.2963973
146	0x3c2dcf70	0.010608539
147	0xbadd603e	-0.0016889644
148	0x3d6f292f	0.058388885
149	0x3dbe0579	0.092783876
150	0xbb164ad8	-0.0022932794
151	0xbe01677d	-0.12637134
152	0x3df2bc23	0.118522905
153	0x3d94698b	0.07246693
154	0xbe95fd04	-0.29294598
155	0x3e167fe8	0.1469723
156	0x3d227d4d	0.039670277
157	0xbd8d16b0	-0.06889093
158	0xbd338142	-0.04382444
159	0x3e62da39	0.22153558
160	0xbe04fb39	-0.12986459
161	0x3e956a65	0.29182735
162	0x3e8ad70b	0.2711719
163	0x3ea4a923	0.3216029
164	0x3bb1d70a	0.005427246
165	0xbd45f65b	-0.048330646
166	0xbe33cc48	-0.17558396
167	0x3deeac35	0.1165394
168	0x3d5ecbb1	0.054393474
169	0x3e740201	0.2382889
170	0xbe8fce19	-0.28086928
171	0x3e28bb89	0.16477789
172	0x3e911dbe	0.28343004
173	0xbea32f36	-0.31871957
174	0xbe1c23f2	-0.15248087
175	0xbea08d84	-0.31357968
176	0xbe0521ab	-0.13001125
177	0x3e8c3a7a	0.27388364
178	0x3c91a293	0.017777717
179	0xba622c41	-0.000862781
180	0x3d7ee9f8	0.06223485
181	0xbd426f17	-0.047469225
182	0xbe6b6ae6	-0.22989997
183	0xbdaceb79	-0.0844335
184	0x3d3b6705	0.045752544
185	0x3e81ae29	0.25328186
186	0xbeae69d4	-0.34065115
187	0xbc844fff	-0.016151426
188	0x3e30c474	0.17262441
189	0x3da3f7ea	0.0800627
190	0x3e8466b0	0.25859594
191	0xbdf9eee0	-0.12203765
192	0xbead3a6c	-0.33833635
193	0xbde82547	-0.11335235
194	0x3e8ea212	0.27858025
195	0x3dd308e3	0.103044294
196	0xbe4a75b3	-0.19771461
197	0xbe5bb60a	-0.21456161
198	0xbe1f2780	-0.15542412
199	0xbd958800	-0.073013306
200	0xbe1cc94f	-0.15311168
201	0xbe074ef6	-0.13213715
202	0xbea659b8	-0.32490325
203	0x3e052469	0.1300217
204	0x3e54d38f	0.20783828
205	0xbe9461f6	-0.28980988
206	0x3e6a272b	0.22866504
207	0xbdf89b3b	-0.12138983
208	0x3e8682b3	0.2627159
209	0xbdf133e7	-0.11777478
210	0xbeaa03c9	-0.33206013
211	0xbe2b30f2	-0.1671789
212	0x3dd85cda	0.10564585
213	0x3dc3011c	0.09521696
214	0xbe170930	-0.14749599
215	0xbe7837e7	-0.24240075
216	0xbea25133	-0.31702575
217	0x3e006ac8	0.12540734
218	0xbe9f019c	-0.31055915
219	0xbcb54653	-0.02212826
220	0xbe6286f5	-0.22121795
221	0xbe7db7b3	-0.24777107
222	0xbd0f2ab7	-0.034952845
223	0xbdc7374c	-0.09727344
224	0xbd800b3a	-0.06252141
225	0x3e2041fd	0.15650173
226	0xbe29c714	-0.16579849
227	0xbdfcfdc3	-0.12353089
228	0xbe776a33	-0.24161606
229	0x3e9b448f	0.30325744
230	0x3e351542	0.1768389
231	0xbe7d757a	-0.24751845
232	0x3e995975	0.29951063
233	0xbd0ede03	-0.034879696
234	0x3ddf7b61	0.109122045
235	0xbdfd38d9	-0.123643585
236	0x3d86501d	0.06558249
237	0x3e1c375f	0.15255497
238	0x3df6081e	0.12013267
239	0x3e3b8501	0.18312456
240	0xbe3da0fc	-0.18518442
241	0xbe11399e	-0.14182135
242	0x3d53a262	0.051668532
243	0xbd9e9513	-0.077432774
244	0x3e422d9d	0.18962713
245	0xbb9ebf3c	-0.0048445743
246	0x3d9b0915	0.07570092
247	0xbd9b9e3f	-0.075985424
248	0xbe87f792	-0.2655607
249	0xbdcf6239	-0.10126156
250	0x3e7d3a2e	0.24729225
251	0xbd79b2e7	-0.06096163
252	0xbdd4856f	-0.10377013
253	0xbe589cf9	-0.2115363
254	0x3dbc4a67	0.091938786
255	0xbd92e71b	-0.07172986

conv1.bias f4 [32]
0	0x3c7adb5e	0.01531109
1	0x3d8d740a	0.06906898
2	0x3e6b03eb	0.22950713
3	0xbdac14d7	-0.084024124
4	0xbdfd0c34	-0.12355843
5	0x3e93c029	0.28857544
6	0xbd183608	-0.037160903
7	0xbe56e8e5	-0.2098728
8	0xbe9b626a	-0.3034852
9	0x3de3c4d4	0.11121526
10	0xbdd093e9	-0.101844616
11	0xbe94d9b7	-0.29072353
12	0x3e71d023	0.23614554
13	0xbea85d84	-0.32883847
14	0xbe0edd46	-0.13951597
15	0x3e877b5f	0.26461312
16	0x3e08feeb	0.13378493
17	0xbea76547	-0.32694456
18	0xbd80598c	-0.0626708
19	0x3e10b819	0.14132728
20	0x3dd7a755	0.10529963
21	0x3dcf9839	0.10136456
22	0x3d3fe162	0.0468458
23	0x3e94e78b	0.29082903
24	0xbdfed686	-0.12443261
25	0xbe94eda0	-0.29087543
26	0x3d4de37a	0.050265767
27	0x3c86741c	0.016412787
28	0x3db77247	0.089573435
29	0x3e28c232	0.1648033
30	0x3e8efc8b	0.2792705
31	0x3e1380d4	0.14404613

conv2.weight f4 [32, 32, 3, 3]
0	0x3d43c249	0.047792707
1	0x3ba8153a	0.0051294835
2	0xbd29a656	-0.041418396
3	0x3c9f544e	0.01944938
4	0x3d26da95	0.0407358
5	0x3b3d3bc3	0.0028874732
6	0x3d26dc8c	0.040737674
7	0x3c1f2873	0.009714234
8	0x3ce18a03	0.02753163
9	0x3c2244c8	0.009904094
10	0x3c8938d2	0.016750727
11	0x3d009f25	0.031401772
12	0x3d2b1826	0.041771077
13	0xba8bbe3a	-0.001066155
14	0x3cc301a0	0.023804486
15	0x3d3d9afc	0.046290383
16	0xbc8f0fc8	-0.01746358
17	0xbc807bbf	-0.015684007
18	0x3d0f0639	0.034918044
19	0xbd387fca	-0.045043744
20	0xbc264b39	-0.01014977
21	0xbc6f2a3a	-0.01459747
22	0x3d05650b	0.032567065
23	0x3d33ffec	0.043945238
24	0x3b329d24	0.0027254308
25	0xbc031851	-0.008001403
26	0x3ac99d72	0.0015382005
27	0xbd20ee4c	-0.039289758
28	0x3c9d52bd	0.019204492
29	0x3d328887	0.043587234
30	0xbd6655e8	-0.05623427
31	0x3cad4c5e	0.021154579
32	0xbd0c40d7	-0.034241524
33	0x3d06c403	0.032901775
34	0xbd83c954	-0.06434885
35	0x3d3cbd63	0.04607905
36	0xbc4034da	-0.011731351
37	0x393c8936	0.00017980192
38	0x3cd9c5a0	0.026583493
39	0x3d3e81bd	0.046510447
40	0xbca0002f	-0.019531338
41	0xbb668251	-0.003517289
42	0xbd2a9615	-0.041647036
43	0xbd335ff6	-0.043792687
44	0x3cd25fbb	0.025680413
45	0x3d3bb0da	0.045822956
46	0xbbad2638	-0.005284097
47	0xbce57a4b	-0.028012415
48	0xbb8af4cf	-0.0042406092
49	0xbcba9870	-0.022777766
50	0x3cff3d7d	0.03115725
51	0x3d573290	0.052538455
52	0xbbf2abe3	-0.0074057444
53	0xbd3d782e	-0.04625719
54	0x3d1d0125	0.03833117
55	0xbd1ddc8e	-0.038540415
56	0x3cfbde3c	0.030745618
57	0xbaf6da95	-0.0018833453
58	0x3d321187	0.043473747
59	0xbc60706c	-0.013698678
60	0x3cc110b2	0.023567531
61	0xbd1c6958	-0.0381864
62	0x3cb88906	0.022526275
63	0xbc49733f	-0.012295543
64	0xbc92a24e	-0.017899659
65	0xbd8ec6d4	-0.06971517
66	0xbab5ffc1	-0.0013885425
67	0x3d0abd04	0.033871666
68	0x3cb5c062	0.022186462
69	0xbd753d7a	-0.05987308
70	0xbcd356fe	-0.025798317
71	0xbd8ba36c	-0.068182796
72	0xbd4b5573	-0.049642038
73	0x3c4882be	0.012238203
74	0xbd262f44	-0.04057242
75	0xbd088e70	-0.033338964
76	0xbd52a5d0	-0.051427662
77	0xbd520042	-0.051269777
78	0xbcfcee82	-0.030875448
79	0x3d7213ea	0.059101023
80	0x3d50cad5	0.050974686
81	0xbd401e35	-0.046903808
82	0xbd1633ba	-0.036670424
83	0x3cd8fa17	0.02648644
84	0xbd4a002c	-0.04931657
85	0x3cc3994b	0.023876807
86	0x3d3a29a8	0.045449883
87	0x3b9ab81d	0.004721655
88	0xbc5e8409	-0.013581284
89	0x3cc20db0	0.023688167
90	0xbcd39677	-0.025828583
91	0x3d5efe33	0.054441642
92	0x3d39bd8b	0.045346778
93	0xbd06a91e	-0.032876126
94	0x3d7c07c1	0.061530832
95	0x3d625c70	0.055263937
96	0x3ba8ea85	0.00515491
97	0xbc8138cd	-0.015774155
98	0xbd191930	-0.037377536
99	0x3ca95bf1	0.020673724
100	0x3d5777c1	0.05260444
101	0x3d16cfbc	0.036819205
102	0xbd010e61	-0.031507853
103	0x3baa347a	0.005194244
104	0x3cc87468	0.02446957
105	0xbcf9a730	-0.030475229
106	0xbd336eb4	-0.043806747
107	0x3d3cb56f	0.046071466
108	0xbce770ae	-0.028251972
109	0x3cc02f0a	0.02345993
110	0x3c47a923	0.012186321
111	0x3d46e6fd	0.04856013
112	0x3d139cfa	0.036038376
113	0x3c683f40	0.014175236
114	0x3a9d24cc	0.0011989116
115	0xbcbee7f9	-0.023303973
116	0x3d00badf	0.031428214
117	0xbd2c8957	-0.042123165
118	0xbd729ebe	-0.05923342
119	0x3d383829	0.044975433
120	0xbbfef541	-0.0077807014
121	0xbc427c8f	-0.011870517
122	0x3d0d2b38	0.034465045
123	0xbcc78287	-0.024354232
124	0xbd0c23c3	-0.034213793
125	0xbd0da13d	-0.034577597
126	0xbc6191dd	-0.013767687
127	0x3bfdef94	0.007749507
128	0x3d6ee70b	0.05832581
129	0xbd3dff42	-0.04638601
130	0x3d6dde87	0.058073547
131	0xbcf3d03f	-0.029762385
132	0x3d48864d	0.048956204
133	0x3bc5d4ff	0.006037354
134	0xbd2ef9d3	-0.04271872
135	0xbd7c3cb5	-0.061581332
136	0x3d3d917c	0.046281323
137	0xbd061bdd	-0.032741416
138	0x3cf97cf9	0.0304551
139	0xbc5243ef	-0.012833579
140	0x3caa6ea9	0.02080472
141	0x3d11e32b	0.035617035
142	0xbd492fc4	-0.04911782
143	0x3ce79393	0.028268611
144	0x3c1f8990	0.009737387
145	0x3d209657	0.039205875
146	0x3cbdcbc8	0.02316846
147	0x3c452d3e	0.012034712
148	0x3d6e3cf2	0.05816359
149	0x3cc2f5dc	0.023798876
150	0xbd2d59be	-0.042321913
151	0x3d651ac5	0.055933733
152	0xbcfd29b3	-0.030903673
153	0xbca7c097	-0.020477576
154	0xbd010c23	-0.031505715
155	0xbcc761e5	-0.024338672
156	0x3cca288b	0.024677536
157	0xbb321e09	-0.0027178547
158	0x3d3e99c1	0.04653335
159	0xbd1bdef5	-0.038054425
160	0xbd56f49a	-0.052479364
161	0x3d4a845c	0.049442634
162	0xbce2df74	-0.027694441
163	0xbd572f7b	-0.052535515
164	0xbce28309	-0.027650373
165	0xbd304c81	-0.04304171
166	0xbcceb649	-0.025233405
167	0x3c51f7c6	0.012815421
168	0x3c1a4d01	0.009417773
169	0xbcf44dfc	-0.029822342
170	0x3c7081e7	0.014679409
171	0x3d514dc6	0.05109956
172	0x3d331b0f	0.043726977
173	0xbd696ee3	-0.056990515
174	0x3c74e828	0.0149479285
175	0x3bc14c7e	0.005899011
176	0x3bd06e12	0.0063607777
177	0x3c4a888c	0.012361657
178	0xbd1a3c78	-0.037655324
179	0xbcc3b833	-0.023891544
180	0xbd015222	-0.03157247
181	0xbd626db0	-0.055280387
182	0xbd2cbc2d	-0.042171646
183	0x3b77e981	0.0037828388
184	0xbd09102f	-0.0334627
185	0xbc8f9590	-0.017527372
186	0xbce901de	-0.028443273
187	0x3d0bdc2e	0.034145527
188	0x3d30a7e3	0.04312886
189	0xbd681b53	-0.056666683
190	0x3cac2845	0.021015296
191	0xbc962c0d	-0.018331552
192	0x3c98ee33	0.01866827
193	0xbc9cdca1	-0.019148173
194	0x3c3bf98e	0.011473073
195	0xbd201b40	-0.039088488
196	0x3c8b2612	0.016985927
197	0xbbe55d2f	-0.0069996337
198	0x3d5a7103	0.053330433
199	0x3d1b7996	0.03795775
200	0x3d809f44	0.062803775
201	0x3d352525	0.044224877
202	0x3ae3e7b2	0.0017387776
203	0x3caead37	0.02132283
204	0x3d6eb985	0.058282394
205	0x3d38878d	0.045051146
206	0xbbab6399	-0.005230379
207	0xbd599e92	-0.05312974
208	0x3d2e2f89	0.0425258
209	0x3d779f02	0.060454376
210	0xbd3fb09a	-0.04679928
211	0x3ca74f36	0.020423513
212	0x3d38cf9a	0.04511986
213	0xbd027b27	-0.03185573
214	0x3d13cc50	0.03608352
215	0xbc58c481	-0.013230444
216	0x3c83b53c	0.01607763
217	0x3d6126b1	0.05496854
218	0x3bb10f26	0.005403417
219	0xbd13e820	-0.036110044
220	0xbd1e6a16	-0.03867539
221	0x3d27b732	0.040946193
222	0x3d283290	0.041063845
223	0x3c4bee42	0.012446942
224	0x3d4388dd	0.047737945
225	0x3cf6872f	0.030093757
226	0x3d3db7c0	0.046317816
227	0x3c21e211	0.009880559
228	0xbce33381	-0.02773452
229	0xbd3b9548	-0.045796663
230	0x3d331943	0.043725263
231	0xbce12d55	-0.027487436
232	0x3c803f12	0.015655074
233	0xbd4bd751	-0.04976589
234	0xbd594c2b	-0.053051155
235	0x3d4efe02	0.05053521
236	0xbd068924	-0.03284563
237	0x3c2bd6cc	0.010488223
238	0xbd29840e	-0.041385703
239	0xbcdcb5d9	-0.02694218
240	0x3d4bc392	0.049747057
241	0xbd5680ac	-0.052368805
242	0x3cad8073	0.021179413
243	0x3c0825ec	0.0083098225
244	0xbd7366e0	-0.05942428
245	0xbce8be8d	-0.028411174
246	0x3d233c51	0.039852444
247	0xbd0752c6	-0.033037923
248	0xbd383850	-0.04497558
249	0x3caf2bf6	0.021383267
250	0xbae25510	-0.0017267782
251	0x3c73838d	0.014862907
252	0x398e6880	0.0002716221
253	0xbc98d697	-0.018657012
254	0x3b22f8cc	0.0024867533
255	0xbc481b59	-0.012213551

conv2.bias f4 [32]
0	0xbd2636db	-0.040579658
1	0xbd4a4181	-0.049378876
2	0xbcde47d5	-0.027133862
3	0xbc34f352	-0.01104434
4	0x3cda3cac	0.026640259
5	0x3ce796e2	0.028270189
6	0x3d486107	0.048920657
7	0xbd360d5e	-0.04444634
8	0xbd526f48	-0.051375657
9	0x3c75c3f1	0.015000329
10	0xbabeca08	-0.001455606
11	0xbd0e9b15	-0.034815867
12	0xbd6e5e67	-0.058195498
13	0x3d2f5474	0.04280515
14	0x3d5c5638	0.053793162
15	0x3c45acff	0.012065171
16	0x3cd1c5ab	0.02560695
17	0xbd117c57	-0.03551897
18	0x3ba8ad1c	0.0051475894
19	0x3d6d28f8	0.0579004
20	0xbcc878e5	-0.02447171
21	0x3d3ac015	0.04559334
22	0xbd0d8ad9	-0.034556244
23	0xbd0458fe	-0.032311432
24	0xbc63ee39	-0.013911777
25	0x3d0647e1	0.032783393
26	0xbc95e292	-0.018296514
27	0x3cf8d688	0.030375734
28	0xbb30cd52	-0.002697785
29	0xbd6d0fd4	-0.057876423
30	0x3cef4f1d	0.029212529
31	0xbcb56fe3	-0.022148078

conv3.weight f4 [32, 32, 3, 3]
0	0x3c58e222	0.013237508
1	0x3d145ca0	0.036221147
2	0x3d4967b0	0.04917115
3	0x3cf6477f	0.030063389
4	0x3cb93761	0.022609415
5	0xbd5a0f12	-0.05323703
6	0x3be6236a	0.0070232647
7	0xbd0d3a1f	-0.034479257
8	0xbd2eae5f	-0.042646762
9	0xbd104dbd	-0.035230387
10	0x3d2176ac	0.039419815
11	0xbd16010a	-0.036622085
12	0x3c67c5d4	0.014146287
13	0xbce9d7ef	-0.028545348
14	0x3d4ad14a	0.049516
15	0x3beb2483	0.0071759834
16	0xbcf07f3f	-0.02935755
17	0x3ce0e92e	0.027454939
18	0xbd2acf4c	-0.0417016
19	0xbd431b8e	-0.0476337
20	0xbd28f5c2	-0.041249998
21	0xbd71a9ab	-0.0589997
22	0x3c3f7f0e	0.011688007
23	0xbcd9662f	-0.026537983
24	0xbd9eb20c	-0.077488035
25	0xbd466c86	-0.04844334
26	0xbcf621af	-0.030045358
27	0x3d777424	0.060413495
28	0xbd128351	-0.035769764
29	0x3c0d2a2f	0.008616014
30	0x3c1e489f	0.009660869
31	0xbc1cfa71	-0.009581194
32	0xbc65b7a3	-0.014020833
33	0x3d786deb	0.0606517
34	0xbd2dcb74	-0.042430356
35	0x3c671fe4	0.014106724
36	0xbd81958c	-0.06327352
37	0xbd9fe2df	-0.07806944
38	0xbd9abafc	-0.07555196
39	0xbd9bac05	-0.076011695
40	0x3d01beda	0.03167615
41	0xbd5c35b1	-0.05376214
42	0x3ccb24de	0.024797853
43	0xbd44a81b	-0.04801188
44	0xbd985ab0	-0.07439172
45	0xbd13443c	-0.035953745
46	0x3d3a9a21	0.045557145
47	0xbc6ec95f	-0.014574378
48	0x3d3f8a5d	0.046762813
49	0x3d240268	0.040041357
50	0x3d2d90ab	0.042374294
51	0x3d527b90	0.05138737
52	0x3d7f7fb7	0.062377658
53	0xbbdf9aae	-0.006823859
54	0xbc9e050d	-0.019289518
55	0x3c5b35f1	0.01337956
56	0xbca9edb0	-0.020743221
57	0xbcfc7d5a	-0.030821491
58	0x3d640c3c	0.05567573
59	0x3ca7bcfd	0.020475859
60	0xbd20b545	-0.039235372
61	0xbd6f7d20	-0.058468938
62	0x3d017730	0.031607807
63	0x3d439159	0.047746036
64	0x3c8720d2	0.016495142
65	0x3d0c1184	0.03419639
66	0xbd1c8458	-0.03821215
67	0xbd7faa44	-0.062418237
68	0xbd00a760	-0.03140962
69	0x3d44c678	0.048040837
70	0xbd943968	-0.07237512
71	0x3c98f8b5	0.01867328
72	0xbbcd8c5e	-0.0062728366
73	0xbafe1571	-0.0019385052
74	0x3bd24507	0.00641692
75	0x3d032448	0.032017022
76	0xbce3a8c9	-0.027790444
77	0xbb4b95fc	-0.003106474
78	0x3d5377f7	0.05162808
79	0x3d162cc9	0.036663804
80	0xbc2ccf82	-0.010547521
81	0xbb36f008	-0.0027914066
82	0x3c54d92e	0.012991233
83	0x3d3d9b74	0.04629083
84	0x3ce1ea98	0.027577683
85	0x3c8120d4	0.015762724
86	0x3d5ec1a8	0.054383904
87	0x3d7652ca	0.060137548
88	0x3d1c1faa	0.038116135
89	0x3d1b06e5	0.037848372
90	0x3b48d177	0.003064243
91	0x3d291424	0.041278973
92	0x3d357e59	0.044309948
93	0x3d14d7f6	0.03633877
94	0xbd0e3dd7	-0.034726944
95	0xbcb062e6	-0.021531533
96	0xbd0b2204	-0.033967987
97	0x3c88ea57	0.016713304
98	0xbcb74fde	-0.02237695
99	0x3b2a47b8	0.002598269
100	0xbd0d61a3	-0.03451694
101	0x3c73ed10	0.014888063
102	0xbc181b5f	-0.0092838695
103	0xbba31847	-0.0049772593
104	0xbaa125fb	-0.0012294644
105	0xbcb809b7	-0.02246557
106	0xbc77b581	-0.0151189575
107	0x3d709a48	0.058740884
108	0x3db3e55b	0.087839805
109	0xbc90e898	-0.017689034
110	0x3d9c580f	0.07633983
111	0x3c7fcf3a	0.0156133715
112	0x3c056488	0.008141644
113	0xbc7e1167	-0.015507079
114	0xbbef3188	-0.0072996058
115	0x3cb4662d	0.022021377
116	0xbbff53aa	-0.007791956
117	0x3d0de154	0.034638718
118	0x3bb96ddc	0.005658848
119	0xbd5756c6	-0.052572988
120	0xbd664304	-0.056216255
121	0x3d5e84fc	0.054326043
122	0x3d65b44f	0.05608016
123	0xbc4769ea	-0.012171248
124	0x3c8c01e5	0.017090747
125	0x3d46b04a	0.048507966
126	0xbd0676c8	-0.032828122
127	0xbbe78d25	-0.0070663863
128	0xbd77cd0f	-0.060498293
129	0x3c1c180c	0.009527218
130	0x3c508c8d	0.012728822
131	0xbca89b0f	-0.02058175
132	0xbc15cfd6	-0.00914379
133	0x39c98202	0.0003843457
134	0xbd1e98f4	-0.038720086
135	0xbcf90dcf	-0.030402092
136	0x3c867b97	0.016416354
137	0xbd44260e	-0.047887854
138	0x3b96b6b5	0.004599417
139	0x3c3d9e3e	0.011573372
140	0xbd8c3981	-0.068469055
141	0x3c1cd304	0.009571794
142	0xbdbf43dc	-0.09339115
143	0x3bb06f69	0.005384375
144	0xbca79f70	-0.020461768
145	0x3d4095db	0.047017913
146	0x3b336f6e	0.002737965
147	0xbcd46f3a	-0.025931943
148	0x3cba6ccf	0.022756962
149	0xbd504473	-0.05084653
150	0x3be2ce65	0.006921577
151	0x3d238896	0.03992518
152	0xbd3c810a	-0.0460215
153	0xbc910d06	-0.017706405
154	0xbd4dd4b5	-0.05025168
155	0xbc21715b	-0.009853686
156	0xbc4710be	-0.012149988
157	0x3caf0c9d	0.02136832
158	0xbd4d85f7	-0.050176587
159	0x3d29ff54	0.041503266
160	0x3c6586f0	0.014009222
161	0xbcf108ca	-0.029423136
162	0xbbffea3a	-0.0078099044
163	0x3d1772f0	0.036974847
164	0xbd5e6d67	-0.054303553
165	0x3d51d574	0.051228955
166	0xbcd18bde	-0.02557939
167	0xbc7416f3	-0.01489805
168	0xbd2400c7	-0.040039804
169	0xbd72e556	-0.059300743
170	0x3b18a8fa	0.0023294077
171	0x3a1cad04	0.0005976709
172	0xbd151df2	-0.03640551
173	0xbd596850	-0.053077996
174	0x3cbac460	0.022798717
175	0xbda4405d	-0.08020089
176	0xbd2b354c	-0.041798875
177	0xbafee15f	-0.0019445828
178	0x3cd4bf22	0.025970045
179	0xbda1bedf	-0.07897734
180	0x3cd6784f	0.026180414
181	0x3cf00e88	0.029303804
182	0x3d3c8993	0.04602964
183	0x3c66019d	0.014038471
184	0x3d063990	0.03276974
185	0xbce8d72b	-0.028422913
186	0xbd256824	-0.04038252
187	0xbcd80ef7	-0.026374323
188	0xbd243253	-0.040087055
189	0x3c1b5f54	0.009483177
190	0xbd47e094	-0.04879816
191	0xbd3ccc10	-0.046093047
192	0xbda362fd	-0.07977865
193	0xbd75b594	-0.05998762
194	0xbd20a3d4	-0.03921874
195	0xbd4928c9	-0.04911116
196	0xbd8caff5	-0.06869499
197	0xbda4fc1d	-0.08055899
198	0xbc99121d	-0.018685395
199	0xbd09d4ea	-0.033650316
200	0x3d3ec1af	0.04657143
201	0x3cdba827	0.02681358
202	0x3d10dc07	0.035366084
203	0xbd342146	-0.043977045
204	0x3b21edfb	0.0024708498
205	0xbd7466cb	-0.059668344
206	0xbd1c0be9	-0.038097296
207	0x3d0d75a4	0.03453602
208	0xbd2797d8	-0.040916294
209	0x3d483aac	0.04888408
210	0xbce9801a	-0.028503466
211	0xbbe0c4e9	-0.006859411
212	0xbc84759d	-0.016169364
213	0x3c8c259e	0.017107781
214	0x3c80017c	0.015625708
215	0xbc65532f	-0.013996883
216	0x3cddfb42	0.027097348
217	0x3cad3079	0.021141278
218	0x3c9a3e16	0.018828433
219	0xbc9aa624	-0.01887805
220	0x3c95cd42	0.018286351
221	0x3cc5dfcf	0.024154572
222	0x3c069899	0.008215093
223	0x3cb349a9	0.02188571
224	0xbd217bfb	-0.039424878
225	0xbd86bf44	-0.0657945
226	0xbd27f6d8	-0.041006893
227	0xbb3933b2	-0.0028259573
228	0xbbd98bed	-0.006638995
229	0x3bc8c533	0.0061270236
230	0x3d19b5b7	0.037526812
231	0xbcf67353	-0.030084288
232	0x3d304d2f	0.043042358
233	0xbd6b3ebe	-0.057432882
234	0xbc9ef9b5	-0.019406179
235	0x3cdd9baf	0.027051775
236	0xbcf95984	-0.030438192
237	0x3cee1a90	0.0290654
238	0x3d3e7d5e	0.04650628
239	0xbc6a116a	-0.014286378
240	0xbce2bf4f	-0.027679114
241	0x3a016c6f	0.00049371173
242	0xbcdfd949	-0.02732529
243	0x3d390a15	0.04517563
244	0xbc41fee3	-0.011840555
245	0x3c8f26f8	0.017474636
246	0xbc2a4bf5	-0.010394086
247	0xbd069125	-0.032853264
248	0xbd7b97cb	-0.061424058
249	0x3d18e8ed	0.03733151
250	0xbd38f1aa	-0.045152344
251	0xbd3a45cc	-0.04547672
252	0xbaf3e6c7	-0.0018608206
253	0xbc0d368c	-0.008618962
254	0x3d3667b3	0.04453249
255	0x3d124683	0.035711776

conv3.bias f4 [32]
0	0x3c9fc948	0.019505158
1	0x3ba47e49	0.005019937
2	0xbcc0a9fa	-0.023518551
3	0xbce1c6fa	-0.0275607
4	0xbc08876e	-0.00833307
5	0xbd3d87aa	-0.046271957
6	0x3aa1cccb	0.0012344358
7	0xbbf9080f	-0.0075998376
8	0xbb864550	-0.004097618
9	0x3c45a128	0.012062348
10	0xbb7b0c5c	-0.0038306927
11	0xbd272ed4	-0.040816143
12	0xbc0d47b7	-0.008623055
13	0x3d1a2020	0.037628293
14	0xbcddf588	-0.027094617
15	0xbc4de6d8	-0.0125672445
16	0x3d6229e6	0.05521574
17	0xbd030173	-0.031983804
18	0xbbdc5e94	-0.006725142
19	0xbd2763a4	-0.04086651
20	0x3c2f8930	0.01071386
21	0x3d4be97d	0.04978322
22	0xbd36c37a	-0.044620015
23	0xbc6e5511	-0.014546649
24	0x3d4cd5ad	0.050008465
25	0xbccc7408	-0.024957672
26	0xbd2c68b0	-0.042092025
27	0xbc5140ae	-0.0127717685
28	0x3ba7b9f2	0.005118602
29	0xbd5ca7b2	-0.053870864
30	0x3c9e8eb3	0.019355154
31	0x3ca6db5a	0.020368267

conv4.weight f4 [8, 32, 3, 3]
0	0xbd0daad2	-0.034586735
1	0xbd036265	-0.03207626
2	0x3d573eb8	0.052550048
3	0xbb298d84	-0.0025871703
4	0xbcb6ebda	-0.02232926
5	0xbd0fd902	-0.035119064
6	0xbd1c5d4f	-0.038174924
7	0xbd3828f8	-0.044960946
8	0x3b982390	0.0046429113
9	0x3d0c719b	0.03428803
10	0xbce206f4	-0.027591206
11	0xbd45bea6	-0.04827752
12	0x3cc0e040	0.02354443
13	0x3b266b2b	0.0025393467
14	0xbc30ec60	-0.010798544
15	0xbceef716	-0.029170554
16	0x3d6d9308	0.058001548
17	0x3c892382	0.016740564
18	0x3d74202a	0.059600987
19	0x3d2b5388	0.04182771
20	0xbc81deb7	-0.015853269
21	0xbc756ca9	-0.01497952
22	0x3d6fba4a	0.05852727
23	0xbb83be85	-0.0040205144
24	0x3c8e0e7c	0.017340891
25	0xbd4cfdb6	-0.050046645
26	0xbce4f74a	-0.027949948
27	0xbcb75a16	-0.022381824
28	0xbcc1b311	-0.023644956
29	0xbcbb09fc	-0.02283191
30	0x3d4886e9	0.048956785
31	0x3c74dc65	0.014945124
32	0xbbb6f1e5	-0.0055830353
33	0x3ba97296	0.0051711304
34	0xbd0178fd	-0.031609524
35	0x3a6aca1e	0.00089565094
36	0x3d078d59	0.033093784
37	0x3d2a00d5	0.0415047
38	0xbc4e0256	-0.012573799
39	0x3d6eccbc	0.05830072
40	0x3cb1b833	0.021694278
41	0xbd67721c	-0.056505308
42	0xbc7a0af8	-0.015261404
43	0xbd08e17b	-0.03341816
44	0xbd7fb805	-0.062431354
45	0x3ce2a7ff	0.027667997
46	0x3cba9b15	0.022779027
47	0xbdb9c300	-0.090703964
48	0x3d1870a6	0.037216805
49	0x3d2f95df	0.042867538
50	0xbcd20262	-0.025635902
51	0x3bb8e8fb	0.005643008
52	0xbd070726	-0.0329658
53	0x3d04222b	0.032259148
54	0xbd5a2fca	-0.05326823
55	0x3bcc173c	0.0062283557
56	0x3d375426	0.044757985
57	0xbd86da7a	-0.0658464
58	0x3b2b1543	0.0026105202
59	0xbca3ff52	-0.020019207
60	0x3cab81d5	0.020935932
61	0x3b8f734b	0.0043777577
62	0x3d0c2460	0.034214377
63	0xbd1a40ac	-0.037659332
64	0xbd2babb4	-0.041911796
65	0xbcd72b0e	-0.026265647
66	0x3cb2e060	0.021835506
67	0xbcae265f	-0.021258531
68	0xbd083f0d	-0.033263255
69	0x3c95406e	0.018219199
70	0xbcdd98b1	-0.027050348
71	0x3d1de82a	0.038551487
72	0x3d6b1e83	0.057402145
73	0xbbb8ce46	-0.005639824
74	0xbd3a116c	-0.04542677
75	0xbcb2a0bc	-0.02180516
76	0x3d29b37d	0.04143094
77	0x3c207a63	0.009794804
78	0x3c3f7a43	0.011686864
79	0xbc838d60	-0.016058624
80	0xb9d1f068	-0.00040042703
81	0x3d0c052f	0.03418463
82	0xbd1f2bc6	-0.038860105
83	0xbd2bd597	-0.041951742
84	0x3d6b25a5	0.057408947
85	0x3c0edb32	0.008719252
86	0x3a74076c	0.0009308967
87	0x3bc79606	0.0060908822
88	0xbd1874db	-0.037220817
89	0x3c8d5786	0.017253648
90	0xbda9bf4c	-0.0828844
91	0x3cab73f6	0.020929318
92	0x3beb2a43	0.007176669
93	0xbd72ccf2	-0.059277482
94	0xbc5d0b4e	-0.013491465
95	0x3c3acba2	0.011401089
96	0x3cfe8c3b	0.031072726
97	0xbd6ae3f5	-0.057346303
98	0xbba56d48	-0.0050484277
99	0xbb2e16f8	-0.0026563983
100	0xbc527304	-0.012844805
101	0xbd95c0b5	-0.073121466
102	0x3ce1546b	0.027506074
103	0x3cb3a47e	0.021929022
104	0x3c89cee4	0.016822286
105	0xbd3d2b1c	-0.04618369
106	0x3c9c9140	0.01911223
107	0xbd64dd56	-0.055875145
108	0x3cb2e06e	0.021835532
109	0xbd2ff6d1	-0.04295999
110	0xbcd4e3b0	-0.025987476
111	0x3cc9a48d	0.024614597
112	0xbd2962e3	-0.04135407
113	0xbc8cdc1c	-0.0171948
114	0x3ce3c302	0.027802948
115	0x3ba37364	0.004988121
116	0xbd65550c	-0.05598931
117	0xbdb246eb	-0.08704933
118	0x3d6724ee	0.056431703
119	0x3d2a2f6f	0.041549142
120	0xbd93ef12	-0.072233334
121	0xbd789edd	-0.06069838
122	0xbc809431	-0.015695663
123	0xbb889480	-0.004168093
124	0x3c7678ab	0.015043418
125	0xbd3bfb76	-0.04589411
126	0x3b4fd5cc	0.0031713126
127	0xbd32b821	-0.04363263
128	0xbd0561e4	-0.03256406
129	0xbd2a63ce	-0.041599087
130	0xbc64bf8b	-0.013961683
131	0xbc016a85	-0.007898931
132	0xbca93429	-0.020654755
133	0x3d11f3c9	0.035632882
134	0x3d67fd8f	0.056638297
135	0xbd9941be	-0.074832425
136	0x3d5363e1	0.051608924
137	0xbcf4feeb	-0.02990671
138	0xbda3568c	-0.07975492
139	0x3d2ad8ec	0.04171078
140	0x3b81d280	0.003961861
141	0x3b680ba9	0.003540734
142	0x3cebceaf	0.028785078
143	0xbb07282a	-0.0020623305
144	0x3db2d3e0	0.08731818
145	0xbbf212ac	-0.00738748
146	0xbd9f6098	-0.07782096
147	0xbce07483	-0.027399307
148	0xbd5857b6	-0.052818023
149	0xbd72a6fc	-0.05924128
150	0x3d8ab052	0.06771912
151	0x3b85c902	0.0040828
152	0x3d56ff35	0.05248948
153	0x3b8b7a60	0.0042565316
154	0x3c30235c	0.010750618
155	0x3d89d41f	0.06729912
156	0xbd798e91	-0.060926978
157	0xbd4a278a	-0.049354114
158	0xbd4ab7d3	-0.049491715
159	0x3c844ea8	0.016150787
160	0x3cf464f8	0.029833302
161	0xbc2cda93	-0.010550159
162	0xbb534040	-0.003223434
163	0xbc26b93d	-0.010176
164	0xbd175f1a	-0.03695593
165	0x3c884cc3	0.016638165
166	0xbcd190d7	-0.02558176
167	0x3cc3b7f2	0.023891423
168	0xbd4f6b2c	-0.050639316
169	0x3bed246e	0.007237009
170	0x3d478b4a	0.04871682
171	0x3db20767	0.08692818
172	0x3d620ecb	0.05518989
173	0xbd0ecc40	-0.034862757
174	0xbcadb0be	-0.021202441
175	0x3d75d83b	0.060020667
176	0xbd9466b0	-0.072461486
177	0x3d28c67f	0.041204926
178	0xbccd5924	-0.02506692
179	0xbc931d5e	-0.01795834
180	0x3db037d1	0.08604396
181	0xbcd69498	-0.026193902
182	0xbbcf368d	-0.0063236416
183	0x3d27f782	0.041007526
184	0x3bcee5f5	0.006314034
185	0x3c86c70c	0.016452335
186	0xba6b2688	-0.000897028
187	0xbc48c511	-0.012254016
188	0xbd7696b8	-0.06020233
189	0xbca22c2f	-0.019796459
190	0x3d687dbc	0.056760535
191	0x3d8ef99d	0.06981204
192	0xbd78d630	-0.06075114
193	0xbd0814ee	-0.033223085
194	0x3d0fe90a	0.035134353
195	0xbc5d486d	-0.013506037
196	0x3cccb74d	0.024989748
197	0x3d719ece	0.05898934
198	0x3d1d2f0f	0.038374957
199	0xbcc82e9c	-0.024436288
200	0x3c6a4cd0	0.01430054
201	0x3cfa1371	0.030526849
202	0xbcc62d91	-0.02419165
203	0x3bd5d91f	0.006526127
204	0xb9d39175	-0.0004035343
205	0x3d6365e2	0.055517085
206	0xbc9152eb	-0.017739734
207	0x3ce2e738	0.027698144
208	0xbcde372a	-0.027125914
209	0xbd7e90d6	-0.062149845
210	0xbb6fbd7d	-0.003658145
211	0xbc67fac3	-0.014158907
212	0xbd97bd96	-0.074092075
213	0x3d18ebf2	0.03733439
214	0x3bfc3afe	0.007697462
215	0x3d311bce	0.043239407
216	0x3b627822	0.0034556468
217	0xbd372dd4	-0.04472144
218	0xbd1e6c1c	-0.03867732
219	0x3d1c1b4d	0.038111974
220	0x3d08ae71	0.033369485
221	0xbc30563d	-0.010762748
222	0x3cd5c4cd	0.026094818
223	0x39040692	0.00012590949
224	0x3c2d8681	0.01059115
225	0xba474a7f	-0.00076023483
226	0x3cf6bfd6	0.030120771
227	0x3d308a5a	0.043100692
228	0xbbd6baad	-0.006553015
229	0x3b9fb712	0.0048741186
230	0x3cc0307b	0.023460617
231	0xbb6b1577	-0.0035870948
232	0xbd4bc833	-0.04975147
233	0xbbbe6d76	-0.0058113886
234	0xbd82a7f3	-0.0637969
235	0xbac14dfb	-0.0014747971
236	0x3d59303e	0.053024523
237	0x3ca6b5c8	0.020350352
238	0xbc9aa654	-0.01887814
239	0x3ca5e88a	0.020252485
240	0xbc516579	-0.012780541
241	0x3cfaeeb7	0.030631406
242	0x3c945f9c	0.018111996
243	0x3c86f9ec	0.016476594
244	0x3c6ee4bf	0.0145809045
245	0x3d5efa12	0.054437704
246	0x3cdf8982	0.027287249
247	0x3ce32730	0.027728647
248	0x3d2f94ce	0.04286652
249	0x3ce9f203	0.028557783
250	0xbaaccfb2	-0.0013184457
251	0xbd7b400f	-0.061340388
252	0xbc8d2698	-0.017230317
253	0x3ce752c4	0.028237708
254	0x3d67a92f	0.05655783
255	0xbd70fe77	-0.058836427

conv4.bias f4 [8]
0	0x3cc980cc	0.024597548
1	0x3c978340	0.018495202
2	0xbc08d373	-0.008351195
3	0xbc870dd8	-0.016486093
4	0x3a053ccc	0.0005082607
5	0xbb811ae9	-0.0039399755
6	0xbbe0b520	-0.0068575293
7	0x3c930e71	0.017951222

fc1.weight f4 [128, 1152]
0	0xbc6ad3db	-0.014332737
1	0x3bf36cf7	0.007428761
2	0xbcbf2737	-0.023334129
3	0x3bcd2936	0.0062610162
4	0xbd965ffc	-0.07342526
5	0x3c916ae5	0.017751167
6	0xbcd2bda9	-0.025725203
7	0xbd24d1be	-0.04023909
8	0x3c526560	0.0128415525
9	0xbcdd68d6	-0.027027529
10	0x3c2f0c56	0.010684093
11	0x3c034ec5	0.008014386
12	0xbc934be3	-0.017980522
13	0xbc8309d2	-0.015995894
14	0x39bb8d1d	0.00035772557
15	0xbcb6959f	-0.022288142
16	0xbc5642f4	-0.013077486
17	0xbd3ffb05	-0.04687025
18	0xbc516911	-0.012781397
19	0x3b2f809f	0.0026779545
20	0xbd10321b	-0.035204034
21	0xbd1dbac0	-0.038508177
22	0xbca906ba	-0.02063309
23	0xbcf39600	-0.029734612
24	0x3c66790c	0.014066946
25	0xbcb38720	-0.021915019
26	0xbccb7ac8	-0.02483882
27	0xbd65396f	-0.055962976
28	0xbcf39b89	-0.02973725
29	0xbd622432	-0.0552103
30	0x3d3781a1	0.044801358
31	0x3c9cdf02	0.019149307
32	0xbc3aa6a9	-0.011392274
33	0xbd5d0ba7	-0.05396619
34	0xbbd5dbfb	-0.006526468
35	0xbcb3256f	-0.021868436
36	0x3c8a0ddf	0.016852317
37	0x3d02fc76	0.031979047
38	0x3b2b2733	0.0026115894
39	0xbbb4264c	-0.0054977294
40	0x3bfdd48f	0.007746286
41	0xbd5cfd7d	-0.053952683
42	0x3c7c41a5	0.01539651
43	0x3bc11b18	0.0058931224
44	0x3c9ee5f4	0.01939676
45	0xbd145284	-0.036211506
46	0xbcaa412c	-0.02078303
47	0xbcc8416e	-0.024445262
48	0xbca60250	-0.020264775
49	0x3b7bdbd8	0.0038430598
50	0xbb3219dd	-0.002717606
51	0xbd026fab	-0.031844776
52	0x3c969efb	0.018386355
53	0x3d08c111	0.033387247
54	0x3c839144	0.016060479
55	0x3c86f7cd	0.016475582
56	0x3c3cde28	0.011527576
57	0xbd2d8056	-0.04235872
58	0xbd17f335	-0.037097175
59	0xbc0f3333	-0.008740234
60	0xbc8aeb95	-0.016958037
61	0x3d0941b7	0.033509936
62	0x3cc1e3fc	0.023668282
63	0xbda5df00	-0.080991745
64	0xbc00aa9d	-0.007853177
65	0xbcea03dc	-0.028566293
66	0x3d07b5eb	0.033132475
67	0xbc2fff8e	-0.010742081
68	0x3d148738	0.036261767
69	0xbd2b4513	-0.04181392
70	0xbd118beb	-0.035533827
71	0xbc6e626c	-0.014549833
72	0x3c42f9cd	0.011900377
73	0xbcd2bcca	-0.025724787
74	0x3bdd35c4	0.006750794
75	0x3a7508b3	0.00093473046
76	0x3c84c850	0.016208798
77	0xbc13cf9c	-0.009021666
78	0xbd07eca6	-0.03318467
79	0x3cb5b1ac	0.022179447
80	0x3cb287c2	0.02179325
81	0xbccf4a42	-0.025303964
82	0x3b943cd7	0.0045238542
83	0xbd03534b	-0.032061856
84	0xbc518399	-0.012787723
85	0xbc565957	-0.013082824
86	0xbd0a9be2	-0.033840068
87	0xbd2cf706	-0.042227767
88	0xbb02d0b3	-0.001996082
89	0x3c9b3291	0.01894501
90	0x3c7b764d	0.015348029
91	0x3c85811d	0.016296918
92	0x3c461a20	0.01209119
93	0x3d133a8d	0.03594451
94	0x3af54d35	0.0018715026
95	0xbca7a744	-0.0204655
96	0x37b4577d	2.1498412e-05
97	0x3c3d3de4	0.0115504
98	0xbd815bca	-0.063163355
99	0xbcb0f5a9	-0.021601515
100	0xbc9adb1b	-0.018903306
101	0xbb34ebb5	-0.0027606313
102	0x3d5ad8dc	0.05342947
103	0xbcba3d26	-0.022734236
104	0xbbcf21ff	-0.0063211913
105	0x3b43e827	0.0029893012
106	0x3d348caf	0.04407948
107	0xbd6c8315	-0.057742197
108	0x3bd8798d	0.006606287
109	0xbd0be814	-0.034156874
110	0xbc947844	-0.018123753
111	0x3c5510c4	0.0130044855
112	0x3b0a229a	0.0021077753
113	0xbb8605e6	-0.0040900586
114	0x3b1fce3c	0.00243844
115	0x3b9139ee	0.0044319546
116	0x3c0559f4	0.008139122
117	0xbce47060	-0.027885616
118	0x3d3c83db	0.046024185
119	0xbd57b020	-0.0526582
120	0xbbade2f4	-0.005306596
121	0xbbe5a5dc	-0.0070082974
122	0xbcdf1421	-0.027231278
123	0xbcd65047	-0.026161326
124	0x39cea5e7	0.0003941499
125	0xbd5f98e3	-0.054589164
126	0x3c894f2d	0.016761387
127	0xbc9c48d7	-0.019077701
128	0xbcece353	-0.02891699
129	0xbc4140b5	-0.0117952125
130	0xbcc9a53b	-0.02461492
131	0xbba5e514	-0.0050627086
132	0x3bd76494	0.006573269
133	0xbd2dfeef	-0.04247945
134	0x3cfdc4ab	0.030977568
135	0xbbed81e0	-0.0072481483
136	0xbbc43b85	-0.0059885406
137	0xbc8b6ee3	-0.017020648
138	0x3b6591be	0.0035029496
139	0x3bfbd161	0.007684872
140	0xbd22a03b	-0.03970359
141	0xbcdeb5b5	-0.027186254
142	0xbd544ebb	-0.051832896
143	0x3c88759a	0.01665764
144	0xbcf352bc	-0.029702537
145	0xbd0c999c	-0.03432618
146	0xbc9d3617	-0.019190831
147	0xbce6280b	-0.028095266
148	0xbd0556cd	-0.032553483
149	0x3c5c2be3	0.013438198
150	0xbd1e62bc	-0.03866838
151	0x3c418ef6	0.01181387
152	0xbc938b1a	-0.018010665
153	0xbc9136ee	-0.017726388
154	0x3d4a67bf	0.049415346
155	0x3cc1e8d9	0.0236706
156	0xbd2fb489	-0.04289678
157	0xbd0627dc	-0.032752857
158	0xbc276232	-0.010216283
159	0xbcc70b90	-0.024297506
160	0xbcb1dec8	-0.021712676
161	0xbc260612	-0.010133283
162	0x3ccd1ca5	0.025038073
163	0xbc1b7ab5	-0.009489705
164	0xbbab3b38	-0.0052255653
165	0xbc085226	-0.008320367
166	0x3c7031f0	0.0146603435
167	0x3cac10e7	0.021004153
168	0x3c86567f	0.016398666
169	0xbc6718c6	-0.014105028
170	0x3bb6fed9	0.0055845794
171	0xbd754251	-0.059877697
172	0xbc9ad9a1	-0.018902602
173	0xbd6bfe22	-0.057615407
174	0xb9747b90	-0.00023315684
175	0x3c939751	0.01801649
176	0xbd033d84	-0.032041088
177	0xbd0fa506	-0.035069488
178	0x3be9ddf6	0.0071370555
179	0x3bfb9308	0.0076774396
180	0xbd201b8c	-0.03908877
181	0xbcaf8106	-0.021423828
182	0xbd715d8b	-0.0589271
183	0xbd8216ac	-0.063519806
184	0xbd58926e	-0.05287402
185	0xbce7b534	-0.028284647
186	0x3bdb8330	0.0066989884
187	0xbb9afff2	-0.004730218
188	0xbd2e0d5f	-0.04249322
189	0x3aaca9b5	0.0013173135
190	0x3bed4ed5	0.0072420635
191	0x3c5630c0	0.013073146
192	0x39fde869	0.0004842908
193	0xbd0cd09b	-0.03437863
194	0xbd27ea71	-0.040995065
195	0xbdce8780	-0.10084438
196	0xbcf16016	-0.029464763
197	0xbb73fe9b	-0.0037230614
198	0xbcf2574b	-0.02958264
199	0xbd06ab6c	-0.032878324
200	0xbcae2d85	-0.02126194
201	0x3c2191da	0.009861434
202	0xbb2fb737	-0.0026812085
203	0x3cb9cb17	0.022679849
204	0x3c91a84e	0.01778045
205	0xbc1bcb87	-0.009508974
206	0xbce7ea39	-0.028309928
207	0xbd985c8b	-0.07439526
208	0x3d04a73f	0.03238606
209	0xbd5faf1f	-0.054610368
210	0x3c119e11	0.008887784
211	0xbcf54d38	-0.029944047
212	0xbce00637	-0.027346713
213	0x3c78ce84	0.015185956
214	0x3d285870	0.041099966
215	0x3d1eabc0	0.038738012
216	0xbd1a281d	-0.03763591
217	0xbd469e94	-0.048491076
218	0xbd2213a9	-0.03956953
219	0xbc5a13c0	-0.013310373
220	0xbb943cad	-0.0045238347
221	0xbbf96253	-0.007610598
222	0xbc677376	-0.014126649
223	0x3d15d22b	0.036577385
224	0x3b1df0fa	0.0024099932
225	0xbbdef164	-0.0068036783
226	0x3c7a52e8	0.015278555
227	0x3b6df55b	0.0036309573
228	0xbc3a4499	-0.011368894
229	0xbc47d90c	-0.012197744
230	0xbd3b7d0a	-0.045773543
231	0xbd0d5f0c	-0.034514472
232	0xbd291efb	-0.04128931
233	0x3cf98954	0.030460991
234	0x3c9a1c72	0.018812392
235	0xbca08a55	-0.019597212
236	0xbd1108d0	-0.035408795
237	0x3d2a81de	0.041627757
238	0x3c173907	0.009229905
239	0x3b2a439e	0.0025980244
240	0x3cbaf931	0.022823902
241	0x3ca20a85	0.019780407
242	0xbc9c709d	-0.019096667
243	0xbbaad3b2	-0.0052132243
244	0x3bd10176	0.006378348
245	0x3be520d4	0.006992439
246	0x3c10c725	0.008836542
247	0xbc6cdbee	-0.014456732
248	0x3c85d8d6	0.016338747
249	0x3c5dfd9f	0.0135492375
250	0xbacbcdf8	-0.0015549054
251	0xbcafd269	-0.021462636
252	0x3b1186e3	0.0022205643
253	0xbb312786	-0.0027031614
254	0xbd4ab83a	-0.0494921
255	0xbb69d734	-0.003568125

fc1.bias f4 [128]
0	0x3c9c8ff9	0.01911162
1	0xbcb5a1da	-0.022171903
2	0x3c9f77aa	0.01946624
3	0xbbd68f4c	-0.006547844
4	0xbcd34bd4	-0.025792994
5	0xba9c7be2	-0.0011938775
6	0xbbe8ea2c	-0.0071079936
7	0x3acfeee2	0.0015864039
8	0x3ce2538e	0.027627733
9	0x3ceb08f0	0.028690785
10	0xbbdd1853	-0.0067472844
11	0x3cdbf42d	0.02684983
12	0xbc89881a	-0.016788531
13	0x3c6f0514	0.014588613
14	0xbc8601ae	-0.016358223
15	0xbae48ec4	-0.0017437567
16	0xbc7c38d7	-0.015394411
17	0x3cf302b5	0.029664377
18	0x3c5fae7d	0.013652441
19	0x3c10b5ed	0.008832437
20	0xbc8c3d05	-0.01711894
21	0xbc9e997a	-0.019360293
22	0xbba39871	-0.0049925377
23	0x3c90f44f	0.01769462
24	0xbb20f285	-0.0024558615
25	0x3c6edcab	0.0145789785
26	0x3cbab1a4	0.022789784
27	0xbc9ef519	-0.019403981
28	0xbb4de54f	-0.0031417196
29	0xbb49b9fc	-0.0030781021
30	0x3c46b14e	0.012127234
31	0x3b9e5b08	0.004832629
32	0x3b8053d9	0.0039162454
33	0xbb5a8ed0	-0.0033349283
34	0x3c246b1a	0.010035301
35	0x3c89fa86	0.016843092
36	0xbcd3d948	-0.025860444
37	0x3c7c41cd	0.0153965475
38	0xbc853206	-0.016259205
39	0xbc039d98	-0.008033179
40	0x3d3aea99	0.045633886
41	0x3c30a67a	0.010781879
42	0x3c117c70	0.008879766
43	0xba504338	-0.00079445867
44	0xbc2443c3	-0.010025921
45	0xbca7977e	-0.02045798
46	0x3c92472c	0.017856203
47	0x3c368546	0.011140173
48	0x3cbafb88	0.022825018
49	0x3b7131ef	0.0036803444
50	0x3ce0aef3	0.027427172
51	0x3d473bd3	0.048641037
52	0x3b976706	0.0046204356
53	0x3c5a2045	0.013313358
54	0x3c6646ff	0.014055013
55	0xbc6a1491	-0.01428713
56	0xbb830a03	-0.003998996
57	0xbcb5a463	-0.022173112
58	0x3d45be9a	0.048277475
59	0x3bbdb83f	0.005789786
60	0xbb017abb	-0.001975699
61	0x39b2c672	0.0003409866
62	0xbc37e308	-0.011223562
63	0x3ba6da4d	0.0050919414
64	0x3c1a96ee	0.0094353985
65	0xbc8f2278	-0.01747249
66	0xbcde48e2	-0.027134363
67	0xbc3e02bc	-0.011597332
68	0xbc78e2bb	-0.0151907755
69	0x3cf3e0d6	0.029770296
70	0x3bf85ec8	0.007579658
71	0x3d277e5e	0.040891998
72	0xbc65753c	-0.014005002
73	0x3c02f512	0.007993
74	0xba20113f	-0.00061060855
75	0xbad5acfb	-0.0016302163
76	0x3d0cb353	0.034350704
77	0x3d0c4a6b	0.034250658
78	0x3bcc4a80	0.006234467
79	0xbc81ab62	-0.015828792
80	0x3be9c634	0.0071342234
81	0x3c84779c	0.016170315
82	0x3c27d447	0.010243482
83	0xbd189f90	-0.037261546
84	0xbb9fa99a	-0.004872513
85	0xbcab24ff	-0.020891665
86	0xbc0ae462	-0.008477302
87	0xbbd17ae6	-0.0063928245
88	0x3c735684	0.01485217
89	0xbc966315	-0.018357793
90	0x3c3b0ed2	0.011417108
91	0x3d1c0edf	0.03810012
92	0x3caab18f	0.02083662
93	0x3bb05ab1	0.005381905
94	0xbc02067e	-0.007936118
95	0x3bbc79db	0.005751831
96	0x3c6f6a81	0.014612795
97	0x3d2484db	0.040165763
98	0xbc65ef96	-0.0140341725
99	0xbc9c5288	-0.019082323
100	0x3a865d53	0.0010251201
101	0x3d15d3f1	0.036579076
102	0xbcafc1e3	-0.021454757
103	0xbc83c1ae	-0.016083565
104	0xbc552151	-0.0130084315
105	0xbb7c80fe	-0.0038529034
106	0x3cb6507c	0.022255175
107	0xbc037ab8	-0.008024864
108	0xbb71e82b	-0.0036912065
109	0xb9a4f6f6	-0.00031464518
110	0x3d02d273	0.03193898
111	0xbcc39d2c	-0.023878656
112	0x3c15e356	0.009148439
113	0xbcb8e8c3	-0.022571927
114	0x3c44ab51	0.012003736
115	0xbb9e5809	-0.004832272
116	0x3b0f260a	0.0021842741
117	0xbb8dd053	-0.0043278127
118	0x3c0acc6b	0.008471589
119	0x3d486e83	0.048933517
120	0xbaf9e82f	-0.0019066388
121	0xbc91fdba	-0.017821182
122	0x3bda0994	0.006653974
123	0xbbaab29a	-0.0052092792
124	0x3c752388	0.014962085
125	0x3c0cc73b	0.008592422
126	0xbc3ec8a9	-0.011644521
127	0x3cc171ce	0.023613837

fc2.weight f4 [5, 128]
0	0xbcef878a	-0.029239435
1	0xbd394b7b	-0.045238
2	0xbdbe3ee3	-0.092893384
3	0x3d4dfc3d	0.05028938
4	0xbdf570b8	-0.1198439
5	0x3ca4cd5e	0.020117458
6	0xbab25df5	-0.0013608324
7	0x3cc88f94	0.024482526
8	0xbc9ee9e8	-0.019398645
9	0x3d4a818a	0.049439944
10	0x3c845905	0.01615573
11	0xbb84788b	-0.00404269
12	0x3c6d45f2	0.014482008
13	0xbc2804f0	-0.010255083
14	0xbd04cb64	-0.03242053
15	0xbc9eb953	-0.019375479
16	0xbd9389fd	-0.072040536
17	0xbd62f28c	-0.055407092
18	0xbde418ba	-0.11137529
19	0x3d05b103	0.032639515
20	0xbdaaec7c	-0.08345887
21	0xbd92e4a0	-0.07172513
22	0x3b4b1bab	0.0030991833
23	0x3d1e1084	0.03858997
24	0xbdeeb664	-0.11655882
25	0x3c449f1d	0.012000826
26	0x3d3cf476	0.046131574
27	0x3d8bcee0	0.06826568
28	0x3c0e4553	0.00868352
29	0xbe1c9fdf	-0.15295361
30	0x3dc1f6ce	0.094709024
31	0xbd2fd67b	-0.042929154
32	0xbe362fd8	-0.17791688
33	0xbca46d96	-0.020071786
34	0x3da585ff	0.08082198
35	0x3cf770e7	0.030205203
36	0xbdc206dc	-0.094739646
37	0x3c81f790	0.015865117
38	0xbd05e4d8	-0.032688946
39	0x3d41fca9	0.047360096
40	0xbd3b6b00	-0.04575634
41	0xbbdb91d4	-0.0067007337
42	0xbd8b29e5	-0.067951
43	0xbca8cfb8	-0.02060686
44	0x3c772eb1	0.015086816
45	0xbc1301c3	-0.008972588
46	0xbc84c4cc	-0.016207121
47	0x3dccaef4	0.09994307
48	0x3d3107e8	0.04322043
49	0xbd893a67	-0.067005925
50	0xbd279031	-0.040908996
51	0xbbe320f3	-0.006931418
52	0x3cc79a13	0.02436546
53	0xbd9226a1	-0.07136274
54	0x3d7d7839	0.06188223
55	0x3cd680e5	0.026184509
56	0x3dbcbdb6	0.09215872
57	0xbc986fea	-0.018608052
58	0xbd3ce846	-0.04611995
59	0x3dc09795	0.09403912
60	0xbdb3c2f3	-0.08777418
61	0xbd868a79	-0.0656938
62	0xbd1114e6	-0.03542032
63	0x3c3bc903	0.011461499
64	0xbdb0a1ab	-0.08624586
65	0x3d13df19	0.036101434
66	0xbe04b4da	-0.12959614
67	0xbd1f8ca8	-0.0389525
68	0xbda7fe3e	-0.0820279
69	0xbd752dac	-0.05985801
70	0x3d6a6672	0.057226606
71	0xbdaefb4b	-0.08544024
72	0xbdec4f63	-0.11538579
73	0x3bd94434	0.006630445
74	0xbd80376e	-0.062605724
75	0xbdd3ea0b	-0.103473745
76	0x3db5fbd7	0.08885925
77	0x3c9cc4ad	0.019136751
78	0x3d9dcd47	0.07705169
79	0xbc525025	-0.012836491
80	0xbd90fcd4	-0.07079473
81	0xbd9ce5b4	-0.07661
82	0x3d35b528	0.044362217
83	0xbd25ec7e	-0.04050874
84	0xbcfe2237	-0.031022174
85	0x3dced11a	0.10098477
86	0x3ca1cf31	0.019752117
87	0xbc5b42f2	-0.01338266
88	0xbdaa2131	-0.08307112
89	0xbd1a5d09	-0.03768638
90	0xbd4e043f	-0.05029702
91	0x3dac86bc	0.08424136
92	0xbcfddcb1	-0.030989023
93	0xbe18fa50	-0.14939237
94	0xbc1f60fb	-0.009727712
95	0xbdff2a70	-0.12459266
96	0xbdb8b7ee	-0.09019457
97	0xbdc96704	-0.09834102
98	0x3dcd0213	0.10010161
99	0xbd826699	-0.06367225
100	0xbe1151ab	-0.1419131
101	0xbc6f218a	-0.014595399
102	0xbb26907b	-0.0025415707
103	0xbd9eb3c8	-0.07749134
104	0x3d8659ae	0.06560074
105	0xbdd99c4c	-0.106255144
106	0x3d32c712	0.04364688
107	0xbca0bbd4	-0.019620813
108	0xbd6f9845	-0.058494825
109	0xbdaa1503	-0.08304789
110	0x3da1223d	0.078678586
111	0xbdaa3b70	-0.08312118
112	0xbdb25f75	-0.08709613
113	0x3c37c369	0.011216023
114	0x3d203b92	0.03911931
115	0x3d7eb94a	0.062188424
116	0x3dab1a00	0.083545685
117	0xbdb46b80	-0.088095665
118	0x3d178f77	0.037002053
119	0x3cccf6bb	0.025019994
120	0x3c844f3e	0.016151067
121	0xbdb06898	-0.086137
122	0xbdd29ccd	-0.102838136
123	0x3d2f10bc	0.04274057
124	0xbcf1f191	-0.029534133
125	0x3d5e412c	0.05426137
126	0xbd9e295e	-0.07722734
127	0x3d64a11c	0.05581771
128	0x3d0ba238	0.03409025
129	0xbd0dc71c	-0.034613714
130	0xbce414dd	-0.02784198
131	0xbd898c8c	-0.0671626
132	0xbd25e3a0	-0.040500283
133	0xb8fd4094	-0.00012076009
134	0x3cfa11dd	0.030526096
135	0x3dcd9737	0.100386076
136	0x3d72538d	0.05916171
137	0x3d40738a	0.046985187
138	0x3cd19dfd	0.02558803
139	0x3cb9463e	0.022616502
140	0xbd84910a	-0.064729765
141	0x3d87d7c4	0.06632951
142	0x3b33f1e8	0.002745742
143	0x3d9cffb4	0.07665959
144	0x3d8654b4	0.065591246
145	0x3dcc1eac	0.09966788
146	0x3d8064c3	0.06269219
147	0xbdd1613e	-0.102236256
148	0xbd9c4383	-0.07630064
149	0xbda23799	-0.07920761
150	0xbdd2f062	-0.10299756
151	0xbb7d64cd	-0.0038664818
152	0x3c1f3fb2	0.009719776
153	0x3d8653b9	0.065589376
154	0xbdc94f27	-0.0982955
155	0xbcecc55f	-0.028902708
156	0x3cb9b067	0.022667123
157	0x3d65b113	0.056077074
158	0x3d044cee	0.03229993
159	0x3c751e6d	0.014960867
160	0x3d4abb2e	0.049494915
161	0x3c720b48	0.0147731975
162	0xbd5544c4	-0.052067533
163	0x3d549905	0.051903743
164	0x3b058c3c	0.0020377776
165	0xbd3a339b	-0.04545937
166	0x3d88346e	0.06650625
167	0xbd13e1e6	-0.036104105
168	0x3dc51cd0	0.09624636
169	0x3d31ba24	0.04339041
170	0x3d73dcb6	0.05953666
171	0x3db77b58	0.08959073
172	0xbdd5eebf	-0.10445928
173	0xbd003bd0	-0.03130704
174	0x3d1290b7	0.035782542
175	0xbd948f2d	-0.07253871
176	0x3d7bc6fd	0.061469067
177	0xbda8ddea	-0.08245452
178	0x3c8fca51	0.017552527
179	0x3dc4a08a	0.09600933
180	0xbd94616a	-0.07245143
181	0xbcb04112	-0.021515403
182	0x3d72e95a	0.059304573
183	0xbdb453d7	-0.08805054
184	0xbda3c624	-0.07996777
185	0x3d63a7e1	0.055580024
186	0x3d4c9f0e	0.049956374
187	0x3c151ee1	0.0091016
188	0xbda6cfd8	-0.08145112
189	0x3ca8f65c	0.020625286
190	0x3d925540	0.071451664
191	0xbdb57e17	-0.0886194
192	0x3d877fcd	0.06616173
193	0x3c0629db	0.00818869
194	0xbcc17513	-0.023615396
195	0xbd948edd	-0.072538115
196	0xbc21ae03	-0.009868148
197	0x3db8b763	0.09019353
198	0xbdae9e88	-0.08526331
199	0x3dc76ce6	0.097375676
200	0xbdae7ecb	-0.085202776
201	0xbd75f421	-0.060047273
202	0xbc41757e	-0.0118077975
203	0x3d6a64fc	0.057225212
204	0x3d6adcbf	0.057339426
205	0x3da3c396	0.079962894
206	0xbd06e6f4	-0.032935098
207	0xba82b34f	-0.0009971651
208	0xbd0bd02d	-0.03413408
209	0x3c1de8af	0.009637996
210	0x3cf25160	0.029579818
211	0x3dbc0e05	0.091823615
212	0xbbeb48cf	-0.0071803103
213	0xbd5127bb	-0.05106328
214	0xbd8d1a4a	-0.0688978
215	0x3da0c34b	0.07849749
216	0xbc74c3c7	-0.014939255
217	0xbbaeee03	-0.005338432
218	0xbc6dd0a7	-0.014515079
219	0xbd5892a4	-0.052874222
220	0xbb72d2cd	-0.0037051917
221	0x3dce3819	0.100692935
222	0x3dbd042c	0.09229311
223	0xbcaac2be	-0.020844813
224	0xbcb4ed7a	-0.022085894
225	0x3d846763	0.06465032
226	0xbdaad272	-0.083409205
227	0x3d594e12	0.05305297
228	0xbcd78b53	-0.026311552
229	0x3d3dd9aa	0.04635016
230	0x3c2ed913	0.010671872
231	0xbd3522b8	-0.044222564
232	0xbcbbbcf7	-0.022917254
233	0x3d3c01db	0.045900207
234	0xbcc77b33	-0.024350738
235	0xbb894f5f	-0.00419037
236	0x3d4fc597	0.050725546
237	0x3db867cb	0.09004172
238	0xbd18eb05	-0.037333507
239	0xbdc2930a	-0.09500702
240	0xbdbb106a	-0.0913399
241	0x3d254413	0.040348124
242	0xbda3a60d	-0.07990656
243	0x3c508e9d	0.012729314
244	0x3d46f632	0.048574634
245	0xbb84c8d3	-0.0040522604
246	0x3cc3bf82	0.023895029
247	0x3d8894ae	0.066689834
248	0xbd27865d	-0.040899623
249	0x3d09af18	0.033614248
250	0x3dcdba24	0.10045269
251	0xbda11acf	-0.078664415
252	0x3c81a23a	0.015824426
253	0xbdb8c17c	-0.09021279
254	0xbd4b0cbe	-0.0495727
255	0x3cc9e63b	0.024645915

fc2.bias f4 [5]
0	0x3d9deb1a	0.07710858
1	0x3cd7a1d9	0.026322292
2	0x3d9a70b1	0.075410254
3	0xbd6f0a17	-0.05835923
4	0x3d8f2341	0.06989146
