Trained_Weights/STRIDE 3/v3.3 10th.pth (torch, 683986 bytes, 12 tensors)

conv1.weight f4 [32, 3, 3, 3]
00000000: 8beb 5a3e 2cbd 77bd d841 2d3e 8c90 e1bc
00000010: 42cc 1ebe 6142 16be 8458 053e 5817 59bd
00000020: 895f b2bd 4415 163e da54 e1bd 9214 653d
00000030: c57f 39bd cf5d 3abd cd63 2a3e 60e2 a6bd
00000040: d049 f2bd 7543 0c3e 44a5 363e f22f 86bd
00000050: ec6c 293e 358c 93bd b50b cdbd a186 f23d
00000060: 236e 10be a45f 88bc 5f7b 6ebd c098 b0bd
00000070: df1e 11bd 2b77 3c3e b852 a7bd 297a 45be
00000080: e88a 01bc dbec 4b3d ef15 25bd 5c57 50bd
00000090: eda8 1bbe 82cb 90bd 887c 81bd b75a 2abd
000000a0: 8cf0 42be 84dd 8f3d 66ae 47be 4ab9 203d
000000b0: 3692 9cbc 3509 003e f02b ae3c 887f 17be
000000c0: 4e13 87bc fe32 79bc f78e 0fbe 8d22 253e
000000d0: e135 a3bc 932e 53bd ad72 503e 8963 07bc
000000e0: d989 923d 4e48 99bd efe7 fd3d c834 d6bc
000000f0: 90d3 003e ccc8 173e d494 2fbc d077 323e
00000100: ba25 ca3d f5ad 1f3e 5ce4 fdba 3114 c2bc
00000110: 1132 3e3d dec4 e33d f92f 90bd 5814 67bc
00000120: 3b3a bb3c 5fec 43be 9f41 bb3d cd65 dfbc
00000130: d31b b5bd 36d2 083e 13dc f7bd 4592 243e
00000140: 0357 073d cb5d e73d 8d8c 803d b199 27be
00000150: 6e98 0cbe 18cb 073e cb83 ca3c 923b 55be
00000160: 6838 2c3e b749 b43d 1e3c 4cbd 1c71 55be
00000170: 85f3 21be a460 57be 4916 2fbe 6d25 16be
00000180: eeed 55be 6dfd f23c b927 48be e6c8 d13d
00000190: 642e 34be bb37 50be 1349 c8bc 55f1 84bd
000001a0: f28b 2f3d 2ebe 49bd 130d 733d 3274 e2bc
000001b0: 8c1a 0fbe 5898 babd da91 c1bd d5ed b3bd
000001c0: d1a9 d53d f044 683d 9101 383d 1ab9 093c
000001d0: 5fe8 61bd 0aa5 17be 55ce d7bd c449 193e
000001e0: 3cce 01be 056b 29be f608 28be e9ed 3abe
000001f0: d8a6 7b3d 0485 d1bd de0e 183e 53a1 883d
00000200: a688 e43c a5a8 16be ff10 333c 4001 913d
00000210: 6527 c23d 21a3 b4bb bc04 8ebd 47f1 eabd
00000220: a26e e23d f54b 1cbe 1794 4dbd 791c 17bd
00000230: c615 0c3e 0533 ebbd 461c 2abe 2e51 333b
00000240: 6150 603d d6b7 363e 1bf4 9b3d a1df ea3d
00000250: 4945 483e 87dd b63c 7c04 393e 948b 113d
00000260: 81ad 8dbb e24d 563e 0faa 4a3e 7ffd 0fbe
00000270: b040 943d 5e45 bbbd 4bc2 0e3c a4ea 8bbd
00000280: b5a1 b63d 1dd5 c2bd b6f7 453c 2df8 403d
00000290: 703d ffbb a91f 46bd 11fd 163c 60a8 f23d
000002a0: b405 a43d 20bc 373e 2bfc 383e 9e39 22be
000002b0: 665c 90bc a208 973c 2d0b 9dbc ddea 5ebe
000002c0: d4c1 2cbd ae16 2ebe da9b 5cbe 2f54 82be
000002d0: 6622 4abe 7e4a 35be 7e04 5fbd a262 c7bd
000002e0: a3f0 5a3d 4ce0 1ebe 2d7a 88bd 896e 88be
000002f0: 7341 8ebe 3772 083e 80f1 13be 9391 293e
00000300: 4f9f e7bd 83d5 d43d 3d2a dcbb 526e 03be
00000310: c76e b5bb 29e5 b5bd 9a09 cb3d 3ef8 043d
00000320: 68e1 213e b358 05be 3aa3 12be df8d d83d
00000330: ca3b 2d3d 3354 3a3e c7d4 3f3e 79f7 963d
00000340: 75ed 823d 71a9 f13d 2666 dbbc 64f8 a7bd
00000350: 7411 423e 0f74 c3bd e217 0bbe b8b9 873d
00000360: 70f8 3d3e 62cd 3e3e 5f6d 11be fc19 24be
00000370: cad5 003e 72ec bfbc 717a 0b3c ea39 bc3d
00000380: 07fa 07be 1b3a fcbd 89f3 023d a566 83bd
00000390: a161 783d 3c7f fb3c f54a 49bd 960c 0abe
000003a0: 2dd2 1bbe ea6d c03d f1d9 5f3e fcbf acbc
000003b0: 0958 443e a1d5 2d3e b7e9 323e 5c93 563e
000003c0: f647 6e3e 650e 613e 04fc 693e 5bfd 0ebe
000003d0: d477 ccbd 68ce 133e ce59 91bc bf61 083e
000003e0: e827 27be 3751 f33d fe4f 163e b5de da3d
000003f0: f281 a73d 40b3 0a3e 9d47 a93d ebb0 573e
0.21378915 -0.060483143 0.16919649 -0.027534746 -0.15507606 -0.14673759 0.13022047 -0.053000778
-0.08709628 0.1465655 -0.11002512 0.05592782 -0.045287866 -0.04549962 0.16639633 -0.08148646
-0.11830485 0.13697608 0.17836481 -0.065521136 0.16545457 -0.07204477 -0.100119986 0.11842085
-0.14104514 -0.016647168 -0.058223125 -0.08622885 -0.03542983 0.18404834 -0.08170074 -0.19284882
-0.007906653 0.04978643 -0.04030412 -0.050864562 -0.15201159 -0.07070066 -0.063225806 -0.04159042
-0.19037074 0.070246726 -0.19500121 0.039239205 -0.019112688 0.12503512 0.021261185 -0.14794743
-0.016488697 -0.015209911 -0.1401938 0.16126461 -0.019923152 -0.05155809 0.20356245 -0.008263477
0.071551986 -0.07484494 0.123977534 -0.026148215 0.12580705 0.14822692 -0.010716636 0.17428517
0.09870477 0.15593703 -0.0019370425 -0.023691269 0.046434466 0.11121534 -0.070404 -0.014103971
0.022854915 -0.19133137 0.091433756 -0.027270222 -0.08843198 0.13361439 -0.12102523 0.16071422
0.033041965 0.112971865 0.06276808 -0.16367222 -0.13730022 0.13261068 0.024721047 -0.20823506
0.16818392 0.088031225 -0.04986202 -0.20843929 -0.15815552 -0.21032959 -0.17098345 -0.14662714
-0.20891544 0.029661858 -0.19546403 0.102433965 -0.17595822 -0.2033376 -0.024448907 -0.06491343
0.04285807 -0.049253635 0.05933864 -0.027643297 -0.1397497 -0.091110885 -0.09451647 -0.08785597
0.104327805 0.05670637 0.04492337 0.008405948 -0.055153247 -0.14809051 -0.105374016 0.14969546
-0.12676328 -0.16544731 -0.16409668 -0.18254818 0.06143841 -0.10230449 0.14849421 0.06671395
0.02789719 -0.1471277 0.010929345 0.070803165 0.0948017 -0.0055126105 -0.06934497 -0.11471801
0.11056258 -0.1526335 -0.050190058 -0.036892388 0.13680181 -0.114843406 -0.16612348 0.002736162
0.054764155 0.17843565 0.07614919 0.11468435 0.1955768 0.02232243 0.18068117 0.035533503
-0.004323662 0.20928147 0.19791435 -0.14061545 0.07238901 -0.0914409 0.008713315 -0.068318635
0.08917562 -0.095133044 0.012082985 0.04711168 -0.0077893063 -0.048370037 0.009215609 0.11848521
0.080089 0.17942858 0.18064944 -0.15842292 -0.017622184 0.018436734 -0.019170368 -0.2176928
-0.042177036 -0.17000839 -0.21543828 -0.25454852 -0.19739684 -0.17704198 -0.054447643 -0.097356096
0.053452145 -0.1551525 -0.06663928 -0.26646832 -0.2778431 0.1332482 -0.14447594 0.16559438
-0.113096826 0.10392287 -0.0067189024 -0.12835053 -0.0055368873 -0.088815995 0.09913941 0.032463305
0.15808642 -0.13022117 -0.14320078 0.10573935 0.042293347 0.18196182 0.18733512 0.073714204
0.063929476 0.117998965 -0.026782107 -0.082016736 0.1895197 -0.09543621 -0.1358333 0.0662722
0.18551803 0.18633035 -0.14201878 -0.16025537 0.12581554 -0.023428176 0.008513079 0.09190734
-0.13278972 -0.1231577 0.031970534 -0.06416062 0.06063998 0.030700319 -0.04914375 -0.13481364
-0.15216894 0.093959644 0.21860482 -0.021087639 0.19174208 0.16976024 0.17471968 0.2095465
0.23269638 0.21978147 0.22850043 -0.13963835 -0.09983793 0.14434206 -0.017743018 0.13318537
-0.16323817 0.11880725 0.14678952 0.10687009 0.08179082 0.13544941 0.08265612 0.21063583

conv1.bias f4 [32]
00000000: 74aa 38bc 4112 d9bd a5c6 01bd a491 9e3b
00000010: 20ca 26be 8049 5c3e e12d 8dbd 9fe0 16bd
00000020: f323 043e 9dc9 f23d 66d9 14be ea30 f53d
00000030: 3895 4abd 36ee f7bc a614 253e 9566 bebd
00000040: 9543 84bd 85f4 f2bc 7a93 32be b88c 82bd
00000050: 1679 763c e870 38be f3f9 653c 84cf 9bbd
00000060: 7de7 37be 1cfe 693e 3acd 483d 6b45 d83d
00000070: 1de1 1abe 1d6b 8ebd e760 24bd 8ce1 0fbe
-0.011271108 -0.10599185 -0.031683583 0.004839139 -0.16288042 0.21512413 -0.06893516 -0.03683531
0.12904339 0.11854861 -0.14536056 0.1197222 -0.049458712 -0.030264955 0.16121158 -0.0929691
-0.06458203 -0.029657612 -0.1743907 -0.06374496 0.015043518 -0.1801182 0.014036643 -0.0760794
-0.179594 0.22850841 0.049023844 0.105601154 -0.15124936 -0.06954024 -0.040131476 -0.14050883

conv2.weight f4 [32, 32, 3, 3]
00000000: 73ae 86bd 1e4f 913b ec8b 05bd 09bd c33c
00000010: ed1b b3bb bf92 25bd f5c9 9c3c 86f6 293d
00000020: 7050 2dbd 1763 653c b306 a13d 9f55 a13d
00000030: 58f0 99bc addb 7c3c 15b8 fa3a 5726 f7bc
00000040: 4b4c 3dbd 81c5 40bd 98b6 31bd fc7f 923c
00000050: 4142 293d e680 46bc 928d c53b 7e9e 08bd
00000060: 1768 933d e686 22bd f375 9abb 0b77 9d3d
00000070: 32f2 423d 9a77 7d3c c2bc dd3b 2c31 7e3d
00000080: a1f3 bcbc dcc6 8ebc 1bfc 83bb 5b08 41bb
00000090: 2df1 143c 9f53 d8bc 7796 fb3c cd8d 063d
000000a0: ea4b 923d d8a5 0fbd f06e 5abd 134a 3ebd
000000b0: 81ce 82bc 5b17 5fbc e18a 88b8 e160 dcbd
000000c0: dc71 29bd 6311 bebd bfb8 d4bc 6210 b8bc
000000d0: fa83 513c d8c6 ef3b d645 2f3d 162b 0c3e
000000e0: 4dae 8e3d cd32 6a3d bb00 473d 1f90 1e3d
000000f0: f0a9 6a3c a4df c83d 4438 5d3d 4f86 10bd
00000100: 84b9 b6bd aee9 bbbc 8ec2 43bd ffd4 9cbd
00000110: 7073 86bd 6472 213d fc14 06bd f9de 3cbd
00000120: 3d21 bdbd b479 bcbd a13e 29be 00bc abbd
00000130: 9ec1 20be ebce 1dbe c1d6 ebbd 20fd d6bd
00000140: 8ebf 0dbe fef0 1fbd 9b79 83bd 3f0d e7bd
00000150: 8439 d7bc f3c8 c6bd ab54 d2bc 575d 4ebd
00000160: df8f 88bc 58c8 503b 78af 863c 4446 ae3d
00000170: 8d19 dd3c b9b0 f4bc f162 293d 2b8e cb3b
00000180: ea5c 6f3c ea52 3a3d 7be2 9abc 6ccc b0bd
00000190: 12c3 28bd 1c0f 8dbd c802 64bd ee49 85bd
000001a0: b8df 7dbd 8009 bfbd b79c 93bd 12f4 57bd
000001b0: a621 423d f42c f93c 17ae a13d 572f 5a3d
000001c0: 6418 de3c 605f 7d3d 5e52 513d 16fd d2b8
000001d0: 0d25 8e3d 69c3 533d 3058 c93d f911 c53d
000001e0: fc26 9e3c f786 a63d e314 173d a26f 64ba
000001f0: cc13 a63d 2e47 0e3d 4992 ecbc dad1 16be
00000200: e749 08be 68e0 d3bd 642f d6bd 82a5 44bd
00000210: 16be 91bd 81de b8bd 1169 87bd 258b 3cbd
00000220: cfbf ca3c 4df5 893d 17f4 f7ba 890a 4ebc
00000230: 3f8d 9f3c f52b 2b3d 8334 073d f8f6 4e3d
00000240: ffac 9abc 0b1e adbb 773a 39bd baec 84bd
00000250: baaa 97bd 357a 563c 85b6 07bd bd54 7b3c
00000260: 6d36 14bc 0787 e33b 81e5 0cbd d833 0abd
00000270: 0da5 ad3c 49f1 14bd 79ff 843c abac fabc
00000280: 361f 1bbd 6c73 cebc 0f26 1c3c ffa8 c2bc
00000290: 15d5 7dbc 7e3e 893d db09 ba3d 0858 d33d
000002a0: 8be3 c53d d385 433d f5d7 e53d 513f 4f3c
000002b0: ee43 d43b 61ed b3bc 239e 41bb b175 22bd
000002c0: c6f7 5f3d d123 803c 1454 94b9 906f 6d3d
000002d0: 21e1 953d 9f2c f23c f32a 613d 5dab 083d
000002e0: 31c0 c93d 93cb 963d eeeb 683d b5bb e43d
000002f0: f860 c83d f0d3 ab3d ea40 b83d 6fc9 3e3d
00000300: c57b afbb f161 bf3d 0618 963b 868e e33c
00000310: dbcc 8d3d a495 983d 510a 54bd 41ff bfbd
00000320: 499b 14bc 2ab8 adbd dd4f d3bd 7271 5fbc
00000330: 7bd6 8c3c bbaa 9ebd 1c7d c73c dba5 9dbd
00000340: 584e bebd d581 c7bd 0c25 9b3b 2908 4539
00000350: 2549 af3c 87f4 003d cdf2 f2bc bd47 6ebd
00000360: 7bd9 d73d 619e dd3c 3f27 353d 10ef d73d
00000370: bd42 f33c c159 a23d 7f42 133c f45c 2d3d
00000380: 67e1 a73d af9f 0bbd 2ec0 ebbd c874 b3bd
00000390: 3a90 38bd faef 86bd 4b21 b0bd 2eb7 cebd
000003a0: 5bf2 74bd b595 16be 2947 8fbd e864 cfbc
000003b0: 649f 55bd 342d 8bbb 1812 79bd ffee 173b
000003c0: 2289 b7bd 3e49 153c cc58 06bd 827f ddbb
000003d0: 5201 2f3c d7c0 093d 1648 833d 8300 723d
000003e0: 5676 2d3b 8ea9 84bb 75bc 32bd 47e5 623d
000003f0: 8446 863d 16d0 b03d dd9f 8d3d 69e5 97bb
-0.06576242 0.0044344803 -0.032604143 0.02389385 -0.0054659755 -0.04042315 0.01913927 0.04149487
-0.04231304 0.014000676 0.07862606 0.07877659 -0.018791363 0.015433234 0.0019128347 -0.030169649
-0.046215337 -0.047063354 -0.043387026 0.017883293 0.04132295 -0.012115693 0.0060288394 -0.033354275
0.07197588 -0.03967943 -0.0047137677 0.07688721 0.047594257 0.01547041 0.0067668865 0.062058613
-0.02306539 -0.017428808 -0.004027856 -0.0029454443 0.009090704 -0.026407061 0.030711396 0.032850076
0.07143386 -0.03507027 -0.053328454 -0.04645736 -0.01596761 -0.013616408 -6.5108536e-05 -0.10760666
-0.04136835 -0.0928066 -0.025967 -0.02246875 0.012787813 0.007317405 0.04279121 0.13688311
0.06966839 0.057177354 0.04858468 0.038711663 0.014322743 0.09808281 0.054008737 -0.035284337
-0.08922103 -0.022938576 -0.047792964 -0.07657813 -0.06564987 0.039415732 -0.032734856 -0.04611108
-0.09234855 -0.092029005 -0.16527797 -0.083854675 -0.15698859 -0.15410964 -0.115155704 -0.104974985
-0.13842604 -0.039048187 -0.06419679 -0.11281823 -0.026272543 -0.09706297 -0.025675138 -0.050381985
-0.016670166 0.0031857695 0.016441092 0.08509496 0.026989723 -0.029869424 0.041354124 0.006212016
0.014609555 0.04548923 -0.018906822 -0.086327404 -0.04120166 -0.068876475 -0.055666715 -0.065082416
-0.061980933 -0.09327984 -0.07207625 -0.052722998 0.04739537 0.030416943 0.07894533 0.053267803
0.02711124 0.061858535 0.051103942 -0.00010060721 0.069406606 0.05170003 0.098312736 0.09622569
0.019305699 0.08131211 0.036885154 -0.00087141444 0.08109245 0.03473585 -0.028878348 -0.1472849
-0.13309442 -0.103455365 -0.10458258 -0.048009403 -0.07116334 -0.09026814 -0.06611837 -0.046031136
0.024749665 0.067362405 -0.0018917349 -0.012575754 0.019476531 0.041789968 0.033009063 0.050528497
-0.01888132 -0.0052831224 -0.045221772 -0.064904645 -0.074056104 0.01309066 -0.03313305 0.015340027
-0.009046179 0.0069435867 -0.03439856 -0.03374085 0.021196866 -0.03636292 0.0162351 -0.030599913
-0.037871562 -0.025201522 0.009530558 -0.023762224 -0.015492697 0.067013726 0.09083911 0.10319525
0.09662541 0.047735047 0.11222831 0.012649373 0.0064778244 -0.021963777 -0.002954372 -0.03966302
0.054679655 0.015642079 -0.00028291403 0.057967722 0.073183306 0.029562293 0.0549726 0.03336655
0.09851111 0.073630475 0.056865625 0.11168615 0.0978412 0.08390033 0.089967564 0.04657882
-0.0053553306 0.09344853 0.0045805005 0.027777921 0.06923839 0.07450417 -0.05176765 -0.09374858
-0.009070226 -0.08482392 -0.10317967 -0.013637887 0.017192116 -0.07747408 0.024351649 -0.0769765
-0.09292287 -0.0974156 0.004734641 0.00018790424 0.021397183 0.0314832 -0.029656792 -0.058173884
0.10539528 0.02705306 0.04422688 0.105436444 0.02969491 0.079272754 0.008988022 0.042324975
0.08197289 -0.034087833 -0.11511265 -0.08762509 -0.04505942 -0.06588741 -0.086001 -0.100935325
-0.05980144 -0.14705546 -0.069959946 -0.02531667 -0.05215396 -0.004247332 -0.06080827 0.0023183224
-0.08961703 0.009111701 -0.032799527 -0.006759585 0.010681467 0.033631172 0.06410234 0.05908252
0.0026468239 -0.004048533 -0.043636758 0.055394437 0.065564185 0.08633439 0.06915257 -0.004635502

conv2.bias f4 [32]
00000000: b5bc 8dbd c340 65bd 8346 07bd 3043 613d
00000010: 74e2 bcbc b4f0 973d 588c ab3d 9fd8 8d3b
00000020: 9cfc 193d 3a47 f73c 88b0 553d ecdc ac3d
00000030: 6e73 cebb 3e26 f2bc deea ba3b 4f51 3bbc
00000040: 0b5a 72bd f18f 9c3c c61e 2a3b a983 64bc
00000050: 99e0 2a3d 99cc d73c e985 c2bc cc3e 1abd
00000060: bb8f a2bd 6745 133d 0af9 3bbd 6795 22bd
00000070: f197 373d a5ac dc3d 1dd0 8d3d 1f4c 62bd
-0.06920759 -0.055969965 -0.03302623 0.054995716 -0.0230572 0.07418957 0.08376378 0.0043288018
0.037594423 0.03018533 0.052170306 0.08440575 -0.0063003814 -0.02955925 0.005704268 -0.01143296
-0.059167903 0.019111605 0.0025958284 -0.013947406 0.0417181 0.026342677 -0.023745494 -0.037657544
-0.07937571 0.03595486 -0.0458918 -0.039693262 0.044822637 0.10775117 0.0692446 -0.055248376

conv3.weight f4 [32, 32, 3, 3]
00000000: 0c86 9a3c 4b36 35bd d089 823c 94cf a03d
00000010: 909d b3bd aee9 d4bc 9afa 22bc cee5 e1bc
00000020: d74c 08bd 4236 e03d 7a1c 133d c8b7 283d
00000030: 63c2 5d3c 90f0 2a3d 2fb5 a7bd 95b2 babd
00000040: 7c58 f2bc 47fa 2bbd 5b33 273d d10a 033e
00000050: 5116 43bc b0b6 013e 1e5e 723d 55de d63b
00000060: 7fcc 1abd 9e4f ab3c 108b 02bd 6a81 8abd
00000070: b467 3ebd ea90 61bd e954 67bc f217 95bb
00000080: 447e 0dbc e99f da3c c296 023d f813 543d
00000090: abcf d9bc 1984 03bd b307 893d a736 9fba
000000a0: 2494 103c cda4 e33d 5626 cf3d aa8f 403d
000000b0: 6272 f63d 0a7d 3d3d 3ec0 afbc 86b5 c7ba
000000c0: 7bb7 cbba c2c0 a2bc f0ad 603c fa8b 9abc
000000d0: 35c6 f83b 0e16 bebc 20eb 30bc 71af d5bd
000000e0: dcbc febc 52b2 5c3c 1d87 cfbd 8b87 573c
000000f0: 2817 a33c 6882 0c3d e900 99ba 54c8 9b3d
00000100: a04b 913c 68e0 ebbc 4541 563d 921b dd3d
00000110: 4d49 32bd e972 0ebd 3c9e 953b 8eb5 0bbe
00000120: 3bf0 7a3d 8cdd bb3c b3ff bbbd 4a51 6dbd
00000130: de54 cc3b 8431 83bd 6329 f2bd edb6 14bd
00000140: 0a40 bbbd c85e c13d 7a21 a83d 22b4 39bc
00000150: 76b8 513d bd35 b6bc 2d33 b1bc cdac 3a3d
00000160: 8bf8 563b baad 9ebd eaf9 fcbd fb9c e4bc
00000170: 1ba1 c3bd 5f2a c73d 84c7 4e3c 1e40 97bb
00000180: 34d8 e4ba 4827 3e3d b2b4 8dbd e323 d73d
00000190: c386 043d 63d9 17bd 5702 063c 5830 f33d
000001a0: 17f1 0d3d 6467 3f3d 08e3 e93c 000a 7abb
000001b0: 1d0d 19be a6b2 3fbe 0878 c9bd c97d b0bd
000001c0: eb2e 55bd 91c7 cdbc e939 543d 5ac7 7dbc
000001d0: 03f2 333d 6fd6 6b3d ed72 2e3d 34a6 c33c
000001e0: 7ba0 e13c 8703 2b3d 06af f33c c654 5f3d
000001f0: 8f21 603c 444a fbbc 3f64 65bd c291 cebd
00000200: 06bb 77bd 01b7 cf3b 4624 31bd ab51 57bd
00000210: 16b9 7d3c 7d56 ef3c f885 cbbd 36f5 953c
00000220: c0e6 943c cfeb 643c 1a57 103d b041 12bb
00000230: ee44 443d 36e7 e63c 8bcd 08bc 5278 e1bc
00000240: edd3 ac3d a25f 3a3e c53a 713d bb84 dc3d
00000250: 8631 bd3d c148 693d 3b0c a4bc f4a3 8a3c
00000260: bc49 a5bd 8ea5 853d 6498 19bd 3d62 64bd
00000270: a5eb 183d f673 d4bb 0e27 173d 68ac 7a3c
00000280: e111 823d 963d 47bd fb87 b73b 03a7 b03d
00000290: b1fb d23c 3db6 9e3d 2717 243d 2e66 dabd
000002a0: e777 c0bd c90e 99bd 5f3c 18be 0036 203e
000002b0: ccf5 3b3e 9a6e d03d 05af 723d d95c 333e
000002c0: 524e 5c3d 12b8 5c3a 25f4 223b 58aa 083d
000002d0: b6ea 033e 3ab5 453d 5eaa 80bc a0fd 613d
000002e0: 233f ea3d d424 f3bc cc2a 46bc 620d 7e3d
000002f0: e171 3cbd 8667 17bb 94f4 4cbb 0efd 443c
00000300: b10a e4bc c7f3 d5bc 844f 663d 0536 63bc
00000310: 10ec 753d b5d6 30bd 696b 63bd d72a 1ebc
00000320: 65e9 a93c 2dc9 56bd 5f4a 9abd db5f cebc
00000330: 3d15 44bc 3ce7 75bd 51aa 4dbc a4f2 88bd
00000340: e3ec a1bd eebc 67bd 4096 d4bd a443 8bbc
00000350: 4942 5cbd aa72 4bbc e442 dcb9 ffe0 fc3c
00000360: c573 fabd de4d 42bd 06e7 f8bc 5ab4 c7bd
00000370: 15d6 3cbd 1f44 093d 8841 f8bc a939 4cbb
00000380: 942a 173c e0f7 f13d 3bf0 383d e682 a5bd
00000390: d16a 90ba b7ff c6bc b262 acbd 8b9c 363a
000003a0: 2e04 9abd 8589 a1bd 3b11 ee3d e067 8e3d
000003b0: f7c6 2f3c b0f2 003d e1cf 1c3d 6387 50bc
000003c0: dde8 6ebd 38e0 7bbc 06f3 80bd 3b39 84bd
000003d0: 06d8 aabb ae3b 9a3d 36b3 38bd a086 10bd
000003e0: 9c78 423d a9fa a83d f8c6 233d 4f8d 223e
000003f0: 0798 c53d 3a53 153d 1359 a6bd d42a 3b3c
0.018862747 -0.04424123 0.015934855 0.078520924 -0.08770287 -0.025990333 -0.009947443 -0.0275754
-0.033276405 0.10947849 0.03591583 0.041190892 0.013535115 0.041733325 -0.08188855 -0.09116093
-0.029583208 -0.04198673 0.04082046 0.12797095 -0.011907176 0.12667346 0.05917179 0.0065572658
-0.03779268 0.020911988 -0.0318709 -0.06762965 -0.046485618 -0.05506984 -0.014119365 -0.0045499736
-0.008636061 0.02668758 0.031882055 0.051776856 -0.026588282 -0.0321084 0.06690922 -0.0012147025
0.008824382 0.11115418 0.10114734 0.04701201 0.120335355 0.046261825 -0.021453973 -0.0015236593
-0.0015542352 -0.019867305 0.013713345 -0.018865574 0.0075919875 -0.023203876 -0.010798246 -0.104338534
-0.031095915 0.013470249 -0.10133193 0.013154875 0.019908503 0.034304053 -0.0011673245 0.07606569
0.017736256 -0.028793529 0.05230834 0.10796274 -0.043526936 -0.034777556 0.004565982 -0.13643476
0.061264258 0.02293279 -0.0917963 -0.05793885 0.006235703 -0.06405929 -0.118243 -0.036307264
-0.09143074 0.09441906 0.0820951 -0.011334451 0.051201306 -0.022242421 -0.021630848 0.045574952
0.0032801952 -0.077479795 -0.12352355 -0.027906885 -0.09552213 0.097248785 0.01262081 -0.0046157977
-0.0017459453 0.04642418 -0.069192305 0.10504892 0.03235508 -0.03707255 0.008179269 0.11874455
0.03465375 0.04672946 0.02855064 -0.0038152933 -0.14946409 -0.18720493 -0.09837347 -0.086177416
-0.052046698 -0.025119575 0.05181304 -0.015489424 0.043931972 0.057577547 0.04259007 0.023882963
0.027542343 0.04175141 0.029746544 0.054524206 0.013679876 -0.030675061 -0.056003805 -0.10086395
-0.060481094 0.0063389544 -0.043247484 -0.05256812 0.015486022 0.029216046 -0.09937662 0.018305402
0.018176436 0.013972237 0.035239317 -0.0022316985 0.0479173 0.028186422 -0.0083497865 -0.027523194
0.08438859 0.18200544 0.058893938 0.10767504 0.092379615 0.05695415 -0.020025363 0.016923882
-0.08070704 0.06525718 -0.037498847 -0.05575775 0.037334103 -0.00648355 0.03690248 0.015299894
0.063510664 -0.048642717 0.005600927 0.08625605 0.025754781 0.07749603 0.040061142 -0.106640205
-0.093978696 -0.07473523 -0.1486678 0.156456 0.18355483 0.101773456 0.059248943 0.17515887
0.05378563 0.00084197626 0.002486476 0.033365577 0.12882504 0.048268534 -0.015706237 0.055173516
0.114378236 -0.029680647 -0.0120951645 0.06202448 -0.04600704 -0.0023102476 -0.003127371 0.012023224
-0.02783713 -0.026117219 0.056228176 -0.01386786 0.06003958 -0.04317351 -0.055522356 -0.0096537685
0.020741174 -0.05243795 -0.075337164 -0.025192192 -0.011967954 -0.060034975 -0.012552814 -0.06686905
-0.07906511 -0.05657666 -0.103802204 -0.017000027 -0.053774152 -0.012417475 -0.00042011507 0.030869005
-0.122291125 -0.04743754 -0.030383598 -0.09751196 -0.046102602 0.03351223 -0.030304685 -0.0031162298
0.00922646 0.118148565 0.045150977 -0.080816075 -0.0011018162 -0.024291856 -0.08417262 0.0006966076
-0.075203285 -0.07887558 0.1162438 0.06953406 0.010728589 0.031481445 0.038284186 -0.012727591
-0.058327544 -0.015373282 -0.06296353 -0.06456228 -0.0052137403 0.07530914 -0.045092784 -0.03528464
0.047478303 0.08250935 0.039984673 0.15874217 0.096481375 0.036456324 -0.08122458 0.011423785

conv3.bias f4 [32]
00000000: 0a30 acbd 11ff 49bd 999d 4d3c a3f4 473d
00000010: cf06 913c 32e5 4fbc ab3a 3fbd 4db9 d23c
00000020: 81d3 80bc 65f7 45bd 1f12 c1bd efb6 7dbd
00000030: 1733 033e bb1d b5bc 2f27 813b ed10 343e
00000040: 5067 b63c f530 863d 5368 48bc cde8 c5bd
00000050: b6e4 6b3d 8ed0 8f3d cdcc 9e3d c6cc 023d
00000060: 1ec3 a33c e24c cd3d 62e0 433e 1078 db3c
00000070: 27a1 7c3d 4b82 c9bd 8021 8c3d b5d9 03be
-0.084076 -0.049315516 0.012549781 0.048817288 0.017703442 -0.012688922 -0.04668681 0.025723124
-0.015725853 -0.048331637 -0.094272844 -0.061942037 0.12812458 -0.022108903 0.0039414386 0.17584582
0.02226606 0.065523066 -0.012231904 -0.09663544 0.057591163 0.070222005 0.077539064 0.03193357
0.0199905 0.1002443 0.19128564 0.026790649 0.061677124 -0.098393045 0.06842327 -0.12876017

conv4.weight f4 [8, 32, 3, 3]
00000000: 045d 15bc 2c9d 88bc 2fe5 30bd 0761 bf3a
00000010: c32f 023e f408 5f3d ad7d d73c 789c 7c3d
00000020: 295a 56bd a2c0 94bd ee76 b43d b703 8b3d
00000030: c000 aabc 09f1 e13c ae91 ed3d 6b3b 743d
00000040: 0b3e c43c f838 d03c af73 01bd 8c4c 1e3d
00000050: fd78 a33b d02c 2e3d 61d7 043e 4df5 1f3d
00000060: 49e7 a3bb 86af 8a3d 6ac8 113c 7720 533a
00000070: d38d 06bd e7c4 56bd 17cc 6dbb 9bea 5e3d
00000080: 64eb f83c 7969 e53c a443 493d d9c9 2c3e
00000090: ce95 cfbd 625e 6bbe ebc4 c4bc 17d1 38bd
000000a0: ed5d 21be 487c 0d3c fa14 8a3d 7b8a b2bc
000000b0: c15a c53d 17ed 26bc 3d16 1b3d d2f6 42b9
000000c0: a9b0 923c 4415 733d 5798 8fbd c170 883c
000000d0: 3a74 36bd 877d 1fbe 790a 9dbc c929 b93d
000000e0: 3e83 1a3d 4ea9 8bbc 91f2 423e 210b 173e
000000f0: c9a0 443d 79f2 0d3e 4dd6 b73d 2018 233d
00000100: 6ce7 b8bc 1d19 4b3d 936a 1d3c 300b 243d
00000110: 3a2a 343d 86c3 a6bd 93fd fbbc 59b3 bcbc
00000120: 2916 3dbd 098b 3bbe 3de8 8d3c 8c03 b5bd
00000130: ee80 1bbe 7217 97bc 7634 6f3d 2976 9cbc
00000140: f7c3 17bd 3d48 2f3c 2a7f dcbc 0c6f 82bc
00000150: f087 c5bc 500e 13bc 1342 9d3d 3eab 59bd
00000160: c9ab 6b3c 6c35 c43a e9ee 37bc ede2 f23d
00000170: a01c 3e3c 3640 b4bc f69b cf3d 2112 c6bc
00000180: d206 a8bc f503 773d 4178 46bd 4ce1 013d
00000190: afe1 8abc 2d1a bd3b 7626 ed3b c1ad 1e3d
000001a0: 84c7 73bd 731d 183c 0180 76bb b774 9abb
000001b0: 8411 06bd 439e 2f3d 5e52 683c b4b3 bebb
000001c0: b89a b9bc d018 763c 7f36 843d f38f 4d3d
000001d0: 0af3 0e3e 4d70 283d 9dcc d63c 0a47 773c
000001e0: e056 833d 44ab 8a3d 9ad8 76bd f84a 1cbc
000001f0: e085 10bd 93d2 e1bc f51f a83c 9d17 6dbd
00000200: 562f 2cbd 744d 08bd 5bf2 8abd 5a92 84bc
00000210: 4fb3 6f3d d926 a3bb e290 833d c63a 2c3d
00000220: 8e26 7bbd defa a6bb 3efc b7bd 5289 adbd
00000230: 82c8 85bc 08a1 773d 56ae 6c3c 62f5 c2bc
00000240: bcce 8d3a e7a3 9bbd d4db 05bd 6594 1dbc
00000250: aa63 843d 7781 44bd 633d 713d 98bb d23d
00000260: e788 913d 0ea2 00bd a0cc f2bc a0e5 873d
00000270: 3ee4 d7bd 016b 6bbd d468 9b3d 2788 39bd
00000280: c7a6 91bd abef d83d 10a4 1c3d d6b8 ba3d
00000290: ab3d 3dbd efde f53d 2eea 113e e907 70bd
000002a0: a510 073c 963a a03c 5602 0abe c490 063d
000002b0: 2534 033e 86e2 a13d 30db d23d d567 093d
000002c0: f8dc 7a3d 1292 c6bc 320c 6d3d c411 80bd
000002d0: abd5 b8bd a4f4 90bd b2fc 833c a308 01be
000002e0: 72e2 afbd 31c6 943d 1147 a6bc 0534 0dbd
000002f0: 2c3c 9a3d b307 0bbc 3233 c2bc f6a6 f1bd
00000300: 6276 ac3d 14de 143a b82d 0ebd 1a4e 0cbd
00000310: d770 b03c 8139 cbbd c53d 423d 4dc6 a1bd
00000320: ceb3 66bd 0af3 433d 38ff 89bd 60c3 813c
00000330: 8fcb 053d 3cee 2fbd 72b4 33bd adb7 c03c
00000340: 6ba7 1abd d089 81bd 2b05 543d ee49 023d
00000350: d58d 63bd 8f33 6abc 9d0a cebd c97f 01be
00000360: 1e98 f139 98ef 5bbd 53b1 0b3d bdcf 2abd
00000370: e302 5cbe 10ae 38b9 ace2 27bb 6c05 9ebd
00000380: 4a9c 8c3d d608 1e3d d46e 89bd 5868 28bd
00000390: b53d b33d 245c cabd 771c c6bd 11bd 93bd
000003a0: fdd6 51bd 4c48 b6bd 4ed1 cf3d 7407 d03b
000003b0: 9f5d 9bbd efa9 bcbc 22f7 b7bd 5999 08be
000003c0: a73e 333d b601 bcbd 2970 97bd 0688 7cbd
000003d0: 936d 4f3b efeb 64bd 636f fabc 56a5 f2bc
000003e0: abc8 8f3d 83d0 09bd c1a4 41bc 68c8 d43d
000003f0: d792 8bbd 1305 6bbe e231 a1bc fe54 b6bd
-0.009116415 -0.016676508 -0.043187317 0.001460106 0.12713532 0.054451898 0.026305044 0.061672658
-0.052332077 -0.07263304 0.088117465 0.06787818 -0.02075231 0.027580755 0.11600052 0.059626978
0.023955366 0.02541779 -0.031604465 0.03864722 0.004988788 0.042523205 0.12972786 0.039052296
-0.0050019366 0.0677176 0.00889788 0.0008053849 -0.032850098 -0.052433874 -0.0036284977 0.054422956
0.03038568 0.028004395 0.049136773 0.16873874 -0.10135995 -0.22985223 -0.024019679 -0.04512128
-0.15758486 0.008635588 0.06742282 -0.021794548 0.096364506 -0.010188363 0.037863005 -0.0001859323
0.017906504 0.059346452 -0.070114784 0.016655328 -0.044544436 -0.15575229 -0.019170033 0.09041173
0.03772282 -0.017048504 0.19037844 0.14750339 0.0480049 0.13862027 0.089764215 0.03981793
-0.022571288 0.049584497 0.009607929 0.04004973 0.043985583 -0.08142762 -0.030760562 -0.023034738
-0.04616371 -0.18314756 0.017322654 -0.08838567 -0.15185902 -0.018443797 0.05839964 -0.019099312
-0.03705212 0.010698375 -0.026916105 -0.015922092 -0.024112672 -0.00897558 0.07678618 -0.053141825
0.0143842185 0.0014969534 -0.011226394 0.11859689 0.011603504 -0.022003274 0.10137169 -0.024178566
-0.020511065 0.060306508 -0.048454527 0.031709 -0.016953317 0.0057709427 0.007237251 0.038739923
-0.059516445 0.009284365 -0.0037612917 -0.0047136205 -0.032731548 0.04287554 0.014179794 -0.005819762
-0.022656783 0.015020564 0.06455707 0.05018611 0.139599 0.041122723 0.026220614 0.015092621
0.064130545 0.067709476 -0.06026516 -0.009539358 -0.035283923 -0.02756623 0.02052305 -0.057883848
-0.04203733 -0.03327699 -0.06784507 -0.016183067 0.05852061 -0.0049789962 0.064241186 0.04204824
-0.061316065 -0.0050958237 -0.08983658 -0.084734574 -0.016330961 0.060456306 0.014445862 -0.023798648
0.0010819058 -0.07599621 -0.032680348 -0.0096179 0.06464322 -0.04797503 0.058896434 0.10289687
0.0710619 -0.031404547 -0.029638588 0.06635594 -0.105415806 -0.057475094 0.07588354 -0.04529586
-0.071118884 0.10592588 0.0382424 0.09117286 -0.04620139 0.12005412 0.14249489 -0.058601294
0.008243714 0.019559186 -0.13477454 0.032852903 0.1281286 0.07904534 0.10295713 0.033546288
0.06124589 -0.024239574 0.05787296 -0.062533885 -0.09025129 -0.070779115 0.016111705 -0.12600951
-0.08588113 0.072643645 -0.020297559 -0.034473438 0.07531008 -0.008485722 -0.023706052 -0.117994234
0.08421017 0.0005678844 -0.03471157 -0.03425417 0.021538181 -0.099230774 0.04742219 -0.07899151
-0.05632382 0.047839202 -0.06738132 0.015840232 0.03266483 -0.042951807 -0.043873258 0.023525083
-0.03775732 -0.06325114 0.05176274 0.031808786 -0.055555183 -0.014294519 -0.10060618 -0.12646402
0.00046080438 -0.05369529 0.034104656 -0.04170202 -0.21485476 -0.00017612451 -0.0025617285 -0.07715878
0.06865747 0.038582645 -0.06710592 -0.041115135 0.08752004 -0.09880856 -0.09673398 -0.07213796
-0.05123042 -0.08900508 0.101473436 0.0063485447 -0.07586216 -0.02303025 -0.08982684 -0.13339747
0.04376092 -0.09180014 -0.0739444 -0.06165316 0.0031651005 -0.055889066 -0.030570691 -0.029619854
0.07020696 -0.033646118 -0.011819066 0.10389787 -0.06815117 -0.22951154 -0.019677106 -0.0890293

conv4.bias f4 [8]
00000000: 9109 cabd 397b ecbc f3dc 8c3d af8b 893c
00000010: f559 82bd bfee f7bd f50a 823d 5491 073d
-0.09865106 -0.02886735 0.0687808 0.01679024 -0.06364814 -0.12106084 0.06349746 0.03309758

fc1.weight f4 [128, 1152]
00000000: a0d9 63ba 213d 013d d7d7 b23c 875f adbb
00000010: f4d1 79bd 210e 80bd 4a57 53bd 4dc9 813b
00000020: 1024 4ebd acd1 ad3b 84ed 9a3b 7e50 633b
00000030: 541e 473d 0a0b c93c 6fe7 463b bd90 0cbd
00000040: aed1 973c 97e7 97bb c9e1 c7ba c066 373c
00000050: c52e c33c e68d 583d a5a8 6ebc f314 3e3c
00000060: dc48 e7b9 dc94 08b9 f115 013b d460 3cba
00000070: 7f21 cf3c 1fe8 2e3d ed9c bbbd c02a eb3a
00000080: 878f 5d3d 6e83 6d3c 38ab 103d 4f26 103d
00000090: 5139 a13c f2fe afbc 0439 8a3c ae18 79bd
000000a0: f2b0 09bd 6173 dfba 5b7a 63bd c6f0 b9bc
000000b0: 0d0d 3a3d 084c cfbc 36ea cdbb 79b9 afbc
000000c0: 62bb 5c3c 3111 a1bc ad65 0abb ab92 0bbd
000000d0: b456 94bd 5fd5 f0bb 9e94 e3bc 8e04 b7bd
000000e0: b0a6 4b3d 011a 133c 31e3 fcbc 6f31 b13c
000000f0: 40db 483d 8e75 25bd 1ec2 f3bc a3b9 fcbc
00000100: b971 613c bb53 5ebd 3363 89bc 3636 afbd
00000110: 3789 383b fed5 8b3d 0f1a bcbb 1da9 00bd
00000120: 64e2 93bc 4209 0bbc de81 d9bc 075c 32bd
00000130: 015b 4d3d 7f42 ccbc 8638 703d ba3e eabc
00000140: f069 afbd 97d0 7b3a 744e 983c 0754 68bc
00000150: e2eb e3bb 00dc 23bd 16a5 1fbd 62c9 173d
00000160: cdde c939 02d5 1b3c f311 003d 5450 9d3b
00000170: 4c42 dabc 1c73 7bbd 98ba 133d d8b9 d23b
00000180: d004 fbbc fa6c 8ebd 8610 9e3c 379a 573b
00000190: 3bc4 18bd 103e 403c a4ff b5bd f044 9ebd
000001a0: efef aa3d 4895 60bd bd7d 2c3d 2ebe 123d
000001b0: dcc1 92bd a566 15bd edbc 373c ce2a 33bd
000001c0: d7b0 3bbd ef98 5f3d e7a9 04be 2395 71bd
000001d0: 0c0e 843d 728f e6bb 65a0 3bbd 4656 a93c
000001e0: 91e0 38bd b042 bd3c 319c bd3c 0d02 d53c
000001f0: bbfd f6bd fc6e 45bc 68fb 99bd 591d 473d
00000200: 197c 7cbd 465c 56bd d517 09be a801 c23c
00000210: 5dcb 9cbc 3acb 833c ba34 c63d 0c4f 0dbc
00000220: c0d7 d8bd 8410 1738 2f11 00bd 409e 113d
00000230: 8fb1 19bd fb9e 19bc 4969 2cbd 9f0f 41bd
00000240: 745c f53c 1a23 5f3c 6b38 11bd bf5d ecbc
00000250: 8ee4 8d3c 49f9 e1bc addb 12bc 206d 1d3c
00000260: a6a5 863c a7f5 ec3c 41fb f33c a5a5 d23b
00000270: e03c 3c3d 113c 903c 16c7 66bc d0e2 0abd
00000280: dac4 0f3c a687 d23c e22b 543b ca90 2ebd
00000290: cee8 5d3d 5b1e 653d a3da 283d 1a35 1a3d
000002a0: ddb0 b63c 243e 30bd db7c 96bc 0d88 81bc
000002b0: 84fd 0a3d 429b 143d 45a8 7fbc 7f30 6dbc
000002c0: a980 f23c 743f 0e3d 210d 623d ee32 bfbc
000002d0: 944f 5a3c be92 3b3b 703a 30bb dd3e 45bd
000002e0: 044a 2d3c 50e7 47bd 8a02 13bb 465f 8dbc
000002f0: c7c9 78bd e5ed 4cbd 5aab 1e3b 8fff 9abc
00000300: dfe4 fabc fb15 063d f195 33bd 7062 9cbc
00000310: 1767 3b3c 1a93 973b d296 febc 866f 97bd
00000320: e02d 963a f76e 0a3d ed4e 9cbc c0de 833c
00000330: 6537 033d 64e3 27bc 08e7 b0bc 603b 96bc
00000340: a141 783c 4890 1e3c fae2 773d 05f7 a8bd
00000350: 3948 2a3d e69d 513c 26ea 24bc e708 f4bc
00000360: 9b5b 893c 0c09 8dbc 5bf4 273c 2c18 aabc
00000370: 52b9 e23c f097 423d a7a6 4c3d fefb b9bc
00000380: bb05 03bd 9b2d 79bd 8235 dfbb b628 2dbd
00000390: 6c77 84bd 71b8 47bc d79a b8bc 87ab 9d3b
000003a0: b681 793c 4c64 943d 80c8 a93b 3c24 1a3d
000003b0: 47b3 cbba 7563 6cb9 8c71 dd39 c51b 3b3d
000003c0: f6f6 45bd 296a 24bd daae 043b a683 1dbd
000003d0: 6061 babc d990 e53d 76f7 9fbd 7270 913b
000003e0: da0b af3d 14d3 28bd 4eeb 19ba eed9 3e3d
000003f0: 42c6 19bc 937f c6ba 4ee9 fd3b 8773 46bd
-0.00086917914 0.031552438 0.021831436 -0.0052909288 -0.060991243 -0.06252695 -0.051596917 0.0039607645
-0.05032736 0.005304536 0.004728021 0.0034685428 0.048612908 0.024541397 0.0030350348 -0.03431772
0.0185326 -0.004635762 -0.0015249784 0.011193931 0.023826012 0.0528697 -0.014566575 0.011601674
-0.00044114038 -0.00013025425 0.0019696916 -0.00071860594 0.025284527 0.042701837 -0.091607906 0.0017941818
0.054091956 0.014496667 0.035319537 0.035192784 0.01968065 -0.021483872 0.01687289 -0.060814552
-0.033616014 -0.0017047935 -0.05553661 -0.022697818 0.045422602 -0.02530481 -0.0062840236 -0.021450745
0.01347241 -0.019661518 -0.0021117732 -0.03407542 -0.072431 -0.0073496546 -0.027780827 -0.089364156
0.049719512 0.008978368 -0.030870052 0.021630017 0.049037218 -0.040395312 -0.029755648 -0.030850237
0.013760024 -0.05427907 -0.016770935 -0.08555262 0.0028157958 0.06827925 -0.005740411 -0.03141128
-0.018052287 -0.008486094 -0.026551183 -0.043544795 0.050135616 -0.024934052 0.058647655 -0.028594363
-0.08565128 0.00096059724 0.018592097 -0.01418019 -0.0069556097 -0.04000473 -0.038975798 0.037057288
0.00038503707 0.009511234 0.031267118 0.0048008356 -0.026642941 -0.061389074 0.03606662 0.0064308457
-0.030641943 -0.069543794 0.019294988 0.0032898316 -0.037296515 0.011733547 -0.0888665 -0.077279925
0.08346545 -0.054829866 0.0421121 0.0358259 -0.07165882 -0.036474843 0.011214477 -0.043741994
-0.045822944 0.05458921 -0.12955438 -0.05898012 0.06447992 -0.007036143 -0.04580726 0.020671021
-0.04513604 0.023103088 0.023145767 0.026001954 -0.12060114 -0.0120503865 -0.07518655 0.048611972
-0.061641786 -0.052334093 -0.13387997 0.02368243 -0.01913994 0.016088117 0.096780255 -0.008624803
-0.10588026 3.6016587e-05 -0.031266388 0.03555131 -0.03752285 -0.009376283 -0.042092595 -0.047134038
0.029951312 0.013619209 -0.035454195 -0.028853295 0.017320897 -0.027584689 -0.008963508 0.009608537
0.01643641 0.02892573 0.029782893 0.006428438 0.045956492 0.017606767 -0.014085552 -0.03390771
0.00877496 0.025699448 0.003237479 -0.04261855 0.054177098 0.055937152 0.041224133 0.037648298
0.022301132 -0.043028012 -0.018370083 -0.015811944 0.033933178 0.036280878 -0.015604083 -0.014476894
0.029602366 0.034728482 0.055188302 -0.023339715 0.013324637 0.00286214 -0.00268903 -0.048155654
0.010576729 -0.04880458 -0.0022431933 -0.017257344 -0.060739305 -0.05003156 0.002421102 -0.018920688
-0.030626712 0.032735806 -0.043844167 -0.019089907 0.011438153 0.00462569 -0.031077776 -0.07394318
0.0011457764 0.03379723 -0.019080603 0.016097426 0.03203525 -0.010247085 -0.02159454 -0.01833886
0.015152366 0.009677954 0.060519196 -0.0825024 0.041572783 0.012793994 -0.010065591 -0.029789401
0.016767314 -0.017216228 0.01025113 -0.02076348 0.027676258 0.04750818 0.04996362 -0.022703167
-0.031987887 -0.06083451 -0.0068117986 -0.042275153 -0.064680904 -0.01218997 -0.02253477 0.0048117074
0.015228679 0.072456926 0.005181372 0.037632212 -0.00155411 -0.00022543764 0.00042237004 0.04568078
-0.048331223 -0.040140305 0.0020245821 -0.038455628 -0.02275151 0.11209268 -0.07810871 0.0044384534
0.085471824 -0.041216925 -0.000587155 0.046594553 -0.009385647 -0.0015144221 0.0077487594 -0.04845002

fc1.bias f4 [128]
00000000: a25e 3a3d 79a1 10bd fa07 053d 6c66 5d3c
00000010: 1312 6ebb 9530 7d3c 177c ebbc b96d 0b3c
00000020: 418b bbbc 1ae6 183d 3d23 393d e467 abbc
00000030: eb27 533c 7908 88bc 7adf a03c 7e58 40bd
00000040: 4d12 efbc 88c1 94bc b394 d6bc 7bad cfbc
00000050: ed92 99bc 91c3 423d a72d fd3c 0488 6dbd
00000060: d1ff 15bd aa80 9e3c 4ab2 ea3c 25e6 c63c
00000070: 55ef a43c 210e 193c fd75 2c3d 04f5 0dbd
00000080: c73c 6fbc 80b1 91bc 3a69 2f3c e6b3 463c
00000090: 918b 0abd 0484 cabc 9e43 14bd 803e 93bc
000000a0: 285d 8bbc 699e 34bd a4b7 ffbc e98e 8bbc
000000b0: 090e c7bb 2d83 f7bb f711 c1bb deaa 8cbc
000000c0: f4cb 0c3c c328 053d 0f34 02bd df7f fb3c
000000d0: 08d3 93bb 9404 0cbc cd2c 223d 1484 c03c
000000e0: d39f 11bc 79cf f8bc 2418 99bc 3b41 d23c
000000f0: 508d 3b3c 05b5 d2bb 7bf3 1dbd 99b1 89bc
00000100: b421 70bc e0dc 28bc a9bd fbbc 31ff f13b
00000110: 3bb1 8bbc eb24 2c3c 1cc2 8f3c 69b6 d23c
00000120: 7a1a 52bc a46c 503d c50d 063d 5911 35bd
00000130: 4cf8 a3bc 17ad 6abc 55d2 323c 8031 a53b
00000140: a059 253d f65a db3a 47d2 fd3c cdd8 c63c
00000150: 4bd3 1abc bf7f 36bd 3010 f6bc 6142 653c
00000160: 0d1d c93c c326 65bd e87c c6bc 257e 2dbc
00000170: 8c99 e13b ed28 a5bc 6487 58bd e2ec d4bc
00000180: 45ba c9bc f820 91bc 44c8 4c3d ccdb 833d
00000190: ee14 6fbc db69 37bc bae5 f83b 21a6 92bc
000001a0: 6849 af3b 6288 cfbb 8342 9abb 74c8 1f3d
000001b0: b0ca 28bd f6cb 51bc ea57 33bc 40eb e8bc
000001c0: 505e dd3c 7c38 bab9 3d0b f0bc d846 643c
000001d0: a81d cf3b 3493 eabb 640a 563d 2180 333d
000001e0: b955 773c ee97 933b 81f2 5a3c 1110 13bd
000001f0: c481 a13c a0fe f5bb 7fd8 abbc b86b 0d3d
0.045500405 -0.035310242 0.03247831 0.013513189 -0.003632669 0.015453477 -0.028745694 0.008510047
-0.02289355 0.037328817 0.04519962 -0.020923562 0.012887935 -0.016605603 0.019637812 -0.046959393
-0.029183531 -0.01815869 -0.026193952 -0.025351277 -0.018746817 0.047549788 0.030905558 -0.057991043
-0.03662092 0.019348461 0.028649468 0.024279663 0.020133654 0.0093417475 0.04210471 -0.034657493
-0.014601893 -0.017784834 0.01070624 0.012127852 -0.033824507 -0.024721153 -0.036197297 -0.017974138
-0.017012194 -0.044096384 -0.031215496 -0.017035918 -0.006074671 -0.007553479 -0.005892034 -0.01717132
0.008593548 0.032509577 -0.03178793 0.030700622 -0.004511241 -0.008546013 0.039593507 0.02350048
-0.008888203 -0.030372368 -0.018688269 0.02566587 0.011447266 -0.0064302706 -0.03856228 -0.016808318
-0.014656473 -0.010306567 -0.030730085 0.0073851575 -0.017052284 0.010506849 0.017548613 0.025721746
-0.012823695 0.050884858 0.032727975 -0.044205997 -0.020015858 -0.014323494 0.010914405 0.0050413013
0.040368676 0.0016735482 0.030984057 0.0242733 -0.00944979 -0.044555422 -0.030037016 0.013992877
0.024549985 -0.05594517 -0.024229482 -0.010589157 0.0068847593 -0.020161116 -0.052863494 -0.02599186
-0.024624953 -0.017715916 0.049995676 0.06438407 -0.014592392 -0.0111946715 0.007595745 -0.017901482
0.005349327 -0.006333397 -0.004707636 0.039009526 -0.041208923 -0.012804976 -0.010946253 -0.028432488
0.02702251 -0.0003551877 -0.029302234 0.013932906 0.006320674 -0.0071586613 0.052256003 0.043823365
0.0150961215 0.0045041954 0.0133634815 -0.035903994 0.019715197 -0.0075071603 -0.020977257 0.034526557

fc2.weight f4 [5, 128]
00000000: f8cd b2bd f8d5 28b8 ab06 d63d d234 cc3d
00000010: 6251 d93d e0ad 42be 55b1 84bd c888 c43d
00000020: 7f64 803d d61a 553d f250 72be cc85 073e
00000030: 649d e9bd 93d0 57bd 4ff3 763d 6a4b 083e
00000040: b3c2 54be 005b e7bd 6df0 e0bd 520c 69bd
00000050: cbb6 b23d 1909 853c e718 9abe 972b 43be
00000060: 2385 a33d 7f6a 5e3d b026 f2bb fd4f 6cbe
00000070: e813 3a3d ffcc 523d 86d8 0c3d 30d3 633d
00000080: 6b0b d2bd 2fda 723c db0c 50be 9b25 06be
00000090: 9daf 37be 904f c43d 4d69 d63d 5989 d83d
000000a0: 3643 eb3d 28f7 08be 04ce 9abd b955 a63d
000000b0: 1fac df3d 3214 0abe 892b 12be c1c9 e93d
000000c0: 6d68 373d 6423 b53d fe56 11be d80f 3cbe
000000d0: 4084 27be ab06 5e3d 4014 4e3d 1291 0abe
000000e0: 28c8 9bbd ca98 ce3d 8ec3 083c 2231 d63c
000000f0: 8f87 26be 6973 c03d e502 1e3d 82e8 5b3d
00000100: 25d1 97bd 8248 1d3e baa7 60be 6785 c53d
00000110: 31e4 90bd 2006 e23c d252 d1bd ebe2 ad3c
00000120: 48d2 d9bc 9024 8cbe 8a88 cc3d 1028 b53d
00000130: cdd0 c33d 4f70 ca3d 992f 54be 7a4c 7b3d
00000140: 1d53 87be 12f1 40be e58b 14be 11db 4ebe
00000150: 1d3c c83d 07e5 2cbe 2e11 ed3d eb36 47be
00000160: fd05 42bd 680a b2bd e367 3fbd e8d5 623d
00000170: 9ba6 6dbe 3155 23be cb5c e33a 60dd a9ba
00000180: 0bed 1cbe d310 303c 07c2 99bd ef53 b93d
00000190: 841d 063d 69b4 a33d b84c f33d 71e2 75be
000001a0: 9795 e1bd 9848 3cbe 65d6 4cbe f3d4 75be
000001b0: 88f7 12be 7b8d 093e 2a1f 393c bde1 9f3c
000001c0: 4a32 22be 07d6 c6bd dfd1 11bb 1f0b 5e3d
000001d0: a88e 3ebe ea4a ca3d 403a 66be a494 6ebe
000001e0: 4e75 ad3d 1554 29be 12a1 73bd e464 a33d
000001f0: eb66 10be e255 c23d 967b aa3d f2c2 c33d
00000200: b323 413c b98d 63bc 7384 cd3c 3de1 b5bc
00000210: 943b 7ebe db22 0abe 5bd8 6fbe da25 cdbc
00000220: 8d3c 293e 2182 fb3d 7ee6 693d 9dee a63d
00000230: 8bb7 cd3d c0fd 0fbe 4e6a ddbd 7e16 a0bd
00000240: 07fa de3d aaaf 1f3e ac78 11bd b977 0e3d
00000250: e4f6 29bc cacd b73d 1ad8 bc3d 7065 65bd
00000260: 26f9 bbbd ab69 863d d770 f63d 5816 e6bb
00000270: 211b bd3d eba2 a83d 43d6 3d3d 53e2 c83d
00000280: 9cdc e4bd 044e 833d 086e 973d 2172 c33d
00000290: 81de bb3d b783 243e 0f54 cfbd ba3e e8bd
000002a0: 5ac1 923d b225 2b3c d8b7 7abd 46ab d33d
000002b0: 4260 d83d 47db d33d 9ce8 ccbb 0f23 133e
000002c0: 6925 a0bd 5446 72be d057 133e 6b03 e1bc
000002d0: 66f7 8b3d 50ac 40bb ccb5 4fbe 4ec6 a8bb
000002e0: 4be2 8f3d d89a f93d f899 dbbd b385 24bd
000002f0: 24ed 533c 9872 0a3d 17bb 14bd b73c 05be
00000300: 406c 933c 0f6b a53d 6587 2fbd 98b3 8b3d
00000310: 2c7c 11be 6efa f5bd 7424 973d 7444 2ebe
00000320: 6535 e43d 4a97 c73d a589 39be a55c 2bbe
00000330: c42c 5dbd a291 c03d e559 bf3d 15ae 373e
00000340: 2de5 17be 21ef cc3c ebef 44bd f28d 8bbc
00000350: 5b3a de3b c439 853d 5744 9cbd 4c92 a23c
00000360: 9869 3a3d 0f60 86bc cd1a afbd deb8 10be
00000370: 956c fa3d 7ba9 01be 7b0a 15be cfdf 29be
00000380: 2459 173e 8591 34be 9a99 54ba 9294 5c3d
00000390: 38ed 1d3e 402a 20be 272f a5bd 1169 c43d
000003a0: 4887 d6bd 10ec 06be ec31 edbd cfbf 8b3d
000003b0: 9fb9 253d 4685 183d c5ac d6bc 924c 55be
000003c0: a57e 0c3e df1f 65bd 086c ce3c 59b7 40bd
000003d0: ad37 bdbd 69ac 863d 95c5 e43d d3e6 0bbe
000003e0: 75f3 b13d 7004 0cbd 132b 9abd dfe9 7bbe
000003f0: 5a74 863d 9828 d53d f5b7 4bbd ffa7 1ebe
-0.08730692 -4.0253595e-05 0.104504906 0.09971012 0.10611226 -0.1901164 -0.06479136 0.095964015
0.06269168 0.052027546 -0.2366369 0.13234633 -0.11406973 -0.052689146 0.06029063 0.13310018
-0.20777397 -0.11296654 -0.109833576 -0.056896515 0.08726271 0.01623969 -0.30097124 -0.19059597
0.07984378 0.05430078 -0.007389866 -0.23077388 0.04542914 0.05146503 0.03438618 0.055621326
-0.10256084 0.014822527 -0.20317404 -0.13100283 -0.17938085 0.09585488 0.10469303 0.10573072
0.11487429 -0.13375533 -0.075588256 0.08121819 0.10921501 -0.13484266 -0.1427442 0.11415435
0.044777323 0.08844641 -0.14193341 -0.18365419 -0.16359043 0.054205578 0.05031228 -0.13531902
-0.07606536 0.10087736 0.008347405 0.026146475 -0.16262649 0.09397013 0.03857698 0.053688534
-0.07412938 0.15359691 -0.21938983 0.09644585 -0.07074774 0.027590811 -0.10220875 0.021226367
-0.026589528 -0.27371645 0.0998698 0.08845532 0.0956131 0.098847024 -0.20721282 0.06135223
-0.26430598 -0.18841961 -0.1450649 -0.20200755 0.09777091 -0.16884242 0.115755424 -0.19454543
-0.047368992 -0.08693391 -0.046729933 0.05537978 -0.23208086 -0.15950467 0.001734638 -0.0012959652
-0.153248 0.010746199 -0.07507711 0.09049212 0.032742992 0.07993395 0.11879867 -0.24012162
-0.1101486 -0.18387067 -0.2000366 -0.24007015 -0.14352238 0.13432877 0.011298934 0.01951682
-0.15839496 -0.09708791 -0.0022250337 0.054209825 -0.18609107 0.0987757 -0.22483158 -0.2329889
0.0846964 -0.16535981 -0.05947978 0.07978228 -0.1410176 0.09489037 0.083243534 0.09558667
0.0117882965 -0.01388877 0.02508757 -0.022202129 -0.24827415 -0.13489859 -0.23422377 -0.025042463
0.16527005 0.122806795 0.05710458 0.081509806 0.10044774 -0.14061642 -0.10811292 -0.0781679
0.10887533 0.15594354 -0.035515472 0.034782145 -0.010373805 0.08974798 0.092209056 -0.05600494
-0.09178381 0.06563123 0.12033241 -0.0070217066 0.0923369 0.08234199 0.046346914 0.09808793
-0.111748904 0.06411365 0.07394034 0.09543253 0.091732986 0.1606587 -0.10123455 -0.11340089
0.07165785 0.010445999 -0.061210483 0.10335402 0.10565235 0.10344558 -0.006253315 0.14368843
-0.078196354 -0.2365964 0.14388967 -0.02746745 0.06834297 -0.0029399581 -0.20284194 -0.005150593
0.07025584 0.12187737 -0.107227266 -0.040166568 0.012934957 0.03380069 -0.036311235 -0.13011442
0.017995954 0.080770604 -0.04285373 0.06821364 -0.14207524 -0.12010656 0.0738 -0.170183
0.11142997 0.09745653 -0.18118913 -0.1673456 -0.05399777 0.09402777 0.09343318 0.17937501
-0.14833517 0.02501637 -0.048080366 -0.017035458 0.006781859 0.065051585 -0.07630222 0.01984515
0.04551086 -0.016403226 -0.08550034 -0.14133021 0.12227742 -0.12662308 -0.14554779 -0.16589282
0.14780098 -0.17633636 -0.00081100466 0.053852625 0.15422523 -0.15641117 -0.08065634 0.09590352
-0.104750216 -0.13175988 -0.115817875 0.06823694 0.040460225 0.037236474 -0.02620543 -0.2082999
0.13720186 -0.055938598 0.025197998 -0.047049854 -0.09239135 0.065758534 0.11170498 -0.13662271
0.08689014 -0.03418392 -0.07527747 -0.24600933 0.06565161 0.10408133 -0.049735982 -0.15493773

fc2.bias f4 [5]
00000000: 8ce6 673d 8e6c e8bc 71d9 893d 3474 8e3c
00000010: 2939 323c
0.05661635 -0.028372075 0.06730927 0.017389394 0.010877886
