Trained_Weights/STRIDE 3/v3.3 5th.pth (torch, 683970 bytes, 12 tensors)

conv1.weight f4 [32, 3, 3, 3]
0	0x3e5c9793	0.21542196
1	0xbd6d7782	-0.0579753
2	0x3e2e9fc6	0.17053136
3	0xbcad03a2	-0.021119896
4	0xbe162c32	-0.14665297
5	0xbe0ebf81	-0.1394024
6	0x3e124619	0.14284553
7	0xbd18e58f	-0.0373283
8	0xbd93836b	-0.072028
9	0x3e02530c	0.12726992
10	0xbe02049a	-0.12697068
11	0x3d1d0abd	0.03834032
12	0xbd46a53a	-0.048497416
13	0xbd3b981e	-0.045799367
14	0x3e28f192	0.16498402
15	0xbd8f5877	-0.06999295
16	0xbdd449f7	-0.1036567
17	0x3e1a3e07	0.15062724
18	0x3e259303	0.16169362
19	0xbda7d90e	-0.08195697
20	0x3e15854d	0.14601631
21	0xbd9bf786	-0.07615571
22	0xbdd5759d	-0.104228236
23	0x3de30496	0.11084859
24	0xbe0a9fc3	-0.13537507
25	0xbc38010a	-0.0112307165
26	0xbd64c603	-0.0558529
27	0xbdb0e429	-0.08637268
28	0xbd178791	-0.03699452
29	0x3e36bac6	0.17844686
30	0xbda5fdd0	-0.081050515
31	0xbe46789b	-0.19381945
32	0xbc55a014	-0.013038654
33	0x3d520f9c	0.051284418
34	0xbd252dd1	-0.040326897
35	0xbd6141ed	-0.054994512
36	0xbe1c59f6	-0.15268692
37	0xbd93e0be	-0.072206005
38	0xbd89cd3f	-0.06728601
39	0xbd27eace	-0.04099541
40	0xbe43e4d8	-0.19130266
41	0x3d874acb	0.066060625
42	0xbe493f2a	-0.19653001
43	0x3d1159fc	0.035486206
44	0xbcdccc17	-0.026952786
45	0x3df8c4c7	0.12146907
46	0x3c8fc37d	0.01754927
47	0xbe1b7ca4	-0.15184265
48	0xbc99b4d8	-0.01876299
49	0xbc92c178	-0.017914519
50	0xbe12df3f	-0.14342974
51	0x3e21337e	0.15742299
52	0xbcca722b	-0.024712643
53	0xbd6b00a1	-0.057373647
54	0x3e56ed08	0.20988858
55	0xbb5ad2c7	-0.0033389793
56	0x3d9f1dde	0.077693686
57	0xbd8c81d6	-0.06860702
58	0x3e03a495	0.12855752
59	0xbca65235	-0.020302871
60	0x3e04be4d	0.12963219
61	0x3e19d173	0.15021305
62	0xbbf2cae0	-0.0074094385
63	0x3e2d729c	0.16938251
64	0x3dc1d570	0.09464538
65	0x3e1ccf21	0.15313388
66	0xbc0e872e	-0.008699222
67	0xbcf0b24b	-0.029381892
68	0x3d2e6a04	0.042581573
69	0x3dd4d72d	0.10392604
70	0xbd9ca9b7	-0.07649558
71	0xbc91d41d	-0.017801339
72	0x3ca12454	0.019670643
73	0xbe44eeaf	-0.19231676
74	0x3dbbbf56	0.09167354
75	0xbd012569	-0.031529818
76	0xbdb8e255	-0.090275444
77	0x3e0862a2	0.13318875
78	0xbe0017be	-0.12509057
79	0x3e2328fa	0.159336
80	0x3d08b096	0.03337153
81	0x3ddd9720	0.108198404
82	0x3d6e986e	0.058250837
83	0xbe306785	-0.1722699
84	0xbe0db165	-0.13837202
85	0x3e05bc71	0.13060166
86	0x3c8f51b9	0.017495023
87	0xbe56fbf5	-0.20994551
88	0x3e289e0a	0.16466537
89	0x3da2791c	0.07933256
90	0xbd288045	-0.041137952
91	0xbe45960a	-0.19295517
92	0xbe18c08c	-0.14917201
93	0xbe46f063	-0.19427638
94	0xbe1945b0	-0.1496799
95	0xbe08e714	-0.133694
96	0xbe4a7b8c	-0.19773692
97	0x3d32b5a2	0.04363025
98	0xbe425ebb	-0.1898145
99	0x3dde8022	0.10864283
100	0xbe29364f	-0.16524623
101	0xbe489200	-0.19586945
102	0xbc7f8bbf	-0.015597283
103	0xbd552964	-0.052041426
104	0x3d550d36	0.052014552
105	0xbd325d67	-0.043546107
106	0x3d8b4729	0.06800682
107	0xbcb8a902	-0.022541527
108	0xbe03ad83	-0.12859158
109	0xbda625f1	-0.081127055
110	0xbdba1ec1	-0.09087897
111	0xbd98a71e	-0.0745375
112	0x3ded53c0	0.1158824
113	0x3d7d1d95	0.06179579
114	0x3d7a98bf	0.061180826
115	0x3cb7a347	0.022416724
116	0xbd424b5d	-0.047435153
117	0xbe0bed36	-0.13664708
118	0xbdbe86b7	-0.093030386
119	0x3e230e64	0.15923458
120	0xbde282d5	-0.110601105
121	0xbe18ff88	-0.14941227
122	0xbe1aec1e	-0.15129134
123	0xbe2783f7	-0.16358934
124	0x3da23815	0.07920853
125	0xbdb544dc	-0.088510245
126	0x3e1c2ee1	0.15252258
127	0x3d8e3069	0.06942827
128	0x3cf00c04	0.029302604
129	0xbe105373	-0.14094333
130	0x3c7c26f3	0.015390146
131	0x3d975b8e	0.073905095
132	0x3dd09df4	0.10186377
133	0xba0f752f	-0.0005472479
134	0xbd870601	-0.06592942
135	0xbe010fda	-0.12603703
136	0x3dcf5ebf	0.10125493
137	0xbe20b6d9	-0.15694751
138	0xbd798e0f	-0.060926493
139	0xbd3adb7a	-0.045619465
140	0x3e08858c	0.13332194
141	0xbdf8c002	-0.121459976
142	0xbe2f55e9	-0.17122616
143	0x3b319104	0.0027094493
144	0x3d46f7b0	0.048576057
145	0x3e2fa682	0.17153361
146	0x3d97d430	0.074135184
147	0x3ddfcd76	0.109278604
148	0x3e42ab76	0.1901072
149	0x3cbbea74	0.022938944
150	0x3e39fff9	0.18164052
151	0x3d151428	0.036396176
152	0x3b4c2097	0.0031147355
153	0x3e467223	0.19379477
154	0x3e38ac3c	0.18034452
155	0xbe1f982c	-0.15585393
156	0x3d67629b	0.056490522
157	0xbddf4d64	-0.10903433
158	0xbbb2399b	-0.005438996
159	0xbdaa85fc	-0.08326337
160	0x3d94c0a2	0.07263304
161	0xbddbcc77	-0.10732358
162	0x3bccb188	0.0062467493
163	0x3d1eba00	0.038751602
164	0xbca3facc	-0.02001705
165	0xbd5dc73e	-0.05414509
166	0x3840b9a0	4.5949244e-05
167	0x3dd702bb	0.10498568
168	0x3d9341cd	0.07190285
169	0x3e2bbebf	0.16771983
170	0x3e2866ec	0.16445512
171	0xbe12e7fc	-0.14346308
172	0xbb14c18b	-0.0022698368
173	0x3cee51f1	0.029091807
174	0xba8af6e9	-0.0010602149
175	0xbe4cc862	-0.19998315
176	0xbcf48687	-0.029849304
177	0xbe1cbf09	-0.15307249
178	0xbe4b9e32	-0.19884565
179	0xbe796c13	-0.24357633
180	0xbe37a812	-0.17935207
181	0xbe1ff6d9	-0.15621509
182	0xbd121265	-0.035662074
183	0xbd98cbe2	-0.074607626
184	0x3da1c709	0.07899291
185	0xbe07e727	-0.13271771
186	0xbd2a59ae	-0.04158943
187	0xbe7398db	-0.23788778
188	0xbe8158a2	-0.25262934
189	0x3e0a9d14	0.13536483
190	0xbe15b5fa	-0.146202
191	0x3e28a650	0.16469693
192	0xbde00edb	-0.109403335
193	0x3dd4d4f6	0.103921816
194	0xbbb2f9f4	-0.0054619256
195	0xbdfa8c42	-0.12233783
196	0xbb315186	-0.0027056648
197	0xbdac6809	-0.08418281
198	0x3de40bae	0.1113504
199	0x3d148022	0.03625501
200	0x3e249a09	0.16074385
201	0xbdf110c4	-0.11770776
202	0xbe0e82be	-0.13917062
203	0x3ddf8bc8	0.10915333
204	0x3d7594af	0.05995625
205	0x3e44ad2e	0.19206688
206	0x3e4a8274	0.19776326
207	0x3dab2f81	0.0835867
208	0x3d8c3b17	0.06847208
209	0x3df83528	0.12119514
210	0xbc940dbd	-0.018072957
211	0xbda1c03f	-0.07897996
212	0x3e43f6ad	0.19137068
213	0xbda9a0a5	-0.08282594
214	0xbe03d2eb	-0.12873428
215	0x3d948aaf	0.07253014
216	0x3e30c086	0.17260942
217	0x3e36e172	0.17859438
218	0xbe13496b	-0.14383475
219	0xbe2e04f3	-0.16994075
220	0x3df99365	0.121863164
221	0xbcaeabb7	-0.021322114
222	0x3b8ac376	0.0042347265
223	0x3dbea188	0.093081534
224	0xbe00a7e0	-0.12564039
225	0xbe13ea53	-0.14444856
226	0x3c43f835	0.011961033
227	0xbda4de94	-0.08050266
228	0x3d2b6ae2	0.04184998
229	0x3c636863	0.013879868
230	0xbd7d0c34	-0.061779216
231	0xbe17bad0	-0.14817357
232	0xbe27885a	-0.16360608
233	0x3db1be00	0.08678818
234	0x3e3ff8fd	0.18747325
235	0xbd608bc4	-0.05482079
236	0x3e218593	0.15773611
237	0x3e0dad2c	0.13835591
238	0x3e10da1a	0.14145699
239	0x3e3524a7	0.17689763
240	0x3e51b410	0.20478845
241	0x3e420bc7	0.18949805
242	0x3e4bcff9	0.19903554
243	0xbe1386dc	-0.14406914
244	0xbdd15044	-0.102203876
245	0x3e1669d0	0.14688802
246	0xbcb8822e	-0.022523012
247	0x3e058126	0.13037547
248	0xbe247a9c	-0.16062397
249	0x3defda27	0.11711531
250	0x3e16064c	0.1465084
251	0x3de4c217	0.11169832
252	0x3d9d92e7	0.07694035
253	0x3e0416e4	0.12899357
254	0x3da1880f	0.07887279
255	0x3e513c59	0.20433177

conv1.bias f4 [32]
0	0xbcf9cd95	-0.030493537
1	0xbdf2aa63	-0.11848905
2	0xbc9e6e3b	-0.019339671
3	0xbbdb1167	-0.006685424
4	0xbe3079cb	-0.1723396
5	0x3e503d8e	0.20335981
6	0xbd8f7c12	-0.070060864
7	0xbd37f30a	-0.044909514
8	0x3de3be90	0.11120331
9	0x3df4ee60	0.11959529
10	0xbe25b06d	-0.16180582
11	0x3df01273	0.11722269
12	0xbd39c18f	-0.045350607
13	0xbd17bded	-0.03704636
14	0x3e1195b0	0.14217257
15	0xbd95dd22	-0.07317568
16	0xbd685ed8	-0.056731075
17	0xbcca4eaa	-0.024695713
18	0xbe1cdd42	-0.15318778
19	0xbd422b50	-0.047404587
20	0x3ced44bb	0.028963437
21	0xbe3449b3	-0.17606239
22	0x3c26df7a	0.010185117
23	0xbd94b029	-0.072601624
24	0xbe2697e2	-0.16268876
25	0x3e528af1	0.20560814
26	0x3d091b42	0.03347326
27	0x3dca1b9d	0.09868548
28	0xbe055598	-0.13020933
29	0xbdabc478	-0.08387083
30	0xbd20263f	-0.039098974
31	0xbdfa0e1d	-0.12209723

conv2.weight f4 [32, 32, 3, 3]
0	0xbd64ca3e	-0.055856936
1	0x3b612278	0.003435282
2	0xbd1449b3	-0.036203098
3	0x3d0ec1e3	0.034852874
4	0xbbe15719	-0.006876838
5	0xbd2aba3d	-0.041681517
6	0x3d2a27b8	0.041541785
7	0x3d38c65d	0.04511105
8	0xbd381aec	-0.04494755
9	0xbb5686c6	-0.003273414
10	0x3d57b8c0	0.052666426
11	0x3d816be2	0.06319405
12	0xbd0cd03b	-0.03437827
13	0xbb89c6e3	-0.0042046173
14	0xbb5bbf3e	-0.0033530737
15	0xbd00166d	-0.031271387
16	0xbd5aad6c	-0.053388044
17	0xbd2de67d	-0.04245614
18	0xbcf913fb	-0.030405035
19	0x3d080736	0.033210002
20	0x3d3e0a96	0.046396814
21	0xbb6afe46	-0.0035857125
22	0x3c5fc0c3	0.013656798
23	0xbd1ead3b	-0.038739424
24	0x3d8c6b55	0.068564095
25	0xbd2ed8e2	-0.042687304
26	0xbc95ed45	-0.018301615
27	0x3d8e9f2a	0.06963952
28	0x3d0281ad	0.03186195
29	0x3c24fd1b	0.010070111
30	0x3b489dda	0.0030611665
31	0x3d5d7a76	0.054071866
32	0xbc90fa0c	-0.017697357
33	0xbbdc1f04	-0.0067175645
34	0x3af38168	0.0018577995
35	0x3c1e8a95	0.009676595
36	0xbc14d603	-0.0090842275
37	0xbd54edea	-0.051984705
38	0x3c433097	0.01191344
39	0x3c9294cd	0.01789322
40	0x3d529fc0	0.05142188
41	0xbd32bed4	-0.04363902
42	0xbd5dbda6	-0.05413594
43	0xbd5d4ff2	-0.05403132
44	0xbc6fec80	-0.014643788
45	0xbc39a20e	-0.011330141
46	0x3cf6d1cf	0.030129341
47	0xbd931064	-0.07180861
48	0xbd0bebb3	-0.034160327
49	0xbd74cc5d	-0.05976521
50	0x3a4edd8c	0.00078912894
51	0xbcb9b301	-0.022668364
52	0x3d04b76f	0.0324015
53	0x3c9eef81	0.019401314
54	0x3d0c1776	0.03420206
55	0x3de68f66	0.1125782
56	0x3d4c4371	0.049869005
57	0x3d536e4a	0.05161885
58	0x3ce2fe27	0.02770908
59	0x3cccaa2b	0.024983486
60	0x3c92818c	0.017884038
61	0x3da8c900	0.08241463
62	0x3d24aa7a	0.04020164
63	0xbcde8a64	-0.0271656
64	0xbda4c3bf	-0.08045148
65	0xbced343c	-0.028955571
66	0xbd24d44e	-0.040241532
67	0xbd9bd797	-0.0760948
68	0xbda2ccd2	-0.079492226
69	0x3d262275	0.040560205
70	0xbd1c1a0c	-0.038110778
71	0xbd82caa2	-0.063863054
72	0xbd93325d	-0.071873404
73	0xbd4e9cb2	-0.050442405
74	0xbe0055d8	-0.12532747
75	0xbd73402e	-0.05938738
76	0xbde8640d	-0.11347208
77	0xbdf01a64	-0.117237836
78	0xbdc25cbb	-0.09490343
79	0xbd72db62	-0.05929125
80	0xbdc84ad9	-0.09779901
81	0xbcada4cb	-0.021196743
82	0xbd1915dd	-0.037374366
83	0xbdcb70bd	-0.099336125
84	0xbc4b3908	-0.012403734
85	0xbda0db24	-0.07854298
86	0xbcb6736f	-0.02227184
87	0xbd54c155	-0.05194219
88	0xbc32e9c7	-0.010919995
89	0xba2a9037	-0.0006506475
90	0xbba044b1	-0.004891001
91	0x3d7fda3f	0.062463995
92	0x3cabd218	0.020974204
93	0xbd396de9	-0.045270834
94	0x3cea5140	0.028603196
95	0x3c254c47	0.010088987
96	0x3c7e3adc	0.015516963
97	0x3d37c8ec	0.04486935
98	0xbc11bc55	-0.0088949995
99	0xbd677d01	-0.056515697
100	0xbcb3d5e7	-0.021952583
101	0xbda3c2dd	-0.079961516
102	0xbcd936f0	-0.026515454
103	0xbd655cec	-0.05599682
104	0xbd995eaf	-0.074887626
105	0xbd89a836	-0.06721537
106	0xbd7b73f3	-0.061389875
107	0xbd7ab2a7	-0.061205532
108	0x3d13a2a0	0.036043763
109	0x3bc350bf	0.0059605534
110	0x3d6ddc77	0.05807158
111	0x3d30fafd	0.04320811
112	0x3be065c9	0.0068480712
113	0x3d5379bc	0.051629767
114	0x3d5249b9	0.05133984
115	0xbc116254	-0.008873541
116	0x3d8bdb90	0.068289876
117	0x3d269e7c	0.040678486
118	0x3da5840e	0.08081828
119	0x3dbf0049	0.09326226
120	0x3c3b44e7	0.011430002
121	0x3d9519ec	0.07280335
122	0x3d35d68b	0.044394057
123	0x3b86bce0	0.004111871
124	0x3da72e59	0.08163137
125	0x3d3c9185	0.046037216
126	0xbc9ce696	-0.01915292
127	0xbdde83ba	-0.108649686
128	0xbdb8aa68	-0.090168774
129	0xbdbb9758	-0.09159726
130	0xbd83b714	-0.06431404
131	0xbbec4088	-0.007209841
132	0xbd83c866	-0.06434707
133	0xbd5db81c	-0.05413066
134	0xbcddac87	-0.027059807
135	0xbcdee994	-0.027210988
136	0x3cf7993e	0.030224439
137	0x3d607e01	0.054807667
138	0x3b856888	0.004071299
139	0xbc956807	-0.01823808
140	0xbb30f3b9	-0.0027000739
141	0x3ce41881	0.027843716
142	0x3c470cba	0.01214903
143	0x3ca9e5fb	0.020739546
144	0xbc2ade9f	-0.010429054
145	0x3c0cc9d1	0.008593039
146	0xbd28b90c	-0.0411921
147	0xbd7b7503	-0.061390888
148	0xbd8be272	-0.068303004
149	0x3bda281e	0.0066576144
150	0xbd2c25b6	-0.04202815
151	0x3c46f3c7	0.012143082
152	0xbcac7864	-0.0210535
153	0x3c73c241	0.014877857
154	0xbcac2be1	-0.021017017
155	0xbcea5d9c	-0.02860909
156	0x3cbd4a3d	0.023106689
157	0xbcf393d3	-0.029733574
158	0x3c43e0d8	0.011955462
159	0xbd28ae8d	-0.04118209
160	0xbd28cb35	-0.04120942
161	0xbd120999	-0.035653684
162	0x3c45b9ca	0.012068221
163	0xbcddcab8	-0.027074203
164	0xbcdac183	-0.026703602
165	0x3d76d73f	0.06026387
166	0x3da4b8fd	0.08043096
167	0x3daa2178	0.08307165
168	0x3d94591a	0.07243557
169	0x3cc59322	0.02411801
170	0x3dab16e4	0.083539754
171	0x3ce82bf1	0.028341265
172	0x3c8f3550	0.017481476
173	0xbcde5fe1	-0.027145328
174	0x3c29e810	0.010370269
175	0xbd1bbc27	-0.038021233
176	0x3d211594	0.03932722
177	0x3c946853	0.018116152
178	0xbc1665dd	-0.00917956
179	0x3d0eca4a	0.034860887
180	0x3d96d9fa	0.073657945
181	0x3c239d81	0.009986282
182	0x3d19111e	0.03736984
183	0x3d005a6e	0.03133624
184	0x3d9c7e0b	0.07641228
185	0x3d67cc7e	0.056591503
186	0x3d7450c8	0.05964735
187	0x3dbab698	0.09116858
188	0x3da03c39	0.078239866
189	0x3d8e0304	0.06934169
190	0x3d7f82ec	0.062380716
191	0x3cd08048	0.025451794
192	0xbc6d2706	-0.014474636
193	0x3d957f4f	0.07299673
194	0xbbf7d721	-0.007563487
195	0x3d093e4c	0.033506677
196	0x3d76b2dd	0.06022917
197	0x3d894b01	0.06703759
198	0xbd293fdd	-0.04132067
199	0xbd8d395c	-0.06895706
200	0x3c378fac	0.011203688
201	0xbd93306c	-0.0718697
202	0xbda4a321	-0.08038927
203	0xbb56e9b7	-0.0032793113
204	0x3cc0704a	0.023491044
205	0xbd836d57	-0.06417339
206	0x3cb28eed	0.021796668
207	0xbd8ed804	-0.069747955
208	0xbd9d6a22	-0.07686259
209	0xbdb8e656	-0.09028308
210	0x3c19f7b8	0.00939744
211	0x3c1c64cc	0.009545516
212	0x3c9069f7	0.017628653
213	0x3cd59709	0.026072996
214	0xbcef0037	-0.029174907
215	0xbd8d3f53	-0.06896844
216	0x3dc1640e	0.09442912
217	0x3bf26568	0.0073973425
218	0x3d21c1f0	0.039491594
219	0x3db72bda	0.08943911
220	0x3c66c67b	0.014085407
221	0x3d9366f3	0.071973704
222	0xbc02f39a	-0.007992649
223	0x3cdefbfb	0.027219763
224	0x3d8b9bf0	0.06816852
225	0xbd1d22b4	-0.038363174
226	0xbdd901f3	-0.10596075
227	0xbd8b4584	-0.068003684
228	0xbd2e370b	-0.04253296
229	0xbd4a19e2	-0.04934109
230	0xbd6f0332	-0.058352657
231	0xbdb7bfd9	-0.08972139
232	0xbcebba19	-0.028775262
233	0xbde044d1	-0.10950626
234	0xbd9c3d86	-0.07628922
235	0xbd131ff3	-0.03591914
236	0xbd6a6d7b	-0.057233315
237	0xbb9c59d7	-0.004771452
238	0xbd850aec	-0.06496224
239	0x3c019db2	0.007911133
240	0xbd9e59b4	-0.07731953
241	0x3c8b0da8	0.016974285
242	0xbc91f939	-0.017819034
243	0xbc2745e1	-0.0102095315
244	0x3a42df92	0.0007433827
245	0x3cdcf7c6	0.026973616
246	0x3d83e90c	0.064409345
247	0x3d566793	0.05234487
248	0x3ba4e666	0.0050323484
249	0x3bdf7025	0.0068187886
250	0xbd2050e6	-0.03913965
251	0x3d8a1bb1	0.06743563
252	0x3d9194ac	0.07108435
253	0x3da6ed25	0.081507005
254	0x3d6b0462	0.057377227
255	0xbb9e6d27	-0.0048347893

conv2.bias f4 [32]
0	0xbd66d0a7	-0.05635133
1	0xbd5325fa	-0.05154989
2	0xbcfbd6c9	-0.030742066
3	0x3d45a786	0.048255466
4	0xbcad6188	-0.02116467
5	0x3d811f2c	0.06304774
6	0x3d939050	0.0720526
7	0xbadfebf2	-0.0017083867
8	0x3d2875da	0.041128017
9	0x3d0af932	0.033929057
10	0x3d04978d	0.032371093
11	0x3d9690db	0.07351848
12	0xbb7d8b41	-0.0038687738
13	0xbcaa984d	-0.020824576
14	0x3cac44d8	0.021028921
15	0x3b1923b5	0.002336723
16	0xbd7357e5	-0.059409995
17	0x3cd9a0a2	0.026565854
18	0xbbd28cf1	-0.006425493
19	0xbc8a7f32	-0.016906355
20	0x3d2511bc	0.040300116
21	0x3d24c300	0.04022503
22	0xbce1b196	-0.0275505
23	0xbd234644	-0.039861932
24	0xbd503227	-0.05082908
25	0x3ccd3eb9	0.025054323
26	0xbd3b92d4	-0.045794323
27	0xbd348f5a	-0.044082023
28	0x3d060fd6	0.032729946
29	0x3dbf6ad0	0.09346545
30	0x3d73dad3	0.05953486
31	0xbd3a4024	-0.045471326

conv3.weight f4 [32, 32, 3, 3]
0	0x3d356045	0.044281263
1	0xbc4fa4c2	-0.012673559
2	0x3cae87df	0.021305023
3	0x3d90a6c4	0.07063058
4	0xbd9339a7	-0.07188731
5	0xbcd127b9	-0.025531637
6	0xbc989e1d	-0.018630082
7	0xbcc60b50	-0.024175316
8	0xbcb9a092	-0.022659574
9	0x3dab1eea	0.08355506
10	0x3d0d2c36	0.03446599
11	0x3d188fce	0.037246518
12	0xbb387602	-0.002814651
13	0x3d1d0fba	0.038345076
14	0xbd9b3b09	-0.075796194
15	0xbd993605	-0.074810065
16	0xbd0525dd	-0.032506812
17	0xbcd662e8	-0.026170209
18	0x3d1146b9	0.035467837
19	0x3df19d00	0.117975235
20	0xbc993f00	-0.018706799
21	0x3dcf44d0	0.10120547
22	0x3d436eb3	0.047712993
23	0xb973587e	-0.00023207252
24	0xbcd44350	-0.025911003
25	0x3c0be66f	0.008538826
26	0xbcdef723	-0.027217453
27	0xbd5f4389	-0.054507766
28	0xbd526fcc	-0.05137615
29	0xbd84a571	-0.06476868
30	0xbcd02441	-0.025407912
31	0xbc189336	-0.009312442
32	0xbce1327a	-0.02748989
33	0xbcb14dc4	-0.021643527
34	0x3c25e52f	0.010125442
35	0x3c9fa576	0.019488078
36	0xbcb55c63	-0.02213878
37	0xbd5d8e25	-0.054090638
38	0x3d3738ba	0.044731833
39	0xbc0078f3	-0.007841337
40	0xbc4ae81d	-0.012384442
41	0x3db2314d	0.0870081
42	0x3d74b0fc	0.059739098
43	0x3c8dba45	0.017300734
44	0x3da7eb40	0.08199167
45	0x3d07088f	0.032967146
46	0xbd2a7e2a	-0.041624226
47	0x39a1521d	0.00030769492
48	0x3c7fe5c4	0.015618745
49	0xbcdc19d4	-0.026867785
50	0x3c8af661	0.016963186
51	0xbb5614e5	-0.0032666263
52	0x3c7d726b	0.015469174
53	0xbce5e210	-0.028061897
54	0xbc90ccb8	-0.017675743
55	0xbde3ffa6	-0.111327454
56	0xbcdf34e4	-0.0272469
57	0x3c944690	0.018100053
58	0xbdcb06c0	-0.09913397
59	0x3c72a9ac	0.014810961
60	0xbc5926db	-0.013253893
61	0x3d0d564e	0.034506135
62	0xbc592fa3	-0.013255986
63	0x3d51b6ef	0.05119985
64	0x3c933d0a	0.017973442
65	0xbcc039de	-0.023465093
66	0x3d21f72d	0.039542366
67	0x3dd9d4df	0.10636305
68	0xbd06a364	-0.032870665
69	0xbc6d71bf	-0.014492451
70	0x3c5429d6	0.012949428
71	0xbde30198	-0.11084288
72	0x3d6b3594	0.057424143
73	0x3d4b53ce	0.04964047
74	0xbd847253	-0.06467118
75	0xbd44bf26	-0.048033856
76	0x3d016953	0.031594586
77	0xbd1d80fd	-0.03845309
78	0xbd86b077	-0.06576627
79	0x3a6863df	0.00088649796
80	0xbd494f14	-0.04914768
81	0x3d8f51de	0.06998037
82	0x3d88f20e	0.06686793
83	0xbcf7c629	-0.030245857
84	0x3cbcb99f	0.02303773
85	0xbc8fd5c2	-0.017557982
86	0xbc11cd02	-0.008898975
87	0x3d011881	0.03151751
88	0x3c4e8071	0.012603865
89	0xbd570155	-0.052491505
90	0xbd9efecc	-0.077634424
91	0xbc10852a	-0.008820811
92	0xbd9def03	-0.077116035
93	0x3da36a54	0.07979265
94	0x3b45db1b	0.0030190411
95	0xbc9052a2	-0.017617527
96	0xbbd5cdde	-0.0065247854
97	0x3d12d589	0.035848174
98	0xbd7375e7	-0.059438612
99	0x3db62380	0.0889349
100	0x3cf70797	0.030154986
101	0xbcbfafc9	-0.02339925
102	0xba988fb8	-0.0011639511
103	0x3dd07c73	0.10179987
104	0x3d346f10	0.04405123
105	0x3d574a54	0.05256112
106	0x3c8097c2	0.015697364
107	0x3c30656d	0.010766369
108	0xbdfcec1e	-0.12349723
109	0xbe280ea2	-0.16411832
110	0xbda7ef51	-0.08199943
111	0xbd5ac01a	-0.05340586
112	0xbd05a97e	-0.032632343
113	0xbc3a7380	-0.011380076
114	0x3d3b18e8	0.04567805
115	0x3ac83c5e	0.001527678
116	0x3d24bde5	0.04022016
117	0x3d7c7b17	0.061640825
118	0x3d71fda8	0.059079796
119	0x3c95868f	0.01825264
120	0x3ab92726	0.0014126047
121	0x3d0bffbf	0.034179445
122	0x3cb8926c	0.022530757
123	0x3d220dda	0.03956399
124	0xbc054775	-0.008134712
125	0xbcc5a91f	-0.024128495
126	0xbd43efe3	-0.047836196
127	0xbd9147d8	-0.07093781
128	0xbd79a72e	-0.06095045
129	0xbb26bbfd	-0.002544164
130	0xbd23cb3a	-0.039988734
131	0xbd47ba48	-0.048761636
132	0x3c70c20e	0.014694704
133	0x3cace459	0.021104978
134	0xbdbad4a1	-0.09122587
135	0x3ce352aa	0.027749378
136	0x3cf9e728	0.030505732
137	0x3bf91ac7	0.007602069
138	0x3c5ac392	0.013352292
139	0xba8b53f2	-0.0010629876
140	0x3d37c3b6	0.04486438
141	0x3c1ec212	0.009689825
142	0xbca02492	-0.019548688
143	0xbc9ddade	-0.019269403
144	0x3d8e4dc8	0.06948429
145	0x3e2ba42a	0.16761842
146	0x3d3b5d2f	0.045743164
147	0x3d98a9e9	0.07454283
148	0x3d943891	0.07237352
149	0x3d299e74	0.04141088
150	0xbc1488ad	-0.009065789
151	0xbb159ac4	-0.0022827843
152	0xbda1713b	-0.07882925
153	0x3d8e3727	0.06944113
154	0xbcbcdea0	-0.023055375
155	0xbd7e76e7	-0.062125113
156	0x3c9d4c4e	0.019201424
157	0xbc23da18	-0.010000728
158	0x3d072f33	0.033003997
159	0x3af38f92	0.0018582216
160	0x3d43e898	0.04782924
161	0xbd2d038a	-0.042239703
162	0xbbbda55c	-0.0057875346
163	0x3dc72eaf	0.09725701
164	0x3d1abfb4	0.03778048
165	0x3d9cad42	0.07650234
166	0x3d6192e7	0.055071738
167	0xbdb2c584	-0.08729079
168	0xbd84c8f3	-0.064836405
169	0xbd570956	-0.052499138
170	0xbdedaf75	-0.116057314
171	0x3e07f854	0.13278323
172	0x3e2cb380	0.16865349
173	0x3dbb1af5	0.09136001
174	0x3cbc6df8	0.023001656
175	0x3e1dad92	0.15398243
176	0x3d1f9733	0.038962554
177	0x3be2c069	0.0069199097
178	0xbc85151a	-0.016245414
179	0x3d0e4926	0.03473773
180	0x3dc487ac	0.0959619
181	0x3d34c72b	0.044135254
182	0xbcb4c6a0	-0.022067368
183	0x3d2dc77d	0.042426575
184	0x3dce2e03	0.1006737
185	0xbcefadd4	-0.029257692
186	0x3c359fc8	0.011085458
187	0x3d54b7ac	0.051932976
188	0xbd12190b	-0.035668414
189	0x3b91e0ad	0.0044518323
190	0x3caeb3fb	0.021326056
191	0x3bea7f65	0.0071563
192	0xbd2bd7a9	-0.041953716
193	0xbcd9406b	-0.026519975
194	0x3d60dded	0.054899145
195	0xbc9b3a38	-0.01894866
196	0x3d3d53a0	0.04622233
197	0xbd123cc5	-0.035702486
198	0xbd579b93	-0.0526386
199	0xbcaa264c	-0.020770214
200	0x3d006ddd	0.031354774
201	0xbd04443f	-0.032291647
202	0xbd8e68f4	-0.06953612
203	0xbca4fb02	-0.020139221
204	0x3b075abc	0.0020653447
205	0xbd2a113b	-0.04152034
206	0xbc7c70b3	-0.015407729
207	0xbd3310d6	-0.043717228
208	0xbd84d041	-0.06485034
209	0xbd164c12	-0.03669364
210	0xbd856128	-0.06512672
211	0x3b405425	0.002934703
212	0xbd0c7c95	-0.0342985
213	0xbc86b33f	-0.016442893
214	0x3c9e6e0a	0.01933958
215	0x3cf6f5f9	0.030146586
216	0xbdcbd9a0	-0.09953618
217	0xbca9ec15	-0.020742455
218	0xbcef26b4	-0.02919326
219	0xbdb91fd0	-0.09039271
220	0xbcd8a3d7	-0.026445312
221	0x3d0b585e	0.03401982
222	0xbcf08d30	-0.029364198
223	0x3c464213	0.012100714
224	0x3c813150	0.015770584
225	0x3dc065ce	0.09394418
226	0x3d5ab473	0.053394746
227	0xbd8cdcb7	-0.068780355
228	0xbc43c09f	-0.01194778
229	0xbc92df3d	-0.017928714
230	0xbd84c512	-0.06482901
231	0x3cbd60a2	0.023117367
232	0xbd71f235	-0.059068877
233	0xbd373e4e	-0.044737153
234	0x3dce9f79	0.10089011
235	0x3d6f769f	0.058462735
236	0x3b287168	0.002570236
237	0x3c029e02	0.007972242
238	0x3cbb77b4	0.022884227
239	0xbcaf8d2a	-0.021429617
240	0xbd37efce	-0.04490643
241	0xbcf6444b	-0.030061862
242	0xbd726413	-0.05917747
243	0xbd8ea3eb	-0.069648586
244	0xbd07ac15	-0.033123095
245	0x3d48e850	0.049049675
246	0xbd6e36fe	-0.058157913
247	0xbd86d5d0	-0.0658375
248	0x3cac0491	0.020998271
249	0x3d098e69	0.03358308
250	0x3a8fe56b	0.0010978406
251	0x3deca29a	0.11554451
252	0x3daa9e75	0.083310045
253	0x3d515980	0.051110744
254	0xbd874342	-0.06604625
255	0x3bf1795f	0.007369205

conv3.bias f4 [32]
0	0xbd0e20b4	-0.034699157
1	0xbd2354b0	-0.039875686
2	0x3d0de5d2	0.034643
3	0x3d06c578	0.032903165
4	0x3cccb9f1	0.024991008
5	0x3c282858	0.010263525
6	0xbd259578	-0.040425748
7	0x3d2bbfa6	0.041930817
8	0xbce3f96e	-0.027828898
9	0xbcac12ab	-0.021004995
10	0xbd87fa96	-0.06639592
11	0xbd5c2192	-0.053742953
12	0x3dd79730	0.105268836
13	0x3b187301	0.0023261907
14	0xbcd1cb71	-0.025609704
15	0x3dffb514	0.1248571
16	0x3c191cb6	0.009345224
17	0x3d672b02	0.0564375
18	0xbbedf336	-0.007261659
19	0xbd9f948c	-0.07792005
20	0x3cf0f2d0	0.029412657
21	0x3d2d403c	0.042297587
22	0x3dab157b	0.083537064
23	0x3cbaac10	0.022787124
24	0x3c90a8f1	0.017658683
25	0x3dc76e80	0.09737873
26	0x3df47801	0.119369514
27	0xbc0f4770	-0.008745059
28	0x3d52d90e	0.05147653
29	0xbdb7524f	-0.08951246
30	0x3d56a3fe	0.05240249
31	0xbd9c4825	-0.07630948

conv4.weight f4 [8, 32, 3, 3]
0	0xba0a45af	-0.0005274666
1	0xbaff958f	-0.0019499528
2	0xbccd900a	-0.025093097
3	0xbcab7310	-0.02092889
4	0x3dd9402f	0.10607945
5	0x3d265f05	0.04061796
6	0x3c168b3b	0.009188469
7	0x3d5bb9fb	0.05364416
8	0xbd42c03a	-0.047546603
9	0xbd48d931	-0.049035255
10	0x3db29349	0.08719499
11	0x3d87f3f4	0.06638327
12	0x3c83d343	0.016091948
13	0x3d059ff5	0.03262325
14	0x3e00f421	0.12593128
15	0x3d976245	0.0739179
16	0x3cae36ff	0.021266459
17	0x3d08f5e1	0.033437613
18	0xbca998fd	-0.020702833
19	0x3d49e035	0.049286086
20	0x3c41d3fc	0.011830326
21	0x3ce51ba6	0.027967285
22	0x3df5c2b5	0.12000028
23	0x3cee30bf	0.029075978
24	0xbc519601	-0.012792111
25	0x3d892cda	0.06698008
26	0x3cc9933d	0.024606341
27	0x3c4e4049	0.012588569
28	0xbcb60a88	-0.022221819
29	0xbd52123d	-0.051286925
30	0x398f3c96	0.00027320225
31	0x3d165118	0.03669843
32	0x3cc31a24	0.023816176
33	0x3c27a937	0.010233215
34	0x3c91ff8d	0.017822051
35	0x3e0f0f68	0.13970721
36	0xbd788bec	-0.060680315
37	0xbe2fdf23	-0.17174964
38	0xbc976a10	-0.018483192
39	0xbcf92c4b	-0.030416628
40	0xbe075fd0	-0.13220143
41	0xbc16a710	-0.009195104
42	0x3cbdad9a	0.023154069
43	0xbd431d37	-0.047635283
44	0x3d2fdf36	0.04293748
45	0xbcc37614	-0.023860015
46	0x3d0e115f	0.034684535
47	0x3b867d18	0.004104268
48	0x3b8c93e3	0.0042900904
49	0x3d6e40cd	0.058167268
50	0xbd838a3f	-0.06422853
51	0x3cb9b93e	0.022671338
52	0xbd07f039	-0.03318808
53	0xbdf906c9	-0.12159497
54	0x3b9b1f9e	0.0047339937
55	0x3da0632c	0.078314155
56	0x3cb7591a	0.022381354
57	0xbd04034f	-0.032229718
58	0x3e06b718	0.13155782
59	0x3de59bc2	0.11211349
60	0x3d20e355	0.0392793
61	0x3dfc67c3	0.123244785
62	0x3dc63cb0	0.09679544
63	0x3d16f763	0.03685702
64	0xbcd855b0	-0.026408046
65	0x3d58912f	0.052872833
66	0x3afd6500	0.0019332469
67	0x3d294eae	0.0413348
68	0x3d27a173	0.040925454
69	0xbd986c9f	-0.07442593
70	0xbce4aaba	-0.02791344
71	0x3abe62e2	0.0014525319
72	0xbd2c1f8e	-0.04202228
73	0xbe19c6ed	-0.1501729
74	0x3cce4076	0.025177222
75	0xbd88eb96	-0.066855595
76	0xbdcd0ba0	-0.10011983
77	0xbc844b78	-0.016149268
78	0x3d5043b8	0.05084583
79	0xbc483e0d	-0.012221825
80	0xbd81a576	-0.06330387
81	0x3c2c3e3a	0.010512883
82	0xbd1b73d7	-0.03795227
83	0xbc960bbd	-0.018316144
84	0xbd00adca	-0.03141574
85	0xbbec3a01	-0.007209063
86	0x3d853635	0.0650448
87	0xbd48a0f5	-0.048981626
88	0x3cd2aff7	0.025718672
89	0x3cb0e7b1	0.021594854
90	0xbcab52ed	-0.020913566
91	0x3dced7f2	0.10099782
92	0x3c034b0b	0.008013497
93	0xbcf8d1e7	-0.030373527
94	0x3dccb3c8	0.09995228
95	0xbce78bb7	-0.028264863
96	0xbbecc31f	-0.0072254087
97	0x3d919b6e	0.07109724
98	0xbcddd84a	-0.027080674
99	0x3d1124af	0.035435375
100	0xbc4f2f04	-0.012645487
101	0x3c5e7dc1	0.013579787
102	0xbca19a03	-0.019726759
103	0x3d10e6e6	0.035376452
104	0xbd8f932d	-0.070104934
105	0xbc892e67	-0.01674576
106	0xba9263a3	-0.001116861
107	0xbc291623	-0.010320219
108	0xbcab62ff	-0.020921228
109	0x3d31f806	0.043449424
110	0x3c276563	0.010217044
111	0x3c1ad0a9	0.0094491625
112	0xbd2aa45f	-0.041660663
113	0x3bf5f234	0.0075056795
114	0x3d59e618	0.05319795
115	0x3c909abe	0.017651912
116	0x3ddec70d	0.1087781
117	0x3d09d9a7	0.033654835
118	0x3cb96a13	0.022633588
119	0x3c8f0126	0.017456602
120	0x3d64d9d9	0.05587182
121	0x3d7d4ce3	0.061840903
122	0xbd817f2c	-0.06323084
123	0xbb071d4a	-0.0020616823
124	0xbcdcba26	-0.026944231
125	0xb9a0f3a0	-0.00030699093
126	0x3c8bd33e	0.017068502
127	0xbd63ba6e	-0.055597715
128	0xbd43281b	-0.04764567
129	0xbcb8eccb	-0.02257385
130	0xbd803d47	-0.06261688
131	0xbc2c0dc5	-0.01050133
132	0x3d6b0020	0.057373166
133	0xbc15e3f3	-0.009148586
134	0x3d317470	0.043323934
135	0x3d2b0dae	0.041761093
136	0xbd58bc2f	-0.05291384
137	0xbbd85c3d	-0.0066027925
138	0xbd90f3dd	-0.07077763
139	0xbda935fe	-0.08262251
140	0xbbb842bd	-0.00562319
141	0x3d9d3e4b	0.07677897
142	0x3c1e91a3	0.009678277
143	0xbd005f41	-0.03134084
144	0x3bf51de6	0.007480371
145	0xbd792d15	-0.06083401
146	0xbc907194	-0.017632283
147	0x3c3e20ff	0.011604547
148	0x3d715e1f	0.05892765
149	0xbd231946	-0.039819025
150	0x3d669702	0.056296356
151	0x3dabd48a	0.08390148
152	0x3d777e77	0.06042334
153	0xbd3251d0	-0.043535054
154	0xbd027ead	-0.03185909
155	0x3d132e47	0.035932805
156	0xbda43337	-0.08017581
157	0xbc900958	-0.01758258
158	0x3d5eff5c	0.05444275
159	0xbd0ce16c	-0.034394667
160	0xbd6b82f5	-0.057497937
161	0x3d9e1791	0.07719339
162	0x3d03e7c6	0.03220346
163	0x3db1ec46	0.08687644
164	0xbc71a533	-0.014748859
165	0x3dc80c4e	0.09767972
166	0x3dc6eda5	0.09713296
167	0xbd1c9dd1	-0.038236443
168	0xb9d1418b	-0.0003991242
169	0x3baf3d95	0.0053479173
170	0xbdc0d587	-0.09415727
171	0x3cc74348	0.024324074
172	0x3ddef5c1	0.108867176
173	0x3d979c56	0.074028656
174	0x3daed41b	0.0853655
175	0x3c40f939	0.011778169
176	0x3d52d8e2	0.051476367
177	0xbc82bf5c	-0.015960388
178	0x3d73d726	0.059531353
179	0xbd084ca9	-0.033276234
180	0xbda87e6f	-0.0822724
181	0xbd4daf6d	-0.050216127
182	0xbbda1c0c	-0.0066561755
183	0xbdd714d3	-0.10502019
184	0xbd3aa307	-0.04556563
185	0x3d33e265	0.04391708
186	0xbd169b1f	-0.03676903
187	0xbd3ae8db	-0.045632225
188	0x3c99b47f	0.018762825
189	0xbc784278	-0.015152566
190	0xbc1fcf46	-0.009754008
191	0xbdd8531a	-0.10562725
192	0x3d25e996	0.040505968
193	0xbc32ac5f	-0.010905354
194	0xbd1aaef3	-0.0377645
195	0xbd6c6fac	-0.057723686
196	0x3c67f1ef	0.014156803
197	0xbde4d269	-0.11172945
198	0x3ccf6176	0.025315028
199	0xbd917ba4	-0.07103661
200	0xbd640287	-0.055666473
201	0x3c369dee	0.011146052
202	0xbd8740ed	-0.066041805
203	0x3c36cf9c	0.011157896
204	0x3c9921cc	0.018692873
205	0xbd2eb5ee	-0.04265397
206	0xbd628a2a	-0.055307545
207	0x3be5e8a1	0.007016257
208	0xbd014d42	-0.03156782
209	0xbd64f904	-0.055901542
210	0x3cd7bc3b	0.026334872
211	0x3d2695c3	0.040670168
212	0xbd4687fb	-0.048469525
213	0xbcbe99b1	-0.023266645
214	0xbdb7c81e	-0.08973716
215	0xbe090456	-0.1338056
216	0xbb808d6a	-0.003923108
217	0xbd2db09f	-0.042404767
218	0x3cba59a3	0.02274782
219	0xbc91b512	-0.017786536
220	0xbe16f52a	-0.1474196
221	0x3b125fea	0.0022335001
222	0x3b28ce0a	0.0025757574
223	0xbd83ffdf	-0.06445288
224	0x3d36c165	0.04461803
225	0x3c5ebdb2	0.013595032
226	0xbd7b8091	-0.061401907
227	0xbd153c70	-0.03643459
228	0x3d41bc75	0.047298867
229	0xbdcea071	-0.100891955
230	0xbdce9f44	-0.10088971
231	0xbdb620bc	-0.08892962
232	0xbd54d459	-0.051960323
233	0xbdd27948	-0.10277039
234	0x3d9bffb2	0.076171294
235	0xbb411fbd	-0.002946838
236	0xbdb23ded	-0.08703218
237	0xbcda0d9f	-0.026617823
238	0xbd9ba013	-0.07598891
239	0xbddae506	-0.10688214
240	0x3d59855f	0.05310571
241	0xbdb06c44	-0.086144
242	0xbd6f5434	-0.05842991
243	0xbd380f46	-0.04493644
244	0x3b1bc750	0.0023769923
245	0xbd618149	-0.055054937
246	0xbc72bed0	-0.014816001
247	0xbcec1e41	-0.02882302
248	0x3d89f75b	0.067366324
249	0xbd0f0f46	-0.034926675
250	0xbccc68fd	-0.024952406
251	0x3d8a67af	0.06758057
252	0xbccb623b	-0.024827113
253	0xbe2862f1	-0.16443993
254	0xbc65eabd	-0.014033017
255	0xbd923374	-0.0713872

conv4.bias f4 [8]
0	0xbd7c2c33	-0.06156559
1	0x3bc4bde7	0.0060040834
2	0x3d79d0c9	0.06099013
3	0xbc4b0a04	-0.012392525
4	0xbd8e9f8e	-0.069640264
5	0xbdb52158	-0.088442504
6	0x3d273007	0.040817287
7	0x3c7a1236	0.015263131

fc1.weight f4 [128, 1152]
0	0xbbb43b4c	-0.005500233
1	0x3d010076	0.03149458
2	0x3c97b250	0.018517643
3	0xba3d4dbc	-0.0007221361
4	0xbd3df262	-0.046373732
5	0xbd81d204	-0.063388854
6	0xbd825b6f	-0.06365096
7	0x3b1a9879	0.0023589416
8	0xbd227d22	-0.039670117
9	0x3c2d9a10	0.010595813
10	0x3bcd699e	0.006268694
11	0xbb405fe8	-0.002935404
12	0x3d158889	0.036507163
13	0x3c8b51f8	0.01700686
14	0x3c825505	0.015909681
15	0xbcb5f568	-0.022211745
16	0x3cb38a1a	0.021916438
17	0xbcdd38d0	-0.02700463
18	0xbcc116fe	-0.023570534
19	0xbc1b53db	-0.009480442
20	0x3ccbc392	0.024873529
21	0x3d2cf226	0.04222312
22	0xbc67a4cb	-0.014138411
23	0x3ad4a423	0.0016223233
24	0xba722cbc	-0.00092382333
25	0xbae38d14	-0.001736077
26	0x398961f7	0.00026203666
27	0x3aeb7b0f	0.0017965751
28	0x3cfd4033	0.030914402
29	0x3c9d5658	0.019206211
30	0xbdb6a060	-0.08917308
31	0xbcc6de9f	-0.024276076
32	0x3cf9196a	0.030407626
33	0xbc21cf7c	-0.009876128
34	0x3cf3897a	0.02972864
35	0x3c693993	0.014234918
36	0x3ca900a3	0.020630186
37	0xbca07e0e	-0.019591358
38	0x3b282344	0.0025655786
39	0xbd85fa29	-0.06541855
40	0xbcb2d343	-0.021829253
41	0xba7b9aa4	-0.00095979334
42	0xbd65224c	-0.05594091
43	0xbced6f7b	-0.028983822
44	0x3d044a99	0.032297704
45	0xbc00a0c1	-0.007850827
46	0x3a97ba78	0.0011575958
47	0xbc97f733	-0.018550491
48	0x3c867b39	0.016416179
49	0xbc8126d4	-0.015765585
50	0x3a30ce26	0.00067445857
51	0xbd28c111	-0.041199747
52	0xbd854e32	-0.06509055
53	0xbd16d045	-0.036819715
54	0xbd1b87a1	-0.037971143
55	0xbde74e6f	-0.11294257
56	0x3d40d74c	0.047080323
57	0x3cdc16bb	0.026866307
58	0xbc35e61c	-0.011102226
59	0x3cd0bef7	0.025481684
60	0x3cc1a1c9	0.023636715
61	0xbd213c34	-0.039364055
62	0xbcf1d203	-0.029519087
63	0xbd0b820b	-0.034059566
64	0x3c185c7e	0.009299396
65	0xbd2619a9	-0.040551815
66	0xbcca160e	-0.02466872
67	0xbdc2281e	-0.09480308
68	0x3c810b3f	0.015752433
69	0x3d6af948	0.05736664
70	0xbc0aaeb3	-0.008464503
71	0xbcb192ea	-0.0216765
72	0xbc552519	-0.013009333
73	0xbb9ee7b0	-0.0048493966
74	0xbd00fc1f	-0.03149044
75	0xbd3392f1	-0.043841306
76	0x3cf4d0f9	0.029884802
77	0xbc59affd	-0.013286588
78	0x3d40173c	0.046897158
79	0xbce3802b	-0.027771076
80	0xbd6bd958	-0.057580322
81	0x3cd66c49	0.026174681
82	0x3bcafdf1	0.006194823
83	0xbcebb78c	-0.028774045
84	0xbb044a74	-0.002018598
85	0xbca8661f	-0.020556508
86	0xbc5d9314	-0.013523836
87	0x3c34b105	0.011028533
88	0x3b971d96	0.004611681
89	0x3d3b4ff1	0.045730535
90	0x3d01aca5	0.031658787
91	0x3ca6de86	0.02036978
92	0x3c3bee6a	0.011470417
93	0xbd129f81	-0.035796646
94	0x3d02e91a	0.031960584
95	0x3cbe2f9a	0.023216058
96	0xbd05208b	-0.03250174
97	0xbd34880c	-0.044075057
98	0x3c67ea11	0.014154927
99	0xbc0a9db9	-0.008460456
100	0xbc93b644	-0.018031247
101	0x3d3ad094	0.04560907
102	0xbda36486	-0.07978158
103	0xbd3ac3a2	-0.045596726
104	0x3dbb962e	0.09159504
105	0xbd1813a4	-0.037128106
106	0x3d5dc0d8	0.05413899
107	0x3d0ee6d4	0.034888104
108	0xbd94cd42	-0.07265712
109	0xbcdfe472	-0.02733061
110	0xbc3b141f	-0.011418371
111	0xbd8ab5c1	-0.06772948
112	0xbd5c385a	-0.05376468
113	0x3d4ff8c8	0.050774366
114	0xbdb00ea7	-0.08596545
115	0xbd938d5e	-0.07204698
116	0x3d23ad9e	0.039960496
117	0xbc6d5150	-0.014484718
118	0xbd138774	-0.03601785
119	0x3d0d23da	0.03445802
120	0xbd383cff	-0.044980045
121	0x3c250d40	0.01007396
122	0xbabfb97e	-0.0014627425
123	0xbc88c401	-0.016695024
124	0xbdba49ed	-0.090961315
125	0x3b898fb1	0.0041980376
126	0xbd5ab7fe	-0.053398125
127	0x3c82e7c7	0.01597966
128	0xbd57206a	-0.052521147
129	0xbd0539c8	-0.032525808
130	0xbdd2d9ab	-0.10295423
131	0x3b7d9088	0.0038690884
132	0xbcbddbad	-0.023176039
133	0x3be1a3c5	0.006885978
134	0x3d8f5d97	0.07000273
135	0xbcd98568	-0.02655287
136	0xbd96f530	-0.073709846
137	0x39bd792c	0.0003613917
138	0xbce6b347	-0.028161658
139	0x3d0e8d28	0.034802586
140	0xbcdf9f64	-0.027297683
141	0x3c480511	0.012208239
142	0xbcf850f5	-0.03031204
143	0xbce98551	-0.028505953
144	0xbb200443	-0.0024416603
145	0x3c927121	0.01787621
146	0xbc8158a0	-0.01578933
147	0xbc9f6a06	-0.019459736
148	0x3be0a58e	0.006855673
149	0xbd0b8230	-0.034059703
150	0xbcd8a8b4	-0.026447631
151	0xbb8b88a2	-0.0042582313
152	0x3bb523af	0.0055279355
153	0x3ce71ae9	0.028211074
154	0x3c947340	0.018121362
155	0xbc6f9537	-0.014622978
156	0x3ce9784c	0.028499745
157	0x3b3f0774	0.002914873
158	0xbc9f9500	-0.019480228
159	0xbd06b7d1	-0.032890145
160	0x3b9ab3a0	0.00472112
161	0x3bfabe70	0.0076520965
162	0xbc7c60fe	-0.015403984
163	0xbd26763c	-0.0406401
164	0x3d031575	0.032002885
165	0x3d2801e1	0.041017417
166	0x3ceac105	0.028656492
167	0x3c8e3467	0.017358972
168	0x3cf2c481	0.029634716
169	0xbca4bd69	-0.020109849
170	0xbcb59729	-0.022166805
171	0xbc65130c	-0.013981592
172	0x3d2a2f92	0.041549273
173	0x3c88160f	0.01661208
174	0xbc94cfbb	-0.01816546
175	0xbd10d19d	-0.035356153
176	0x3ccb3424	0.024805136
177	0x3cd03772	0.025417063
178	0x3d5172c2	0.051134832
179	0xbca8ae36	-0.020590883
180	0x3c98b42a	0.018640596
181	0x3bf46fa8	0.0074595995
182	0x3b0d3a2a	0.002154956
183	0xbd5cb1bb	-0.053880434
184	0x3c5c0b61	0.013430447
185	0xbd0d87cf	-0.034553345
186	0xbca1991a	-0.019726325
187	0xbd170b8c	-0.036876246
188	0xbcfe25fc	-0.031023972
189	0xbc6f95ec	-0.0146231465
190	0x3cae93db	0.021310737
191	0xbc64a5d3	-0.013955551
192	0xbca81540	-0.020517945
193	0x3ca79b80	0.02045989
194	0xbcf35737	-0.029704673
195	0xbbc0d4df	-0.005884751
196	0x3c70d570	0.014699325
197	0xbabe1b8f	-0.0014504063
198	0xbcf91ecd	-0.030410195
199	0xbd9b1069	-0.07571489
200	0x3c5f6663	0.013635251
201	0x3d42d0ae	0.047562294
202	0xbbebd16c	-0.007196596
203	0x395b75c6	0.00020929342
204	0x3d0a4d51	0.03376514
205	0xbc12b13c	-0.008953389
206	0xbbb8bfef	-0.0056381146
207	0xbc7e9509	-0.015538462
208	0x3cc9bb86	0.024625551
209	0x3cd62a5e	0.02614325
210	0x3d62ceb0	0.055372894
211	0xbd790d8f	-0.060803946
212	0x3d112316	0.03543385
213	0x3c9ae4d8	0.01890795
214	0x3b10086b	0.0021977674
215	0xbd09318a	-0.03349451
216	0x3c662018	0.014045738
217	0xbb2a39ee	-0.002597447
218	0x3c7ad922	0.015310558
219	0xbbebcef6	-0.0071963025
220	0x3d47cfd0	0.04878217
221	0x3d542274	0.05179067
222	0x3d52d582	0.05147315
223	0xbc23678c	-0.009973418
224	0xbcd75d05	-0.026289472
225	0xbcb25a78	-0.021771654
226	0x3c686e3d	0.014186439
227	0xbcc63ac7	-0.02419795
228	0xbd180bb1	-0.037120525
229	0x3c594512	0.013261097
230	0xbb281dfb	-0.0025652635
231	0x3d187503	0.037220966
232	0x3cf1d792	0.029521737
233	0x3db8796d	0.09007535
234	0xbb02972d	-0.0019926534
235	0x3d29324e	0.04130774
236	0xbc0f2c70	-0.008738622
237	0x3bc80a26	0.0061047254
238	0xbc1c7820	-0.009550124
239	0x3d1bfa63	0.038080584
240	0xbd49e426	-0.049289845
241	0xbd035c1a	-0.032070257
242	0x3bbec057	0.0058212685
243	0xbcafda4d	-0.021466399
244	0xbc4a9fc0	-0.012367189
245	0x3df61522	0.120157495
246	0xbdb95040	-0.090485096
247	0x3c0000a1	0.00781265
248	0x3daca5db	0.08430072
249	0xbcf9ba02	-0.030484203
250	0xbb6bf1ab	-0.00360022
251	0x3d4eb074	0.050461248
252	0xbd00c662	-0.031439193
253	0x3cb16c40	0.021658063
254	0x3bd24d8f	0.006417937
255	0xbd4e9ace	-0.050440602

fc1.bias f4 [128]
0	0x3d502a8f	0.050821837
1	0xbcf62091	-0.030044826
2	0x3cfade9f	0.030623732
3	0x3cc21a48	0.023694173
4	0xbb08af2b	-0.0020856361
5	0x3cf650b0	0.030067772
6	0xbcece92b	-0.028919777
7	0x3cc796b2	0.02436385
8	0xbcc1dc06	-0.023664486
9	0x3ceb337c	0.028711073
10	0x3d2371b6	0.039903365
11	0xbb955666	-0.0045574186
12	0x3bb8fb28	0.0056451745
13	0x3c087237	0.008328012
14	0x3cecce26	0.028906893
15	0xbd28335e	-0.041064613
16	0xbc4f92db	-0.01266929
17	0xbbade929	-0.005307336
18	0xbbc7b27a	-0.006094274
19	0xbc41c2ca	-0.0118262265
20	0xbc38581d	-0.011251477
21	0x3d1c23bf	0.038120028
22	0x3d1bcc01	0.03803635
23	0xbd258003	-0.040405285
24	0xbcbae110	-0.022812396
25	0x3cdcc85e	0.026951011
26	0x3cb7d9d8	0.022442743
27	0x3d17d70f	0.03707033
28	0x3cd03750	0.025417
29	0xbb04a6a8	-0.0020240936
30	0x3cdc9f7b	0.026931515
31	0xbcb7d484	-0.022440203
32	0xbc01b07b	-0.007915611
33	0xba932a4a	-0.0011227813
34	0x3cd87363	0.026422208
35	0x3c8ba98b	0.017048618
36	0xbd041985	-0.0322509
37	0xbc781528	-0.015141763
38	0xbc95ba20	-0.018277228
39	0xbc3d47ad	-0.011552733
40	0xbca3dd65	-0.02000303
41	0xbcc48426	-0.023988795
42	0xbc81bcc1	-0.015837075
43	0xbc0fab5e	-0.008768884
44	0xbcf09323	-0.029367035
45	0xbbcc68d5	-0.006238083
46	0x3cd057f8	0.025432572
47	0x3a802c79	0.0009778879
48	0x3c1aeaad	0.009455365
49	0x3cfe96c8	0.031077757
50	0xbd30b45d	-0.043140758
51	0x3cc2e26d	0.023789609
52	0x3c637bff	0.013884543
53	0xbbc52d69	-0.006017376
54	0x3d175c44	0.036953226
55	0x3ccda1d2	0.025101576
56	0x3c899b65	0.01679773
57	0xbc6ab00d	-0.0143242
58	0x3a7dab65	0.0009676724
59	0x3d082b14	0.033244208
60	0x3caee6aa	0.021350224
61	0xbaba172c	-0.001419758
62	0xbcb7fa90	-0.022458345
63	0xbbaa1d48	-0.005191479
64	0x3a9c9860	0.0011947267
65	0xbb23afab	-0.0024976532
66	0xbc327546	-0.010892218
67	0x3bce103f	0.006288558
68	0xbc114c65	-0.0088683115
69	0x3c6f7274	0.01461469
70	0x3c7a9607	0.015294558
71	0x3cf33717	0.029689355
72	0xbbbd3018	-0.0057735555
73	0x3d28ab9b	0.04117928
74	0x3d2852d1	0.041094605
75	0xbccbd702	-0.024882797
76	0xbc105f2f	-0.008811756
77	0xbb440a08	-0.0029913206
78	0x3cce038d	0.025148178
79	0x3c7d231e	0.015450267
80	0x3cc71ea9	0.024306612
81	0x3cbc2023	0.022964543
82	0x3d0a1597	0.033711996
83	0x3cef6768	0.029224113
84	0xbbc7a46d	-0.006092599
85	0xbcc93a48	-0.024563923
86	0xbc54f554	-0.012997944
87	0x3c286069	0.010276892
88	0x3cd73f40	0.026275277
89	0xbcc20e2e	-0.023688402
90	0xbcb923ff	-0.022600172
91	0xbb5fffc3	-0.0034179545
92	0xbabd93f1	-0.0014463646
93	0xbbe25d20	-0.006908074
94	0xbd176cf8	-0.036969155
95	0xbc33e716	-0.010980388
96	0xbd0a6c22	-0.03379453
97	0xbc29b9f3	-0.010359275
98	0x3d4290d0	0.047501385
99	0x3d7f15ad	0.06227653
100	0xbc8ac39f	-0.016938983
101	0xbbdcbd1e	-0.0067364117
102	0x3c8c43ca	0.017122168
103	0xbc751199	-0.014957809
104	0x3cafc0ff	0.021454332
105	0xbc49a772	-0.0123079885
106	0x3c562bd8	0.013071977
107	0x3d4d90dd	0.05018698
108	0xbcad3449	-0.021143096
109	0xbcc016a8	-0.023448303
110	0xbcac0485	-0.020998249
111	0xbc37ffc1	-0.01123041
112	0x3c775f2c	0.015098374
113	0x3c79f522	0.015256198
114	0xbb4a1674	-0.0030836137
115	0x3ca03868	0.019558147
116	0x3cc3cc4d	0.02390113
117	0xbb7895a5	-0.0037930992
118	0x3d1e9318	0.0387145
119	0x3cc583b3	0.02411065
120	0x3c8b1cf6	0.016981583
121	0x3c2124a5	0.009835397
122	0x3ce8c86f	0.028415887
123	0xbd0d56c4	-0.034506574
124	0x3c98c980	0.01865077
125	0xbc807df5	-0.015685061
126	0xbb90ef36	-0.0044230474
127	0x3d28f791	0.041251723

fc2.weight f4 [5, 128]
0	0xbdbb0e1c	-0.091335505
1	0xbaae4d08	-0.0013298104
2	0x3dd77a81	0.10521413
3	0x3db6b1d6	0.08920638
4	0x3dd94bc4	0.10610154
5	0xbe28d5d1	-0.16487814
6	0xbd6a2761	-0.05716646
7	0x3dbf7338	0.09348148
8	0x3ce8a7ea	0.02840038
9	0x3d0b298f	0.03397518
10	0xbe484d64	-0.19560772
11	0x3de27086	0.110566184
12	0xbddb3988	-0.107043326
13	0xbd491f70	-0.049102247
14	0x3d8c89e9	0.06862242
15	0x3de17cdc	0.11010143
16	0xbe3b1771	-0.18270661
17	0xbdc6ce00	-0.0970726
18	0xbdc754d5	-0.09732977
19	0xbd4c129f	-0.049822446
20	0x3d9c5d07	0.07634931
21	0x3cc6a186	0.024246942
22	0xbe5ee2a9	-0.21766151
23	0xbe2b5f44	-0.1673556
24	0x3da1d9d6	0.07902877
25	0x3d279e19	0.040922258
26	0xbca651b5	-0.020302633
27	0xbe3177e2	-0.17330888
28	0x3d349388	0.04408601
29	0x3cd76333	0.026292419
30	0x3d0530c1	0.0325172
31	0x3d44534e	0.047931008
32	0xbdb9db29	-0.090750046
33	0x3c9b9333	0.018991088
34	0xbe520b60	-0.20512152
35	0xbddb64e3	-0.10712602
36	0xbe236ac1	-0.15958692
37	0x3da88dee	0.08230196
38	0x3dbc348e	0.091897115
39	0x3dbe9d92	0.09307398
40	0x3dcfccf3	0.10146513
41	0xbdd1e3f2	-0.10248555
42	0xbd87d8ab	-0.06633123
43	0x3d5b22d0	0.053499997
44	0x3dacdcbc	0.08440539
45	0xbdd44302	-0.10364343
46	0xbe0a7daa	-0.135245
47	0x3dbde43f	0.0927205
48	0x3ce3ae8f	0.027793197
49	0x3da73a2d	0.08165393
50	0xbdeaaa95	-0.11458317
51	0xbe3605f6	-0.17775711
52	0xbe263ada	-0.16233388
53	0x3d612c86	0.0549741
54	0x3d4436ca	0.047903813
55	0xbdf3559c	-0.11881563
56	0xbd662d7b	-0.056195717
57	0x3db42d5f	0.08797716
58	0x39e5f178	0.00043858192
59	0x3c57cddf	0.013171642
60	0xbddfe6d3	-0.10932698
61	0x3dc2f2ae	0.09518944
62	0x3d1caafc	0.038249
63	0x3d4cf5a5	0.050038952
64	0xbd7e5b35	-0.0620987
65	0x3dea37b6	0.11436407
66	0xbe372f23	-0.17889075
67	0x3db47971	0.088122256
68	0xbd0ce62d	-0.0343992
69	0x3cb7fbe4	0.022458978
70	0xbdcbd810	-0.0995332
71	0x3ce2e7b7	0.02769838
72	0xbcea6239	-0.02861129
73	0xbe567699	-0.20943679
74	0x3db0dae9	0.08635504
75	0x3da851a6	0.08218698
76	0x3dc3c3f6	0.09558861
77	0x3dc7f5ef	0.09763705
78	0xbe2621a0	-0.16223764
79	0x3d57c1fd	0.052675236
80	0xbe5de199	-0.2166809
81	0xbe104d4c	-0.14091986
82	0xbde2c956	-0.11073558
83	0xbe3f6251	-0.18689848
84	0x3dc30451	0.09522308
85	0xbe1de94e	-0.1542103
86	0x3de31604	0.110881835
87	0xbe2bc7c3	-0.16775422
88	0xbd2b7d2a	-0.041867413
89	0xbda5a139	-0.080873914
90	0xbd2ef725	-0.042716164
91	0x3d0cd540	0.03438306
92	0xbe45b21c	-0.19306225
93	0xbdfee0c0	-0.124452114
94	0xbc6a8688	-0.014314301
95	0x3b4187b4	0.0029530348
96	0xbdfbb766	-0.1229084
97	0x3c8423f2	0.016130421
98	0xbd8ac7a8	-0.06776363
99	0x3da492ad	0.08035789
100	0x3cf66526	0.030077528
101	0x3da0efcf	0.0785824
102	0x3de1d518	0.110269725
103	0xbe5f48a0	-0.21805048
104	0xbdc62af4	-0.096761614
105	0xbe1e2fb8	-0.15447891
106	0xbe202e2f	-0.15642618
107	0xbe4f4665	-0.20241697
108	0xbdfb24bb	-0.12262865
109	0x3dd908ed	0.105974056
110	0xbb2005d4	-0.0024417536
111	0x3c027840	0.00796324
112	0xbe0dc5cc	-0.13844985
113	0xbdb5902b	-0.088653885
114	0xbb77a8e2	-0.003778987
115	0x3d4ed0c3	0.05049206
116	0xbe2b31ce	-0.16718218
117	0x3dafac96	0.0857784
118	0xbe41cfce	-0.18926927
119	0xbe37d0fd	-0.17950816
120	0x3d8d1f0c	0.06890687
121	0xbe0bb6ee	-0.13644001
122	0xbd8371dc	-0.06418201
123	0x3da31a04	0.079639465
124	0xbdeae37f	-0.11469173
125	0x3d8f94fd	0.07010839
126	0x3d2ad513	0.04170711
127	0x3dd0737a	0.101782754
128	0xbabda5e1	-0.0014468991
129	0x3c4a4b33	0.01234703
130	0x3c599996	0.013281247
131	0xbcf429bd	-0.029805059
132	0xbe42ed72	-0.1903589
133	0xbdd6cca9	-0.104882546
134	0xbe43c74a	-0.19118991
135	0xbcd16a9a	-0.025563527
136	0x3de9d4a5	0.11417512
137	0x3dd22539	0.10261006
138	0x3d5a37b4	0.05327578
139	0x3d381b38	0.044947833
140	0x3dc78c57	0.097435646
141	0xbe01c167	-0.12671433
142	0xbdb323d6	-0.087470695
143	0xbd6052e4	-0.05476655
144	0x3dc1540d	0.094398595
145	0x3de53c92	0.111931935
146	0xbc96e53c	-0.018419854
147	0x3d1c3972	0.03814072
148	0xbccf9e33	-0.02534399
149	0x3d92a890	0.07161057
150	0x3d851fce	0.06500207
151	0xbd204fed	-0.039138723
152	0xbdae63c5	-0.08515123
153	0x3d5d608d	0.054047156
154	0x3dc52a14	0.096271664
155	0xbbb6e22c	-0.005581161
156	0x3d87f3fb	0.066383325
157	0x3d9e16b8	0.07719177
158	0x3c66bf3b	0.014083679
159	0x3d7d7d92	0.06188733
160	0xbde4e691	-0.111767896
161	0x3d971577	0.07377141
162	0x3da01932	0.078173056
163	0x3da19aa6	0.07890825
164	0x3da53edb	0.08068629
165	0x3dfbc709	0.12293822
166	0xbd924302	-0.07141687
167	0xbdb00c5c	-0.08596107
168	0x3d2fb346	0.042895578
169	0x3bb50f4d	0.0055255056
170	0xbd39a8a6	-0.04532685
171	0x3d923b3e	0.07140206
172	0x3d416053	0.047211003
173	0x3dcb8ec5	0.099393405
174	0x3b99109a	0.0046711685
175	0x3daa7c76	0.0832452
176	0xbd7db83a	-0.06194327
177	0xbe417e85	-0.1889592
178	0x3de7977b	0.113081895
179	0xbceb7511	-0.028742345
180	0x3d86b51b	0.06577512
181	0x3a7fc68d	0.00097570644
182	0xbe231e43	-0.15929513
183	0xbc3b857d	-0.0114454
184	0x3d7976e0	0.060904384
185	0x3d7a206d	0.06106608
186	0xbdd324fe	-0.1030979
187	0xbd182520	-0.03714478
188	0x3cc7c157	0.024384184
189	0x3ca16f50	0.019706398
190	0xbcbcffb9	-0.023071157
191	0xbdc8274a	-0.09773119
192	0x3c8b335f	0.01699227
193	0x3d2c0082	0.04199267
194	0xbd13ea30	-0.03611201
195	0x3d310dd2	0.04322607
196	0xbdbe7b5f	-0.09300875
197	0xbdfdd265	-0.12393645
198	0x3d451766	0.048118018
199	0xbe043663	-0.12911372
200	0x3dc5d738	0.0966019
201	0x3dcab71b	0.09898206
202	0xbe1693bb	-0.14704792
203	0xbdfe83e9	-0.124275036
204	0xbd2fe79d	-0.042945493
205	0x3d82c0b7	0.06384414
206	0x3daa5c75	0.08318416
207	0x3e288fdc	0.16461128
208	0xbdfe6d41	-0.12423182
209	0x3cb0d721	0.021586956
210	0xbd2b4933	-0.041817855
211	0xbc60b21f	-0.013714342
212	0x3c1d9a23	0.009619269
213	0x3d81f751	0.06346
214	0xbd3213fc	-0.04347609
215	0x3c3ade4a	0.011405537
216	0x3d238bb0	0.03992814
217	0xbc94efcf	-0.018180756
218	0xbd9095cd	-0.07059822
219	0xbdf0c987	-0.11757188
220	0x3de50c90	0.11184037
221	0xbdf3f039	-0.11911053
222	0xbe06d78d	-0.13168164
223	0xbe238e01	-0.15972139
224	0x3e006922	0.12540105
225	0xbe24bbb4	-0.16087228
226	0xbcbf5250	-0.02335468
227	0x3d337d87	0.043820884
228	0x3de33bab	0.11095365
229	0xbe06ef6e	-0.13177273
230	0xbd8d2c16	-0.06893174
231	0x3da3c385	0.07996277
232	0xbdac2f81	-0.08407498
233	0xbdd0a3e1	-0.101875074
234	0xbd9f73b5	-0.07785741
235	0x3d83dc44	0.06438497
236	0x3d060add	0.032725204
237	0x3c348b22	0.0110195
238	0xbcfd2404	-0.030900963
239	0xbe13230f	-0.14368843
240	0x3dee066b	0.11622318
241	0xbcf6c345	-0.030122409
242	0x3bb5f713	0.005553135
243	0xbc367c69	-0.01113806
244	0xbd8511ab	-0.064975105
245	0x3d1938c0	0.037407637
246	0x3dbb1fcb	0.091369234
247	0xbe002580	-0.12514305
248	0x3d5254fd	0.051350582
249	0xbc7dad4f	-0.0154832145
250	0xbda53a05	-0.08067707
251	0xbe4b28e9	-0.19839825
252	0x3d52bb4a	0.051448144
253	0x3db804d6	0.089852974
254	0xbd7098a2	-0.058739312
255	0xbdee14f3	-0.116250895

fc2.bias f4 [5]
0	0x3d686885	0.056740303
1	0xbd01b368	-0.031665236
2	0x3d8f5c55	0.07000033
3	0x3c6badde	0.014384715
4	0x3c636fa2	0.013881596
