Trained_Weights/STRIDE 3/v3.4 10th.pth (torch, 628562 bytes, 12 tensors)

conv1.weight f4 [32, 3, 3, 3]
0	0xbe31c376	-0.17359719
1	0xbcb21229	-0.021737175
2	0xbd88f8be	-0.06688069
3	0xbd6e2aa3	-0.05814613
4	0x3d8f476e	0.06996046
5	0xbe00e173	-0.12586002
6	0xbe12538c	-0.14289683
7	0xbcb4f6df	-0.022090374
8	0xbd9ae3d9	-0.0756299
9	0xbcd50075	-0.026001194
10	0xbe4aa1e2	-0.19788316
11	0xbdb8427f	-0.08997058
12	0xbdfb2eb8	-0.1226477
13	0xbe0b0e88	-0.13579762
14	0x3e0a8aa2	0.13529447
15	0xbd436a42	-0.047708757
16	0xbdc7b428	-0.09751159
17	0x3e469451	0.19392516
18	0x3dcef1fd	0.10104749
19	0x3ca15c52	0.019697342
20	0xbde995dd	-0.11405537
21	0x3e18f782	0.14938167
22	0xbe14f5e8	-0.14546931
23	0xbda4254e	-0.08014928
24	0xbd9041e3	-0.07043817
25	0x3da37d39	0.07982869
26	0xbe30c852	-0.17263916
27	0x3de74c70	0.11293876
28	0xbd76ba98	-0.060236543
29	0xbc936b1e	-0.017995413
30	0xbe6da43d	-0.23207183
31	0x3d395b89	0.04525331
32	0xbe1c35f6	-0.1525496
33	0xbe841313	-0.25795802
34	0x3d94395d	0.07237504
35	0x3d9e8ba2	0.077414766
36	0xbdaacbc2	-0.08339645
37	0xbe30ca89	-0.17264761
38	0xbe42b0de	-0.19012782
39	0xbe2930b3	-0.16522484
40	0x3e1321fd	0.14368434
41	0xbc8a7abf	-0.016904233
42	0xbd8ea8a3	-0.06965759
43	0x3e1c1e79	0.15246
44	0xbd21bbd3	-0.039485764
45	0xbd47d453	-0.048786473
46	0x3c47442e	0.012162251
47	0xbdbe9288	-0.09305292
48	0x3dffc27b	0.12488266
49	0x3e45a0a6	0.19299564
50	0xbe0e82df	-0.13917111
51	0x3d2ca53b	0.042149764
52	0x3d2abb05	0.041682262
53	0x3e2607e1	0.16213943
54	0x3d104e6f	0.03523105
55	0x3d686b34	0.056742862
56	0xbe21a0f4	-0.15784055
57	0xbdb401d1	-0.08789409
58	0xbdebe37d	-0.11517999
59	0x3e1b65c4	0.1517554
60	0xbe249730	-0.16073298
61	0xbe33bf37	-0.17553411
62	0xbe69c38f	-0.22828506
63	0xbdd9c377	-0.10632985
64	0xbcd61c10	-0.026136428
65	0x3dfc608d	0.12323103
66	0x3bce6b42	0.006299407
67	0x3d0de791	0.034644667
68	0xbe60ddd2	-0.21959618
69	0xbe4be4e6	-0.19911537
70	0x3b85b454	0.0040803347
71	0x3d1c3d9a	0.038144685
72	0x3d132e37	0.035932746
73	0xbdb35c32	-0.08757819
74	0x3e0b418c	0.13599223
75	0x3e1bb88f	0.15207122
76	0xbe04e60b	-0.1297838
77	0x3e389051	0.18023802
78	0x3c8b9aff	0.017041681
79	0x3e17212b	0.14758746
80	0x3d514c57	0.051098194
81	0x3e4570e1	0.19281341
82	0xbb488701	-0.0030598047
83	0x3e0d3470	0.13789535
84	0x3d9a0821	0.07521082
85	0xbe058506	-0.13039026
86	0xbdca9e2d	-0.09893451
87	0x3e1134a1	0.14180233
88	0x3e086c53	0.13322572
89	0x3c4696a4	0.012120876
90	0x3d4dabd9	0.050212715
91	0xbdbbbb9f	-0.09166645
92	0x3d8cae8e	0.06869231
93	0xbe2d832c	-0.1694457
94	0xbe4998b2	-0.19687155
95	0xbdf63dfb	-0.120235406
96	0x3e1c0f35	0.15240176
97	0xbdbd4342	-0.09241344
98	0x3d1bd48d	0.0380445
99	0xbd4a6ba1	-0.04941905
100	0x3e13f657	0.1444944
101	0x3db62da1	0.08895422
102	0xbc455841	-0.012044967
103	0xbc6b3609	-0.014356145
104	0x3e167f28	0.14696944
105	0x3c690cce	0.014224244
106	0xbc0836d4	-0.008313853
107	0x3d98a0db	0.07452556
108	0x3e07bba7	0.13255177
109	0xbe21ddfe	-0.1580734
110	0x3d42b16c	0.047532484
111	0xbba1c23e	-0.0049364856
112	0xbc82b7ba	-0.015956748
113	0xbd4b51cc	-0.049638554
114	0xbd4e6069	-0.050384913
115	0xbe8e7ad1	-0.27828076
116	0x3cb62175	0.02223275
117	0xbdb776b5	-0.089581884
118	0xbd98e7fd	-0.07466123
119	0x3db2121e	0.08694862
120	0xbe32f074	-0.17474538
121	0xbd643b96	-0.055720888
122	0xbdaffe9e	-0.08593486
123	0x3d0c4640	0.034246683
124	0xbdb218da	-0.08696146
125	0x3e2bd890	0.16781831
126	0xbca0b064	-0.01961536
127	0x3e354a46	0.17704114
128	0xbb06dec0	-0.0020579547
129	0x3d98c1d1	0.074588425
130	0xbe35823d	-0.17725463
131	0xbe01d381	-0.12678339
132	0xbd6c688f	-0.057716902
133	0x3d698400	0.05701065
134	0x3e228652	0.15871552
135	0xbc43a049	-0.01194007
136	0x3cd3d617	0.025858922
137	0x3d119a93	0.035547804
138	0xbd094f18	-0.033522695
139	0xbe5abe89	-0.21361746
140	0xbe12db4d	-0.14341469
141	0xbe54024e	-0.20704004
142	0xbe1291a5	-0.14313371
143	0x3a4ed362	0.0007889775
144	0x3de92526	0.113840386
145	0xbe19c1d3	-0.15015344
146	0xbe4fb13c	-0.20282453
147	0xbe4279d2	-0.18991783
148	0xbdbbd387	-0.09171205
149	0xbe17daaf	-0.14829515
150	0xbe1c572c	-0.15267628
151	0x3dfc9a97	0.12334173
152	0x3e1579b6	0.1459721
153	0x3dcf3c4a	0.10118921
154	0x3d75bb20	0.05999291
155	0xbb505e2f	-0.003179442
156	0xbd64b763	-0.055838954
157	0xbdbf7cfc	-0.09350011
158	0xbdeb2a30	-0.11482656
159	0xbdb4f7d6	-0.088363335
160	0x38909a76	6.895226e-05
161	0x3dbf3466	0.09336166
162	0x3deb3252	0.11484207
163	0xbd9e59be	-0.07731961
164	0xbe155325	-0.14582498
165	0x3c3acf55	0.011401971
166	0x3c7c8644	0.015412871
167	0xbd0301bd	-0.03198408
168	0x3d0bf574	0.03416963
169	0xbd799937	-0.060937133
170	0x3e08438c	0.13307017
171	0xbe23b48f	-0.15986846
172	0xbe7b6bb3	-0.24552803
173	0xbcd39520	-0.025827944
174	0x3e068226	0.13135585
175	0xbdb08832	-0.08619727
176	0x3d7d4f54	0.06184323
177	0xbb944db2	-0.0045258636
178	0xbde3408b	-0.11096295
179	0x3d43359e	0.047658555
180	0x3bafdda8	0.0053669997
181	0xbe80445d	-0.25052157
182	0xbe08f888	-0.13376057
183	0xbe0ccf67	-0.13750993
184	0x3d226129	0.03964344
185	0xbe18a152	-0.14905289
186	0xbcbc93a3	-0.023019617
187	0xbe7218e3	-0.23642306
188	0xbd8070bc	-0.062715024
189	0x3d10ba84	0.035334125
190	0xbe0ea97e	-0.13931844
191	0x3cbf3d99	0.023344802
192	0xbe4aa7d4	-0.19790584
193	0x3da1f800	0.0790863
194	0x3e0b271e	0.13589141
195	0x3e39deb0	0.18151355
196	0xbdc5fd29	-0.09667427
197	0xbd33554f	-0.04378253
198	0xbe01ddb4	-0.1268223
199	0xbd95d592	-0.07316126
200	0x3df54419	0.11975879
201	0xbe13b103	-0.14422993
202	0xbe678f07	-0.22613154
203	0xbe5a8177	-0.2133845
204	0x3db280a2	0.08715941
205	0xbde99a14	-0.11406341
206	0xbb2841a3	-0.0025673888
207	0x3e169577	0.14705454
208	0xbddfa45c	-0.10920021
209	0xbe3dc15b	-0.1853079
210	0xbd415a85	-0.047205467
211	0xbd8b4e07	-0.06801992
212	0xbe00498c	-0.12528056
213	0xbe3d66b0	-0.18496203
214	0xbd81d0fc	-0.06338689
215	0xbe17c017	-0.1481937
216	0x3dd099c9	0.10185582
217	0xbdb16f33	-0.08663788
218	0xbe338434	-0.175309
219	0xbe15eb39	-0.14640512
220	0x3e0e413f	0.13892077
221	0x3c398296	0.011322638
222	0x3cf40a79	0.02979015
223	0xbd732a86	-0.059366725
224	0xbe7c2219	-0.24622382
225	0xbc8e9976	-0.01740716
226	0xbe13e8df	-0.14444302
227	0xbe808967	-0.2510483
228	0xbe2b4806	-0.16726694
229	0xbdd49d12	-0.10381521
230	0x3cbaf04d	0.022819662
231	0x3da38814	0.07984939
232	0xbe6e0b21	-0.23246433
233	0xbdd2a3b6	-0.10285132
234	0xbddc1016	-0.10745256
235	0xbca1595f	-0.019695936
236	0xbd236389	-0.039889846
237	0xbde69e98	-0.11260718
238	0x3e3cc30a	0.18433776
239	0x3e28190a	0.16415802
240	0x3ddf0f47	0.10891586
241	0x3e37e962	0.17960122
242	0x3d63fd89	0.05566171
243	0x3e5622d8	0.2091173
244	0x3e4ee83a	0.20205775
245	0x3e09f8a1	0.1347375
246	0x3e36eaf2	0.17863062
247	0x3e23cf55	0.1599706
248	0x3e4d6dc9	0.20061411
249	0x3c2f97a1	0.0107173035
250	0xbda7c9ae	-0.08192764
251	0xbcac28eb	-0.021015605
252	0xbd39aed0	-0.04533273
253	0x3e50887a	0.20364562
254	0xbd903edf	-0.07043242
255	0x3c72fbbc	0.014830526

conv1.bias f4 [32]
0	0xbd96ce65	-0.073635854
1	0x3e079998	0.13242185
2	0xbdb9b538	-0.09067768
3	0x3e28c225	0.1648031
4	0x3d32c37b	0.043643456
5	0xbe0ccb2e	-0.13749382
6	0x3d73538e	0.059405856
7	0x3dc41cc8	0.09575802
8	0xbe077d52	-0.132314
9	0xbe29ea35	-0.16593249
10	0x3d32620d	0.04355054
11	0xbbf5df24	-0.007503407
12	0x3e26eff7	0.16302477
13	0xbd20ed97	-0.039289083
14	0x3cab9ee3	0.020949787
15	0x3cd4f7c0	0.025997043
16	0x3c2e3f0f	0.0106351515
17	0x3da79eff	0.08184623
18	0xbd62ba23	-0.055353295
19	0x3d502c45	0.05082347
20	0xbd93c2f7	-0.07214921
21	0x3e3ff95d	0.18747468
22	0xbd093512	-0.033497877
23	0x3da19562	0.07889821
24	0x3dd2647a	0.10273071
25	0xbd912cd4	-0.070886284
26	0xbd147053	-0.036239933
27	0xbd8a7327	-0.06760245
28	0x3cf4ad33	0.029867744
29	0x3da478be	0.08030842
30	0x3d4fa88d	0.050697852
31	0x3df7c5f0	0.120983005

conv2.weight f4 [8, 32, 3, 3]
0	0x3cfc231c	0.03077846
1	0xbd3e1325	-0.046404976
2	0xbd16aefd	-0.036787976
3	0x3cb40595	0.021975318
4	0xbc36351f	-0.0111210635
5	0x396d5af4	0.00022635964
6	0xbc5ac822	-0.013353379
7	0xbcda6c73	-0.02666304
8	0xbd503ce7	-0.05083933
9	0x3c9a282d	0.018817985
10	0x3d0f7db9	0.035032008
11	0x3d6d9084	0.05799915
12	0xbc847707	-0.016170038
13	0xbc8e7cb3	-0.017393446
14	0x3b572351	0.0032827447
15	0x3d6eda8a	0.058313884
16	0xbb489b20	-0.003061004
17	0x3d112f18	0.035445303
18	0x3c8ed5f3	0.017436003
19	0x3d70bc1e	0.058773153
20	0x3d8731d6	0.06601302
21	0xbc55b82b	-0.013044397
22	0x3d918612	0.0710565
23	0x3ce78cbe	0.028265353
24	0x3dafc292	0.08582033
25	0x3dd740b9	0.10510392
26	0x3dc1123f	0.09427308
27	0x3dad674e	0.084669694
28	0x3dc4cff0	0.096099734
29	0x3d254ba8	0.040355355
30	0xbc515c91	-0.012778417
31	0x3d0a7e64	0.03381194
32	0x3da22cf6	0.07918732
33	0x3d47e636	0.04880353
34	0x3d9a1b38	0.07524723
35	0x3d8b06e7	0.06788426
36	0xbd2c4f90	-0.042068064
37	0xbda75dc2	-0.0817218
38	0x3ccb26a2	0.024798695
39	0x3d913ad5	0.070912994
40	0xbcd62782	-0.026141886
41	0xbd135c57	-0.035976734
42	0x3d5d16a9	0.05397669
43	0x3d96114c	0.07327518
44	0x3c594929	0.013262072
45	0xbd25e575	-0.04050203
46	0xbd43570e	-0.047690444
47	0xbd01e507	-0.031712558
48	0xbd50a196	-0.05093535
49	0xbd5ef2f0	-0.054430902
50	0xbc347a6e	-0.011015518
51	0x3d8e857d	0.069590546
52	0x3d15cf76	0.036574803
53	0x3d3b460a	0.04572109
54	0xbd0727bb	-0.032996874
55	0xbdff694a	-0.12471254
56	0xbe049372	-0.12946871
57	0xbcb15d2b	-0.021650871
58	0xbd0a2894	-0.033730105
59	0xbdef645e	-0.116890654
60	0xbd935bfb	-0.07195278
61	0xbcddc833	-0.027073001
62	0xbdeccdac	-0.11562666
63	0xbd1ed502	-0.03877736
64	0xbdbe7e34	-0.09301415
65	0xbde9d696	-0.11417882
66	0x3c923e9b	0.017852118
67	0xbdbc3798	-0.09190291
68	0xbdbcb58b	-0.09214314
69	0xbd9ac6e8	-0.075574696
70	0xbc447d58	-0.011992775
71	0xbe042ca3	-0.12907653
72	0x3d43141d	0.047626603
73	0x3d08c946	0.033395074
74	0x3ccb612d	0.02482661
75	0xbd0601e5	-0.03271665
76	0x3d54b1ac	0.051927254
77	0x3d0a9ced	0.033841062
78	0x3d95ca70	0.073140025
79	0x3dafa94d	0.085772134
80	0x3d964ef7	0.0733928
81	0x3cef8a9a	0.029240895
82	0x3cdc54b1	0.026895853
83	0x3dbb11c6	0.091342494
84	0x3d75197a	0.05983875
85	0xbd0266ed	-0.03183644
86	0xbb2dfcdc	-0.002654842
87	0xbbe594d2	-0.007006266
88	0xbd5741c4	-0.052552953
89	0xbc9a90c8	-0.018867865
90	0x3d169e5b	0.036772113
91	0xbcfe92ac	-0.031075798
92	0x3d3bbe22	0.04583562
93	0xbcb8699a	-0.022511292
94	0x3d135f05	0.03597929
95	0xbcc43dfd	-0.02395534
96	0x3dd3cc10	0.10341656
97	0x3d44318f	0.047898825
98	0x3d17edde	0.037092082
99	0x3d96922f	0.07352101
100	0x3de30cbe	0.11086415
101	0x3b9233a3	0.004461722
102	0x3baa17e7	0.0051908377
103	0x3d18f38e	0.037341647
104	0xbc6d5969	-0.014486649
105	0xbd446cf8	-0.047955483
106	0x3b3c83ee	0.002876516
107	0x3d94ba74	0.072621256
108	0xbd3fdba1	-0.046840314
109	0x3d620de3	0.055189025
110	0xbce25d81	-0.027632477
111	0x3c42505e	0.011859981
112	0xbd1d1acd	-0.038355637
113	0x3cfcc837	0.030857189
114	0x3c01c5c5	0.007920687
115	0xbb77b349	-0.0037796071
116	0xbd691e74	-0.056913808
117	0x3d832905	0.06404308
118	0x3dd20368	0.10254556
119	0x3e144dd7	0.14482819
120	0x3c990ed3	0.018683827
121	0x3dce96e0	0.10087371
122	0x3dd3912b	0.10330423
123	0x3d800732	0.062513724
124	0x3dfe214a	0.12408693
125	0x3dbab7e6	0.09117107
126	0xbd749d57	-0.059720363
127	0xbdc8d4d9	-0.098062225
128	0xbcf6a2d0	-0.030106932
129	0xbd3dac30	-0.04630679
130	0xbdb4908a	-0.08816631
131	0xbda9ab6a	-0.08284648
132	0x3cf0c4e7	0.029390765
133	0x3c1cb4f9	0.009564632
134	0x3cdc2559	0.026873278
135	0x3dd18fe3	0.10232522
136	0x3e1e4741	0.15456869
137	0x3ded4682	0.11585714
138	0x3d465929	0.048424874
139	0x3cd4ae7c	0.025962107
140	0x3d7455cd	0.05965214
141	0xbcb06483	-0.021532303
142	0x3c582997	0.01319351
143	0x3dbcef5d	0.092253424
144	0x3c86e954	0.016468681
145	0x3df7ecd8	0.12105721
146	0x3db2ad35	0.08724443
147	0x3dd50615	0.10401551
148	0x3de30002	0.11083986
149	0x3e03e717	0.12881123
150	0x3d8f7579	0.07004828
151	0x3ddf74c1	0.10910941
152	0x3e16e288	0.14734852
153	0xbdd52e76	-0.10409252
154	0xbd8eef62	-0.069792524
155	0xbe086ba3	-0.1332231
156	0xbcc781e3	-0.024353927
157	0xbcf17e24	-0.029479094
158	0xbd98ce00	-0.074611664
159	0xbd9c7623	-0.0763972
160	0xbcf3aace	-0.029744532
161	0xbcce3e57	-0.02517621
162	0xbd926a18	-0.07149142
163	0xbc8ca787	-0.017169727
164	0xbd8b96fa	-0.06815906
165	0x3d633590	0.055471003
166	0x3d1f5a4e	0.03890448
167	0xbd1183e1	-0.03552616
168	0x3d33375f	0.043753978
169	0x3cfa464e	0.030551102
170	0x3d64b5c7	0.05583742
171	0xbd62c482	-0.055363186
172	0x3c2494fc	0.010045286
173	0x3c847a45	0.016171584
174	0x3d8807c6	0.06642108
175	0x3d898f62	0.06716801
176	0x3d2d54df	0.042317268
177	0x3c64d532	0.013966845
178	0x3d4cb393	0.049975943
179	0xbd62f267	-0.055406954
180	0x3c52b17b	0.012859697
181	0x3c37685d	0.011194316
182	0x3cd96e4c	0.026541851
183	0xbdee5c68	-0.11638719
184	0xbdd89363	-0.10574987
185	0xbcedef08	-0.029044643
186	0xbd706616	-0.058691107
187	0xbda523d4	-0.08063474
188	0xbdaee03b	-0.08538862
189	0xbd766b02	-0.060160644
190	0xbcf55b82	-0.02995086
191	0xbdd1d80c	-0.10246286
192	0xbd56add6	-0.052411877
193	0xbd2104e9	-0.039311323
194	0xbdc96622	-0.098339334
195	0xbd21f433	-0.039539527
196	0x3ba09a81	0.004901231
197	0xbd9bb661	-0.076031454
198	0xbd9e5222	-0.07730509
199	0xbd8dd8b6	-0.069261
200	0xbd562d3a	-0.052289225
201	0xbd1dd4c9	-0.038533006
202	0xbd8b9e8d	-0.068173505
203	0xbd009efe	-0.031401627
204	0xbd385672	-0.045004316
205	0xbba6994d	-0.005084193
206	0x3c1e2ee1	0.0096547315
207	0x3ccee509	0.025255697
208	0xbd306a69	-0.04307023
209	0xbc9bdea0	-0.019027054
210	0xbd484342	-0.048892267
211	0xbd4e9eae	-0.050444297
212	0x3d1f31c5	0.038865823
213	0x3d145917	0.036217775
214	0x3d578809	0.052619968
215	0xbd763f94	-0.060119227
216	0x3c6c9756	0.014440378
217	0xbc031eab	-0.008002917
218	0x3ca247f6	0.019809704
219	0x3da6912b	0.08133157
220	0x3cb64339	0.022248851
221	0xbc4f1896	-0.012640139
222	0x3d3b4816	0.045723043
223	0x3dcd12cd	0.100133516
224	0xbd06a26d	-0.032869745
225	0x3d3ced2c	0.046124622
226	0x3d20eb4a	0.03928689
227	0x3d4f8da2	0.05067218
228	0x3c7f4de8	0.015582539
229	0x3d92d0db	0.07168742
230	0x3d629e3b	0.05532668
231	0x3d900464	0.070320874
232	0xbc314aa7	-0.010821021
233	0x3d14b87a	0.036308743
234	0xbd78eb6f	-0.060771402
235	0xbe188662	-0.14895013
236	0xbe3108e6	-0.1728855
237	0xbdc6aec3	-0.09701302
238	0xbd557520	-0.052113652
239	0xbe267f36	-0.16259465
240	0xbc4fd302	-0.0126845855
241	0xbdf798fe	-0.12089728
242	0xbe320c8c	-0.17387599
243	0xbdcbf25e	-0.09958337
244	0xbdf8292d	-0.12117229
245	0xbd944d62	-0.07241322
246	0xbce3662b	-0.027758678
247	0xbe0dda37	-0.13852774
248	0xbd8bb55d	-0.06821702
249	0xbdc230e1	-0.09481979
250	0xbd8e46b7	-0.069470815
251	0xbd80281e	-0.06257652
252	0xbd0a01f6	-0.033693276
253	0xbcbd1e1f	-0.023085652
254	0x3d49eb85	0.049296875
255	0xbcca7885	-0.024715671

conv2.bias f4 [8]
0	0x3d71aac5	0.05900075
1	0x3d80d3cc	0.06290397
2	0x3d4f960e	0.050680213
3	0x3d372c3e	0.044719927
4	0xbd3dd4b3	-0.046345424
5	0xbd4b5d81	-0.04964972
6	0xbd7472e8	-0.059679896
7	0xbc0f17b1	-0.008733676

conv3.weight f4 [32, 8, 3, 3]
0	0xbd82bf7c	-0.06384179
1	0x3c38fd2d	0.011290831
2	0x3dcefdcd	0.101070024
3	0xbd5fe5c7	-0.054662492
4	0x3d3a3602	0.045461662
5	0x3cee3a1b	0.029080441
6	0xbde764d2	-0.11298527
7	0xbc495c6f	-0.012290104
8	0x3d36444d	0.04449873
9	0x3da8e8a9	0.082475014
10	0x3ca6b8c2	0.020351771
11	0xbdf1d3fe	-0.118080124
12	0x3d8fabd8	0.070151985
13	0xbc82900c	-0.015937828
14	0xbe1f3661	-0.15548088
15	0xba601e2a	-0.00085494167
16	0xbe277bf9	-0.16355886
17	0xbe3036c6	-0.17208394
18	0x3c38b22b	0.011272947
19	0xbceabc1e	-0.028654154
20	0x3e4015c4	0.18758303
21	0x3d2b7b92	0.041865893
22	0x3e0cb352	0.1374028
23	0x3d40e9b5	0.04709788
24	0xbdb1a3c6	-0.086738154
25	0x3e05ab1b	0.13053553
26	0x3e3ea90e	0.18619177
27	0xbd7f932d	-0.062396217
28	0xbe008f87	-0.12554751
29	0x3e01c153	0.12671404
30	0xbbd7d125	-0.0065862113
31	0xbd825ed4	-0.06365743
32	0x3d6016f0	0.054709375
33	0xbdde82b2	-0.10864772
34	0x3cb501c7	0.022095574
35	0x3c8bc9e7	0.017064048
36	0xbc0f64b3	-0.008752036
37	0x3d1171ee	0.035509042
38	0xbd534f56	-0.051589333
39	0xbd685d8f	-0.05672985
40	0x3db42598	0.08796233
41	0x3e0efcc3	0.13963608
42	0x3ca7218e	0.020401742
43	0xbd4df433	-0.050281715
44	0x3d84c927	0.06483679
45	0xbde6a8c7	-0.112626605
46	0x3da9f2bc	0.08298251
47	0x3d9ceb20	0.07662034
48	0xbdedb4fe	-0.11606787
49	0xbe0061ca	-0.12537304
50	0x3d1bfc84	0.038082615
51	0xbc24aa52	-0.010050373
52	0xbdbeff2b	-0.09326013
53	0x3c115079	0.008869284
54	0x3c2258d3	0.009908873
55	0x3e0b2c36	0.13591084
56	0x3d753159	0.059861515
57	0xbd0cead5	-0.03440364
58	0x3df9b979	0.12193579
59	0x3e49d039	0.19708337
60	0xbdc1beeb	-0.09460243
61	0x3cf30b91	0.029668601
62	0x3d9f0cf7	0.07766145
63	0x3d1e2814	0.03861244
64	0xbd1772fd	-0.036974896
65	0x3ce31bdc	0.027723245
66	0x3d210346	0.039309762
67	0xbc2735a7	-0.010205663
68	0x3db195ef	0.08671176
69	0xbe350213	-0.17676573
70	0xbd3da684	-0.04630138
71	0xbd491773	-0.04909463
72	0x3d46fa0c	0.048578307
73	0xbdef69a9	-0.11690075
74	0xbd90ca9f	-0.07069897
75	0xbdb43138	-0.0879845
76	0x3c293c26	0.010329282
77	0x3c78d007	0.015186316
78	0x3c8022b9	0.015641557
79	0x3d90b4ff	0.07065772
80	0xbe17ca59	-0.14823283
81	0x3cf32712	0.029681716
82	0xbe3950fc	-0.180973
83	0xbe14c291	-0.14527346
84	0x3d405db5	0.046964366
85	0xbc7cacd7	-0.015422068
86	0xbe247f78	-0.1606425
87	0xbdad1bb9	-0.08452553
88	0x3c2b87c2	0.010469379
89	0xbdf0fc06	-0.1176682
90	0x3ddcd50b	0.10782822
91	0x3da000ea	0.07812674
92	0x3df86bf0	0.121299624
93	0x3db016c5	0.08598093
94	0x3d81e345	0.06342176
95	0xbd599b4b	-0.053126615
96	0xbdff86d7	-0.124768905
97	0xbde7c285	-0.113163985
98	0xbbf55ec3	-0.007488103
99	0x3d36a7a4	0.04459347
100	0xbc701840	-0.014654219
101	0xbd263813	-0.04058082
102	0x3d1fcbd6	0.039012752
103	0xbdc0d55c	-0.09415695
104	0xbd55c9b8	-0.052194327
105	0xbd7fa2ff	-0.062411305
106	0xbd9d549b	-0.07682153
107	0x3d058da6	0.03260579
108	0x3ded54e6	0.11588459
109	0x3e3ffb43	0.18748192
110	0x3e033c4f	0.12815975
111	0x3e01b3fc	0.12666315
112	0x3ccd1b33	0.025037384
113	0xb8acc96e	-8.239118e-05
114	0xbd375b13	-0.04476459
115	0xbd824069	-0.063599415
116	0xbc65ad44	-0.0140183605
117	0x3dd2b19b	0.10287782
118	0x3c436994	0.011927027
119	0x3db6a1db	0.0891759
120	0x3dd67e14	0.10473266
121	0x3e4755ca	0.1946632
122	0xbdbe7c1e	-0.09301017
123	0x3dd4c136	0.103884146
124	0x3d8177d4	0.063216835
125	0xbdc7d5d6	-0.09757583
126	0xbd051cfc	-0.032498345
127	0x3e2daef2	0.16961268
128	0x3e0cd933	0.1375473
129	0x3d936d1b	0.071985446
130	0x3e500e26	0.20317897
131	0x3dd64409	0.104621954
132	0xbdc5a1a5	-0.09649972
133	0xbdc4d065	-0.096100606
134	0xbdfef9a8	-0.12449962
135	0x3dbd15ae	0.09232651
136	0x3d5c82f1	0.053835813
137	0xbda13ff6	-0.07873528
138	0xbc3808d0	-0.01123257
139	0xbb7dab11	-0.00387067
140	0x3b844fa0	0.0040378124
141	0xbe07df9b	-0.13268892
142	0x3d9bfde7	0.076167874
143	0x3c2517a9	0.010076442
144	0xbde225d9	-0.11042375
145	0xbbf19be2	-0.007373319
146	0xbc9fb089	-0.019493358
147	0xbddbbd06	-0.10729413
148	0x3d85530b	0.0650998
149	0xbdfd2c7c	-0.12362
150	0xbcc547b4	-0.024082042
151	0xbd9c89b3	-0.076434515
152	0xbd80dffa	-0.0629272
153	0xbc9da715	-0.01924471
154	0x3b913992	0.0044319117
155	0xbdc23da1	-0.09484411
156	0xbda7286f	-0.08162009
157	0xbd3c9646	-0.04604175
158	0xbd7aa5e1	-0.06119335
159	0xbe4195cf	-0.18904804
160	0xbe55bb4a	-0.20872226
161	0xbab7e2bb	-0.0014029363
162	0x3e153347	0.14570342
163	0xbd6b2494	-0.05740793
164	0x3cebb8cb	0.02877464
165	0x3e0c9de9	0.13732113
166	0x3e229fe8	0.15881312
167	0x3dc390a3	0.09549072
168	0x3e3648c5	0.17801197
169	0x3e03967c	0.12850374
170	0x3dab5f83	0.08367827
171	0xbdb8e9cf	-0.090289705
172	0xbe04bb96	-0.12962183
173	0x3b752615	0.0037406732
174	0xbda4f841	-0.08055163
175	0x3d52e3a6	0.051486634
176	0xbd287e44	-0.04113604
177	0x3c793e86	0.015212661
178	0x3d7d8d96	0.061902605
179	0xbd74e398	-0.059787363
180	0x3aaf7ed7	0.0013389242
181	0xbcf7f0df	-0.030266223
182	0xbbbfb5ea	-0.0058505433
183	0x3dd47c74	0.103753
184	0xbd7b000e	-0.06127935
185	0xbd7b828a	-0.06140379
186	0xbda7a636	-0.08185999
187	0x3d2543b9	0.04034779
188	0x3d4551c8	0.048173696
189	0x39f8a5ba	0.00047425722
190	0xbd8b2842	-0.06794788
191	0x3daa6f2e	0.08321987
192	0x3ce05c6d	0.027387822
193	0xbd3f84f3	-0.04675765
194	0xbd8e396b	-0.06944545
195	0x3defdf85	0.11712555
196	0xbdb60f33	-0.08889618
197	0xbe00eb2f	-0.12589715
198	0x3e12c546	0.14333066
199	0xbd5fcfc6	-0.054641508
200	0x3e1cb482	0.15303233
201	0x3b8cb47b	0.004293976
202	0x3e2e747b	0.17036621
203	0x3e3a2f24	0.18182045
204	0xbcaa8f96	-0.02082042
205	0x3ceaa1f5	0.02864168
206	0x3db04506	0.08606915
207	0x3dc5d83a	0.096603826
208	0x3d924c08	0.07143408
209	0x3d90908c	0.0705882
210	0xbd8f1d96	-0.06988065
211	0xbafee19b	-0.0019445898
212	0xbbd2d6ac	-0.0064342823
213	0x3d8f9248	0.07010323
214	0xbb3a8645	-0.0028461379
215	0xba883a75	-0.0010393398
216	0xbcfc0c1d	-0.030767495
217	0x3dc7ca0f	0.097553365
218	0x3d7feef2	0.062483735
219	0xbe0562c9	-0.13025965
220	0xbdd48568	-0.10377008
221	0x3c9f38c1	0.019436242
222	0x3c68a167	0.014198638
223	0xbb426803	-0.0029664047
224	0x3d86bc48	0.065788805
225	0xbca761db	-0.020432403
226	0xbd39a511	-0.045323435
227	0x3d43e360	0.047824264
228	0xbdd40dcf	-0.10354196
229	0x3c1cca07	0.009569651
230	0xbd84bf79	-0.06481833
231	0x3cf5dc38	0.030012235
232	0xbdc083f4	-0.09400168
233	0xbd372adc	-0.04471861
234	0x3e099611	0.13436152
235	0xbd3eb417	-0.046558466
236	0x3d74f04f	0.05979949
237	0xbdf6e3a1	-0.120551355
238	0xbdbc2203	-0.09186175
239	0xbd19c02f	-0.037536796
240	0xbd0a7ccc	-0.03381042
241	0x3d1f4024	0.03887953
242	0x3e1c9e6b	0.15294807
243	0xbd082de5	-0.033246893
244	0x3dcd7a21	0.1003306
245	0x3b3585f0	0.0027698241
246	0x3d1f3887	0.038872268
247	0x3cbddd5e	0.023176845
248	0xbe06d168	-0.1316582
249	0xbdb478af	-0.08812081
250	0xbc85d6f2	-0.016337845
251	0xbe06611e	-0.13122985
252	0xbd6b9bde	-0.057521693
253	0xbe0e2096	-0.13879618
254	0xbe0bae98	-0.13640821
255	0xbd5d8158	-0.05407843

conv3.bias f4 [32]
0	0xbdab3f93	-0.08361735
1	0xbde8a52a	-0.113596275
2	0x3d82cf33	0.06387176
3	0xbe247de4	-0.16063648
4	0x3dc0e974	0.09419528
5	0xbd1c7d69	-0.038205538
6	0x3e56e980	0.2098751
7	0x3dfd5dd6	0.123714134
8	0xbd8633ce	-0.0655285
9	0x3e39d1d8	0.18146455
10	0x3e19a043	0.15002541
11	0xbd06fcf1	-0.032956067
12	0x3df940fe	0.121705994
13	0xbd33b333	-0.04387207
14	0xbddcca73	-0.107808016
15	0x3e381d8f	0.17980026
16	0xbd911c84	-0.07085517
17	0xbdbbb1a0	-0.09164739
18	0xbe3088d1	-0.17239691
19	0x3e638269	0.22217716
20	0xbd4f8b16	-0.050669752
21	0xbdbc869a	-0.09205361
22	0xbd708f4d	-0.058730412
23	0x3deb74bf	0.11496877
24	0x3e4d1c27	0.2003027
25	0x3d3a4224	0.045473233
26	0xbe1def56	-0.1542333
27	0x3dec32c4	0.1153312
28	0x3ddf37a8	0.108992875
29	0xbe26dec2	-0.16295913
30	0xbdfcce7a	-0.1234407
31	0x3de27628	0.11057693

conv4.weight f4 [8, 32, 3, 3]
0	0x3de53c5d	0.11193154
1	0xbd788631	-0.06067485
2	0xbdcb8000	-0.099365234
3	0x3ddff15c	0.109347075
4	0xbd1847e6	-0.037177943
5	0xbe18bd5a	-0.14915982
6	0x3d909368	0.070593655
7	0xbe03d19c	-0.12872928
8	0xbdbdf131	-0.09274519
9	0x3cca1aef	0.024671046
10	0x3d39b3d9	0.04533753
11	0xbd20b9cc	-0.03923969
12	0x3d9aa064	0.07550123
13	0x3db810ae	0.089875564
14	0x3b98bfc6	0.004661533
15	0xbcecae70	-0.028891772
16	0xbc5d05ec	-0.013490181
17	0xbd09e54a	-0.033665933
18	0x3cfc1d20	0.030775607
19	0x3ddb5f1c	0.107115
20	0x3b3a16c1	0.002839491
21	0x3d2def4e	0.042464547
22	0x3cd17a9d	0.025571162
23	0x3adc858f	0.0016824472
24	0xbde308ae	-0.1108564
25	0xbdb8ee12	-0.09029783
26	0xbdb91d17	-0.090387516
27	0xbe1430f3	-0.14471798
28	0xbe0856fd	-0.13314433
29	0xbc91d4e2	-0.017801706
30	0xbe0ca6f3	-0.13735561
31	0xbe131d19	-0.14366569
32	0xbd3a71db	-0.045518737
33	0x3cfa5e3f	0.030562518
34	0xbd6b1188	-0.057389766
35	0x3d3def3c	0.04637073
36	0x3e307969	0.17233814
37	0x3de6c068	0.11267167
38	0xbd1c1722	-0.038108
39	0x3e68606c	0.22693032
40	0x3d89acc2	0.06722404
41	0xbcc10cc8	-0.023565665
42	0x3d83ce16	0.06435792
43	0x3d4b098e	0.04956966
44	0xbd63f5b0	-0.055654228
45	0x3d387973	0.045037698
46	0x3df0d108	0.117586195
47	0xbd4eed10	-0.05051905
48	0x3c21bc85	0.009871607
49	0x3d710e92	0.058851786
50	0xbd11e393	-0.035617422
51	0xbd33f9a2	-0.04393924
52	0xbd67bf75	-0.056579072
53	0xbd30c858	-0.043159813
54	0x3df4676f	0.11933791
55	0x3d5c0069	0.05371133
56	0xbd0153b1	-0.031573955
57	0x3dc4f502	0.09617044
58	0x3dd094af	0.10184609
59	0x3cf649da	0.030064512
60	0xbaf86dfb	-0.0018953675
61	0x3caa3d88	0.020781294
62	0xbd49f5c1	-0.049306635
63	0x3d1c30b5	0.03813239
64	0xbcd5e35d	-0.026109392
65	0x3d296922	0.041360028
66	0x3a2d1f22	0.00066040654
67	0x3d849cc2	0.06475212
68	0x3ddcf095	0.10788075
69	0xbd12f991	-0.035882536
70	0x3dfd3220	0.12363076
71	0x3e1b14a2	0.1514459
72	0xbc554112	-0.013016002
73	0xbc90a52d	-0.017656887
74	0x3d85eb10	0.06538975
75	0x3d43c279	0.047792885
76	0xbd5a4590	-0.053288996
77	0x3d58ee25	0.052961487
78	0x3d92eb85	0.07173828
79	0xbd635564	-0.055501357
80	0x3db5e8bf	0.088822834
81	0xbd1f1708	-0.038840324
82	0xbde35051	-0.110993035
83	0x3d6e44d5	0.058171112
84	0x3d67df11	0.056609217
85	0x3d8853c9	0.06656606
86	0x3d7a4633	0.061102103
87	0x3df0d2db	0.117589675
88	0x3d8cf037	0.06881755
89	0x3d885ab8	0.06657928
90	0xbe295f07	-0.16540156
91	0x3e4b1e3f	0.19835757
92	0x3dc10eac	0.094266266
93	0xbd925564	-0.07145193
94	0x3df38526	0.118906304
95	0xbb1b7a17	-0.0023723894
96	0xbe341ff2	-0.17590311
97	0x3da5300b	0.08065804
98	0xbd005c99	-0.031338308
99	0x3c0d550e	0.008626236
100	0x3de71192	0.11282648
101	0x3d01c5c1	0.031682733
102	0xbd99a63e	-0.07502411
103	0x3d462f58	0.048384994
104	0xbde1f787	-0.1103354
105	0xbde62bc9	-0.1123882
106	0xbda9957b	-0.08280464
107	0xbe2ecff6	-0.17071518
108	0xbca8807d	-0.02056908
109	0x3d2d9a2f	0.04238337
110	0xbdd57330	-0.10422361
111	0xbd4c31ee	-0.049852304
112	0xbbf476c2	-0.007460446
113	0xbd8798ea	-0.06620963
114	0xbb8dbf5c	-0.0043257903
115	0x3d2d8aa6	0.042368554
116	0xbcd9964e	-0.026560929
117	0xbe63ba24	-0.22238976
118	0xbe1cfa8a	-0.15329948
119	0x3cd61f91	0.026138099
120	0xbd70d7cb	-0.058799546
121	0xbd005922	-0.031335004
122	0x3db66341	0.0890565
123	0xbd9c0237	-0.0761761
124	0xbcfa8b83	-0.030584102
125	0x3d863bd6	0.065543815
126	0x3da4ac55	0.08040682
127	0x3b13947e	0.0022518928
128	0x3d81b7b4	0.06333867
129	0xbd1ee6a6	-0.038794182
130	0xbdbe12f4	-0.09280959
131	0x3d6bf59a	0.05760727
132	0xbc0c2ad5	-0.008555134
133	0xbd1a5cd9	-0.037686203
134	0xbc88da03	-0.016705519
135	0x3d979ec4	0.07403329
136	0xbdd382dd	-0.103276946
137	0xbd9a8364	-0.07544592
138	0x3c449390	0.011998072
139	0xbd834c4a	-0.06411035
140	0x3c67cfe3	0.014148685
141	0x3afcad51	0.0019277727
142	0xbc9d084a	-0.019168992
143	0xba8a595c	-0.0010555196
144	0xbddc1de9	-0.107478924
145	0xbdec3906	-0.11534314
146	0x3a8f68f7	0.0010941316
147	0x3c8b75f3	0.017024016
148	0x3b87a9ca	0.0041401135
149	0x3da3425a	0.0797164
150	0xbbb0ec2b	-0.005399247
151	0xbd12ce0b	-0.03584103
152	0x3e04ff3f	0.12987994
153	0xbd8a77f8	-0.067611635
154	0x3d90b74c	0.07066211
155	0x3d39acb5	0.045330722
156	0xbd9d8474	-0.07691279
157	0xbd8698a6	-0.06572084
158	0xbd2b0e2c	-0.041761562
159	0xbd1d4aac	-0.03840129
160	0xbe0234d3	-0.12715463
161	0xbde0c6f3	-0.109754466
162	0x3d4df1b8	0.05027935
163	0x3d9505be	0.07276486
164	0x3c855973	0.016278004
165	0x3d50609b	0.05087338
166	0x3c8a6500	0.016893864
167	0xbd684cbc	-0.056713805
168	0xbdd8b4fc	-0.10581395
169	0xbdae6189	-0.08514697
170	0xbde540ad	-0.111939766
171	0x3d535906	0.05159857
172	0x3da5190a	0.080614164
173	0x3cf0a657	0.029376192
174	0x3d4b0bcd	0.0495718
175	0x3de54396	0.111945316
176	0xbc2e6728	-0.010644712
177	0xbccc4397	-0.024934573
178	0x3d96286c	0.073319286
179	0x3d59be58	0.05316004
180	0xbdbca2d9	-0.09210748
181	0xbd9aa3a6	-0.07550745
182	0x3c28ba5a	0.010298336
183	0xbd96c99b	-0.07362672
184	0xbdca5148	-0.098787844
185	0x3cb9c21c	0.022675566
186	0x3d5b0257	0.05346903
187	0x3c6f1c2f	0.014594122
188	0x3cf93fcb	0.030425927
189	0xbd0d44fc	-0.034489617
190	0xbde32ad3	-0.110921524
191	0x3d12a357	0.035800304
192	0xbdc4fec1	-0.09618903
193	0xbdb4d377	-0.08829396
194	0xbc3d60fb	-0.0115587665
195	0xbc1ce5f7	-0.009576312
196	0xbd3a00a0	-0.045410752
197	0x3c734c51	0.014849738
198	0x3d91ec72	0.071251765
199	0x3e017117	0.12640797
200	0x3c89c4b9	0.016817437
201	0x3d7d0fa1	0.061782483
202	0xbb0f3912	-0.0021854085
203	0x3a179efc	0.00057838834
204	0xbd16e020	-0.036834836
205	0xbc04ef65	-0.008113717
206	0xbe079dae	-0.13243744
207	0xbd023685	-0.031790275
208	0xbdb8194c	-0.089892
209	0xbd73271a	-0.059363462
210	0x3c8c46a2	0.017123524
211	0xbd842e4a	-0.064541414
212	0xbd617d50	-0.055051148
213	0xbd453346	-0.0481446
214	0x3c0d0c1d	0.008608845
215	0xbc898185	-0.016785393
216	0x3e4fd846	0.20297346
217	0x3d84ac6d	0.064782
218	0xbc9943f2	-0.018709157
219	0x3e96c55a	0.29447442
220	0x3d4b4dc9	0.04963473
221	0x3c6aa4cf	0.01432152
222	0x3db01aaa	0.08598836
223	0xbcf50c9f	-0.029913245
224	0xbd0f1461	-0.034931544
225	0xbc597236	-0.013271859
226	0x3deb60d3	0.11493077
227	0x3da721d2	0.081607476
228	0xbc811505	-0.015757093
229	0x3d225a0e	0.039636664
230	0x3d958118	0.07300013
231	0xbd487a83	-0.04894496
232	0xbbc8ced1	-0.00612817
233	0x3d138e22	0.03602422
234	0xbdad5003	-0.08462527
235	0xbe1b4dbd	-0.15166374
236	0xbd7b2d0e	-0.061322264
237	0xbda19008	-0.078888
238	0xbdc42519	-0.09577388
239	0xbd27e750	-0.04099208
240	0x3c2fb514	0.010724325
241	0x3d323da4	0.043515816
242	0x3d56d20b	0.052446406
243	0xbd4d7f8f	-0.050170477
244	0xbd23ed60	-0.0400213
245	0xbd6a1468	-0.057148367
246	0x3d4f8901	0.050667766
247	0x3ca98261	0.020692052
248	0xbe185b92	-0.14878681
249	0x3c256768	0.010095455
250	0xbd4437d7	-0.047904816
251	0xbd86556c	-0.06559262
252	0x3e3dbc06	0.18528756
253	0x3d6b9635	0.057516295
254	0xbd3ec31b	-0.046572786
255	0x3d43d38b	0.047809165

conv4.bias f4 [8]
0	0x3e1a23da	0.15052739
1	0xbda03f40	-0.07824564
2	0xbdce2eb2	-0.100675
3	0xb9fdb7ee	-0.0004839296
4	0x3dcf6004	0.101257354
5	0xbd4e35be	-0.05034422
6	0xbd1e6b86	-0.03867676
7	0xbd12c099	-0.035828207

fc1.weight f4 [128, 1152]
0	0x3d96d7d5	0.073653854
1	0x3cb2bc56	0.021818321
2	0x3d977d45	0.0739694
3	0x3d9f2085	0.077698745
4	0x3d695ecd	0.056975175
5	0x3d34e4e9	0.04416362
6	0x3c8968b6	0.016773563
7	0x3be7d785	0.0070752525
8	0xbd836b44	-0.06416944
9	0xbdd24966	-0.10267906
10	0xbb9eac8b	-0.004842346
11	0x3dcee20c	0.10101709
12	0xbd0f8905	-0.03504278
13	0x3d5f930d	0.054583598
14	0x3c86fbb0	0.016477436
15	0x38e14470	0.000107415835
16	0x3d843031	0.06454504
17	0x3d1ce25c	0.03830181
18	0x3cd85c68	0.02641125
19	0x3d40686a	0.046974577
20	0xbd09e098	-0.033661455
21	0xbd41ba92	-0.047297068
22	0x3d3d32c9	0.04619101
23	0x3db3c35f	0.087774985
24	0x3cd60cab	0.026129087
25	0x3d52df6a	0.051482596
26	0x3b9a38b5	0.004706467
27	0x3b5d4614	0.0033763694
28	0x3cb6d41c	0.022317939
29	0x3ac13624	0.0014740867
30	0x3cc7e246	0.024399888
31	0x3d191f20	0.0373832
32	0x3d40d0ba	0.047074057
33	0xbd88d4fc	-0.066812485
34	0x3d27b1e1	0.040941123
35	0x3de5996c	0.112109035
36	0xbb5571f7	-0.003256915
37	0x3b9d5b16	0.004802118
38	0xbd551a5a	-0.052027084
39	0x3ca255b4	0.019816257
40	0x3d01b641	0.03166795
41	0x3dc22c94	0.09481159
42	0x3d11ead8	0.035624355
43	0x3cfb8777	0.030704243
44	0x3bc24ab2	0.0059293145
45	0xbd9779b4	-0.0739626
46	0x3d6437dd	0.055717338
47	0x3d8699a5	0.06572274
48	0xbc88aa2b	-0.016682705
49	0xbd3c789f	-0.04601347
50	0xbbeae8ea	-0.007168879
51	0xbcb5be99	-0.02218561
52	0xbc8c02d4	-0.017091192
53	0xbd124904	-0.035714164
54	0xbda227f4	-0.07917777
55	0xbd6e51c6	-0.058183454
56	0xbd47fde1	-0.048826102
57	0x3b62beb2	0.0034598527
58	0x3da99420	0.08280206
59	0x3d907648	0.0705381
60	0xbd3d6cd4	-0.046246365
61	0xbd6b239f	-0.057407018
62	0xbd4a7285	-0.04942562
63	0xbd91a275	-0.07111064
64	0xbc00c85d	-0.00786027
65	0xbc833e17	-0.016020818
66	0xbe3dc542	-0.18532279
67	0xbb0369fc	-0.0020052185
68	0xbbcc21d9	-0.006229621
69	0xbd86f8d2	-0.065904275
70	0xbd50f672	-0.05101628
71	0x3d3c1e64	0.04592742
72	0x3cac5a18	0.021039054
73	0xbd18c5cf	-0.03729802
74	0xbbe28cb1	-0.0069137444
75	0xbc5d21f9	-0.013496869
76	0x3d47e9a2	0.048806794
77	0x3dc7eac0	0.09761572
78	0xbd8ee702	-0.06977655
79	0xbd85f335	-0.06540529
80	0x3d28291b	0.041054826
81	0x3ce898c8	0.028393164
82	0x3c04c144	0.008102719
83	0xbc5eeb35	-0.013605882
84	0xbc10277f	-0.008798479
85	0x3b392257	0.0028249228
86	0xbbe144b8	-0.006874647
87	0x3a297396	0.0006464062
88	0x3d7e15a2	0.06203235
89	0x3db2874a	0.087172106
90	0xbd6d1696	-0.057882868
91	0xbe22cafb	-0.15897743
92	0xbc04aef1	-0.00809835
93	0x3d5c9cfc	0.05386065
94	0xbc13f851	-0.009031371
95	0xbd273818	-0.04082498
96	0xbd0407b4	-0.03223391
97	0x3d78ad2a	0.060712017
98	0xbcc36cc3	-0.023855573
99	0xbd3ff1ec	-0.046861574
100	0x3d1c2f27	0.038130905
101	0xbc3376b3	-0.010953593
102	0xbd7648cd	-0.060128022
103	0xbd19937b	-0.037494164
104	0xbc6191cc	-0.013767671
105	0xbce0d9ff	-0.027447699
106	0x3ce92488	0.028459802
107	0x3ce01a8f	0.027356414
108	0x3c963d93	0.018339908
109	0xbc9908d9	-0.018680977
110	0xbc2b647d	-0.01046097
111	0xbb820c39	-0.003968742
112	0xbc383e0e	-0.011245264
113	0x3b8ef84e	0.0043630963
114	0xbbc038f1	-0.005866163
115	0xbdd38148	-0.10327393
116	0xbd81a7bb	-0.0633082
117	0xbcadb810	-0.021205932
118	0x3cf7f417	0.030267758
119	0x3d8774fd	0.066141106
120	0x3b3dc1e1	0.0028954672
121	0x3d219c00	0.039455414
122	0xbc61725c	-0.013760176
123	0x3c809e8f	0.015700607
124	0x3d2b92e8	0.041888148
125	0xbd473752	-0.048636742
126	0xbcc11b00	-0.023572445
127	0xbdb9d2ef	-0.090734355
128	0xbd4e2c30	-0.05033511
129	0xbd08b17c	-0.033372387
130	0x3c07ca5c	0.008287992
131	0x3c052203	0.008125785
132	0x3d80c8e6	0.06288318
133	0x3cddba26	0.027066302
134	0x3d129242	0.035784014
135	0xbd0b9bf8	-0.03408429
136	0x3d649ffc	0.055816635
137	0xbc8eba2b	-0.017422756
138	0x3c957a0c	0.018246673
139	0xbd2462ba	-0.040133215
140	0xbc11283c	-0.00885969
141	0xbd8d2bdf	-0.06893133
142	0xbc3dedec	-0.0115923695
143	0x3d0ebc4a	0.034847535
144	0xbd128afc	-0.035777077
145	0xbcf873ba	-0.03032862
146	0xbd055363	-0.032550227
147	0xbdb39e69	-0.08770449
148	0x3b9153f5	0.0044350573
149	0xbd168c33	-0.0367548
150	0x38299340	4.0429877e-05
151	0x3c105644	0.00880963
152	0x3d5be220	0.053682446
153	0x3d4dc7c5	0.050239343
154	0x3c7741f8	0.015091412
155	0x3d18afeb	0.037277143
156	0xbcf441a4	-0.029816456
157	0xbd80a493	-0.0628139
158	0x3a154817	0.0005694641
159	0xbcb9ed63	-0.022696203
160	0xbd9552e1	-0.072911985
161	0xbd207193	-0.039170813
162	0xbc5c0332	-0.013428496
163	0xbb147e93	-0.0022658452
164	0x3dc2ae11	0.09505857
165	0x3adc3b1f	0.0016802287
166	0x3b866729	0.004101653
167	0x3d259187	0.04042199
168	0xbd7faa2c	-0.062418148
169	0x3ce9929b	0.02851229
170	0x3c9a3150	0.018822342
171	0x3ce90b71	0.028447839
172	0xbcc9a9ae	-0.024617042
173	0xbc8741db	-0.016510895
174	0x3ac8af06	0.001531095
175	0x3d2ddcea	0.04244701
176	0x3d852842	0.06501819
177	0x3cbb71bc	0.022881381
178	0x3cae5abd	0.021283502
179	0x3d21fbcc	0.039546773
180	0x3c82b9c2	0.015957717
181	0xbaff869c	-0.0019495073
182	0xbd47dfa2	-0.048797257
183	0x3d5b5ed7	0.053557243
184	0xbd2dccc2	-0.0424316
185	0xbc31f39f	-0.010861306
186	0x3d5627a2	0.05228389
187	0x3d7587bf	0.05994391
188	0x3d9b73c9	0.07590444
189	0x3d04af4b	0.032393735
190	0x3b069806	0.002053739
191	0xbd82fa8d	-0.06395445
192	0x3b95fd35	0.004577304
193	0xbcbf1e73	-0.023329949
194	0xbb84072a	-0.0040291743
195	0x3db34580	0.087534904
196	0x3d566706	0.052344345
197	0x3dec100e	0.115265
198	0x3c11a2f7	0.0088889515
199	0x3cc41f77	0.023940785
200	0x3d6390fa	0.055558182
201	0xbd373c64	-0.044735327
202	0xbcc9d350	-0.024636894
203	0xbda7645c	-0.08173439
204	0x3c23362e	0.009961648
205	0x3cd002a0	0.025391877
206	0xbd1a467c	-0.037664875
207	0x3d51d311	0.05122668
208	0x3d93d275	0.07217876
209	0x3e344bd9	0.17607059
210	0x3e05c00d	0.13061543
211	0x3b864cba	0.004098502
212	0xbca33644	-0.019923337
213	0xbd143ea8	-0.036192566
214	0x3d0e1b6c	0.03469412
215	0xbd72e51d	-0.05930053
216	0x3d2dc763	0.042426478
217	0xbcb52e15	-0.0221167
218	0xbcd31ee3	-0.025771564
219	0xbaf9d1b1	-0.0019059685
220	0x3d8de989	0.06929309
221	0x3de91148	0.11380249
222	0x3e60a0a2	0.21936277
223	0x3cf91e83	0.030410057
224	0xbd872252	-0.06598343
225	0x3cb64b23	0.022252625
226	0x3dd8dda0	0.105891466
227	0x3d2058fe	0.03914737
228	0xbc60111c	-0.013675954
229	0xbb386b5b	-0.002814016
230	0x3d3050a5	0.04304566
231	0xbb902642	-0.004399092
232	0x3c07ea1c	0.008295562
233	0x3d792e01	0.06083489
234	0x3e4aced8	0.19805467
235	0x3e1b6c1c	0.15177959
236	0xbd16b4c6	-0.036793493
237	0xbcd189af	-0.025578348
238	0x3d84ae98	0.064786136
239	0x3d5f126a	0.05446092
240	0xbb8ead6e	-0.0043541705
241	0xbad30290	-0.0016098786
242	0x3c91d07a	0.017799605
243	0x3d37f931	0.04491538
244	0xbd380523	-0.044926774
245	0x3d390294	0.045168474
246	0x3d675b4a	0.056483544
247	0x3c1eb00e	0.009685529
248	0x3d4a93e5	0.04945745
249	0x3b46d832	0.0030341265
250	0xbc91e260	-0.01780814
251	0x3cbfb06f	0.02339956
252	0x3d35b81b	0.04436503
253	0x394b06ed	0.00019362169
254	0x3d0d05c5	0.03442933
255	0x3d44651b	0.047947984

fc1.bias f4 [128]
0	0x3c739255	0.014866431
1	0x3c9aa982	0.018879656
2	0xbd002499	-0.031284902
3	0xbd09ca52	-0.033640213
4	0xbd397b33	-0.045283508
5	0x3c2f851d	0.010712889
6	0xbb067ced	-0.002052124
7	0xbbe9d907	-0.0071364674
8	0xbd3c3523	-0.045949113
9	0xbb8db3af	-0.0043243985
10	0xbcc42fb1	-0.023948522
11	0xbc5ba0f8	-0.013405077
12	0x3ce4fb1c	0.02795177
13	0xbd208227	-0.039186623
14	0x3d32e70a	0.043677367
15	0x3d7528a9	0.05985323
16	0x3b06db0b	0.0020577337
17	0x3cd005d9	0.025393413
18	0xbcfa19d7	-0.0305299
19	0x3c42c9ae	0.0118889045
20	0x3ce195d6	0.027537268
21	0xbd05fbef	-0.032710966
22	0xbd8d9103	-0.069124244
23	0x3c8f092b	0.017460426
24	0x3c8e4b0a	0.017369766
25	0xbca8f696	-0.020625394
26	0xbd103972	-0.035211034
27	0xbd3812e1	-0.04493988
28	0xbc0e70a8	-0.0086938515
29	0x3d87ddd5	0.06634108
30	0x3c2ed17b	0.010670061
31	0xbd42216b	-0.04739515
32	0xbcf7a9c3	-0.030232316
33	0xbba858c7	-0.005137536
34	0xbd0479e6	-0.032342814
35	0xbc89fb41	-0.01684344
36	0xbd585df5	-0.05282398
37	0x3cc03b8d	0.023465896
38	0xbc772bc8	-0.015086122
39	0x3b62fe67	0.00346365
40	0x3ca78242	0.020447854
41	0x3d0aefc0	0.03392005
42	0x3d146251	0.036226574
43	0x3d45301d	0.048141588
44	0x3c905568	0.01761885
45	0xbc4056bf	-0.011739432
46	0xbc8b6a6d	-0.017018521
47	0xbbb942dd	-0.0056537227
48	0xbc34776f	-0.011014803
49	0xbd3c4e29	-0.045972977
50	0x3d19a479	0.03751037
51	0x3ce6e222	0.028184
52	0x3b2fa3bf	0.002680048
53	0x3ceb03b7	0.028688295
54	0x3c0062ce	0.007836057
55	0x3bd9ebf4	0.0066504423
56	0xba93165c	-0.0011221874
57	0x3cc35f97	0.023849292
58	0xbd264af2	-0.040598817
59	0xbd318f69	-0.043349657
60	0x3c96cc17	0.018407864
61	0xbd3c5c72	-0.0459866
62	0x3bcd4329	0.0062641096
63	0xbc4d7bb9	-0.012541705
64	0x3d936293	0.07196536
65	0x3b9cd096	0.0047856076
66	0x3c954026	0.018219065
67	0xbcf05fae	-0.029342499
68	0xba920e57	-0.001114319
69	0x3ca4c3dc	0.020112924
70	0x3b1e9402	0.0024197106
71	0x3cf8e6a3	0.030383414
72	0x3d085e52	0.033293076
73	0x3c8bf0c2	0.017082576
74	0xbc95b984	-0.018276937
75	0x3c2d9d90	0.010596648
76	0x3d2257d9	0.03963456
77	0x3c5687a5	0.013093864
78	0x3c511ed4	0.012763698
79	0xbceca715	-0.028888265
80	0x3d563b40	0.0523026
81	0xbd1d9195	-0.038468916
82	0xbd8ab74f	-0.067732446
83	0x3be12e13	0.0068719476
84	0x3d10ab49	0.0353196
85	0x3bcc49e4	0.0062343944
86	0xbc93a2be	-0.018021937
87	0xbc33216e	-0.010933263
88	0x3c8ad52d	0.016947353
89	0x3d2e8398	0.042605966
90	0x3d19d5f4	0.037557557
91	0xbd096030	-0.033538997
92	0xbc32c0f4	-0.010910261
93	0xbd2a8793	-0.0416332
94	0xbce23c50	-0.02761665
95	0x3abae327	0.001425837
96	0x3c855f8b	0.01628091
97	0x3c9895d4	0.018626131
98	0xbcc0b74d	-0.023524905
99	0xbc35a1e8	-0.011085965
100	0x3c7c273b	0.015390213
101	0xbcd03f78	-0.02542089
102	0x3c614f04	0.013751749
103	0x3c137b46	0.009001559
104	0xbba28284	-0.0049594063
105	0xbd09243a	-0.033481814
106	0x3d4d3f3c	0.050109133
107	0xbd6ff89c	-0.0585867
108	0x3d3bb298	0.045824617
109	0xbc0dc817	-0.008653662
110	0x3cd52c5e	0.026022132
111	0xbb071b0a	-0.0020615482
112	0x3c29daca	0.010367105
113	0x3cdf4b58	0.027257606
114	0xba703327	-0.0009162896
115	0xbba25319	-0.0049537537
116	0xbccde6a8	-0.0251344
117	0xbbe42668	-0.006962586
118	0xbd206300	-0.039156914
119	0x3b39a577	0.0028327384
120	0xbd986a6b	-0.074421726
121	0x3d1ab331	0.037768546
122	0x3d136682	0.03598643
123	0x3b2742a1	0.0025521892
124	0xbce3b469	-0.027795987
125	0x3c58f404	0.013241772
126	0x3be9aa93	0.0071309297
127	0x3b5f7049	0.0034094027

fc2.weight f4 [5, 128]
0	0x3dd89e5b	0.10577079
1	0x3d217c31	0.03942508
2	0xbd87c632	-0.066296
3	0x3e10187e	0.14071843
4	0x3daf047b	0.085457765
5	0x3d0ca643	0.034338247
6	0xbe38b5b1	-0.1803806
7	0xbd316c76	-0.043316327
8	0x3de5f170	0.11227691
9	0xbdd57a49	-0.10423715
10	0x3dae39c1	0.085071094
11	0x3d832a1b	0.06404515
12	0xbe42b794	-0.19015342
13	0xbe208aa4	-0.15677887
14	0xbe516cd4	-0.20451671
15	0xbe987ad0	-0.29781199
16	0xbc6f3345	-0.014599626
17	0xbe50b8c0	-0.20382977
18	0xbdded58b	-0.10880574
19	0x3deb033e	0.11475228
20	0x3da77502	0.08176614
21	0xbdd6accc	-0.10482177
22	0xbb2a2f66	-0.0025968193
23	0x3b95d5e1	0.0045726155
24	0x3e050fd9	0.12994327
25	0x3d340d11	0.043957774
26	0x3db51679	0.08842177
27	0xbe491ee8	-0.19640696
28	0xbe3a6f8d	-0.18206616
29	0xbdd59f0f	-0.10430729
30	0x3bee55c7	0.007273409
31	0xbce463db	-0.027879646
32	0x3ddcb87b	0.10777374
33	0xbdd2f079	-0.10299773
34	0xbe0f0efe	-0.13970563
35	0x3d5a56a7	0.053305294
36	0x3dded98f	0.1088134
37	0x3da0f692	0.078595296
38	0xbd9b31b7	-0.07577842
39	0xbe498562	-0.19679788
40	0x3de3c784	0.11122039
41	0xbe3b17e1	-0.18270828
42	0xbe26c660	-0.16286612
43	0xbe83c3bb	-0.25735268
44	0x3dad213b	0.08453604
45	0x3c00433e	0.007828532
46	0xbdcfaf49	-0.10140855
47	0x3dea4ace	0.11440049
48	0x3d9679f2	0.07347478
49	0xbe366106	-0.17810449
50	0xbd95cd02	-0.07314493
51	0xbdecf2e4	-0.11569765
52	0xbe55211c	-0.20813411
53	0x3b6bed21	0.0035999494
54	0xbcc8fc32	-0.024534319
55	0xbe4d3f3d	-0.20043655
56	0xbd04d737	-0.032431807
57	0x3daf759e	0.085673556
58	0x3dc2db72	0.09514512
59	0x3daf2b02	0.08553125
60	0xbdefe093	-0.11712756
61	0x3dd7b98b	0.105334364
62	0x3dd558bf	0.104173176
63	0x3db43b06	0.0880032
64	0xbea0546e	-0.31314415
65	0xbd06c0fa	-0.03289888
66	0xbdd85ad9	-0.10564203
67	0x3e26dfed	0.16296358
68	0x3e02c8b3	0.12771873
69	0xbe9f9cde	-0.31174368
70	0xbdb3e5db	-0.08784076
71	0xbc1b776f	-0.009488924
72	0xbe7406a5	-0.2383066
73	0x3dbe3d8e	0.092890844
74	0x3e13e0a9	0.1444117
75	0xbe1d5b5f	-0.15366887
76	0xbeadf9c2	-0.33979613
77	0x3dbaca80	0.09120655
78	0x3c793304	0.015209917
79	0xbe0e354b	-0.13887517
80	0xbe419db6	-0.18907818
81	0x3d5f6d5c	0.054547653
82	0x3dce1c45	0.10063986
83	0xbd42db02	-0.047572143
84	0x3d0ba928	0.034096867
85	0x3d11ec15	0.035625536
86	0xbe0e2f6d	-0.13885279
87	0xbbd6b596	-0.0065524084
88	0xbe022c72	-0.12712267
89	0xbe46aa68	-0.19400942
90	0xbd1ba897	-0.038002577
91	0xbcd5cc8b	-0.02609851
92	0x3e31d774	0.17367345
93	0x3d3f7c6e	0.046749525
94	0x3d90596c	0.07048306
95	0xbe40db49	-0.1883365
96	0xbe1fe7d6	-0.15615782
97	0x3dbd16c3	0.09232857
98	0x3e079c0f	0.13243125
99	0x3e09d971	0.13461854
100	0xbe4b5bde	-0.19859263
101	0xbd221d9a	-0.03957901
102	0xbe1216c7	-0.14266501
103	0xbdff6019	-0.12469501
104	0xbe0bcf2b	-0.13653247
105	0xbe574e2e	-0.21025917
106	0xbdea305b	-0.11435004
107	0xbe1b0371	-0.15138032
108	0xbe308b74	-0.17240697
109	0x3db81d1b	0.089899264
110	0xbe574bfe	-0.21025082
111	0x3dabfd93	0.08397975
112	0x3d366062	0.04452551
113	0xbce3086b	-0.027713975
114	0xbe66f3d7	-0.22553955
115	0xbe0f7cfd	-0.14012523
116	0xbd1cfcc5	-0.038326997
117	0xbe04ea6e	-0.12980053
118	0x3e14818a	0.1450254
119	0x3d06f5c8	0.03294924
120	0x3d9d637f	0.07684993
121	0xbe117fab	-0.14208858
122	0x3d4d2907	0.050087955
123	0xbdd7cf79	-0.10537619
124	0x3e0b6910	0.13614297
125	0xbd99519d	-0.074862696
126	0xbded8617	-0.11597841
127	0xbe6c83b0	-0.2309711
128	0x3d608ec4	0.054823652
129	0x3dd17179	0.10226721
130	0x3e026b19	0.12736167
131	0x3d36ea9f	0.044657346
132	0xbe3ab5bd	-0.1823339
133	0x3e3882e7	0.18018685
134	0xbd8567f1	-0.06513966
135	0xbe273116	-0.16327319
136	0xbc0f4b0c	-0.00874592
137	0xbd21b1db	-0.039476257
138	0xbde50803	-0.11183169
139	0xbe01d26b	-0.12677924
140	0x3d7800e2	0.060547717
141	0x3cd9440c	0.026521705
142	0x3d97fb65	0.074209966
143	0x3daf2c81	0.0855341
144	0x3c6baed8	0.014384948
145	0x3d0f40fb	0.03497408
146	0xbda3b0dd	-0.07992718
147	0xbd8ae160	-0.06781268
148	0x3d5fd2fc	0.05464457
149	0xbd8dab53	-0.06917443
150	0x3e107f63	0.14111094
151	0xbe193227	-0.14960538
152	0xbd1095ff	-0.035299297
153	0xbe24efc9	-0.16107096
154	0xbe0cd45a	-0.1375288
155	0xbd8b7643	-0.06809666
156	0xbd6ee828	-0.05832687
157	0x3dbe50a2	0.09292723
158	0xbe00eec3	-0.1259108
159	0xbd9fd80c	-0.078048795
160	0x3c2ad951	0.010427789
161	0xbdfe135a	-0.12406035
162	0xbc5f8fab	-0.013645093
163	0x3dfa9db7	0.12237113
164	0xbe7d808f	-0.24756072
165	0x3e653afe	0.22385785
166	0x3d2df989	0.042474303
167	0x3df9b042	0.12191822
168	0x3db37832	0.0876316
169	0x3dd4a04f	0.10382139
170	0xbe4f1d02	-0.2022591
171	0x3de18189	0.11011035
172	0xbe31345f	-0.17305134
173	0xbdf76a4d	-0.12080822
174	0xbe128d9f	-0.14311837
175	0x3e1ab1ba	0.1510686
176	0x3d986c06	0.07442479
177	0xbd42d86b	-0.047569674
178	0xbc196fa5	-0.009364997
179	0xbdbf74f2	-0.093484774
180	0x3d9e5236	0.07730524
181	0xbd9ac861	-0.075577505
182	0x3dd146d8	0.102185905
183	0x3e0fa128	0.1402632
184	0x3e149203	0.14508824
185	0x3c235d36	0.009970954
186	0xbe18e139	-0.14929666
187	0xbe2aedcc	-0.16692275
188	0x3cd4d1d9	0.02597897
189	0xbe012380	-0.12611198
190	0xbe0930a7	-0.13397466
191	0xbe0dc976	-0.13846382
192	0xbe18de25	-0.14928491
193	0x3dc18a90	0.09450257
194	0xbe09748f	-0.1342337
195	0x3bd02835	0.0063524493
196	0xbe3c67de	-0.18398997
197	0xbe18e2de	-0.14930293
198	0x3d527736	0.05138322
199	0x3e11c78c	0.14236277
200	0x3df94f12	0.121732846
201	0xbe20cca3	-0.15703063
202	0x3da6f7b5	0.08152715
203	0xbcc3b1ed	-0.023888553
204	0x3c842f8a	0.01613595
205	0xbde994f7	-0.11405366
206	0x3ca9be36	0.020720582
207	0x3db5611c	0.08856413
208	0x3cdae6ca	0.026721377
209	0x3dac87e2	0.08424355
210	0xbe0cabfe	-0.13737485
211	0x3a106418	0.0005508079
212	0xbe45f7bf	-0.19332789
213	0xbe1d6f49	-0.15374483
214	0xbd0ba742	-0.034095056
215	0xbe12c382	-0.14332393
216	0x3cdb4838	0.026767835
217	0x3dcb552d	0.09928355
218	0x3cba5696	0.022746366
219	0x3bb21726	0.0054348884
220	0x3c9eb095	0.01937131
221	0x3b1419c0	0.0022598356
222	0x3882043f	6.199674e-05
223	0xbd6a7f3c	-0.057250246
224	0x3c9a899e	0.01886445
225	0x3d304de4	0.043043032
226	0x3e00c3f2	0.12574747
227	0xbdfe068e	-0.12403594
228	0x3d95078b	0.07276829
229	0x3db9107c	0.09036347
230	0xbdedf0aa	-0.11618169
231	0x3de9e751	0.11421073
232	0x3cae61bd	0.02128684
233	0xbdcea936	-0.10090868
234	0x3dbed0fc	0.09317204
235	0xbe1c718c	-0.1527769
236	0x3d93979a	0.0720665
237	0xbd834b28	-0.06410819
238	0xbdb2a6b5	-0.08723203
239	0x3dcc9f3f	0.09991311
240	0xbe77f84f	-0.24215816
241	0xbe0faede	-0.1403155
242	0x3dd3d7ee	0.1034392
243	0xbdba4e30	-0.09096944
244	0x3d69f4d0	0.057118237
245	0x3d1a9022	0.037735112
246	0xbcde0255	-0.027100721
247	0x3e16f959	0.14743556
248	0x3d77220e	0.06033521
249	0x3dfb204d	0.1226202
250	0x3dc29e1b	0.095028125
251	0xbd678420	-0.05652249
252	0xbe6a6830	-0.22891307
253	0xbe2f3805	-0.17111214
254	0xbd7a1a40	-0.06106019
255	0x3dd855cc	0.105632395

fc2.bias f4 [5]
0	0x3d71f1c8	0.05906847
1	0x3d342b02	0.043986328
2	0x3d44ff38	0.048094958
3	0x3d2cb39f	0.042163488
4	0xbdd54f74	-0.10415545
