Trained_Weights/STRIDE 3/v3.4 5th.pth (torch, 628546 bytes, 12 tensors)

conv1.weight f4 [32, 3, 3, 3]
-0.1657638 -0.01898659 -0.068719156 -0.05205662 0.07244765 -0.12623058 -0.13475044 -0.016320467
-0.07148702 -0.027707217 -0.20130058 -0.09502774 -0.12750761 -0.14183524 0.12828086 -0.053279813
-0.10411808 0.18610176 0.09228029 0.01101569 -0.121268414 0.14209774 -0.15273936 -0.08644232
-0.0739729 0.07579727 -0.17684495 0.11462102 -0.0640458 -0.022029666 -0.22660041 0.046857808
-0.1518401 -0.24297515 0.08497493 0.088737115 -0.07619902 -0.16504502 -0.17972401 -0.1580583
0.15164033 -0.007283515 -0.060399026 0.16256054 -0.02878138 -0.04805946 0.012800714 -0.091524124
0.12738176 0.19545153 -0.13684486 0.047306098 0.04663626 0.16599949 0.028189182 0.047388107
-0.16877112 -0.08422049 -0.11271672 0.15192738 -0.14048551 -0.15530774 -0.21057798 -0.10014272
-0.018424712 0.13375053 0.017567633 0.048198164 -0.20486526 -0.17888218 0.027381571 0.06199078
0.038111273 -0.086232856 0.13689147 0.15695648 -0.12541452 0.18287316 0.02708845 0.15739359
0.058642197 0.18723106 -0.011914855 0.128362 0.0683377 -0.14063624 -0.110023096 0.13560846
0.123715825 0.0016149199 0.053503 -0.089847185 0.07267491 -0.16522168 -0.19440185 -0.11610428
0.15891568 -0.08771682 0.043895867 -0.04867856 0.14433193 0.090415314 -0.0089825615 -0.012182573
0.15054028 0.017392885 -0.00594589 0.07824268 0.13838138 -0.15838958 0.0392757 0.007426517
-0.009454259 -0.050481237 -0.025080139 -0.258072 0.0357297 -0.083449736 -0.074231036 0.08265559
-0.16788572 -0.05460679 -0.090026125 0.046318922 -0.08058608 0.16828689 -0.012980548 0.18083502
0.00038298522 0.08145993 -0.17384009 -0.1258239 -0.047366668 0.06317713 0.1611199 0.00064687233
0.03865155 0.045043994 -0.026246218 -0.20507663 -0.13624093 -0.19826701 -0.13295114 0.0106717665
0.11806147 -0.146023 -0.20036367 -0.19015263 -0.091322884 -0.14879948 -0.15336078 0.123357095
0.14499635 0.08909294 0.046473693 -0.017316805 -0.06729951 -0.10634784 -0.12872344 -0.09612293
-0.009350675 0.08216761 0.11400267 -0.07701291 -0.14427802 0.00910661 0.0137744695 -0.032720316
0.029214745 -0.06484019 0.12999332 -0.14254805 -0.22862491 -0.010387803 0.14781941 -0.07036463
0.07604907 0.006218143 -0.09997434 0.057663437 0.030731073 -0.22400732 -0.10400001 -0.119728856
0.058022648 -0.12749705 -0.0131157525 -0.22475821 -0.047515064 0.031769678 -0.14153284 0.021081114
-0.20289616 0.074730754 0.13101411 0.17199343 -0.10574774 -0.053067572 -0.12670363 -0.070444
0.12066964 -0.13856713 -0.21825486 -0.20855546 0.088316664 -0.11112722 -0.0023184023 0.15350221
-0.098402515 -0.17069513 -0.03489725 -0.051670514 -0.10635529 -0.1714913 -0.046147145 -0.12902631
0.09299795 -0.097810306 -0.18784639 -0.15468626 0.12927087 0.0017618472 0.03319679 -0.056094512
-0.24230754 -0.0053522023 -0.13024513 -0.23488303 -0.1555845 -0.089604296 0.039023988 0.09611879
-0.2135523 -0.0827758 -0.109899044 -0.021398455 -0.040679697 -0.11295987 0.18462068 0.16472356
0.113281675 0.18417196 0.059299044 0.19330028 0.18829527 0.122859225 0.16311608 0.146644
0.18938102 -0.0021473325 -0.09338706 -0.03056812 -0.048489656 0.20436129 -0.06682111 0.009975294
00000000: fcbd 29be c489 9bbc a1bc 8cbd 5339 55bd
00000010: 6f5f 943d 9742 01be 05fc 09be 80b2 85bc
00000020: c967 92bd 3ffa e2bc bd21 4ebe e79d c2bd
00000030: 5b91 02be 423d 11be 0f5c 033e ef3b 5abd
00000040: dc3b d5bd 7691 3e3e 73fd bc3d 277b 343c
00000050: 935b f8bd 1282 113e b567 1cbe ac08 b1bd
00000060: 1b7f 97bd 993b 9b3d d816 35be 6dbe ea3d
00000070: 722a 83bd 8f77 b4bc f009 68be f9ed 3f3d
00000080: f97b 1bbe 7ace 78be 5607 ae3d cebb b53d
00000090: 3b0e 9cbd 9001 29be 9209 38be 09da 21be
000000a0: 9a47 1b3e 8daa eebb f864 77bd 4576 263e
000000b0: eec6 ebbc ffd9 44bd 16ba 513c 0071 bbbd
000000c0: 5d70 023e 7224 483e 0f21 0cbe 0ac4 413d
000000d0: aa05 3f3d c5fb 293e 00ed e63c 081a 423d
000000e0: 56d2 2cbe cb7b acbd 06d8 e6bd da92 1b3e
000000f0: 6fdb 0fbe fe08 1fbe c1a1 57be a017 cdbd
00000100: 6cef 96bc e6f5 083e ffe9 8f3c 706b 453d
00000110: 33c8 51be e42c 37be 514f e03c 0bea 7d3d
00000120: 911a 1c3d da9a b0bd 472d 0c3e 33b9 203e
00000130: aa6c 00be 1a43 3b3e 99e8 dd3c c92b 213e
00000140: cd32 703d 80b9 3f3e 8636 43bc 5471 033e
00000150: a3f4 8b3d f202 10be ca53 e1bd f2dc 0a3e
00000160: b95e fd3d b8ab d33a f625 5b3d cd01 b8bd
00000170: 95d6 943d df2f 29be 4711 47be 15c8 edbd
00000180: cbba 223e e0a4 b3bd 27cc 333d 2b63 47bd
00000190: c0cb 133e aa2b b93d 982b 13bc 6a99 47bc
000001a0: 3b27 1a3e 867b 8e3c bed5 c2bb b33d a03d
000001b0: d9b3 0d3e e130 22be 8edf 203d 245a f33b
000001c0: 09e6 1abc 6ac5 4ebd dd74 cdbc 0322 84be
000001d0: 4e59 123d b2e7 aabd 7106 98bd 5547 a93d
000001e0: 3cea 2bbe 5fab 5fbd 9e5f b8bd e9b8 3d3d
000001f0: 510a a5bd 6653 2c3e 5dac 54bc d12c 393e
00000200: 68cb c839 77d4 a63d 2303 32be fbd7 00be
00000210: 8d03 42bd 0363 813d 9dfc 243e de92 293a
00000220: 1651 1e3d 0d80 383d 4f02 d7bc 9cff 51be
00000230: be82 0bbe 8206 4bbe 5824 08be a2d8 2e3c
00000240: 36ca f13d 0e87 15be 222c 4dbe 5fb7 42be
00000250: 7e07 bbbd e45e 18be 9c0a 1dbe a5a2 fc3d
00000260: ec79 143e 5c76 b63d 335b 3e3d f9db 8dbc
00000270: 53d4 89bd e5cc d9bd 14d0 03be 19dc c4bd
00000280: 9333 19bc 7e47 a83d 3b7a e93d f2b8 9dbd
00000290: 9ebd 13be e433 153c 50ae 613c bd05 06bd
000002a0: c353 ef3c efca 84bd f81c 053e 1ef8 11be
000002b0: a61c 6abe 9b31 2abc f95d 173e 551b 90bd
000002c0: 9dbf 9b3d 90c1 cb3b 59bf ccbd 7f30 6c3d
000002d0: bbbf fb3c 2d62 65be f5fd d4bd 6734 f5bd
000002e0: 28a9 6d3d 968e 02be 74e3 56bc 0427 66be
000002f0: 289f 42bd ec20 023d fced 10be 4db2 ac3c
00000300: 03c4 4fbe 700c 993d 9028 063e 0c1f 303e
00000310: 4592 d8bd 625d 59bd 99be 01be f244 90bd
00000320: a521 f73d 8be4 0dbe 347e 5fbe 908f 55be
00000330: 5edf b43d ab96 e3bd 56f0 17bb af2f 1d3e
00000340: 4287 c9bd b4ca 2ebe 6bf0 0ebd 76a4 53bd
00000350: cdd0 d9bd 6a9b 2fbe ca04 3dbd 791f 04be
00000360: b675 be3d c550 c8bd ce5a 40be 1366 1ebe
00000370: 955f 043e c8ed e63a 5bf9 073d 5cc3 65bd
00000380: 781f 78be 8761 afbb fb5e 05be 2d85 70be
00000390: 8b51 1fbe 7582 b7bd 9ed7 1f3d eed9 c43d
000003a0: 74ad 5abe 5c86 a9bd c012 e1bd d04b afbc
000003b0: c19f 26bd 8157 e7bd 340d 3d3e 4bad 283e
000003c0: 3900 e83d 9397 3c3e 8ee3 723d 82f0 453e
000003d0: 7ad0 403e 9e9d fb3d e707 273e d829 163e
000003e0: 19ed 413e 43ba 0cbb b741 bfbd fe69 fabc
000003f0: 179d 46bd 1644 513e 82d9 88bd 6a6f 233c

conv1.bias f4 [32]
-0.07652341 0.13385008 -0.10565875 0.16184343 0.04301336 -0.14667816 0.066379204 0.09991464
-0.1335841 -0.16010611 0.05160524 -0.0036399295 0.16035545 -0.046778694 0.046509042 0.02163576
0.0123452665 0.08515505 -0.0602843 0.053226825 -0.062244855 0.18455492 -0.033772472 0.09620088
0.10106017 -0.067670844 -0.03309641 -0.057956584 0.024295663 0.08119707 0.050267495 0.12111378
00000000: 4eb8 9cbd ff0f 093e 9d63 d8bd 49ba 253e
00000010: c72e 303d cd32 16be d2f1 873d 0ca0 cc3d
00000020: 45ca 08be dbf2 23be 0460 533d e28b 6ebb
00000030: 3834 243e 049b 3fbd 4480 3e3d 7a3d b13c
00000040: cd43 4a3c c565 ae3d acec 76bd 5f04 5a3d
00000050: 76f4 7ebd f7fb 3c3e 0155 0abd f804 c53d
00000060: a2f8 ce3d 0397 8abd 1a90 07bd e263 6dbd
00000070: b307 c73c a64a a63d 4ae5 4d3d 800a f83d

conv2.weight f4 [8, 32, 3, 3]
0.039412092 -0.03404471 -0.026307132 0.025727078 -0.011752668 0.0006542223 -0.012606379 -0.028960027
-0.05109342 0.01715598 0.038233187 0.05576824 -0.018539395 -0.022696316 -0.0026788414 0.050463993
-0.016631044 0.02519024 0.02078147 0.061512984 0.065631755 -0.016407663 0.06872177 0.023073556
0.07493519 0.09457525 0.084366314 0.084269814 0.09191843 0.033560295 -0.012243086 0.03416529
0.07671216 0.05045247 0.075410016 0.065782234 -0.040965304 -0.07573474 0.027425084 0.066443324
-0.029137677 -0.041070443 0.042559136 0.0627839 0.0062755863 -0.03333817 -0.037120927 -0.02662771
-0.04847344 -0.05568137 -0.012900068 0.06870111 0.03387296 0.04530731 -0.022988066 -0.11127022
-0.10871468 -0.015175754 -0.033867408 -0.10472788 -0.060869247 -0.009424617 -0.092289954 -0.029865926
-0.08259961 -0.09870569 0.023885306 -0.0929667 -0.08567496 -0.065730006 0.0004981075 -0.11395278
0.057921443 0.042763248 0.029057944 -0.030615674 0.0499175 0.030076295 0.06734251 0.07608915
0.0647069 0.02047191 0.019046128 0.0815607 0.06290449 -0.020469194 0.0031278136 -0.0017311567
-0.045186006 -0.014141418 0.04634002 -0.024314247 0.05262908 -0.021222496 0.029748406 -0.027528457
0.09918164 0.039176635 0.030768164 0.0605194 0.09954648 -0.008702392 0.0007315017 0.041777298
-0.01569875 -0.05251584 0.0009009225 0.0689387 -0.056591593 0.041463777 -0.037261806 0.011642332
-0.03572614 0.035996903 0.010092901 0.0020645573 -0.051019546 0.05687887 0.08518004 0.123219274
0.017812036 0.09798989 0.09663369 0.057601985 0.11037395 0.06939597 -0.056708254 -0.09172013
-0.020907171 -0.044314098 -0.08743019 -0.08494419 0.02831528 0.006398912 0.024286456 0.10522196
0.14007054 0.10592856 0.05029778 0.02222218 0.05945097 -0.02274605 0.003194302 0.07508308
0.0060258536 0.1061606 0.06718988 0.085658014 0.08993731 0.10857521 0.045099773 0.07371401
0.11482087 -0.09079713 -0.057514023 -0.115900986 -0.020149343 -0.03230662 -0.06638025 -0.07269443
-0.023717158 -0.013134965 -0.06526914 -0.008102445 -0.06043346 0.055952415 0.03783568 -0.036340028
0.040767465 0.027116809 0.053644724 -0.051315896 0.0068190424 0.018074011 0.055661514 0.0657426
0.040351585 0.0019545204 0.05373038 -0.060016725 0.020498345 0.02024741 0.040178373 -0.108345985
-0.099751085 -0.02441688 -0.037972208 -0.06651001 -0.07449589 -0.05537008 -0.022973407 -0.0954542
-0.05040738 -0.04179012 -0.09832732 -0.033671316 0.015931439 -0.06291658 -0.066873744 -0.0690754
-0.049004216 -0.035258237 -0.07507529 -0.031234685 -0.048256844 -0.009763788 0.008890729 0.02850771
-0.03345414 -0.016258322 -0.05037878 -0.047221117 0.031924628 0.029885394 0.05036746 -0.06435445
0.009243627 -0.0059986385 0.01834719 0.07014235 0.01697318 -0.022421135 0.026814604 0.086087264
-0.046316255 0.03346575 0.023289144 0.03409826 0.013136317 0.077127 0.054546554 0.067510255
-0.009860902 0.0334068 -0.04637245 -0.12187425 -0.15249686 -0.08110858 -0.023008758 -0.13610375
0.0062404233 -0.07600891 -0.12766583 -0.07804846 -0.09753626 -0.04593041 -0.0006020446 -0.11127856
-0.043469325 -0.064410836 -0.03043133 -0.029478502 -0.02645889 -0.025087824 0.05311398 -0.025101095
00000000: 936e 213d 7772 0bbd 0e82 d7bc 98c1 d23c
00000010: 438e 40bc 1e80 2b3a fc8a 4ebc 943d edbc
00000020: 5547 51bd b38a 8c3c 679a 1c3d 3d6d 643d
00000030: eedf 97bc a0ed b9bc 808f 2fbb 55b3 4e3d
00000040: d43d 88bc c35b ce3c e73d aa3c 0af5 7b3d
00000050: f169 863d 5d69 86bc 00be 8c3d c104 bd3c
00000060: 9f77 993d abb0 c13d 3fc8 ac3d a795 ac3d
00000070: bb3f bc3d 8576 093d 3997 48bc e7f0 0b3d
00000080: 441b 9d3d 40a7 4e3d 9170 9a3d d6b8 863d
00000090: 3ccb 27bd d11a 9bbd 92aa e03c 7013 883d
000000a0: 23b2 eebc 7b39 28bd 7d52 2e3d d894 803d
000000b0: 6fa3 cd3b 9b8d 08bd 1d0c 18bd 5b22 dabc
000000c0: 168c 46bd 2612 64bd cf5a 53bc 2bb3 8c3d
000000d0: 5fbe 0a3d 2894 393d 7851 bcbc a4e1 e3bd
000000e0: cda5 debd baa3 78bc 8db8 0abd 927b d6bd
000000f0: 0852 79bd b569 1abc 8402 bdbd 63a9 f4bc
00000100: fc29 a9bd 3526 cabd 1eab c33c 5365 bebd
00000110: 5a76 afbd 749d 86bd 6e93 023a 1360 e9bd
00000120: 093f 6d3d 8428 2f3d ed0a ee3c b9cd fabc
00000130: 4b76 4c3d 9062 f63c dfea 893d a1d4 9b3d
00000140: 0d85 843d b5b4 a73c a006 9c3c 4c09 a73d
00000150: 12d4 803d 03af a7bc 01fc 4c3b fbe7 e2ba
00000160: f614 39bd 68b1 67bc 08cf 3d3d ac2e c7bc
00000170: 9791 573d cdda adbc eeb2 f33c 5c83 e1bc
00000180: be1f cb3d ae77 203d 840d fc3c 31e3 773d
00000190: 06df cb3d 7a94 0ebc 40c2 3f3a ac1e 2b3d
000001a0: aa9a 80bc d91a 57bd e32b 6c3a bc2f 8d3d
000001b0: 96cc 67bd ecd5 293d d69f 18bd 7bbf 3e3c
000001c0: 9355 12bd 7d71 133d b25c 253c 864d 073b
000001d0: dff9 50bd d1f9 683d df72 ae3d 635a fc3d
000001e0: 8cea 913c ecae c83d e2e7 c53d 0ff0 6b3d
000001f0: bd0b e23d 791f 8e3d ea46 68bd c3d7 bbbd
00000200: 8445 abbc b382 35bd 990e b3bd 38f7 adbd
00000210: 72f5 e73c f7ad d13b 64f4 c63c 9c7e d73d
00000220: a76e 0f3e 13f1 d83d 0c05 4e3d 4a0b b63c
00000230: dc82 733d ed55 babc 7f57 513b 28c5 993d
00000240: 8674 c53b bb6a d93d d99a 893d 786d af3d
00000250: 0d31 b83d ae5c de3d 8aba 383d 5ff7 963d
00000260: 3427 eb3d d8f3 b9bd d393 6bbd 7f5d edbd
00000270: 3c10 a5bc f253 04bd 5ef2 87bd d1e0 94bd
00000280: 7c4a c2bc 0934 57bc d4ab 85bd 1ec0 04bc
00000290: 1389 77bd 5c2e 653d 96f9 1a3d 48d9 14bd
000002a0: c9fb 263d 1224 de3c 92ba 5b3d 9e30 52bd
000002b0: 4672 df3b f30f 943c 54fd 633d 0ea4 863d
000002c0: b447 253d 6917 003b 6314 5c3d 19d4 75bd
000002d0: 25ec a73c e5dd a53c 1492 243d 80e4 ddbd
000002e0: 4c4a ccbd e905 c8bc bf88 1bbd 6636 88bd
000002f0: 4d91 98bd bdcb 62bd ba32 bcbc 7e7d c3bd
00000300: f877 4ebd 1e2c 2bbd d55f c9bd efea 09bd
00000310: a682 823c 68da 80bd 1af5 88bd 6777 8dbd
00000320: a5b8 48bd f16a 10bd 13c1 99bd e2df ffbc
00000330: f8a8 45bd 4cf8 1fbc 6caa 113c 0089 e93c
00000340: 3507 09bd 2c30 85bc fb59 4ebd ee6a 41bd
00000350: 66c3 023d 37d2 f43c 1c4e 4e3d 44cc 83bd
00000360: 9572 173c 3a90 c4bb d94c 963c cba6 8f3d
00000370: 570b 8b3c 87ac b7bc 4daa db3c 854e b03d
00000380: 1db6 3dbd 6213 093d e0c8 be3c 9eaa 0b3d
00000390: b539 573c c3f4 9d3d 356c 5f3d d142 8a3d
000003a0: 9f8f 21bc 92d5 083d 0af1 3dbd 3599 f9bd
000003b0: 2328 1cbe 411c a6bd dd7c bcbc c85e 0bbe
000003c0: 777c cc3b 8faa 9bbd d5ba 02be dfd7 9fbd
000003d0: 17c1 c7bd 8721 3cbd 87d2 1dba 03e6 e3bd
000003e0: e40c 32bd d4e9 83bd 204b f9bc e67c f1bc
000003f0: 50c0 d8bc fb84 cdbc 0b8e 593d d0a0 cdbc

conv2.bias f4 [8]
0.04665994 0.057594027 0.044562448 0.03445088 -0.040885925 -0.04892764 -0.057739288 -0.021308007
00000000: 7e1e 3f3d b7e7 6b3d 1d87 363d 5e1c 0d3d
00000010: 0078 27bd 5968 48bd 0880 6cbd 218e aebc

conv3.weight f4 [32, 8, 3, 3]
-0.06477991 0.00842484 0.086787805 -0.051746406 0.048578985 0.020637888 -0.10670459 -0.0072721606
0.036364835 0.08555334 0.041385025 -0.0844873 0.07469537 0.008145112 -0.113894865 -0.0012930547
-0.14001098 -0.13100961 0.0047646808 -0.047382005 0.15451165 0.038693827 0.124369964 0.015376708
-0.08425628 0.118774846 0.15550219 -0.063652895 -0.12717915 0.11476486 -0.004052141 -0.05832916
0.048841458 -0.10149207 0.030314624 0.011376798 -0.007300231 0.03392918 -0.060850967 -0.04675146
0.09635661 0.13460334 0.0371684 -0.042106517 0.055561077 -0.11182125 0.080746934 0.06673209
-0.106533386 -0.11736095 0.032385197 0.005927874 -0.08577436 -0.0009196599 0.005350125 0.120821655
0.030523488 -0.033182155 0.11406404 0.1714108 -0.08767985 0.02201876 0.050503634 0.047819432
-0.030728633 0.02769711 0.05633113 0.0050981487 0.09016713 -0.15426505 -0.030793387 -0.049751565
0.06496582 -0.09705478 -0.049025755 -0.07510793 0.032733735 0.04232001 0.028147316 0.09213463
-0.110486895 0.043794774 -0.15048882 -0.10905412 0.053882997 0.011899302 -0.1346824 -0.08829437
0.029862897 -0.09701069 0.09389895 0.055525202 0.098313764 0.08672407 0.052060813 -0.053191837
-0.10613226 -0.11385782 0.0093107475 0.06323318 0.009186861 -0.015229613 0.05412882 -0.070032604
-0.022181606 -0.046097968 -0.054141823 0.07194143 0.10486115 0.17243496 0.12802644 0.1222851
0.012775923 0.018365549 -0.044251364 -0.07660561 0.005298221 0.09145261 -0.0022618794 0.088079974
0.10042689 0.18468508 -0.07354937 0.106051184 0.052366167 -0.07519731 -0.0552135 0.12685162
0.10828164 0.07031724 0.18095843 0.106930286 -0.08352154 -0.10853551 -0.11565561 0.104232766
0.06994384 -0.06290357 0.0050817933 0.016957087 0.036730055 -0.11217376 0.090976536 0.048190296
-0.09092595 -0.0010830526 -0.025436938 -0.102385595 0.063905485 -0.13087924 -0.025181802 -0.079368286
-0.060132008 -0.007063406 0.013418481 -0.08502342 -0.06039741 -0.025041386 -0.04649091 -0.16900112
-0.1811713 0.01691567 0.13294564 -0.0732739 0.0076977834 0.1169696 0.13431177 0.06944325
0.159373 0.10162808 0.06593252 -0.07114516 -0.1197486 -0.0010646591 -0.07585 0.053111587
-0.048234202 0.014406263 0.059927337 -0.058956087 0.0054659788 -0.026223624 -0.010953245 0.1020628
-0.06342597 -0.06618096 -0.08373668 0.035689533 0.050732374 0.004803395 -0.06392299 0.077396505
0.026111837 -0.04893864 -0.07473598 0.11586627 -0.09327501 -0.12302748 0.13355231 -0.066602275
0.13641433 -0.010414687 0.15160199 0.16251439 -0.03503717 0.0066447696 0.07298932 0.108723156
0.0807073 0.06678668 -0.06572965 0.00081529265 -0.009625253 0.07299996 -0.0017347469 0.005315435
-0.041330595 0.091609746 0.048375644 -0.12706254 -0.08465423 0.025911791 0.015199003 0.012696136
0.06931762 -0.0028064197 -0.019498195 0.06913978 -0.110928826 0.012780295 -0.05619712 0.01719207
-0.105158605 -0.045083452 0.10468954 -0.08517255 0.023281902 -0.120448165 -0.10298568 -0.061930522
-0.030437313 0.039211705 0.13595855 -0.047251463 0.08901693 -0.01276923 0.038151678 0.03938819
-0.12320655 -0.091371566 -0.002893427 -0.12605639 -0.07556938 -0.15247335 -0.1445065 -0.048208356
00000000: 54ab 84bd 5708 0a3c cebd b13d 0af4 53bd
00000010: c2fa 463d ca10 a93c f087 dabd 4e4b eebb
00000020: 4bf3 143d 9736 af3d 5883 293d ad07 adbd
00000030: e3f9 983d 1373 053c b641 e9bd b77b a9ba
00000040: 0a5f 0fbe 6227 06be 0a21 9c3b a213 42bd
00000050: 4d38 1e3e 6b7d 1e3d aeb5 fe3d 96ee 7b3c
00000060: 8e8e acbd 3a40 f33d f73b 1f3e 735c 82bd
00000070: 403b 02be d709 eb3d d3c7 84bb 8fea 6ebd
00000080: fb0d 483d 13db cfbd 6056 f83c c065 3a3c
00000090: c736 efbb 53f9 0a3d dd3e 79bd 757e 3fbd
000000a0: 9d56 c53d 75d5 093e e43d 183d e277 2cbd
000000b0: 0394 633d 8a02 e5bd a65e a53d d6aa 883d
000000c0: 2d2e dabd f05a f0bd 57a6 043d 9c3e c23b
000000d0: 78aa afbd 5515 71ba 1a50 af3b 5871 f73d
000000e0: 650c fa3c 03ea 07bd 689a e93d 5086 2f3e
000000f0: 7e91 b3bd b060 b43c e6dc 4e3d 4fde 433d
00000100: 9dba fbbc 0de5 e23c 79bb 663d 5f0e a73b
00000110: 8ba9 b83d a8f7 1dbe 6a42 fcbc 4cc8 4bbd
00000120: cd0c 853d a8c4 c6bd 3bcf 48bd 30d2 99bd
00000130: cf13 063d bf57 2d3d 3395 e63c 15b1 bc3d
00000140: f446 e2bd 2662 333d be19 1abe c457 dfbd
00000150: 6bb4 5c3d 4af5 423c 2fea 09be aed3 b4bd
00000160: 09a3 f43c 8aad c6bd 184e c03d 656e 633d
00000170: ba58 c93d 649c b13d b83d 553d afdf 59bd
00000180: df5b d9bd 4a2e e9bd 1b8c 183c 6680 813d
00000190: 7d84 163c a085 79bc 2eb6 5d3d 416d 8fbd
000001a0: 33b6 b5bc 39d1 3cbd d1c3 5dbd 0756 933d
000001b0: 71c1 d63d ca92 303e 5d19 033e 9c70 fa3d
000001c0: 1b52 513c 5973 963c eb40 35bd 67e3 9cbd
000001d0: b39c ad3b 824b bb3d 0a3c 14bb 4663 b43d
000001e0: 9dac cd3d 161e 3d3e 0da1 96bd 5d31 d93d
000001f0: e87d 563d 0c01 9abd 8d27 62bd 64e5 013e
00000200: c4c2 dd3d 7c02 903d 2b4d 393e 44fe da3d
00000210: 570d abbd de47 debd d9dc ecbd fd77 d53d
00000220: b73e 8f3d 96d3 80bd 2c85 a63b 97e9 8a3c
00000230: 4172 163d 5bbb e5bd e851 ba3d 3063 453d
00000240: 6237 babd 37f5 8dba 2061 d0bc 8aaf d1bd
00000250: e1e0 823d 3505 06be 114a cebc d78b a2bd
00000260: fb4c 76bd 2574 e7bb 30d9 5b3c c220 aebd
00000270: 4663 77bd 9823 cdbc 416d 3ebd a10e 2dbe
00000280: f884 39be bb92 8a3c e722 083e a010 96bd
00000290: b03d fc3b c28d ef3d 0689 093e 4338 8e3d
000002a0: ad32 233e 6222 d03d a107 873d 8eb4 91bd
000002b0: c13e f5bd 088c 8bba 3f57 9bbd 898b 593d
000002c0: 3a91 45bd 3f08 6c3c 5e76 753d f07b 71bd
000002d0: f41b b33b edd2 d6bc 3d75 33bc 4d06 d13d
000002e0: 7ae5 81bd e289 87bd 237e abbd 302f 123d
000002f0: c0cc 4f3d cc65 9d3b 0eea 82bd 0f82 9e3d
00000300: 7ee8 d53c e273 48bd 2d0f 99bd 4c4b ed3d
00000310: f806 bfbd d5f5 fbbd f0c1 083e c666 88bd
00000320: 33b0 0b3e 5da2 2abc 8d3d 1b3e 2c6a 263e
00000330: 2383 0fbd 5ebc d93b 6d7b 953d 3faa de3d
00000340: de49 a53d 74c7 883d 449d 86bd 5db9 553a
00000350: 3db3 1dbc 0181 953d 7260 e3ba 1a2d ae3b
00000360: 454a 29bd e49d bb3d 8a25 463d af1c 02be
00000370: 325f adbd f744 d43c 3d05 793c 7403 503c
00000380: 65f6 8d3d e9eb 37bb aeba 9fbc 2899 8d3d
00000390: a72e e3bd 7164 513c f42e 66bd 62d6 8c3c
000003a0: 655d d7bd 6da9 38bd 7867 d63d f26e aebd
000003b0: b0b9 be3c 87ad f6bd 28ea d2bd dcaa 7dbd
000003c0: ac57 f9bc 749c 203d b838 0b3e c08a 41bd
000003d0: 824e b63d 0836 51bc ef44 1c3d 8355 213d
000003e0: b753 fcbd 0421 bbbd a69f 3dbb ed14 01be
000003f0: 1ec4 9abd f921 1cbe 83f9 13be 2076 45bd

conv3.bias f4 [32]
-0.06707336 -0.11105678 0.064055115 -0.13581596 0.05450848 -0.031720053 0.16944376 0.124377735
-0.0323088 0.17568372 0.1128394 -0.028767174 0.08996545 -0.03206858 -0.08877197 0.16211605
-0.07677188 -0.08648672 -0.15883526 0.19203715 -0.04379284 -0.0663056 -0.058205992 0.08852711
0.14513153 0.05175922 -0.13453561 0.09129451 0.09334656 -0.1284285 -0.1196754 0.10104686
00000000: c25d 89bd bd71 e3bd 542f 833d 5713 0bbe
00000010: 4944 5f3d e3ec 01bd aa82 2d3e c1b9 fe3d
00000020: 3b56 04bd 6fe6 333e 5818 e73d 23a9 ebbc
00000030: ce3f b83d 585a 03bd 14ce b5bd c001 263e
00000040: 933a 9dbd f31f b1bd b6a5 22be 63a5 443e
00000050: 1f60 33bd 3bcb 87bd 6869 6ebd b44d b53d
00000060: 5c9d 143e 7a01 543d b4c3 09be 9ef8 ba3d
00000070: 7b2c bf3d c382 03be 6018 f5bd a8f1 ce3d

conv4.weight f4 [8, 32, 3, 3]
0.08014503 -0.076039225 -0.069694 0.07851299 -0.04046269 -0.12959655 0.049030043 -0.11468476
-0.08718203 0.04612076 0.030337794 -0.04342239 0.0705757 0.07879712 0.010478604 -0.022983106
0.0064648218 -0.019111462 0.04514087 0.091184855 -0.0032279822 0.041167412 0.013534588 0.013588498
-0.10645189 -0.08366306 -0.06944409 -0.1288261 -0.10025529 0.0063805413 -0.1354264 -0.13411029
-0.04632237 0.019180635 -0.05555019 0.04404769 0.1395944 0.086759195 -0.05307731 0.20634113
0.05925865 -0.03834209 0.059507098 0.058562934 -0.06316948 0.0351206 0.09715433 -0.05229988
0.0012597276 0.059141915 -0.015119893 -0.041477192 -0.042513873 -0.025374107 0.104345694 0.029703805
-0.04415518 0.0798033 0.08397336 0.02363961 0.0003912407 0.021119604 -0.038407583 0.040447276
-0.009202532 0.025778815 0.017851751 0.0777508 0.08624031 -0.01730515 0.11162506 0.13202672
-0.030958109 -0.022802852 0.049975943 0.029935716 -0.06263974 0.03240886 0.046831265 -0.07323514
0.06183061 -0.04280607 -0.099369586 0.0482928 0.06591122 0.061070316 0.03848731 0.11389379
0.057684287 0.04713097 -0.12611888 0.16543758 0.069865875 -0.039863452 0.09626672 0.014206722
-0.13965496 0.072633706 0.015068334 0.020563856 0.096725926 0.03017174 -0.0706596 0.047208566
-0.09570731 -0.090648584 -0.070686266 -0.14370897 -0.010382843 0.040717356 -0.09230352 -0.040556233
-0.0067353807 -0.04225737 0.021801796 0.05447631 -0.00034220392 -0.17506786 -0.11906494 0.04767094
-0.04286056 -0.03935926 0.08530527 -0.08265116 -0.038558718 0.062631376 0.048328396 0.0043877405
0.05955117 -0.06447158 -0.098709255 0.044823978 -0.03605225 -0.055282164 -0.042449754 0.06731581
-0.08943146 -0.061840657 0.021558909 -0.04489156 0.009665316 0.012435245 -0.00017483433 -0.012733213
-0.09366463 -0.08994895 0.006660297 0.018029708 -0.0001517043 0.06928806 -0.022291904 -0.04518457
0.11183538 -0.05870027 0.055638593 0.048714586 -0.08310619 -0.07312268 -0.016538866 -0.039147634
-0.12166463 -0.09295372 0.05436948 0.05931892 0.021753604 0.048826374 0.02641295 -0.034476686
-0.082526445 -0.06370678 -0.085677125 0.057901844 0.058095362 0.013677198 0.049717106 0.09488009
-0.0045142253 -0.008238611 0.067146495 0.061188847 -0.09045631 -0.055971954 0.023041446 -0.06866546
-0.09299116 0.0188401 0.038873795 0.00064848457 0.014427866 -0.028999394 -0.08214323 0.05489016
-0.08774128 -0.07520502 -0.018338075 -0.016128015 -0.040855944 0.007668913 0.078003265 0.10666531
0.016593728 0.054355033 -0.0076736906 0.019920267 -0.02716169 0.0013351548 -0.104991704 -0.023584148
-0.082577705 -0.029765578 0.035023533 -0.04982104 -0.026711853 -0.02101206 0.042692624 0.01397858
0.15690841 0.031557057 -0.0445585 0.24464117 0.02379877 -0.008936658 0.07130145 -0.028105864
-0.050853167 -0.018164162 0.10947019 0.05550646 -0.031703297 0.024053227 0.05295172 -0.06690444
-0.033294562 0.00900534 -0.092632964 -0.121216215 -0.040919792 -0.0834697 -0.07820682 -0.042919483
-0.0035776263 0.038191993 0.03245005 -0.04184109 -0.034847997 -0.03478301 0.06504003 0.03560589
-0.12055285 0.035968143 -0.019016448 -0.038734876 0.16096775 0.023721159 -0.065609366 0.039128143
00000000: 1423 a43d 74ba 9bbd babb 8ebd 6bcb a03d
00000010: 35bc 25bd f5b4 04be bad3 483d d8df eabd
00000020: 7e8c b2bd 1fe9 3c3d f786 f83c addb 31bd
00000030: fe89 903d 6260 a13d 73ae 2b3c 1147 bcbc
00000040: dbd6 d33b a48f 9cbc a2e5 383d 20bf ba3d
00000050: 8e8c 53bb 299f 283d 2dc0 5d3c 4ba2 5e3c
00000060: 7303 dabd 8a57 abbd b438 8ebd fdea 03be
00000070: a552 cdbd dc13 d13b 38ad 0abe 3554 09be
00000080: 87bc 3dbd b520 9d3c 9988 63bd 5a6b 343d
00000090: d6f1 0e3e ceae b13d 9867 59bd 174b 533e
000000a0: 33b9 723d 980c 1dbd b7bd 733d b0df 6f3d
000000b0: 005f 81bd 9eda 0f3d d9f8 c63d 6638 56bd
000000c0: 721d a53a cb3e 723d 6db9 77bc fde3 29bd
000000d0: 0723 2ebd 5cdd cfbc 32b3 d53d 6555 f33c
000000e0: 10dc 34bd ea6f a33d 3afa ab3d dba7 c13c
000000f0: 701f cd39 0503 ad3c 4551 1dbd 0bac 253d
00000100: 37c6 16bc 182e d33c d63d 923c d03b 9f3d
00000110: c29e b03d 88c3 8dbc ae9b e43d 0332 073e
00000120: dc9b fdbc 0ccd babc 93b3 4c3d bf3b f53c
00000130: 4449 80bd 27bf 043d 24d2 3f3d 4efc 95bd
00000140: 1842 7d3d 6b55 2fbd 4882 cbbd acce 453d
00000150: 76fc 863d de24 7a3d dfa4 1d3d 2641 e93d
00000160: 5c46 6c3d 670c 413d 4f25 01be 7868 293e
00000170: d715 8f3d dc47 23bd 7c27 c53d 50c3 683c
00000180: b601 0fbe fbc0 943d 2ce1 763c 8875 a83c
00000190: 3e18 c63d ba2a f73c fbb5 90bd c55d 413d
000001a0: 3202 c4bd f7a5 b9bd f6c3 90bd 7228 13be
000001b0: cd1c 2abc 3ec7 263d a109 bdbd 4b1e 26bd
000001c0: 78b4 dcbb 1016 2dbd ae99 b23c 8d22 5f3d
000001d0: d569 b3b9 fd44 33be 52d8 f3bd 9b42 433d
000001e0: 8e8e 2fbd 2d37 21bd 88b4 ae3d 0345 a9bd
000001f0: bfef 1dbd e144 803d fff3 453d 09c7 8f3b
00000200: edeb 733d ad09 84bd 1428 cabd 5999 373d
00000210: 86ab 13bd 8d6f 62bd cbdf 2dbd dfdc 893d
00000220: d727 b7bd a14c 7dbd 4f9c b03c 36e0 37bd
00000230: 465b 1e3c 33bd 4b3c bc53 37b9 f79e 50bc
00000240: 3ed3 bfbd 2837 b8bd 9f3e da3b 0ab3 933c
00000250: d012 1fb9 e6e6 8d3d 839d b6bc 7513 39bd
00000260: f309 e53d b26f 70bd 4be5 633d f288 473d
00000270: 9433 aabd 58c1 95bd 847c 87bc 4559 20bd
00000280: 4e2b f9bd 855e bebd 88b2 5e3d 65f8 723d
00000290: 9d34 b23c 2afe 473d f95f d83c 6d37 0dbd
000002a0: a003 a9bd b378 82bd 7d77 afbd 7c2a 6d3d
000002b0: 67f5 6d3d 5416 603c 2aa4 4b3d 7e50 c23d
000002c0: 11ec 93bb 3dfb 06bc 1a84 893d 28a1 7a3d
000002d0: 2841 b9bd d942 65bd 6ac1 bc3c 7aa0 8cbd
000002e0: 2672 bebd 8e56 9a3c 213a 1f3d 10ff 293a
000002f0: db62 6c3c 2390 edbc b63a a8bd 81d4 603d
00000300: b3b1 b3bd 1705 9abd bb39 96bc e61e 84bc
00000310: 9058 27bd 814b fb3b 2dc0 9f3d 5873 da3d
00000320: 92ef 873c 62a3 5e3d 9573 fbbb d42f a33c
00000330: 3182 debc 5c00 af3a e405 d7bd 8b33 c1bc
00000340: 801e a9bd f1d6 f3bc d674 0f3d 2611 4cbd
00000350: d1d2 dabc 7c21 acbc 76de 2e3d 6a06 653c
00000360: 99ac 203e f941 013d f982 36bd 3783 7a3e
00000370: a3f5 c23c 0f6b 12bc 7f06 923d 453e e6bc
00000380: 694b 50bd 02cd 94bc e831 e03d be5a 633d
00000390: 51db 01bd 460b c53c e7e3 583d 3205 89bd
000003a0: e15f 08bd 228b 133c 5ab6 bdbd 3540 f8bd
000003b0: 839b 27bd 29f2 aabd e62a a0bd 57cc 2fbd
000003c0: 9c76 6abb 356f 1c3d 58ea 043d 9061 2bbd
000003d0: c6bc 0ebd a178 0ebd b533 853d 7bd7 113d
000003e0: 6ae4 f6bd 5553 133d 62c8 9bbc 76a8 1ebd
000003f0: bbd4 243e e052 c23c 345e 86bd d544 203d

conv4.bias f4 [8]
0.08527477 -0.051458202 -0.06554441 0.0042333184 0.071109444 -0.046399225 -0.05274424 -0.038962975
00000000: 8aa4 ae3d d6c5 52bd 263c 86bd a6b7 8a3b
00000010: d4a1 913d 1d0d 3ebd 580a 58bd a497 1fbd

fc1.weight f4 [128, 1152]
0.07803869 0.03583188 0.06250367 0.06784221 0.042604573 0.030644558 0.021517608 0.007892855
-0.047533628 -0.07128276 -0.016311077 0.07290418 -0.015212149 0.05316294 0.0063794623 -0.0074293567
0.04390911 0.048162065 0.028674442 0.02963219 -0.0035685303 -0.05665998 0.033477064 0.026372647
0.05027926 0.04592516 -0.0016712714 -0.021096386 0.0019542417 0.015160929 0.02979885 0.049525406
0.019814948 -0.04181367 0.021094339 0.056140076 0.019057257 0.01861554 -0.027619924 -0.003662094
0.032604292 0.06884509 0.02820055 0.039244715 0.024054023 -0.05141275 0.049138255 0.031125989
-0.00889141 -0.028608376 0.011519942 -0.0047658808 -0.0016118597 -0.017246371 -0.084713526 -0.060231257
-0.030177858 0.010817836 0.050899725 0.04794976 -0.048404958 -0.03533055 -0.04273273 -0.052197825
-0.014092543 -0.03188265 -0.15870437 -0.038005304 -0.023012746 -0.04711701 -0.032767713 0.04880787
0.025756195 -0.02871781 -0.0020840454 -0.00625386 0.051490888 0.06313418 -0.03869123 -0.059328865
0.005991802 0.031534918 -0.0054820557 -0.012300876 -0.011453602 -0.013259474 0.0068563614 0.008292164
0.06620078 0.06352529 -0.035707492 -0.121872894 -0.027643114 0.051887058 0.013498234 -0.05272273
-0.045490846 0.044461317 -0.006242818 -0.02596885 0.022856982 0.0006621955 -0.08864709 -0.042526323
-0.013040302 -0.025968187 0.03027535 0.024522142 0.039982367 -0.014802247 0.0034336688 0.0022712953
0.004398602 0.009792296 -0.018480036 -0.068674855 -0.03398652 -0.04567413 0.022138664 0.042610686
0.0008617287 0.021092508 -0.0042606555 0.02657559 0.02853954 -0.042180404 -0.006007278 -0.04433504
-0.0034923377 -0.044288646 -0.007433658 -0.008131085 0.03723022 0.038299702 0.051952288 -0.02488751
0.0629356 -0.05136449 0.0057715494 -0.02167162 -0.0043250453 -0.033946317 -0.035920974 0.01754113
-0.021375485 -0.03377586 -0.020605974 -0.065947436 0.005711494 -0.037543956 -0.005296225 -0.0038724546
0.039554514 0.029568624 0.012873624 0.035529654 -0.021187907 -0.04873352 -0.0022800933 -0.014033217
-0.06529976 -0.044890434 -0.02628541 -0.008231379 0.062058944 -0.02548613 0.0016688729 0.046273753
-0.04958801 0.019013658 0.019193353 0.026774976 -0.020539913 -0.02087479 -0.01518483 0.004613595
0.036306035 -0.0013210726 0.023152694 0.038728587 0.0072408635 -0.0010554814 -0.031329095 0.044261772
-0.025911216 0.0043187016 0.035999324 0.018411554 0.036023192 0.016073573 -0.009393019 -0.04177461
0.009940879 -0.03212123 -0.016574252 0.05482749 0.03637919 0.07372127 0.0067988224 -0.005411692
0.04093677 -0.035883177 -0.018090786 -0.062728494 0.009286675 -0.0036990535 -0.052718848 0.032831423
0.034494344 0.077901654 0.07084838 0.0023423114 0.011042336 -0.014786958 0.03365557 -0.040018383
0.034116577 -0.036515586 -0.0322248 0.0023743638 0.044293936 0.07004479 0.13145743 0.011831472
-0.05236501 0.027910287 0.09027728 0.032759372 -0.0049799536 -0.0014477386 0.03824147 0.0021807197
-0.00835645 0.040525444 0.10905615 0.09107265 -0.027382344 -0.036617696 0.045750696 0.034742847
0.017310025 0.01649746 0.01947036 0.025815502 -0.040734988 0.052114207 0.03920905 0.015881747
0.049400207 -0.00690153 0.008739472 0.013943491 0.03207727 -0.003395174 0.029348133 0.02812179
00000000: c0d2 9f3d 73c4 123d ed01 803d dbf0 8a3d
00000010: 2282 2e3d 4c0a fb3c b245 b03c 0951 013c
00000020: 9fb2 42bd b2fc 91bd cf9e 85bc c94e 953d
00000030: 613c 79bc 62c1 593d cf0a d13b f671 f3bb
00000040: 0ada 333d 9645 453d aae6 ea3c 35bf f23c
00000050: 01de 69bb 4c14 68bd 3f1f 093d 730b d83c
00000060: a0f1 4d3d 051c 3c3d 900e dbba 54d2 acbc
00000070: bc12 003b 8c65 783c b81c f43c 27db 4a3d
00000080: f552 a23c d044 2bbd 09ce ac3c 23f3 653d
00000090: f71d 9c3c 9e7f 983c 2e43 e2bc beff 6fbb
000000a0: 148c 053d a8fe 8c3d d704 e73c 11bf 203d
000000b0: f10c c53c 2d96 52bd 3245 493d eefb fe3c
000000c0: 47ad 11bc 1d5c eabc 24be 3c3c 1b2b 9cbb
000000d0: 0945 d3ba 4348 8dbc 497e adbd 0db5 76bd
000000e0: 8e37 f7bc 4b3d 313c 3b7c 503d f866 443d
000000f0: 4744 46bd c4b6 10bd 8408 2fbd 63cd 55bd
00000100: 69e4 66bc 6297 02bd 6683 22be 73ab 1bbd
00000110: 3a85 bcbc c4fd 40bd 7037 06bd c3ea 473d
00000120: a8fe d23c 9d41 ebbc 7b94 08bb 2eed ccbb
00000130: 1ce8 523d 7e4c 813d b27a 1ebd d302 73bd
00000140: e156 c43b c22a 013d d1a2 b3bb 9d89 49bc
00000150: e4a7 3bbc 443e 59bc 54ab e03b dbdb 073c
00000160: 4694 873d 8c19 823d 0542 12bd 7f98 f9bd
00000170: d073 e2bc 8687 543d b227 5d3c caf3 57bd
00000180: 9c54 3abd 121d 363d 8e90 ccbb a0bc d4bc
00000190: 913e bb3c 3097 2d3a 9b8c b5bd 1530 2ebd
000001a0: fea6 55bc 3cbb d4bc 0304 f83c a9e2 c83c
000001b0: 8dc4 233d 2085 72bc 6707 613b 03da 143b
000001c0: 2622 903b de6f 203c 7263 97bc 67a5 8cbd
000001d0: 7335 0bbd cc14 3bbd 255c b53c 8b88 2e3d
000001e0: a2e5 613a 32ca ac3c f89c 8bbb 0db5 d93c
000001f0: c1cb e93c 5cc5 2cbd b3d8 c4bb a998 35bd
00000200: b4df 64bb 0368 35bd 0b96 f3bb 3e38 05bc
00000210: b77e 183d 26e0 1c3d eccb 543d e4e0 cbbc
00000220: 61e4 803d 9263 52bd 441f bd3b ae88 b1bc
00000230: 1cb9 8dbb 4b0b 0bbd df21 13bd 6ab2 8f3c
00000240: a41b afbc 8e58 0abd dccd a8bc 730f 87bd
00000250: 7c27 bb3b b1c7 19bd f58b adbb 02c9 7dbb
00000260: ea03 223d e639 f23c e5eb 523c 8b87 113d
00000270: 4392 adbc cd9c 47bd 9e6d 15bb 94eb 65bc
00000280: e1bb 85bd 08df 37bd 8054 d7bc e8dc 06bc
00000290: 8531 7e3d 4ac8 d0bc 15be da3a 8c89 3d3d
000002a0: cc1c 4bbd 88c2 9b3c 613b 9d3c 3257 db3c
000002b0: 5243 a8bc 9c01 abbc cbc9 78bc a42d 973b
000002c0: a3b5 143d d727 adba b8aa bd3c dea1 1e3d
000002d0: c444 ed3b 1458 8aba f052 00bd d54b 353d
000002e0: c243 d4bc e583 8d3b 0774 133d d4d3 963c
000002f0: 0e8d 133d baac 833c 2de5 19bc da1b 2bbd
00000300: 12df 223c 8d91 03bd bac6 87bc ca92 603d
00000310: 5802 153d 2dfb 963d a8c8 de3b 9054 b1bb
00000320: 51ad 273d 3dfa 12bd 2133 94bc cc77 80bd
00000330: 2327 183c d26b 72bb b8ef 57bd 3e7a 063d
00000340: f149 0d3d e78a 9f3d f518 913d 7781 193b
00000350: eaea 343c ff44 72bc 6cda 093d 51ea 23bd
00000360: d3bd 0b3d 5e91 15bd 27fe 03bd 379b 1b3b
00000370: 8f6d 353d a573 8f3d c79c 063e cad8 413c
00000380: b17c 56bd 1da4 e43c 4be3 b83d b12e 063d
00000390: e12e a3bb 0cc2 bdba 16a3 1c3d 68ea 0e3b
000003a0: 7ee9 08bc 02fe 253d d558 df3d 4c84 ba3d
000003b0: f050 e0bc 70fc 15bd 1565 3b3d 844e 0e3d
000003c0: c1cd 8d3c ae25 873c 4e80 9f3c 087b d33c
000003d0: bbd9 26bd b575 553d ab99 203d 701a 823c
000003e0: df57 4a3d 3b26 e2bb 0130 0f3c 3d73 643c
000003f0: 7563 033d 9181 5ebb 7f6b f03c ab5f e63c

fc1.bias f4 [128]
-0.0076554627 0.012978404 -0.021702804 -0.00080738927 -0.019062202 0.01219438 0.0017187861 0.024523325
-0.034144904 0.007196176 -0.007910029 0.00025127453 0.035255753 -0.028353652 0.046553012 0.040640686
-0.0075723995 0.038145658 -0.022129443 0.0062113428 0.037896845 -0.027692553 -0.059802227 0.031044897
0.020533456 -0.0069921017 -0.015882712 -0.014967136 0.015624563 0.05714104 0.011150073 -0.03878702
-0.01995756 0.014371626 -0.019970248 0.009250346 -0.04971005 0.030921508 0.00074319396 0.00923245
0.019896148 0.043918684 0.037521005 0.051071115 0.026277581 -0.0076635713 -0.006328787 0.0032831954
-0.0043358877 -0.027042694 0.03928117 0.037077386 -0.008705178 0.025259944 0.0060689407 0.005333409
-0.00070471014 0.012828752 -0.044240072 -0.030166687 0.019146299 -0.04959899 0.015148455 0.0008530942
0.054752428 -0.0131641915 0.038917456 -0.041499153 0.010052756 0.014749868 0.0028737644 0.027162146
0.025397198 0.021275096 -0.01384876 0.011240903 0.023552451 0.027840266 0.014627471 -0.019621693
0.053176895 -0.026331991 -0.041613873 0.010231251 0.03647724 0.010362983 -0.013294992 -0.0044551645
0.015524161 0.047859672 0.013806357 -0.0330868 0.0047236923 -0.014365008 0.00017913588 0.019012233
0.012847312 0.019245135 -0.01028154 -0.016080141 0.022962987 -0.024942718 0.021749983 0.0048639635
-0.004121478 -0.015103265 0.059725318 -0.04143747 0.048222516 0.005091553 0.030877238 0.003906257
0.01138515 0.03735958 0.0128893675 0.010215038 -0.0153474435 -0.00712961 -0.03060709 -0.00986599
-0.047965895 0.027186932 0.037608203 0.0071094134 -0.009402397 0.030705824 0.02120426 0.002282449
00000000: adda fabb 5fa3 543c 14ca b1bc faa6 53ba
00000010: 5628 9cbc f0ca 473c e448 e13a 24e5 c83c
00000020: 87db 0bbd e6cd eb3b 1199 01bc 7fbd 8339
00000030: 5668 103d eb45 e8bc 5fae 3e3d d976 263d
00000040: e421 f8bb 9f3e 1c3d ce48 b5bc 8588 cb3b
00000050: b939 1b3d 7edb e2bc 2ef3 74bd de51 fe3c
00000060: c735 a83c 001e e5bb 761c 82bc b838 75bc
00000070: 2bfe 7f3c b90c 6a3d ccae 363c 23df 1ebd
00000080: 097e a3bc f876 6b3c a598 a3bc c38e 173c
00000090: c49c 4bbd 1a4f fd3c e7d2 423a b443 173c
000000a0: 3ffd a23c 14e4 333d a0af 193d f22f 513d
000000b0: 1544 d73c b21e fbbb b761 cfbb e12a 573b
000000c0: 1014 8ebb a488 ddbc 4be5 203d 75de 173d
000000d0: 2aa0 0ebc f1ed ce3c f7dd c63b e1c3 ae3b
000000e0: 4cbc 38ba b02f 523c 1435 35bd 2120 f7bc
000000f0: b3d8 9c3c 4f28 4bbd 3a31 783c 2fa2 5f3a
00000100: 1544 603d 9fae 57bc e967 1f3d 04fb 29bd
00000110: 51b4 243c 6ea9 713c c455 3c3b 2683 de3c
00000120: c90d d03c 1c49 ae3c e9e5 62bc c42b 383c
00000130: 12f1 c03c 4511 e43c 0fa8 6f3c acbd a0bc
00000140: 04d0 593d 30b6 d7bc 4f73 2abd faa0 273c
00000150: 2969 153d 80c9 293c 3dd3 59bc a1fc 91bb
00000160: 0d59 7e3c 8108 443d 0f34 623c 0686 07bd
00000170: 34c9 9a3b 365b 6bbc 6cd6 3b39 8bbf 9b3c
00000180: 887d 523c f9a7 9d3c e873 28bc 80ba 83bc
00000190: e01c bc3c ac54 ccbc 052d b23c e261 9f3b
000001a0: 770d 87bb af73 77bc 89a2 743d 56ba 29bd
000001b0: f984 453d 0bd7 a63b 43f2 fc3c 0f00 803b
000001c0: c888 3a3c 5c06 193d ed2d 533c fa5c 273c
000001d0: d873 7bbc 819f e9bb b8bb fabc f6a4 21bc
000001e0: e377 44bd 21b7 de3c 0f0b 1a3d 15f6 e83b
000001f0: 830c 1abc c88a fb3c 8eb4 ad3c 2495 153b

fc2.weight f4 [5, 128]
0.085589506 0.017254446 -0.019668315 0.14917871 0.086102374 0.034817774 -0.14156635 -0.051955655
0.10789377 -0.08784792 0.08704253 0.058074865 -0.15795624 -0.14169188 -0.1569655 -0.2508986
-0.014923642 -0.17838784 -0.094076216 0.09827549 0.046108317 -0.08152707 0.0043516667 0.0035072782
0.117364064 0.043527227 0.088293284 -0.16295408 -0.17935662 -0.066207446 0.019077042 -0.034326956
0.11913543 -0.044229858 -0.117352806 0.06804231 0.090268925 0.076767005 -0.058080766 -0.14958806
0.10996863 -0.13229674 -0.10936467 -0.19057964 0.068245664 0.02884339 -0.10190716 0.115238085
0.072138734 -0.15232909 -0.05146035 -0.11289679 -0.16665238 -0.010077269 -0.0035844354 -0.17049083
-0.03158129 0.08747807 0.08186082 0.05950261 -0.09237532 0.09270266 0.10477176 0.08716083
-0.2282307 -0.06135149 -0.09768706 0.12550876 0.14084856 -0.25616172 -0.07283091 -0.0043040384
-0.19593152 0.08775473 0.1285027 -0.13667205 -0.2628782 0.07142098 0.00064797053 -0.11902384
-0.17502777 0.03791978 0.08299448 -0.048110332 0.015686989 0.009418046 -0.107255116 -0.0057269037
-0.11719621 -0.16361843 -0.030216798 -0.011269395 0.16654228 0.036156796 0.06510513 -0.16600925
-0.13765325 0.08112461 0.11603262 0.1335191 -0.17313495 -0.030926041 -0.10564488 -0.1336957
-0.13097802 -0.15858452 -0.094016425 -0.12343747 -0.123829104 0.07692833 -0.16584694 0.075891815
0.0558108 0.0021361944 -0.17905971 -0.1243725 -0.035261847 -0.12341365 0.12518074 0.039351527
0.06659914 -0.11490008 0.04526026 -0.08772192 0.13588524 -0.0575026 -0.07141372 -0.1760876
0.051725574 0.10872879 0.10279619 0.0071836077 -0.13407694 0.12489244 -0.058043186 -0.13789551
-0.025158573 -0.05500608 -0.10252437 -0.11220463 0.048357934 0.017593358 0.04827228 0.03524848
-0.0033594 0.028328585 -0.04733545 -0.09549749 0.03980665 -0.0567049 0.07514181 -0.10659393
-0.042140845 -0.1292936 -0.114302635 -0.059560068 -0.061633963 0.071606904 -0.08554615 -0.073026106
0.005674671 -0.1114613 -0.020071771 0.069797546 -0.17804341 0.1700412 0.026000723 0.082310185
0.053638626 0.099336036 -0.18663655 0.110244215 -0.150648 -0.08861805 -0.10657737 0.080113515
0.04324567 -0.057775136 -0.014803377 -0.09002718 0.037373036 -0.050423227 0.093192264 0.11403385
0.12374219 0.009197266 -0.107921734 -0.12713382 0.02000954 -0.077569 -0.1102597 -0.10749226
-0.13068607 0.07867305 -0.11213803 0.005022406 -0.112217 -0.13193072 0.04905272 0.122696325
0.10518189 -0.1280208 0.09118442 -0.0132379485 -0.0019848 -0.09782836 0.013451202 0.06809984
0.008673442 0.07279627 -0.1037804 -0.0030596694 -0.1578934 -0.11252683 -0.0397082 -0.10014187
0.028999452 0.09507737 0.021432687 0.014975141 -0.009933162 -0.0075069154 -0.0029681092 -0.052535206
0.020310787 0.015481392 0.110879816 -0.062137846 0.07107301 0.073889844 -0.0744042 0.10071109
0.017868863 -0.08315938 0.084081866 -0.098366864 0.04681955 -0.059408627 -0.061501954 0.080457285
-0.18541645 -0.11084968 0.09026833 -0.096841544 0.059361573 0.033809688 -0.033273187 0.1269949
0.039335437 0.10607329 0.04561165 -0.051852483 -0.17332068 -0.13921489 -0.039808575 0.09888496
00000000: 8d49 af3d 3259 8d3c 721f a1bc 4ec2 183e
00000010: 7156 b03d 159d 0e3d c5f6 10be 74cf 54bd
00000020: 69f7 dc3d 9ce9 b3bd 5b43 b23d e9df 6d3d
00000030: 48bf 21be ad17 11be 90bb 20be c875 80be
00000040: 4b82 74bc 4dab 36be 08ab c0bd a944 c93d
00000050: 13dc 3c3d aaf7 a6bd 6d98 8e3b 5dda 653b
00000060: 925c f03d 9b49 323d 1cd3 b43d 6fdd 26be
00000070: 43a9 37be c597 87bd 7547 9c3c 6c9a 0cbd
00000080: 47fd f33d 5e2a 35bd ab56 f0bd c459 8b3d
00000090: eade b83d 0538 9d3d 19e6 6dbd 9d2d 19be
000000a0: 3c37 e13d cc78 07be 96fa dfbd 4f27 43be
000000b0: 62c4 8b3d f948 ec3c b3b4 d0bd f201 ec3d
000000c0: 79bd 933d 28fc 1bbe 17c8 52bd 6f36 e7bd
000000d0: eca6 2abe 211b 25bc d9e8 6abb 2695 2ebe
000000e0: 625b 01bd b427 b33d a5a6 a73d 02b9 733d
000000f0: 462f bdbd e4da bd3d 9492 d63d 6181 b23d
00000100: 4fb5 69be b34b 7bbd 2710 c8bd 5e85 003e
00000110: 9b3a 103e a127 83be 5f28 95bd e408 8dbb
00000120: 46a2 48be c0b8 b33d 3696 033e c2f3 0bbe
00000130: f997 86be 2a45 923d 91dc 293a c5c2 f3bd
00000140: 7b3a 33be c551 1b3d 03f9 a93d 570f 45bd
00000150: 0082 803c 264e 1a3c 92a8 dbbd c0a8 bbbb
00000160: 9104 f0bd 978b 27be 3889 f7bc 45a3 38bc
00000170: 0f8a 2a3e 2619 143d d755 853d 54fe 29be
00000180: f9f4 0cbe a924 a63d 83a2 ed3d 3bb9 083e
00000190: 4a4a 31be 9c58 fdbc 585c d8bd 87e7 08be
000001a0: 1a1f 06be fb63 22be af8b c0bd c9cc fcbd
000001b0: 1d9a fdbd 9a8c 9d3d c8d3 29be 2b6d 9b3d
000001c0: de99 643d 65ff 0b3b 6e5b 37be 02b7 febd
000001d0: ba6e 10bd 4cc0 fcbd 612f 003e 112f 213d
000001e0: 2165 883d bc50 ebbd d362 393d 8da7 b3bd
000001f0: 8025 0b3e d987 6bbd 5b41 92bd 4f50 34be
00000200: 32de 533d 33ad de3d cf86 d23d 7864 eb3b
00000210: 774b 09be 9cc7 ff3d b1be 6dbd 7b34 0dbe
00000220: 5a19 cebc 0e4e 61bd 4cf8 d1bd 8bcb e5bd
00000230: f812 463d f21f 903c 27b9 453d b660 103d
00000240: 6129 5cbb 5911 e83c d1e2 41bd 3094 c3bd
00000250: 4c0c 233d 6643 68bd f3e3 993d eb4d dabd
00000260: e19b 2cbd 8b65 04be 8017 eabd 42f5 73bd
00000270: e573 7cbd a4a6 923d d232 afbd b68e 95bd
00000280: 97f2 b93b d245 e4bd 8e6d a4bc 04f2 8e3d
00000290: 0351 36be 481f 2e3e 78ff d43c 3e92 a83d
000002a0: 2db4 5b3d b170 cb3d a71d 3fbe b8c7 e13d
000002b0: 7843 1abe 617d b5bd 3c45 dabd 8e12 a43d
000002c0: 5f22 313d 9fa5 6cbd dd89 72bc 2c60 b8bd
000002d0: 7814 193d 9688 4ebd 96db be3d 948a e93d
000002e0: 8c6c fd3d 21b0 163c 1206 ddbd 5e2f 02be
000002f0: 0ceb a33c 7fdc 9ebd d6cf e1bd e724 dcbd
00000300: 92d2 05be 561f a13d a0a8 e5bd ff92 a43b
00000310: 07d2 e5bd d918 07be 81eb 483d 3648 fb3d
00000320: 9a69 d73d e217 03be e6be ba3d fbe3 58bc
00000330: 6b13 02bb 3c5a c8bd 6e62 5c3c ee77 8b3d
00000340: 0d1b 0e3c 3616 953d d18a d4bd bc84 48bb
00000350: cfae 21be 7774 e6bd 11a5 22bd 2e17 cdbd
00000360: 4290 ed3c edb7 c23d 9a93 af3c 4b5a 753c
00000370: b3be 22bc 92fc f5bb 9c84 42bb 282f 57bd
00000380: cf62 a63c aaa5 7d3c f514 e33d 4184 7ebd
00000390: ba8e 913d 8f53 973d 3b61 98bd 9e41 ce3d
000003a0: b961 923c 774f aabd 1d33 ac3d 9174 c9bd
000003b0: dbc5 3f3d 7656 73bd 79e9 7bbd cac6 a43d
000003c0: cfdd 3dbe 2805 e3bd 9ade b83d dc54 c6bd
000003d0: 1f25 733d 077c 0a3d 7749 08bd f30a 023e
000003e0: 321e 213d f43c d93d 48d3 3a3d 4563 54bd
000003f0: fa7a 31be 598e 0ebe 510e 23bd 3384 ca3d

fc2.bias f4 [5]
0.06474264 0.037941583 0.04438968 0.0426698 -0.096491866
00000000: ca97 843d a268 1b3d f4d1 353d 87c6 2e3d
00000010: 879d c5bd
