Trained_Weights/STRIDE 3/v3.5 10th.pth (torch, 657362 bytes, 12 tensors)

conv1.weight f4 [32, 3, 5, 5]
00000000: bc79 7e3d 7715 1b3e a3a1 ba3d dcdc 913d
00000010: 7a5b f23c ca51 96bd 8592 5cbd ece6 31bd
00000020: 131c 5c3d 21fb 61bd 5b24 dd3d 36bf 15bd
00000030: 9ef6 1abd 525c 8cbd 7ff0 7a3d 60ee e1bc
00000040: 807e 283d a8cf debc d757 c93d 55f5 123c
00000050: b907 dbb9 9416 8fbd 789c 9d3d 5d25 073e
00000060: bba3 cb3d 5956 4e3b ba13 bbbd cb2d ed3c
00000070: 5bed af3d 2dd4 f33d 2bc0 c03d 43b2 0cbd
00000080: 551e 0a3d 76eb 963d fdf6 fb3d 573a 95bd
00000090: 67cc 543c b221 80bd 1147 afbc 1d87 e0bd
000000a0: 5cf9 943b 58a2 2ebe d8ae 20be 3b96 943b
000000b0: 2b98 0ebe 1ad2 99bd 8ba4 00be 842b 27bd
000000c0: b843 dbbc 3963 30be 4063 ef3d 9f0a a53d
000000d0: e8b1 b4bc f5d4 113e 8670 313e 3fd4 8cbd
000000e0: 8f3d 94bd 3626 b43d 4266 043c 1a7e 293e
000000f0: da55 333d e01a b53c 240c 93bc 60a1 13bd
00000100: d0f5 1bbd e224 153d 0ec4 0cbe 2325 3a3d
00000110: 21c9 363d 01ba 03be 4e70 95bd 8583 f4bd
00000120: 82cc 9dbc aad1 a13c 563e ec39 dd24 533d
00000130: 7a44 f7bc 8c87 e83c 5ddf 51bd 2751 0abc
00000140: 2efc 043c 810a 043e 4ace d6bc 0fb9 5c3c
00000150: 9c4c 9f3d e30b a33d 3016 9f3d 51bf 023e
00000160: 960f 633d a936 adbd d16d 9a3d b9c9 c1bd
00000170: 61b4 82bc 14dc 363d ae8a 54bd 16c2 b33c
00000180: d736 2c3d e49b a03d f8d8 b2bd 7d10 cebb
00000190: 3891 02be 1994 a53d 1b86 d0bd 2e67 c13c
000001a0: 05f2 bd3c dde2 febc 5e23 1b3d 8a06 b73d
000001b0: 5410 e33c 1191 563d 0132 fbbd 56b5 1ebc
000001c0: 2d2e 81bd 0cd3 bdbd fab5 9fbc f989 f5bd
000001d0: e260 1ebd 9d61 c83d 656b b8bd 8acd 81bd
000001e0: 2285 583d c9b4 c13d 9466 61bd 3e4c 2ebd
000001f0: c818 c7bd ed67 bfbb d581 cdbd a583 2ebd
00000200: ae54 d0bc 1bd7 6a3c e7af 4a3d 1936 e8bd
00000210: 6116 dfbd 746e a6bd 5afe 22bd afdf 2dbd
00000220: ba37 ab3d 5878 a43d 8177 24bd 4fff 203d
00000230: d216 aa3d 3e55 913d 56dc 093d 438c 553d
00000240: 1617 9c3d 21df ab3d f8a6 5e3d 5b3e 9dbc
00000250: 05d7 dd3d 24e6 e53d 9db1 00bd 2cf8 77bc
00000260: 1736 a1bc 4148 a7bd 21b8 bdbd 79ea 413d
00000270: 2bc8 a0bc 7991 b13d afe4 9e3c 774c 8d3d
00000280: 8ea5 e4bd 5975 78bd d39f 333d ca30 bfbd
00000290: 5ab0 243c 0098 d1bd 8fc3 2d3c 2253 9dbd
000002a0: 2b44 2e3c d36d 44bd 40cd 2d3a ef43 38bc
000002b0: ed36 05be 5b57 f8bd f8b2 8fbc 7989 d73d
000002c0: a753 dc3d 020e 1d3d 79f5 4bbd 7aa4 403d
000002d0: 33b2 8bbd 10a6 7dbc 9b4e d43d c7c4 313d
000002e0: 9a90 2f3d 0167 643d 571c 5f3d ef31 753d
000002f0: e63c 94bd eac9 1e3d 68b6 953d b53e 803d
00000300: 5484 333d 126a acbb c292 763d 28af 46bd
00000310: 82bc ffbd 7947 1f3d ba96 ca3c 7771 96bd
00000320: a294 ed3d 1faf cb3d 7b6d 37bc a28f acbb
00000330: 5a14 91bd 3f19 163c d85c 69bd 0b60 e93c
00000340: 3d22 12bc a7c0 4ebc 7eb9 68bd 0b8b a13c
00000350: 1ba2 aebd daab d23d 9218 353d 17a3 a03a
00000360: a000 9c3d c43b b83d 2291 d5bc 6dc6 bcbd
00000370: 1def 073d 5b21 543c 4486 08bd e44e 09be
00000380: a4aa 60bd 9442 ddbb ebb7 bbbd 23c6 3bbd
00000390: 14b5 68bd cf44 453d f7f9 8abd e8c9 96bd
000003a0: ccd8 73bd 2f32 1c3d d064 54bd a123 95bd
000003b0: 0754 efbd 7492 9cbd 3316 6d3d 4db8 88bd
000003c0: 0d82 f43b 0fc7 f3bd 1cfa 8b3d 6868 23bd
000003d0: 5d71 7e3d 8508 693d d756 80bd c734 c43d
000003e0: 597b b53d cc29 31bd ff12 d7bd 1e39 823c
000003f0: 37c1 41be a815 4dbe 3642 f0bd 97a5 98bd
0.062127814 0.15144907 0.09112861 0.07122204 0.029584635 -0.07339819 -0.05385067 -0.043433115
0.05373771 -0.055171136 0.1079795 -0.036559306 -0.03783285 -0.06853546 0.06126451 -0.027579486
0.041136265 -0.027198628 0.09831207 0.0089696245 -0.0004177669 -0.06986728 0.0769586 0.13197847
0.099433385 0.0031484573 -0.09134622 0.0289525 0.08590194 0.11905704 0.09411653 -0.03434969
0.033720333 0.07369129 0.12302969 -0.07286518 0.012988186 -0.06256427 -0.021396192 -0.10963271
0.0045463275 -0.17054117 -0.15691698 0.0045345104 -0.13925235 -0.07510777 -0.12562768 -0.040812984
-0.02676569 -0.1722535 0.11688852 0.080586664 -0.022057489 0.14241393 0.1732808 -0.0687642
-0.07238304 0.08796351 0.008081021 0.1655201 0.043783046 0.022107542 -0.017950125 -0.03604257
-0.038076222 0.036412127 -0.13746664 0.045445573 0.044625405 -0.12863924 -0.07296811 -0.11939148
-0.019262556 0.019753296 0.00045059872 0.051548827 -0.03018402 0.028384946 -0.051238406 -0.0084422
0.008116765 0.12894632 -0.026221413 0.013471856 0.07778284 0.079612516 0.07767904 0.12768294
0.055434786 -0.08457691 0.07540477 -0.09462304 -0.015955152 0.044643477 -0.051890068 0.021943133
0.042044487 0.07842234 -0.0873279 -0.0062885867 -0.12750709 0.08084888 -0.101818286 0.02360877
0.023186693 -0.031114036 0.037875526 0.08936794 0.027717747 0.05238444 -0.12265397 -0.009686789
-0.063076355 -0.092687696 -0.019495953 -0.11989207 -0.038666613 0.09784243 -0.09004859 -0.063380316
0.05286134 0.0945831 -0.055029467 -0.04255318 -0.097215235 -0.0058412463 -0.10034529 -0.042606015
-0.025431003 0.014333512 0.04948416 -0.11338443 -0.1089294 -0.08126536 -0.03979335 -0.04244965
0.083602384 0.08030766 -0.04015303 0.03930598 0.08305134 0.07096337 0.033657394 0.052135717
0.07621591 0.08392168 0.054358453 -0.019194772 0.10832027 0.112255365 -0.031419385 -0.015134852
-0.019679112 -0.08168078 -0.092636354 0.04734275 -0.019626698 0.08670325 0.019396154 0.0689935
-0.111643896 -0.060658786 0.043853592 -0.09335478 0.010051811 -0.1023407 0.010605707 -0.07681872
0.01063637 -0.0479563 0.0006630011 -0.011246665 -0.13009234 -0.12126037 -0.017541394 0.10524268
0.10758143 0.038343437 -0.049794648 0.047031857 -0.06821098 -0.015481487 0.10366555 0.043400552
0.042862512 0.055762295 0.054470386 0.059862074 -0.07238178 0.03876678 0.07310182 0.062619604
0.04382737 -0.005261668 0.060198553 -0.048506886 -0.12487127 0.03888652 0.024730075 -0.073458605
0.11600615 0.09945511 -0.011195536 -0.005266146 -0.0708396 0.009161293 -0.05697331 0.02848818
-0.008919296 -0.012619174 -0.056817524 0.019719621 -0.08527013 0.10286684 0.044212885 0.0012255636
0.07617307 0.089957744 -0.026070181 -0.09217534 0.03318702 0.012947406 -0.03333117 -0.13409
-0.054850236 -0.0067523215 -0.09165939 -0.045843255 -0.056813315 0.048161324 -0.06785958 -0.07362729
-0.059532925 0.038133796 -0.051853955 -0.07282186 -0.11685949 -0.07645121 0.0578825 -0.066757776
0.0074617923 -0.11903202 0.06834814 -0.03989449 0.06211983 0.05689289 -0.062665634 0.09580379
0.08861417 -0.04325275 -0.1050167 0.015896376 -0.18921362 -0.20027792 -0.11731379 -0.07453459

conv1.bias f4 [32]
00000000: 1624 80bd 498a 913d 34ea e13d 034d a03d
00000010: 7ff7 f33d 2fef debd f8e7 88bd 4398 623d
00000020: 8059 883c b1fa 983c 51bf b4bc ce92 2d3c
00000030: 6790 0d3d 22e7 f9bd 95fb 143d aa8a c83c
00000040: 6fc7 6fbd d396 5ebd 66f2 583d 1949 c43d
00000050: 9dee dc3d 8da4 ee3d 0fa4 543b 1ddd 123e
00000060: 8427 a8bc 0c03 973d a5c8 f73c c597 ba3d
00000070: e4dd ef3c 4c31 0a3e 06b3 abbd b30c 51bd
-0.06256883 0.07106454 0.11030999 0.07827189 0.119124405 -0.108854644 -0.066848695 0.05532099
0.01664424 0.018674226 -0.022063883 0.010594083 0.03456154 -0.12202288 0.03637274 0.024480183
-0.058539804 -0.054343056 0.052965544 0.09584255 0.10787699 0.11652479 0.003244642 0.1434216
-0.020526655 0.07373628 0.030247042 0.09110979 0.02928061 0.13495368 -0.083837554 -0.0510375

conv2.weight f4 [32, 32, 5, 5]
00000000: ffd3 0dbd e315 82bb 6e82 a5bb 63ef 06bd
00000010: def4 86bd a4d4 08bd c217 8f3c 10d1 6e3c
00000020: 55cd f53b 1a2e c7bc e5c8 623c 666e 8b3d
00000030: 854c 1b3d 811a 4c3c 1975 283b a109 413d
00000040: bdb0 7c3d 3a3c b8bb d3cd c6bc a90f 933c
00000050: f0bd 86bc 5120 2bbc a95d aebc 9cc9 6ebc
00000060: 0e70 adbb 71cb a8bc ee6e 32bb 39ee 29bc
00000070: e0e6 e13b 99c1 543d 7b5f b83c 2148 debc
00000080: fded 09bd 9616 37bb e4e5 25bd 81a6 69bd
00000090: 9815 b4bb f465 36bc dfec 4ebd 1605 88bd
000000a0: fef4 0abd 2f0f f7bc 5e9b 09bd 20c2 d9bb
000000b0: de15 b4bc 305c 2e3c 2735 143d 565e 223d
000000c0: 40a3 113d a0f3 48bd 1f53 b5bc a6bc f6bc
000000d0: f344 503c b695 0b3d 3b29 c23c c558 60bc
000000e0: cb23 003c 3ac5 96ba e4a6 ff3c 1fad 373d
000000f0: 9bfc b4bc 2643 3abc ddf7 4f3d c2f5 463d
00000100: 0fe4 e63c 8300 0ebc 1b02 b1bc 5a72 8cbc
00000110: f44d c03c 5241 c83c fcd9 0bbd 9fe4 99bd
00000120: 3b75 3a3c 91e3 1dbd f393 e7ba a592 283b
00000130: 7f15 6e3d 7b66 9fbb b3fe 1abd 37cf 43bc
00000140: bea9 a03b cfb2 263d ad0a 85bc 9be4 e3bc
00000150: 4a1c ffba b049 843c 146b 023d 2e6a b13c
00000160: 439a 813c 3751 9bbc d3f1 f6ba 70f1 5e3d
00000170: 140e 463d 00bd 2c3c 6a9f c33c 3fca 02bd
00000180: 60cc de3c 7c23 473c ba16 3a3d 4c01 ac3c
00000190: fce9 43bd dbc2 42bd 4184 d63a a2bf 443d
000001a0: cc0b 813d bc4b 53bc 79da 70bd 806f 68bc
000001b0: 248c 073d d5a9 133d 2981 f7bc 14dd 5abc
000001c0: a4ab c9bc ca22 b43c cfbb 983c b84f 24bc
000001d0: 8974 47bd 88e3 3fbb ee62 61bd f3dd 88bc
000001e0: d7da 973c 1283 f3bc be62 393c 5b66 89bc
000001f0: 6151 53bd cf03 d93a 957e 0bbd d897 e33c
00000200: 7499 c43d 16cd 8c3d e172 4bba 305d c83c
00000210: ffb4 1e3d 473a b33d c78b 533d 08af 22bc
00000220: 8d2c e8bb d471 d7bb c4b4 2c3d 35aa 843d
00000230: 5495 ad3c b4b1 613a 1ff1 fa3c 3f5b 733d
00000240: be06 503d facf 583d a70f 9e3d 9f9e 843d
00000250: 580a b83d 56a2 9b3d b054 f1bc 30ab 2dbc
00000260: 2835 523d 2107 c23d 2e95 d33c cd9f 79bc
00000270: d870 2abc 04e6 133d 8af1 9f3d cede a43d
00000280: 76b8 72bc b586 3b3d 11e3 753c 26e9 b63d
00000290: f57a 7e3d 880a 293d 5567 8cba b437 6c3d
000002a0: 64ce 773d e786 153d 4b93 a53d b29a 9f3d
000002b0: 6b4d 9d3d 308f 603d fc29 6f3c 83b5 2b3d
000002c0: a085 c83b 56f9 9ebc d2d1 51bd 13f4 b9bd
000002d0: 82d5 eebc 0fe6 b1bc f020 adbc d467 4abd
000002e0: 94de 3fbd 966c 763c 5449 49bd adff 85bd
000002f0: ee90 83bc 3f23 d5bc d849 3bbc d08e 19bd
00000300: fc5c 3cbd e5f9 37bd 42ca b0bc c554 0abd
00000310: 9c9d b53b 784c d4bc 3eb4 52bd 877b 923c
00000320: b1e1 9aba 4078 873c f99e 6cbc 84d0 8cbd
00000330: 6ed3 71bd 4228 0b3c da00 123d 39bb 4bbc
00000340: a5af 42bd 0983 55bd b40c 463c 7dbc c63c
00000350: 0936 4c3c 3eb3 44bc c35b 9cbd e25f 6fbd
00000360: c74b 0ebd fb02 33bd 1a16 53bd 5320 b2bd
00000370: cfd4 b1bd 5120 d6bd ea9c abbd de77 46bd
00000380: ae08 b3bd ba30 8c3c 5325 173d 09f3 9bbc
00000390: 2699 99bd f80c 2dbd a740 023d f488 34bc
000003a0: 60d1 7ebd 4581 6ebd 1dac 06bd 0968 b23c
000003b0: 0f72 0fbc 3f0c 1ebd c3ba 24bd 5352 30bd
000003c0: 56dd bc3c 478f b8bb b536 09bd 9890 1a3c
000003d0: 916e 36bd 05b3 21bb 9054 0cbd 5be1 1a3c
000003e0: be12 09bd f173 4b3b 0233 57bd 9498 013c
000003f0: d5d5 f63a 3ea4 2f3c bf2a a23c 6785 c2bc
-0.034626003 -0.0039698943 -0.005050949 -0.03294314 -0.065896735 -0.033405915 0.017467383 0.014576212
0.007501284 -0.024313975 0.013841842 0.06808166 0.03791477 0.012457491 0.0025704561 0.047128323
0.06169199 -0.005622414 -0.024268067 0.017951803 -0.016447991 -0.010444717 -0.021284895 -0.014574435
-0.005292899 -0.02060482 -0.0027226764 -0.010371738 0.0068939775 0.05194244 0.022506466 -0.027134003
-0.03367423 -0.0027937046 -0.040502444 -0.057043556 -0.0054957382 -0.011132706 -0.050518867 -0.06641595
-0.03392505 -0.030158607 -0.033595435 -0.006645456 -0.021983083 0.010642096 0.036183503 0.039640747
0.035556078 -0.049060464 -0.022134362 -0.030119251 0.012711751 0.034078322 0.0237013 -0.013693039
0.007821034 -0.001150287 0.03120751 0.044842836 -0.022093108 -0.0113685485 0.05077349 0.048574217
0.028184919 -0.008667114 -0.02160745 -0.01714437 0.023474671 0.02444521 -0.034143433 -0.07514309
0.011380489 -0.038547102 -0.0017667994 0.0025722173 0.05812597 -0.0048645115 -0.037840556 -0.011951259
0.0049030473 0.04069787 -0.016240442 -0.027818969 -0.0019463387 0.016148418 0.0318404 0.021657076
0.015820628 -0.018959625 -0.001884038 0.05442947 0.04835327 0.010543108 0.023879725 -0.03193116
0.027197063 0.012154456 0.04543183 0.020996712 -0.047830567 -0.04754911 0.0016366319 0.048034318
0.06301078 -0.012896474 -0.0588021 -0.01418674 0.033092633 0.036050636 -0.030212956 -0.013358373
-0.024617977 0.021989245 0.018644242 -0.010028772 -0.04869512 -0.0029279906 -0.055025987 -0.016707396
0.018536968 -0.029725585 0.011315046 -0.01677244 -0.05159128 0.0016556921 -0.034056265 0.027782366
0.09599581 0.068750545 -0.0007760954 0.024458498 0.03874683 0.0875135 0.051646974 -0.009929426
-0.007085389 -0.0065748487 0.04216458 0.06477777 0.02118937 0.00086095487 0.030632554 0.05941319
0.05078768 0.052932717 0.07717829 0.06475567 0.08986348 0.075993225 -0.029459327 -0.010599896
0.051320225 0.09474016 0.02582797 -0.015235853 -0.010402881 0.036108032 0.07809742 0.08050309
-0.014814487 0.045782764 0.01500775 0.08931188 0.06212898 0.04126981 -0.0010711948 0.05767031
0.060499564 0.036505606 0.080847345 0.07793178 0.07680782 0.054824054 0.014597412 0.04192115
0.006119445 -0.019406002 -0.05122549 -0.090797566 -0.029154543 -0.021716146 -0.02113387 -0.049415424
-0.046843126 0.015040537 -0.049142197 -0.06542907 -0.016060319 -0.026017783 -0.01143118 -0.037489712
-0.045987114 -0.044916052 -0.021580819 -0.03377225 0.00554247 -0.02591537 -0.051441424 0.017881168
-0.0011816529 0.016536832 -0.014442199 -0.06875709 -0.059039526 0.008493485 0.035645343 -0.012434774
-0.04753079 -0.052126918 0.01208799 0.0242598 0.012464055 -0.012005625 -0.0763469 -0.05844105
-0.034740236 -0.043704014 -0.05153475 -0.086975716 -0.08683168 -0.104553826 -0.08379538 -0.048454158
-0.0874189 0.017113078 0.03690083 -0.019036787 -0.07499914 -0.042248696 0.03179994 -0.01101898
-0.062211394 -0.05822875 -0.032878984 0.021778123 -0.008755221 -0.038585898 -0.040217172 -0.04304726
0.02305476 -0.0056323144 -0.03349944 0.009433888 -0.044539038 -0.0024673354 -0.034260333 0.009453143
-0.03346514 0.0031044448 -0.05253888 0.007909913 0.0018832037 0.010720311 0.019795774 -0.023745252

conv2.bias f4 [32]
00000000: 635f 92bd 3bc8 233d f95e 9cbd e899 8dbd
00000010: 40d5 94ba 8eec 513d d870 f6bc 9d51 e8bc
00000020: bd5e 28bd 84e6 403d 2e44 72bc 19ea b53c
00000030: 226d 20bd 247d 943c c8b1 003d f98f e3bb
00000040: 61dd 933d 2673 403d b700 b33d 6815 103d
00000050: a630 1b3d 72da 913c 2534 5d3d da23 b63d
00000060: 986e 933d d443 703d 2304 19bd 8b81 b4bc
00000070: 66a7 5c3d 8471 01bd a81a 183d 04f6 53bd
-0.071471 0.039985877 -0.07635302 -0.06914121 -0.0011355057 0.051250987 -0.030083105 -0.028359229
-0.041105974 0.047094837 -0.014786763 0.022206353 -0.039166577 0.018126078 0.031419545 -0.006944653
0.07219959 0.046984814 0.08740371 0.035176665 0.03788819 0.017804358 0.054004807 0.08893557
0.071988285 0.058658436 -0.03735746 -0.022034427 0.05387058 -0.031602398 0.037134796 -0.05174829

conv3.weight f4 [32, 32, 5, 5]
00000000: 1729 0e3d 535f 1b3c 0810 613b 5153 35bc
00000010: 8f43 d93c c6b9 a239 18ca fe3a ccb8 ea3b
00000020: 0849 3cbc c038 ab3d 753e a3bc ceb5 e23c
00000030: 3cbb 8dbb 448d 083d 60a2 ec3c 0a5f 163d
00000040: 502e a73c e81e b5bc 7bc8 193d 1fb3 853d
00000050: ad28 783b aeb9 e5bc 1b29 513c b9f9 e0bc
00000060: 76a2 a63d f0fc f73c 8df8 5f3d dc2b 0e3c
00000070: b5e1 86bd 68a1 6fbd e818 82bc 49b8 2f3c
00000080: 49dd 52bc a263 bcbd 3981 88bd bea6 4a3b
00000090: 16e4 4abd dc8e 7bbd e411 eabd 5ad4 65bd
000000a0: 1cfd 563d 5ef7 ce3b 112e 8abd fba0 4cbd
000000b0: 70c9 b5bd 7827 73bb 8a1f 09bd 19d6 7abc
000000c0: ff53 60bd 9f81 9cbd 27a8 4bbd 980d 8abc
000000d0: 65f8 ecbc 8439 8dbc ca41 45bd 6dce c5bc
000000e0: 714e 85bc f659 aa3c 542b 863d 2431 4abd
000000f0: b942 753b 9a1a d4bc 1dd0 b23c c3d3 ea3c
00000100: 95f7 263d 1e8e 43bd 7d71 06bd 2837 acbb
00000110: fd47 de3d a147 4d3d c923 6c3c eb76 5b3d
00000120: d680 173d 1621 9f3d 094f 893d d1f1 5abc
00000130: 6ea1 943c 22de 5fbc eff9 203c bb05 953d
00000140: 0679 9fbc 8766 01bd f362 a43c 5c17 ae3c
00000150: 5085 8d3d f5fa 44bd 828e 713c b292 843c
00000160: e61b cabb b9e0 0d3d 7994 19bd 06fd 123c
00000170: ab22 a33c 8673 633d aa25 9e3d bd0f 173d
00000180: 8e45 123b b0af fcba 2275 053d 18a0 663d
00000190: 10b8 9d3d b391 f93c d272 0dbd 5dc8 b7bd
000001a0: 999d f1bb 8a44 b23d 38cb 423c 4431 f3bb
000001b0: 8511 adbd 0434 59bd 1bc3 d73c 321e 0b3d
000001c0: 24de 3e3d f877 cabd dd61 62bd 6732 863c
000001d0: d6aa 123d 6bc9 afbc cc67 d2bd 8343 a3bc
000001e0: d93a 703d c730 9fbc d752 fcbb 6fa0 dcbd
000001f0: 5a3c c0bd 4e58 4d3d d5e4 8f3c 73ca f9bc
00000200: 1445 83bd e2c5 1dbc ad76 963d 133e c5bb
00000210: 0122 393c 2402 adbd 3d2c 75bd 4223 0c3d
00000220: 0d12 dc3b 9ed3 b43b f0ef dcbb e85b bbbd
00000230: 2d4f 423d 030d 873c 09d2 53bc 0430 93bc
00000240: 6e10 a7bd 950a 6d3d f492 acbc 5001 16bd
00000250: 0f0c b2bd 148d 9fbd df6c babb 4ffa aabc
00000260: 6aa0 8a3c d78c 2bbc 6636 7fba d12f 113b
00000270: 32c9 e63c 5a67 7b3c d8be af3b f6b8 1cbb
00000280: 5978 dabc 4b52 4b3c 29b5 49bd 61b9 db3b
00000290: ab03 1c3d ee66 82bb 638c d03c b213 fcbb
000002a0: c0c5 86bc 95db 833d b5f3 e43b ef0d 153d
000002b0: 6a66 debc c5b0 b43c 3bc9 863d 51e9 c1bc
000002c0: 07c3 06bb 5a49 65bc 1af7 ec3d aaf2 b93d
000002d0: 2fcb b2bc c4de 0e3c 978a 823c 5943 883d
000002e0: 6e33 bd3d 43fd 85bd d941 3ebd 9841 fe3b
000002f0: 00c4 8e3d 9cfe 963d d385 a6bc 1abe 883c
00000300: 4b30 66bc 4019 763d 7db6 de3d 815b 38bd
00000310: ad59 343d c84d 483c b7e7 a33d d547 523d
00000320: cf1e febb a89d 5f3c 4425 6d3c b0a8 aabc
00000330: 6dca 603d c54a f63c 5f39 9fbc b671 123c
00000340: d493 f83c 872f 123d 6600 863c f61a ebbc
00000350: 1305 9b3c 0ab9 87bc b0bb 773d c5c4 293c
00000360: aece babc b149 e73c 14f8 b93c dab2 9b3d
00000370: fee3 91bb cc9a a23c f67c 4fbc 5ada 6e3c
00000380: 363d 943d 5c76 1e3d 6f59 3b3d 18de 7f3c
00000390: e4d8 69bd 537f 97bd eb29 373d 5da7 1e3d
000003a0: 3bae 243d 206d 67bd 07b7 13bd e54d cb3c
000003b0: 03ed 993c db65 1a3d 8bc7 7f3c 426f a1bd
000003c0: e748 8c3d dc47 ca3c 85dc a43c 009b 01bd
000003d0: 5579 f6bd 12de 283d 7c60 d9bb cb2e 13bd
000003e0: 7990 debd 4e02 06be 2502 cb3a 2a0d 6cbd
000003f0: 45e2 29bd ba17 93bd ed87 8fb9 98ef febb
0.034707155 0.009483176 0.003434183 -0.011067227 0.026521472 0.0003103746 0.0019438891 0.007163143
-0.011492021 0.083604336 -0.019927243 0.027674582 -0.0043252986 0.033337846 0.02888602 0.03671173
0.020407826 -0.022109464 0.03754471 0.06528305 0.0037866042 -0.02804264 0.012766148 -0.027462827
0.08136456 0.030271977 0.054680396 0.008677449 -0.06586019 -0.05850354 -0.015881017 0.010725089
-0.012870141 -0.09198691 -0.06665272 0.003092214 -0.049533926 -0.06141554 -0.114291936 -0.056110717
0.052487478 0.0063161096 -0.06747068 -0.04995821 -0.08876312 -0.0037102383 -0.033477344 -0.015309834
-0.054767605 -0.07641911 -0.04972091 -0.016852185 -0.028927037 -0.01723934 -0.048158444 -0.024146283
-0.016272755 0.02079485 0.06551233 -0.04936327 0.0037423803 -0.02589159 0.021827752 0.028665429
0.040763456 -0.047742955 -0.032823075 -0.0052555986 0.108535744 0.05011714 0.014412829 0.053580206
0.036988102 0.077699825 0.06704528 -0.013363318 0.018143382 -0.0136638 0.009825214 0.072764836
-0.019466888 -0.03159192 0.020066714 0.021251373 0.06910193 -0.048090894 0.014743449 0.016183231
-0.0061678765 0.03463814 -0.03749511 0.008971458 0.019913992 0.055530094 0.077220276 0.036880244
0.002231929 -0.0019278433 0.03258241 0.05630502 0.07701123 0.030464983 -0.03453333 -0.08973763
-0.0073735234 0.08704479 0.011889271 -0.0074216444 -0.08450607 -0.05302812 0.02633815 0.033964343
0.04659857 -0.098861635 -0.05526911 0.016381456 0.035807453 -0.021458348 -0.10273704 -0.019929653
0.05864987 -0.019432439 -0.007700305 -0.10772788 -0.09386511 0.050133042 0.01756517 -0.030492043
-0.0640966 -0.0096296985 0.07346854 -0.0060193627 0.011299611 -0.08447674 -0.059856642 0.034213312
0.006716019 0.005518391 -0.00674247 -0.09148389 0.04743879 0.016485697 -0.012928494 -0.017967232
-0.081574306 0.05787142 -0.021066166 -0.036622345 -0.08693706 -0.077905804 -0.005689248 -0.02087131
0.016922195 -0.010470591 -0.0009735584 0.0022153745 0.02817211 0.015344465 0.0053633265 -0.0023913956
-0.026668714 0.012409757 -0.049245033 0.0067054485 0.038089436 -0.0039795553 0.025457567 -0.0076927776
-0.016451716 0.06438366 0.00698706 0.03639024 -0.027148444 0.022056947 0.065813504 -0.023670824
-0.0020563023 -0.013994539 0.115705684 0.090794876 -0.021825401 0.008720104 0.015935225 0.066534705
0.09238325 -0.065424465 -0.046449516 0.007759284 0.06970978 0.07372782 -0.020327484 0.01669221
-0.0140496 0.060082674 0.108746506 -0.04500914 0.044030834 0.012225576 0.080031805 0.051338036
-0.0077551375 0.013648428 0.014474217 -0.02083239 0.05488055 0.03006495 -0.019436536 0.008938244
0.030343927 0.035689857 0.016357612 -0.02869938 0.018923318 -0.016567726 0.060481727 0.010361855
-0.02280363 0.028233381 0.0227013 0.076024726 -0.0044522276 0.019849204 -0.01266407 0.014578426
0.072382376 0.038687095 0.045739587 0.015616916 -0.05709161 -0.07397332 0.04471771 0.03873383
0.04020522 -0.056500554 -0.03606322 0.024817416 0.018789774 0.037694793 0.01561154 -0.07882549
0.068498425 0.024692468 0.020124683 -0.03164196 -0.12034861 0.041227408 -0.0066338163 -0.035933297
-0.108674 -0.13086817 0.001548831 -0.05762974 -0.041475553 -0.0718226 -0.00027376358 -0.0077800266

conv3.bias f4 [32]
00000000: e62e f7bd ff86 96bd 7da9 523d dd05 9cbb
00000010: 8116 e23d 1285 663d 7b84 38bd 4108 e3bd
00000020: 2bcd 02bd af4b b8bd 9163 31be ca70 bc3d
00000030: 09ae 5bbd ab90 d43d c3ab 243e 893b 813d
00000040: 85c9 71bd b229 8dbd 659d c9bd 8eea 5dbc
00000050: c64c 70bd 3eee eabc 1fde 18be 792b 743d
00000060: ec18 ac3d f033 ebbd 281a 5e3d b38b ad3d
00000070: 37f9 bbbc ef17 ad3d 8eb8 113e 9c8b 813d
-0.12069492 -0.07349967 0.051431168 -0.004761441 0.110394485 0.05627925 -0.04504822 -0.11085559
-0.031933945 -0.089988105 -0.17323138 0.092012 -0.05363277 0.10379156 0.16081147 0.063101836
-0.059030075 -0.068927184 -0.09844474 -0.013544692 -0.058666967 -0.028678056 -0.14928482 0.05961177
0.08403191 -0.11484516 0.054224163 0.08473911 -0.022945983 0.084518306 0.14230558 0.063254565

conv4.weight f4 [8, 32, 5, 5]
00000000: 082c 353d 30a9 7cbd 6df8 a1bd 0f45 50bd
00000010: 8200 353d 2484 1f3c 4157 20bd 412a 26bd
00000020: 2133 80bd da45 75bd c057 5f3d 9e18 2fbc
00000030: d149 1fbd 8587 84bc b6f6 e13b 35a4 743d
00000040: faa7 e83c 6928 c5bc 4e9b d4bc b1cf 47bc
00000050: 5797 783d a6ea 253d b209 203d 28d5 843d
00000060: 6bac b3ba b2d8 923d c913 92bb 2d15 e8bc
00000070: aa20 a9bd 5147 caba b4fd 083d aa0f c3bc
00000080: 0b4a 27bd 7cc4 a5bd ca9f 5bbd de3a 323d
00000090: 3bd9 1d3d 4358 ccbc 76d0 08bd a317 a03c
000000a0: c978 ec3a f20a d63c 9a66 783b eb18 e63c
000000b0: 687c 1d3c e087 35bd e107 4c3d 355f a83d
000000c0: da99 aa3d e0d6 e03d 7573 f939 518b ceba
000000d0: d94c 583c 4505 cb3d d508 c73d b342 db3c
000000e0: 8296 5a3c 954d c83c 6b44 803d c8f2 813d
000000f0: 1ff9 5a3c b23b efbb 1a43 25bd fc57 3f3c
00000100: cb3e 1dbd 13bf 903d 3cac 01bd e477 75bd
00000110: 1b5c 76bd 2630 babd d594 a1bb ff30 2bbd
00000120: 208e 82bd b178 8abd 3613 febd eabc f5bc
00000130: 736c df3b 195b 8b3d 2059 86bc 0d56 f6bc
00000140: 094b ee3b 8bb5 74bb be3d 43bd 8f4d 53bd
00000150: 5f0e c2bb 2291 eabc 5f3d 9cbd ce13 84bd
00000160: 57b8 12bd e558 8ebd 9491 063d f56b 25bb
00000170: 4455 95bd c3d4 1bbd 6335 8abd 4291 8cbc
00000180: dffc 3cbd 6386 67b9 8d54 0fbd 9361 5abd
00000190: 70b1 003d 3dad 113d 9cf1 933d f823 783d
000001a0: 6738 253d edf8 243d e10e 683c 71a3 7c3d
000001b0: 204c 5d3d f49d 8bbc 3ae6 ccbc e541 c3bb
000001c0: 548a 153c a5ad 753c e6e8 c5bb 303b dfbc
000001d0: db1c aabc 0279 3dbd e041 8bbd 25d9 88bd
000001e0: 6ae8 f8bc 928b 27bd e0bb 0cbd 9d40 74bd
000001f0: 93c9 19bc 945e 15bc 2a5f 253d b647 ba3d
00000200: 8fa0 c43d 5357 313c 57e1 6e3c db26 1c3d
00000210: 28fb d33d ea60 613b c56f e13c 3e3c a2bc
00000220: 55c2 d03c 90d3 993c f839 6ebc 6a71 c23c
00000230: 3674 31bc 2884 14bd cf16 9cbc a3cb 06bc
00000240: f59d 063c 3b92 193c 7c16 9dbd 40b6 69bd
00000250: 2b42 75bd 936b 84bd cec7 a23b cdad 1ebd
00000260: 97be 54bc 4767 96bc b446 813d a3ce 333d
00000270: 2250 55bd d0ad b2bd d6dc 96bd 29c1 1dbd
00000280: afd3 0d3d 4e5c b6bb c95a dcbd a363 bfbc
00000290: 1e1e cc3b 66cb a03d f214 053d b17a 19bc
000002a0: 78f9 3abc 3640 613d 8c65 273d 309c 033d
000002b0: 62d7 f03c ba1d b13c 780d a83d 61cd 08bd
000002c0: 82cb 9fbc 025e 48bd a2b0 86bd 323e 7cbb
000002d0: 0d9d 85bd 0825 76bd ef55 85bd 742f 62bd
000002e0: 3497 a2bd 33d7 0bbd f1de 70bd b747 13bc
000002f0: 97eb acbd a70b 88bd aae6 1cbd 75f2 f03c
00000300: 6eac febc 056f 0f3c b55c 90bc 5d7b b9bc
00000310: 759a debb d365 ce3c 1921 253d 2389 883d
00000320: aae7 79bb 9808 74bd 7bf2 bdbd bdf2 99bd
00000330: dc9d 86bd 744c e2bc b2c9 d6bc 5966 d2bc
00000340: 3220 2ebc 613b d8bc f331 403c 483a 24bb
00000350: 36ac 313d 9b34 3d3d 75ef 293d bc53 6ebc
00000360: c8f8 923d cb76 713d d346 9c3a d80c 35bc
00000370: 1d9c 02bd 8000 f73c bc40 263d 0718 bbbc
00000380: 18a0 08bd 2892 233d eacc 22bc e8b2 f5bb
00000390: c9f8 b33c 6413 3c3d dc9b 883c 66f3 27bd
000003a0: d3d3 74bd 9997 26bd b74e 5fbc 896e 413b
000003b0: 6b0f 79bc 3e68 23bd dc54 3fbd 1995 02be
000003c0: 4fe7 f53b ffb3 17bd 96e5 b8bb f979 56bd
000003d0: 6e64 c8bd 2936 073d ee9e 063d 9d47 a33c
000003e0: c21b d8bc 3cf8 30bc f9e3 613d 1aee 033c
000003f0: d3d3 e83c f2eb debc a71a 97bd 6869 e03c
0.044231445 -0.061684787 -0.079087116 -0.05084711 0.044189937 0.009736095 -0.03914571 -0.04056764
-0.06259752 -0.05988107 0.054527044 -0.010687022 -0.038888756 -0.016177902 0.0068958653 0.059726913
0.02840041 -0.02406712 -0.025952961 -0.012195514 0.060691204 0.04050698 0.039071746 0.06485969
-0.0013708001 0.071702376 -0.004457925 -0.02833041 -0.08258183 -0.0015432631 0.033445075 -0.02381118
-0.040842097 -0.08094117 -0.053619184 0.04351317 0.038537245 -0.02494443 -0.03340193 0.01954252
0.0018041368 0.026128266 0.0037902952 0.028088054 0.00961218 -0.044319034 0.0498122 0.08221284
0.08330126 0.10978484 0.00047579003 -0.0015758072 0.013201916 0.099131145 0.097184815 0.026765203
0.013341548 0.024451056 0.0626305 0.06345135 0.013365059 -0.0073008174 -0.040347196 0.011678692
-0.038389962 0.070676945 -0.031658396 -0.05992879 -0.060146432 -0.09091215 -0.0049310722 -0.041794773
-0.063747644 -0.06761301 -0.12406008 -0.029997308 0.006818348 0.06804485 -0.01639992 -0.03007033
0.0072721285 -0.0037339653 -0.047666304 -0.051587638 -0.0059221233 -0.028633658 -0.07628893 -0.0644909
-0.03582033 -0.06950549 0.032853678 -0.002524135 -0.07291654 -0.038044702 -0.06748464 -0.017159108
-0.046139594 -0.0002207994 -0.034992743 -0.05331571 0.031419218 0.035565604 0.07223818 0.060581177
0.040336993 0.040276457 0.014163704 0.061679307 0.054027677 -0.017043091 -0.025012124 -0.005958783
0.009127218 0.014995013 -0.0060397265 -0.027249902 -0.020765712 -0.04625798 -0.06799674 -0.06682042
-0.030384261 -0.04090459 -0.03435886 -0.059631933 -0.009386438 -0.009116787 0.04037396 0.09095709
0.096009366 0.010824042 0.014580092 0.038122993 0.10350639 0.003439004 0.027519116 -0.019804116
0.02548329 0.018777639 -0.014540188 0.02373572 -0.0108309295 -0.036258847 -0.019053845 -0.008227262
0.008216371 0.009373243 -0.07670304 -0.057058573 -0.059877556 -0.06465831 0.004967666 -0.038739968
-0.012984893 -0.018359793 0.06312314 0.043898236 -0.052078374 -0.08724558 -0.0736634 -0.03851429
0.034625705 -0.005565203 -0.107595034 -0.02336294 0.006229176 0.07851295 0.032490678 -0.009367631
-0.011412017 0.054992877 0.040868327 0.032131374 0.029399578 0.02162062 0.08205694 -0.03339899
-0.01950622 -0.048917778 -0.06576659 -0.003848922 -0.06524096 -0.06009391 -0.06510531 -0.055221036
-0.07938996 -0.034140777 -0.058806363 -0.008989266 -0.08443373 -0.066428475 -0.038305916 0.029412488
-0.03108808 0.008754496 -0.017622331 -0.022641832 -0.006793315 0.025195038 0.040314768 0.06666782
-0.0038132467 -0.05957851 -0.09274765 -0.07517002 -0.06573078 -0.027624346 -0.026219223 -0.025683569
-0.010627793 -0.026395502 0.011730659 -0.0025059152 0.043377124 0.046192747 0.04148813 -0.014546331
0.071763575 0.05895118 0.0011922963 -0.0110504255 -0.031887162 0.030151606 0.04058908 -0.022838606
-0.033355802 0.039934307 -0.009936551 -0.007498134 0.021969216 0.04591693 0.016675882 -0.041003607
-0.059772324 -0.04067192 -0.013629607 0.0029515347 -0.01520143 -0.039894335 -0.046711788 -0.12752189
0.007504381 -0.037036892 -0.005642603 -0.052362416 -0.097847804 0.033010636 0.03286641 0.019931609
-0.026380423 -0.010801371 0.055149052 0.008052373 0.028421318 -0.027212117 -0.073781304 0.027394012

conv4.bias f4 [8]
00000000: 93f6 3b3d 93bd 123c 6691 b5bd 4987 c4bc
00000010: 1ce2 01bc 2371 1f3e a9bc d83c f179 18be
0.04588945 0.008956331 -0.08865623 -0.02399029 -0.007927444 0.15570502 0.026457148 -0.14890267

fc1.weight f4 [128, 800]
00000000: 0e82 213c a5aa 06bd ea1d 5f3d 30ac 013e
00000010: 8531 003c d851 5c3d f034 1b3a 3ba3 61bd
00000020: 1288 98bd 9c7f 98bb ff20 f4bb 87f2 93bd
00000030: 8154 86bd 8af3 afbc 400c f2bc 891d 06bd
00000040: efc7 82bc c9f0 f4bb 591e ecbc e10a 95bc
00000050: 0a61 da3b eb1d 6bbd 3f66 69bd c2c0 80bd
00000060: 937b 72bc b5c3 31bc 4b78 ba3c 6e7a 0b3d
00000070: ff9a 02bd ceaf 933d 3231 f8bb b22b 503b
00000080: 1ec8 883c 3b99 60bd 5ea0 57bd 1fcc 1ebb
00000090: f5d3 52bc 60b6 62bd a707 68bc ac9b ab3d
000000a0: 364c 233d eb3c b63b b8da 2a3c b433 223c
000000b0: 3aca 03bd 6b53 953c cf59 393d 9848 d73b
000000c0: f2f3 fd3a cd70 2e3d cf3c 413d aecf 14bd
000000d0: 3d61 733c 6d67 48bb 05cb 2bbd e5ba 1c3d
000000e0: cb15 d03c 8b04 ef3c 1d7f 05bd 8f8e 213d
000000f0: 9ac1 a3bc 3574 a8bc bfe0 973c 58e4 44ba
00000100: b51a babd cf44 c2bc c63f 033b 12e7 3a3d
00000110: 82b4 7abb 44d2 593d 2ce0 85bd d699 31bd
00000120: 207c d43c 475b 96bd bdfa 6abb 53e7 2a3d
00000130: e598 03bd a9be 43bd 9c94 983d 4c0b 39bc
00000140: a43e 6ebd 8249 21bd 97a2 1fbd 9ca7 d2bc
00000150: cbb3 483d 8204 323d a736 073c b252 aebd
00000160: 5fc4 26bd f607 883d c8a3 563d 14ab 373d
00000170: 4cdd 88bd 3a53 573d 5710 8d3c f424 923d
00000180: f4b4 9a3d d14e 6b3d b15e 07be 4de4 6bbd
00000190: e247 853c d575 85bc 6a6b 25bc f535 a4bc
000001a0: ff10 58bd 0339 23bb 05d5 fb3d 2e1a 623d
000001b0: a005 9f3d 6d3a 2e3b 686f 2ebb 6e75 c0bc
000001c0: 1594 e43c 67fc b33c 9d5b 753d 58ed e03c
000001d0: 7f8c 4a3c a508 1d3d b0bd 0f3c 4bc9 febc
000001e0: be9a aabc d424 f33c dc65 b63d 44ef 3e3c
000001f0: 42c6 96bc 5250 2f3b 7dfb 993c ca5a 90bc
00000200: 1503 e3bc 4ab2 94bd 1dea 813c f6b9 0d3c
00000210: 60b7 273d b371 613c 0619 d93c be73 e43d
00000220: 22af bc3d 4596 7b3d edef 423d 5563 b0bc
00000230: b53d 963c 96ee 063d 9071 903c 2ffb 343d
00000240: 9920 823d 717a 17bb 6939 6a3d b0a9 863d
00000250: 80f2 123d 1191 43bd 7a37 57bc a946 823b
00000260: ed81 b33c a58e b63b aafb 8e3d 7738 bd3b
00000270: 1908 973d 3370 ee3d 5be1 fa3c bac5 58bc
00000280: a7a4 bcbc cb6b 9abd 178a 573d 8f32 233c
00000290: de1e a83d a005 be3c 556e 9b3c 8490 a43d
000002a0: 0518 b73d fd4e 243d ff3a a6bc 2521 bd3c
000002b0: c8ae b63b 1e1f c53d 8e95 763c b77b 93ba
000002c0: 4372 b63d b913 e63c 4108 843d e5ff ae3d
000002d0: c5fe b83b fa06 d3bc 214b 3a3d c408 ebbc
000002e0: f44a 35bd 26ec 0a3d b008 d53d bf30 a83d
000002f0: dc29 003d 07e4 323d 8f05 67bd 0ad8 e4bc
00000300: 4a2f 61bd 3646 debc 3467 db3c 5e2a 94bd
00000310: 7428 e53b 722c 233c e4d7 383d cc2e b23c
00000320: 68bd 4439 45fb 423d edd8 853d 55ea 563c
00000330: d099 a1bb fa3c aa3d d0b6 723d 48ba 81ba
00000340: 03f4 26bd af27 9a3b a95a 003d 0f1e eebc
00000350: 2724 c13d 2ee0 dfbc 876b f4bc 937c a93d
00000360: f8b4 543c 05ee 69bd fdd3 02bd 1161 46bd
00000370: a7e0 bfbc 47bb c9bc 43b2 dd3c 0920 803c
00000380: c298 9d3b 81f6 2c3d 6528 7fbc b32f c8bc
00000390: 2a5a 9ebd 270c 09bd 7e20 4d3b 95af 1fbd
000003a0: 404c 03bd 44e0 8c3d 4e07 b93d 10b8 12bd
000003b0: 001c afbd 63d3 1b3d ae26 3cbc 664b 833c
000003c0: 8ff5 5cbd 31eb dabc f563 eb3c ca05 113c
000003d0: b9b3 303d d7ae 9dbc 8698 54bd 07c8 bcbc
000003e0: 2ab0 f6bc e5ef f73c 3db1 8fbc 99e8 d7bc
000003f0: a4ca cabc bb1c c8bb 3438 9d3d a79e 4e3d
0.009857668 -0.032877583 0.054471888 0.1266334 0.007824306 0.05378899 0.0005920669 -0.05508731
-0.07447828 -0.004653884 -0.0074502225 -0.07223993 -0.065590866 -0.021478433 -0.029546857 -0.03274301
-0.015964476 -0.007474993 -0.028823065 -0.018193664 0.0066644 -0.05740158 -0.056982275 -0.06286766
-0.01479997 -0.010849883 0.022762438 0.034052305 -0.031886097 0.072112665 -0.007574224 0.0031764326
0.016696986 -0.054833632 -0.052643172 -0.0024230552 -0.012867917 -0.055349708 -0.014161981 0.083793014
0.039867602 0.005561461 0.010428123 0.009900022 -0.03217528 0.018228253 0.045251664 0.006569933
0.001937507 0.042588044 0.047177132 -0.03633087 0.014854726 -0.0030579225 -0.04194166 0.038264174
0.025401017 0.029176971 -0.032591928 0.039442595 -0.019989777 -0.020563224 0.018539784 -0.00075108325
-0.09087125 -0.023714451 0.0020027026 0.045630522 -0.0038254564 0.05317904 -0.06536898 -0.0433596
0.025938094 -0.073416285 -0.0035855018 0.041724514 -0.032128233 -0.04778925 0.0745022 -0.011294197
-0.058165208 -0.039376743 -0.038973417 -0.025714688 0.04899959 0.04346133 0.008252776 -0.08511867
-0.040714618 0.066421434 0.052402288 0.044840887 -0.06682834 0.052569605 0.017219706 0.071359545
0.07554045 0.057448212 -0.13219716 -0.05759077 0.016269628 -0.016291538 -0.01009641 -0.02004526
-0.052750584 -0.0024905808 0.122964896 0.05520075 0.07764745 0.0026585117 -0.0026616696 -0.023493495
0.027902642 0.02197094 0.059901822 0.027456924 0.012362598 0.038338322 0.008773252 -0.031101843
-0.02082574 0.029680647 0.08906147 0.011653725 -0.018405084 0.0026750755 0.018796677 -0.017621417
-0.02771143 -0.072605684 0.015858704 0.008650294 0.040946364 0.013760018 0.02650119 0.111548886
0.092130914 0.061422605 0.047592092 -0.02153174 0.018339971 0.032942377 0.017632276 0.04418486
0.06353874 -0.0023113752 0.057183657 0.06575334 0.035875797 -0.047745768 -0.013135785 0.0039757085
0.02191254 0.005571204 0.06981595 0.0057745534 0.073745914 0.11642494 0.030625036 -0.013230735
-0.023027731 -0.07540091 0.052621927 0.009960785 0.082090124 0.023196042 0.018973509 0.08035377
0.08940128 0.04011439 -0.020291803 0.023087094 0.005575035 0.09625076 0.015050305 -0.001125208
0.089085124 0.028085576 0.06446887 0.08544902 0.0056456053 -0.025760163 0.045481805 -0.028690703
-0.044260934 0.033916615 0.10402048 0.082124226 0.03128992 0.043674495 -0.056401785 -0.027935047
-0.05497674 -0.027133089 0.02678261 -0.072346434 0.006993348 0.009959327 0.045127764 0.02175083
0.00018762576 0.04760291 0.06535516 0.013117393 -0.004931666 0.083124116 0.059256375 -0.0009897435
-0.04076005 0.0047044377 0.03133646 -0.029067067 0.09430724 -0.027328577 -0.02983643 0.08275714
0.012982599 -0.05711176 -0.03194045 -0.048432413 -0.023422552 -0.024625434 0.02706254 0.015640276
0.00480947 0.042227272 -0.015573596 -0.024436807 -0.07732041 -0.033458855 0.0031299884 -0.038985807
-0.03205514 0.06878713 0.090345964 -0.035820067 -0.085502625 0.03804339 -0.011483831 0.016027164
-0.05394512 -0.026723476 0.028734187 0.008851478 0.043140147 -0.01924841 -0.05190327 -0.0230446
-0.030113298 0.030265758 -0.017540568 -0.026356028 -0.02475483 -0.0061069406 0.076767355 0.05044427

fc1.bias f4 [128]
00000000: 3777 19bd 22c5 81bc 07c0 6cbd d4ad 273d
00000010: 3eeb 7ebc afda b33c cdc4 3fbd 0257 adbc
00000020: 78dd 2bbc 9df0 48bc 2ad1 b83c 763c 833d
00000030: d2c0 c03c a611 833d 8e84 d23c 77fe 863c
00000040: dc41 61bc e458 383d b063 553d e70f 6ebc
00000050: 5bf0 323a 6d74 bcbb dd27 a2bc 5f25 563c
00000060: d16e 87bc 519a 793d d0c0 2dbd be81 933b
00000070: 03d1 eebc 38f1 4b3d b4f3 7b3d 9473 813c
00000080: 4c2c 28bd f3f0 a3bc 6701 a13d 9f7a 27bd
00000090: 1eef 0fbd 0772 0ebd c33c 85bc bae5 2c3d
000000a0: 7337 febb ff2b 47bc a34b 7dbb 5e8d 893c
000000b0: 5b05 3abd 2e6f 35bc 1262 a9bc 6c34 92bc
000000c0: acd6 1ebd dec3 413d 9bd7 2d3a e95a a1bc
000000d0: 54fb 843c 77fc 7d3d 1bba 58bd 3213 113c
000000e0: e474 46bd 18da 943d cdeb 59bd 910e 0dbd
000000f0: ad13 e4bc 00e0 d9bc bd6e 91bc 9159 51bc
00000100: 3a62 05bc 2b77 22bc 4907 c4bc 4323 2d3d
00000110: fc5e 31bc 3c4c 2bbc b76a 643c b7d7 3b3c
00000120: 6240 813a 5629 e43c 9278 cc3c 7f72 8fbc
00000130: 12d0 9ebd aab1 5f3d 207f 753d 616b 37bd
00000140: 61b4 7bbc 4f43 283c ee90 6fbc c123 0b3b
00000150: 8e64 8ebd 8c21 803c a835 44bd 4003 5f3d
00000160: ef2c 123d 726b bfbc 2017 9d3d 8430 8d3d
00000170: a424 8f3c 2b4e 1cbd 7ee0 c83c df2a cb3c
00000180: db13 37bc 475c 34bb 99ed ecbc 0069 b7b7
00000190: 1c5d 5abb 6815 053d abad 72bc b7e0 c83c
000001a0: 2541 533c 9844 863b cf91 60bd 6c1f 8ebc
000001b0: e337 0dbd 8eb1 aaba a2a5 86bc fdd4 26bd
000001c0: 4924 093c da99 05bd 9438 0ebc 421c 3a3d
000001d0: 99d3 f3bc 8d9b 91bc 5ff7 fb3c 00a8 8bbc
000001e0: 855a 81bc e79e d93c b20b a3bc 9780 993c
000001f0: 0fe9 e4bc 5c45 933c bbe8 ecbc 08a4 bf3c
-0.037467208 -0.01584107 -0.05780032 0.04093726 -0.015559016 0.021954862 -0.046818543 -0.021159653
-0.010489814 -0.012264398 0.022560675 0.064080164 0.023529444 0.063998505 0.025697973 0.01647876
-0.013748612 0.045006648 0.052097023 -0.014530159 0.0006825977 -0.0057511837 -0.019794399 0.013070433
-0.016532334 0.060938183 -0.04242021 0.0045015505 -0.029152399 0.04979059 0.06151171 0.015802182
-0.04105787 -0.020012354 0.078615956 -0.040888425 -0.03514015 -0.034776714 -0.016264325 0.04221127
-0.007758075 -0.012156486 -0.003864982 0.016791042 -0.045415264 -0.011073871 -0.020676646 -0.017847262
-0.038778946 0.047305934 0.0006631554 -0.01969667 0.016233124 0.062008347 -0.05291186 0.008854674
-0.04845132 0.072681606 -0.053203393 -0.03443772 -0.027841413 -0.02659607 -0.017753 -0.012777702
-0.008141095 -0.009916107 -0.023929255 0.042269956 -0.010825869 -0.010455187 0.013941458 0.011465005
0.0009861107 0.027851742 0.024959836 -0.01751065 -0.0775453 0.054612793 0.05993569 -0.04478014
-0.01536283 0.010269954 -0.014621956 0.0021231028 -0.06952773 0.015640996 -0.047902733 0.05444646
0.035687383 -0.023366664 0.07670426 0.06894019 0.017473526 -0.038160484 0.024521109 0.024800716
-0.0111741675 -0.0027520822 -0.02892189 -2.1864194e-05 -0.0033319658 0.032491118 -0.0148119135 0.024521215
0.01289395 0.0040975325 -0.054826554 -0.017348967 -0.034477126 -0.0013022886 -0.016436402 -0.040730465
0.008370467 -0.032617427 -0.008680481 0.045437105 -0.029763984 -0.017774368 0.030757604 -0.017047882
-0.015790233 0.026565028 -0.019903038 0.018738074 -0.027943162 0.017977409 -0.028919568 0.023393646

fc2.weight f4 [5, 128]
00000000: 04b2 2bbe eda3 17be a730 2fbe 61dd 1cbe
00000010: 3285 cbbb aa0d 6dbe d1f1 a93d dfee 61be
00000020: 1d5c 32be f03f 34be da54 883d 7777 02be
00000030: 7f2b 523e b9d1 5fbe b4f4 c13d 1194 a7bc
00000040: ead7 27bc 6423 b73d 8b7f c63d c373 d43d
00000050: 22c2 fc3d 65e4 7dbd 316d 01be a466 27be
00000060: 81c1 993d 3960 ad3d 9f83 8b3b ca38 d2bd
00000070: 6711 17be f08b cbbd 13e0 87be 661b 693d
00000080: 6f0e 45bc 854e 38be 455d de3d a4fd 213e
00000090: 2def ec3b bee9 183b 1628 2e3e a9ae 06be
000000a0: c167 d83d cf91 2dbe 23a0 d13d ee7e 723d
000000b0: bebc 92bd 26fc acbd 1671 d7bc 7bdb 3d3d
000000c0: 3e8c 1cbe bab3 ab3d 9ee3 033e 3478 b43d
000000d0: 90e3 b7bd 2208 7cbe 7e10 28be 667f fcbd
000000e0: c4d1 dd3d 723e f5bd df9c d33d b11d de3d
000000f0: a3f1 103e 955f de3d f53d 3c3d c6e8 48bd
00000100: 7006 d83d 1006 3b3d 41b8 79be 1e67 5dbc
00000110: 0d56 e93d ebd4 d23c 8ccd 48be b51f 9abd
00000120: 865e 52be f94d 49be e4ea b1be 4c45 fcbd
00000130: 155c 663d f84f 4dbe f960 39be e9de cf3d
00000140: ca7b ce3d f408 fb3d 01c3 c63d bcfe c6bd
00000150: 5671 eebd f3e2 8ebe d9ba 02bd d430 003d
00000160: b00d 69be 088a 0fbe a63f d6bd 223a 37be
00000170: e999 58bd c9b8 3cbe b3b6 953d 7948 223d
00000180: 9d32 773d 41c2 2fbe 13bf 24be 1d3f 123e
00000190: 6ca1 e2bd 5999 f6bd 7667 43bd 8673 45be
000001a0: b86e bdbc 361b 0bbe 7d9c b1bd 4a48 3abd
000001b0: 0b4e d53d 70b9 37bd e354 993d 2818 97be
000001c0: 6b82 0c3e 5f99 c93d 8090 98bc 264c d43c
000001d0: baad c23d 59ce 123e 40fc 56be 9d10 3dbb
000001e0: 54ad 073e 481a 7bbe 94f9 d53d b594 f3bd
000001f0: feb1 16be c9ed 1bbd 4a95 f0bd 0463 03be
00000200: 8719 173e c47d dfbd 0c8f 103e 1b7d d53d
00000210: c635 6cbd 0a7d 35bd 672d afbd a420 18be
00000220: b8ce 91bd 7f54 e63d b981 96be e431 c93d
00000230: 7df8 f53b 07fb eebd 49a7 f1bd a952 443e
00000240: 3e12 d5bd 6853 b2bd 1ee7 543c 62ce 54bd
00000250: 7146 55be 64eb f33d aaa0 ccbc e141 8e3d
00000260: b49a 1ebe 394c 8fbe 9214 963e 9b18 5cbe
00000270: 3f61 aa3d 6a6e 9f3a 451d c13d 96fd b83d
00000280: abe5 c5bd 0434 163e 3be2 853d bac5 60be
00000290: 3202 f1bd 11d9 943d 4901 1ebd f74f a8bd
000002a0: bb36 bd3d cb30 2abc 7fe3 bb3d 55ba 213e
000002b0: 1481 473d b4de da3d d998 1fbd cab9 b9bd
000002c0: 4f9c 51be 9526 693d ff58 38be ba4c 0bbe
000002d0: 53fe ddbd 2b44 ad3d ed60 df3b 7ad7 b63d
000002e0: a29b efbd ce64 45be 547b dd3d be36 60bd
000002f0: f745 e1bd a796 253e 4893 e3bd 5d41 dcbc
00000300: 0c5f 8fbd 70ff debd ae01 2dbd 95e5 383e
00000310: 1170 4c3d e140 133e ed84 be3d 0b79 afbd
00000320: d66a a03d 396e f13d b177 9abd eede 9dbd
00000330: 4995 8abd 2e81 8b3d 7fc3 13bb fe70 a1bd
00000340: b63c e23b e425 b3bd ebe9 433d 5d12 163d
00000350: d491 143e 6dc6 47bd ec89 81bd 7501 8f3d
00000360: 027c 7fbd 4bae e23d ef7d 85be 3307 ee3d
00000370: badb b93d 37ab 04be 8352 4ebd 8593 3ebd
00000380: 1375 00be 6336 df3c 2219 0bbe 41ce 13be
00000390: 11a3 a43d 0b4e 23bd 5f0d 08be 17e9 893d
000003a0: 3f2f 56be aca2 8fbd 1fbf 253d d5c7 453e
000003b0: bacc da3d 75cb 823e 8dc8 023e 495e e53d
000003c0: 95cf d6bd 5c3e 49be 1101 c6bd 89b4 9f3d
000003d0: a75f 57bd 1dfc 70be 3568 c13b 24dd c7bd
000003e0: 5619 f53d 58c3 b0bb b920 6dbe 657f 313e
000003f0: afb5 ab3d a365 4ebe 0353 7a3d d987 0ebe
-0.16767126 -0.14808626 -0.17108403 -0.15318824 -0.0062109465 -0.23149744 0.08298076 -0.22063778
-0.17417951 -0.17602515 0.06656809 -0.12740885 0.20524405 -0.21857347 0.094705015 -0.020456346
-0.010244349 0.08942297 0.09692296 0.10373642 0.123417154 -0.061985392 -0.1263931 -0.16347748
0.07507611 0.08465619 0.004257634 -0.10264738 -0.14752732 -0.099388 -0.26538143 0.056910895
-0.012027367 -0.17998703 0.108576335 0.15819412 0.0072306604 0.002333268 0.17007479 -0.13152565
0.105666645 -0.16950153 0.10235622 0.05920308 -0.07164906 -0.08446531 -0.02629904 0.04635189
-0.15287873 0.083838895 0.12879798 0.088119894 -0.08978951 -0.24612477 -0.16412541 -0.12328987
0.10831025 -0.11974801 0.10332655 0.10845507 0.14154677 0.108580746 0.045957524 -0.049050115
0.10548103 0.04566008 -0.24386694 -0.013513355 0.11393366 0.025736293 -0.1960966 -0.07525579
-0.2054387 -0.1965865 -0.3474952 -0.12317905 0.05624016 -0.20050037 -0.18103398 0.101499386
0.10082205 0.12257567 0.09705163 -0.097165555 -0.11642711 -0.27907524 -0.031916473 0.031296566
-0.22759128 -0.14017498 -0.10461359 -0.1789327 -0.052881155 -0.18429865 0.07310238 0.039619897
0.060351003 -0.17163946 -0.16088514 0.14281888 -0.11065945 -0.120409675 -0.04770609 -0.1928235
-0.023124084 -0.13584599 -0.08672426 -0.045479096 0.10415276 -0.04485458 0.07486894 -0.29510617
0.13721626 0.09843706 -0.01862359 0.025915217 0.09505792 0.14336528 -0.20994663 -0.0028849014
0.13249713 -0.24521744 0.10447994 -0.11893598 -0.14716336 -0.038068566 -0.11747225 -0.1283074
0.14755832 -0.1091266 0.14117068 0.104242526 -0.05766847 -0.0443087 -0.08553582 -0.14856201
-0.071195066 0.11246585 -0.29395846 0.09823969 0.0075064288 -0.116689734 -0.11799485 0.19172157
-0.1040387 -0.08707315 0.012994556 -0.051954634 -0.20827653 0.119101316 -0.024978954 0.06946159
-0.15488702 -0.2798784 0.2931257 -0.21493761 0.083193295 0.0012163643 0.09429411 0.09032743
-0.09662946 0.1466828 0.06537291 -0.21950427 -0.11767997 0.07267965 -0.038575444 -0.08218377
0.09238955 -0.01038761 0.09174251 0.15793736 0.048707083 0.106870085 -0.038964126 -0.090686396
-0.20469783 0.05692156 -0.180027 -0.13603488 -0.10839524 0.08460268 0.0068169744 0.08927818
-0.116996065 -0.19276735 0.108145386 -0.054739706 -0.10999673 0.1617075 -0.11112076 -0.026886636
-0.07000551 -0.108885646 -0.04223793 0.18056329 0.049911562 0.14380218 0.09302697 -0.08568009
0.07832877 0.117886014 -0.075423606 -0.07708536 -0.06766755 0.068117484 -0.0022546945 -0.0788288
0.00690421 -0.087474614 0.047830503 0.036638606 0.14508754 -0.048773218 -0.06325135 0.069827
-0.062374122 0.110684 -0.26072642 0.11622467 0.09075113 -0.12955938 -0.050371658 -0.046527404
-0.1254466 0.027247613 -0.13583806 -0.14434148 0.08038915 -0.03986935 -0.1328635 0.067339115
-0.2091646 -0.07013449 0.04046547 0.19314511 0.1068358 0.2554585 0.12771817 0.11199624
-0.10488812 -0.19652694 -0.09668172 0.07798106 -0.052581456 -0.23533674 0.005902315 -0.09758976
0.11967723 -0.0053943805 -0.23157014 0.17333753 0.08384263 -0.20155959 0.061114322 -0.1391901

fc2.bias f4 [5]
00000000: 52c8 1dbc 0a4f 533d 2069 833d 2c6b 183d
00000010: 0901 2bbd
-0.00963028 0.05158905 0.064165354 0.037211582 -0.041749034
