Trained_Weights/STRIDE 3/v3.5 5th.pth (torch, 657346 bytes, 12 tensors)

conv1.weight f4 [32, 3, 5, 5]
0	0x3d328b48	0.04358986
1	0x3e070fd4	0.13189632
2	0x3d912b88	0.07088381
3	0x3d547f33	0.05187912
4	0x3c5ac556	0.013352713
5	0xbdb69226	-0.08914594
6	0xbd9087c6	-0.07057147
7	0xbd7aa5fc	-0.06119345
8	0x3d14f0e7	0.036362555
9	0xbd8ed743	-0.06974652
10	0x3dbf5ccf	0.09343874
11	0xbd54eb33	-0.051982116
12	0xbd5f03e2	-0.054447062
13	0xbdae3c38	-0.085075796
14	0x3d417efa	0.047240235
15	0xbd2480d8	-0.040161937
16	0x3ce3be5d	0.027800733
17	0xbd29fbb4	-0.04149981
18	0x3dac198f	0.084033124
19	0xbb4f7c4b	-0.0031659778
20	0xbc3b5174	-0.011432994
21	0xbda71961	-0.081591375
22	0x3d83ef2f	0.06442105
23	0x3df47405	0.119361915
24	0x3db51f37	0.088438444
25	0xbc2f944c	-0.010716509
26	0xbdda8273	-0.106694125
27	0x3c28f211	0.010311619
28	0x3d82c7d3	0.0638577
29	0x3dc4ff31	0.096189864
30	0x3db8d8a4	0.09025696
31	0xbd1dd9ac	-0.038537666
32	0x3cd9710f	0.026543168
33	0x3d8036e8	0.062604725
34	0x3de2532e	0.110510215
35	0xbd84cd97	-0.06484526
36	0x3cb31e50	0.02186504
37	0xbd6615ab	-0.056173008
38	0xbc996100	-0.018723011
39	0xbdddcf8e	-0.108306035
40	0x3ccbde78	0.024886355
41	0xbe182e67	-0.14861451
42	0xbe0c3f8c	-0.13696116
43	0x3cae6ed4	0.021293081
44	0xbdfd0c87	-0.12355905
45	0xbd39299a	-0.04520569
46	0xbdc03de3	-0.09386804
47	0xbc2c25fe	-0.010507105
48	0x3a7476da	0.00093255716
49	0xbe14fdfa	-0.1455001
50	0x3dd648cf	0.10463106
51	0x3d7eece1	0.062237624
52	0xbd4db755	-0.050223667
53	0x3dd6e017	0.104919605
54	0x3e05a024	0.1304937
55	0xbd8fbeff	-0.070188515
56	0xbd9f9032	-0.07791175
57	0x3d975437	0.073891096
58	0xbc7880bb	-0.0151674105
59	0x3e0bb1ac	0.13641995
60	0x3d65eaf2	0.056132264
61	0x3d048b11	0.032359187
62	0xbc6d2d40	-0.0144761205
63	0xbd255411	-0.040363375
64	0xbd434e3b	-0.04768203
65	0x3d7d508a	0.061844386
66	0xbde65732	-0.112471
67	0x3d86a063	0.0657356
68	0x3d726bf9	0.059185002
69	0xbdf1c571	-0.11805237
70	0xbd204933	-0.03913231
71	0xbdad1307	-0.08450895
72	0x3c5a3705	0.013318782
73	0x3d491e60	0.049101233
74	0x3ce17169	0.027519898
75	0x3d29ce5a	0.041456558
76	0xbd200d44	-0.03907515
77	0x3caf451c	0.021395259
78	0xbd6630d0	-0.056198895
79	0xbc378105	-0.011200194
80	0xbbacfa8d	-0.0052788914
81	0x3def75cd	0.116923906
82	0xbd145b46	-0.036219858
83	0x3bb1c00c	0.005424505
84	0x3d938e62	0.07204892
85	0x3d854c12	0.0650865
86	0x3d844bb8	0.06459755
87	0x3deec0e2	0.11657883
88	0x3d3c7fd4	0.046020344
89	0xbdbbd51c	-0.09171507
90	0x3d7936ff	0.060843464
91	0xbddd28be	-0.107987866
92	0xbce2d9aa	-0.027691681
93	0x3d0c976c	0.034324095
94	0xbd759eea	-0.059966005
95	0x3c0d42a1	0.008621843
96	0x3cefbc9e	0.029264744
97	0x3d884229	0.06653244
98	0xbdc8f44d	-0.09812222
99	0xbc734ee9	-0.014850357
100	0xbdefc3b7	-0.117072515
101	0x3dbc1d5c	0.09185287
102	0xbdb74502	-0.08948709
103	0x3d14641f	0.036228295
104	0x3d0ffa8a	0.035151042
105	0xbcca813c	-0.024719827
106	0x3d3a6f9c	0.045516595
107	0x3dcaa88f	0.09895431
108	0x3d1b33df	0.037891265
109	0x3d7ee9f4	0.062234834
110	0xbdf526af	-0.11970269
111	0xbbac8293	-0.005264589
112	0xbd673ccd	-0.05645447
113	0xbdaec27f	-0.08533191
114	0xbc46a0bb	-0.012123282
115	0xbdf42fc6	-0.119231746
116	0xbd172b07	-0.03690627
117	0x3dcfc5a2	0.10145117
118	0xbdaf85e3	-0.08570459
119	0xbd6fec19	-0.05857477
120	0x3d5eea7d	0.054422844
121	0x3dc58b49	0.09645707
122	0xbd563e35	-0.05230542
123	0xbd21901f	-0.039444085
124	0xbdbf43bf	-0.093390934
125	0x3c3f9e0e	0.011695398
126	0xbdac90af	-0.08426034
127	0xbceb79d7	-0.028744621
128	0xbc804550	-0.01565805
129	0x3c99e409	0.018785493
130	0x3d796eb1	0.06089658
131	0xbdd25b0b	-0.10271271
132	0xbdcc143a	-0.099647954
133	0xbd9a9f02	-0.075498596
134	0xbd1f28be	-0.038857214
135	0xbd19ce8f	-0.037550505
136	0x3db3b2aa	0.08774312
137	0x3daacbea	0.08339675
138	0xbd23eac2	-0.040018804
139	0x3d11666e	0.035498075
140	0x3dad13f4	0.084510714
141	0x3d91eb68	0.07124978
142	0x3d066d1d	0.032818902
143	0x3d48bc8b	0.049007934
144	0x3d8ffbd2	0.07030453
145	0x3db410d0	0.08792269
146	0x3d68a746	0.05680015
147	0xbc96218e	-0.018326547
148	0x3ddbc5a9	0.1073106
149	0x3ddfc5fe	0.10926436
150	0xbd1dcf72	-0.038527913
151	0xbcd03e1b	-0.02542024
152	0xbd02ec5d	-0.031963695
153	0xbdc02cd3	-0.093835495
154	0xbdd5b6c2	-0.10435249
155	0x3d4c9f6c	0.049956724
156	0xbc9ef566	-0.019404124
157	0x3dae29a9	0.0850404
158	0x3c87c62d	0.01657399
159	0x3d8417ce	0.06449853
160	0xbdcd755c	-0.1003215
161	0xbd4e1a35	-0.05031796
162	0x3d589020	0.052871823
163	0xbdb06c93	-0.08614459
164	0x3c6b8585	0.014375095
165	0xbdaa924c	-0.08328685
166	0x3cf78c89	0.03021838
167	0xbd6ce6dc	-0.057837352
168	0x3ce23a8b	0.027615806
169	0xbd0c9746	-0.034323953
170	0x3cc7390a	0.02431919
171	0x3c67ee7f	0.014155983
172	0xbdd5f701	-0.10447503
173	0xbdc6f209	-0.09714133
174	0x3b641b11	0.0034806172
175	0x3db8f1c7	0.0903049
176	0x3db7bb1f	0.089712374
177	0x3cabf9a7	0.020993067
178	0xbd7c724b	-0.061632436
179	0x3d2f3804	0.04277803
180	0xbdb31c1f	-0.08745598
181	0xbd1a621b	-0.037691217
182	0x3da6f9cf	0.08153116
183	0x3cd1f91b	0.025631478
184	0x3d008c71	0.031383935
185	0x3d12287a	0.035683133
186	0x3d04458d	0.03229289
187	0x3d1b6b85	0.037944335
188	0xbdb9ad48	-0.09066254
189	0x3cd2468c	0.025668405
190	0x3d641895	0.055687506
191	0x3d35fb3b	0.044429045
192	0x3cd98c31	0.026556106
193	0xbc9dd759	-0.019267725
194	0x3d4e0972	0.050301977
195	0xbd7f0581	-0.06226111
196	0xbe0d52ff	-0.13801192
197	0x3ce22946	0.027607571
198	0x3c894051	0.016754301
199	0xbda04145	-0.07824949
200	0x3dda1959	0.10649366
201	0x3db59e01	0.088680275
202	0xbc9b03c8	-0.018922701
203	0xbba13fee	-0.004920951
204	0xbd79db83	-0.06100036
205	0xbb6fc73c	-0.0036587259
206	0xbd91cad7	-0.07118767
207	0x3c8975b9	0.016779767
208	0xbc5cffe6	-0.013488745
209	0xbc0d9952	-0.008642511
210	0xbd8a9f64	-0.067686826
211	0x3c0744ff	0.008256196
212	0xbdc0f132	-0.09421004
213	0x3dcd3125	0.10019139
214	0x3d47c1b5	0.048768718
215	0xbb96ccb0	-0.0046020374
216	0x3d918685	0.07105736
217	0x3db3c278	0.08777326
218	0xbcb98803	-0.022647863
219	0xbda9e3e5	-0.082954206
220	0x3cfee7e8	0.03111644
221	0x3c54904f	0.012973859
222	0xbcf3ae0b	-0.029746076
223	0xbe004626	-0.1252676
224	0xbd29eec8	-0.041487485
225	0x3b8d186c	0.00430589
226	0xbda4fbe2	-0.08055855
227	0xbd09bf90	-0.033629954
228	0xbd381d3e	-0.044949763
229	0x3d64a3dd	0.055820335
230	0xbd68b95d	-0.0568174
231	0xbd7f76f5	-0.062369306
232	0xbd4419bc	-0.047876105
233	0x3d493ff9	0.049133275
234	0xbd351b65	-0.04421558
235	0xbd836fd3	-0.06417813
236	0xbddbc1b3	-0.107303046
237	0xbd88dfb5	-0.06683294
238	0x3d87e68f	0.066357724
239	0xbd78b13d	-0.060715903
240	0x3c717692	0.014737742
241	0xbde1785a	-0.11009283
242	0x3d9edb89	0.07756717
243	0xbd022262	-0.03177107
244	0x3d8c4a45	0.06850103
245	0x3d8489c5	0.0647159
246	0xbd57439e	-0.05255472
247	0x3ddac661	0.10682369
248	0x3dcb4383	0.09924986
249	0xbd0b6939	-0.034035895
250	0xbd8d356b	-0.06894954
251	0x3d46dd30	0.048550785
252	0xbe2193d8	-0.15779054
253	0xbe2fbc45	-0.17161663
254	0xbdc6f077	-0.09713834
255	0xbd09be2a	-0.03362862

conv1.bias f4 [32]
0	0xbd826857	-0.063675575
1	0x3d5f98dd	0.05458914
2	0x3d9d48c8	0.076798975
3	0x3dc58830	0.09645116
4	0x3db783b7	0.089606695
5	0xbdcbfa9e	-0.09959911
6	0xbd543883	-0.051811706
7	0x3d54b363	0.05192889
8	0xbb1a2e27	-0.0023526044
9	0x3d160714	0.036627844
10	0xbce14bc1	-0.027501943
11	0xb9d44913	-0.00040490236
12	0x3d2f8407	0.04285052
13	0xbdb95d77	-0.0905103
14	0x3cc544ae	0.0240806
15	0x3d68c62d	0.05682962
16	0xbd1b6a6c	-0.03794329
17	0xbd8b1245	-0.06790594
18	0x3da3c96b	0.07997402
19	0x3da0a5a8	0.078440964
20	0x3da5ffd0	0.08105433
21	0x3dbe644f	0.09296476
22	0x3cd8ad13	0.026449716
23	0x3e06cba3	0.13163619
24	0xbd254775	-0.04035135
25	0x3daf4e9e	0.08559917
26	0x3d382c56	0.044964157
27	0x3d914434	0.07093087
28	0x3bc95d02	0.0061451206
29	0x3df35a7e	0.118824944
30	0xbd93d7a9	-0.07218868
31	0xbcd6973a	-0.026195157

conv2.weight f4 [32, 32, 5, 5]
0	0xbb88f5ca	-0.004179691
1	0x3cc67898	0.024227425
2	0x3cc9869c	0.02460032
3	0x3b3a30cd	0.0028410435
4	0xbcd58ccb	-0.026068112
5	0xbc9bcf0e	-0.01901963
6	0x3d11d381	0.035602096
7	0x3d09d1ba	0.033647276
8	0x3ceb2efc	0.028708927
9	0x3ad18e26	0.0015987798
10	0xbb7848cc	-0.0037885187
11	0x3d73310f	0.059372958
12	0x3d1f3443	0.0388682
13	0x3c74dad1	0.014944748
14	0x3b45fdb2	0.0030211029
15	0x3cca7221	0.024712624
16	0x3d5c9712	0.05385501
17	0x3bd19c11	0.0063967784
18	0xbc41cbab	-0.011828343
19	0x3c7ed34a	0.015553305
20	0xbca4c1c0	-0.020111918
21	0xba92689f	-0.0011170096
22	0x3c4a984b	0.012365411
23	0x3ca80f2d	0.020515049
24	0x3c29b568	0.010358192
25	0xbd02142a	-0.03175751
26	0xbc1ee8a2	-0.009699019
27	0xbc905b4c	-0.017621659
28	0xbc138b2c	-0.009005349
29	0x3cf37a2b	0.02972134
30	0x3cafee50	0.021475941
31	0xbce90ce7	-0.028448535
32	0xbcfdec13	-0.030996358
33	0xbaadd973	-0.0013263657
34	0xbd3ad24b	-0.045610707
35	0xbd4b7014	-0.049667433
36	0x3a5bff8c	0.00083922665
37	0xbb40357a	-0.002932875
38	0xbd199e1d	-0.037504304
39	0xbd5258c9	-0.051354203
40	0xbd056c11	-0.032573763
41	0xbd0f2ed7	-0.03495678
42	0xbd32ad35	-0.043622214
43	0xbc105d7c	-0.008811351
44	0xbc852d07	-0.016256822
45	0xbb1df7c3	-0.0024103976
46	0x3c54db9b	0.012991811
47	0x3c16b8f5	0.009199371
48	0x3c572da9	0.013133445
49	0xbd797a38	-0.060907573
50	0xbc37de4a	-0.011222431
51	0xbcb2836b	-0.02179118
52	0x3c148190	0.009064093
53	0x3cd8f4e3	0.026483959
54	0x3c6586c1	0.014009179
55	0xbc4c754d	-0.012479139
56	0x3b92a42b	0.0044751368
57	0xbc8e963d	-0.017405624
58	0x3befa917	0.0073138583
59	0x3caf9c28	0.021436766
60	0xbccab78c	-0.024745725
61	0xbc9451a9	-0.018105345
62	0x3cfce851	0.030872496
63	0x3c8e3534	0.017359354
64	0xbb925082	-0.0044651637
65	0x3bdeb202	0.0067961225
66	0xbc1ba45e	-0.009499637
67	0xbc9ca2d2	-0.019120608
68	0x3c2b6836	0.010461858
69	0x3bdcf0da	0.006742579
70	0x3a8746cb	0.001032078
71	0xbd3b2a72	-0.045694776
72	0x3cb64f05	0.022254476
73	0xbd2982f2	-0.041384645
74	0xbbbb01ee	-0.005707017
75	0xbbaa4439	-0.005196121
76	0x3d41a988	0.04728082
77	0xbbd9c952	-0.0066463137
78	0xbcdc69b8	-0.02690588
79	0xbbb317a8	-0.0054654665
80	0xba8188f2	-0.0009882732
81	0x3d01aeed	0.031660963
82	0xbc8e888c	-0.017399095
83	0xbc955942	-0.018231038
84	0x3bd02358	0.0063518696
85	0x3c178ad3	0.009249407
86	0x3cb1803d	0.021667594
87	0x3c79ee21	0.015254528
88	0x3c4b6238	0.012413554
89	0xbcaecc5f	-0.021337686
90	0xbc15ff23	-0.009155068
91	0x3d439642	0.04775072
92	0x3d349e55	0.04409631
93	0x3b94fbe5	0.0045466297
94	0x3c89beb4	0.016814567
95	0xbd09dc0e	-0.033657126
96	0x3cf0dd5f	0.029402433
97	0x3c9c0069	0.019043164
98	0x3d41709c	0.047226533
99	0x3c89d4ab	0.01682504
100	0xbd215a11	-0.039392535
101	0xbd0ea31b	-0.03482352
102	0x3b841935	0.004031325
103	0x3d1282d4	0.0357693
104	0x3d45bebc	0.0482776
105	0xbc1a463c	-0.009416159
106	0xbd584d10	-0.052807868
107	0xbc87e60d	-0.016589189
108	0x3c980d94	0.018561162
109	0x3c99942f	0.018747417
110	0xbccc6447	-0.02495016
111	0xbbfb61b2	-0.0076715583
112	0xbcbdddab	-0.023176989
113	0x3c93cad8	0.01804106
114	0x3c579234	0.013157416
115	0xba81e5c6	-0.0009910397
116	0xbd2b7fe9	-0.04187003
117	0x3b00cb94	0.0019652592
118	0xbd4ddb3c	-0.050257906
119	0xbc315d13	-0.010825413
120	0x3ccdda6a	0.025128562
121	0xbcef1e22	-0.029189173
122	0x3c0f7f1e	0.008758334
123	0xbc996d62	-0.018728916
124	0xbd455944	-0.048180833
125	0x3bd16579	0.0063902703
126	0xbceb8264	-0.028748699
127	0x3caa092a	0.020756323
128	0x3d99cdc7	0.07509952
129	0x3d52d39c	0.051471338
130	0xbacd6fdc	-0.0015673595
131	0x3cab1dfc	0.020888321
132	0x3cda2381	0.026628258
133	0x3d8506e2	0.064954534
134	0x3cf8920b	0.030343076
135	0xbc38fc31	-0.011290596
136	0xbc16d1c2	-0.009205284
137	0xbc5ac7bb	-0.0133532835
138	0x3cdd4e3d	0.027014846
139	0x3d5cf251	0.05394203
140	0x3cae9379	0.021310555
141	0xbb1465da	-0.0022643716
142	0x3c7797f9	0.015111917
143	0x3d1e7667	0.038687136
144	0x3d252ec7	0.040327813
145	0x3d37cc8a	0.044872798
146	0x3d7b3353	0.061328243
147	0x3d15b76c	0.036551878
148	0x3d8a88d9	0.06764383
149	0x3d7f5490	0.062336504
150	0xbca183c5	-0.019716153
151	0xbbc9183e	-0.006136923
152	0x3d2e1ee7	0.04250994
153	0x3d8f6ded	0.070033886
154	0x3c1fb619	0.009748005
155	0xbc4c1f9f	-0.012458711
156	0xbc63730c	-0.01388241
157	0x3ca454b4	0.02005992
158	0x3d3e4bdf	0.046459075
159	0x3d5ff2fa	0.05467508
160	0xbc51b8ae	-0.012800379
161	0x3d2827b6	0.041053496
162	0x3b88eedc	0.004178865
163	0x3d8d0cb5	0.06887189
164	0x3d2ddd67	0.042447474
165	0x3d228b88	0.03968385
166	0xbc420f0c	-0.011844408
167	0x3d21ae17	0.039472666
168	0x3d249a8d	0.040186454
169	0x3cb096f5	0.021556357
170	0x3d8fd608	0.07023245
171	0x3d6335f1	0.055471364
172	0x3d47fe47	0.048826482
173	0x3d024543	0.031804334
174	0x3ab6ae3e	0.0013937426
175	0x3d0c799e	0.03429567
176	0x3aa37a14	0.0012472295
177	0xbc424b6a	-0.0118588
178	0xbcfbfc67	-0.030760003
179	0xbd99739e	-0.07492755
180	0xbce1ebd5	-0.027578274
181	0xbc741933	-0.014898586
182	0xbb295a00	-0.0025840998
183	0xbc999a4f	-0.018750338
184	0xbcaba8e2	-0.020954553
185	0x3ca05bc9	0.019575017
186	0xbd237184	-0.03990318
187	0xbd3ffd93	-0.046872687
188	0x3c166dae	0.009181423
189	0xbafd2b0d	-0.0019315198
190	0xbc453002	-0.012035372
191	0xbd05f4e0	-0.032704234
192	0xbd0348a8	-0.032051712
193	0xbcfdd473	-0.030985093
194	0xbc3390bd	-0.010959801
195	0xbd0a1f20	-0.03372109
196	0x3c843de0	0.016142786
197	0xbb8e9a40	-0.004351884
198	0xbd124820	-0.035713315
199	0x3ccf924c	0.025338314
200	0xbc17576f	-0.009237154
201	0x3b8f1df9	0.0043675867
202	0xbc6665cf	-0.014062359
203	0xbd42bc5d	-0.04754292
204	0xbd2d9286	-0.042376064
205	0x3c044e45	0.008075302
206	0x3d18d20e	0.0373097
207	0xbacafb47	-0.0015486263
208	0xbca850f5	-0.020546416
209	0xbcdbd28b	-0.026833793
210	0x3c3ed06a	0.0116463695
211	0x3ceac4a7	0.028658224
212	0x3ccdec07	0.02513696
213	0x3bda8ff6	0.0066699935
214	0xbd86c914	-0.06581321
215	0xbd6fd574	-0.058553174
216	0xbcd5f426	-0.026117396
217	0xbcc036ed	-0.02346369
218	0xbce2da86	-0.02769209
219	0xbda7fc2d	-0.082023956
220	0xbda19d86	-0.07891373
221	0xbdad6da6	-0.084681794
222	0xbd65f814	-0.05614479
223	0xbcdc28a5	-0.02687485
224	0xbda1f8d2	-0.07908787
225	0x3b4b5955	0.0031028588
226	0x3cbe7718	0.023250148
227	0xbcb587ee	-0.022159543
228	0xbd85fa95	-0.06541935
229	0xbd1e49c4	-0.038644567
230	0x3ceda0dc	0.029007368
231	0xbc2ccdd8	-0.010547124
232	0xbd4c59d7	-0.049890365
233	0xbd101a99	-0.035181616
234	0xbc6bcf43	-0.014392677
235	0x3cd84ae8	0.026402906
236	0x3b3ee6e0	0.0029129311
237	0xbcb4cf4d	-0.022071505
238	0xbc7f9459	-0.015599334
239	0xbc861c2c	-0.016370855
240	0x3cc81272	0.024422858
241	0x3a123a0b	0.0005578107
242	0xbcdca34e	-0.026933338
243	0x3ca1e4ef	0.019762484
244	0xbd09376d	-0.033500124
245	0x3b1a4b8e	0.002354357
246	0xbcbf8d9f	-0.02338296
247	0x3cc8254c	0.024431847
248	0xbc99f3bc	-0.01879298
249	0x3c25b5ca	0.010114143
250	0xbd23cc4f	-0.039989766
251	0x3c8f73a0	0.017511189
252	0xbace5144	-0.0015740772
253	0xbad4fdf8	-0.0016250005
254	0x3c3dbb9c	0.011580374
255	0xbc859d49	-0.016310351

conv2.bias f4 [32]
0	0xbd5830ff	-0.0527811
1	0x3c819761	0.015819253
2	0xbd141f35	-0.036162574
3	0xbd255318	-0.040362448
4	0xbc157eba	-0.009124452
5	0x3d1b5547	0.037923124
6	0xbc913ddb	-0.01772969
7	0xbc7f4837	-0.015581182
8	0xbcf7d8cc	-0.030254744
9	0x3c3cd9d6	0.0115265455
10	0xbcfda0ea	-0.030960519
11	0x3c7ef2f1	0.015560851
12	0xbcb7017a	-0.022339571
13	0x3bdc1293	0.0067160814
14	0xbbe87a0f	-0.0070946286
15	0x3b98e160	0.0046655387
16	0x3d32b9d5	0.043634254
17	0x3c686bdb	0.014185871
18	0x3d9586fd	0.073011376
19	0x3bc501e2	0.0060121873
20	0x3d26253b	0.04056285
21	0x3cb1f972	0.02172539
22	0x3d055f24	0.032561436
23	0x3d6632b8	0.056200713
24	0x3d52b946	0.05144622
25	0x3d145fd4	0.0362242
26	0xbc5e97fc	-0.013586041
27	0x3c8894fa	0.0166726
28	0x3d1b3615	0.037893374
29	0xbbaafca8	-0.0052181073
30	0xbb9aa610	-0.004719503
31	0xbc97d18e	-0.01853254

conv3.weight f4 [32, 32, 5, 5]
0	0x3cb4b1b4	0.022057392
1	0xbb1e7561	-0.002417885
2	0x3b3120ea	0.0027027675
3	0xbbe8d083	-0.0071049347
4	0x3c09a6c1	0.008401574
5	0xbc3db5c3	-0.01157898
6	0xbac71bb5	-0.0015190752
7	0x3c70a6f7	0.014688245
8	0xbc8079ca	-0.015683074
9	0x3d840040	0.0644536
10	0xbcb2989d	-0.021801287
11	0x3cef3e27	0.029204441
12	0x3bca0b50	0.0061658993
13	0x3cecf0f2	0.028923485
14	0x3c53f95d	0.012937871
15	0x3d1579e9	0.036493216
16	0x3cdae941	0.026722552
17	0xbc442060	-0.011970609
18	0x3d055681	0.0325532
19	0x3d3e8a97	0.04651889
20	0x3b9a820b	0.0047152094
21	0xbc508a19	-0.012728238
22	0x3cbc3f41	0.02297938
23	0xbcc923a4	-0.024553128
24	0x3d7a0742	0.061042078
25	0x3c975c3e	0.018476602
26	0x3d214522	0.03937257
27	0xbb81f53b	-0.0039660013
28	0xbd89363f	-0.066998
29	0xbd494085	-0.049133796
30	0xbca8e971	-0.020619126
31	0x3c3c6efd	0.011501071
32	0xbc3777c9	-0.011197993
33	0xbdae9f09	-0.08526427
34	0xbd46f054	-0.04856904
35	0x3c2213f7	0.009892455
36	0xbd276d89	-0.040875945
37	0xbd4619d3	-0.04836447
38	0xbdd57db3	-0.10424366
39	0xbd2e91df	-0.042619582
40	0x3d281d18	0.04104337
41	0x3bbb7cef	0.0057216804
42	0xbd57cedc	-0.05268751
43	0xbcf9cee6	-0.030494165
44	0xbd94c704	-0.07264522
45	0xbcc27021	-0.023735108
46	0xbd0e088a	-0.034676112
47	0xbbb6f66e	-0.005583576
48	0xbd25b3a9	-0.04045454
49	0xbd8f2c52	-0.06990875
50	0xbd12cada	-0.035837986
51	0x3b7f1611	0.0038923065
52	0xbba5497e	-0.0050441613
53	0x3b94c80b	0.0045404485
54	0xbc70a9cc	-0.01468892
55	0xbc107373	-0.008816588
56	0xbbaf0c79	-0.005342063
57	0x3cbe42b2	0.023225162
58	0x3d855a75	0.06511394
59	0xbcf67504	-0.030085094
60	0x3c79bc6f	0.01524268
61	0xbc92f524	-0.017939158
62	0x3cc5701b	0.024101308
63	0x3c9a77c8	0.018855944
64	0x3d0f9ee2	0.03506363
65	0xbd1f6182	-0.03891135
66	0xbcc0b0b7	-0.023521764
67	0x3c637a68	0.013884164
68	0x3df30f75	0.118681826
69	0x3d6db67e	0.058035366
70	0x3c661143	0.014042201
71	0x3d2e340c	0.042530105
72	0x3cf66eef	0.030082194
73	0x3d9c956d	0.07645688
74	0x3d9a0f4c	0.07522449
75	0xbc9a9c92	-0.018873487
76	0x3bbfbcb1	0.005851351
77	0xbc503444	-0.012707774
78	0x3c9ded79	0.019278275
79	0x3d857828	0.065170586
80	0xbcb9a09d	-0.022659594
81	0xbd12ccb9	-0.03583977
82	0x3cedcd79	0.029028641
83	0x3ca134ba	0.019678462
84	0x3d70a3b8	0.058749884
85	0xbd2bec9b	-0.04197369
86	0x3cb8f29f	0.022576628
87	0x3d01a865	0.031654734
88	0xbc4b10f5	-0.01239418
89	0x3caf81ef	0.021424262
90	0xbcdf0679	-0.027224766
91	0x3cbd1c5b	0.02308481
92	0x3d06d489	0.032917533
93	0x3d3bd8d0	0.045861065
94	0x3d6251b9	0.055253718
95	0x3d330ffe	0.043716423
96	0x3c900a0c	0.017582916
97	0x3c2a3de5	0.010390733
98	0x3d091a93	0.03347261
99	0x3cec8f4b	0.028876921
100	0x3d5c1ad9	0.05373654
101	0x3c9ad3ab	0.01889976
102	0xbd1d2b30	-0.038371265
103	0xbd9ab108	-0.07553297
104	0xbbca6d2c	-0.006177565
105	0x3d81a8f4	0.063310534
106	0xbaed2650	-0.0018093083
107	0xbc11976d	-0.0088862
108	0xbd54bac2	-0.05193592
109	0xbcf61420	-0.030038893
110	0x3bcffb4f	0.006347097
111	0x3c8b11a8	0.016976193
112	0x3cf2d74f	0.029643683
113	0xbdc291e8	-0.09500486
114	0xbd1713c3	-0.03688408
115	0xbb4cd868	-0.0031256918
116	0x3ce790e7	0.028267337
117	0xbd00342c	-0.031299755
118	0xbdc6f9bb	-0.09715601
119	0xbc710143	-0.0147097735
120	0x3d1d3548	0.03838089
121	0xbc6f2db4	-0.014598299
122	0x3ba72b86	0.005101624
123	0xbdb83a10	-0.089954495
124	0xbdaaadd9	-0.0833394
125	0x3cfa1a47	0.030530108
126	0x3c83beb7	0.01608215
127	0xbcef6cc4	-0.029226668
128	0xbd2ec6ba	-0.04266999
129	0x3b178b1d	0.002312369
130	0x3d6f4429	0.058414612
131	0xbc425f5e	-0.011863558
132	0x3c7111ae	0.014713688
133	0xbd56c41d	-0.052433122
134	0xbcfce975	-0.03087304
135	0x3c8dc4ad	0.017305696
136	0xbb516d98	-0.0031956192
137	0xbafdc147	-0.0019359969
138	0xbbad81a3	-0.005294995
139	0xbd98c416	-0.074592754
140	0x3d0224a5	0.03177323
141	0x3c91ed1e	0.017813262
142	0xbc4ab853	-0.012373048
143	0xbc4f8ba6	-0.012667572
144	0xbd8c1e10	-0.068416715
145	0x3d26e117	0.040742006
146	0xbc2881e5	-0.0102848755
147	0xbcac7bfb	-0.021055212
148	0xbd92b2a9	-0.07162983
149	0xbd81afe0	-0.063323736
150	0xbccd5440	-0.025064588
151	0xbd0a45fc	-0.03375815
152	0x3bc831ba	0.0061094435
153	0xbb6b3415	-0.0035889198
154	0xbb498442	-0.0030748998
155	0xbc8b2044	-0.016983159
156	0x3cb028b1	0.021503778
157	0x3c6e5659	0.014546954
158	0x3c2d5309	0.010578879
159	0xbb9d7e68	-0.0048063286
160	0xbd05c50e	-0.03265863
161	0x3c667e6c	0.014068227
162	0xbd252251	-0.04031593
163	0x3c1e6346	0.009667223
164	0x3cefff6c	0.0292966
165	0xbb96228a	-0.004581754
166	0x3d02676b	0.03183691
167	0x3ba236f4	0.0049503986
168	0xbc85c7d4	-0.016330637
169	0x3d31c015	0.043396074
170	0x3b83ecaa	0.0040260153
171	0x3d31c5eb	0.04340164
172	0xbc80bd38	-0.015715227
173	0x3c8d1c79	0.01722549
174	0x3d1afdb4	0.037839606
175	0xbbb14950	-0.005410351
176	0xbb067df1	-0.0020521844
177	0xbcb111fb	-0.021615019
178	0x3dad4e49	0.08462197
179	0x3d8a3366	0.06748085
180	0xbc249fb6	-0.010047844
181	0x3c881cea	0.01661535
182	0x3c8aeaa5	0.01695759
183	0x3d2da6d9	0.042395446
184	0x3d7c4eab	0.06159846
185	0xbd43ac0c	-0.0477715
186	0xbd2125f8	-0.03934285
187	0x3c89dfd3	0.01683036
188	0x3d8d2771	0.068922885
189	0x3d68b543	0.05681349
190	0xbb8942c8	-0.004188869
191	0x3c59f141	0.013302148
192	0xbc9ccfe9	-0.019142108
193	0x3d5cabf6	0.053874932
194	0x3db9157c	0.09037301
195	0xbce348c7	-0.027744664
196	0x3d03d379	0.032184098
197	0xbc33fa2b	-0.010984938
198	0x3d63fb5d	0.05565964
199	0x3d0155f5	0.031576116
200	0xbce90c36	-0.028448205
201	0xba83cb1e	-0.001005504
202	0x3b8189ae	0.0039531803
203	0xbc8523f8	-0.016252503
204	0x3d562ecf	0.052290734
205	0x3c40e38f	0.011773004
206	0xbcdbcdfc	-0.02683162
207	0x3c02491c	0.007952001
208	0x3d04f245	0.03245761
209	0x3d01b040	0.031662226
210	0x3c418cf6	0.011813393
211	0xbccd840c	-0.025087379
212	0x3ced9d72	0.02900574
213	0xbc5df271	-0.013546572
214	0x3d45e359	0.04831252
215	0x3c263441	0.010144294
216	0xbc785830	-0.015157744
217	0x3d29c81a	0.041450597
218	0x3cb4fe26	0.022093844
219	0x3d5a60d7	0.05331501
220	0xbbe1a82c	-0.0068865027
221	0x3cdd23e1	0.026994647
222	0xbad469ac	-0.0016205809
223	0x3c1486f4	0.009065378
224	0x3d35a844	0.044349924
225	0x3c48f28f	0.012264862
226	0x3d1c281e	0.038124196
227	0x3c4066ee	0.01174329
228	0xbd227412	-0.039661475
229	0xbd3858ab	-0.045006435
230	0x3cc62d11	0.024191411
231	0x3cceba3e	0.025235292
232	0x3d06b6b5	0.032889087
233	0xbd370270	-0.04468006
234	0x3b4d9b3c	0.0031373044
235	0x3b765003	0.0037584312
236	0x3ba91471	0.0051599075
237	0x3cf3b1f6	0.029747944
238	0x3b9493aa	0.0045342045
239	0xbd6ba19d	-0.057527173
240	0x3d4c2098	0.04983577
241	0x3ca357df	0.019939361
242	0x3ceca307	0.028886331
243	0xbd06187a	-0.032738186
244	0xbdc76998	-0.09736937
245	0x3c889a28	0.01667507
246	0xbbcbbdc6	-0.006217691
247	0xbc4e258e	-0.012582196
248	0xbdab812d	-0.08374248
249	0xbdd48dae	-0.10378586
250	0x3babc683	0.0052421703
251	0xbd4cf7ae	-0.050040893
252	0xbd1b1684	-0.03786327
253	0xbd668182	-0.056275852
254	0xbbcac62c	-0.0061881747
255	0x3c6c3c00	0.014418602

conv3.bias f4 [32]
0	0xbd9f8ed2	-0.07790913
1	0xbd2f04a0	-0.04272902
2	0x3d3ff2f4	0.046862558
3	0xbc8a3144	-0.016869195
4	0x3da14b7a	0.07875724
5	0x3bf3b4f0	0.007437341
6	0xbd6d5913	-0.057946276
7	0xbd51ac38	-0.05118963
8	0x3c66c0ae	0.014084024
9	0xbd781fa2	-0.060577042
10	0xbdb93d31	-0.090448745
11	0x3db491b2	0.08816852
12	0xbc3d24ad	-0.011544389
13	0x3d8efa6d	0.06981359
14	0x3e0aed95	0.13567193
15	0x3d6ac317	0.05731496
16	0xbd68a315	-0.056796152
17	0xbd4b3e8f	-0.049620207
18	0xbd9ca1c0	-0.07648039
19	0xbc6c72d4	-0.014431674
20	0xbd12a6fd	-0.035803784
21	0xbc5d2581	-0.013497711
22	0xbd910068	-0.070801556
23	0x3d4989b5	0.049203593
24	0x3d138e57	0.036024418
25	0xbdad41f0	-0.08459842
26	0x3cf8baa1	0.03036243
27	0x3d9e3ba0	0.07726216
28	0xbcb2ead9	-0.0218405
29	0x3d03c28a	0.03216795
30	0x3ddf7551	0.10911048
31	0x3d783eb4	0.060606673

conv4.weight f4 [8, 32, 5, 5]
0	0x3d13a76a	0.03604833
1	0xbd78fc10	-0.06078726
2	0xbd7cf525	-0.061757226
3	0xbd15accb	-0.03654174
4	0x3d62e219	0.055391405
5	0x3c0fd13a	0.008777911
6	0xbd0db537	-0.034596648
7	0xbca42e27	-0.020041538
8	0xbd561aad	-0.052271534
9	0xbd09e8d7	-0.03366932
10	0x3d23702a	0.03990189
11	0xbadc02d2	-0.0016785508
12	0xbcc8d51e	-0.024515685
13	0xbc637540	-0.013882935
14	0x3cc8524c	0.024453305
15	0x3d37db1c	0.044886693
16	0x3d202324	0.039096013
17	0xbc915e01	-0.01774502
18	0xbc8e371a	-0.017360259
19	0xbb7ac539	-0.0038264527
20	0x3d33dd54	0.043912247
21	0x3d19bbb6	0.03753253
22	0x3d2f56e3	0.04280747
23	0x3d73420b	0.059389155
24	0x3b6b654d	0.0035918534
25	0x3d8ce190	0.0687896
26	0xbafa877f	-0.0019113867
27	0xbc5611ee	-0.013065798
28	0xbd85cdd3	-0.065333985
29	0x3c85dc73	0.01634047
30	0x3cd0655d	0.025438959
31	0xbd081a25	-0.03322806
32	0xbcdc8066	-0.026916694
33	0xbd80d3d5	-0.06290404
34	0xbcc262e0	-0.023728788
35	0x3d19d33f	0.037554976
36	0x3cbf62b8	0.023362502
37	0xbcbc43be	-0.02298152
38	0xbd1f6786	-0.038917087
39	0x3caa456a	0.020785052
40	0xbbd88999	-0.0066082
41	0x3c37965c	0.011205282
42	0xbae9716b	-0.001781029
43	0x3c13c0f8	0.009018175
44	0x3c605f40	0.013694584
45	0xbd0b5b37	-0.034022536
46	0x3d20f3c2	0.039294966
47	0x3d8b89d3	0.06813397
48	0x3d73ee78	0.059553593
49	0x3dda2da6	0.10653238
50	0xbc6c2476	-0.01441299
51	0xbb2b2307	-0.0026113407
52	0x3b7ed48a	0.0038884007
53	0x3d863f9c	0.06555101
54	0x3d69d084	0.05708362
55	0xbb072074	-0.0020618709
56	0x3a97451d	0.0011540983
57	0x3c38faac	0.011290234
58	0x3cf74055	0.030182043
59	0x3d0a100b	0.033706706
60	0xbbd2271e	-0.0064133545
61	0xbbe143f5	-0.006874556
62	0xbd2f4a57	-0.042795505
63	0xbc1bca95	-0.009508749
64	0xbd49cb25	-0.049266
65	0x3d596d0f	0.053082522
66	0xbce0f3ed	-0.027460063
67	0xbd744b26	-0.05964198
68	0xbd57b26c	-0.05266039
69	0xbd90f167	-0.07077294
70	0xbc15a6db	-0.00913402
71	0xbd154ea0	-0.036451936
72	0xbd4eb89b	-0.050469022
73	0xbd545643	-0.051840078
74	0xbdc4884b	-0.09596308
75	0xbc70c660	-0.014695734
76	0x3c9011ff	0.017586706
77	0x3d822800	0.06355286
78	0x3b139591	0.0022519568
79	0x3b9b8dc5	0.004747125
80	0x3ce88ebd	0.028388375
81	0x3c24b9b7	0.0100540435
82	0xbd13c87e	-0.036079876
83	0xbcd6e131	-0.026230427
84	0x3cda6810	0.026660949
85	0xbc16a1c0	-0.009193838
86	0xbd806df9	-0.062709756
87	0xbd55d613	-0.05220611
88	0xbcaaad54	-0.020834602
89	0xbd501fa2	-0.050811417
90	0x3d222a49	0.039591108
91	0x3baf3f26	0.005348104
92	0xbd712e02	-0.058881767
93	0xbc916e25	-0.017752716
94	0xbd2060e1	-0.03915489
95	0xbc0e9e9a	-0.008704806
96	0xbd393512	-0.045216627
97	0x3c1655a8	0.0091756955
98	0xbcabde04	-0.020979889
99	0xbcf4cef5	-0.029883841
100	0x3cdb6750	0.026782662
101	0x3cf18c21	0.029485764
102	0x3d6c5d9f	0.05770647
103	0x3d549495	0.05189951
104	0x3cc1a256	0.023636978
105	0x3cf74db5	0.03018842
106	0x3bc23a31	0.005927347
107	0x3d4368bf	0.047707316
108	0x3d5659ea	0.052331842
109	0xbcce062b	-0.025149425
110	0xbc3460a9	-0.011009374
111	0xb955be14	-0.00020384073
112	0x3b74885e	0.0037312726
113	0x3ccd94a2	0.025095288
114	0xbc1b7582	-0.009488465
115	0xbcadcf46	-0.021217
116	0xbc5c5395	-0.013447662
117	0xbd0bbb1d	-0.034113992
118	0xbd547b3d	-0.05187534
119	0xbd682ca4	-0.056683198
120	0xbcda08da	-0.026615549
121	0xbcaafc16	-0.020872157
122	0xbcb4856f	-0.022036282
123	0xbd33d6b9	-0.043905947
124	0xbc4abc0b	-0.0123739345
125	0xbcd43d37	-0.025908096
126	0x3d251421	0.0403024
127	0x3d95d060	0.07315135
128	0x3d98a9b1	0.07454241
129	0xbc94b9ec	-0.01815506
130	0x3b8ca97b	0.0042926646
131	0x3d30dd6d	0.043179918
132	0x3dc6b4a2	0.09702422
133	0x3bb7674d	0.005597031
134	0x3c4a4ee6	0.012347912
135	0xbcc1ec71	-0.023672314
136	0x3ce0db7b	0.027448406
137	0x3c197fbd	0.009368834
138	0xbbbe7a01	-0.005812884
139	0x3bea1845	0.0071440064
140	0xbc73a0d4	-0.014869887
141	0xbd15af08	-0.036543876
142	0xbcab18b2	-0.0208858
143	0xbaf4dfdb	-0.0018682437
144	0xbc042210	-0.008064762
145	0x3c71315f	0.014721244
146	0xbd88dea2	-0.06683089
147	0xbd3ddbe4	-0.046352282
148	0xbd348670	-0.044073522
149	0xbd88a245	-0.066715755
150	0xbb5915a7	-0.0033124478
151	0xbd4547db	-0.04816423
152	0xbcd41837	-0.025890453
153	0xbcf8f7eb	-0.030391654
154	0x3d455ff6	0.04818722
155	0x3d116b46	0.035502695
156	0xbd5e502c	-0.054275677
157	0xbd91ae36	-0.07113306
158	0xbd785124	-0.060624257
159	0xbd173748	-0.036917955
160	0x3c1a29b2	0.009409355
161	0xbc9fd195	-0.019509116
162	0xbdb5dcd2	-0.08880009
163	0xbc86a594	-0.016436376
164	0xbafdb455	-0.0019356111
165	0x3cfdcde3	0.030981964
166	0x3c200584	0.00976694
167	0xbbcba29b	-0.0062144524
168	0xbc96fa42	-0.01842988
169	0x3d2e2846	0.042518876
170	0x3c0433a8	0.008068956
171	0x3c8010ee	0.015633073
172	0x3cd3e7ca	0.025867362
173	0x3bea5aaf	0.0071519236
174	0x3da33bcf	0.07970392
175	0xbc83ddef	-0.016097037
176	0xbc7cf77f	-0.015439867
177	0xbd507c1f	-0.05089962
178	0xbd5008e7	-0.05078974
179	0x3c86bcb6	0.016447406
180	0xbd3ef725	-0.046622414
181	0xbd7c384f	-0.061577138
182	0xbd887482	-0.06662847
183	0xbd285b29	-0.041102562
184	0xbd925648	-0.07145363
185	0xbc940bed	-0.018072093
186	0xbd7f4ebb	-0.062330943
187	0xbbef56ae	-0.007304034
188	0xbd973976	-0.07384007
189	0xbd808f2b	-0.06277307
190	0xbcc13dbc	-0.023589008
191	0x3c8487ea	0.01617809
192	0xbd0b8615	-0.034063417
193	0x3c20a041	0.0098038325
194	0xbc629414	-0.01382925
195	0xbc73a791	-0.014871494
196	0xbccd967d	-0.025096172
197	0x3c641211	0.013920323
198	0x3ce1c668	0.027560428
199	0x3d5ffce6	0.054684542
200	0x3b829931	0.003985547
201	0xbd4cf578	-0.050038785
202	0xbd9ee184	-0.077578574
203	0xbd4e153c	-0.05031322
204	0xbd0e2b5e	-0.034709327
205	0xbce59c0d	-0.028028512
206	0xbd16d0f8	-0.036820382
207	0xbcf29146	-0.029610287
208	0xbc4e2cee	-0.012583954
209	0xbc43f1ce	-0.011959506
210	0x3c031d6c	0.00800262
211	0xbc9c07fd	-0.019046778
212	0x3cfddc45	0.030988822
213	0x3d1a3b08	0.037653953
214	0x3d2cb7fb	0.042167645
215	0xba9e1d46	-0.0012063168
216	0x3d54b846	0.05193355
217	0x3d3f2e12	0.046674795
218	0x379c36b0	1.8622115e-05
219	0xbb90e563	-0.0044218763
220	0xbca44993	-0.020054614
221	0x3c1b2b1e	0.009470729
222	0x3d167dde	0.03674113
223	0xbc89d202	-0.016823772
224	0xbcc74ff3	-0.024330115
225	0x3d4870e3	0.048935782
226	0xbb87378d	-0.004126495
227	0x3b95efec	0.00457572
228	0x3d089ec0	0.03335452
229	0x3d8619ca	0.065478876
230	0x3cdc3ec6	0.026885401
231	0xbd247e79	-0.040159676
232	0xbd4ff076	-0.05076643
233	0xbd1f8094	-0.03894098
234	0x3b89198b	0.004183953
235	0x3c103a67	0.008802987
236	0xbb420c7a	-0.0029609487
237	0xbce3986c	-0.027782641
238	0xbd5c4f29	-0.05378643
239	0xbdcd3057	-0.10018986
240	0x3bcb3ad9	0.0062020835
241	0xbd09ad3c	-0.033612475
242	0xbbdf0715	-0.006806264
243	0xbd690c74	-0.05689664
244	0xbd973a07	-0.07384115
245	0x3ca24440	0.019807935
246	0x3cf9b302	0.030480865
247	0x3b819a03	0.003955127
248	0xbd4ed48f	-0.05049568
249	0xbc6bba72	-0.014387714
250	0x3d9a128f	0.07523071
251	0x3b229bbf	0.002481207
252	0x3c851c8d	0.016248966
253	0xbce1c2e0	-0.027558744
254	0xbd84ca90	-0.06483948
255	0x3d1663a5	0.036716122

conv4.bias f4 [8]
0	0x3cc847b5	0.024448255
1	0x3cc54953	0.024082815
2	0xbd69b1fd	-0.05705451
3	0x3bf03091	0.0073300083
4	0x3b3d1b87	0.002885552
5	0x3deb4ed3	0.11489644
6	0x3a9e6a6f	0.0012086163
7	0xbddc16dc	-0.107465476

fc1.weight f4 [128, 800]
0	0xbc3708d0	-0.011171535
1	0xbd391938	-0.045190066
2	0x3cf30b8f	0.029668598
3	0x3dbc09a2	0.09181525
4	0x3bd27463	0.006422566
5	0x3d558e77	0.05213782
6	0x38377700	4.3741427e-05
7	0xbd38fcb8	-0.045162886
8	0xbd20bd61	-0.039243106
9	0xbc861a83	-0.016370064
10	0xbb8b3489	-0.004248206
11	0xbd02913d	-0.03187679
12	0xbd429bc7	-0.047511842
13	0xbd210d12	-0.039319105
14	0xbcd793ab	-0.02631553
15	0xbc6eb28e	-0.014568938
16	0xbb100748	-0.0021976996
17	0xbb802e46	-0.003911766
18	0xbb9ce30d	-0.0047878087
19	0xbcd88153	-0.026428854
20	0xbc67a1e0	-0.014137715
21	0xbd24a6a4	-0.040197983
22	0xbd85252c	-0.065012306
23	0xbd8046e8	-0.06263524
24	0xbcaae7d4	-0.020862497
25	0xbc809a19	-0.01569848
26	0x3c6fe24b	0.014641355
27	0x3d268285	0.040651817
28	0xbbc12e21	-0.0058953916
29	0x3d462818	0.04837808
30	0xbae9ee36	-0.0017847482
31	0x3bbaafcd	0.0056972266
32	0x3badd82b	0.0053053102
33	0xbd26ba69	-0.04070512
34	0xbd078f7d	-0.033095825
35	0xbc9dc113	-0.019257104
36	0xbc620b03	-0.013796571
37	0xbce86643	-0.028369075
38	0xbcf491e7	-0.029854728
39	0x3d31f131	0.04344291
40	0x3d279993	0.040917944
41	0x3bb20790	0.0054330304
42	0x3c949710	0.018138438
43	0x3c80a377	0.015702946
44	0xbc99915c	-0.01874607
45	0x3cc7b6be	0.02437913
46	0x3cb83277	0.022485001
47	0x3c04920d	0.008091462
48	0xbb990c4f	-0.0046706568
49	0x3cd06feb	0.025443992
50	0x3d13c509	0.03607658
51	0xbcf784d5	-0.030214706
52	0x3c014fd2	0.007892566
53	0xbd07cd09	-0.03315452
54	0xbd3c13aa	-0.04591719
55	0x3d087ab5	0.033320148
56	0xbbc62f7a	-0.00604814
57	0x3c4ba18d	0.012428653
58	0xbce48846	-0.027897011
59	0x3c4bdc77	0.0124427
60	0x3c60b803	0.013715747
61	0xbc9aadf0	-0.018881768
62	0x3c418da7	0.011813558
63	0x3c04b159	0.008098924
64	0xbd890abf	-0.06691503
65	0xbce22c38	-0.027608976
66	0x3c7a1876	0.015264621
67	0x3ccea976	0.02522729
68	0xbce065bb	-0.027392259
69	0x3d17ca57	0.0370582
70	0xbd8276cf	-0.06370317
71	0xbd86b385	-0.065772094
72	0x3be5bf7e	0.007011353
73	0xbd09e12b	-0.033662003
74	0x3c8c0439	0.017091857
75	0x3d05d7ac	0.032676384
76	0xbd078c5a	-0.033092834
77	0xbcc0d519	-0.023539113
78	0x3c991f5c	0.018691711
79	0xbc62b3c0	-0.013836801
80	0xbda0464d	-0.07825909
81	0xbd293675	-0.0413117
82	0xbc26fd94	-0.010192294
83	0xbc92dc18	-0.017927215
84	0x3c88fc46	0.016721856
85	0x3ca41113	0.020027673
86	0x3be59fc9	0.0070075733
87	0xbd25a2f0	-0.040438592
88	0xbca89fe5	-0.020584056
89	0x3d3d031e	0.04614555
90	0x3d6b0459	0.057377193
91	0x3d88f516	0.066873714
92	0xbd189077	-0.037247147
93	0x3d335446	0.04378154
94	0x3c2d369d	0.010572103
95	0x3d2fe3ee	0.04294198
96	0x3c86cb98	0.016454503
97	0x3d026efb	0.03184412
98	0xbd9c5a21	-0.07634378
99	0xbd29d897	-0.04146632
100	0x3bd63773	0.006537372
101	0xbce47720	-0.027888834
102	0xbc2c2b42	-0.01050836
103	0xbcb36c3a	-0.021902192
104	0xbd506249	-0.050874982
105	0x39594fd6	0.00020724474
106	0x3db37a2e	0.08763538
107	0x3d00d8cf	0.031456765
108	0x3d9b39ad	0.0757936
109	0x3cb9851a	0.022646476
110	0xbcab62a7	-0.020921065
111	0xbd1ecdd3	-0.038770508
112	0x3c914df8	0.017737374
113	0xbc0df6c3	-0.00866479
114	0x3cd85cd9	0.02641146
115	0x3cae2172	0.021256182
116	0x3be1cbfe	0.006890773
117	0x3d1dc090	0.03851372
118	0x3cb7765b	0.022395303
119	0xbc861caa	-0.01637109
120	0xbc9c2b9f	-0.019063769
121	0x3c87f03d	0.016594047
122	0x3d8978cb	0.067124926
123	0xbc8a7c17	-0.016904874
124	0xbd093ab4	-0.03350325
125	0xbccd7716	-0.025081199
126	0x3a294058	0.00064564263
127	0xbc5dd819	-0.013540291
128	0xbc401c8c	-0.011725556
129	0xbd4125c1	-0.047155146
130	0x3c172da2	0.009227188
131	0x3c30443d	0.010758457
132	0x3d20a660	0.039221168
133	0xbc279b25	-0.01022986
134	0xba130054	-0.0005607654
135	0x3d7b4153	0.061341595
136	0x3d79585f	0.060875293
137	0x3d64ac1a	0.05582819
138	0x3d832b2e	0.0640472
139	0x3bb80e13	0.005616912
140	0x3c7b0c05	0.01532269
141	0x3cb1bf0f	0.02169755
142	0x3c999c48	0.018751279
143	0xbc1c1b7d	-0.009528038
144	0x3d23b6e5	0.039969344
145	0xbb3d1d7e	-0.002885669
146	0x3d8d5f4a	0.069029406
147	0x3d6a2bc1	0.057170633
148	0x3d42de4e	0.047575288
149	0xbcd06dae	-0.025442924
150	0xbc698682	-0.014253261
151	0x3c0c71bc	0.008572038
152	0x3c9c4b6a	0.019078929
153	0xbbb8380e	-0.0056219166
154	0x3d7431da	0.059617855
155	0xbc40f7d7	-0.01177784
156	0x3d99a235	0.07501642
157	0x3dccfe70	0.100094676
158	0x3d2f6076	0.0428166
159	0x3b16ba5a	0.0022999258
160	0xbc288963	-0.010286662
161	0xbd2802e4	-0.04101838
162	0x3d2f3558	0.042775482
163	0x3c1eb5c9	0.009686896
164	0x3d593d1d	0.053036798
165	0x3c68cb47	0.014208621
166	0x3cb8aca6	0.022543263
167	0x3d84f6b6	0.06492369
168	0x3d9a6bf4	0.07540122
169	0x3d078873	0.033089112
170	0x3c2cf0c9	0.0105554545
171	0x3d0eb4a4	0.03484024
172	0x3cd5fac0	0.026120543
173	0x3d92e5c6	0.07172732
174	0xbc109a6b	-0.008825879
175	0xbc3dc4ad	-0.011582536
176	0x3d7ec21d	0.06219684
177	0x3c16622a	0.009178678
178	0x3d6721de	0.056428783
179	0x3da9e791	0.08296121
180	0x3ce47a02	0.02789021
181	0xbca11e77	-0.019667847
182	0x3c548a54	0.012972433
183	0xbcdd4df0	-0.027014703
184	0xbcf56c28	-0.0299588
185	0x3c7e0536	0.015504172
186	0x3db251a4	0.08706978
187	0x3d7986e5	0.06091966
188	0x3c7c547e	0.015401004
189	0x3d3fbb3c	0.04680942
190	0xbd543777	-0.051810708
191	0xbd30efed	-0.04319756
192	0xbd364699	-0.04450092
193	0xbc42cc6b	-0.011889557
194	0x3c2ef6f9	0.010679
195	0xbda51393	-0.08060374
196	0x3c6b55b1	0.014363692
197	0x3bb4fc5c	0.0055232476
198	0x3d142376	0.03616663
199	0x3bfd0165	0.0077211135
200	0xbc9a3fd9	-0.018829273
201	0x3d078a0a	0.03309063
202	0x3d0c8907	0.034310367
203	0x3c23570f	0.009969487
204	0xbca80f7b	-0.020515194
205	0x3d6d3b68	0.057917982
206	0x3d541800	0.0517807
207	0x3a858c18	0.0010188846
208	0xbcf36538	-0.02971135
209	0x3c563b24	0.013075624
210	0x3c6857f3	0.014181125
211	0xbd185407	-0.03718951
212	0x3d65f8b8	0.0561454
213	0xbd05a700	-0.032629967
214	0xbd082bf5	-0.033245046
215	0x3d5c6e96	0.0538164
216	0x3bb2eb8a	0.0054602074
217	0xbd33b546	-0.043874048
218	0xbc80e2dc	-0.015733175
219	0xbd0959bd	-0.033532847
220	0xbce9f17c	-0.028557532
221	0xbce75bac	-0.028241955
222	0x3cb27542	0.021784429
223	0x3b1ea809	0.0024209043
224	0xbc9c49de	-0.019078191
225	0x3cb15035	0.021644691
226	0xbd06835f	-0.03284013
227	0xbccd0f84	-0.025031812
228	0xbd24d017	-0.040237512
229	0xbc4a5ab6	-0.012350729
230	0x3acb4a1c	0.0015509757
231	0xbd0f5198	-0.034989923
232	0xbcd4f23f	-0.025994418
233	0x3d2bcc72	0.04194302
234	0x3d42260d	0.04739957
235	0xbcbeda1c	-0.023297362
236	0xbd5004c6	-0.050785802
237	0x3cd84126	0.026398253
238	0xbc1fead6	-0.009760579
239	0x3cb0186c	0.02149602
240	0xbd269597	-0.040670004
241	0xbca0098c	-0.019535802
242	0x3d06f2f4	0.032946542
243	0x3ccfe66c	0.025378428
244	0x3d538f01	0.05165005
245	0xbaff0b80	-0.0019458383
246	0xbc6c1628	-0.014409579
247	0xbba563ec	-0.005047312
248	0xbc6fb817	-0.014631293
249	0x3d18746a	0.037220396
250	0xbb94809d	-0.0045319335
251	0x38b63724	8.688707e-05
252	0xbc98dfc8	-0.018661395
253	0x3b065ef0	0.0020503365
254	0x3d6fc2e6	0.05853548
255	0x3d3cdaad	0.046106983

fc1.bias f4 [128]
0	0xbcb8bab1	-0.022549959
1	0xbb2424ee	-0.0025046426
2	0xbd0191b7	-0.031633105
3	0x3d29823f	0.041383978
4	0xbc558638	-0.0130324885
5	0x3cce3572	0.02517197
6	0xbd2480f7	-0.040162053
7	0xbab5cdef	-0.0013870577
8	0xbc63e18d	-0.013908756
9	0xbc74c358	-0.014939152
10	0x3c12a335	0.008950044
11	0x3d3d2981	0.04618216
12	0x3c8e6494	0.017381944
13	0x3d4e3def	0.050352033
14	0x3ce4b8f9	0.027920233
15	0x3cfb18bf	0.030651448
16	0xbc095522	-0.008382114
17	0x3d4c6468	0.049900442
18	0x3d64609c	0.055756196
19	0xbc31e977	-0.010858885
20	0x3abb28ca	0.0014279124
21	0xbbc8612c	-0.0061150994
22	0xbc7aab41	-0.015299619
23	0x3c3edb51	0.011648969
24	0xbc3833d8	-0.011242829
25	0x3d22f659	0.039785717
26	0xbc4fcf83	-0.012683752
27	0x3c219988	0.009863265
28	0xba3097f8	-0.00067365123
29	0x3cccb8b1	0.024990411
30	0x3d72d64e	0.059286408
31	0x3d139a01	0.03603554
32	0xbce1359e	-0.027491387
33	0xbaf054dd	-0.0018335838
34	0x3d914695	0.070935406
35	0xbcec9e42	-0.028884057
36	0xbc8c65bb	-0.017138353
37	0xbb9c511e	-0.004770412
38	0xbad442e5	-0.0016194253
39	0x3d083534	0.033253863
40	0xbbb75d77	-0.0055958587
41	0x39d4aca1	0.0004056441
42	0x3c8bf88e	0.017086294
43	0x3ccb041d	0.024782235
44	0xbd280418	-0.04101953
45	0x3b709ce1	0.00367146
46	0x3bb3413d	0.0054704235
47	0xbba3ee63	-0.005002783
48	0xbc88f795	-0.016719619
49	0x3d535acb	0.05160026
50	0x3c6adb41	0.014334501
51	0xbc835661	-0.0160324
52	0x3c3db1cb	0.011578034
53	0x3d25122a	0.040300526
54	0xbcbaef20	-0.022819102
55	0x3cef840b	0.029237768
56	0xbd551cce	-0.052029423
57	0x3d52622b	0.05136315
58	0xbd176336	-0.03695985
59	0xbce3d2b7	-0.027810438
60	0xbc75b289	-0.014996179
61	0xbcb659e5	-0.022259662
62	0xbc03a2b7	-0.0080344
63	0x3abb4863	0.0014288541
64	0x3be85b27	0.0070909443
65	0xbba7d976	-0.005122359
66	0xbc93298a	-0.017964143
67	0x3ccd0410	0.025026351
68	0x3b8b27bd	0.0042466805
69	0xbc2586ef	-0.010102971
70	0x3c5807bc	0.013185438
71	0x3ca4b216	0.02010445
72	0xbc12e9b5	-0.008966853
73	0x3d11afe2	0.035568126
74	0x3c5e0205	0.013550286
75	0xbb91c9f5	-0.004449124
76	0xbd2e4edc	-0.042555675
77	0x3d17f7ef	0.037101682
78	0x3d5be4e3	0.05368508
79	0xbccb07cf	-0.024783997
80	0xbc8bf132	-0.017082784
81	0x3b970c95	0.004609654
82	0xbc0cb14d	-0.008587194
83	0xbc3bb8bb	-0.011457617
84	0xbcfee1fb	-0.031113615
85	0x3c9e1123	0.01929528
86	0xbc940548	-0.018068925
87	0x3d36e2b2	0.044649787
88	0x3cd318c8	0.025768653
89	0x399e70e5	0.0003022022
90	0x3d6f8e63	0.0584854
91	0x3d8c8a52	0.0686232
92	0x3cdbdb8b	0.026838085
93	0xbcbcdccd	-0.023054505
94	0x3caa53b7	0.020791871
95	0x3c3bebcf	0.011469795
96	0xbc400361	-0.011719556
97	0x3cc14422	0.023592059
98	0xbc87c4cd	-0.016573334
99	0x3c108ab7	0.008822135
100	0x3c633714	0.013868112
101	0x3cfc6e48	0.030814305
102	0x3bc6807b	0.0060577965
103	0x3c9c71eb	0.01909729
104	0xbc4d9515	-0.012547751
105	0xbb1ef3d9	-0.0024254231
106	0xbd1465f8	-0.036230057
107	0xbc3cfcc5	-0.011534874
108	0xbc7057aa	-0.014669338
109	0x3bef9985	0.007312002
110	0xbba51b7e	-0.0050386777
111	0xbccce1af	-0.025009958
112	0x3cad3b3f	0.021146415
113	0xbc8075d9	-0.015681194
114	0x3c2a36ab	0.01038901
115	0x3cec064d	0.028811598
116	0xbcf4d28a	-0.02988555
117	0xbc91e666	-0.017810058
118	0x3d1bf8b4	0.03807898
119	0xbc1489d0	-0.00906606
120	0x3c671144	0.014103238
121	0x3cbc4f99	0.022987174
122	0xbc76185b	-0.015020455
123	0x3c0d8fb3	0.008640218
124	0xbc183d1d	-0.009291914
125	0x3d1c5132	0.03816337
126	0xbb39c914	-0.0028348612
127	0x3cf3f2e7	0.02977891

fc2.weight f4 [5, 128]
0	0xbe0f0b0e	-0.13969061
1	0xbe0bc552	-0.1364949
2	0xbe0412a6	-0.12897739
3	0xbe05aebc	-0.13054937
4	0xbba85cf8	-0.005138036
5	0xbe3f5600	-0.1868515
6	0x3d8aedba	0.06783624
7	0xbe207d35	-0.15672763
8	0xbe00a627	-0.12563382
9	0xbe239fdf	-0.15978955
10	0x3d777504	0.06041433
11	0xbdb2f5f3	-0.08738317
12	0x3e27e02b	0.16394107
13	0xbe37b0ad	-0.1793849
14	0x3da24c15	0.07924668
15	0xbc252c34	-0.01008134
16	0xbc9d61da	-0.019211698
17	0x3da9fcba	0.08300157
18	0x3db837af	0.08994996
19	0x3d9d4656	0.07679431
20	0x3ddc6947	0.107622676
21	0xbd29851b	-0.041386705
22	0xbdf8ff8f	-0.12158119
23	0xbdf9bfcd	-0.12194786
24	0x3d89d6de	0.06730436
25	0x3daec36e	0.08533369
26	0x3cad0a50	0.021123081
27	0xbdbcdac9	-0.092214175
28	0xbe01bbac	-0.12669247
29	0xbdcb4311	-0.09924901
30	0xbe5802a1	-0.21094753
31	0x3d5ac41a	0.053409673
32	0x3c81c1c9	0.015839474
33	0xbe10f573	-0.14156131
34	0x3ddba9b8	0.10725731
35	0x3e0c7b23	0.13718848
36	0x3c4fa724	0.012674127
37	0x3c3ff9b4	0.011717249
38	0x3e185426	0.1487585
39	0xbdf06c2b	-0.117393814
40	0x3db8b244	0.090183765
41	0xbe1d2a8b	-0.1534826
42	0x3dc22b47	0.09480911
43	0x3d5e169c	0.05422078
44	0xbd78449a	-0.0606123
45	0xbd5d26f6	-0.053992234
46	0xbc597486	-0.01327241
47	0x3d5c5b93	0.05379827
48	0xbdfd8a39	-0.123798795
49	0x3da5fa7a	0.08104415
50	0x3dc01a99	0.09380073
51	0x3dc99d01	0.09844399
52	0xbde06111	-0.10956014
53	0xbe5f981b	-0.21835367
54	0xbe0ed9f1	-0.13950326
55	0xbda869b2	-0.08223285
56	0x3db99903	0.09062388
57	0xbdb1116e	-0.086459026
58	0x3dcfd704	0.10148433
59	0x3dd74621	0.10511423
60	0x3df8d512	0.12150015
61	0x3ddb15d7	0.10697525
62	0x3ce9f6b2	0.028560016
63	0xbc9b1845	-0.018932471
64	0x3dbe8e52	0.09304489
65	0x3cc21d09	0.023695486
66	0xbe3c9dd8	-0.18419588
67	0xbc7da750	-0.015481785
68	0x3ded05dc	0.11573383
69	0x3cdabcc4	0.026701339
70	0xbe1fd8f2	-0.15610102
71	0xbd9cb48d	-0.07651625
72	0xbe42ccc8	-0.1902343
73	0xbe15c7f6	-0.1462706
74	0xbe89bbc1	-0.26901057
75	0xbde652e2	-0.112462774
76	0x3d16d8d4	0.036827877
77	0xbe295ee2	-0.16540101
78	0xbe385955	-0.18002827
79	0x3daafd45	0.083490886
80	0x3db2d98c	0.087329
81	0x3dd677af	0.104720466
82	0x3dadec16	0.084922954
83	0xbdd09682	-0.10184957
84	0xbdba292e	-0.09089886
85	0xbe68eb26	-0.22745952
86	0xbd117b93	-0.03551824
87	0x3ceae045	0.028671393
88	0xbe4b5a2e	-0.1985862
89	0xbda88ef8	-0.08230394
90	0xbdb0b859	-0.086289115
91	0xbe0d123a	-0.13776484
92	0xbd86b636	-0.06577723
93	0xbe1d0ae1	-0.15336181
94	0x3d795485	0.06087162
95	0x3d1973ff	0.037464138
96	0x3d4d3b94	0.050105646
97	0xbe1a09f5	-0.15042861
98	0xbe077dd3	-0.13231592
99	0x3dfa0337	0.122076444
100	0xbd6a772c	-0.057242557
101	0xbdbb7213	-0.09152617
102	0xbd4fa556	-0.050694786
103	0xbe0f4ba1	-0.13993694
104	0xbcab11d4	-0.020882525
105	0xbe09d0e4	-0.13458592
106	0xbdbbc017	-0.091674976
107	0xbceefb0c	-0.029172443
108	0x3da386a8	0.07984668
109	0xbcf44e2e	-0.029822435
110	0x3d9101cb	0.0708042
111	0xbe765843	-0.24057107
112	0x3dc6d137	0.09707873
113	0x3dc9e9b3	0.09859028
114	0xbd35ef0e	-0.044417433
115	0x3b4eee2e	0.0031575072
116	0x3d8b26dc	0.06794521
117	0x3dff3ef8	0.12463182
118	0xbe2e2728	-0.17007124
119	0xbbfd7b05	-0.0077356123
120	0x3dd5ff9f	0.104491465
121	0xbe3e1cd7	-0.18565689
122	0x3dbd96f2	0.09257306
123	0xbdc80175	-0.09765903
124	0xbdb6323b	-0.088962995
125	0xbd09ed7b	-0.033673745
126	0xbd96fd8d	-0.0737258
127	0xbdbfdc87	-0.09368234
128	0x3dfb5cd7	0.12273567
129	0xbdb46bb5	-0.08809606
130	0x3dd7498f	0.10512077
131	0x3db87f19	0.09008617
132	0xbd5f9660	-0.05458677
133	0xbcf46af8	-0.029836163
134	0xbd7f9df5	-0.0624065
135	0xbdfa77fe	-0.12229918
136	0xbd2a096c	-0.04151289
137	0x3db939b6	0.090442106
138	0xbe4f2d02	-0.20232013
139	0x3d956160	0.072939634
140	0x3cbbb08f	0.022911338
141	0xbda8b50a	-0.082376555
142	0xbdc97904	-0.09837535
143	0x3e28c71c	0.16482204
144	0xbdb284f4	-0.08716765
145	0xbd8541ea	-0.06506713
146	0x3c706811	0.014673249
147	0xbd1a6dc1	-0.037702326
148	0xbe0eb62c	-0.1393668
149	0x3db71008	0.089386046
150	0xbd0afa55	-0.03393014
151	0x3d85b4bd	0.06528614
152	0xbdfd823a	-0.12378354
153	0xbe493db8	-0.1965245
154	0x3e7fd18e	0.24982283
155	0xbe245a60	-0.160501
156	0x3da14ba0	0.078757524
157	0x3c73554f	0.014851882
158	0x3daeb6af	0.08530938
159	0x3da73e78	0.08166212
160	0xbd9b528c	-0.07584104
161	0x3df1107c	0.11770722
162	0x3d96ccd8	0.073632896
163	0xbe1d1c77	-0.1534289
164	0xbdc8a192	-0.09796442
165	0x3d8ee817	0.069778614
166	0xbb41bf4a	-0.002956348
167	0xbd7833d8	-0.060596317
168	0x3d8b66c3	0.068067096
169	0xbcdf13e3	-0.027231162
170	0x3dca54f8	0.09879488
171	0x3e0105de	0.12599894
172	0x3ceba3d0	0.028764635
173	0x3dc0a2de	0.094060645
174	0xbd645886	-0.055748485
175	0xbdc87232	-0.09787406
176	0xbe2951dc	-0.16535133
177	0x3d8605dd	0.06544087
178	0xbdfafd56	-0.12255351
179	0xbdb1bcbd	-0.08678577
180	0xbdbd1c44	-0.09233907
181	0x3da0b7bf	0.07847547
182	0x3c66324e	0.0140500795
183	0x3d95133c	0.07279059
184	0xbd998a56	-0.074970886
185	0xbe04e982	-0.12979701
186	0x3db269b3	0.08711567
187	0xbd0da9dc	-0.03458582
188	0xbd84937f	-0.06473445
189	0x3e0d174b	0.13778417
190	0xbdda046b	-0.10645374
191	0xbc856395	-0.016282836
192	0xbd53498e	-0.05158382
193	0xbd9ad659	-0.07560415
194	0xbd0adb97	-0.033900823
195	0x3e07d490	0.1326468
196	0x3d4bd673	0.04976506
197	0x3df25889	0.11833293
198	0x3d8f458b	0.06995686
199	0xbd72bafc	-0.059260353
200	0x3d896ddc	0.06710407
201	0x3dd8ab3b	0.105795346
202	0xbd89d524	-0.067301065
203	0xbd83f87a	-0.064438775
204	0xbd56914f	-0.05238467
205	0x3d6049db	0.054757934
206	0xbb8307d0	-0.003998734
207	0xbd6b85a6	-0.057500504
208	0xbc51c4d1	-0.012803272
209	0xbd9a5407	-0.07535558
210	0x3d2f2dee	0.04276841
211	0x3ce8c3b7	0.028413637
212	0x3de111f4	0.109897524
213	0xbc761046	-0.015018528
214	0xbd545f08	-0.05184844
215	0x3d7c1283	0.06154109
216	0xbd80b3c2	-0.06284286
217	0x3db9e7b7	0.09077399
218	0xbe513b17	-0.20432697
219	0x3ddd37b5	0.10801641
220	0x3d8287d5	0.06373564
221	0xbdd43a45	-0.103626765
222	0xbd3c3183	-0.045945656
223	0xba244dd0	-0.00062676985
224	0xbdda337d	-0.10654352
225	0x3cb5585f	0.022136865
226	0xbdf6d0bc	-0.12051532
227	0xbdd9a648	-0.10627419
228	0x3dc3e98b	0.09566029
229	0xbd6aa043	-0.057281744
230	0xbdc4891a	-0.095964625
231	0x3d6366c4	0.055517927
232	0xbe23e4c2	-0.16005233
233	0xbd9982ea	-0.07495673
234	0x3cae58d4	0.02128259
235	0x3e156469	0.14589085
236	0x3da865ee	0.082225665
237	0x3e1f24f4	0.1554144
238	0x3de8e472	0.113716975
239	0x3de0f916	0.10985009
240	0xbd880a57	-0.06642597
241	0xbe1f5bfb	-0.15562432
242	0xbd7b9873	-0.061424684
243	0x3d9c1e86	0.076230094
244	0xbd5e5df6	-0.054288827
245	0xbe205aae	-0.15659592
246	0x3854b6d8	5.0715025e-05
247	0xbd9fbe34	-0.0779995
248	0x3daa38c4	0.083116084
249	0xbc2e8ed2	-0.010654168
250	0xbe3ef685	-0.18648727
251	0x3df7d71b	0.12101575
252	0x3d8e2b5b	0.06941863
253	0xbe0e42f4	-0.13892728
254	0x3cf1bc0b	0.029508611
255	0xbda130f0	-0.07870662

fc2.bias f4 [5]
0	0xbb973619	-0.0046146032
1	0x3d5b7b51	0.0535844
2	0x3d49234f	0.04910594
3	0x3d1162bf	0.035494562
4	0xbcda8060	-0.026672542
