Trained_Weights/v4.1 10th.pth (torch, 681682 bytes, 12 tensors)

conv1.weight f4 [32, 1, 3, 3]
000000 fb b2 ff 3d 14 23 84 be 80 1e 99 be f7 0f 49 bd
       0.1248531 -0.25808012 -0.29906082 -0.04908749
000010 68 ed fb bd ea 5f ae 3e 0f a9 72 3e 95 ff 65 be
       -0.12301141 0.34057552 0.23697303 -0.22460778
000020 29 28 4e bd 84 10 90 3e 3a b0 a2 3c 02 3f ba 3c
       -0.05033127 0.281376 0.019859422 0.022735123
000030 d9 9c 87 3e 06 af 0f bd 5f 38 74 3e 79 69 0e 3d
       0.26486853 -0.035079025 0.23849629 0.034768555
000040 15 9a 2a bd 03 a9 12 3e 08 75 b6 3d 23 cb 15 be
       -0.04165085 0.14322285 0.08909041 -0.14628272
000050 06 62 4f bb 93 f2 65 3e a2 d1 ac be ef e3 59 3e
       -0.003164412 0.22455816 -0.33753687 0.21278356
000060 78 59 ad bd 99 55 33 3e e4 46 ee 3d 09 87 6b 3e
       -0.084643304 0.17513122 0.11634615 0.2300073
000070 c4 13 c4 3d 5d 4a 85 3e 80 f0 2e be bc 5f 5d be
       0.095740825 0.26033297 -0.17083931 -0.21618551
000080 f6 ca 09 be ac 29 2c bd 7c c7 97 be c6 1f b2 3d
       -0.1345633 -0.04203193 -0.29644382 0.086974666
000090 42 8c 3e bd 95 75 b8 3c d3 df 59 3e 2a 01 fd bd
       -0.04652048 0.022517005 0.21276788 -0.12353738
0000a0 88 aa 8b 3e cc 12 90 3e a9 c4 f1 3c 6f 7a 51 bd
       0.27278543 0.2813934 0.02951272 -0.051142152
0000b0 6a 29 45 be d0 04 9a 3e cf f2 9a 3e e7 63 22 bd
       -0.1925408 0.30081797 0.30263373 -0.039646056
0000c0 0a c1 99 3e 46 48 63 be 76 a4 a1 3c 29 c4 61 3d
       0.3003009 -0.22195539 0.019731741 0.055118714
0000d0 9e 61 53 3e 27 d4 c0 bd 01 19 ad be b8 13 92 3d
       0.20642707 -0.09415465 -0.3380814 0.07132667
0000e0 a5 e8 b0 bd 2e a4 25 3e 5d ff 8a be db e4 3f be
       -0.086381234 0.16175911 -0.27147952 -0.18739645
0000f0 f5 5b 47 3d 10 e5 5e 3e 5b 5b 27 bb 59 dd 59 bd
       0.04867168 0.21767068 -0.002553663 -0.05318961
000100 be a5 d9 bd fb c0 56 3e 20 6e 1e be e2 6d 20 be
       -0.10627316 0.20972054 -0.15471697 -0.15666917
000110 5f c3 ab 3d c0 10 10 3e 3c 55 3b 3e 8b 1b 10 3d
       0.083868735 0.1406889 0.18294233 0.035182517
000120 d6 d5 74 3e 80 2e fa bd 4b 82 1a be da ff 9d 3e
       0.23909697 -0.122159004 -0.15088765 0.30859262
000130 b9 d8 29 bd 7d a4 87 bd 0b 04 81 3d dd f0 ac 3d
       -0.04146645 -0.066231705 0.06299599 0.084443785
000140 e9 10 44 3e 80 39 50 3e ae 3c 5b bd 13 c5 8a bd
       0.19147076 0.20334435 -0.053524666 -0.0677587
000150 2a 8d 1c be 3c 65 85 3d f3 50 aa bd 74 7f 4e 3e
       -0.15288225 0.065134495 -0.08316221 0.20165807
000160 7c fb 7d be 57 e7 31 3e b3 87 85 bd e3 86 56 3e
       -0.24802965 0.17373405 -0.06520023 0.20949893
000170 af 74 89 3c 31 22 86 3e af 66 57 3e 3c 40 30 be
       0.016779272 0.2619796 0.21035264 -0.17212003
000180 38 85 66 be 9a 2a 6b 3e 8b e8 70 bd ee 06 98 be
       -0.22511756 0.2296547 -0.05881552 -0.29692787
000190 7b a3 5d 3e 5d a7 a9 be ea 6b df bc 1b 0a 94 3e
       0.21644394 -0.331355 -0.027273137 0.2891396
0001a0 1c 02 01 3e 8f 14 00 3d a4 8e 74 3e ae 99 2b 3e
       0.12598461 0.031269606 0.23882538 0.16757843
0001b0 cf 4c 6f 3d ec 21 4d 3e 32 38 7e be d9 3d 89 be
       0.05842286 0.20032471 -0.24826124 -0.26805
0001c0 96 b9 85 bd 21 93 3b 3e 37 ce a7 be 55 f2 a2 3d
       -0.06529538 0.18317844 -0.32774517 0.079563774
0001d0 cb 65 60 bc b3 94 9a be 1d 94 82 3e 62 bf 18 bd
       -0.013696144 -0.30191574 0.25503626 -0.037291892
0001e0 78 8b 20 3e f2 52 2a 3e 1d 70 a9 be ee 0b d0 bd
       0.15678203 0.16633204 -0.33093348 -0.101585254
0001f0 46 7d 8f bb 4f 6c eb bd 30 9f 93 be a0 57 1c bd
       -0.0043789474 -0.114952676 -0.28832388 -0.038169503
000200 d7 0d 9e 3e eb ec 4f 3d 2a 87 46 3e cb 4b 9a bd
       0.30869934 0.050763052 0.19387498 -0.075339876
000210 de 1c 7b be 4c e9 6f be dd f4 72 be 03 b8 83 3e
       -0.2452273 -0.2342884 -0.2372622 0.25726327
000220 af 80 09 3e 2f 9a 90 be 68 cc ae 3b cb 9e 9b bd
       0.13427995 -0.28242633 0.0053344257 -0.07598647
000230 51 71 14 be 87 5a 7f 3e d8 25 94 be 1b e8 7e be
       -0.14496352 0.24936877 -0.28935122 -0.24893229
000240 aa 72 70 3e 16 24 f0 3d 4b c2 0b 3c 24 c6 bd be
       0.23481241 0.11725633 0.00853021 -0.37065232
000250 f5 bd f9 3d b9 60 fe 3a 7b 13 b3 3c 32 81 08 be
       0.121944346 0.0019407488 0.021859875 -0.13330534
000260 9a 53 15 be 1f a7 65 be 13 bb 3d be 7d 79 86 bd
       -0.14582673 -0.22427033 -0.18528394 -0.06566141
000270 02 3f 49 3e 48 1f 4a 3e 14 c6 ee 3a 75 98 94 be
       0.19652942 0.19738495 0.0018216991 -0.29022565
000280 68 2c 13 3e 43 d0 25 3d 5a 4c 81 be 35 08 31 3e
       0.14372408 0.040481817 -0.25253564 0.17288287
000290 37 9a db bd fb 79 21 be 68 7d 3c 3b 5b 8f 74 bd
       -0.107227735 -0.15769188 0.0028761271 -0.059707027
0002a0 48 d8 2b 3e 5e f2 68 3e e6 e5 2c be 56 21 da bd
       0.16781723 0.22748706 -0.16884574 -0.106508896
0002b0 97 72 93 be c8 60 99 be ba c3 8f be 1e 49 de 3d
       -0.28798363 -0.2995665 -0.28079015 0.1085379
0002c0 3b 35 85 be 41 65 ec bd e2 c9 98 be 78 19 3c bd
       -0.26017174 -0.1154275 -0.29841524 -0.045922726
0002d0 8a 53 80 be 5e cd a2 bd c6 b1 90 3c 8a c3 f3 bd
       -0.25063735 -0.07949327 0.017662894 -0.119025305
0002e0 5c 39 a4 3e 81 fe 86 be e3 02 d6 3d 70 20 0b be
       0.32075012 -0.26366046 0.10449769 -0.13586593
0002f0 e0 83 5e be 74 f4 68 3d b6 bf 24 3d fa fd 07 be
       -0.21729994 0.056873754 0.040221892 -0.13280478
000300 60 af 1c 3e f2 9e 03 be 9e 60 23 3d ef d5 06 be
       0.15301275 -0.12853602 0.039887063 -0.13167547
000310 a0 fa 49 3d 36 2e c7 bd 22 89 b0 bd 44 fa c8 bc
       0.04931128 -0.09725611 -0.08619906 -0.024533398
000320 00 43 60 bd 15 9d 18 bd db 25 73 3e 59 78 4c be
       -0.054751396 -0.03725918 0.2374491 -0.19967784
000330 0f 5b 6b be 85 50 4f 3e 3b 45 b3 bc e2 56 13 bd
       -0.22983955 0.2024556 -0.021883598 -0.03597153
000340 c5 69 8c 3d 5c 43 7d bd 60 41 8a 3e 1e 04 a9 be
       0.068561114 -0.061831817 0.27003002 -0.33010954
000350 54 d5 52 bd 95 15 3d 3e 22 57 99 be 6d 3a 68 3e
       -0.051472977 0.18465264 -0.2994929 0.22678538
000360 0d 3e 7d be a7 53 96 3e 40 d2 1c be 74 48 38 3e
       -0.24730702 0.29360697 -0.15314579 0.17996389
000370 85 3d 15 3e b7 f7 95 be 27 23 14 3b d6 44 61 3e
       0.14574249 -0.29290554 0.002260396 0.21998915
000380 3a 7d 96 3e 81 ff d6 3d 61 94 d6 3d 98 0d 1f be
       0.29392415 0.10497952 0.1047752 -0.1553253
000390 30 2f 6b be b2 f4 ea 3c 45 d3 26 be ad 5b 90 bd
       -0.2296722 0.028681133 -0.1629153 -0.07048736
0003a0 d6 c8 9c bd 54 c7 4c be f7 fc 25 be 63 c2 a0 3e
       -0.07655494 -0.19997913 -0.1620978 0.31398305
0003b0 35 a3 7a be 2d 2e eb 3d 88 22 22 3e 6f 19 9d 3e
       -0.24476321 0.11483417 0.15833485 0.30683467
0003c0 42 11 11 be b8 9b 70 3e 55 fe 0d be fe 26 88 3d
       -0.1416674 0.23496902 -0.13866551 0.06648062
0003d0 b6 5a 80 bd 27 c5 6e 3d 9c fd 9a be 20 fc a1 be
       -0.06267302 0.058293488 -0.30271614 -0.3163767
0003e0 96 df 42 bd 81 4e 83 3e fb ff 6f 3e a8 38 03 be
       -0.04757651 0.2564583 0.23437493 -0.12814581
0003f0 06 88 48 bd 2d 7a a2 3e d8 bc 3e 3c 02 f5 19 3e
       -0.048957847 0.31733838 0.011641704 0.1503487

conv1.bias f4 [32]
000000 5c 96 9a 3d b4 d8 b5 be f9 ee da bc 1f 9b ba 3d
       0.0754821 -0.35516894 -0.02672528 0.09111618
000010 be 5d 61 be a6 94 b4 be 7d 0c 80 3e 30 09 ce bd
       -0.22008416 -0.3526966 0.25009528 -0.10060346
000020 35 50 9a be 21 ff 99 bc c5 bc 4e be 76 12 26 be
       -0.30139318 -0.018798413 -0.20189197 -0.1621798
000030 64 26 7c 3e f2 bc 55 3e 04 ff 56 3e df 00 35 3e
       0.2462402 0.20872858 0.20995718 0.17676114
000040 f6 aa 80 3d 36 09 aa 3d 8e 0f aa 3d 9d df 8e be
       0.06282608 0.08302538 0.08303748 -0.27904978
000050 0f 5f 48 3e 6c fc 99 3d d1 2f 8e 3d 4f cb 55 3c
       0.19567512 0.07518849 0.06942714 0.013048961
000060 ab aa 9e be d5 95 a0 3e 38 8f 5f be be f4 9b 3d
       -0.30989584 0.31364313 -0.21831977 0.0761504
000070 87 ba bd bd 5f fb 10 be fd ed 06 3e e2 a8 7a be
       -0.09264093 -0.1415839 0.13176723 -0.24478486

conv2.weight f4 [32, 32, 3, 3]
000000 e3 1e 18 bc 09 04 cd 3c 57 26 4c bd 7b b3 55 3d
       -0.009284708 0.025026338 -0.04984125 0.05217312
000010 c1 23 2b bd 4e 97 57 3d 54 ee 47 3d b6 4a aa 3c
       -0.041782144 0.05263453 0.04881127 0.020787578
000020 cd c9 b2 bc ab c1 30 bd 53 7b 62 bd 5b 31 ec bc
       -0.021824742 -0.043153446 -0.055293392 -0.028832128
000030 2c a1 44 bd 67 7c 96 bd e6 21 b4 bd 16 6e a7 bc
       -0.048005268 -0.073479466 -0.08795528 -0.020438235
000040 6a c2 9c bd f7 8a 88 bd 13 f2 9f 3c 02 3c 83 bc
       -0.07654269 -0.066671304 0.01952461 -0.016019825
000050 52 4d 6a bd 50 bd 1d b9 60 94 34 bd 37 90 9a 3c
       -0.057202645 -0.00015043211 -0.044086814 0.018867595
000060 9f cc e6 3c 0b 9a 24 3c 17 50 6c bd cd 36 c4 3c
       0.028173743 0.010046492 -0.057693567 0.023951912
000070 6f 7c 3f 3d 53 52 d6 3c 18 86 a6 3c 8b 4b 80 3c
       0.04674953 0.026162302 0.020327613 0.015661022
000080 52 6d 09 3d 07 1b a2 bc e8 02 5c bd 3d e0 5f 3c
       0.03355152 -0.019788278 -0.05371371 0.013664302
000090 4b 42 7a bb 94 71 0c bc b4 05 5d bd 55 f8 91 bc
       -0.0038186486 -0.008572001 -0.053960517 -0.01781861
0000a0 bf fc 82 bd 88 52 9a bc c3 64 84 bc 09 45 e9 3c
       -0.06395864 -0.018838182 -0.016161328 0.028475301
0000b0 6f 4b 44 3d 24 26 29 bd 6a 3f b4 bd 94 8d fe bd
       0.0479235 -0.04129614 -0.08801158 -0.12429348
0000c0 af 5a f2 bd 9c be 9f bd e5 c5 b7 bd bf 79 90 bd
       -0.11833703 -0.07800028 -0.08973292 -0.07054471
0000d0 1c 52 9d bd 16 c0 32 be 94 15 b5 3c 0d 9b 80 3a
       -0.07681677 -0.17456087 0.022105016 0.0009811834
0000e0 e9 06 36 bd f2 22 18 bd e8 9c 36 3d 1a 69 5a 3d
       -0.044440184 -0.0371427 0.04458323 0.05332289
0000f0 27 f7 17 bd b1 0b f9 3c 70 e8 02 3d d9 03 fd b9
       -0.037100937 0.030401083 0.03195995 -0.00048258787
000100 70 74 50 bd f3 21 30 bc 86 79 07 bc fb 06 18 bd
       -0.050892293 -0.010750282 -0.00826872 -0.037116032
000110 b6 44 75 3c 83 11 8d 3c 9a a7 c7 3c 92 03 e6 bb
       0.014969995 0.017220264 0.02437191 -0.0070194686
000120 2c 13 e7 3c cb be 37 bd bf 69 26 bc eb 8d 6a 3b
       0.028207384 -0.04485969 -0.010157048 0.0035790156
000130 5c 40 50 3c c3 b1 f6 bc e1 c0 b0 bc d3 a9 9c bd
       0.012710657 -0.03011406 -0.021576347 -0.07649579
000140 d2 db 9e bd 50 00 75 3c d9 6c 40 bd ea 7b 3c 3d
       -0.07756771 0.014953688 -0.046978805 0.04601661
000150 fd 44 86 ba 25 ae 13 bd 4d 8c 63 bd cb a5 84 3d
       -0.0010243949 -0.03605475 -0.055553723 0.06476935
000160 ff 4c 28 3d ad c7 f9 3c 0c 8f e2 3c 91 e6 c7 3a
       0.041089054 0.03049072 0.0276561 0.0015251209
000170 9a a0 a5 3a ea bb b0 bc 06 78 90 bd f8 5f 66 bd
       0.0012636364 -0.02157398 -0.07054143 -0.056243867
000180 fc 22 b7 bd 53 36 82 bd c7 70 d2 bd ce eb b1 bc
       -0.089422196 -0.06358018 -0.10275417 -0.021718886
000190 b3 6a bc bc 88 2a 58 bc 0d 08 52 bd 26 02 8e bc
       -0.023000097 -0.013193734 -0.05127721 -0.017335009
0001a0 62 01 89 bc 09 97 41 bd 80 b5 96 bd fc 54 13 3b
       -0.016724292 -0.04726318 -0.07358837 0.0022481075
0001b0 c1 ed 45 3d 9c 4c e6 3c c2 df c3 3b fa 9c 33 3d
       0.048322443 0.028112702 0.0059776017 0.043850876
0001c0 c3 7f d3 bc 9a 32 f4 bb db 0e 58 3d dc 43 17 3d
       -0.025817757 -0.0074523212 0.052748542 0.03692995
0001d0 04 54 48 3d 5e 53 54 3d 44 50 d9 3c e8 01 83 3b
       0.04890825 0.051837318 0.026527531 0.00399803
0001e0 1c 73 30 3d 4a 67 e2 3c ee 6f 38 bd cf 16 dc 3c
       0.043078527 0.027637143 -0.04502862 0.026866345
0001f0 bf fb 04 3d 14 fd 1f bd 04 f6 1d bc 28 85 b7 3d
       0.032466646 -0.039059713 -0.009641174 0.089609444
000200 e7 81 b7 3d 28 73 e9 3a 16 1e 87 3c 42 ea c7 3d
       0.08960324 0.0017810808 0.016493838 0.09761478
000210 60 8f 4f 3d 98 d3 cf 3d 82 00 9e 3d 6f ca 2a 3e
       0.050673842 0.1014778 0.077149406 0.16678785
000220 b7 40 27 3e 86 5b 10 3d a4 56 2c 3e 74 0e 99 3d
       0.1633328 0.035243534 0.16829926 0.0747346
000230 9a 7f 28 3d 4f 3b de 3d 81 7e 9c 3d 27 ca 12 3e
       0.041137315 0.10851156 0.07641316 0.14334927
000240 99 ca 23 3d cc 90 2f bd 9e 4b d5 bc d4 9f 42 bd
       0.039988134 -0.0428627 -0.026037034 -0.047515705
000250 04 1d 40 3c 81 37 11 3d 5d 61 1d bd c7 35 5c 3c
       0.011725668 0.035453323 -0.03842293 0.013440556
000260 25 99 21 bd ac b1 32 bd 39 1b 63 3d 3d cb 25 3d
       -0.03945269 -0.043626472 0.055445883 0.040477026
000270 ba 08 20 bd 28 b8 3f bd d3 be c2 3c 4c 91 1a bc
       -0.039070822 -0.046806484 0.023772633 -0.009434056
000280 5f e5 01 3d 80 4c 99 3c 1d 91 11 bd ad a4 59 ba
       0.031712886 0.018713236 -0.03553878 -0.00083024317
000290 ec b2 e2 3c ea c0 9c bc 81 45 5b bc 95 9a 69 3d
       0.027673207 -0.019134957 -0.01338327 0.057032187
0002a0 c6 34 13 bd 9d 65 eb bc 3c ed 60 bd 5d bc 58 bc
       -0.035939 -0.028734976 -0.054913744 -0.013228503
0002b0 b7 00 9f 3a 9f 16 f1 3c 82 76 fe 3c eb cc 01 3c
       0.001213095 0.029429732 0.031062368 0.007922391
0002c0 bb 76 e4 bc 72 28 80 3c 62 33 31 bc 6a 39 cb 3c
       -0.027888646 0.015644286 -0.010815473 0.02480765
0002d0 42 ee 87 3d 5b 87 22 3b 1e 27 c8 3c 39 09 be bc
       0.06637241 0.0024799916 0.024432715 -0.023197757
0002e0 20 44 0e 3d 33 d4 3a 3d 20 ca f3 3c 43 9a 05 3d
       0.034732938 0.045612525 0.029759467 0.03261782
0002f0 a2 b1 8b 3d 9e 1a 3b 3c 04 76 56 3d 27 97 26 3d
       0.0682099 0.01141992 0.052358642 0.040671494
000300 35 bd 31 bd c1 3e bc 3c 48 e4 c0 3c 03 4a 0d bd
       -0.043393333 0.022979142 0.023546353 -0.03449441
000310 4e b6 37 3d 4d be 3a 3d 19 62 93 3c 26 44 d0 bc
       0.044851594 0.04559164 0.017991113 -0.02542312
000320 29 bf b3 3b 97 57 66 3a 1e 48 1d bd 5e 67 fe 3c
       0.0054854346 0.00087868556 -0.038398854 0.031055149
000330 34 42 6c b8 1b 12 fd bb 1b be ca 3c 95 db 11 3d
       -5.632844e-05 -0.0077231056 0.024748852 0.0356098
000340 20 fe 1d bd fc 6f 94 3c 32 18 96 3c 0e 6f 88 3c
       -0.03857243 0.018119805 0.018322084 0.016654518
000350 e8 c6 15 bc 54 ac 7e 3d 19 c3 4b 3c c0 df 1d bd
       -0.009141661 0.062176064 0.012436652 -0.038543463
000360 3a eb b8 3c c8 dc 3b bd 35 60 1b bd 2d b2 60 bd
       0.022573102 -0.04586485 -0.037933547 -0.05485742
000370 a1 86 1a bd 7f dd 4e 3c ff 99 99 bd 21 a0 68 bd
       -0.03772605 0.012626051 -0.075000755 -0.056793336
000380 a8 fb 0c 3d 84 9b e8 3d a9 ee 86 3d 88 92 e5 3d
       0.034419686 0.11357787 0.065884896 0.11209589
000390 50 b7 58 3d 8b 99 27 3e 9d d6 be 3d 95 64 06 3e
       0.052909195 0.16367166 0.09318278 0.13124306
0003a0 0d 59 0b 3e 7f ee 8c 3d 08 fb 62 bc 92 c9 28 3d
       0.13608189 0.06881427 -0.013853796 0.041207857
0003b0 46 40 30 bc 59 71 14 bd 69 bf 28 bc 4a e8 2d 3d
       -0.0107575115 -0.03624091 -0.010299542 0.042457856
0003c0 c1 10 2c bd 8e 9f 5f 3c 68 96 2b bd 6a bf 2d 3d
       -0.042008165 0.013648881 -0.041891485 0.042418875
0003d0 24 ab 29 bd d6 89 f3 3c e7 0d 29 3c 26 08 fe 3c
       -0.041422978 0.029728811 0.010318256 0.031009745
0003e0 8b 68 54 3d 3c 12 23 3d da 4b b3 bc 3d de 45 3d
       0.051857512 0.03981231 -0.021886755 0.048307646
0003f0 ea 87 09 bd fb 56 2f ba 02 b6 73 bd d2 bc 09 bd
       -0.033576883 -0.00066886813 -0.059499748 -0.03362734

conv2.bias f4 [32]
000000 ca be 08 bd c4 95 3d 3d da 35 d4 3c 97 08 17 bc
       -0.033385076 0.046285406 0.025904585 -0.009218357
000010 1c 06 cc bb 34 f1 71 3d 0a 51 2a bd f0 4c 85 3c
       -0.006226314 0.05906792 -0.04158119 0.016272038
000020 c6 ab d5 3c 0f d4 8c bc b0 05 0a bd ed f6 39 bc
       0.026082885 -0.017190961 -0.03369683 -0.011350376
000030 40 13 d6 bc b1 24 a0 3c b5 b3 d1 3b f4 71 a0 3d
       -0.026132226 0.019548746 0.0063995966 0.07834235
000040 e8 47 a2 3d a6 b0 4f bd 98 72 81 bd 38 ac 99 3c
       0.07923871 -0.050705574 -0.06320685 0.018758878
000050 fe ae f3 bc e6 eb ae 3a f5 39 20 bd 2c be 32 bc
       -0.029746529 0.001334545 -0.039117772 -0.010909598
000060 44 5b 8f bd 17 f7 2a 3c 97 4d 9b bd d7 d9 2b 3d
       -0.069998294 0.010434887 -0.075831585 0.041955795
000070 d4 41 65 3a ce 9b f7 bc 16 3f d1 3c d0 cd 68 bd
       0.0008745466 -0.03022566 0.025542777 -0.056836903

conv3.weight f4 [32, 32, 3, 3]
000000 7c f0 42 3d 51 ac 26 3c a0 6b cf 3c 84 ae 6d bc
       0.047592625 0.010172919 0.025319874 -0.01450694
000010 e3 70 ca bc 49 2a 80 bc 12 3e 12 3d 06 1e 90 bd
       -0.024712032 -0.015645163 0.035703726 -0.070369765
000020 6b 09 89 bd 49 36 b3 3d 5d 93 86 bc 44 a5 20 3d
       -0.066912495 0.087505884 -0.01642769 0.03922011
000030 81 df 1b bd 3a 72 a8 bd cf b8 36 bd 94 00 48 3d
       -0.038054947 -0.08224912 -0.04460984 0.048828676
000040 62 6a fc bc 76 0b cb 3c 24 55 86 3d 93 d4 53 3d
       -0.030812446 0.024785738 0.06559208 0.0517164
000050 ad 0f 7b 3d 9a 80 38 bd 45 71 4d bd 6a 63 b7 bd
       0.061294246 -0.04504452 -0.05015685 -0.089545086
000060 a2 73 29 bd a2 53 ff bb 82 be ad bc 3b 43 15 bc
       -0.04137004 -0.007791952 -0.021209005 -0.009110267
000070 55 55 49 3d 2b 10 5d bd 6f af 15 3d f7 35 d9 ba
       0.049153645 -0.053970497 0.03654426 -0.0016571869
000080 57 1a 18 bd 8b 25 90 bc 61 94 11 3d fa bf 4a bc
       -0.037134495 -0.017596027 0.035541896 -0.012374872
000090 9e cb 90 3d 50 64 76 3d 95 82 12 bd df 36 36 3d
       0.07070087 0.06015426 -0.035769064 0.044485923
0000a0 12 0d f4 bc 87 39 10 bc 60 2b d3 bc f9 9c 14 bd
       -0.029791389 -0.008802778 -0.025777519 -0.036282513
0000b0 11 6e 8c bc b8 1d e8 bb 13 ec 1e 3d 66 5d f2 bb
       -0.017142328 -0.007083621 0.038799357 -0.007396388
0000c0 3d 04 5d 3d ed 77 f2 bc ee c5 41 bd 4a e4 07 bd
       0.05395912 -0.0295982 -0.0473079 -0.033176698
0000d0 b9 41 c0 bd f8 69 17 3a df 88 77 bd 89 fe ae bc
       -0.093875356 0.00057759834 -0.060433265 -0.021361606
0000e0 1d 0e 13 bc fc fb ba bb 41 92 ce bc c0 ed 64 3d
       -0.008975533 -0.0057063084 -0.025216224 0.0558908
0000f0 29 e8 d2 b9 ff 5d c7 bb 8c dd 62 3d 48 96 9d bd
       -0.00040227294 -0.0060842033 0.055387065 -0.076946795
000100 5c 5a 64 bd 44 67 a8 bd 1a e1 f2 3c b8 1b 85 3d
       -0.055750236 -0.08222821 0.029648352 0.064994276
000110 70 3c b3 3c a0 8c 0d 3c 8a 84 19 3d db 41 58 3d
       0.021879405 0.008639485 0.037479915 0.05279718
000120 e7 7c 90 bc f4 97 cb bc a9 3e d8 3c 76 28 90 bb
       -0.017637683 -0.02485273 0.026397066 -0.0043993546
000130 2d 0b 69 3c 00 89 d9 3c dc 8d 1c bc 85 81 6e bd
       0.014223856 0.026554585 -0.009555306 -0.05822899
000140 d4 9f 19 bd 8a 1b 5c 3d 01 88 db ba 7f c5 00 bd
       -0.03750594 0.0537372 -0.0016748906 -0.031438347
000150 d2 10 44 bb d7 e1 4f bd 81 ef 13 bd 4a 36 e4 bb
       -0.0029917252 -0.050752487 -0.03611708 -0.0069644796
000160 a0 b5 9e bd bf a8 94 3c 13 51 2a 3d 28 2f 40 3b
       -0.07749486 0.01814687 0.041581225 0.0029324982
000170 03 70 30 bc dd eb 99 3d fa 4a ad 3d 5c 1e 3d 3d
       -0.010768893 0.075156905 0.08461566 0.04617153
000180 b8 04 58 bc 7c 92 a9 3d 9e 82 c5 3d 00 4a e1 bc
       -0.013184719 0.08279893 0.09644054 -0.027501106
000190 4b 12 27 bb 41 64 54 bd 12 71 34 3d 41 e0 48 3d
       -0.0025493081 -0.051853422 0.044053145 0.04904199
0001a0 74 10 a4 3d e6 1f 06 bd f4 c6 a1 3d bc 08 87 3d
       0.08010951 -0.032745264 0.078992754 0.06593463
0001b0 99 3b 88 bd a0 26 21 bd 7d 97 b9 bc c0 13 6e 3c
       -0.06651992 -0.039343476 -0.022655243 0.014531076
0001c0 d5 1f 98 3d 43 13 78 3d 48 a2 32 bd e9 59 09 3c
       0.074279465 0.060565244 -0.043611795 0.008383253
0001d0 f8 89 22 3d ef 4b 86 bc aa ed 8c bd 5f b6 b5 3c
       0.03968236 -0.01639363 -0.06881268 0.022181688
0001e0 99 e6 6e 3c 71 61 14 bc 74 c0 93 3d 94 3e 2a 3d
       0.014581346 -0.009056435 0.07214442 0.041563585
0001f0 b7 a9 55 3d 15 96 bb 3c bc 46 09 bd 73 ec 14 bc
       0.052163806 0.022898713 -0.033514723 -0.009089577
000200 12 95 af bb 3b 00 1b bd 29 50 17 3d aa 23 21 bc
       -0.0053583467 -0.037842017 0.03694168 -0.009835163
000210 3a 1f e6 bb 39 32 a1 bb cb 30 b4 3c 2c 8a 3e 3c
       -0.0070227655 -0.004919317 0.021995923 0.011629622
000220 4c ce 27 bc 81 95 47 3d 89 c6 1c 3d fb 68 06 bd
       -0.010242056 0.048726562 0.038275275 -0.03281496
000230 18 42 a7 3c 9a 52 04 3d b5 13 e4 bc 55 65 5a bd
       0.020417258 0.032305337 -0.027841428 -0.053319294
000240 2d 0c c1 bc f2 16 f7 bc 36 71 48 bd aa 4b f3 bc
       -0.023565376 -0.030162308 -0.04893609 -0.029699165
000250 09 06 97 bd 7d 60 ee bb 3c 73 14 3c f1 de a2 bd
       -0.07374198 -0.007274686 0.009060677 -0.07952679
000260 c5 6a b0 bd fd 8a df bc 90 8e d7 3a e9 4e 87 bc
       -0.08614115 -0.027287954 0.0016445685 -0.01651712
000270 dc b7 80 bc 3c 52 6d 3b ae 38 89 bc 8d 3b 6a bd
       -0.015712671 0.0036212346 -0.01675066 -0.0571857
000280 dc 8b 99 bc 3b 7f 0d 3d ec f1 3b bc 80 de 4a bc
       -0.018743448 0.034545165 -0.011471253 -0.01238215
000290 94 61 e7 bb 97 f6 45 3d 6f 8a 87 3c c2 d3 3f bd
       -0.0070611928 0.04833087 0.016545502 -0.046832807
0002a0 91 2b 4b bb b8 85 e9 bc 66 e7 5b bc cc 7b 49 bd
       -0.003100131 -0.028506145 -0.013421869 -0.049190328
0002b0 b9 83 4e 3c 70 c5 46 bd 35 47 e7 3c f6 65 84 3c
       0.012604647 -0.048528135 0.028232196 0.0161619
0002c0 68 7d 1f bd 6d 88 0e bd 9f ca 89 bd f4 af d9 bc
       -0.038937956 -0.034798075 -0.067281 -0.026573159
0002d0 06 b2 6e 3d 8a 19 37 3d bf b7 48 bb 11 87 23 bd
       0.058275245 0.04470209 -0.00306271 -0.03992373
0002e0 a9 04 9d ba b0 ee bc 3c 87 e9 8f bc b3 83 18 3c
       -0.0011979538 0.023063034 -0.01756741 0.009308743
0002f0 41 a1 bb bc 0a 61 50 bd 93 42 54 bd 9e c2 0f 3d
       -0.02290404 -0.050873794 -0.051821303 0.03509771
000300 31 dc 9a 3c a2 20 9d bc c6 f1 da bc 83 bf 44 bd
       0.018903824 -0.0191806 -0.026726615 -0.048034202
000310 04 67 07 bd 28 89 cb 3b a4 20 b7 bc 6d 5f dc bc
       -0.033057228 0.0062114187 -0.022354431 -0.026900971
000320 8f 10 b8 3b e4 db 8e bc 90 34 4a bc d7 2a c1 bc
       0.0056172083 -0.017438836 -0.012341633 -0.023579998
000330 21 12 92 3d 82 ac 56 b9 4d db 48 bd 84 dc 65 bc
       0.07132364 -0.00020472895 -0.049037267 -0.014029626
000340 51 df 08 bd f8 7b d4 3a 2b 9d 5f 3c c1 dc f1 bc
       -0.033416096 0.0016211262 0.013648312 -0.029524209
000350 28 26 2c bd 66 f5 d2 bc 0a cc 5c 3d b9 65 56 3d
       -0.042028576 -0.02575178 0.053905524 0.052343104
000360 00 1e 92 bd b0 9b 8e bd 15 11 73 bd 0b dc 03 bd
       -0.07134628 -0.06963289 -0.059342463 -0.03219227
000370 a2 1f d7 3d 5a c9 67 bc b7 3e 60 3d 5b 49 de 3d
       0.1050408 -0.014147127 0.05474731 0.10853835
000380 89 d6 d4 ba aa b9 11 3d a8 66 0e 3d 74 af 44 3c
       -0.0016238253 0.035577454 0.03476587 0.012004722
000390 1d 90 b3 bc 3f 65 89 3c 90 4a 88 bd fb ea ac 3c
       -0.021919305 0.01677191 -0.06654847 0.021108141
0003a0 69 12 2f bc 63 99 84 bd 7a 2e 9e bb 32 8f 1c 3d
       -0.010685542 -0.06474569 -0.004827318 0.0382225
0003b0 fb ae ff bb 59 da c2 bc 1f 25 88 3c 0e 28 e0 3c
       -0.0078028417 -0.023785757 0.016619263 0.02736285
0003c0 9c 52 33 3d 95 e7 12 b8 c4 a3 80 bd ec 77 9b 3d
       0.043779954 -3.502479e-05 -0.06281236 0.07591233
0003d0 fc 42 36 3d d1 3e 83 3d e8 d5 1f bd ac 57 c1 3c
       0.044497475 0.06408466 -0.039022356 0.023601376
0003e0 d4 8b dd 3b 7c 58 0b bd b3 8d 4b bd ab 85 89 bd
       0.0067610536 -0.034019932 -0.04969568 -0.06714948
0003f0 d9 cb de 3b 9c eb 9c 3b 2c 6c 99 bc 1f 72 a8 3c
       0.006799203 0.004788829 -0.018728338 0.02056223

conv3.bias f4 [32]
000000 3b c4 2a 3c c7 a5 1c bd a8 a7 d9 3c dd e9 0e 3c
       0.010422762 -0.038244035 0.026569203 0.00872275
000010 ec 80 f1 bc 6d 28 8c 3d 48 6d 66 bc 35 c1 e8 3c
       -0.02948042 0.06843648 -0.014064141 0.02841244
000020 51 88 46 3d 35 83 8e bd 11 f2 31 bd 20 77 b5 bc
       0.048469845 -0.069586195 -0.043443743 -0.02215153
000030 9e 80 aa bc 6c 44 d7 3d 39 da 35 3d 29 50 8e 3d
       -0.020813283 0.10511097 0.044397566 0.06948883
000040 0d d1 bd bd 42 21 48 3d ba c0 04 3c 04 39 bb bd
       -0.09268389 0.048859842 0.00810259 -0.09141734
000050 2f f7 39 3d c7 52 25 3d c8 ac 65 bc ae 72 45 3d
       0.04540175 0.040362146 -0.014018245 0.04820507
000060 d2 86 3e bd f0 cf 53 3d e4 90 a8 bc 17 3e d5 bc
       -0.046515293 0.051711977 -0.020576902 -0.026030583
000070 54 85 3a bd 9b 23 2f bc d0 c3 dc bb 8c ac b6 3c
       -0.045537308 -0.010689641 -0.00673721 0.022299074

conv4.weight f4 [8, 32, 3, 3]
000000 98 6e f5 3d 3e 0d c0 3d 91 0a 32 bc 4f 56 b6 3d
       0.11983985 0.09377526 -0.010866777 0.08903181
000010 5b a9 5c bb d3 4a 29 bd 35 0a c1 bd f3 f8 f6 bc
       -0.003367028 -0.041331124 -0.09425775 -0.030148005
000020 57 2c e6 bd ec db ae bd ad e9 dc bd eb 08 05 3d
       -0.11238926 -0.085380405 -0.107867576 0.032479208
000030 4f 18 c8 bc 97 c0 bb 3b 7a e6 3d 3d f0 fc 39 3d
       -0.024425654 0.0057297456 0.046362378 0.045407236
000040 cd 50 ee 3d b4 01 c0 3d 09 f1 27 bd 54 3d e4 bd
       0.11636505 0.09375325 -0.041001353 -0.1114451
000050 c6 11 19 bd 90 8f 8c bc 09 38 29 bc 2e 60 74 bc
       -0.037370466 -0.0171583 -0.010328301 -0.014915509
000060 d2 9a 6d 3c 8d e6 09 bd bb c7 ca 3d fc ec d9 bd
       0.014502244 -0.033667136 0.09901377 -0.10640904
000070 ad 02 bf bd 50 18 26 bd a4 8d 39 bc 30 3b 7f bd
       -0.09326682 -0.04055053 -0.011325274 -0.062312305
000080 de 45 71 3d 19 b3 6d 3c 68 ab 39 3d 5d 16 1c 3e
       0.05890452 0.014508032 0.04532948 0.15242906
000090 55 a1 d9 bd 74 0c 5a bd b8 2a 32 3c ec e8 68 bd
       -0.10626475 -0.053234532 0.010874443 -0.056862757
0000a0 34 b7 83 bb 76 bf 80 3d 2e 7d 3d 3d ac ea 79 3d
       -0.0040196422 0.06286518 0.04626196 0.061014816
0000b0 8d 87 2d 3e 60 5a c7 3d 68 18 0a 3e 01 d6 40 3d
       0.1694624 0.097340345 0.13485873 0.04707909
0000c0 8c e4 58 3d bc 89 fe 3d 36 11 70 bd 82 f5 8e bd
       0.052952334 0.124286145 -0.058610164 -0.06980421
0000d0 97 c0 3a bc d0 3d 0d be 22 52 ff 3d 98 e3 92 3d
       -0.011398456 -0.13793111 0.124668375 0.07172316
0000e0 3d f1 de 3d ce c2 82 b8 e5 ad 78 3d 5f bc 56 bd
       0.10885856 -6.235168e-05 0.060712714 -0.05242574
0000f0 93 20 37 bd 3e d4 80 3b 0f 23 9f bd ba 85 59 3c
       -0.0447088 0.0039315512 -0.07770359 0.013276512
000100 1e 2b f5 3c 5b 79 89 bb 87 fe c2 bc 3f 08 ed bc
       0.029927786 -0.004195375 -0.023803009 -0.028934596
000110 3d 59 58 bd 6b a7 ff bd c7 5b 2b bd f5 15 9f bd
       -0.05281948 -0.12483104 -0.041835573 -0.0776786
000120 28 20 fb bd bf cf 06 be d6 e0 be bc 1b 3b 99 bb
       -0.12261993 -0.13165186 -0.02330057 -0.0046762354
000130 cc 2b 9a 3c dd e9 e0 3b 40 c4 d0 3d d9 40 78 3d
       0.018819712 0.006863816 0.10193682 0.06060872
000140 67 fe 2d 3e b9 c9 f3 bd 96 bf 00 be 98 dd 19 3c
       0.16991578 -0.1190371 -0.12573084 0.009391211
000150 30 d2 2d bc 3d 43 b7 bb 5d ef 0a 3d d1 7b 65 3d
       -0.010609195 -0.005592732 0.03391968 0.056026284
000160 e4 a7 59 3b 8e 61 6c 3d 05 e1 c2 bd 44 d7 c0 bd
       0.0033211643 0.057710223 -0.09515575 -0.09416059
000170 27 1b 32 bd e3 82 0f ba ff af 17 bd 35 84 ce bc
       -0.043482926 -0.0005474521 -0.037033077 -0.025209526
000180 f6 89 65 3d 6d 2e c8 3d de 56 e2 3d 16 a8 84 3d
       0.056039773 0.0977448 0.11051725 0.06477372
000190 ac 52 e4 3d 9e f3 da bc b2 19 be 3d a0 d5 c2 3c
       0.11148581 -0.026727494 0.09282245 0.023783505
0001a0 8c cd ac bd 70 6e 46 bd 9d 98 e3 bd 1f 47 10 be
       -0.084376425 -0.048445165 -0.11113093 -0.1408963
0001b0 aa fa ba bd 84 57 77 bd 9e 3e 1d bd 82 a5 29 bc
       -0.091298416 -0.060386196 -0.038389795 -0.010354402
0001c0 ae a0 c7 bc e3 32 73 3d 94 61 b1 bb 79 23 c7 3d
       -0.02436861 0.0593747 -0.0054132435 0.09723563
0001d0 68 81 0d 3e ab 36 91 bd 4f fa 6e bc 70 03 38 3c
       0.13818896 -0.07090505 -0.014586045 0.011231288
0001e0 0f d5 d7 3c 34 1f f8 bc ee 6a bc 3d 75 f7 47 bb
       0.026346711 -0.030288316 0.09200083 -0.0030512486
0001f0 19 7a 54 3d 9a 8b f4 3d 29 2a b6 3d 17 5b 0d 3e
       0.051874254 0.119406894 0.0889476 0.1380428
000200 8f 19 14 3d 2e 0e 8e 3d 5a ca 92 3d df 13 53 bc
       0.036157187 0.06936298 0.07167502 -0.012883156
000210 0f f1 ab bd 85 e5 93 bd 0e 4a 03 be ab d2 4f 3d
       -0.08395588 -0.07221512 -0.12821218 0.050738018
000220 ec e6 1a 3d e2 e7 cb 3d b1 72 b0 3d f4 48 83 bc
       0.03781788 0.099563375 0.08615626 -0.016025998
000230 ab 72 34 bd 70 2c 72 3c a1 b0 aa bd 7f cd 8b bd
       -0.04405467 0.014781103 -0.083344705 -0.06826305
000240 64 9e b8 3d dc ad a5 3d fa d5 e5 3c e8 e7 9a 3d
       0.090145856 0.08089802 0.028056134 0.07563764
000250 f0 b8 5c 3d 45 b5 ff bc d3 58 91 bc 13 9d 45 bc
       0.053887308 -0.031214366 -0.01774255 -0.012061375
000260 75 b8 ec 3b e5 b8 dc 3d 57 08 27 3d 79 2a 2c 3d
       0.0072241374 0.10777453 0.040779438 0.042032693
000270 d4 2a b1 3d 4d 6a 93 3d f5 36 da 3b 32 9e 96 bc
       0.08650747 0.0719801 0.0066593834 -0.01838598
000280 4c dc 4f bc db 2b 15 be e7 83 11 be ce 29 07 be
       -0.0126868 -0.14567511 -0.14210473 -0.13199541
000290 b2 4e 66 3c 50 02 8c bd 94 a0 9c bc da 36 89 3d
       0.014056848 -0.068363786 -0.019119538 0.06699915
0002a0 f3 ec 00 3d 0a 79 a0 3d 81 a7 a6 3d f6 59 b7 bd
       0.031475972 0.07835586 0.081374176 -0.089527056
0002b0 16 f8 89 bc f2 7c 06 bc 50 71 84 bd c3 13 8c 3c
       -0.01684193 -0.0082085 -0.06466925 0.017099267
0002c0 88 3e f0 bc 89 b7 87 3d 42 02 17 3d de 73 43 3d
       -0.029326692 0.066268034 0.036867388 0.04771792
0002d0 a0 d2 c5 bd 3b 0b 58 bc 6b 8b 93 3b 1f 79 66 bb
       -0.09659314 -0.013186271 0.004502704 -0.0035167409
0002e0 d6 73 74 bd 99 f5 8a 3d cc ad 22 bc 7a b0 ce 3d
       -0.059680782 0.06785125 -0.009929132 0.10092254
0002f0 b5 6b 0c 3d 80 7d 2d 3d ba 39 75 3d 1b bd 1e bd
       0.034282405 0.042356014 0.059869505 -0.038754564
000300 44 37 e1 3b ce 07 31 3d ec 96 22 bc d6 01 a1 bd
       0.0068730433 0.043220334 -0.009923678 -0.07861678
000310 92 aa c0 bd 29 a6 e0 bd c5 2e b9 3d 8f cf fa 3d
       -0.09407534 -0.109691925 0.09042124 0.1224662
000320 35 0e 6c 3c 1a a9 b2 3c 24 2a 88 3d fd 89 5e 3c
       0.014407684 0.02180915 0.06648663 0.013582704
000330 5b 61 15 bc 59 6f 45 bc 8e df d3 bc b1 03 08 be
       -0.00911745 -0.012050473 -0.025863435 -0.13282658
000340 71 1d 9d bd 4a c1 80 bd df 84 3c bd 7d 45 c4 bd
       -0.07671631 -0.06286867 -0.046025153 -0.09583566
000350 50 04 9b bc 5f 77 7d bc ba 5f 4d 3d 7d 9a 7f 3d
       -0.018922955 -0.015470355 0.05014012 0.06240319
000360 65 1c 99 3d b0 3b 51 3d 3c 2c 82 3b 3c 84 dd 3d
       0.07476119 0.051082313 0.0039725583 0.10816237
000370 fe 73 13 3d 98 60 3c bc 53 7e 37 3d 8d 85 7f bd
       0.03599929 -0.011497639 0.044798207 -0.062383223
000380 7d 37 19 be c3 8f cc 3c 83 9f 6d 3d 79 75 a7 3d
       -0.14962573 0.024970895 0.05801345 0.08176703
000390 1e b3 43 bd 5c fd 51 3d 7e 8c 22 bd 28 19 98 bb
       -0.04777824 0.051267013 -0.039684765 -0.0046416707
0003a0 ed 14 63 bd 78 50 0a bd e0 d2 89 3d ce 9f e8 3d
       -0.05543988 -0.033768147 0.06729674 0.11358605
0003b0 81 f8 a5 bd af 72 76 3c bf 30 cb bc d0 3b 9b bd
       -0.08104039 0.015041991 -0.024803517 -0.07579768
0003c0 0c b7 55 bd c9 d4 9c bc 73 34 f7 bc d8 f7 f7 3d
       -0.05217652 -0.019144433 -0.030176377 0.12107819
0003d0 9d 20 e3 3d a3 03 3c 3c 0d c6 24 3d aa ba 31 bc
       0.11090205 0.011475476 0.04022794 -0.010847727
0003e0 47 ae b5 bc 97 78 9e 3c 26 a4 e9 bd c8 34 0e be
       -0.022177828 0.019344611 -0.11408262 -0.13887322
0003f0 4f 3b 49 3d 5c dd a3 3d 36 c6 03 bd 04 6e e7 3c
       0.049128827 0.08001205 -0.03217145 0.028250702

conv4.bias f4 [8]
000000 dc 1c d3 3c 64 9a 56 3d bf 07 cf bd 48 b9 de 3c
       0.025770597 0.052393332 -0.10108899 0.027187958
000010 ae cf 51 bd 18 c8 3c 3d f6 0e 25 3d 21 da 84 bd
       -0.05122345 0.04608926 0.04029747 -0.06486917

fc1.weight f4 [128, 1152]
000000 8e 72 cd bd 26 d4 91 bc a6 b4 a4 bd ad e4 9d bd
       -0.10031615 -0.017801356 -0.080422685 -0.07709632
000010 be 1a 05 bc 2f fb 08 bd fd 40 12 bd 5c cc a1 bb
       -0.008124052 -0.033442672 -0.03570651 -0.0049376916
000020 96 2a c3 bd 7b cc 0d bc fc b0 2d bd 12 3c 2b bd
       -0.09529607 -0.008654709 -0.042405114 -0.041805334
000030 fb ff 39 bd 0e 90 99 bc 90 c3 fb bc 21 b7 1a 3d
       -0.045410138 -0.018745448 -0.0307329 0.0377723
000040 1a 0c 25 bd 4b 60 98 bc fd f3 94 bc 93 74 cf bd
       -0.040294744 -0.018600604 -0.018182749 -0.10129657
000050 67 9f a3 bd 0e 7e ca bc 71 6b a0 bc ad 05 f1 bc
       -0.07989388 -0.02471831 -0.019582482 -0.029421652
000060 2c d0 f6 3c 52 38 d3 ba de dc 65 bd 3f 1f 20 bb
       0.030128561 -0.0016114807 -0.05611884 -0.0024432687
000070 c9 cb c5 3c aa 0d 3c 3c be 28 ad bc 62 45 f7 bd
       0.024145024 0.011477867 -0.021137591 -0.120737806
000080 62 d4 19 bc d1 e1 58 3c 56 9f 97 bd 23 fb fc bc
       -0.009389015 0.013237433 -0.07403438 -0.03088147
000090 ad e4 ce bc 14 1b b2 bb ac b0 bf b9 7b ec e0 3c
       -0.025255525 -0.005435357 -0.0003656199 0.027456513
0000a0 c2 38 c3 bc 44 9a 8c bd f3 75 89 bc 96 da 3b bc
       -0.023830775 -0.06865361 -0.016779875 -0.011465689
0000b0 59 9f 69 bd e4 e8 c5 bd 45 16 7e bd b4 0d 26 bd
       -0.05703673 -0.09663561 -0.062032957 -0.040540412
0000c0 4b 37 f1 bc 2d 91 da ba 50 e5 fa bb 2f 49 9d 3c
       -0.029445311 -0.0016675346 -0.0076567307 0.019199936
0000d0 b3 ea 1e bc 7b 57 e4 3c d7 7d 70 bd c2 25 8a 3c
       -0.009699511 0.027873745 -0.05871376 0.016863707
0000e0 0e 42 82 bd 61 e9 fa bd 06 f7 4f bd e3 b8 34 ba
       -0.06360255 -0.12251545 -0.05077269 -0.00068940053
0000f0 15 75 84 bd af 67 9e 3c 27 9c e9 bc 40 5d 02 bd
       -0.06467644 0.01933655 -0.028516842 -0.03182721
000100 87 09 a4 bd df bb 36 bd e6 d4 9d bc 50 fe f1 3b
       -0.0800963 -0.04461276 -0.019266557 0.0073850527
000110 4f db c1 bc b5 1c 44 3c 2c af 46 3d 34 66 5a bd
       -0.023664145 0.011969735 0.0485069 -0.053320125
000120 d8 61 0b bd dc 6f 6b 3d 5c 74 c4 3c 3b a2 7e bd
       -0.034028858 0.057479724 0.023981266 -0.062166434
000130 4e 98 44 bc e0 d0 42 bc cc a7 e1 bd 43 3f 04 be
       -0.011999203 -0.01189062 -0.11018333 -0.12914757
000140 e1 ee 13 bd 49 99 82 bd d1 a7 8d bd ea 4d f7 3b
       -0.036116485 -0.06376893 -0.06916774 0.00754713
000150 24 fb dc 3c ba f5 1a 3d 47 c9 33 bd 8d 10 65 3a
       0.026975222 0.037832 -0.043893125 0.0008738123
000160 1f 8c eb 3c 98 f7 b2 3c 2c 35 27 bd ec a7 74 bc
       0.028753338 0.021846578 -0.040822193 -0.014932614
000170 4e d8 2c ba 2d bd b1 3c 05 74 8f bd dd 22 01 bc
       -0.0006593511 0.021696651 -0.07004551 -0.007881847
000180 5b 60 db bc 0d 69 44 3d 3a 43 30 3d 74 df 0e bd
       -0.026779344 0.047951747 0.043032862 -0.03488107
000190 8b 8e af 3d fa 3f 64 bd cf 2d cc 3c b3 88 93 bb
       0.0857211 -0.055725075 0.024924187 -0.00450238
0001a0 bc a6 be bd ba 55 43 3d f5 8b 92 bd e3 26 cd 3c
       -0.09309146 0.047689177 -0.07155601 0.025042957
0001b0 6e 3a 0a 3d f8 13 db 3c 06 63 2c bd a9 67 22 3d
       0.03374713 0.02674292 -0.042086624 0.03964964
0001c0 eb 28 80 bc b8 b3 88 bd 68 9b 69 3d 27 24 15 3d
       -0.015644511 -0.06674904 0.057032973 0.03641143
0001d0 86 b4 5b 3b cb 15 d8 3c 61 5a 36 bb 61 2f 12 3d
       0.0033524348 0.02637758 -0.0027824866 0.035689715
0001e0 2b 23 7b 3c 6e 07 f4 3c 9b a5 fb bc 2b 99 cb 3c
       0.015328209 0.029788699 -0.030718615 0.02485331
0001f0 00 13 43 bd d4 f3 43 3c 85 9d 8d bc ae 99 fa bc
       -0.04762554 0.011959989 -0.017287025 -0.030590858
000200 0a 1a aa 3b 40 1d b8 3d 23 11 df 3d 5c f8 54 3d
       0.0051910924 0.08989954 0.108919404 0.051994666
000210 27 c5 10 bb 39 a1 30 bd be 20 8e bd 8e 6e 24 bd
       -0.0022090168 -0.043122504 -0.06939839 -0.040144496
000220 d6 b8 92 bd 95 cd 18 bd 86 2a 95 bd 72 d0 be 3b
       -0.07164161 -0.037305433 -0.07283501 0.0058231885
000230 51 eb 80 3d f8 3a 22 bc 6d 7e 84 bc 8b 3f 31 3d
       0.06294883 -0.009901755 -0.016173566 0.04327349
000240 57 13 4d bd 03 48 eb ba 53 48 27 bd 15 27 1b 3c
       -0.050067272 -0.0017950538 -0.040840458 0.009469767
000250 cb 38 34 3c 47 b1 98 bc be 95 02 3b 98 6f 75 bc
       0.010999869 -0.01863922 0.001992568 -0.014980219
000260 63 3f a7 bc d8 70 4c ba d3 8a 80 bc 42 b9 2b 3d
       -0.020415967 -0.00077987975 -0.015691197 0.041924722
000270 27 54 dd 3d f8 59 99 3c 67 83 5a bd 1a e7 c3 3c
       0.108070664 0.018719658 -0.05334797 0.023913909
000280 8a 0c 44 3c 17 cc 89 bc 48 f3 00 3c 94 99 a6 bd
       0.01196588 -0.01682095 0.007870503 -0.081347615
000290 d3 1f 44 bd df 11 48 3d 9a a2 7c 3c c3 76 3e bd
       -0.047881912 0.04884517 0.015419627 -0.04649998
0002a0 df 3f e9 3c d6 e7 9b bc 07 28 3f bc f9 f3 7c 3c
       0.028472839 -0.019031446 -0.011667258 0.015439027
0002b0 f0 5c 8a 3c 20 f0 78 3b 04 4a 97 bc a4 79 48 bd
       0.01689002 0.0037984923 -0.01846791 -0.04894413
0002c0 9f 34 b3 bd e8 83 bc 3c 47 ef f1 bc bc a4 b1 39
       -0.08750271 0.023012117 -0.029533042 0.00033882807
0002d0 15 30 fc bc 51 d5 13 3d 17 aa d1 3c b9 2c 4b bb
       -0.030784646 0.036092106 0.0255938 -0.0031001999
0002e0 1e 7e a6 bb 46 06 b7 3c 3f 8e af bc 58 fa f3 bb
       -0.0050809523 0.022341859 -0.021430133 -0.007445615
0002f0 f4 9c b2 bc 06 f8 71 bd 0b a6 90 bd 25 eb a4 3c
       -0.021803357 -0.059074424 -0.0706292 0.020131657
000300 1b 4b a3 bd 5f 28 05 bd f9 49 92 bd 48 3e bd ba
       -0.079733096 -0.032509204 -0.071430154 -0.0014438117
000310 12 22 a4 b9 1c 00 f9 3c b8 00 92 bd 5b 56 26 3c
       -0.00031305902 0.03039556 -0.07129043 0.010152425
000320 12 f8 7c 3c 68 9f da 3b 0e 28 9f 3c ca 38 88 3c
       0.015440004 0.0066718347 0.01942828 0.016628642
000330 e2 5c 8d bd 03 ce 19 3d 0c 3c 38 3d ea 1d 8e bd
       -0.069024816 0.037549984 0.04497914 -0.069392994
000340 35 bb 25 3d 06 a9 39 3d 20 a8 4f bc a7 b5 c9 bd
       0.040461738 0.04532721 -0.0126743615 -0.098491006
000350 35 29 96 bc 86 4b 5e bd 5c a7 a4 bc ea 58 fc ba
       -0.018330196 -0.054271244 -0.020099334 -0.0019252573
000360 ea d1 77 3c f6 e0 28 3d ab 98 38 bd 0d e8 60 bc
       0.015125731 0.041230164 -0.04506747 -0.0137272
000370 79 05 ab 3b be cd a5 3d e9 46 43 bd db c2 44 bd
       0.0052191583 0.08095883 -0.047675047 -0.04803739
000380 44 8f 9b 38 e4 5b da 3c 49 84 66 bd 2e 4d 8a bd
       7.417661e-05 0.026655145 -0.0562785 -0.06753002
000390 36 54 43 3c b4 15 8b 3c 42 49 31 3c 02 9a 8d bc
       0.011921933 0.016978122 0.010820689 -0.01728535
0003a0 b7 cf 88 3d 49 89 e2 bb d0 39 60 bc 23 87 50 3d
       0.066802435 -0.0069133383 -0.013685659 0.050910126
0003b0 4e d4 02 bd ec 18 70 3d 52 84 1f bd d0 bb 31 3c
       -0.03194075 0.058617517 -0.03894455 0.010848001
0003c0 53 9b ca 3c c1 79 55 3d e5 dd 65 bc be ab af 3b
       0.024732267 0.052118067 -0.014029955 0.0053610494
0003d0 83 e4 77 3d a7 86 a3 bd 37 0f fd 3c f4 e8 3f 3d
       0.06052066 -0.07984667 0.030891044 0.04685302
0003e0 89 22 e1 bd 10 a7 69 3d 76 f3 80 3d 39 4e b1 bc
       -0.10992915 0.05704409 0.062964365 -0.021643745
0003f0 ec 91 90 3d 02 f2 14 bc 9e 37 58 bd 8c 70 b1 3d
       0.070590824 -0.009090902 -0.052787416 0.08664045

fc1.bias f4 [128]
000000 d9 b5 75 38 8d 89 d4 bc ea f3 54 bd 7e cb 8a 3c
       5.858191e-05 -0.025944496 -0.051990427 0.016942736
000010 c6 cb 67 bd 02 b1 6e bb 27 9e 41 bd 24 26 34 bc
       -0.056590818 -0.0036421423 -0.047269966 -0.010995422
000020 77 70 8b bd e4 eb ad 3c 10 17 81 3c f9 67 fd bc
       -0.0680856 0.021230645 0.015758067 -0.030933367
000030 bb d6 29 bd 57 66 54 bc fd f9 77 bb 63 87 09 3c
       -0.04146455 -0.012963853 -0.0037838214 0.008394095
000040 9b 87 ac bb 58 36 ff ba 7f 4a 4b bc 35 bb f7 bc
       -0.005265189 -0.0019471152 -0.012407898 -0.030240634
000050 8b bf 33 bc b9 07 74 3c c2 87 03 bd 2b 00 f6 3c
       -0.01097096 0.014894419 -0.03211189 0.030029377
000060 18 12 c2 3b 44 d1 cd bb 12 09 63 bc 83 eb 10 3d
       0.005922567 -0.00628105 -0.013857143 0.03538085
000070 3a 60 0e 3d d1 f2 40 bd f7 11 22 bc e1 19 ff bc
       0.034759738 -0.047106568 -0.009891978 -0.03114027
000080 37 37 1f bd a2 85 10 bd 78 1e e0 bb 5d 4f 33 bc
       -0.038871016 -0.035283692 -0.0068395697 -0.010944215
000090 f0 a6 0a 3c 42 6c 3b ba 18 a7 96 3b 18 ed 40 bc
       0.008462653 -0.00071496156 0.004597556 -0.011775278
0000a0 88 f0 11 bd a7 6c 28 3d 52 8c 01 bd 7e d5 c3 bd
       -0.03562978 0.041119244 -0.03162796 -0.09562205
0000b0 06 3a 00 bd 0f 27 3c bc b9 59 ad bc 7b f4 d5 3c
       -0.031305335 -0.011483922 -0.021160947 0.026117554
0000c0 5d 6a 58 bc 3a 31 c9 bb ab d4 92 bc a2 f2 ad 3b
       -0.013208953 -0.0061399015 -0.017923674 0.005308465
0000d0 5f 8b d1 3b 78 45 15 3c 8c 5a e7 3c 3a fe 12 bd
       0.006394788 0.009110801 0.028241418 -0.03588698
0000e0 2b 62 04 bc ad 5d fa bc c0 68 99 3b 9b ef ff 3b
       -0.008080046 -0.030562246 0.0046816766 0.0078105456
0000f0 2a be 32 3c 6e db 93 bc aa 85 40 3c 37 47 93 bd
       0.010909596 -0.018048968 0.011750618 -0.071913175
000100 c4 44 42 bc ed af 87 bb 2b 1e 94 3c ce 07 67 bc
       -0.011857215 -0.004140845 0.018080791 -0.014100982
000110 bf 2d 0a 3d 4c ac ac 3c fe d5 3b bc 74 5d cd bb
       0.033735033 0.021078251 -0.011464594 -0.006267244
000120 25 0c 4f bd 76 1b d4 3c d6 06 f4 3c 71 52 92 bc
       -0.05054869 0.025892 0.029788416 -0.017861577
000130 0f 11 c4 bc fd f0 41 ba 3a c4 2a 3c 2c e4 9f bc
       -0.023933915 -0.0007398276 0.010422761 -0.01951798
000140 e4 55 35 bb a2 19 58 3c 41 04 f9 bc 13 c8 13 bd
       -0.0027669603 0.013189705 -0.030397536 -0.036079478
000150 18 e7 43 3c ed 5f 69 bd de 81 21 bc bc d9 14 bc
       0.0119569525 -0.056976248 -0.009857623 -0.009085115
000160 8d 7e 7b bd c6 c3 82 3c 12 3c 53 bd 73 66 0d bd
       -0.061399985 0.015962493 -0.05157096 -0.03452153
000170 24 2b 37 bc 74 e0 e7 bc c3 db fc bc e9 1c c1 bc
       -0.011179719 -0.02830527 -0.03086651 -0.023573356
000180 8e d5 47 bd 48 06 6a bd 10 4f 2e 3d e6 fe 3c bb
       -0.048787646 -0.057134897 0.04255587 -0.0028838455
000190 8a 36 ed bb 74 88 01 bc 8f e8 62 bd ff 82 b5 bb
       -0.0072391676 -0.007906068 -0.055397566 -0.0055392976
0001a0 4a 5c 9f bb be 4c 27 bc f0 08 2b bd c2 b6 94 3c
       -0.0048632966 -0.010211168 -0.04175657 0.018153552
0001b0 14 c7 9d bb 98 1e a8 bb b1 42 91 bd 0b f3 5d bc
       -0.0048149917 -0.0051306 -0.070927985 -0.0135467155
0001c0 5c 17 32 3d 82 79 1b 3c 91 ca 0a bd c3 b9 28 3c
       0.04347931 0.009489419 -0.03388459 0.010298195
0001d0 89 9b 17 bd 80 a0 c9 3c 9b 8d e2 bc 65 6e 11 bd
       -0.037013564 0.024612665 -0.027655413 -0.03550567
0001e0 ea e4 a9 bc 32 2a d3 bc b8 3c 3b ba 65 4f 49 3d
       -0.020739038 -0.025776956 -0.00071425317 0.049147982
0001f0 c1 98 a7 bc c0 d8 e3 bc 11 00 cf 3c 2f fc cc bc
       -0.02045858 -0.027813315 0.025268586 -0.025022594

fc2.weight f4 [5, 128]
000000 16 30 5a be 56 90 54 be 9c 30 f3 bd b4 21 4f be
       -0.21307406 -0.20758185 -0.11874506 -0.202277
000010 7c 63 8d 3c b2 a7 d7 3d 4f 90 e8 bb ed 43 98 3d
       0.017259352 0.10530032 -0.007097281 0.07434831
000020 5c b0 07 be a5 54 81 39 60 6f 16 be 27 fe 9e bd
       -0.1325087 0.00024667862 -0.14690924 -0.077633195
000030 e6 65 3e be 04 71 78 bc 32 64 ee bd 27 2c b7 bc
       -0.18593559 -0.015163664 -0.116402045 -0.02235992
000040 ed 25 d6 3d 67 86 81 be 34 71 0a be 00 da b5 bd
       0.104564525 -0.25297853 -0.13519746 -0.08879471
000050 82 86 de 3c 21 47 1e be f1 1b 1d 3e 38 f5 bc bd
       0.027163748 -0.15456821 0.1534269 -0.09226459
000060 d2 f7 8b be 47 e8 f4 bd 2a 3b 05 be 20 f3 e4 bd
       -0.2733751 -0.11958366 -0.1301085 -0.11179185
000070 36 0e 44 be 88 4e 0d 3e 96 7d 2a 3d 3b b4 60 3d
       -0.19146046 0.13799489 0.041623674 0.05485938
000080 1b 61 69 3c c3 94 30 bd 71 c6 5b be 0d 1d 07 3d
       0.014244343 -0.04311062 -0.21462418 0.03298669
000090 ac 61 db 3d ce 41 09 3e 54 75 0d 3d 8b a7 81 3d
       0.10711989 0.13404009 0.03453572 0.063307844
0000a0 42 8b 7a be 44 3c e5 3c 8f 75 f8 3d f7 70 25 bd
       -0.24467185 0.027982838 0.121317975 -0.040390935
0000b0 05 34 de 3c 87 dd a4 bd 2f af 1e 3c cc 52 1c 3c
       0.027124414 -0.080500655 0.009685322 0.009541225
0000c0 8d 1f 5d bc fe 4e ae 3d ca 5d 92 bd 0c e3 af 3d
       -0.013496292 0.0851116 -0.07146795 0.08588228
0000d0 7b fe ac 3d dd 57 3b be 61 67 94 3d 63 09 05 be
       0.08446976 -0.18295236 0.072462805 -0.12991862
0000e0 46 85 f4 3d b0 aa 6a be 57 d0 0a be 0e d0 87 3d
       0.119394824 -0.22916675 -0.13556038 0.0663148
0000f0 14 eb 3e be cd d5 a9 bd c3 eb c3 3d 22 3b 87 3d
       -0.18644363 -0.082927324 0.09566452 0.066030756
000100 f6 73 86 3d a0 13 cb 3d 23 da 40 bc 3d 09 b1 bd
       0.065650865 0.099158525 -0.011770758 -0.0864434
000110 e7 03 be 3d 6e bf 08 3e 3d 99 dd 3d ef 72 0e be
       0.09278088 0.13354275 0.108202435 -0.13911031
000120 39 d7 a2 3d 6d 95 8c be 15 30 c8 3d 6d d2 f2 3d
       0.07951207 -0.27457753 0.09774796 0.11856542
000130 45 dd 0b 3e 94 72 48 be a1 32 90 3d 1f 68 b4 bd
       0.13658626 -0.19574958 0.07040907 -0.08808922
000140 de bc bc bd 26 aa 5a be 26 44 3b be 77 b0 45 be
       -0.09215711 -0.21353969 -0.18287715 -0.19305597
000150 86 2d fd 3d f8 73 0b 3e 23 be c2 3d 18 56 a6 3d
       0.123621985 0.13618457 0.09508922 0.0812189
000160 3d 7c 21 be 22 7f 46 3d a0 c2 8a be 5c 0d 8f bb
       -0.1577005 0.048461087 -0.27101612 -0.0043656062
000170 53 8a 5c 3d 51 14 03 be b6 44 5b 3d 00 a9 e5 bd
       0.053842854 -0.12800719 0.053532325 -0.11213875
000180 b0 78 68 bd 51 6d ba 3d 83 b5 48 be f2 f5 63 3c
       -0.05675572 0.09102882 -0.19600491 0.013913618
000190 26 da 22 be 13 1b cd bc 05 f3 8d bd 01 2a 83 be
       -0.1590353 -0.025037324 -0.06931118 -0.25617984
0001a0 cf 3d 8a be 89 1d 3a be 7b 6b d1 bd f6 81 60 3d
       -0.2700028 -0.1817533 -0.102255784 0.05481144
0001b0 46 21 06 bd 4b 19 a3 3d 20 1a 8b bd 4f 47 88 bd
       -0.032746576 0.079638086 -0.06792092 -0.06654226
0001c0 4d c6 51 be a9 23 17 3d fa 3f 23 bd 78 4c 85 3d
       -0.20485802 0.036899243 -0.039855935 0.06508726
0001d0 9f 60 1d be a3 bf 0d 3e 38 eb 0c bd 53 b1 1b 3d
       -0.1536889 0.13842635 -0.03440401 0.038010906
0001e0 ec d3 64 be 58 24 5a 3d 55 cc 51 bd 4a 94 23 3d
       -0.22346467 0.053257316 -0.051220257 0.03993634
0001f0 2e 7d 74 bc 60 21 97 3d a6 e6 23 3c a4 ab d2 3d
       -0.014922423 0.07379413 0.010003721 0.10286644
000200 d1 ec 59 bd f5 dc 46 3d 29 0f db 3d c5 dc 6d 3d
       -0.05320436 0.048550565 0.10696251 0.05807187
000210 51 19 16 be 9b 66 13 be 31 cd 47 be 60 43 94 bd
       -0.14658095 -0.1439461 -0.19511868 -0.07239413
000220 8a 91 d3 3d 26 e1 b6 bb 17 40 d8 3d e8 e5 1a bd
       0.10330494 -0.005581039 0.10559099 -0.037816912
000230 07 98 df 3d 59 7b 41 3d 17 3b e9 bd ac 0d 99 3c
       0.10917669 0.047236774 -0.113882236 0.018683277
000240 b2 35 17 be 06 52 38 bc 0b 7c b8 bd d4 7a 28 3e
       -0.14766577 -0.011250025 -0.09008034 0.16453105
000250 ec eb ce bd 15 3e 9c bd e7 5c b9 3d 60 46 67 bd
       -0.10103592 -0.07629029 0.09050923 -0.0564636
000260 e5 2a 10 be fb 4b f8 3d eb b1 26 3e fb ef c2 bc
       -0.14078863 0.12123867 0.16278808 -0.023796072
000270 f3 0d 16 3d 52 df 33 be db 1b 6c be 67 51 3d be
       0.036634397 -0.17565659 -0.23057501 -0.18488084
000280 80 57 24 bd b1 44 06 be 0a d6 9f 3d 29 86 47 3d
       -0.04012251 -0.13112141 0.078044966 0.04871193
000290 c7 73 25 be 2c d3 5a be 71 b2 69 3d 7b 56 de bd
       -0.16157447 -0.21369618 0.05705494 -0.108563386
0002a0 92 6e 94 3d 75 82 0b be 50 76 79 3d 7e 3a 4d 3d
       0.07247652 -0.13623984 0.060903847 0.05010461
0002b0 72 4e da bd 87 21 eb bc 50 d4 9a bd 16 8c b2 3c
       -0.106594935 -0.02870251 -0.07560027 0.021795314
0002c0 3b 0c c9 bd 35 bf f1 3d 8d 83 b9 3d d9 b4 c5 3d
       -0.09816786 0.11804048 0.090582944 0.096536346
0002d0 84 fa 1e be 3b fe 80 3c 91 5c 2d 3c 62 88 d5 3b
       -0.15525252 0.015746227 0.010581152 0.0065165022
0002e0 56 03 0c bd 33 59 dc 3d 90 05 9d 3d 08 c6 bc bd
       -0.03418287 0.10759201 0.076670766 -0.09217459
0002f0 55 fd 60 bb 5f 17 40 3d 27 8e 70 bd ca f7 41 bd
       -0.0034330685 0.04689729 -0.058729317 -0.04735545
000300 af d9 c3 bd 98 29 66 3d 29 99 71 3d 7d ef 25 be
       -0.09563004 0.05619201 0.058983956 -0.16204639
000310 e6 e4 a4 bc 44 1f 5e be 1e 07 ff 3c c1 ec fe 3d
       -0.020128679 -0.21691614 0.031131323 0.12447501
000320 65 da 05 3e 22 ae 53 3d 2a b4 ae 3d 21 6e b0 3d
       0.13071592 0.051679738 0.08530457 0.086147554
000330 ff 4d 9d bd fb 93 f3 3d a7 83 8d 3d eb 7f 2d be
       -0.07680892 0.118934594 0.06909876 -0.16943328
000340 1a 4a 92 3d 79 2c 75 3d 90 66 bf 3d 79 4f e5 bd
       0.0714304 0.059856866 0.09345734 -0.11196799
000350 9e 06 15 be 44 85 9c 3d 48 2c e7 bd 6f 60 00 be
       -0.14553306 0.07642606 -0.11287743 -0.12536786
000360 a4 d5 5d ba 21 d4 32 3b 1c 41 9b bd 89 09 c2 3d
       -0.0008462316 0.0027287083 -0.07580778 0.09474475
000370 8e da 19 bd b1 45 11 3d d6 75 56 bb db b4 26 3e
       -0.037561946 0.035466854 -0.0032724044 0.16279928
000380 14 b3 ae 3d 7b 23 fe 3d fb 7a 88 3c 6b 01 3e be
       0.0853025 0.12409111 0.016660204 -0.18555228
000390 4a d2 be bd 50 d7 ce 3d a0 5b 35 3e bf 48 a1 bd
       -0.09317453 0.10099661 0.17710733 -0.07875203
0003a0 a3 e9 1d bc 82 f1 05 be 42 89 30 bd fb 81 6c bd
       -0.009638223 -0.13080409 -0.04309965 -0.057741147
0003b0 88 a6 21 3d 70 ba a4 3d 3a 02 53 bd af f0 09 3d
       0.039465457 0.08043373 -0.051515795 0.0336768
0003c0 22 f0 b2 bd 9f 0b 1d be 31 56 c7 3d 1a c1 95 3d
       -0.08737208 -0.15336464 0.097332366 0.07312222
0003d0 5f 46 2b bd 25 dc 0e be 69 14 cb bd 91 d9 38 3e
       -0.041815158 -0.13951166 -0.09916002 0.18051745
0003e0 69 25 fe 3c 64 82 2b 3e 82 41 d9 bd 5f 32 21 be
       0.031023698 0.16748959 -0.10608198 -0.15741871
0003f0 22 a8 3d be 56 57 02 be 4c 53 df bd f8 9e d9 3c
       -0.18521169 -0.12728629 -0.109045595 0.02656506

fc2.bias f4 [5]
000000 e7 ce 0a 3d d3 bd 8e 3d 1d cd 86 3c da d8 a6 3c
       0.033888724 0.069698 0.016455228 0.020367075
000010 09 da 8e 3d
       0.06975181
