Trained_Weights/v5.1_0th.pth (torch, 671878 bytes, 10 tensors)

conv1.weight f4 [32, 1, 3, 3]
0	0xbd1da894	-0.038490847
1	0x3dbc7ff6	0.09204094
2	0xbd79d2de	-0.060992114
3	0x3de7c202	0.11316301
4	0x3cd8ed9e	0.026480492
5	0x3e42df24	0.19030434
6	0x3df945b8	0.12171501
7	0x3ea1ce29	0.316026
8	0xbcfd00ce	-0.030884173
9	0xbe86580f	-0.26239058
10	0x3ea347a3	0.31890592
11	0x3e8d9e7f	0.27659985
12	0x3e9541a9	0.29151657
13	0xbea06e01	-0.31333926
14	0x3e92d32e	0.28676742
15	0xbe8924a7	-0.26785776
16	0xbe36517e	-0.17804524
17	0x3db58860	0.08863902
18	0x3e8b7a53	0.27241763
19	0x3d889505	0.06669048
20	0xbe4a47f3	-0.19754009
21	0x3e72dc9a	0.23716965
22	0x3e8b7e2f	0.27244708
23	0x3e84e356	0.25954694
24	0x3d88d3f6	0.06681053
25	0xbbf2a696	-0.0074051125
26	0x3aa961ff	0.0012922882
27	0x3e218ac3	0.1577559
28	0x3ea3899c	0.31940925
29	0xbd0038cc	-0.031304166
30	0xbe394fab	-0.18096797
31	0xbc96effe	-0.018424984
32	0x3e0b1bef	0.13584875
33	0x3e11a7bc	0.14224142
34	0x3e31f472	0.17378405
35	0x3e98f40e	0.298737
36	0xbd112f14	-0.035445288
37	0x3eb02099	0.3439987
38	0x3e962169	0.29322365
39	0x3e7c2c1f	0.24626206
40	0x3dd4739d	0.10373614
41	0x3e0f2ffc	0.13983148
42	0xbcbca6b5	-0.02302871
43	0xbe41ae66	-0.18914184
44	0x3e7c9a08	0.24668133
45	0xbdcec6e7	-0.10096531
46	0x3c77f1f2	0.015133368
47	0xbdbc46a1	-0.09193159
48	0x3d7c1e0b	0.06155209
49	0x3e46ffa7	0.19433461
50	0x3e57fd5d	0.21092744
51	0xbe4645e4	-0.19362599
52	0xbea49b0c	-0.3214954
53	0xbe789ce9	-0.24278606
54	0x3e5379f2	0.20651987
55	0x3c1ac476	0.009446254
56	0xbea5eb94	-0.32406294
57	0xbe9b38c0	-0.30316734
58	0x3e1e472d	0.15456839
59	0xbe1da24c	-0.15393943
60	0x3df4bed4	0.1195046
61	0xbe4d2497	-0.20033489
62	0x3e12f35a	0.14350644
63	0xbdd3ff7b	-0.103514634
64	0x3e803408	0.25039697
65	0x3dce7644	0.10081151
66	0x3e91c45d	0.28470126
67	0xbea0c162	-0.3139754
68	0x3daa58da	0.08317728
69	0xbdc4923f	-0.09598207
70	0x3dc60ecc	0.09670791
71	0x3d5ade8d	0.053434897
72	0xbe551b8c	-0.2081129
73	0x3e2db907	0.16965114
74	0xbe71dd29	-0.23619522
75	0x3e858e58	0.26085162
76	0x3d963def	0.07336032
77	0xbd62c171	-0.05536026
78	0xbbe91e69	-0.007114221
79	0x3d8ac4c6	0.06775813
80	0xbeaaafaf	-0.3333716
81	0x3e0cf2db	0.13764517
82	0xbe0c109c	-0.13678211
83	0x3c4c0e28	0.012454547
84	0x3d0cdc7b	0.034389954
85	0xbea0db2c	-0.31417215
86	0x3de04ef0	0.10952556
87	0xbe807e64	-0.25096428
88	0x3e3ba997	0.18326412
89	0xbe03fd68	-0.12889636
90	0xbe25c45f	-0.16188191
91	0x3e79552c	0.24348897
92	0xbd990c4c	-0.074730486
93	0x3e8cf670	0.27531767
94	0x3da38fe0	0.07986426
95	0x3ccda81d	0.025104577
96	0x3e0b43e4	0.13600117
97	0x3e3fe032	0.18737867
98	0x3c7bde1f	0.015372782
99	0xbd8250ac	-0.06363043
100	0x3e7dec53	0.24797182
101	0x3d01bd51	0.031674687
102	0x3dd97590	0.106181264
103	0x3e98c81a	0.29840165
104	0xbd00f56e	-0.03148406
105	0x3df27862	0.118393674
106	0xbe36426f	-0.1779878
107	0xbe80fa8b	-0.2519115
108	0xbe6b9428	-0.23005736
109	0x3e80274c	0.2502998
110	0x3e7f36b3	0.2492321
111	0xbd718e31	-0.058973495
112	0x3e90a42b	0.2825025
113	0xbaa41086	-0.0012517131
114	0x3e2afc60	0.16697836
115	0xbe22b676	-0.15889916
116	0xbd9120fb	-0.07086369
117	0x3e81e2f0	0.25368452
118	0xbe2378d5	-0.15964063
119	0x3e56c1a8	0.20972311
120	0xbd18e11a	-0.03732405
121	0x3cf4f0c2	0.029899959
122	0x3e785f93	0.24255209
123	0x3d7147fc	0.05890654
124	0xbdcafefa	-0.09911914
125	0x3ea910cf	0.33020636
126	0xbea90d8e	-0.33018154
127	0x3e5f9ca0	0.21837091
128	0xbe62a196	-0.22131953
129	0xbdac09ec	-0.0840033
130	0xbdbf5f8f	-0.09344398
131	0xbe6bc36a	-0.23023763
132	0x3dd052a8	0.101720154
133	0x3e933c59	0.2875698
134	0x3e329d85	0.17442901
135	0x3e6180e3	0.22021823
136	0x3cbeaade	0.023274835
137	0xbdff75b0	-0.12473619
138	0x3eac3ae7	0.3363869
139	0x3d8fe989	0.07026965
140	0x3e24032d	0.16016836
141	0xbe924686	-0.2856943
142	0xbe02d933	-0.12778167
143	0xbdde3fe4	-0.1085203
144	0xbe5a2930	-0.21304774
145	0x3c192415	0.0093469815
146	0x3dde6214	0.10858551
147	0x3e4488de	0.19192836
148	0xbe20f25e	-0.15717456
149	0x3dbff5ab	0.09373029
150	0x3badb97a	0.0053016515
151	0x3e30caeb	0.17264907
152	0x3d20a3f2	0.03921885
153	0x3dc40dd0	0.09572947
154	0xbe57c95d	-0.21072908
155	0xbe2640cf	-0.1623566
156	0xbea7480b	-0.32672152
157	0x3c6ffb9b	0.01464739
158	0x3ea4770a	0.3212207
159	0x3d8f8426	0.07007627
160	0xbe994239	-0.29933336
161	0xbe7ca371	-0.24671723
162	0x3e2faa4a	0.17154804
163	0x3e76962c	0.24080724
164	0x3e42f878	0.19040096
165	0xbd55094d	-0.052010823
166	0x3e0a4b9d	0.13505407
167	0x3d5893c5	0.0528753
168	0xbcfbbd76	-0.03072999
169	0x3e722c94	0.23649818
170	0x3c357a9a	0.011076594
171	0xbc8b8acc	-0.017033957
172	0xbe55bd3a	-0.20872965
173	0x3e9ef2b5	0.31044546
174	0xbd9e33d0	-0.07724726
175	0x3e315231	0.1731651
176	0xbe844c3b	-0.2583941
177	0xbe79fbbe	-0.24412438
178	0x3e509900	0.20370865
179	0xbe7b4f4c	-0.24541968
180	0x3d84d836	0.064865515
181	0x3ea221c6	0.31666392
182	0xbba7e484	-0.0051236767
183	0x3d2aabeb	0.04166786
184	0xbde632c0	-0.112401485
185	0xbe29d48b	-0.16584985
186	0xbe87280a	-0.26397735
187	0xbc0c5e0a	-0.008567343
188	0xbe078df7	-0.13237749
189	0x3e565905	0.20932396
190	0x3e629b4b	0.22129552
191	0x3e3df933	0.18552093
192	0x3e461358	0.19343317
193	0xbe6a7c6c	-0.22899026
194	0x3ead93b6	0.33901757
195	0xbe263277	-0.16230188
196	0x3e6d0907	0.23147975
197	0x3e997fef	0.29980418
198	0xbdaf72c6	-0.08566813
199	0x3e96a0f8	0.29419684
200	0x3e90556b	0.2819017
201	0x3e41dfce	0.18933031
202	0x3e1141f7	0.1418532
203	0xbd19fec2	-0.03759647
204	0x3deaf76c	0.11472973
205	0xb98e5eb6	-0.00027154916
206	0xbe4a20cb	-0.19739072
207	0x3e2e253b	0.1700639
208	0x3e5d1863	0.21591334
209	0x3e85002c	0.25976694
210	0xbe651f95	-0.22375329
211	0xbe9b5e55	-0.30345407
212	0x3ce21f00	0.027602673
213	0x3ea5e5b4	0.32401812
214	0xbd53c5e6	-0.051702403
215	0x3e64d2f4	0.22346097
216	0x3e56bd42	0.20970634
217	0xbe81c494	-0.2534529
218	0xbea92750	-0.33037806
219	0x3d129dc9	0.035795007
220	0x3e382bc3	0.17985444
221	0x3dd8835d	0.105719306
222	0xbe9332ec	-0.28749788
223	0x3e48d93c	0.19614118
224	0xbd673e4c	-0.056455895
225	0xbe4f758a	-0.20259681
226	0xbde2f278	-0.110814035
227	0xbe967440	-0.29385567
228	0xbdece595	-0.11567227
229	0x3e2fb71c	0.17159694
230	0x3d1100c2	0.035401113
231	0x3e8df29e	0.27724165
232	0xbe47cb48	-0.1951114
233	0xbdab9168	-0.083773434
234	0x3e71fd8b	0.23631875
235	0xbd3e77a1	-0.046500806
236	0x3e9f8faa	0.31164294
237	0x3e4944c2	0.19655135
238	0x3e58d269	0.21174015
239	0x3db16aec	0.08662972
240	0xbe9602a8	-0.29298902
241	0xbd406edd	-0.046980727
242	0xbe6e1135	-0.23248751
243	0xbe713b3f	-0.23557757
244	0x3d32a4ce	0.0436142
245	0x3e125391	0.1428969
246	0xbddbc5ec	-0.1073111
247	0x3d18f6d5	0.037344772
248	0x3cb59ec5	0.022170434
249	0xbd2a478c	-0.04157214
250	0x3e4a3556	0.19746909
251	0xbe2f667a	-0.17128935
252	0xbe025c84	-0.12730604
253	0x3e24743a	0.16059962
254	0x3e151417	0.14558445
255	0x3dedeea6	0.11617784

conv1.bias f4 [32]
0	0xbe0aaf41	-0.13543417
1	0xbea0a03a	-0.31372243
2	0x3deadcf7	0.11467927
3	0x3e627dae	0.22118255
4	0xbe4867b3	-0.19570808
5	0x3daac8d1	0.08339084
6	0x3e0e67e5	0.1390682
7	0xbe869d64	-0.26291955
8	0x3e0050a9	0.1253077
9	0xbe93280e	-0.28741497
10	0x3e1ee61b	0.15517466
11	0xbdae16c2	-0.085004345
12	0xbd667d7a	-0.056272008
13	0xbd8f9c58	-0.07012242
14	0x3e828826	0.25494498
15	0xbe53b975	-0.20676215
16	0xbe900843	-0.28131303
17	0x3e047612	0.12935665
18	0x3dc89d22	0.09795596
19	0xbd9b9152	-0.07596077
20	0xbb2dbefe	-0.0026511545
21	0x3d31264a	0.043249406
22	0xbe891471	-0.26773408
23	0xbdb61ff2	-0.08892812
24	0x3dbad4f2	0.09122647
25	0x3e2e403c	0.17016691
26	0xbd21127e	-0.039324276
27	0x3e748a5f	0.2388091
28	0x3c185ddb	0.009299721
29	0xbd534197	-0.051576223
30	0xbe9e90eb	-0.3096994
31	0xbdd5bcf9	-0.10436434

conv2.weight f4 [32, 32, 3, 3]
0	0xbda9271c	-0.08259413
1	0xbda6fc1f	-0.08153557
2	0xbd414210	-0.047182143
3	0xbbbce08f	-0.005764074
4	0xbd216a69	-0.03940812
5	0xbd26df4a	-0.04074029
6	0xbd7f2cfc	-0.06229876
7	0xbdba552b	-0.09098276
8	0xbc4e73d2	-0.012600856
9	0xbd616a70	-0.055033147
10	0xbd80e348	-0.062933505
11	0x3cb17818	0.02166371
12	0xbba99752	-0.0051755095
13	0x3d406f2b	0.046981018
14	0xbd7755f8	-0.06038472
15	0xbcbfd193	-0.023415362
16	0xbd62d40c	-0.055378005
17	0xbd2aa58a	-0.041661777
18	0xbc9b36fb	-0.018947115
19	0xbd1920d7	-0.037384834
20	0x3a0c90bc	0.0005362143
21	0x3a7c2966	0.0009619206
22	0x3b976bbb	0.004620997
23	0xbd01dee7	-0.031706717
24	0xbc72925c	-0.014805403
25	0x3c4285e0	0.011872739
26	0x3d6ab45f	0.05730092
27	0xbd27c3b0	-0.040958107
28	0x3ba0ebd0	0.0049109235
29	0xbd31af18	-0.043379873
30	0xbd679134	-0.05653496
31	0xbd06d601	-0.032918934
32	0xbb94b272	-0.004537874
33	0xbd000fe3	-0.03126515
34	0x3b256f05	0.0025243175
35	0x3c7dcbda	0.0154904965
36	0x3c4ba928	0.012430467
37	0xbdca24f6	-0.09870331
38	0xbd9448d9	-0.07240457
39	0xbbc0046a	-0.005859901
40	0xba9dfe1a	-0.0012053878
41	0xbdaa1e42	-0.083065525
42	0xbc5c82a5	-0.013458882
43	0xbd52d550	-0.051472962
44	0xbc4ea185	-0.012611751
45	0x3cbcbe4d	0.023039961
46	0x3cd2976d	0.025706971
47	0x3c44eef8	0.012019865
48	0xbc8439ec	-0.0161409
49	0x3d2e53b3	0.04256029
50	0x3d42ee6f	0.04759067
51	0x3d9a811b	0.07544156
52	0x3d8c57fb	0.068527184
53	0x3d74179d	0.059592832
54	0x3c95cc4f	0.018285898
55	0x3b9ed51c	0.004847182
56	0xbd153590	-0.036428034
57	0x3d194b7b	0.0374255
58	0xbb65cc6d	-0.0035064474
59	0x3d627da7	0.055295613
60	0x3d43d1bc	0.04780744
61	0x3c302fdd	0.010753599
62	0xbab4f9f7	-0.0013807405
63	0xbc995fb1	-0.018722387
64	0xbd855fcf	-0.06512415
65	0x3cca4c1d	0.024694497
66	0x3cdb9ffa	0.026809681
67	0x3d09d52e	0.03365057
68	0xbb91788e	-0.00443942
69	0xbcc89288	-0.024483934
70	0xbb9d0d1e	-0.0047928235
71	0xbd292395	-0.0412937
72	0x3d87c753	0.06629815
73	0xbcbdd2cc	-0.023171805
74	0x3d5387b6	0.051643096
75	0x3d8bb219	0.06821079
76	0x3d13db4a	0.036097802
77	0xbd17e770	-0.03708595
78	0xbd1bf8da	-0.03807912
79	0x3cae6149	0.021286624
80	0x3d6d252d	0.05789678
81	0xbbd55d2f	-0.0065113525
82	0x3d0c6ba6	0.03428235
83	0xbc924aad	-0.017857874
84	0xbcf41bb5	-0.029798368
85	0xbb8adfc0	-0.004238099
86	0x3d0fd77d	0.035117615
87	0x3cbedc6c	0.023298465
88	0xbd047208	-0.03233531
89	0xbc604fb4	-0.013690878
90	0x3d0e0c11	0.034679476
91	0xbcc51cee	-0.024061646
92	0xbce238ea	-0.02761503
93	0x3cdb4f25	0.026771137
94	0x3d56d51f	0.052449342
95	0xbd57cc3a	-0.052685
96	0xbcf7e071	-0.03025839
97	0x3cbc0a8c	0.022954248
98	0x3badaaa4	0.005299883
99	0xbd296238	-0.041353434
100	0x3cec8314	0.028871097
101	0x3cf1b7d2	0.029506598
102	0xbda3abb9	-0.07991738
103	0x3ca79bac	0.020459972
104	0x3cb0dc2e	0.021589365
105	0xbd7c5054	-0.061600044
106	0xbd912d26	-0.070886895
107	0x3a3c6e7b	0.0007188094
108	0x3c9ee177	0.01939462
109	0xbc28359e	-0.01026669
110	0x3bab1659	0.00522117
111	0xbd950178	-0.07275671
112	0x3ce5906d	0.02802297
113	0xbd6f970a	-0.05849365
114	0xbd834bd7	-0.0641095
115	0x3c8437f3	0.01613996
116	0xbd96a9af	-0.07356583
117	0xbd32687c	-0.043556675
118	0xba3fea60	-0.00073209964
119	0xbd86825c	-0.06567833
120	0xbd6c123c	-0.057634577
121	0xbcc559bb	-0.024090638
122	0xbd2bfd2f	-0.0419895
123	0xbcf8b443	-0.030359393
124	0xbd5f9057	-0.054581013
125	0xbc96e66d	-0.018420422
126	0x3d63da00	0.055627823
127	0x3d0e5da1	0.03475726
128	0x3d081ae2	0.033228762
129	0x3b866c80	0.0041022897
130	0xbb63af97	-0.003474211
131	0xbd2b79a4	-0.041864052
132	0x3d79a7e4	0.06095113
133	0xbb9414e7	-0.0045190933
134	0xbc912d5a	-0.01772182
135	0xbd20cb67	-0.03925648
136	0x3bf920e6	0.0076027988
137	0xbd6859ba	-0.056726195
138	0x3a82847c	0.0009957696
139	0xbc011c42	-0.007880272
140	0xbc90ccc6	-0.017675769
141	0xbd0aad05	-0.03385641
142	0xbb907e1d	-0.004409565
143	0xbd1e13e6	-0.038593195
144	0xbca42373	-0.020036435
145	0xbae4d86b	-0.0017459517
146	0xbd07a79b	-0.033118825
147	0xbd0f345a	-0.034962036
148	0x3c0bef29	0.008540907
149	0x3af7ba5e	0.0018900146
150	0x3c6f2626	0.014596498
151	0x3d3b6a6b	0.045755785
152	0x3d0964e8	0.033543497
153	0x3dbc59ab	0.0919679
154	0xbbe6eb2f	-0.007047079
155	0x3d6a7140	0.05723691
156	0xba4d17ce	-0.00078236766
157	0x3c9f17d1	0.019420536
158	0x3da73306	0.08164029
159	0x3dbeef68	0.09323007
160	0x3da586cf	0.08082353
161	0x3d1cf15d	0.03831612
162	0x3b7cb893	0.0038562163
163	0x3bd2db12	0.0064348066
164	0x3cc03e9c	0.023467354
165	0xbd15b308	-0.03654769
166	0xbd1f1650	-0.03883964
167	0x3c4523da	0.012032473
168	0xbca521bb	-0.020157686
169	0x3d004cb7	0.03132316
170	0xbb630e0b	-0.0034645821
171	0xbd53f8dc	-0.051751003
172	0x3d193533	0.03740425
173	0xbd58bbf4	-0.05291362
174	0xbd5cf244	-0.05394198
175	0x3d3165f4	0.04331012
176	0xbbbe247b	-0.0058026887
177	0xbd3f7bcf	-0.046748932
178	0xbd2e3814	-0.04253395
179	0xbc3fd3e8	-0.011708237
180	0x3d766476	0.0601544
181	0xbd3c448c	-0.04596381
182	0x3d7f3f7e	0.06231641
183	0x3d3a4401	0.04547501
184	0x3ca5f6aa	0.02025922
185	0x3c237e6a	0.00997887
186	0xbcf31dcd	-0.029677296
187	0x3cc90a12	0.024540935
188	0x3d0c41f8	0.0342426
189	0xbd0e592a	-0.034753002
190	0xbd746d12	-0.05967433
191	0x3d49f6b6	0.049307548
192	0xbd5632b4	-0.052294448
193	0xbb870b36	-0.0041212095
194	0xbd540ab9	-0.05176804
195	0xbd362064	-0.044464484
196	0x3d276806	0.04087069
197	0x3b7aadb4	0.0038250508
198	0xbd9bf636	-0.076153204
199	0xbc196cf4	-0.009364355
200	0xbd37b413	-0.044849467
201	0x3d008160	0.03137338
202	0x3c993322	0.01870114
203	0xbd81d83f	-0.06340074
204	0x3c8d0edc	0.017219
205	0xbc767520	-0.015042573
206	0x3d0053dd	0.03132998
207	0xbd9b77dd	-0.075912215
208	0xbd91e16e	-0.071230754
209	0x3ba386e8	0.0049904473
210	0x3c9f10c8	0.019417182
211	0xbb9ef501	-0.004850984
212	0xbc38cc63	-0.011279198
213	0x3cda8f2a	0.026679594
214	0xbb915426	-0.00443508
215	0xbcf46f94	-0.02983836
216	0x3d0337e5	0.032035727
217	0xbd0b82e6	-0.03406038
218	0x3c9bbca0	0.019010842
219	0x3d44ddef	0.048063215
220	0xbcc69120	-0.024239123
221	0xbc53cda2	-0.012927445
222	0xbcb6cf4c	-0.022315644
223	0xbcf4644f	-0.029832987
224	0x3d3d4421	0.04620755
225	0x3c9c058b	0.019045612
226	0x3d3247c4	0.043525472
227	0x3d195805	0.037437458
228	0x3d73fde8	0.059568316
229	0x3db448f8	0.0880298
230	0x3c485165	0.012226437
231	0x3d97f72f	0.074201934
232	0x3d64f19b	0.055894475
233	0xbcfeab20	-0.031087458
234	0x3d0c24a5	0.034214634
235	0x3cfe6d1c	0.031057887
236	0xbc4fb14b	-0.012676547
237	0xbd0d6ed3	-0.03452952
238	0x3c21b5e9	0.009870031
239	0x3cafb141	0.021446826
240	0x3d0705d0	0.032964528
241	0xbc6293dc	-0.013829198
242	0xbd7f8b09	-0.062388454
243	0xbd24da6b	-0.040247362
244	0x3d4ee1c4	0.050508276
245	0xbcfb00b4	-0.030639984
246	0xbb16bb07	-0.002299966
247	0x3bb66050	0.0055656806
248	0x3d536aaa	0.051615395
249	0x3c25bde3	0.010116073
250	0xbca4c585	-0.020113716
251	0x3cc55560	0.024088562
252	0xbc1f11e1	-0.0097088525
253	0x3d0cb931	0.0343563
254	0xbd2a9018	-0.041641325
255	0xbbd14211	-0.0063860496

conv2.bias f4 [32]
0	0x3d1d2499	0.03836498
1	0xbcbed365	-0.02329416
2	0x3b12068b	0.0022281732
3	0x3bea178e	0.007143921
4	0x3cc2cd2d	0.023779476
5	0xbca3af9d	-0.0199812
6	0x3b9fdec3	0.00487885
7	0xbd486798	-0.04892692
8	0xbcbe3259	-0.023217367
9	0xbc9d49c8	-0.01920022
10	0x3cec4954	0.02884356
11	0x3d10468c	0.03522353
12	0xbd142cd0	-0.03617555
13	0xbd0bdf53	-0.034148525
14	0x3bb66c7b	0.005567131
15	0x3c33b3fb	0.010968204
16	0x3d435a8a	0.047693767
17	0xbd2066e0	-0.03916061
18	0xbafbeba9	-0.0019220012
19	0xbd1c8afb	-0.03821848
20	0xbbbbd046	-0.0057316152
21	0x3b5e9eb4	0.0033969106
22	0x3cede183	0.029038196
23	0xbd0267c8	-0.031837255
24	0x3cdf0d37	0.027227981
25	0x3d190dfe	0.03736686
26	0xbd42f644	-0.04759814
27	0xbd80fa2a	-0.06297715
28	0x3cd23f87	0.025665058
29	0x3d2b594b	0.041833203
30	0xbc57b7f2	-0.013166415
31	0x3d6694d7	0.05629429

conv3.weight f4 [32, 32, 3, 3]
0	0xbacc2f03	-0.0015577975
1	0x3c6bad95	0.014384647
2	0x3cb69a80	0.022290468
3	0xbcd88299	-0.026429461
4	0x3d5164ee	0.051121645
5	0xbce6bcfd	-0.028166289
6	0x3cf98869	0.030460553
7	0xbc5e6daf	-0.013575955
8	0xbd1e601e	-0.038665883
9	0x3d2a87ff	0.041633602
10	0x3cdd79de	0.02703565
11	0xbd32ea13	-0.04368026
12	0x3c8b8ddd	0.01703542
13	0x3d917ac0	0.07103491
14	0x3c290962	0.010317178
15	0xbd398000	-0.045288086
16	0x3d71a736	0.058997355
17	0x3cfaf1c0	0.030632854
18	0xbd58df12	-0.05294711
19	0x3c84b709	0.01620056
20	0x3c8078ec	0.01568266
21	0x3d5892a7	0.052874234
22	0x3d855e0b	0.06512078
23	0x3d3c50c6	0.04597547
24	0xbc943b55	-0.018094698
25	0x3d37e4bb	0.04489587
26	0x3d50db31	0.050990287
27	0x3d989a52	0.07451309
28	0xbbc2d6ec	-0.005946031
29	0xbb88f886	-0.004180017
30	0x3cfd4d1b	0.030920556
31	0xbd1a5076	-0.03767439
32	0x3c80c93d	0.015720958
33	0xbd100ab3	-0.035166454
34	0x3cd2ffff	0.025756834
35	0xbd4f6588	-0.050633937
36	0x3d0b9f98	0.034087747
37	0xbc49adc8	-0.012309499
38	0xbc599785	-0.013280754
39	0x3b47a92c	0.0030465825
40	0xbcaa2112	-0.020767722
41	0x3d36eb44	0.04465796
42	0xbd050b53	-0.032481503
43	0xbd679a1b	-0.05654345
44	0xbc439996	-0.011938473
45	0x3c917130	0.017754167
46	0x3bfd5f67	0.00773232
47	0x3ae85448	0.0017725313
48	0x3c5589d7	0.013033352
49	0xbc96d7ab	-0.018413385
50	0xbd649712	-0.055808134
51	0x3d6308a0	0.055428147
52	0x3cacf552	0.021113072
53	0xbce21b7a	-0.027600992
54	0x3d9db465	0.07700423
55	0x3d833d8c	0.064082235
56	0x3d8a1891	0.06742967
57	0xbcc2f8f2	-0.023800347
58	0xbd50b8ee	-0.050957613
59	0x3c095650	0.008382395
60	0xbd2302ac	-0.03979747
61	0x3ca6ed92	0.020376954
62	0xbd890710	-0.066908
63	0xbd70de14	-0.05880554
64	0x3d0f13cb	0.034930985
65	0xbd187286	-0.037218593
66	0xbd421bc0	-0.047389746
67	0x3d33e6db	0.043921333
68	0xbc01a018	-0.0079117045
69	0x3d4416f6	0.04787346
70	0x3bd5cd73	0.0065247356
71	0x3c7adbea	0.015311221
72	0x3d0955f6	0.033529244
73	0x3d012a6c	0.031534597
74	0xbd8c48c1	-0.06849814
75	0xbce5a873	-0.028034424
76	0xbc2defdb	-0.010616268
77	0x3d9b5e0b	0.07586297
78	0xbd37ef55	-0.04490598
79	0x3d9f55c9	0.07780034
80	0x3d9b2380	0.075751305
81	0x3c6e3e30	0.014541194
82	0xbd4b03b6	-0.049564086
83	0x3c8d2db8	0.017233714
84	0xbd27f59c	-0.041005716
85	0x3cc78464	0.024355121
86	0xbd25f25d	-0.04051434
87	0x3d2d7491	0.042347495
88	0xbcada215	-0.02119545
89	0x3d8f1eb8	0.06988281
90	0xbc39915a	-0.011326158
91	0xbc99bdca	-0.018767256
92	0xbce06334	-0.027391054
93	0x3d38bc50	0.045101464
94	0xbd4a8c00	-0.04944992
95	0x3d63bd1e	0.055600278
96	0xbbae0498	-0.005310606
97	0x3d0bb80a	0.03411106
98	0x3ce893c9	0.028390782
99	0x3d18de78	0.037321538
100	0x3ca694a3	0.020334547
101	0x3d0097f6	0.03139492
102	0xbceec370	-0.029145926
103	0xbd194dc2	-0.03742767
104	0xbc81981e	-0.015819605
105	0xbcec3a46	-0.02883638
106	0xbcd53a4a	-0.026028771
107	0xbd5d6c79	-0.054058526
108	0x3dac26d2	0.08405842
109	0x3d8e6fea	0.0695494
110	0x3daf4b36	0.08559267
111	0x3d812702	0.06306268
112	0x3ced1c3c	0.028944127
113	0xbd6a2eda	-0.057173587
114	0x3d798eff	0.060927387
115	0xbd98d671	-0.074627765
116	0xbd2f4f6b	-0.04280035
117	0xbd02a406	-0.031894706
118	0x3d542693	0.0517946
119	0x3c5ed853	0.01360138
120	0x3d3cc81d	0.04608928
121	0xbda269f5	-0.07930366
122	0x3bd7bb7c	0.006583629
123	0xbb32fec0	-0.0027312487
124	0xbcc39403	-0.023874288
125	0xbdaf0eaf	-0.085477225
126	0xbc5759a0	-0.013143927
127	0xbce808b5	-0.028324464
128	0xbd09a557	-0.033604946
129	0x3d29ec2b	0.041484993
130	0xbc9689ee	-0.018376317
131	0xbcc7818a	-0.024353761
132	0x3c56d718	0.013112806
133	0x3d630ab7	0.05543014
134	0x3cc74846	0.024326455
135	0xba60d915	-0.00085772696
136	0xbd0a8452	-0.033817597
137	0x3c6894d5	0.014195641
138	0xbc866c9f	-0.016409216
139	0x3c935afa	0.017987717
140	0x3cc1985f	0.023632227
141	0xbd392f6d	-0.045211244
142	0xbc1beeba	-0.009517366
143	0x3cd00757	0.025394125
144	0x3c78b7ad	0.0151805105
145	0xbd7c2230	-0.06155604
146	0xbd00da02	-0.03145791
147	0x3d226bb5	0.0396535
148	0x3d4b4cfe	0.049633972
149	0xbc97bb2b	-0.018521866
150	0x3d08b99b	0.033380132
151	0xbcba1301	-0.02271414
152	0x3ce940b6	0.02847324
153	0xbcd756ee	-0.026286568
154	0xbd464182	-0.048402317
155	0xbc55b630	-0.013043925
156	0x3d35ff28	0.04443279
157	0x3d91bca2	0.07116057
158	0x3d7a563d	0.0611174
159	0x3c4d1f55	0.012519677
160	0x3b1134e2	0.0022156765
161	0x3db6228f	0.0889331
162	0x3d2888c6	0.041146062
163	0x3d971c15	0.07378403
164	0x39a45716	0.00031345402
165	0x3d5a59e2	0.053308375
166	0xbd7d51f5	-0.06184574
167	0xbd6ef177	-0.058335748
168	0x3d1a51bc	0.037675604
169	0xbd65cf32	-0.0561058
170	0xbd899193	-0.06717219
171	0xbc4ea8fd	-0.012613532
172	0xbc302a80	-0.01075232
173	0x3d2ce05b	0.04220615
174	0xbd82a746	-0.06379561
175	0xbce46eff	-0.027884958
176	0x3d6bde96	0.05758532
177	0xbb592f45	-0.0033139747
178	0x3d01be84	0.03167583
179	0x3d8900d5	0.06689612
180	0x3c1f34e1	0.009717197
181	0xbcf122d9	-0.029435562
182	0x3d336d14	0.043805197
183	0xbd2062d1	-0.03915674
184	0xbb3406b4	-0.0027469816
185	0xbd0a91f0	-0.033830583
186	0xbbb08c0a	-0.0053877877
187	0xbd358400	-0.044315338
188	0x3ce9661e	0.028491076
189	0x3cd6e6cc	0.0262331
190	0x3cd147fb	0.025547018
191	0x3d1cc9f3	0.03827853
192	0x3c014bd9	0.007891619
193	0xbc8003cb	-0.015626809
194	0xbd7a5fa8	-0.06112638
195	0x3b8de229	0.004329939
196	0xbd7d44bd	-0.061833132
197	0xbd13f47a	-0.036121823
198	0x3cab921d	0.020943696
199	0x3d280839	0.041023467
200	0xbd75b5d0	-0.059987843
201	0x3d22a3f5	0.039707143
202	0x3cf7241c	0.030168585
203	0x3d6dc26a	0.058046736
204	0x3d1f62d4	0.03891261
205	0x3d3d8342	0.046267755
206	0x3db8a016	0.09014909
207	0x3d3ec189	0.04657129
208	0xbd1d334c	-0.038379
209	0xbc02d456	-0.007985195
210	0x3c8ab1cb	0.016930481
211	0x3b79e7aa	0.0038132467
212	0xbd362ab1	-0.044474307
213	0x3c9563e0	0.0182361
214	0x39d49cfe	0.0004055276
215	0x3d7bab79	0.061442826
216	0x3bb8f125	0.005643981
217	0xbd78c350	-0.06073314
218	0x3c05271e	0.008127002
219	0xbc95be09	-0.018279092
220	0x3d87a5f3	0.06623449
221	0x3d63014d	0.055421162
222	0xbcf6c864	-0.03012485
223	0x3dcd7346	0.10031752
224	0x3c988282	0.018616918
225	0x3b6c37f5	0.0036044095
226	0x3d353abc	0.044245467
227	0xbc649c04	-0.013953213
228	0x3d198177	0.037476983
229	0xbc8a0215	-0.016846696
230	0x3c44f14e	0.012020422
231	0x3d28307f	0.041061874
232	0x3d264b55	0.040599186
233	0x3cf27659	0.029597448
234	0xbcbe3921	-0.0232206
235	0x3d33c545	0.043889303
236	0xbc238dbd	-0.0099825235
237	0xbd2cddc0	-0.042203665
238	0xbd2d10f4	-0.042252496
239	0xbd154d17	-0.03645047
240	0xbb1d9ef4	-0.0024051042
241	0xbd6809cb	-0.056649964
242	0xbd8beb0f	-0.06831943
243	0x3ca8982e	0.020580377
244	0x3cace4b4	0.021105148
245	0x3bb75de8	0.0055959113
246	0x3c98c7d3	0.018649971
247	0xbd0c97c0	-0.034324408
248	0xbb80aeec	-0.0039271023
249	0x3c775465	0.015095805
250	0xbc5e9e73	-0.013587582
251	0x3c4a9b4a	0.012366125
252	0xbd9658d5	-0.07341162
253	0xbd48143c	-0.048847422
254	0xbd1b8db6	-0.037976943
255	0xbd809b3b	-0.06279608

conv3.bias f4 [32]
0	0x3d6777a9	0.0565106
1	0xbbfbbefe	-0.00768268
2	0xbc23b509	-0.009991893
3	0xbd719b60	-0.058986068
4	0x3ce9f0bb	0.028557172
5	0x3c805793	0.015666759
6	0x3c2409f8	0.010012142
7	0xbd7335d2	-0.0593775
8	0xbc0f0a31	-0.008730457
9	0xbb07257c	-0.0020621708
10	0xbcfc6696	-0.030810636
11	0xbc10a702	-0.00882888
12	0x3ced66c5	0.028979668
13	0xbd096c7e	-0.03355073
14	0xbd2f0a3e	-0.042734377
15	0x3c8c371b	0.01711612
16	0xbc931331	-0.017953487
17	0x3d062cb9	0.032757495
18	0x3cfe8a1b	0.031071713
19	0xbd1d1db1	-0.038358394
20	0x3b1cd71d	0.0023931928
21	0x3d11243b	0.035434943
22	0xbd680914	-0.056649283
23	0xbd2477d3	-0.040153336
24	0xbcacfaec	-0.021115743
25	0x3cc23210	0.023705512
26	0x3d2ecc19	0.04267511
27	0xbd496b16	-0.04917439
28	0x3c422a5e	0.011850921
29	0x3cfc28ee	0.030781236
30	0xbd2a08ba	-0.04151223
31	0x3d08a380	0.03335905

fc1.weight f4 [128, 1152]
0	0x3c1e4aba	0.009661371
1	0xbbf08905	-0.0073405528
2	0xb72f9d50	-1.046744e-05
3	0xbcb71d20	-0.022352755
4	0xbd54175c	-0.05178009
5	0xbc83ec2c	-0.016103826
6	0xbd0d9dbd	-0.03457426
7	0xbd2f5f71	-0.04281563
8	0x3be1e4ec	0.0068937447
9	0xbcf57967	-0.029965116
10	0xbc9330e8	-0.017967656
11	0xbd114f20	-0.03547585
12	0xbc44f810	-0.012022033
13	0xbbea57d9	-0.0071515855
14	0xbaca5ffe	-0.0015439985
15	0xbcf1108c	-0.029426835
16	0xbc527eee	-0.012847645
17	0xb9df2070	-0.00042558042
18	0x3cc26870	0.02373144
19	0xbc724743	-0.014787498
20	0x3ad44336	0.0016194347
21	0xbcf20e1e	-0.029547747
22	0xbd05fa3a	-0.032709338
23	0xbcd0b1d5	-0.025475422
24	0xbcb8e33a	-0.022569288
25	0x3c7aa075	0.015297045
26	0xbc114c0d	-0.00886823
27	0xbbad3b51	-0.005286612
28	0xbd387935	-0.045037467
29	0xbc0a4b64	-0.008440826
30	0x3b925e00	0.004466772
31	0x3c3fd11b	0.0117075695
32	0xbaef1c0f	-0.0018242615
33	0xbd343994	-0.044000223
34	0xbc223737	-0.00990086
35	0x3d206c14	0.03916557
36	0x3b1ebe5a	0.0024222345
37	0xbcd07418	-0.025445983
38	0x3cac7577	0.021052105
39	0x3c60c341	0.013718427
40	0xbc7cd7c5	-0.015432303
41	0xbbd7e489	-0.006588523
42	0xbc200e7f	-0.009769081
43	0xbcd204df	-0.025637088
44	0xbce7ff9f	-0.028320132
45	0xbc707dc8	-0.014678426
46	0xbc4afd15	-0.012389441
47	0x3bb1d7e2	0.0054273466
48	0x3b963a82	0.0045846114
49	0x3a9e252c	0.0012065521
50	0xbb91ab2f	-0.0044454555
51	0x3d09ab9a	0.033610918
52	0xbc6d9150	-0.014499977
53	0xbbf08116	-0.007339607
54	0xbcb708ab	-0.022343
55	0xbbb847c4	-0.0056237895
56	0x3c5f51a3	0.013630304
57	0xbcabafea	-0.020957906
58	0xbce393cd	-0.027780438
59	0xbd4935f1	-0.04912371
60	0x3cd4a49c	0.025957398
61	0x3ae6cfaa	0.0017609496
62	0x3ce8240b	0.0283375
63	0xbc1baf23	-0.009502205
64	0xbd54c5f9	-0.051946614
65	0x3c2bc028	0.010482825
66	0xbc7e773b	-0.015531356
67	0xbac1f336	-0.0014797214
68	0x3d0cb3d7	0.034351196
69	0x3c739409	0.014866837
70	0xbcbb07c3	-0.02283085
71	0xbc810f68	-0.015754417
72	0xbd38d90f	-0.04512888
73	0xbcf6506e	-0.030067649
74	0x3ca14aa4	0.019688912
75	0xbb8f57f7	-0.0043745
76	0xbb9071c3	-0.0044080927
77	0xbd17e2f4	-0.037081674
78	0xbd2cc53e	-0.042180292
79	0xbc40b941	-0.011762918
80	0xbc2764a6	-0.010216868
81	0xbc55120e	-0.013004793
82	0xbac9da76	-0.001540019
83	0xbbce9b65	-0.0063051456
84	0xbc8f9420	-0.017526686
85	0xbb73de16	-0.003721123
86	0x3c621c32	0.013800668
87	0xbc958f29	-0.01825674
88	0xbac26db2	-0.0014833717
89	0xbcaeec20	-0.021352828
90	0xbc930b93	-0.017949855
91	0xbd20faea	-0.03930179
92	0xbc548833	-0.012971926
93	0x3c3f521e	0.011677293
94	0x3c0d256c	0.008614879
95	0xbd3cdd68	-0.046109587
96	0x3b5e43b3	0.0033914864
97	0x3cb759ab	0.022381624
98	0x3d2d0798	0.04224357
99	0xbd074836	-0.03302785
100	0xbd0b9b39	-0.03408358
101	0x39fbf4ce	0.00048056844
102	0x3cc7c0d0	0.024383932
103	0xbc3c3c11	-0.01148893
104	0xbcdc5c46	-0.026899468
105	0xbd634b06	-0.05549147
106	0xbd35739e	-0.044299714
107	0xbb55eefe	-0.003264367
108	0xbb398209	-0.0028306267
109	0xbcc37deb	-0.023863753
110	0x3bf10b1d	0.007356061
111	0xbc927f0a	-0.017882843
112	0x3c0b4e7e	0.008502601
113	0xbc3555e3	-0.01106784
114	0xbcbb03c0	-0.022828937
115	0x398c2ee8	0.0002673783
116	0x3c542b46	0.01294977
117	0xbd2a98b7	-0.041649546
118	0xbd5e0c44	-0.054210916
119	0xbc2700f0	-0.010193095
120	0x3c4af423	0.012387308
121	0xbd13f220	-0.03611958
122	0xbcecd316	-0.028909247
123	0x3c708275	0.014679541
124	0xbd38b454	-0.04509385
125	0x3c268c1a	0.010165239
126	0xbc47f48e	-0.0122043025
127	0xbd208e80	-0.0391984
128	0xbcec412f	-0.028839676
129	0xbd440338	-0.047854632
130	0x3b97cd58	0.004632633
131	0xbc6d1471	-0.014470206
132	0x3c98cee6	0.018653344
133	0xbc287dad	-0.01028387
134	0xbcac7826	-0.021053385
135	0x3c1ee703	0.009698632
136	0xbcdc966d	-0.026927197
137	0x3b5cb3cf	0.003367651
138	0xbcd7e55d	-0.026354486
139	0xbc7e9e7a	-0.015540713
140	0xba93724b	-0.0011249272
141	0xbccc4f71	-0.024940224
142	0xbd5d3eee	-0.054015093
143	0xbbd0b17d	-0.0063688145
144	0xbcfeacad	-0.031088198
145	0xbd3af5ca	-0.04564456
146	0x3bd0da2e	0.0063736653
147	0xbc37fe32	-0.0112300385
148	0x3c44885e	0.011995403
149	0xbbeee72c	-0.0072907414
150	0x363b6c00	2.7928036e-06
151	0xbce34149	-0.027741091
152	0x3d086033	0.033294868
153	0xbaf32729	-0.0018551099
154	0xbc9fbfa4	-0.019500561
155	0x3b682bde	0.0035426538
156	0xbc16f33b	-0.009213264
157	0xbbc1ee36	-0.0059182895
158	0x3b5c0429	0.0033571816
159	0x3c87899e	0.016545113
160	0x3c930fa4	0.017951794
161	0xbbc11b56	-0.0058931513
162	0x3c75a766	0.014993524
163	0xbd1e199e	-0.03859865
164	0xbcea3a1c	-0.028592162
165	0xbd1ab5db	-0.037771087
166	0xbcd57d3a	-0.02606069
167	0x3b4175a4	0.0029519582
168	0x3b7e2a0d	0.0038782388
169	0x3b534aeb	0.00322407
170	0xbc83f95b	-0.016110113
171	0xbc8c496c	-0.017124854
172	0xbbb926ad	-0.0056503625
173	0x3b71579f	0.0036825908
174	0xbbaeafb7	-0.0053310054
175	0xbbabd3c5	-0.0052437508
176	0x3cf9f614	0.030512847
177	0xbd22a2bd	-0.03970598
178	0xbc82a010	-0.015945464
179	0x3d0a1598	0.033712
180	0x3d3379ae	0.043817215
181	0x3d4a1611	0.04933745
182	0x3cfe3897	0.031032844
183	0x3ccac917	0.02475409
184	0x3d398210	0.045290053
185	0x3b9a94f5	0.004717464
186	0xbbe6b890	-0.0070410445
187	0x3d610296	0.054934107
188	0x3c69500f	0.014240279
189	0xbbb5dfc2	-0.0055503557
190	0x3b080012	0.0020751995
191	0x3c70d985	0.014700298
192	0x3d196d61	0.037457827
193	0x3c97eafd	0.018544668
194	0x3cb45fdd	0.022018367
195	0xbc307973	-0.010771143
196	0x3b80ddb7	0.0039326805
197	0x3c851628	0.016245916
198	0x3cff98cd	0.03120079
199	0x3cccefac	0.025016628
200	0x3cd6b611	0.026209863
201	0x3c56a3d9	0.013100588
202	0x3d04c554	0.03241475
203	0x3d64689c	0.055763826
204	0xbbd21ab8	-0.0064118765
205	0xbb0401f4	-0.0020142766
206	0xbc70ec9b	-0.014704849
207	0x3b62fa01	0.0034633877
208	0x3d126e4b	0.035749715
209	0x3af8a75a	0.0018970773
210	0x3ca62f4f	0.02028623
211	0xba23a998	-0.0006243228
212	0x3c3b00d8	0.011413775
213	0x3c22123a	0.009892041
214	0x3b1b8542	0.002373055
215	0xbc5ed160	-0.013599724
216	0x3c41c2b9	0.011826211
217	0x3d4d1efa	0.05007837
218	0x3c4027ee	0.01172827
219	0x3d1e4094	0.038635805
220	0x3c7b0922	0.015322002
221	0xbc8a332c	-0.016870104
222	0x3cc7afb7	0.02437578
223	0x3c5d56d0	0.013509467
224	0xbc6c4340	-0.0144203305
225	0x3cdc3c63	0.026884263
226	0x39e9604b	0.00044512967
227	0xbc15138a	-0.009098897
228	0xbcc496bd	-0.023997659
229	0x3b14730c	0.002265158
230	0xbc96400e	-0.01834109
231	0x3ba0f51a	0.004912031
232	0x3c95a0de	0.018265184
233	0xbd183317	-0.037158098
234	0xbbbb76b2	-0.0057209367
235	0x3b6d98dd	0.0036254444
236	0x3c8b212d	0.016983593
237	0xbcb41727	-0.021983696
238	0x3cbd5bee	0.023115125
239	0xbb108fb8	-0.002205832
240	0x3b2f3499	0.0026734232
241	0xbc8b8ed2	-0.017035875
242	0xbc67b1a5	-0.014141475
243	0x3c0504c7	0.008118815
244	0x3c0bcea0	0.00853315
245	0x3a256aba	0.0006310154
246	0xbd14d710	-0.036337912
247	0x3c136348	0.008995838
248	0x3bda5a71	0.0066636135
249	0xbc175730	-0.009237096
250	0x3cab31b3	0.020897722
251	0xbd05eeeb	-0.032698553
252	0xbd1a5496	-0.037678324
253	0xbc5cbf30	-0.013473317
254	0x3bebc27f	0.0071948166
255	0xbcd2f555	-0.025751749

fc1.bias f4 [128]
0	0xbb37cf01	-0.0028046968
1	0x3ccca82f	0.02498254
2	0x3b6a68fa	0.0035768137
3	0x3cb358e2	0.021892969
4	0x3c2ffb9d	0.010741142
5	0xbc08888f	-0.008333339
6	0x3a044cf5	0.0005046868
7	0x3cb5d688	0.022197023
8	0xbd22e6eb	-0.039771
9	0xbc72603c	-0.014793452
10	0xbc8f0b00	-0.0174613
11	0xbb9f0924	-0.0048533846
12	0x3ccf46a7	0.025302244
13	0xbc54ff89	-0.013000377
14	0xba8ef15a	-0.0010905669
15	0xbcacbac5	-0.021085152
16	0x3c858c95	0.016302386
17	0xbb9fa85e	-0.004872366
18	0xbc950278	-0.018189654
19	0x3b84545f	0.004038378
20	0xbc93f3c3	-0.01806057
21	0x3b385072	0.002812412
22	0xbca16d9b	-0.019705584
23	0xba430238	-0.000743899
24	0xbbd3621d	-0.006450905
25	0x3c8915de	0.01673406
26	0x3bcb8514	0.0062109325
27	0xbc58ccab	-0.01323239
28	0xbbfe0c2a	-0.007752915
29	0xbc136363	-0.008995864
30	0xbb46f205	-0.0030356657
31	0x3c8af32e	0.01696166
32	0xbcc01e83	-0.02345205
33	0xbd520df7	-0.05128285
34	0x3c417ff1	0.011810289
35	0x3cb07501	0.021540167
36	0x3cb32156	0.021866482
37	0xbce048e3	-0.027378505
38	0xbd029772	-0.03188271
39	0xbca1b8a0	-0.019741356
40	0xbcfdc7a7	-0.03097899
41	0xbc8d0c34	-0.017217733
42	0x3acd8dcf	0.0015682521
43	0x3bb0f817	0.0054006684
44	0x3c4812a2	0.012211474
45	0x3cbff58d	0.023432517
46	0xbcb47aca	-0.022031207
47	0x3b9bf8f2	0.004759901
48	0xbca742bc	-0.020417564
49	0xbd542aa9	-0.051798496
50	0x3c6b3446	0.014355725
51	0x3bc55e31	0.0060231914
52	0xbca56ce9	-0.020193534
53	0xbc8adf22	-0.016952101
54	0x3b7b4422	0.003834017
55	0xbc43a60d	-0.011941445
56	0x3cad7be0	0.021177232
57	0x3bc2f4c7	0.00594959
58	0xbd0ebb52	-0.03484661
59	0xbc86da32	-0.016461466
60	0x3cc0f7f4	0.023555733
61	0x3c3b273f	0.011422931
62	0xbced6e9d	-0.028983409
63	0x3c6f3404	0.014599804
64	0xbb485c29	-0.003057251
65	0x390dde07	0.0001352952
66	0x3c665161	0.014057488
67	0xbcafd0df	-0.021461902
68	0x3c9b23d1	0.018937977
69	0xbca1fd83	-0.019774204
70	0xbcf9ee82	-0.030509237
71	0x3d1545e8	0.03644362
72	0xbcdd72a0	-0.027032197
73	0xbcec4160	-0.028839767
74	0xbb3d6fb7	-0.0028905699
75	0x3ca6eaf3	0.020375704
76	0x3c24ba3b	0.010054166
77	0x3c8c8727	0.01715429
78	0xbc58f800	-0.013242722
79	0xbcd399ed	-0.025830233
80	0x3cb8adc2	0.022543792
81	0x3c63570d	0.013875735
82	0x3b92308e	0.0044613546
83	0x3ae7af0c	0.0017676069
84	0xbcc2f958	-0.023800537
85	0x3b60d26a	0.0034305104
86	0x3cb866b2	0.022509906
87	0x3c0fbd38	0.008773141
88	0x3c139298	0.009007119
89	0x3bdcbfcd	0.0067367316
90	0xbc362c13	-0.011118907
91	0x3d0c6f53	0.034285855
92	0xbca4aa4a	-0.020100731
93	0xbc9da64e	-0.01924434
94	0x3ba867d0	0.0051393285
95	0x3cc610dd	0.024177963
96	0xbc3b0dc9	-0.011416861
97	0xbb88ca50	-0.004174508
98	0x3c13b9b0	0.009016439
99	0x3d1faa10	0.038980544
100	0xbc4edc76	-0.012625804
101	0xbc0b6b83	-0.0085095195
102	0xbb8cca98	-0.004296612
103	0x3ab132e1	0.0013519191
104	0x3c6ac7f2	0.014329897
105	0x3be10956	0.006867568
106	0x3d083e97	0.033262815
107	0x3c531450	0.012883261
108	0xbd19a979	-0.037515137
109	0xbc6a6351	-0.014305905
110	0x3c79aaf7	0.015238515
111	0xbc09e83b	-0.008417184
112	0xbc53ec2a	-0.012934724
113	0xbc267937	-0.010160736
114	0xbc573bc1	-0.013136805
115	0x3c5f7b14	0.013640184
116	0xbbd5f3d8	-0.0065293126
117	0x3cfeeb6e	0.031118121
118	0xbd050363	-0.032473933
119	0xbc49a271	-0.012306795
120	0x3c58b84f	0.013227536
121	0xbbbb56f6	-0.0057171537
122	0xbc8c83c3	-0.017152673
123	0x3c658da0	0.014010817
124	0x3c7c0099	0.015381002
125	0xbc07c278	-0.008286111
126	0xbbfb3627	-0.0076663676
127	0x3b1d98d5	0.0024047394

fc2.weight f4 [5, 128]
0	0xbde84cc8	-0.1134277
1	0xbdd31fe7	-0.10308819
2	0x3d1226d4	0.03568156
3	0x3d9793d0	0.0740124
4	0xbd3bf53a	-0.045888163
5	0xbc0b9f72	-0.008521901
6	0x3ba76a20	0.0051090866
7	0x3d183ab8	0.037165374
8	0xbde10680	-0.10987568
9	0xbdcef6c2	-0.10105659
10	0x3cf62e44	0.030051358
11	0xbd2c4d87	-0.042066123
12	0xbdf6632d	-0.12030635
13	0x3cafd8da	0.021465708
14	0xbdbe95ab	-0.09305891
15	0xbd5179ff	-0.051141735
16	0x3d18665a	0.037206985
17	0xbd5f27d2	-0.054481335
18	0xbd322755	-0.04349454
19	0xbd9bfed3	-0.07616963
20	0xbd265380	-0.040606976
21	0xbc120b66	-0.00891385
22	0xbd1a45b2	-0.037664123
23	0xbde6130d	-0.112341024
24	0x3c81e7be	0.015857574
25	0xbce89b60	-0.028394401
26	0xbdf92745	-0.12165693
27	0xbd9ff9d9	-0.078113265
28	0x3dcf1702	0.1011181
29	0xbdcb596e	-0.09929167
30	0x3c222e8e	0.009898795
31	0xbd42efea	-0.04759208
32	0xbe08080e	-0.13284323
33	0xbdc5d1b4	-0.09659138
34	0x3bc20709	0.005921249
35	0xbd842e1e	-0.06454109
36	0x3d29f068	0.041489035
37	0xbd667207	-0.05626109
38	0xbd6bce07	-0.05756953
39	0xbd826e1e	-0.063686594
40	0xbe02e8c1	-0.12784101
41	0x3d250019	0.040283296
42	0x3d73c054	0.05950959
43	0x3dc82838	0.09773296
44	0xbd811a7f	-0.06303882
45	0x3d94c7d1	0.072646745
46	0xbd0742d0	-0.0330227
47	0xbde793ae	-0.113074645
48	0xbdbb7d90	-0.091548085
49	0xbcc7e334	-0.024400331
50	0xbd836c9f	-0.06417202
51	0xbc310c00	-0.010806084
52	0x3d2ed31e	0.042681806
53	0x3d97f0a0	0.074189425
54	0x3d84b31b	0.06479474
55	0xbcddd99e	-0.027081307
56	0x3d3ce2a1	0.046114568
57	0xbde90cf2	-0.11379422
58	0x3d08686d	0.033302713
59	0xbda76b58	-0.08174771
60	0x3c9e36d7	0.019313259
61	0xbdffcd69	-0.12490351
62	0x3c174f38	0.009235196
63	0xbdc35fa3	-0.09539726
64	0xbda9859e	-0.082774386
65	0x3c40e567	0.011773444
66	0xbd30cdcb	-0.04316501
67	0xbb834578	-0.004006084
68	0x3d126596	0.03574141
69	0x3d8c575c	0.068526
70	0xbd669e3a	-0.05630324
71	0xbd66d7d7	-0.056358185
72	0xbd712eed	-0.058882643
73	0x3d79dc65	0.0610012
74	0x3d56f00e	0.052475028
75	0xbd157781	-0.03649092
76	0x3d5ca3f0	0.05386728
77	0xbd6d76c7	-0.057974603
78	0xbcd088bb	-0.025455823
79	0xbdc2fd48	-0.09520966
80	0x3d8b6e1c	0.06808111
81	0xbdd7e761	-0.10542179
82	0x3d379f5d	0.044829715
83	0xbd040428	-0.032230526
84	0x3d6fec8f	0.05857521
85	0x3dbe50c3	0.09292748
86	0xbcf81105	-0.030281553
87	0xbdd2f61c	-0.10300848
88	0xbd3cd364	-0.046100035
89	0xbda79936	-0.081835195
90	0xbd3b4a96	-0.045725428
91	0x3d9aca97	0.07558172
92	0x3d3b051d	0.045659173
93	0xbd1e6171	-0.038667146
94	0xbda2c0c4	-0.079469234
95	0xbd9ba3d0	-0.07599604
96	0xbcc3b585	-0.023890266
97	0x3bd70a0b	0.0065624765
98	0x3d4dea2e	0.05027216
99	0x3c88b12c	0.016686045
100	0x3d6e1477	0.058124986
101	0x3db7ada4	0.08968666
102	0xbc87d2fd	-0.0165801
103	0x3da12d11	0.07869924
104	0xbdd716dd	-0.10502408
105	0x3d2c5d11	0.042080943
106	0x3c927bfa	0.017881382
107	0xbe0bb332	-0.13642576
108	0xbdc31e21	-0.09527231
109	0xbcdaa7dd	-0.026691372
110	0xbdbd330d	-0.09238253
111	0x3dcd4d8d	0.10024557
112	0x3d490e47	0.04908588
113	0xbdb19cfe	-0.08672522
114	0x3d1f4c42	0.038891084
115	0xbbe0850b	-0.0068517975
116	0xbda36b03	-0.07979395
117	0xbd9563c8	-0.072944224
118	0xbc0348a5	-0.008012925
119	0x3dc1d3a2	0.09464194
120	0xbdc94264	-0.09827116
121	0x3d444800	0.047920227
122	0xbde9be5e	-0.11413263
123	0x3daea5d5	0.08527724
124	0xbd11bf67	-0.035582926
125	0xbd3b3ddb	-0.045713287
126	0xbd3cc7d5	-0.046089012
127	0x3ca4c36e	0.02011272
128	0x3d8b82fe	0.06812094
129	0xbc03e53b	-0.008050258
130	0xbc9c5630	-0.019084066
131	0x3cc69f6b	0.024245938
132	0x3d9a3f14	0.075315624
133	0x3d43f81e	0.047844045
134	0x3d7be9fc	0.06150244
135	0xbd9358de	-0.071946844
136	0xbd41efc2	-0.04734779
137	0x3d16e5f4	0.036840394
138	0xbd98fd46	-0.07470183
139	0xbd1ed85d	-0.03878056
140	0x3da1b0c2	0.07895042
141	0xbdb303af	-0.08740937
142	0xbd196db1	-0.037458126
143	0xbc167698	-0.009183548
144	0x3cf29e79	0.029616581
145	0x3cfebbb1	0.031095358
146	0xbb033683	-0.0020021505
147	0xbc9ed342	-0.019387845
148	0xbdae9595	-0.08524624
149	0xbdc7e6e9	-0.097608395
150	0x3d2132ad	0.03935497
151	0x3d8f36b0	0.06992853
152	0xbda2eb7f	-0.079550736
153	0xbd92341d	-0.07138846
154	0xbce72c86	-0.028219473
155	0x3db3d35c	0.08780548
156	0x3b22b443	0.0024826683
157	0x3d5b5e9e	0.05355703
158	0x3d959446	0.073036715
159	0x3d4b5839	0.049644683
160	0x3d6a2fc3	0.057174455
161	0x3c1d8b6c	0.00961576
162	0x3d2d873d	0.0423653
163	0x3d85d29a	0.0653431
164	0xbde72ddc	-0.11288044
165	0x3d7842a4	0.06061043
166	0xbcf49ee3	-0.02986092
167	0x3d127875	0.035759408
168	0x3d0ff61c	0.035146818
169	0x3d9ab61a	0.07554264
170	0xbb32e6a7	-0.0027298124
171	0xbddb2abb	-0.107015096
172	0xbda5ff2d	-0.081053115
173	0xbc766d2c	-0.015040677
174	0x3d60d2cf	0.054888543
175	0x3d6a0d1c	0.05714141
176	0x3d175cfc	0.03695391
177	0xbd300cdf	-0.042981025
178	0x3cb84d2b	0.022497734
179	0xbcbb3df1	-0.022856684
180	0xbcf5ff56	-0.03002898
181	0xbdda7433	-0.106666945
182	0x3d954af2	0.07289685
183	0xbd1b1a27	-0.037866738
184	0xbd2c5215	-0.042070467
185	0x3ceff542	0.029291753
186	0xbd179db7	-0.037015643
187	0xbd1ba6a9	-0.038000736
188	0x3db121e9	0.08649046
189	0x3d9916cc	0.07475051
190	0xbbd434b0	-0.0064760074
191	0xbca4424c	-0.020051144
192	0xbd871f04	-0.06597713
193	0xbca9ff0c	-0.020751499
194	0x3d692877	0.056923356
195	0x3db70c9a	0.089379504
196	0x3d206860	0.03916204
197	0xbdc460ba	-0.09588762
198	0x3d851105	0.06497387
199	0xbda32117	-0.07965296
200	0xbcd9d816	-0.026592296
201	0x3b2a1fe8	0.002595896
202	0xbdba7c23	-0.091057085
203	0xbd42d127	-0.047562744
204	0x3d466dce	0.04844456
205	0x3dbe9077	0.09304898
206	0xbd616ed3	-0.05503733
207	0xbd87a904	-0.06624034
208	0xbc0e76f9	-0.0086953575
209	0x3ce45c13	0.027875936
210	0xbd2a4604	-0.04157068
211	0xbdc25f29	-0.094908066
212	0x3bf912fb	0.0076011396
213	0xbdbfeaa7	-0.09370928
214	0x3d46cbab	0.048534077
215	0x3d71c961	0.05902994
216	0xbc46a741	-0.012124837
217	0x3c917085	0.017753849
218	0xbd29a394	-0.041415766
219	0xbd9e9a58	-0.077442825
220	0x3d8004c1	0.06250907
221	0x3bcc58fe	0.0062361946
222	0x3d92bbbe	0.07164715
223	0xbca15301	-0.0196929
224	0x3d63f5c7	0.055654313
225	0x3da1de71	0.079037555
226	0x3dbee163	0.09320333
227	0xbdca84fa	-0.098886445
228	0x3cda1db9	0.026625501
229	0x3d657bc8	0.05602625
230	0x3d6d64cb	0.05795745
231	0xbd92c0fe	-0.071657166
232	0xbd159e1a	-0.03652773
233	0xbd5f2686	-0.0544801
234	0xbdf205c8	-0.11817509
235	0xb8898538	-6.557483e-05
236	0xbcfc044d	-0.03076377
237	0xbd168000	-0.036743164
238	0xbd239421	-0.03993619
239	0xbd37918c	-0.04481654
240	0x3cfb4ac2	0.030675296
241	0xbd3990e0	-0.04530418
242	0x3c1e7f9d	0.00967398
243	0x3c66ad41	0.014079393
244	0xbc29c3be	-0.01036161
245	0x3db48cbe	0.08815907
246	0xbd84dea7	-0.0648778
247	0x3d45c9d6	0.04828819
248	0x3baa0ba7	0.0051893773
249	0x3deb587f	0.11491489
250	0x3d7a8d9f	0.061170217
251	0xbe04fe48	-0.12987626
252	0xbc74f730	-0.014951512
253	0x3db77914	0.08958641
254	0xbd468704	-0.048468605
255	0xbdb8eb77	-0.09029286

fc2.bias f4 [5]
0	0xbd93b879	-0.0721292
1	0x3b53586c	0.0032248748
2	0xbcbb7545	-0.022883067
3	0xbca2b390	-0.019861013
4	0x3c86ec40	0.016470075
