Trained_Weights/v5.1_10th.pth (torch, 671892 bytes, 10 tensors)

conv1.weight f4 [32, 1, 3, 3]
000000 52 bf 05 bd 72 a6 cd 3d 86 d6 66 bd 87 eb 02 3e
       -0.03265316 0.100415125 -0.05635693 0.12785159
000010 40 b0 34 3d 38 e9 51 3e 59 79 0c 3e 70 38 ab 3e
       0.044113398 0.20499122 0.13718165 0.33441496
000020 d3 ea 67 bc 1c 88 7b be c3 fb ad 3e ce bb 97 3e
       -0.014155108 -0.2456364 0.3398114 0.2963547
000030 56 44 a1 3e e7 7d 92 be 75 6a a0 3e ef 7d 79 be
       0.3149745 -0.2861168 0.3133122 -0.24364446
000040 0d b9 19 be a2 b4 f0 3d 37 75 6f 3e 07 14 f7 3c
       -0.15011998 0.11753203 0.23384558 0.030160917
000050 b3 33 75 be 96 90 55 3e 2b 2d 7d 3e 0e df 6a 3e
       -0.23945503 0.20855936 0.24724261 0.22936651
000060 09 b1 1e 3d 31 05 04 bd 7f 4e db bc b0 ad b1 3d
       0.038743053 -0.032231513 -0.026770828 0.086757064
000070 30 55 82 3e 6c b9 d6 bd 3d 85 70 be ff 57 8f bd
       0.25455618 -0.10484585 -0.23488326 -0.06999206
000080 57 2d 93 3d 18 5d c8 3d fc b7 02 3e 13 4c 76 3e
       0.07186382 0.09783381 0.12765497 0.24052458
000090 d0 cb fe bc 89 8e b3 3e 85 9e 98 3e 75 14 84 3e
       -0.031103045 0.35069683 0.2980844 0.25796857
0000a0 58 f8 f3 3d 3f ff 1d 3e e0 9e 2b bc 38 39 31 be
       0.11912602 0.154294 -0.0104748905 -0.17306983
0000b0 8f 5e 86 3e ac b1 d9 bd 9d 26 f3 3b 5d 47 c4 bd
       0.26244017 -0.10629591 0.0074203745 -0.09583924
0000c0 a7 d7 41 3d b7 27 35 3e 8a 79 49 3e 60 61 56 be
       0.047324803 0.17690931 0.1967527 -0.20935583
0000d0 b5 2b ae be d2 d3 84 be 89 7a 46 3e 6c 4e 05 bc
       -0.3401772 -0.25942856 0.19382681 -0.008136373
0000e0 2b b4 ae be 7d 0f a6 be c8 1c 03 3e 47 fd 38 be
       -0.34121832 -0.32433692 0.12803948 -0.18065368
0000f0 b7 73 c6 3d f4 56 69 be 30 da eb 3d bd cb a5 bd
       0.096900396 -0.22787076 0.11516225 -0.080955006
000100 f5 3b 8d 3e df 6b fb 3d 63 9d a1 3e b4 98 8f be
       0.27584806 0.12276434 0.3156539 -0.2804619
000110 20 75 e9 3d 99 74 83 bd 91 0d 06 3e 3d 9f b0 3d
       0.11399293 -0.064187236 0.13091113 0.08624122
000120 41 6a 5f be 19 d0 1d 3e ef 09 82 be 0b 09 7a 3e
       -0.21817876 0.15411414 -0.25398204 0.24417512
000130 ff fd 47 3d 8f 65 ab bd 23 ec cd bc fb ce 2b 3d
       0.048826214 -0.0836898 -0.025137013 0.04194544
000140 50 29 ba be 4a fe 37 3e fd 42 b5 bd cc 23 83 3d
       -0.36359644 0.17968097 -0.088506676 0.06403312
000150 30 eb a0 3d 97 c9 85 be c1 87 2d 3e f0 f6 54 be
       0.078573585 -0.26130363 0.16946317 -0.20797324
000160 3d 56 71 3e 74 8b 8d bd 85 e6 74 be 56 06 20 3e
       0.23568054 -0.06911364 -0.23916061 0.15627417
000170 26 fd 40 be 02 a4 55 3e 92 4d 8f 3a 90 2f b2 bd
       -0.18846568 0.20863345 0.0010933152 -0.08700478
000180 8c e4 93 3d a0 7b e3 3d 36 36 c0 bd db d2 41 bd
       0.07221326 0.11107564 -0.0938534 -0.047320228
000190 12 42 87 3e 1f d3 21 3d 27 9b 06 3e 71 b1 a5 3e
       0.26417595 0.03950798 0.13145123 0.3236194
0001a0 da 0f 63 bc 5f 6e 13 3e 63 a3 1c be 2c f1 6e be
       -0.01385876 0.14397572 -0.15296702 -0.23334187
0001b0 6f 12 6b be 9d 56 82 3e f4 45 81 3e 31 28 55 bd
       -0.2295625 0.25456706 0.25248682 -0.052040283
0001c0 d1 94 96 3e ca 25 39 3c e4 e8 32 3e ce 62 15 be
       0.29410413 0.0113005135 0.17471653 -0.14588472
0001d0 33 52 67 bd b6 89 80 3e ed 92 22 be 66 99 56 3e
       -0.056474876 0.25105065 -0.1587636 0.20956954
0001e0 4a 9c 02 bd dc cd 20 3d cd b1 80 3e 3e fe 84 3d
       -0.03188733 0.039258823 0.2513565 0.06493805
0001f0 62 1a b7 bd 09 69 ae 3e d9 f1 b4 be 39 6f 44 3e
       -0.08940579 0.3406451 -0.35340765 0.19183053
000200 78 f2 7a be 3a da e7 bd b9 e2 01 be 6a ef 85 be
       -0.24506557 -0.1132092 -0.12684144 -0.2615922
000210 33 1c 92 3d c3 07 82 3e 8a d8 10 3e a8 5d 7f 3e
       0.07134285 0.25396547 0.14145103 0.24938071
000220 d2 0d 59 3d 79 b1 d1 bd 2c 71 be 3e 01 59 d9 3d
       0.052991696 -0.10238928 0.37195718 0.10612679
000230 1a f7 42 3e e0 ae 80 be 90 a6 bd bd d2 c7 9c bd
       0.19039574 -0.2513342 -0.09260285 -0.076553
000240 78 02 46 be 81 e9 07 3d 85 33 06 3e 15 74 60 3e
       -0.19336879 0.03318167 0.1310559 0.21919282
000250 ca 62 00 be 2b 30 fe 3d 83 e9 04 3d 63 f6 50 3e
       -0.12537685 0.12411531 0.032449257 0.20406489
000260 f4 fe 8e 3d ba 00 bc 3d a0 de 5e be 18 e3 2a be
       0.06982222 0.09179826 -0.21764612 -0.16688192
000270 55 41 ad be 8e 1f ae ba b4 0b 9d 3e a1 35 6a 3d
       -0.33838907 -0.001328455 0.3067299 0.05718005
000280 78 f3 a1 be d4 ac 86 be 41 01 0d 3e 46 da 57 3e
       -0.31631064 -0.26303732 0.1377001 0.21079358
000290 ba e3 23 3e 13 3a a1 bd 2d 89 e8 3d 98 c2 03 3d
       0.1600484 -0.07872405 0.11354289 0.032168
0002a0 b9 45 6b bd 9f a7 5c 3e cd cc f8 bb 7a f7 8c 3c
       -0.05743954 0.21548317 -0.0075927735 0.01720785
0002b0 99 9b 2f be b4 22 b8 3e ad 78 4e bd 37 64 4f 3e
       -0.171492 0.35963976 -0.050408054 0.20253073
0002c0 b5 7a 5e be 7e de 68 be 44 6c 66 3e 98 b6 59 be
       -0.21726497 -0.22741124 0.22502238 -0.2126106
0002d0 7c 25 9d 3d 6c c2 a5 3e 11 cb ce 3b 81 1e 23 3d
       0.07673165 0.32374895 0.0063108285 0.039824013
0002e0 3f 11 f5 bd 47 1a 2d be 5a 26 8b be 48 8d ac bc
       -0.1196618 -0.16904555 -0.27177697 -0.021063462
0002f0 10 a1 11 be 6a b3 45 3e 35 de 58 3e a8 57 36 3e
       -0.14221597 0.19306722 0.21178515 0.17806876
000300 2c 58 3f 3e 83 57 6a be 6a 59 ae 3e 8a f6 2a be
       0.18685979 -0.22884946 0.34052593 -0.1669561
000310 95 c4 6d 3e e0 34 9b 3e be 0e 9b bd bc d3 9d 3e
       0.23219521 0.30313778 -0.07571171 0.30825603
000320 77 d8 96 3e 59 68 54 3e d6 98 27 3e b0 0a 8c bc
       0.29462025 0.2074293 0.16366896 -0.01709494
000330 84 ea 08 3e 6f e4 af 3c 19 68 34 be 6f 50 30 3e
       0.1337071 0.02147123 -0.17617835 0.17218183
000340 46 ac 62 3e 53 f1 86 3e 75 e7 5a be c4 21 94 be
       0.2213603 0.2635599 -0.21377356 -0.2893201
000350 0c ed 26 3d d1 8d ab 3e 68 4b 18 bd 34 05 74 3e
       0.04075341 0.33506635 -0.037181288 0.2383011
000360 d8 f6 48 3e cf 0a 8c be ff ad b4 be be 03 76 3c
       0.19625413 -0.27351996 -0.35288998 0.015015541
000370 85 aa 1b 3e 1e 10 98 3d 0d 6e 9e be 79 a9 2b 3e
       0.15201767 0.07424949 -0.30943337 0.16763867
000380 f3 0f b6 bd 7b 7f 59 be 83 73 ff bd 4c 6d 9d be
       -0.08889761 -0.21240036 -0.12473204 -0.3074745
000390 06 59 07 be 8f d5 19 3e cb c2 57 3c 89 7e 85 3e
       -0.13217553 0.15022872 0.013169001 0.260731
0003a0 98 ec 5d be 29 97 db bd f5 76 71 3e db a7 33 bd
       -0.21672285 -0.10722191 0.23580535 -0.04386125
0003b0 4e d8 a0 3e 65 b8 4d 3e fc 88 61 3e 31 13 c5 3d
       0.31415027 0.20089872 0.22024912 0.09622801
0003c0 64 9f 93 be 1e c2 1d bd 11 6f 63 be 8d fe 8b be
       -0.28832543 -0.038515203 -0.22210337 -0.27342644
0003d0 a4 67 06 3b d4 39 d9 3d 60 68 1d be 3b 03 62 bc
       0.0020508552 0.10606733 -0.15371847 -0.0137947155
0003e0 dd 3d db bc 9c 2e b5 bd 51 0c 14 3e 0b 89 65 be
       -0.026762897 -0.08846781 0.14457823 -0.22415559
0003f0 40 fb 0a be 59 f5 1e 3e d5 fd 0a 3e a6 52 ef 3d
       -0.13572407 0.1552328 0.13573392 0.11685686

conv1.bias f4 [32]
000000 34 7f 23 be 23 21 a4 be 0c 1c 35 3d 77 16 05 3e
       -0.15966493 -0.3205653 0.0442162 0.12996851
000010 90 c3 61 be 6e 85 db 3d 13 fb 1e 3e 5d 99 8a be
       -0.22047257 0.10718809 0.15525465 -0.27070132
000020 2c ad 0e 3e e0 a4 88 be 97 87 89 3d 11 13 da bd
       0.13933247 -0.2668829 0.06715315 -0.10648168
000030 1b b5 a8 bd 58 e0 cc bd 12 12 84 3e b5 d9 58 be
       -0.08237668 -0.10003728 0.25795037 -0.21176799
000040 70 50 93 be 96 34 1e 3e 0d a4 f5 3c 1e 8d d5 bb
       -0.28772306 0.15449747 0.029985452 -0.0065170666
000050 42 a0 13 3d 2c e2 50 3b be 6c 91 be ba f4 ec bd
       0.036041506 0.003187309 -0.28403276 -0.115701154
000060 3d 45 d8 3d ef 77 40 3e a3 20 96 bd f5 59 71 3e
       0.10560081 0.18795751 -0.07330444 0.23569472
000070 fd 8d f1 bc 40 79 97 bd 63 d8 9e be 1f f3 01 be
       -0.02948665 -0.073961735 -0.31024465 -0.126904

conv2.weight f4 [32, 32, 3, 3]
000000 c7 33 38 be bb 22 86 be cc a6 10 be fa e4 c8 bd
       -0.17988501 -0.26198372 -0.14126128 -0.09809299
000010 2c dd 66 be 65 49 10 be 55 a9 24 be 66 60 6f be
       -0.22545308 -0.14090498 -0.1608022 -0.23376617
000020 ab 91 d4 bd 40 58 aa bd bd a4 8e bd c1 43 20 3d
       -0.103793465 -0.083176136 -0.06965015 0.039127115
000030 dc c4 05 bd e0 3a f5 3c 2f bb 45 bd 93 b2 57 bd
       -0.032658443 0.0299353 -0.048274215 -0.052660536
000040 df 27 8b bd 5a 12 0c bd 2f af 21 bd 2e 6d 8f bd
       -0.06794714 -0.03419719 -0.03947371 -0.07003246
000050 6c c9 9f bc 09 97 f6 bb 23 87 df bc b6 3f 6b bd
       -0.019505225 -0.007525329 -0.027286118 -0.057433806
000060 e7 68 d1 bc 24 bd 99 bc db 0a 0c 3d 4e fd 54 bd
       -0.025562717 -0.018766947 0.03419004 -0.051999383
000070 70 be f7 bb 60 6a 2a bd c5 c4 8f bd 58 40 46 bd
       -0.0075605437 -0.041605353 -0.07019953 -0.048401207
000080 f1 b2 f4 bb 0e 95 41 bd fc 2e 4e bc ec ac ad 3b
       -0.0074676205 -0.04726129 -0.012584444 0.005300155
000090 28 80 e7 bd 9a 20 61 be c3 dd bc bd c6 39 f2 bd
       -0.11303741 -0.21985093 -0.09221985 -0.11827426
0000a0 70 e0 2b be c8 16 07 be a1 24 0a be 5c ca 44 be
       -0.16784835 -0.13192284 -0.13490535 -0.19217819
0000b0 0d f8 92 bd 16 80 66 3d a3 21 15 3e 68 aa 7d 3d
       -0.07176218 0.056274496 0.14563613 0.06193009
0000c0 70 07 4d 3d bb 9e 2c 3e 23 dc e5 3d d0 0c 1e 3e
       0.05005592 0.16857426 0.11223628 0.15434575
0000d0 65 1f 46 3e 42 76 19 3e 7b 03 c1 3d cd ed 88 3d
       0.19347914 0.14986518 0.09424492 0.06685982
0000e0 76 c3 fa bc d9 e9 e9 3d cc 45 ac 3d b0 7e 75 3d
       -0.030610781 0.11421556 0.0841175 0.05993527
0000f0 c6 05 0c 3e 7d 89 ad 3d f1 6d 19 b9 0d 73 40 bd
       0.13674077 0.084734894 -0.00014632173 -0.04698472
000100 7f bd b9 bd 50 3f a6 3c eb 9d 5d 3b c2 5e c7 b9
       -0.09069347 0.020293862 0.003381605 -0.00038026838
000110 48 94 83 bc 4f 38 57 bd 11 5a 1d bd 69 c1 65 bd
       -0.016061917 -0.052543934 -0.038415972 -0.056092653
000120 6b fd 04 3e 84 91 3c ba 2c 63 8a bc 22 f1 22 3e
       0.12987296 -0.00071933144 -0.016892992 0.15912297
000130 ee 14 97 3d e3 d8 b6 bd 64 a6 5e 3d 65 fe 6f 3d
       0.07377039 -0.089280866 0.0543579 0.05859222
000140 1e 45 63 3d f1 a1 e6 bb e8 41 19 3d a1 39 52 bc
       0.055485837 -0.007038348 0.03741637 -0.012831123
000150 43 53 ed bc 83 32 8c 39 23 79 21 3d ca 2c cf 3c
       -0.028970366 0.00026740515 0.039422166 0.025289912
000160 54 cf eb bc 9a 90 26 bc eb 43 10 3d ff 29 11 bd
       -0.028785385 -0.010166312 0.03522102 -0.03544044
000170 0e 09 33 bd 79 87 ea 3c cc 38 2a 3d e0 8f 89 bd
       -0.043709807 0.028629052 0.041558072 -0.06716895
000180 5d 63 f5 bc 82 61 51 3c 4c cf a0 bb d3 ec c6 bd
       -0.029954607 0.012779595 -0.004907524 -0.097131394
000190 1d d4 9d bd 40 9a b5 bd cb 57 a6 bd 44 07 11 be
       -0.07706473 -0.088673115 -0.08122214 -0.14162928
0001a0 74 7d 0b be 6c 41 b0 bd 6d e2 5f be 9a a9 a7 bd
       -0.13622075 -0.08606228 -0.21863718 -0.08186646
0001b0 0f d2 61 bd af e7 99 bd 88 bb 95 bb f4 6a 21 be
       -0.055131968 -0.07514893 -0.0045694746 -0.15763456
0001c0 49 d4 c6 bd ba d5 a4 bd e9 57 2f be 0d 90 a7 bd
       -0.09708459 -0.080485776 -0.17123379 -0.081817724
0001d0 38 12 b5 bd 81 e5 e7 bd c3 d9 85 bd 56 75 6b bd
       -0.088413656 -0.11323071 -0.065356754 -0.057484947
0001e0 ec 09 02 be 1f 1e ce bd 9c eb 43 bd 53 0f d6 bd
       -0.12699097 -0.10064339 -0.047832116 -0.104521416
0001f0 90 47 00 be 3a 4b 3e bd 32 f8 a1 3d 77 a1 47 3d
       -0.12527299 -0.04645846 0.079086676 0.04873797
000200 40 5d fa 3c ae 85 45 3c fa d6 86 3c f1 29 14 bd
       0.030562043 0.0120557975 0.01645993 -0.03617281
000210 c2 67 8d 3d f2 af 76 3c 25 29 90 bc f3 4d 90 bd
       0.06904556 0.015056597 -0.017597744 -0.07046118
000220 3b c8 be bc 67 b7 97 bd aa 73 61 39 4b b9 13 bd
       -0.023288837 -0.07408028 0.0002150076 -0.03606538
000230 a5 c2 3e bd 57 a0 08 bd 87 9a ff bc 7a 7b 6a bd
       -0.046572346 -0.033356037 -0.031201614 -0.057246663
000240 46 91 17 bd f1 00 b3 bc e4 8b 22 bd 73 ab 62 bd
       -0.037003778 -0.021851035 -0.03968419 -0.055339288
000250 9e 77 63 bc 67 c4 18 bb 05 1a 1c bc 21 ef cf 3c
       -0.013883499 -0.0023310424 -0.009527688 0.02538258
000260 1a f6 d2 3c 4f f4 33 3e 46 6b 07 3e 17 4c 00 3e
       0.025752116 0.17573665 0.13224515 0.12529026
000270 02 87 99 3d 43 96 33 3e cc 07 32 3e 21 2e 3c 3e
       0.07496454 0.17537789 0.17385787 0.18376972
000280 10 86 61 3e 81 cf 05 3e fc b2 98 bc 64 2c 86 bc
       0.22023797 0.13067438 -0.018640034 -0.016378589
000290 42 3b a1 3c 19 c5 67 bd c0 ef 8b bd 34 30 72 39
       0.019681577 -0.05658445 -0.06832838 0.00023096876
0002a0 e0 99 34 bd 90 98 54 3b 6f 6b 95 bc 71 50 52 bd
       -0.04409206 0.0032439567 -0.018239705 -0.051346246
0002b0 ba bd 4e 3d 32 d7 4c bd 4f ee 60 bd 55 7c 5d 3d
       0.050473906 -0.050009914 -0.05491477 0.05407365
0002c0 fd 9c c6 ba 97 94 47 bd dc 4f 04 bd 98 4f ca 3a
       -0.0015152987 -0.04872569 -0.032302722 0.0015435098
0002d0 c0 6c 86 3d c0 ac 53 3b a0 a1 94 3d 42 df a1 3d
       0.06563711 0.0032299012 0.0725739 0.07903911
0002e0 b2 58 6a 3d 93 de c1 bb 73 44 4f 3c 94 ab 59 3d
       0.057213493 -0.0059164255 0.012650597 0.053142145
0002f0 5f 10 20 3d 09 60 94 bd e1 41 c0 bd 18 74 4e 3d
       0.039078113 -0.0724488 -0.093875654 0.050403684
000300 a1 7d b2 bd d6 59 37 bd 80 d9 77 bd 13 c5 aa bd
       -0.08715368 -0.04476341 -0.06051016 -0.0833837
000310 91 28 de 3a c5 2d 73 bc 51 eb 09 be ec 42 a3 bd
       0.0016949346 -0.014842455 -0.13468672 -0.07971749
000320 c2 d6 b5 bd 06 57 44 bc 1b 6c a3 bd 33 19 fb bd
       -0.088788524 -0.011983639 -0.07979604 -0.12260666
000330 a9 25 22 bd 6f 3f db bd 83 a5 44 bc 1b 33 01 be
       -0.039586697 -0.107054584 -0.012002352 -0.12617151
000340 46 9f f7 bd 9f 6b fa 3c aa 67 64 bd 9f fe df bd
       -0.12090926 0.030568896 -0.055762924 -0.10937237
000350 c7 c2 88 bc 98 50 81 bd 6e 87 e6 bd 58 4b 8c bd
       -0.01669444 -0.063142 -0.112563 -0.06850308
000360 92 22 32 3d 56 48 2d bd fd 8d ba bc 31 b1 be 3d
       0.04349 -0.042305313 -0.022772783 0.0931114
000370 ea af 21 3d 9d 32 2a bd 0f 14 4b 3d 9d cb 18 3d
       0.039474405 -0.041552175 0.049579676 0.037303556
000380 f5 38 e4 3c 50 04 fc 3d 9b 9b ea 3d d0 36 bc 3c
       0.02785919 0.1230551 0.11455461 0.022975355
000390 00 0b 19 3e 12 72 42 3e b5 f0 12 3d a4 bd 30 3e
       0.14945602 0.18988827 0.035874087 0.17259842
0003a0 96 0a 23 3e 3f cc 21 3c 45 e7 42 bd 43 a5 ba bc
       0.15922007 0.009875356 -0.047583837 -0.022783881
0003b0 f3 3f 87 bc b3 be 91 bd 85 39 91 bd bf 5c 7d bc
       -0.016509986 -0.07116451 -0.07091049 -0.015464007
0003c0 48 04 28 bc 83 c6 bc bd c3 49 9c bd 19 82 e3 bc
       -0.010254927 -0.092175506 -0.076312564 -0.027771996
0003d0 68 06 94 3d 4c ac a6 bc f0 21 30 bb ba 39 d3 3c
       0.072277844 -0.02034583 -0.0026875697 0.025784362
0003e0 bf 42 8e 3d 27 d3 3a 3c c6 65 65 3b 79 e3 33 3d
       0.069463246 0.011402882 0.0035003289 0.043918107
0003f0 af d7 51 bd 35 c3 45 bc 7c a4 64 bd 13 a0 3a bd
       -0.051231083 -0.012070467 -0.055820927 -0.045562815

conv2.bias f4 [32]
000000 66 02 2f 3d 47 7b 14 bd 97 c2 a6 bc 37 7f 24 3d
       0.042726897 -0.03625038 -0.02035646 0.040160384
000010 be 22 e0 3c e8 30 c4 3b a7 d6 ad 3c fd ff 68 bd
       0.027360316 0.0059872754 0.021220518 -0.056884754
000020 47 b0 18 bd 33 d1 a3 bc 69 87 32 3c e4 cf ad 3c
       -0.037277486 -0.019997215 0.010896542 0.021217294
000030 7e 0f 87 bc d6 90 b1 bc 38 5e 18 bc 8a 51 ac 3b
       -0.01648688 -0.021675508 -0.009299807 0.0052587437
000040 e9 4c 9d 3c b5 bc 3f bd 5a d5 86 3c 7e 8d 66 bd
       0.019201713 -0.046810824 0.016459156 -0.05628728
000050 8a 95 b8 3c 5b c0 45 3c d5 9c 66 3c 51 1a 18 bd
       0.022532243 0.012069787 0.014075478 -0.037134472
000060 c5 9d 7e 3c 6e 40 23 3d 3d 65 bd bc 47 d6 a1 bd
       0.015540545 0.039856367 -0.023119563 -0.07902198
000070 25 ad ce 3c ad 5f e5 3c 9c 57 fe bc 5e 08 92 3d
       0.025229046 0.027999723 -0.031047635 0.07130502

conv3.weight f4 [32, 32, 3, 3]
000000 f5 0e 86 bc ff a6 9d 3d 30 76 e1 3d 14 47 8e bc
       -0.016364554 0.076978676 0.110088706 -0.017367877
000010 9a aa c5 3c 74 8f b8 bc 4b d8 ac 3d 8d f5 f5 bd
       0.0241292 -0.022529341 0.08439692 -0.12009726
000020 24 28 42 be 00 2d 48 3d f1 66 af bc 93 74 f7 bd
       -0.18960625 0.04887104 -0.021411391 -0.12082782
000030 36 47 f4 3b b0 e0 cc 3d f5 5c e8 bb 64 0d b4 bd
       0.007454778 0.10003793 -0.0070911595 -0.087916166
000040 7e 8e 25 3e 50 f9 00 3e e1 81 3c bd 9d 61 d8 bc
       0.16167638 0.12595105 -0.0460223 -0.026413733
000050 d5 a2 7e bd 60 4b 13 3d 80 c7 b8 3d ac de e0 3c
       -0.062167007 0.035960555 0.090224266 0.027449928
000060 88 ca 8b bd 90 24 07 3e 65 3e 10 3e a4 2b 7d 3d
       -0.06825739 0.13197541 0.14086302 0.061809197
000070 31 15 09 3d be 2d a8 3d 98 b5 33 3d 7e 96 9c bd
       0.033467475 0.0821185 0.043874353 -0.076458916
000080 e1 b4 19 3d af 3b 6b 3c 52 63 a0 bd f5 3d 20 be
       0.037526015 0.014357491 -0.07831444 -0.15648635
000090 60 e7 a8 3c df 77 d0 3c db d8 34 3d 21 5b 64 3b
       0.02061814 0.025447784 0.044152122 0.0034844356
0000a0 30 4b 45 bd 8a 84 33 3d 52 0e 06 bc 57 29 16 be
       -0.048167408 0.04382757 -0.008182125 -0.14664207
0000b0 14 aa c5 bd 17 27 d6 bb c0 7a 1a 3d 62 e1 a8 3d
       -0.096515805 -0.0065354216 0.03771472 0.08246113
0000c0 80 d0 23 3d ed 3c 55 bd 73 96 8f bd c1 dc 0c 3e
       0.039993763 -0.052060056 -0.07011118 0.13756086
0000d0 55 1f 88 bd 8f 81 29 be 18 1f 92 3d 6d 8f e6 3d
       -0.06646601 -0.16553329 0.07134837 0.11257825
0000e0 ea 23 0f 3e b3 b9 41 bc 0c 8f 92 bd a4 c6 dd 3c
       0.13978544 -0.011824059 -0.0715619 0.027072258
0000f0 88 07 f5 ba 88 30 9d bd f3 89 1f be b1 ed 0b bd
       -0.0018694261 -0.07675272 -0.15579967 -0.034162227
000100 23 d4 c5 3b d5 92 d1 bd c6 f6 8a bd 84 f2 95 3d
       0.0060372516 -0.10233084 -0.067853495 0.07321647
000110 5c a9 c9 3c 67 91 a4 bc 93 b6 b1 3d 24 86 19 3e
       0.02461689 -0.020088864 0.086774014 0.14992577
000120 ee 49 2f 3d 5a 5b b6 bc 86 43 1f be d3 b6 24 bd
       0.042795114 -0.022260357 -0.15553102 -0.040213417
000130 92 db 8e 3c a2 44 60 3d 14 7e b8 bd 59 47 3e 3e
       0.017438684 0.054752953 -0.090084225 0.18581904
000140 5f e7 36 3e 68 9c 33 3d bd 4e b2 bd 6b 48 33 bd
       0.17861699 0.043850332 -0.087064244 -0.043770235
000150 2d 1d 1e bd 38 8b 5d 3d f2 6e 59 bc b2 33 b6 3a
       -0.038602043 0.054087847 -0.01327108 0.0013900904
000160 4d ef 82 3d 14 26 50 3e d3 10 97 bb db ff 7d bd
       0.06393299 0.20327026 -0.00461016 -0.06201158
000170 bb b8 de bd 01 8c d2 3c 93 e9 c5 bc e3 72 29 3d
       -0.10875078 0.025701525 -0.024159228 0.04136933
000180 70 8f 6b bd a5 bc f5 3d ce b4 ff 3d 61 0a 3d 3d
       -0.05750984 0.11998872 0.12485658 0.046152476
000190 39 a8 bf bc 8b b4 19 bd b3 19 84 bd b2 65 97 bc
       -0.023395645 -0.037525695 -0.06450214 -0.01848111
0001a0 b2 db c8 bc e8 57 59 bd 30 cc b5 3d 8c 45 06 3d
       -0.024518821 -0.05306235 0.08876836 0.03278117
0001b0 55 63 9f 3d 04 ba 04 3e 66 f9 36 3e dd 76 91 3d
       0.07782618 0.12961584 0.17868575 0.071027495
0001c0 2a 52 b2 bb 00 00 ee bc 45 fc d3 3d 26 fe 48 be
       -0.0054419236 -0.029052734 0.10350851 -0.196282
0001d0 74 ea 1e be c1 a6 17 bd f3 67 d6 3d f5 03 c9 3d
       -0.15519124 -0.037024263 0.104690455 0.09815208
0001e0 9e 9f 7e 3d 20 15 e3 bd b7 e1 8c 3c ad fa 1d 3d
       0.06216394 -0.11088014 0.017197473 0.03856914
0001f0 f7 7d 16 be fd 10 54 be 36 b2 4f bc 70 49 ad bd
       -0.1469649 -0.20709606 -0.012676766 -0.08461273
000200 99 5d e7 bd ea 84 0e 3d 00 e0 c7 3b 26 30 68 bd
       -0.11297149 0.034794725 0.006099701 -0.056686543
000210 f7 28 95 bc 78 50 34 3e 10 cd d9 3d 47 51 7d 3b
       -0.01820801 0.17608821 0.10634816 0.0038653181
000220 d3 0f a9 bd f8 0c 84 bd 2c a2 02 bd 90 75 5e 3d
       -0.08254971 -0.06447786 -0.03189294 0.054311335
000230 f3 a7 80 3c ff 71 86 bd 15 c3 09 3e b0 ef 13 3e
       0.015705084 -0.06564712 0.13453324 0.14446902
000240 28 df 8a 3c 2f 20 e6 bd 84 2e e9 bd 6c d6 b8 3c
       0.016952112 -0.11236607 -0.11385825 0.022563182
000250 80 54 a2 3d c5 65 50 bd 88 ef 53 bc f3 8a aa 3d
       0.07926273 -0.050878305 -0.012935527 0.08327284
000260 e5 13 dd 3d 86 55 81 bc 69 4e bf bd 10 82 b5 bd
       0.1079481 -0.015787851 -0.093411274 -0.08862698
000270 8f 2e fd 3c 01 b3 d0 3d c2 b3 71 3d 93 df cd bc
       0.03090599 0.10190392 0.05900932 -0.025131023
000280 3c 6e e6 3d a0 21 52 3e 28 7e 2a 3d 5c e8 fe 3d
       0.11251494 0.2052064 0.04162422 0.12446663
000290 5f 66 ab 3d f3 d5 9a 3d ed 4a ac bd 3b 37 0d bd
       0.08369135 0.07560339 -0.084127285 -0.0344765
0002a0 f5 d9 bb 3d a9 ec 14 be 56 16 1a be dc 56 56 bc
       0.091724314 -0.14543404 -0.15047583 -0.013082232
0002b0 90 92 77 bd 70 e7 f6 bc eb ab a3 bd dc 24 1f bc
       -0.060442507 -0.030139655 -0.07991775 -0.009713378
0002c0 fd 53 0e 3d 04 ca 5a bd 65 42 f1 3d c6 5f 11 3e
       0.034748066 -0.053415313 0.11780242 0.14196691
0002d0 db a9 10 3b b5 7e 07 3c 6a ef ef 3d b2 bd b5 bc
       0.0022073898 0.008269955 0.117155865 -0.02218518
0002e0 89 4a c6 bc b5 5c f6 bb 2a 0c 1f 3d b4 58 fc bd
       -0.024205463 -0.0075183758 0.03882996 -0.12321606
0002f0 f2 91 0d bd 58 ff d4 3c b7 60 5f 3d d9 a0 cc 3d
       -0.034563012 0.026000664 0.054535594 0.09991617
000300 dc 46 3c 3d 37 fa 39 bd 1b ea 8b bd c0 50 06 bd
       0.045966014 -0.04540464 -0.068317614 -0.032791853
000310 f4 75 46 be b5 57 be bd 95 6f e2 3c ab 1e 2b bc
       -0.19380933 -0.092940725 0.027641097 -0.0104443235
000320 80 69 11 be 30 1e be 3c e8 32 61 3d 8c 21 33 3d
       -0.14200401 0.023207754 0.05498019 0.043733165
000330 33 32 35 bc 0c c9 1d 3e 9a e7 56 3e a1 6b 73 3d
       -0.011059332 0.15408725 0.20986786 0.059428815
000340 30 85 95 bd a8 82 9a bd d1 93 84 bb 14 d2 f2 3c
       -0.07300794 -0.07544452 -0.0040459414 0.029641189
000350 f0 d2 18 bd 6e 11 9d bc 1b 2b bf 3d b3 26 2c 3e
       -0.03731054 -0.01917335 0.093343936 0.16811638
000360 f7 2d 40 3c 64 fe ed bd 43 b2 95 bd 66 d1 ec bc
       0.011729709 -0.11620787 -0.07309391 -0.028908443
000370 7e 97 c4 3d ba 38 17 3d 3b 24 92 bd 8d f8 57 3e
       0.09599207 0.036919333 -0.07135817 0.21090908
000380 83 78 fe 3d 6a 1a 43 3c 5c 9f 63 3c 73 83 97 bd
       0.124253295 0.011908153 0.013892975 -0.07398119
000390 88 e5 d1 3c 5c ec ac 3c 02 86 d5 3c 3f b5 35 3d
       0.025622144 0.021108799 0.026064876 0.044362303
0003a0 e3 88 28 3e 9f f7 fb 3d 22 e1 09 bd 23 36 b7 3d
       0.16458468 0.12303089 -0.03366197 0.08945873
0003b0 03 23 96 3d 2a e8 fe bc 9b 4e 96 bd f6 c9 19 bc
       0.07330897 -0.031116564 -0.073392116 -0.00938653
0003c0 2b 66 3d 3d 2c 54 15 be 2e f4 16 be ae 06 be 3c
       0.046240013 -0.1458289 -0.14741585 0.023196544
0003d0 7e 13 e2 bc fe 24 9c bd b9 5b f2 3a ec 79 30 bc
       -0.027597185 -0.07624243 0.001849047 -0.010771256
0003e0 89 8a e7 bc 7d 3c 2a bd 69 fa 85 3d 4e 80 bb 3d
       -0.0282643 -0.041561592 0.065419026 0.091553316
0003f0 57 9a 5d bd 9d fa cc bd d0 38 ed bd 4d e6 95 bd
       -0.054102268 -0.10008738 -0.11583102 -0.07319317

conv3.bias f4 [32]
000000 73 bd 98 3d 21 3d 22 bd 5e e4 e7 bc 72 00 f7 bd
       0.074580096 -0.03960908 -0.028307136 -0.12060632
000010 51 77 eb 3b 2d 35 07 3b a6 8d 62 3d 64 1b d0 bd
       0.0071858545 0.002063106 0.055310868 -0.10161474
000020 3e fe b7 bc 28 22 bb 3c 27 b3 2a bd 70 ab cb 3c
       -0.0224601 0.022843435 -0.04167476 0.024862021
000030 69 68 50 3d 27 23 67 bd d3 6a 2d bc ef a8 93 3b
       0.050880823 -0.05643001 -0.010584551 0.0045062224
000040 4d d6 d4 bc 4a 24 4d 3c 60 fd 2b 3d 87 df 91 bd
       -0.025981093 0.012520859 0.041989684 -0.071227126
000050 00 df 75 3b 44 b5 55 3d 29 c9 72 bd a8 e7 38 bd
       0.0037516952 0.05217482 -0.059273873 -0.0451428
000060 ac 3f aa bb 43 58 1d 3d 2b 95 58 3d fe 50 8f bc
       -0.0051955786 0.03841425 0.052876633 -0.017494675
000070 99 50 fb 3c df c6 78 3d d9 2b 1a bd 2f ae 25 3d
       0.03067808 0.060736533 -0.037639473 0.040449318

fc1.weight f4 [128, 1152]
000000 81 28 25 3d 53 51 8e bd 9c f4 88 bd 91 f1 5f bd
       0.04032183 -0.06949105 -0.066872805 -0.054673735
000010 22 17 77 bd b5 11 48 3c b1 c9 9f bd 07 db 50 bd
       -0.060324796 0.012211253 -0.078021415 -0.05099013
000020 1e 7b b2 3c ed 7e 92 bb 53 1a 9e 3b 74 16 68 bd
       0.021787222 -0.004470697 0.0048249154 -0.056662038
000030 9f 46 fc 3c 95 7c 80 3c 7a 60 c6 bc 01 af 94 bd
       0.030795394 0.015684405 -0.024215925 -0.07259942
000040 13 76 bd bc 86 a3 6a bd ca 98 96 bc 0c 4e 57 bd
       -0.023127591 -0.057284854 -0.018383402 -0.052564666
000050 ce 74 f6 3c de 01 28 bd d5 fc 85 3c d6 1b 9a 3c
       0.030084994 -0.041017406 0.016355911 0.018812101
000060 d2 ac 00 bd 56 b0 41 ba d1 f8 e1 3c f8 49 68 bd
       -0.031414814 -0.0007388642 0.027584465 -0.056711167
000070 25 37 9f bd 1a 8b 94 3c 70 b1 ef 3c 80 4a 3b 3d
       -0.0777419 0.018132735 0.029259413 0.045725346
000080 dd 2a 84 bd 29 e9 af bd f6 00 a1 bd 13 bc 31 3a
       -0.06453488 -0.08589394 -0.078615114 0.00067800394
000090 db 70 84 3c 53 85 c5 bd 5c 6f ab bc 62 62 a1 bd
       0.016167095 -0.0964457 -0.020927124 -0.07880093
0000a0 41 a7 71 bd 4d 28 3a bd 3b 0e 19 bd c3 9e 29 bd
       -0.058997396 -0.04544859 -0.037367087 -0.041411173
0000b0 62 83 08 bd 3f 73 09 bd 6e f5 e7 3b 72 77 cc bc
       -0.03332842 -0.033557173 0.007078818 -0.0249593
0000c0 d7 b3 ee bb b5 e2 55 3d c8 d7 d4 bc b6 f1 84 3d
       -0.007284622 0.052218158 -0.025981799 0.06491415
0000d0 cd 5e f0 3c 2a 23 3d bd 25 e2 cd bc 0f df a2 bc
       0.02934208 -0.046176113 -0.025132248 -0.019881753
0000e0 99 72 4e bd 7f ae cc 3c 09 19 e5 bc 3a 51 5d bd
       -0.050402258 0.02498555 -0.02796604 -0.05403254
0000f0 94 77 59 3c 35 8c 88 3c 09 ce 70 3c 3c df 65 3d
       0.013273139 0.016668418 0.01469756 0.056121096
000100 be b2 9e ba 2b 50 52 3a a8 3a 53 bb 03 cd e3 3c
       -0.0012107713 0.000802281 -0.0032231007 0.027807718
000110 5a 23 43 3d bb 78 67 bd 23 96 2e bd bd 0d 23 bd
       0.047641136 -0.056511622 -0.04262365 -0.039808024
000120 5c a5 aa bd 81 12 eb bd 17 42 65 bb 2c f7 f5 bc
       -0.08332321 -0.11478139 -0.003498202 -0.030025087
000130 5f f1 62 bc d8 c4 18 bc 2e f6 02 bd 50 13 f5 bc
       -0.013851493 -0.009324275 -0.031973056 -0.029916435
000140 00 b4 0b bd 79 13 18 3c be 06 f7 bc 16 c2 1f bd
       -0.03410721 0.009281986 -0.030154582 -0.039003454
000150 f7 8e 60 3c 42 cc da bc d0 52 7b 3c 3b 18 09 bd
       0.0137059605 -0.026708726 0.015339568 -0.033470374
000160 9a e6 71 3c 20 76 88 bd 67 13 7e bd c8 7a 9c bd
       0.014764452 -0.066631556 -0.062030222 -0.07640606
000170 99 7e b2 3c 31 52 8a bd 85 6c 41 3d 6f 3d 85 bd
       0.021788882 -0.06753958 0.047222633 -0.06505858
000180 76 8d ce ba 4d af 79 bc 21 fa 9a 3d 46 69 ff bc
       -0.0015758711 -0.015239549 0.075672396 -0.031178128
000190 b6 14 86 bd 24 38 4e 3d e7 72 cd 3c 1f bf c6 3c
       -0.06546919 0.05034651 0.025079204 0.024261056
0001a0 e4 a9 de bd e9 50 4e bd 97 63 e9 bd 74 e8 be bc
       -0.10872248 -0.05037013 -0.113959484 -0.023304202
0001b0 72 4d 3f bc fb f7 e6 bd 7a 81 62 bd b5 fa da bc
       -0.011676179 -0.11277767 -0.05529926 -0.026730875
0001c0 9e 4c 62 bd 97 bd 79 bd 6b 85 b6 bc 5b 48 04 bd
       -0.05524885 -0.060971823 -0.022280416 -0.032295566
0001d0 15 28 6a bd 12 94 21 be a8 2a f3 bd 51 f8 97 bd
       -0.05716713 -0.1577914 -0.118733704 -0.074204095
0001e0 07 a2 e9 3b 57 bb d5 bc 59 22 5e bd 84 b9 71 3c
       0.007129911 -0.026090307 -0.054231975 0.014753703
0001f0 d4 8c 52 bd a4 e8 8f 3b 52 7c 75 bc 01 74 04 bd
       -0.051403835 0.0043917466 -0.014983254 -0.032337192
000200 7c f7 8d bd 16 4f 3c bd d1 4d b5 3b 53 8b 56 bd
       -0.069319695 -0.04597386 0.005532958 -0.052378964
000210 88 45 cb 3c 74 f5 45 bc c6 04 25 bd 25 8c 92 3d
       0.024813429 -0.012082446 -0.040287755 0.07155637
000220 35 68 3f bd 12 35 af 3c c5 c8 ef bc 1c d6 9a bb
       -0.04673024 0.02138761 -0.029270539 -0.004725231
000230 f2 c9 4e bc 84 16 5f bc 06 41 2c bd 9a c2 97 bc
       -0.01262139 -0.013616208 -0.0420542 -0.01852541
000240 0a 0a 71 bd e2 04 21 be 18 f5 84 3b 08 70 88 3a
       -0.058847465 -0.15724519 0.0040575378 0.0010409364
000250 0e 73 4f 3d 2e a9 15 bd 12 98 d9 3c e2 84 7e bd
       0.050646834 -0.036538295 0.02656177 -0.062138446
000260 2b 4b 64 3d d8 91 b7 bc b1 08 a6 3c a8 e5 a7 bb
       0.05573575 -0.02240841 0.020267816 -0.0051238127
000270 8e 6b ae bd 8e e5 69 bc 0e 79 e6 3b c4 12 9d 3c
       -0.08516608 -0.0142759215 0.007033474 0.019173987
000280 b2 4d a0 3c fc 13 ce 3c b2 5f 46 3d f4 cd 01 bd
       0.019568298 0.025156014 0.048431106 -0.031690553
000290 71 db 56 bd 21 68 01 bd 7f 4e 1c bd 33 f7 97 bc
       -0.05245537 -0.031593446 -0.038160797 -0.018550491
0002a0 c6 48 fb bc 4c c6 1e 3c 25 b1 ac 3c c5 0f 29 bc
       -0.03067435 0.009690832 0.021080563 -0.010318701
0002b0 af da 2e 3d 75 70 dc bc 90 e7 c8 3b 36 05 1f bd
       0.04268902 -0.026909092 0.00613112 -0.03882333
0002c0 c5 5d 1d 3d aa b0 47 3d 3a 2f 96 3b 11 4b 38 3d
       0.038419504 0.048752464 0.0045832666 0.044993464
0002d0 ea e6 dc 3c c6 42 00 3e e7 0b 9d 3d ef 45 c2 3d
       0.026965577 0.12525472 0.07668286 0.09485995
0002e0 dc 4a 7f 3d 21 fc 2b 3b ed f3 a9 3c 1e 47 ae 3d
       0.06232725 0.002624281 0.020746196 0.08509658
0002f0 5b a9 a0 3c 9c 89 8f bc a4 14 af bc 81 d6 4a 3d
       0.019612005 -0.017521672 -0.021372147 0.049520973
000300 8a e2 32 3c 25 14 05 3c ad f9 70 3c 1f d4 40 3b
       0.010918269 0.008122479 0.014707965 0.002942331
000310 fb 89 15 bc fd f8 9f 3d 22 84 86 3d 95 ea 44 3d
       -0.009127135 0.078111626 0.06568171 0.048075277
000320 5e 8a bf 3c 39 84 0b 3d a7 82 14 bb 8e bf 5e 3d
       0.023381408 0.034061644 -0.0022660883 0.0543819
000330 d9 1f 67 3c bf cb a3 3c 6c 1d 61 bd 35 a4 ea 3c
       0.014106714 0.019994615 -0.0549597 0.028642753
000340 3b ff 24 3c 45 eb ca bb 1a 35 8b ba 0c 7f 39 bc
       0.010070617 -0.006192597 -0.0010620684 -0.011321794
000350 fc 2e 01 3d 01 7b 5e 3d 46 e6 73 3d c6 bf a9 3c
       0.03153895 0.054316524 0.059545778 0.020721328
000360 3f 3c bb 3c 60 a9 13 3e b4 3e 40 3d 0e 2a d3 3d
       0.022855876 0.1442008 0.0469348 0.10310756
000370 74 2f 6d 3d cd bf 0b 3d 95 08 02 3d 84 0c 60 3d
       0.057906583 0.034118462 0.031746466 0.054699436
000380 d9 04 2b 3c 1f 21 89 3d 97 91 5a bc d1 7d f8 3c
       0.0104381675 0.066957705 -0.013340375 0.030333431
000390 42 a4 0c bc 3c f3 8c bc a8 15 8b bc 72 7a f0 3a
       -0.008584084 -0.017205827 -0.0169781 0.0018347038
0003a0 0d 17 db bb 83 46 84 bc 7d 57 1c 3c 7e 55 49 3c
       -0.0066860975 -0.016146904 0.009542343 0.012288449
0003b0 63 60 c7 3d f8 1a 41 bd ed 70 9a 3c a6 a9 1c 3d
       0.09735181 -0.04714486 0.018852675 0.038247727
0003c0 7c a2 10 3c be 3e c8 bc 61 48 8d bc fa da 4c bd
       0.008827802 -0.02444398 -0.017246427 -0.05001352
0003d0 02 e0 b8 bc 4a 92 04 3d ce d1 4f bd 6c 84 a2 bb
       -0.022567753 0.032366075 -0.050737195 -0.0049596336
0003e0 82 3f 11 ba 8e ea 80 3d 52 58 da 3c 19 93 ac bc
       -0.00055407744 0.06294738 0.026653443 -0.021066235
0003f0 9e 98 12 be a7 c1 6a bd 67 d9 5b 3d 8b 0b e1 3c
       -0.14316031 -0.057313588 0.053674128 0.027471324

fc1.bias f4 [128]
000000 5d 5b fb bb 02 4b 81 bc 1d 0e dd 3c d3 ff 92 3c
       -0.0076708035 -0.015782837 0.026984269 0.017944252
000010 52 7d 27 3d c0 73 cf 3c b8 35 32 bc 4c fa be 3c
       0.040891 0.025323749 -0.010877065 0.02331271
000020 76 fe 69 bd a9 17 92 bd 3e 4a 9a bd 7d fb fe ba
       -0.05712744 -0.07133419 -0.07533692 -0.0019453611
000030 b6 41 4e 3c 5b 10 66 bd 36 96 b7 3c f2 a8 d2 3b
       0.012588909 -0.05616794 0.022410493 0.0064288313
000040 0d 61 90 3c 69 cf e0 bc f4 41 83 bc fa 25 24 bd
       0.017624402 -0.02744265 -0.01602266 -0.04007528
000050 de 7b 7c bd a1 71 40 bd 28 2f 47 3b 66 e8 24 bc
       -0.061641566 -0.046983365 0.0030393098 -0.010065174
000060 c0 ab 1b bd 76 35 19 3c be 53 8f 3c 03 e1 c4 bc
       -0.03800559 0.009351125 0.017495986 -0.024033075
000070 e4 9b 16 bd 53 39 09 bc 70 c4 89 bc 73 ab 99 3c
       -0.036769763 -0.008375484 -0.016817302 0.018758511
000080 77 60 55 bd 41 65 b4 bd 0f b8 ce 3c cb 87 aa 3c
       -0.05209395 -0.08808375 0.02523425 0.020816704
000090 ce 3f 42 bd 84 b2 0f bd 3b 3b b8 bd 31 23 a1 3b
       -0.04742413 -0.035082355 -0.08995672 0.004917525
0000a0 fe 64 78 bd af 5d 4a bd 06 b6 37 bd 86 6f 47 bd
       -0.06064319 -0.04940575 -0.044851325 -0.04869034
0000b0 48 5c 58 3b aa ce 8a 3c bb 30 3b bd d1 fb 7e bc
       0.0033013988 0.016944248 -0.04570077 -0.015562967
0000c0 f7 ea 78 bd 14 ae bb bd 42 0c 97 3c 44 e1 f4 bc
       -0.060770955 -0.09164062 0.018438462 -0.029892571
0000d0 fc fd b6 bd da 95 9b bd f8 61 37 bc a9 3a 0b 3b
       -0.089351624 -0.07596941 -0.011192791 0.002124468
0000e0 b1 11 f1 bb ef c6 9f bb 36 e5 9e bd f0 e9 e6 bc
       -0.0073568453 -0.0048760097 -0.07758562 -0.028187722
0000f0 cc 9a 0a ba 67 6c 1c 3d f3 4c f6 bc 9a d9 8e 3b
       -0.0005287349 0.038189318 -0.03006599 0.004359436
000100 26 fb fe ba 26 3f 4b bd 8b b9 e7 3c d9 97 d0 bc
       -0.001945351 -0.04962077 0.028286716 -0.025463032
000110 74 63 80 3a 1a d9 ad bd 32 64 b7 bd 54 68 73 39
       0.0009795264 -0.084886745 -0.089546576 0.00023213151
000120 c2 95 31 bd 2f eb d0 bb b1 03 a4 bb 8d 7a 17 3b
       -0.04335571 -0.0063756923 -0.005005323 0.0023113817
000130 51 26 30 3c f0 e0 00 bb 6a 72 9d bc 8b f1 aa bc
       0.010751323 -0.0019665323 -0.019219596 -0.02086713
000140 2c 08 11 3c f7 52 2f 3c e0 06 2c bd ef bf d2 bb
       0.008852046 0.010700933 -0.041998744 -0.0064315717
000150 6b 28 a9 bc 51 05 9c bc 4e c1 8f bb 38 c9 64 bc
       -0.020649156 -0.019045504 -0.0043870574 -0.01396399
000160 9b 8c c1 bc 5f 4e 45 3d 8c f4 35 bc 8d 1d 9e 3c
       -0.023626616 0.048170444 -0.011105668 0.0193012
000170 1a 16 53 bd a3 75 b0 bd 95 a2 36 bc 7e 30 21 3c
       -0.05153475 -0.086161874 -0.011147161 0.009838222
000180 84 26 2b bd 04 8c 1c 3d c3 43 e6 ba e8 f8 43 3d
       -0.04178478 0.038219467 -0.0017567802 0.047844797
000190 16 28 25 bc 92 62 3b bc 71 f4 44 bd 85 18 fa 3b
       -0.010080358 -0.011437075 -0.04808468 0.0076323175
0001a0 58 29 ed 3c 29 ab d3 3c 10 fe e1 ba a5 b4 b8 3c
       0.028950378 0.025838451 -0.0017241854 0.022547076
0001b0 40 74 e8 bc 35 47 d0 3b 9d 42 d6 bb 2b b8 0f bd
       -0.028375745 0.006356145 -0.0065387026 -0.035087746
0001c0 2a c7 4d bc f8 71 dc bc f9 a2 52 bd b0 2a 34 3c
       -0.012559691 -0.026909813 -0.051424954 0.010996506
0001d0 49 2e c9 ba 10 26 99 3c 81 a7 d3 bc c8 81 aa bc
       -0.0015348877 0.018694907 -0.025836708 -0.020813838
0001e0 bd e7 4b 3c 1c 13 fa 3b 33 76 44 3a 7b b1 f4 bc
       0.012445387 0.0076316725 0.00074944197 -0.029869786
0001f0 c9 22 e4 bb b0 a4 3b bd e6 49 c6 bb 1e 93 4a bd
       -0.0069621545 -0.045811355 -0.00605129 -0.049456708

fc2.weight f4 [5, 128]
000000 e0 3b 8f be 73 43 1f be 54 04 4c 3e f7 8c e1 3d
       -0.27975368 -0.15553074 0.19923526 0.11013215
000010 53 0b 2e bc ed d5 01 3d df fd 43 3b f8 99 b6 3d
       -0.010622817 0.031698156 0.0029905958 0.08916086
000020 50 e7 b3 bd ce c2 31 be bd 97 4b 3d 7f c9 ce bd
       -0.08784354 -0.17359468 0.049705256 -0.10097026
000030 57 8f 62 be 55 ac 2b bc 85 14 44 be 22 58 10 3c
       -0.22124992 -0.010478099 -0.19148453 0.008810075
000040 0d 0e 3f 3e d1 ea 02 be 70 e6 de bd e6 2b 20 be
       0.18657704 -0.12784888 -0.10883796 -0.15641746
000050 50 cf b5 bd 80 07 6b bc 25 e1 88 bd 74 10 85 be
       -0.08877432 -0.01434505 -0.06683568 -0.25989115
000060 03 9e f7 3b 06 90 9a bd 4d 50 87 be 4b 73 1a be
       0.0075566783 -0.075470015 -0.26428452 -0.15083043
000070 40 d9 fb 3d 98 2c 3f be 04 2f 3e 3d 38 f8 ac bd
       0.122972965 -0.18669355 0.046431556 -0.084457815
000080 81 f4 5b be 3c c1 47 be 80 b5 30 be 18 25 f4 bd
       -0.2147999 -0.19507307 -0.17256737 -0.119211376
000090 dd a0 71 3d 43 5e 24 3d 11 b0 eb bd 19 52 4f be
       0.0589913 0.040128957 -0.115081914 -0.20246162
0000a0 7c ab 83 be aa eb 4c 3d 2e ff 8e 3d 91 dd d3 3d
       -0.2571677 0.050029434 0.069822654 0.10344995
0000b0 b0 02 8c bd f7 d2 bd 3d 45 09 ca bd 2f 48 25 be
       -0.0683645 0.09268754 -0.09865049 -0.16140817
0000c0 fd 0a 0f be 07 5a 14 be 78 7f 33 be a4 22 85 bd
       -0.13969035 -0.14487468 -0.17529094 -0.06500748
0000d0 86 61 93 bd 4f 46 c4 3d ac 91 a0 3d b2 cc 96 bd
       -0.071963355 0.09583723 0.07840285 -0.07363261
0000e0 5c 99 95 3d fe 35 3c be 10 2c 74 3d 5f ca 32 be
       0.073046416 -0.18379971 0.059612334 -0.17460011
0000f0 1c 9f 47 3b e0 f6 96 be 6a 34 2a 3d cf a3 52 be
       0.0030459827 -0.29485226 0.041553892 -0.205703
000100 93 5c 1d be a8 8f 83 b8 aa 65 38 bd 18 7b 8e bd
       -0.15367346 -6.273325e-05 -0.04501883 -0.06957072
000110 ad 70 c6 3d ac 4f 89 3d 12 88 5a be 1e 9b c0 bd
       0.0968946 0.06704649 -0.21340969 -0.09404586
000120 ca b5 35 be 74 d3 39 3e 95 36 6a 3d 11 69 bd bd
       -0.17745128 0.18147069 0.05718096 -0.092485555
000130 13 74 7f 3d 4b 43 30 be 32 d0 89 bb f5 16 1a be
       0.062366556 -0.1721317 -0.004205727 -0.1504782
000140 5b 25 35 3e b0 6e 78 be 10 3a 97 3d 41 2a a6 bc
       0.17690031 -0.24260974 0.073841214 -0.02028382
000150 26 20 79 3e 58 11 cb 3d ff a5 0f be fb c7 4e be
       0.2432867 0.099154174 -0.14028166 -0.20193474
000160 59 16 e4 bd 6a 1a e2 bd eb d2 93 bd 0e 6a d9 3d
       -0.11137075 -0.11040194 -0.07217964 0.106159315
000170 05 69 1a 3e 4f c3 d1 bd 72 07 51 be b8 33 e6 bd
       0.15079124 -0.1024233 -0.20412996 -0.11240333
000180 1b f3 04 bd 81 e0 0d 3d 6d f1 9c 3d 0d 7f 92 3d
       -0.032458406 0.03463793 0.07663236 0.07153139
000190 84 8a d4 3d 3b f4 60 3e 30 d7 9d bd 96 4a ef 3d
       0.10377982 0.21968167 -0.077070594 0.11684148
0001a0 50 92 49 be 9d 51 00 3e cf 41 d1 3c c9 f6 60 be
       -0.1968472 0.12531133 0.025544075 -0.21969141
0001b0 c4 6d 94 be 53 38 84 3b 1e ef 4b be 83 e2 eb 3d
       -0.28989995 0.0040350347 -0.19915435 0.11517813
0001c0 be 46 fa 3d 74 60 1d be 41 a4 11 3d 4d 91 7a 3b
       0.12220524 -0.15368825 0.035557035 0.0038233579
0001d0 84 e1 c7 bd b3 c1 8d bd 3e 21 b5 3d ee b4 04 3e
       -0.097598106 -0.06921711 0.08844231 0.12959644
0001e0 fe a5 32 be 2e e0 9b 3d a0 49 61 be 06 45 aa 3d
       -0.17446133 0.07611118 -0.22000742 0.083139464
0001f0 64 2b 9e bd 49 4b 34 bd f1 46 8a bd fb 10 ff 3c
       -0.0772312 -0.04401711 -0.06751812 0.031136027
000200 8a 4f 6d 3d 20 c2 19 bd e5 74 97 bd 38 d5 28 3d
       0.057937182 -0.037538648 -0.07395343 0.041218966
000210 d6 4f 8e 3d fb 56 21 3d a4 70 2f 3e ab 87 a2 bd
       0.06948821 0.03938959 0.17132813 -0.07936033
000220 20 28 0e be 3b 5a 9b 3d 47 66 78 bd 11 18 f4 bd
       -0.13882494 0.075855695 -0.060644414 -0.11918653
000230 49 d0 cb 3d 05 73 4b be 1f 12 9d bd 74 61 04 bd
       0.099518366 -0.19868095 -0.07669472 -0.0323195
000240 b9 5d b2 3d 7f 27 91 3d a7 1b cd bd 1e ee 18 bd
       0.087092824 0.070876114 -0.1001504 -0.03733646
000250 ac 10 1f be 7f 3b e4 bd c3 40 d5 3d 78 20 f5 3d
       -0.15533704 -0.111441605 0.10412743 0.119690835
000260 60 39 03 be e0 d9 1f be 28 7d d8 bb 56 64 ef 3d
       -0.12814856 -0.15610456 -0.0066067167 0.116890594
000270 4d 2b 67 3c 65 d6 8b 3d ce a2 0d 3e 2b 21 0a 3e
       0.014109445 0.06828002 0.13831636 0.13489215
000280 1f 38 84 3d 16 1d 32 3d 9b 0e 3d bd d8 bc 29 3d
       0.06456017 0.04348477 -0.046156507 0.04143986
000290 ba a1 c6 bd 25 a6 30 3e 2d 1a c5 bd f4 e1 68 bc
       -0.09698816 0.17250879 -0.09624133 -0.014214028
0002a0 ed 28 42 3d 5d 46 bb 3d e8 45 79 3c 70 12 31 be
       0.04740231 0.0914428 0.015214421 -0.1729219
0002b0 31 80 17 be 77 e2 92 3d e7 b8 e4 3c 9f b7 8e 3d
       -0.14794995 0.07172101 0.0279202 0.06968617
0002c0 d4 22 65 3c 9d 77 21 3d eb d0 1c bc 3f 4d ed 3b
       0.013985354 0.039420713 -0.009571294 0.0072418745
0002d0 24 da e9 bd 8c e0 13 be ab df cf 3d f1 08 8c bd
       -0.1141856 -0.14441127 0.10150083 -0.06837643
0002e0 4a be 4d bd 25 fc 36 3d 05 4e 6e bd 79 d2 70 bb
       -0.050230302 0.044674058 -0.058179874 -0.0036746545
0002f0 21 d6 e4 3d cf 89 87 3d 6d ea dd bc 41 26 97 3d
       0.11173654 0.06618082 -0.027089322 0.07380343
000300 13 ea 29 be 77 c3 06 bc 20 fa cc 3d 72 da 1a 3e
       -0.16593198 -0.008225313 0.10008645 0.15122393
000310 6c f6 0c 3e f0 d5 10 be c3 2d 39 3d 28 f1 25 be
       0.13765877 -0.1414411 0.045209657 -0.16205275
000320 22 80 08 bd eb a8 42 bc 8b 65 2f be 61 e6 a8 bd
       -0.033325322 -0.0118810935 -0.1712858 -0.08247066
000330 32 f4 3d 3e 14 36 b7 3d 46 6e 17 be e2 36 12 be
       0.18550184 0.089458615 -0.1478816 -0.14278749
000340 0e 3a 3d bd dc 92 0a 3d 97 17 5c bd 3f de 66 bd
       -0.046197943 0.033831462 -0.053733435 -0.056364294
000350 07 74 fb b9 f5 2c c7 bd 2d 60 e7 3c d7 5d ca 3d
       -0.00047960898 -0.09725372 0.028244102 0.0988118
000360 8d ea 35 bd 42 0b f8 3c af ff ad bd 96 10 1f bd
       -0.04441314 0.030278806 -0.084960334 -0.038834177
000370 18 a4 2a 3e 20 09 38 bd d1 49 9e 3d 23 6d a0 bc
       0.1666416 -0.044930577 0.07728923 -0.01958329
000380 63 19 02 3d 4e 2c 80 3d 7c 41 50 3e 65 bb 46 be
       0.031762492 0.062584504 0.2033748 -0.19407423
000390 5c 46 57 3d f5 9d 09 bb 10 19 d4 3d ef c5 1a bd
       0.052557334 -0.002099869 0.10356343 -0.03778642
0003a0 e8 9b 1c bd 1c 66 1d be 70 cc 60 be 74 44 3b bb
       -0.03823462 -0.15370983 -0.21952987 -0.0028574737
0003b0 f0 b1 81 bd b9 82 6d bd 49 6d 95 bd 9a ca df 3c
       -0.06332767 -0.057985995 -0.07296235 0.027318288
0003c0 26 5a cd 3d be f2 05 be d9 af 44 3c b5 f9 c0 3d
       0.1002696 -0.1308088 0.012004816 0.09422628
0003d0 10 2f fd bb 60 3b 05 3e 05 01 35 be 00 a7 e5 3d
       -0.0077265576 0.13010931 -0.1767617 0.11213493
0003e0 76 7c ba bc 72 73 22 3e 57 cb a8 3d 95 35 43 be
       -0.022764426 0.15864351 0.08241909 -0.19063409
0003f0 0e 49 44 3d 62 ed 16 3e ed c2 7d bd 39 f0 c3 bd
       0.047921233 0.14738992 -0.061953474 -0.09567303

fc2.bias f4 [5]
000000 28 2d 59 bd c8 b7 37 3b ab 1b 78 bc 44 2c db 3a
       -0.05302158 0.0028033126 -0.015143315 0.0016721566
000010 8b 33 8e bc
       -0.017358562
