Trained_Weights/STRIDE 4/v4.1 20th.pth (torch, 681682 bytes, 12 tensors)

conv1.weight f4 [32, 1, 3, 3]
0.13270578 -0.2504951 -0.2912201 -0.041336786 -0.115601 0.34816593 0.24472645 -0.2172957
-0.042942774 0.28138614 0.019985773 0.022456631 0.26485786 -0.034911808 0.23830442 0.034663737
-0.041477427 0.14311782 0.07682475 -0.15874097 -0.01615633 0.21221274 -0.3499699 0.19993807
-0.09704152 0.1627436 0.103681624 0.23044637 0.09565342 0.2608939 -0.17034283 -0.21659414
-0.13446704 -0.04205541 -0.2976039 0.086303174 -0.03957674 0.030098932 0.22041288 -0.11673846
0.2802625 0.2889822 0.03593196 -0.044005796 -0.1852359 0.3035315 0.30547258 -0.037203837
0.3030306 -0.21902353 0.022315636 0.05776424 0.20936687 -0.091494195 -0.35219815 0.056831367
-0.100858845 0.14780068 -0.28587824 -0.20180525 0.03523739 0.20374164 -0.016533572 -0.048063986
-0.102543086 0.21207921 -0.14981271 -0.15313448 0.08616877 0.14559643 0.18665703 0.037868213
0.24947935 -0.11172342 -0.14095332 0.31900486 -0.030937243 -0.05616227 0.07325508 0.09490285
0.20153816 0.21036789 -0.05408861 -0.074843116 -0.14434914 0.0661185 -0.08886794 0.21184175
-0.24523501 0.16978152 -0.060595617 0.21427865 0.02122681 0.26657593 0.21518348 -0.16757433
-0.22072437 0.2343598 -0.054322224 -0.29690787 0.21658044 -0.33163598 -0.02728731 0.28930208
0.1258005 0.031118192 0.23894402 0.16745146 0.048413098 0.19012326 -0.2581398 -0.27812093
-0.07561364 0.17314915 -0.33771282 0.06927514 -0.023760108 -0.3134998 0.24237968 -0.050758503
0.14524375 0.15366274 -0.34453315 -0.11291681 -0.016942307 -0.12857494 -0.28868017 -0.038698122
0.3085632 0.050408263 0.19329193 -0.07558571 -0.24549681 -0.23486175 -0.23757794 0.25488314
0.1314348 -0.28517142 0.002949088 -0.07888154 -0.14779885 0.2471498 -0.29214722 -0.2517483
0.24122229 0.120186925 0.009623797 -0.36299154 0.1256283 0.0032363343 0.031753566 -0.12804826
-0.1435612 -0.22096248 -0.18216738 -0.06210791 0.20170642 0.2020396 0.006436483 -0.28380233
0.1494245 0.04580787 -0.25847256 0.17065619 -0.10663274 -0.16257094 0.000998674 -0.0592805
0.16665968 0.22867662 -0.16589756 -0.0912958 -0.27334854 -0.28456083 -0.2660369 0.12260638
-0.2458117 -0.10012196 -0.2837365 -0.031066036 -0.24626991 -0.0752146 0.022447946 -0.11466573
0.32493725 -0.2590383 0.10894365 -0.13171077 -0.2128271 0.056074396 0.038527735 -0.13498531
0.15230682 -0.1301765 0.037660338 -0.13207066 0.04792162 -0.0993319 -0.08284246 -0.021042485
-0.0507656 -0.03395628 0.24086231 -0.19577657 -0.2265055 0.2058671 -0.018018877 -0.028205112
0.06870448 -0.06790674 0.27949098 -0.32835215 -0.056243334 0.19701694 -0.29476845 0.22476396
-0.23466834 0.30659097 -0.14040422 0.19273943 0.15889928 -0.27996913 0.014922989 0.23309176
0.30685914 0.10125609 0.10082004 -0.15892431 -0.23339213 0.024681076 -0.1666021 -0.07401345
-0.08043721 -0.203626 -0.1588111 0.31837666 -0.2399013 0.11845239 0.16313381 0.3121889
-0.13837148 0.23955655 -0.13339339 0.07004361 -0.05902811 0.06237777 -0.2992404 -0.3128835
-0.043690242 0.259938 0.23779789 -0.1243977 -0.047331054 0.31815004 0.011357915 0.15209492
00000000: 06e4 073e e540 80be cd1a 95be c350 29bd
00000010: 38c0 ecbd ce42 b23e 9299 7a3e c482 5ebe
00000020: c3e4 2fbd d811 903e 34b9 a33c f8f6 b73c
00000030: 739b 873e afff 0ebd 1306 743e 90fb 0d3d
00000040: 3ce4 29bd 7a8d 123e 4b56 9d3d fe8c 22be
00000050: 485a 84bc 4c4e 593e 412f b3be 91bc 4c3e
00000060: b4bd c6bd 42a6 263e 0857 d43d 22fa 6b3e
00000070: f1e5 c33d e393 853e 5a6e 2ebe dbca 5dbe
00000080: bab1 09be 4b42 2cbd 8a5f 98be b8bf b03d
00000090: 381b 22bd 0992 f63c eab3 613e 9314 efbd
000000a0: 917e 8f3e 7af5 933e 642d 133d 6c3f 34bd
000000b0: 7bae 3dbe 7b68 9b3e e766 9c3e 0d63 18bd
000000c0: d426 9b3e b447 60be 48cf b63c 329a 6c3d
000000d0: 4564 563e 4f61 bbbd 5153 b4be 02c8 683d
000000e0: 158f cebd 1059 173e a25e 92be 09a6 4ebe
000000f0: 1555 103d a6a1 503e 6a71 87bc bede 44bd
00000100: 1c02 d2bd 4b2b 593e 8168 19be 49cf 1cbe
00000110: 4179 b03d 3b17 153e 0523 3f3e b31b 1b3d
00000120: 8477 7f3e 40cf e4bd 1156 10be 9b54 a33e
00000130: 1a70 fdbc 690a 66bd c206 963d 6d5c c23d
00000140: 0560 4e3e ae6a 573e 058c 5dbd 5947 99bd
00000150: 43d0 13be 2369 873d 6500 b6bd 0bed 583e
00000160: e31e 7bbe 35db 2d3e 1c33 78bd dd6b 5b3e
00000170: d9e3 ad3c a47c 883e 0f59 5c3e 9b98 2bbe
00000180: 9205 62be 04fc 6f3e fb80 5ebd 4f04 98be
00000190: 43c7 5d3e 31cc a9be a389 dfbc 671f 943e
000001a0: d9d1 003e 94eb fe3c bead 743e 6578 2b3e
000001b0: d04c 463d acaf 423e e62a 84be de65 8ebe
000001c0: 53db 9abd 034e 313e b2e8 acbe 20e0 8d3d
000001d0: 8fa4 c2bc 0c83 a0be 6132 783e 26e8 4fbd
000001e0: c7ba 143e c459 1d3e a666 b0be ee40 e7bd
000001f0: 98ca 8abc 26a9 03be e3cd 93be ec81 1ebd
00000200: fffb 9d3e e578 4e3d 52ee 453e aecc 9abd
00000210: 8463 7bbe 997f 70be a247 73be 0b80 823e
00000220: d896 063e fd01 92be 7d45 413b a58c a1bd
00000230: 9558 17be d614 7d3e 5294 95be 27e5 80be
00000240: fa02 773e 9024 f63d 21ad 1d3c 07da b9be
00000250: b4a4 003e ae18 543b 0710 023d 151f 03be
00000260: b501 13be fd43 62be 168a 3abe dd64 7ebd
00000270: 218c 4e3e 78e3 4e3e 22e9 d23b 8a4e 91be
00000280: bc02 193e 08a1 3b3d 8456 84be 7fc0 2e3e
00000290: 4462 dabd ff78 26be f0e5 823a 1cd0 72bd
000002a0: d6a8 2a3e 342a 6a3e 0de1 29be 4bf9 babd
000002b0: 57f4 8bbe f5b1 91be fd35 88be 0e19 fb3d
000002c0: 10b6 7bbe be0c cdbd e945 91be 337e febc
000002d0: 2e2e 7cbe 1d0a 9abd c1e4 b73c ded5 eabd
000002e0: 2d5e a63e aba0 84be d91d df3d 30df 06be
000002f0: 59ef 59be 44ae 653d 42cf 1d3d 9739 0abe
00000300: 52f6 1b3e fd4c 05be ba41 1a3d 883d 07be
00000310: 7649 443d 866e cbbd 4fa9 a9bd 4a61 acbc
00000320: 97ef 4fbd be15 0bbd 9ca4 763e a779 48be
00000330: 0ff1 67be d3ce 523e 539c 93bc 680e e7bc
00000340: efb4 8c3d b012 8bbd 7119 8f3e c61d a8be
00000350: 695f 66bd cfbe 493e e4eb 96be 8628 663e
00000360: e64c 70be 7ef9 9c3e 20c6 0fbe 7c5d 453e
00000370: 7eb6 223e 1d58 8fbe 8d7f 743c 9baf 6e3e
00000380: a41c 9d3e 5a5f cf3d bd7a ce3d 0ebd 22be
00000390: 59fe 6ebe f82f ca3c be99 2abe 5d94 97bd
000003a0: 44bc a4bd 5683 50be 619f 22be 4402 a33e
000003b0: b0a8 75be 2b97 f23d 8d0c 273e 39d7 9f3e
000003c0: 41b1 0dbe 504e 753e 4798 08be 0673 8f3d
000003d0: 76c7 71bd d57f 7f3d 0a36 99be 4432 a0be
000003e0: 8af4 32bd 9816 853e 4a81 733e 39c4 febd
000003f0: 35de 41bd 90e4 a23e 8c16 3a3c c5be 1b3e

conv1.bias f4 [32]
0.09040583 -0.3655657 -0.04442612 0.09344434 -0.22135165 -0.36055636 0.24421276 -0.0986415
-0.3017667 -0.023096228 -0.20692049 -0.17154366 0.24621782 0.20398337 0.21950902 0.18376395
0.06319309 0.08213351 0.077427916 -0.26546556 0.20989841 0.07549282 0.07793399 0.0067092124
-0.30763307 0.32126406 -0.2211821 0.08602722 -0.09716841 -0.13997705 0.14529498 -0.23272416
00000000: b126 b93d 6d2b bbbe 2af8 35bd bf5f bf3d
00000010: 02aa 62be d89a b8be e912 7a3e 8e04 cabd
00000020: 2a81 9abe 4d34 bdbc f7e2 53be 24a9 2fbe
00000030: 8620 7c3e 04e1 503e f9c6 603e 9e2c 3c3e
00000040: 616b 813d 9d35 a83d 8792 9e3d 1aeb 87be
00000050: 9cef 563e fb9b 9a3d db9b 9f3d f4d8 db3b
00000060: 1582 9dbe b97c a43e 8f7d 62be 0a2f b03d
00000070: 3b00 c7bd 2556 0fbe 35c8 143e 3e4f 6ebe

conv2.weight f4 [32, 32, 3, 3]
-0.010911423 0.023416279 -0.0546813 0.050666198 -0.043086056 0.04836791 0.047415808 0.020337231
-0.024806876 -0.055231187 -0.07633913 -0.044966873 -0.062492106 -0.09758753 -0.10812294 -0.0334173
-0.10000441 -0.08876438 0.022684148 -0.013443431 -0.05375004 0.0029565152 -0.04191924 0.021910707
0.031642016 0.012228854 -0.054830164 0.023688462 0.048410572 0.028933104 0.020450963 0.017926095
0.03796823 -0.021872541 -0.053206377 0.017587874 -0.007155894 -0.012226275 -0.052315924 -0.021958828
-0.068817675 -0.018916117 -0.019568505 0.023155082 0.046776637 -0.048204526 -0.11845305 -0.15842979
-0.1296504 -0.11493693 -0.1342723 -0.081559435 -0.112532355 -0.22450113 0.023806494 0.0037862484
-0.043580074 -0.034950826 0.047957458 0.054921538 -0.034999683 0.034040872 0.034149263 -0.0024124358
-0.052338205 -0.01027707 -0.009870871 -0.038656414 0.015169679 0.016138451 0.022738457 -0.007140339
0.03042959 -0.048971925 -0.015740175 0.0052042566 0.008172747 -0.03711005 -0.018395988 -0.07932958
-0.0848172 0.01714393 -0.052198984 0.033576764 0.004158425 -0.03694489 -0.065039635 0.07162726
0.044347152 0.02263214 0.030909305 -0.004529426 -0.0024410132 -0.020717507 -0.0787431 -0.064288385
-0.086633295 -0.070535615 -0.11324555 -0.023223463 -0.027413653 -0.00943146 -0.052796073 -0.023629276
-0.017678518 -0.0423872 -0.077051304 0.00039933284 0.04542282 0.029948417 0.008670005 0.04130782
-0.023954371 -0.0037464178 0.048760835 0.037026193 0.052623447 0.05421269 0.029740347 0.004992346
0.045440454 0.031302124 -0.043396395 0.028612403 0.036178704 -0.036982786 -0.008692235 0.101415314
0.1023742 0.0029698235 0.028576273 0.112757206 0.04889131 0.11064258 0.09285863 0.20270625
0.17932022 0.010325932 0.20783038 0.10115561 0.022154959 0.1319999 0.10626604 0.12922853
0.04064744 -0.04047332 -0.023088444 -0.04589566 0.015990702 0.040708173 -0.03787032 0.017420726
-0.03357254 -0.04678069 0.055854537 0.0405201 -0.04281457 -0.04790978 0.022896858 -0.013076392
0.029827975 0.018124806 -0.036129333 -0.00057091954 0.026339151 -0.019058503 -0.012280935 0.05627811
-0.03537079 -0.027012374 -0.055107392 -0.0067107645 0.008299627 0.036149904 0.03788366 0.015419827
-0.020701654 0.022441467 -0.003246637 0.032252397 0.07009124 0.0091371 0.027040686 -0.018850053
0.042620424 0.0497997 0.033396255 0.040843602 0.07373502 0.017438946 0.057086747 0.033901867
-0.037869424 0.029224833 0.01929884 -0.031530447 0.052151024 0.04377331 0.014406635 -0.027164344
0.0030095803 -0.0023540186 -0.039927363 0.028831223 -0.0031762365 -0.00928872 0.022791995 0.039658524
-0.038408007 0.007867917 0.026076708 0.022169624 -0.014369414 0.0711981 0.025069842 -0.03968545
0.022520492 -0.048274733 -0.039057165 -0.054814253 -0.040253438 0.010428826 -0.07333874 -0.05836395
0.031768944 0.12907998 0.09290143 0.12294257 0.072029606 0.19828898 0.111701034 0.14440654
0.16838232 0.089624465 -0.014304934 0.039024163 -0.010347225 -0.037368998 -0.013371082 0.04113548
-0.041810114 0.011060229 -0.043780778 0.036096662 -0.046221968 0.0208636 0.005959053 0.028521124
0.045450628 0.034919877 -0.024007678 0.04278996 -0.00090993877 0.010476116 -0.080566905 -0.0013871177
00000000: d3c5 32bc 7fd3 bf3c 80f9 5fbd 5c87 4f3d
00000010: 017b 30bd 6e1d 463d 1437 423d 449a a63c
00000020: ca37 cbbc 193a 62bd b157 9cbd 2f2f 38bd
00000030: b9f7 7fbd f9db c7bd 8f6f ddbd 94e0 08bd
00000040: 1dcf ccbd 19ca b5bd 1bd4 b93c d641 5cbc
00000050: 0029 5cbd 18c2 413b 82b3 2bbd 157e b33c
00000060: 0f9b 013d 885b 483c 9895 60bd 4e0e c23c
00000070: 2a4a 463d 1e05 ed3c c788 a73c bfd9 923c
00000080: 9384 1b3d 0b2e b3bc eeee 59bd 7214 903c
00000090: fd7b eabb b750 48bc 3949 56bd 00e3 b3bc
000000a0: 48f0 8cbd f9f5 9abc 214e a0bc baaf bd3c
000000b0: dc98 3f3d 1c72 45bd 8397 f2bd 6b3b 22be
000000c0: 13c3 04be 0e64 ebbd ae7e 09be a208 a7bd
000000d0: 5d77 e6bd a0e3 65be d605 c33c b522 783b
000000e0: 0581 32bd 9928 0fbd 0a6f 443d 68f5 603d
000000f0: d45b 0fbd 716e 0b3d 19e0 0b3d f519 1ebb
00000100: 9660 56bd 2861 28bc 6fb9 21bc 3056 1ebd
00000110: 3f8a 783c c934 843c 0046 ba3c 81f9 e9bb
00000120: 7a47 f93c c996 48bd 8af1 80bc 7888 aa3b
00000130: fce6 053c b500 18bd 2fb3 96bc 8c77 a2bd
00000140: a4b4 adbd 6d71 8c3c 9ace 55bd ca87 093d
00000150: 6643 883b 8653 17bd 8033 85bd 50b1 923d
00000160: 5ca5 353d 0a67 b93c 8335 fd3c 946b 94bb
00000170: 68f9 1fbb c3b7 a9bc 1044 a1bd a1a9 83bd
00000180: cc6c b1bd fa74 90bd 48ed e7bd 223f bebc
00000190: 9992 e0bc 6986 1abc b240 58bd 2f92 c1bc
000001a0: 8ad2 90bc 339e 2dbd 13cd 9dbd 8c5d d139
000001b0: 470d 3a3d 6256 f53c a30c 0e3c 6332 293d
000001c0: f53b c4bc 7686 75bb 71b9 473d c7a8 173d
000001d0: af8b 573d 200e 5e3d 07a2 f33c d596 a33b
000001e0: c51f 3a3d a836 003d 6bc0 31bd 8f64 ea3c
000001f0: 1f30 143d 437b 17bd e069 0ebc d5b2 cf3d
00000200: 91a9 d13d 5fa1 423b ca18 ea3c 40ed e63d
00000210: 4142 483d 9498 e23d aa2c be3d 3a92 4f3e
00000220: b89f 373e 192e 293c 7dd1 543e ac2a cf3d
00000230: 517e b53c fb2a 073e 02a2 d93d 7c54 043e
00000240: ee7d 263d 5ac7 25bd fa23 bdbc 16fd 3bbd
00000250: effe 823c 9dbd 263d e91d 1bbd e9b5 8e3c
00000260: 5c83 09bd 1c9d 3fbd bac7 643d 68f8 253d
00000270: 555e 2fbd 0c3d 44bd 3192 bb3c 5d3e 56bc
00000280: cc59 f43c 797a 943c 5afc 13bd c3a9 15ba
00000290: 34c5 d73c 9420 9cbc fa35 49bc e083 663d
000002a0: f6e0 10bd 0e49 ddbc 4ab8 61bd f9e5 dbbb
000002b0: 29fb 073c ec11 143d e62b 1b3d 71a3 7c3c
000002c0: 8496 a9bc 2bd7 b73c 88c5 54bb 171b 043d
000002d0: ff8b 8f3d c6b3 153c 6e84 dd3c 6d6b 9abc
000002e0: c192 2e3d c5fa 4b3d 83ca 083d 9f4b 273d
000002f0: 6302 973d 1fdc 8e3c cbd3 693d afdc 0a3d
00000300: f81c 1bbd eb68 ef3c 9a18 9e3c 1226 01bd
00000310: 509c 553d a44b 333d cf09 6c3c c287 debc
00000320: 613c 453b e145 1abb e08a 23bd 752f ec3c
00000330: 6828 50bb b72f 18bc 47b6 ba3c fa70 223d
00000340: b751 1dbd 70e8 003c d29e d53c 129d b53c
00000350: b16d 6bbc 4fd0 913d 455f cd3c 368d 22bd
00000360: e57c b83c babb 45bd 68fa 1fbd e984 60bd
00000370: cae0 24bd abdd 2a3c 9f32 96bd 0a0f 6fbd
00000380: 2720 023d 8b2d 043e 1b43 be3d 50c9 fb3d
00000390: 4284 933d 440c 4b3e 83c3 e43d 4fdf 133e
000003a0: 6a6c 2c3e 088d b73d 3e5f 6abc cdd7 1f3d
000003b0: 6887 29bc 3c10 19bd 6212 5bbc ad7d 283d
000003c0: 1541 2bbd f635 353c 7953 33bd 18da 133d
000003d0: 3f53 3dbd 24ea aa3c 2944 c33b 22a5 e93c
000003e0: 702a 3a3d 2508 0f3d c0ab c4bc 8644 2f3d
000003f0: f588 6eba 04a4 2b3c 4300 a5bd f2cf b5ba

conv2.bias f4 [32]
-0.03817191 0.049622122 0.03645455 -0.009784542 -0.014424146 0.06292395 -0.04461872 0.021814179
0.04312797 -0.01744195 -0.042983614 -0.015718618 -0.02452329 0.017593648 0.01529753 0.087920696
0.087805614 -0.052963134 -0.07672926 0.023301708 -0.023944585 -0.0026416532 -0.036737993 -0.00818692
-0.07138765 0.019275533 -0.097571276 0.043578163 0.00090614223 -0.02655207 0.03291621 -0.06582461
00000000: 265a 1cbd 9140 4b3d 5e51 153d 584f 20bc
00000010: 4153 6cbc 46de 803d 1ec2 36bd a6b3 b23c
00000020: f4a6 303d 6ce2 8ebc 960f 30bd 55c4 80bc
00000030: 11e5 c8bc 8e20 903c 7ea2 7a3c c40f b43d
00000040: 6ed3 b33d dfef 58bd 3b24 9dbd 39e3 be3c
00000050: 6f27 c4bc 961f 2dbb 947a 16bd 6e22 06bc
00000060: b033 92bd b9e7 9d3c 73d3 c7bd 047f 323d
00000070: 2d8a 6d3a ba83 d9bc 26d3 063d 0ecf 86bd

conv3.weight f4 [32, 32, 3, 3]
0.0443121 0.0073001175 0.041806266 -0.018510401 -0.053820565 -0.019689586 0.045733187 -0.100168
-0.06806276 0.085288756 -0.019223137 0.065265 -0.040636465 -0.117341496 -0.04857407 0.06487754
-0.061338287 0.02507587 0.06591153 0.054861583 0.09251349 -0.04689373 -0.07619044 -0.08262696
-0.02467523 -0.02329248 -0.0036462946 -0.0027286792 0.056719452 -0.06610945 0.038269423 0.01233077
-0.034816984 -0.027698226 0.041332133 -0.008248278 0.065522835 0.05325209 -0.027480317 0.039240804
-0.05484622 -0.017906632 -0.018949337 -0.0607295 -0.026608134 -0.00688825 0.0407674 0.020720232
0.052226193 -0.05921304 -0.046793796 -0.017381173 -0.119214 0.007859357 -0.057725757 -0.020810094
-0.03710509 -0.0006863107 0.009873277 0.05354117 -0.013268027 0.026891904 0.048045218 -0.07148232
-0.05003618 -0.09802694 0.035025 0.09539683 0.026829012 0.00016363246 0.07064723 0.058464866
-0.018906197 -0.024305055 0.051078252 -0.007721843 -0.0069548874 0.029853554 0.0033580277 -0.06893672
-0.026272755 0.047562875 -0.005385605 -0.0141313225 -0.01200202 -0.08610179 -0.037972987 0.0007271373
-0.10993145 0.023301635 0.04173916 0.00083851075 -0.0387028 0.07760684 0.110133514 0.041777004
-0.027562426 0.10104642 0.083846346 -0.028411025 -0.0058342875 -0.082032844 0.04577002 0.07689117
0.07567752 -0.049274597 0.100390434 0.05282851 -0.061869744 -0.0349277 -0.043970816 0.019468818
0.10728309 0.06301837 -0.053839564 0.04327293 0.042632036 -0.014378538 -0.06776482 -0.0018725878
0.019132987 0.025113793 0.070898145 0.028539658 0.08449873 0.01622106 -0.031441715 -0.004339265
0.023137536 -0.038501184 0.02006883 -0.004560937 0.009129448 -0.013256675 0.034325447 0.011603902
-0.007372696 0.0773937 0.035320815 -0.05773305 0.025637593 0.0470549 -0.04363639 -0.038343973
-0.024001557 -0.02952186 -0.02232936 -0.03154065 -0.09994761 -0.0056259125 0.023764852 -0.09898603
-0.077163294 -0.023947949 -0.0016404671 -0.047990378 -0.00799272 0.03287669 -0.024700198 -0.06652519
0.0088155465 0.019019147 -0.019211631 -0.021725666 -0.008769869 0.04021006 -0.0036449868 -0.058562033
-0.0036728042 -0.04806231 -0.024899952 -0.050591655 0.02179848 -0.038177278 0.02017534 0.004444811
-0.025886433 -0.03394625 -0.07368287 -0.0014342717 0.05629894 0.050072886 0.02504514 -0.041581947
-0.029371554 0.04292636 -0.001457643 -0.011238973 0.0042517274 -0.047874928 -0.049789164 0.015529985
0.023324937 0.010062224 -0.024290346 -0.06076386 -0.010792661 0.0008999781 -0.023348685 -0.021849444
0.035629936 -0.022630297 -0.041468706 -0.01266708 0.081820756 -0.030879786 -0.029399762 -0.009471942
-0.030072898 -0.016517643 0.019723289 0.00055670383 -0.040087756 -0.03393718 0.085490584 0.05249192
-0.06892019 -0.06815059 -0.08248727 -0.027773311 0.13979833 -0.012218169 0.041561894 0.14042744
-0.006578739 0.026915926 0.0321233 0.03801474 -0.035426598 -0.008002094 -0.07115435 0.019632952
-0.0380955 -0.08131007 -0.009097085 0.03282015 -0.008718578 -0.027848095 0.0032800823 0.018649869
0.04398653 -0.01606468 -0.07375226 0.074982256 0.04320229 0.09234002 -0.041468363 -0.0049280343
0.0028823991 -0.019259574 -0.07430887 -0.074840896 0.006029359 0.006818555 0.010644786 0.01666947
00000000: 9b80 353d d335 ef3b 0c3d 2b3d 20a3 97bc
00000010: f472 5cbd 0e4c a1bc b952 3b3d e124 cdbd
00000020: 7d64 8bbd dfab ae3d d779 9dbc a8a9 853d
00000030: 6c72 26bd bd50 f0bd 9bf5 46bd 84de 843d
00000040: db3d 7bbd e96b cd3c a0fc 863d 8ab6 603d
00000050: b677 bd3d a413 40bd bc09 9cbd 5338 a9bd
00000060: b523 cabc dfcf bebc acf6 6ebb a4d3 32bb
00000070: a852 683d 6464 87bd 66c0 1c3d ff06 4a3c
00000080: 419c 0ebd 64e7 e2bc e24b 293d c923 07bc
00000090: d630 863d dd1e 5a3d 671e e1bc f7ba 203d
000000a0: 6ea6 60bd eeb0 92bc a43b 9bbc 7fbf 78bd
000000b0: 4df9 d9bc d4b6 e1bb b8fb 263d 7abd a93c
000000c0: 22eb 553d 5f89 72bd daaa 3fbd f662 8ebc
000000d0: 7826 f4bd 88c4 003c d871 6cbd ee79 aabc
000000e0: 82fb 17bd 88e9 33ba 86c3 213c fc4d 5b3d
000000f0: 2462 59bc 694c dc3c 10cb 443d 5365 92bd
00000100: bdf2 4cbd 59c2 c8bd 6076 0f3d 6a5f c33d
00000110: 84c8 db3c c194 2b39 7faf 903d db78 6f3d
00000120: 2be1 9abc 651b c7bc 6e37 513d 8407 fdbb
00000130: d3e5 e3bb 718f f43c 5b12 5c3b b22e 8dbd
00000140: f639 d7bc 4ad1 423d bb79 b0bb 1087 67bc
00000150: 1fa4 44bc 2356 b0bd 9089 1bbd 5c9d 3e3a
00000160: bd23 e1bd 12e3 be3c aef6 2a3d 81cf 5b3a
00000170: d486 1ebd 56f0 9e3d ae8d e13d 5d1e 2b3d
00000180: 99ca e1bc 6df1 ce3d a2b7 ab3d 3dbe e8bc
00000190: 8d2d bfbb d600 a8bd 5879 3b3d 1e79 9d3d
000001a0: d1fc 9a3d 29d4 49bd 8099 cd3d b562 583d
000001b0: 216b 7dbd 5910 0fbd be1a 34bd 127d 9f3c
000001c0: 3db7 db3d c60f 813d e086 5cbd f53e 313d
000001d0: ee9e 2e3d f693 6bbc 48c8 8abd 9f71 f5ba
000001e0: c8bc 9c3c 71bb cd3c 0c33 913d 00cc e93c
000001f0: ac0d ad3d 07e2 843c 07c9 00bd 6530 8ebb
00000200: ee8a bd3c 6bb3 1dbd 6367 a43c ea73 95bb
00000210: ae93 153c 8632 59bc d798 0c3d 4b1e 3e3c
00000220: a896 f1bb 9780 9e3d 8fac 103d 7e79 6cbd
00000230: ee05 d23c a4bc 403d 12bc 32bd 920e 1dbd
00000240: ea9e c4bc d4d7 f1bc 10ec b6bc c530 01bd
00000250: 55b1 ccbd 9359 b8bb 82ae c23c 30b9 cabd
00000260: ca07 9ebd 7d2e c4bc f104 d7ba 8f91 44bd
00000270: e6f3 02bc b5a9 063d 1258 cabc 5c3e 88bd
00000280: 156f 103c 0bce 9b3c b661 9dbc 06fa b1bc
00000290: 7faf 0fbc 4eb3 243d bbe0 6ebb bede 6fbd
000002a0: 6eb3 70bb fcdc 44bd fcfa cbbc 3239 4fbd
000002b0: ba92 b23c c75f 1cbd c146 a53c c7a5 913b
000002c0: c90f d4bc 390b 0bbd 0be7 96bd 2cfe bbba
000002d0: b899 663d 3a19 4d3d 772b cd3c d551 2abd
000002e0: 9d9c f0bc 8dd3 2f3d 620e bfba ab23 38bc
000002f0: 1352 8b3b 8018 44bd b9ef 4bbd 7a71 7e3c
00000300: f013 bf3c 07dc 243c 8cfc c6bc 86e3 78bd
00000310: b4d3 30bc 82ec 6b3a be45 bfbc 9bfd b2bc
00000320: b2f0 113d 2c63 b9bc 17db 29bd 9689 4fbc
00000330: a491 a73d 9bf7 fcbc c5d7 f0bc 3430 1bbc
00000340: 705b f6bc 0250 87bc bc92 a13c c3ef 113a
00000350: 0f33 24bd b601 0bbd b015 af3d c401 573d
00000360: 0726 8dbd 8992 8bbd 16ef a8bd db84 e3bc
00000370: 4b27 0f3e b72e 48bc ce3c 2a3d 36cc 0f3e
00000380: 7692 d7bb ca7e dc3c b993 033d 58b5 1b3d
00000390: 7b1b 11bd 371b 03bc 5fb9 91bd 49d5 a03c
000003a0: 070a 1cbd e585 a6bd f10b 15bc 6c6e 063d
000003b0: 5ed8 0ebc b021 e4bc a6f6 563b 9cc7 983c
000003c0: 382b 343d 139a 83bc 6d0b 97bd 4c90 993d
000003d0: e2f4 303d c41c bd3d bbda 29bd 597b a1bb
000003e0: a2e6 3c3b 41c6 9dbc 402f 98bd 2f46 99bd
000003f0: ee91 c53b 2f6e df3b 7867 2e3c 6a8e 883c

conv3.bias f4 [32]
0.022072688 -0.038596205 0.030477585 0.003655077 -0.039131038 0.09487847 -0.0017079356 0.046303347
0.056476105 -0.08204323 -0.05244256 -0.024231246 -0.035284117 0.12985867 0.056619674 0.0907052
-0.0983719 0.055175968 -0.0092575345 -0.11510156 0.01589618 0.05857994 -0.0076078223 0.045149554
-0.05211022 0.06636463 -0.02055176 -0.022111822 -0.06596704 -0.0015702582 -0.027742082 0.011507239
00000000: c8d1 b43c 0e17 1ebd 21ac f93c 048a 6f3b
00000010: de47 20bd a54f c23d cfdc dfba 94a8 3d3d
00000020: 7d53 673d 4806 a8bd 03ce 56bd 9b80 c6bc
00000030: 1486 10bd acf9 043e 08ea 673d a6c3 b93d
00000040: 3577 c9bd 3200 623d eaac 17bc 5eba ebbd
00000050: b538 823c 85f1 6f3d 0a4b f9bb bdee 383d
00000060: 8771 55bd 2eea 873d 2a5c a8bc da23 b5bc
00000070: ba19 87bd 1fd1 cdba 5d43 e3bc dc88 3c3c

conv4.weight f4 [8, 32, 3, 3]
0.14237551 0.11343472 -0.004123275 0.10137553 -0.0011738101 -0.051003676 -0.12189789 -0.055368524
-0.12292581 -0.09780062 -0.13528985 0.03206586 -0.043684684 0.00040328372 0.0650692 0.06759236
0.15535118 0.111482054 -0.081322365 -0.13052538 -0.0598463 -0.025685428 -0.007511266 0.007865231
0.011921121 -0.005917569 0.13775444 -0.13981372 -0.11726083 -0.061623108 -0.032487873 -0.06520647
0.0702749 0.017210823 0.06784292 0.17826533 -0.13197696 -0.07783084 0.0090545 -0.0699295
-0.0057207616 0.082862444 0.061596517 0.08600075 0.17606059 0.13606465 0.17636946 0.055653945
0.100625634 0.16381818 -0.063581124 -0.04415261 -0.021811917 -0.17421657 0.14031883 0.07536064
0.09891557 0.032958407 0.0672297 -0.064262465 -0.061789513 -0.026993513 -0.11871886 0.019393712
0.034221333 -0.02081617 -0.008982631 -0.074991435 -0.054042924 -0.15042673 -0.09008084 -0.13106929
-0.1395493 -0.13342857 -0.043504983 -0.013556575 0.034085125 0.0325463 0.11791232 0.099296555
0.2091201 -0.13405792 -0.13142037 0.018468805 -0.0038526217 -0.007785198 0.048328836 0.08650611
0.011687818 0.05870351 -0.108412996 -0.10633781 -0.032437783 -0.0024186417 -0.038737435 -0.0008508504
0.08815034 0.11683928 0.12252641 0.080769636 0.13286458 -0.010334069 0.09318883 0.0175578
-0.095433086 -0.060167804 -0.13750213 -0.15972212 -0.11002547 -0.07767246 -0.034767903 -0.009405945
-0.030560354 0.06953777 0.019426957 0.10539514 0.13699497 -0.06720768 -0.007777363 -0.005658426
0.035973474 -0.0010864104 0.11683079 0.023144385 0.092475235 0.16157264 0.09778158 0.15073925
0.03434638 0.08521385 0.0697978 -0.030131213 -0.105026565 -0.105530426 -0.15600209 0.06412119
0.049493868 0.124611676 0.121358864 -0.0066772182 -0.040138733 0.011809683 -0.097450204 -0.091067106
0.13314296 0.10239973 0.05832498 0.09796247 0.060264595 -0.043415014 0.00089496915 -0.02263548
-0.02045937 0.13929525 0.055623244 0.05532985 0.106443845 0.07148853 -0.011840722 -0.03443834
-0.038109418 -0.16278373 -0.16022763 -0.14685404 0.026440334 -0.06147646 -0.01979959 0.08395891
0.0675683 0.09509519 0.085535124 -0.10042073 -0.022630539 -0.016171454 -0.092607066 0.015628314
-0.021529377 0.07462798 0.057466052 0.07637122 -0.11179426 -0.027779538 0.022376856 0.0033907369
-0.06438786 0.09644771 0.020268586 0.11504667 0.031448428 0.06930065 0.09168204 -0.024896344
0.03687558 0.055430643 -0.01808635 -0.097510226 -0.12194688 -0.12327435 0.08362841 0.12798125
0.026716676 0.030358622 0.060931973 0.0015517299 -0.013624191 -0.032138962 -0.049047094 -0.16707565
-0.095328055 -0.08805057 -0.064078696 -0.10009441 -0.0045153215 -0.0244338 0.07127379 0.095809825
0.10764567 0.063832596 0.024142742 0.11620888 0.030886194 -0.032699574 0.04220557 -0.09052107
-0.1902079 0.043722585 0.08183837 0.066764526 -0.005561813 0.06839257 -0.039266616 0.006346365
-0.08787572 -0.074351296 0.09186662 0.13162418 -0.08851118 0.0055973954 -0.01381177 -0.08725297
-0.093159325 -0.018239215 -0.0018829894 0.15425074 0.145911 0.037587892 0.047264315 0.0033053767
-0.019538103 0.012295724 -0.12445782 -0.13713169 0.052639514 0.068561696 -0.024001045 0.023244726
00000000: e3ca 113e 7650 e83d 8a1c 87bb f99d cf3d
00000010: 88da 99ba 3be9 50bd 9aa5 f9bd 1bca 62bd
00000020: 87c0 fbbd b14b c8bd 6c89 0abe 7e57 033d
00000030: b6ee 32bd d36f d339 0043 853d dd6d 8a3d
00000040: 6114 1f3e b450 e43d 578c a6bd 72a8 05be
00000050: 6521 75bd 3f6a d2bc 1121 f6bb 2bdd 003c
00000060: ce50 433c 2be8 c1bb 800f 0d3e 542b 0fbe
00000070: 7226 f0bd 8368 7cbd 0112 05bd f88a 85bd
00000080: 49ec 8f3d b6fd 8c3c 3bf1 8a3d 308b 363e
00000090: f824 07be c765 9fbd 5359 143c 3337 8fbd
000000a0: 3a75 bbbb c9b3 a93d a14c 7c3d 2921 b03d
000000b0: 3a49 343e 8854 0b3e 329a 343e 64f5 633d
000000c0: d014 ce3d f4bf 273e d236 82bd 5ed9 34bd
000000d0: e8ae b2bc d465 32be bdaf 0f3e ae56 9a3d
000000e0: 3f94 ca3d 65ff 063d baaf 893d 0a9c 83bd
000000f0: 0017 7dbd 8021 ddbc e022 f3bd 90df 9e3c
00000100: ab2b 0c3d ac86 aabc e32b 13bc 1c95 99bd
00000110: 1d5c 5dbd 7709 1abe 4e7c b8bd 0737 06be
00000120: 03e6 0ebe 80a1 08be 4832 32bd 661c 5ebc
00000130: d89c 0b3d 454f 053d 047c f13d fe5b cb3d
00000140: 9423 563e 7b46 09be 1093 06be e44b 973c
00000150: 447c 7cbb f91a ffbb 75f4 453d 1e2a b13d
00000160: 437e 3f3c 1773 703d a207 debd a3c7 d9bd
00000170: 7bdd 04bd 1382 1ebb 25ab 1ebd 9b0b 5fba
00000180: 2a88 b43d 6f49 ef3d 20ef fa3d 8d6a a53d
00000190: a70d 083e 3a50 29bc c9d9 be3d 60d5 8f3c
000001a0: 6c72 c3bd 8472 76bd 5ccd 0cbe 328e 23be
000001b0: 0955 e1bd bd12 9fbd ca68 0ebd 651b 1abc
000001c0: b559 fabc d169 8e3d 4825 9f3c 68d9 d73d
000001d0: 6948 0c3e 2ea4 89bd 40d9 febb 516a b9bb
000001e0: ec58 133d e265 8eba fb44 ef3d 4b99 bd3c
000001f0: a863 bd3d 4c73 253e b641 c83d 645b 1a3e
00000200: caae 0c3d 9984 ae3d 26f2 8e3d bcd5 f6bc
00000210: 2b18 d7bd 5620 d8bd 03bf 1fbe f851 833d
00000220: 15ba 4a3d 6834 ff3d ff8a f83d 91cc dabb
00000230: 8368 24bd 677d 413c f993 c7bd 6481 babd
00000240: a156 083e f3b6 d13d 2de6 6e3d 8ca0 c83d
00000250: 02d8 763d f1d3 31bd 5d9c 6a3a 0b6e b9bc
00000260: 699a a7bc 6aa3 0e3e 33d5 633d 8ea1 623d
00000270: 3bff d93d 9468 923d 96ff 41bc 380f 0dbd
00000280: 9f18 1cbd c7b0 26be b612 24be e860 16be
00000290: 6699 d83c bece 7bbd c032 a2bc a6f2 ab3d
000002a0: 4061 8a3d 44c1 c23d 0a2d af3d 62a9 cdbd
000002b0: ae63 b9bc ff79 84bc c6a8 bdbd f306 803c
000002c0: 605e b0bc 8ed6 983d 8661 6b3d 8468 9c3d
000002d0: 64f4 e4bd ea91 e3bc ab4f b73c 2037 5e3b
000002e0: c8dd 83bd 6186 c53d 4e0a a63c 979d eb3d
000002f0: 11d0 003d 80ed 8d3d cbc3 bb3d 6bf3 cbbc
00000300: d90a 173d 3e0b 633d d329 94bc 71b3 c7bd
00000310: 49bf f9bd 4377 fcbd 5f45 ab3d 840d 033e
00000320: eedc da3c a5b2 f83c ce93 793d 6a63 cb3a
00000330: 0038 5fbc 25a4 03bd 9be5 48bd e115 2bbe
00000340: 5b3b c3bd db53 b4bd b13b 83bd 4cfe ccbd
00000350: 43f5 93bb 6429 c8bc fef7 913d f137 c43d
00000360: 5575 dc3d aaba 823d 00c7 c53c ecfe ed3d
00000370: 0b05 fd3c fdef 05bd bfdf 2c3d 1c63 b9bd
00000380: dcc5 42be 7416 333d e09a a73d d7bb 883d
00000390: de3f b6bb 6711 8c3d 08d6 20bd 2bf5 cf3b
000003a0: 2ff8 b3bd 7e45 98bd 9124 bc3d 7dc8 063e
000003b0: 5945 b5bd 5b6a b73b c34a 62bc afb1 b2bd
000003c0: 51ca bebd 686a 95bc a4ce f6ba e8f3 1d3e
000003d0: b169 153e c3f5 193d 3a98 413d 059f 583b
000003e0: 5f0e a0bc 0174 493c bee3 febd 406c 0cbe
000003f0: 889c 573d 136a 8c3d d79d c4bc b96b be3c

conv4.bias f4 [8]
0.013931203 0.018964114 -0.10652467 -0.0038507965 -0.0654888 0.029601844 0.008330624 -0.020803528
00000000: b33f 643c a15a 9b3c 9b29 dabd a55d 7cbb
00000010: fe1e 86bd 917f f23c 2b7d 083c 296c aabc

fc1.weight f4 [128, 1152]
-0.15534192 0.007282551 -0.0819258 -0.11632748 -0.035030816 -0.049112815 -0.04601223 -0.006542511
-0.12345345 -0.02217935 -0.08249944 -0.08276181 -0.09708398 -0.019348474 -0.05207116 0.058005147
-0.04626562 0.008910461 -0.018044688 -0.11100704 -0.07084531 -0.014143141 -0.06946948 -0.059784748
0.03983857 -0.0623946 -0.117659725 -0.020550177 0.02762151 0.032830663 -0.013630784 -0.16399689
0.008978928 0.019211227 -0.117256396 -0.041150857 0.0143027585 0.03317777 0.03163477 0.0713572
0.014560203 -0.051940218 -0.028925717 0.009221708 -0.03216008 -0.09067061 -0.062122725 -0.037340175
-0.051374685 0.018610533 0.030161517 0.058726665 0.023908464 0.066052824 -0.09341782 0.020491548
-0.05877206 -0.16697383 -0.070151016 -0.028135804 -0.06481643 0.03581727 -0.07213566 -0.07727013
-0.09250987 -0.033006277 -0.056190055 0.024920795 -0.055556223 -0.0037845685 0.027580306 -0.11211925
-0.02822108 0.08149203 0.052440718 -0.058287166 0.009124518 -0.021691322 -0.09548872 -0.12555967
-0.057747312 -0.09979391 -0.07170617 -0.0005903299 0.016314646 0.037873656 -0.053490844 0.023103505
0.03509536 0.02585041 -0.016034517 -0.049500145 -0.009336601 0.08295756 -0.049757082 -0.0024413825
-0.03974688 0.035732318 0.08229306 -0.041894976 0.09157103 -0.053981602 0.0707875 0.005881041
-0.06862047 0.086065516 -0.11493111 0.06369992 0.0015529954 0.016231965 -0.034497112 0.0450934
-0.010725025 -0.097456485 0.09338454 0.086590655 -0.029308304 0.0072751786 -0.058541894 0.018846983
0.013690019 0.038884472 -0.04183306 0.07460232 -0.053668257 0.03554912 0.045676522 -0.018463738
-0.03144526 0.112711854 0.15130252 0.06927813 -0.0025013168 -0.06542588 -0.080508366 -0.046278547
-0.09590978 -0.04522458 -0.04966553 -0.00054039794 0.032085504 0.052693844 0.02614336 0.083335094
-0.119361706 0.0027283716 -0.05759088 0.007898076 0.023140516 -0.021329207 0.023889761 -0.03465989
0.007941362 0.0155887185 -0.04604526 0.032360725 0.10661003 0.022204444 -0.11213497 0.0217355
0.031441316 -0.006364638 0.019619437 -0.09447189 0.0010835737 0.050850194 0.00652306 -0.04842614
0.06127682 -0.017027771 0.0131697 0.030686768 0.06374315 0.047345787 -0.012094959 -0.06644954
-0.034299165 -0.006221786 -0.027995165 0.04980126 -0.064139396 0.016233146 0.03223835 0.025934603
0.047189135 0.06641456 -0.021701872 -0.032778 -0.012174129 -0.048587367 -0.09148915 0.043597184
-0.12676626 -0.003967747 -0.06455455 -0.045031123 -0.01089186 0.03799774 -0.08926968 -0.011953516
-0.002585446 -0.0061546685 0.0700927 0.024458235 -0.08153191 0.053551055 0.07449037 -0.10544352
0.07939428 0.03752686 -0.011314788 -0.114845574 -0.025071565 -0.05263557 -0.011702506 -0.0023660003
0.028723033 0.036587004 -0.025035549 0.0007167507 0.026014807 0.11295458 -0.042250913 -0.062905595
-0.015795637 0.008185371 -0.0522646 -0.039001387 0.012492605 0.0030403244 0.047816653 -0.048906628
0.07386516 -0.0076734056 -0.0056673 0.041286923 -0.046511605 0.083717056 -0.044095766 0.04674972
-0.0028864709 0.030278392 0.0045685014 -0.025007516 0.051100988 -0.11936573 0.06654446 0.0482155
-0.1461444 0.06313227 0.05639412 -0.032150373 0.036139812 -0.019262036 -0.03980826 0.088037275
00000000: f411 1fbe 77a2 ee3b b7c8 a7bd 1a3d eebd
00000010: 797c 0fbd 852a 49bd 5277 3cbd 8f62 d6bb
00000020: 2ad5 fcbd 78b1 b5bc 77f5 a8bd 067f a9bd
00000030: f7d3 c6bd b180 9ebc 9248 55bd ce96 6d3d
00000040: 0581 3dbd 2ffd 113c 74d2 93bc a957 e3bd
00000050: 5917 91bd a2b8 67bc 0446 8ebd dae0 74bd
00000060: c52d 233d 7b91 7fbd 95f7 f0bd d858 a8bc
00000070: 8146 e23c 7279 063d a753 5fbc cdee 27be
00000080: 5b1c 133c dd60 9d3c 1f24 f0bd cd8d 28bd
00000090: 1e56 6a3c 6ae5 073d 7693 013d b923 923d
000000a0: eb8d 6e3c 44bf 54bd a0f5 ecbc a616 173c
000000b0: 4aba 03bd 83b1 b9bd 6674 7ebd 03f2 18bd
000000c0: 436e 52bd 1e75 983c 4915 f73c 5f8b 703d
000000d0: afdb c33c b446 873d d851 bfbd e4dd a73c
000000e0: f9ba 70bd 30fb 2abe 56ab 8fbd 0f7d e6bc
000000f0: 7abe 84bd 21b5 123d dcbb 93bd cd3f 9ebd
00000100: d175 bdbd 9731 07bd 8b27 66bd b226 cc3c
00000110: ec8e 63bd 8606 78bb 18f0 e13c c79e e5bd
00000120: e52f e7bc 4be5 a63d 14cc 563d 86be 6ebd
00000130: 017f 153c 00b2 b1bc 978f c3bd b792 00be
00000140: 7288 6cbd c060 ccbd afda 92bd 5ec0 1aba
00000150: 4ba6 853c 6821 1b3d 3719 5bbd 9043 bd3c
00000160: 27c0 0f3d 3dc4 d33c d25a 83bc aac0 4abd
00000170: 8bf8 18bc a7e5 a93d 15ce 4bbd 9aff 1fbb
00000180: a0cd 22bd 0d5c 123d 4489 a83d 119a 2bbd
00000190: 9889 bb3d d01b 5dbd 09f9 903d bfb5 c03b
000001a0: e488 8cbd 1e43 b03d 0061 ebbd 1b75 823d
000001b0: e18d cb3a e6f8 843c d84c 0dbd dbb3 383d
000001c0: 04b8 2fbc 4497 c7bd 6540 bf3d 7156 b13d
000001d0: f817 f0bc 9f64 ee3b a0c9 6fbd fd64 9a3c
000001e0: 1a4c 603c 5345 1f3d 2559 2bbd 1ac9 983d
000001f0: 3fd3 5bbd f49b 113d 4e17 3b3d 4441 97bc
00000200: bfcc 00bd 79d5 e63d 0cef 1a3e b1e1 8d3d
00000210: 22ed 23bb 01fe 85bd 92e1 a4bd 938e 3dbd
00000220: 596c c4bd 693d 39bd 156e 4bbd 7ea9 0dba
00000230: 176c 033d 80d5 573d 9a2a d63c 97ab aa3d
00000240: e973 f4bd 7bce 323b 6ae4 6bbd ef66 013c
00000250: 2e91 bd3c 97ba aebc 76b4 c33c 87f7 0dbd
00000260: 7d1c 023c d367 7f3c f499 3cbd ae8c 043d
00000270: 5c56 da3d 18e6 b53c 05a7 e5bd a60e b23c
00000280: 9cc8 003d 748e d0bb f1b8 a03c 7a7a c1bd
00000290: b306 8e3a 4b48 503d 65bf d53b 7d5a 46bd
000002a0: 67fd 7a3d d37d 8bbc bac5 573c d162 fb3c
000002b0: c58b 823d a8ed 413d ef29 46bc b216 88bd
000002c0: 487d 0cbd 20e0 cbbb 1e56 e5bc 68fc 4b3d
000002d0: 845b 83bd 60fb 843c 5c0c 043d ce74 d43c
000002e0: 6549 413d 5b04 883d 20c8 b1bc 3942 06bd
000002f0: ff75 47bc 8c03 47bd aa5e bbbd f692 323d
00000300: 04cf 01be e003 82bb 2d35 84bd 8e72 38bd
00000310: c673 32bc 85a3 1b3d 06d3 b6bd aed8 43bc
00000320: 9670 29bb 1aad c9bb c38c 8f3d a35c c83c
00000330: 34fa a6bd 5a58 5b3d 688e 983d c6f2 d7bd
00000340: 7899 a23d c4b5 193d a961 39bc 2834 ebbd
00000350: e262 cdbc 6598 57bd debb 3fbc e60e 1bbb
00000360: 914c eb3c 41dc 153d 5a17 cdbc 53e4 3b3a
00000370: 011d d53c bb54 e73d 4b0f 2dbd a6d4 80bd
00000380: da65 81bc ef1b 063c 6813 56bd ebbf 1fbd
00000390: c8ad 4c3c 2e40 473b 65db 433d 5152 48bd
000003a0: 9e46 973d 3171 fbbb c2b4 b9bb 7a1c 293d
000003b0: f482 3ebd d973 ab3d c39d 34bd a27c 3f3d
000003c0: f22a 3dbb 640a f83c 5eb3 953b 90dc ccbc
000003d0: 454f 513d 0576 f4bd 7648 883d 9e7d 453d
000003e0: e1a6 15be 7e4b 813d 85fd 663d 1cb0 03bd
000003f0: 5707 143d 6bcb 9dbc fc0d 23bd e34c b43d

fc1.bias f4 [128]
0.0057509635 -0.036029562 -0.056263518 0.016828801 -0.080337144 0.0010322633 -0.08791845 -0.0150091015
-0.07763756 0.014418679 0.011222942 -0.023722824 -0.04976045 -0.02625211 -0.024370415 0.0014388409
-0.0033171726 -0.017862344 -0.03947213 -0.03759405 -0.023860132 0.009003578 -0.043704916 0.02855625
-0.0037365553 -0.03326098 -0.04339037 0.01029423 0.03274168 -0.070400394 -0.021566762 -0.046845976
-0.06569341 -0.05653109 -0.005824061 -0.0020324204 0.0029028307 -0.011013938 0.014889825 -0.028621564
-0.056483034 0.013883082 -0.045359947 -0.12271577 -0.0671394 -0.022360086 -0.040587295 0.020142548
-0.010705269 -0.01391475 -0.009669684 -0.012966034 -0.0016690937 -0.004464689 0.035888273 -0.0393796
0.0003032675 -0.062289845 -0.0139837805 0.013931377 -0.018366193 -0.0275672 -0.008096222 -0.07069157
-0.03934811 -0.008348524 0.0038983985 -0.025194565 0.043908816 0.0031234755 -0.01750424 -0.021927796
-0.0749885 0.043429103 0.022068672 -0.02663575 -0.036900382 -0.01130103 -0.0032548606 -0.016469216
-0.043849055 0.0156073915 -0.058696195 -0.042285047 0.014579735 -0.08293592 0.0018318819 -0.021262474
-0.077390246 -0.009629231 -0.066539474 -0.07375819 -0.020812254 -0.03464179 -0.05060525 -0.042848468
-0.037445482 -0.070712775 0.027817497 -0.010639725 0.0034275234 0.0019857488 -0.08600847 -0.016084287
-0.035314072 -0.018469904 -0.03690561 0.009831789 -0.028722126 -0.0010824812 -0.0863575 -0.03442831
0.047582723 -0.00086415914 -0.06248401 0.005183354 -0.039966464 0.019728638 -0.06880438 -0.064004965
-0.034032974 -0.08337533 -0.023460109 0.035275172 -0.026142564 -0.024211638 0.0142050525 -0.055536848
00000000: 9472 bc3b bc93 13bd 9374 66bd 8edc 893c
00000010: cd87 a4bd 024d 873a 970e b4bd bce8 75bc
00000020: 7100 9fbd 533c 6c3c 6ee0 373c 5e56 c2bc
00000030: 9dd1 4bbd aa0e d7bc 77a4 c7bc 7d97 bc3a
00000040: ec64 59bb 0d54 92bc 87ad 21bd 38fc 19bd
00000050: 5376 c3bc be83 133c ed03 33bd ccee e93c
00000060: ffe0 74bb aa3c 08bd 1aba 31bd 21a9 283c
00000070: 241c 063d 152e 90bd c7ac b0bc 91e1 3fbd
00000080: 448a 86bd 258d 67bd c4d7 bebb 5b32 05bb
00000090: 6b3d 3e3b ce73 34bc 74f4 733c c577 eabc
000000a0: c15a 67bd de75 633c 5acb 39bd 6852 fbbd
000000b0: 6280 89bd 802c b7bc dd3e 26bd fc01 a53c
000000c0: 2765 2fbc b1fa 63bc 986d 1ebc 7d6f 54bc
000000d0: 7ec5 daba 874c 92bb 95ff 123d 814c 21bd
000000e0: e0ff 9e39 a323 7fbd 3a1c 65bc 6e40 643c
000000f0: b374 96bc 9cd4 e1bc 04a6 04bc bec6 90bd
00000100: 7c2b 21bd 3fc8 08bc 467c 7f3b d564 cebc
00000110: bbd9 333d 39b3 4c3b 0d65 8fbc eca1 b3bc
00000120: 9293 99bd b7e2 313d 5cc9 b43c 3733 dabc
00000130: db24 17bd f527 39bc 804f 55bb 73ea 86bc
00000140: 119b 33bd 25b6 7f3c 6c6b 70bd 1633 2dbd
00000150: d7df 6e3c 4fda a9bd c21b f03a a42e aebc
00000160: c77e 9ebd ecc3 1dbc d945 88bd 890e 97bd
00000170: 767e aabc 8de4 0dbd 7347 4fbd e081 2fbd
00000180: 6f60 19bd dcd1 90bd 85e1 e33c 3e52 2ebc
00000190: 4da0 603b 5623 023b 3525 b0bd 32c3 83bc
000001a0: 7da5 10bd 324e 97bc 562a 17bd 8315 213c
000001b0: aa4a ebbc 0be2 8dba 33dc b0bd b304 0dbd
000001c0: 1ae6 423d bd88 62ba 3cef 7fbd 20d9 a93b
000001d0: e0b3 23bd f49d a13c 50e9 8cbd 0915 83bd
000001e0: 2966 0bbd afc0 aabd 6a2f c0bc b37c 103d
000001f0: ee28 d6bc 7c57 c6bc 4fbc 683c 9b7a 63bd

fc2.weight f4 [5, 128]
-0.26712096 -0.26594216 -0.16086125 -0.23653522 0.029373616 0.13233657 -0.020851608 0.08387092
-0.18369724 0.007084806 -0.2012078 -0.14012535 -0.2424887 0.020270417 -0.10792222 -0.024964275
0.11820602 -0.2984841 -0.11329227 -0.11276898 0.020903377 -0.22088522 0.16426092 -0.12227063
-0.3050444 -0.10289683 -0.15189345 -0.14382824 -0.2763458 0.16362603 0.050276246 0.060822774
0.025440587 -0.06387094 -0.24568196 0.049528167 0.119091384 0.17075822 0.039185144 0.07187026
-0.32045949 0.046958085 0.13684076 -0.06450484 0.03718816 -0.09505239 0.040595215 0.025170831
-0.012763677 0.09342128 -0.068925545 0.08839547 0.0898625 -0.20250058 0.07025965 -0.15876341
0.15643989 -0.2889382 -0.19515643 0.094556056 -0.23906556 -0.094925046 0.11006994 0.06380839
0.07951411 0.11038012 -0.016140975 -0.1041015 0.10532747 0.15612929 0.10441533 -0.17256118
0.08452507 -0.3362668 0.109902464 0.119670615 0.16167633 -0.23064876 0.10703193 -0.09683223
-0.06412225 -0.26347083 -0.21234964 -0.25078022 0.16153528 0.16088277 0.122039385 0.090167575
-0.17525475 0.06493862 -0.3364029 -0.0017323631 0.05396532 -0.16508506 0.05673817 -0.11639169
-0.07193695 0.14196973 -0.3048442 -0.014125883 -0.19861297 -0.015064816 -0.06899393 -0.32266963
-0.34391353 -0.22008121 -0.113225736 0.09858849 -0.06807985 0.058445368 -0.09330839 -0.07055542
-0.26071727 0.04149259 -0.027923927 0.06486148 -0.20185475 0.1572531 -0.085187644 0.07088604
-0.29237366 0.08156611 -0.07483136 0.051911205 -0.025128132 0.09252611 0.020825263 0.107991196
-0.07774416 0.0748605 0.12196708 0.081574805 -0.17897175 -0.23640138 -0.2262402 -0.06670353
0.14599769 0.020564852 0.12922363 -0.027430415 0.12075672 0.07792241 -0.16992965 0.016283983
-0.1877725 -0.015118357 -0.13648778 0.23511244 -0.114682496 -0.14017259 0.1342197 -0.08701403
-0.25747693 0.12784053 0.2193943 -0.041430887 0.06997069 -0.24853005 -0.3357317 -0.23025751
-0.07223391 -0.14374337 0.09157317 0.07012195 -0.20073245 -0.27810585 0.06878903 -0.1217434
0.07898914 -0.1626422 0.08521623 0.020227961 -0.11397975 -0.041448794 -0.0715734 0.01754124
-0.09942104 0.1466303 0.11254861 0.158655 -0.20830186 0.036572926 -0.0009345888 0.019647289
-0.07120232 0.1260577 0.09418772 -0.07215518 0.0063284948 0.04637863 -0.0839524 -0.06775894
-0.1273296 0.07330813 0.05969165 -0.20365022 -0.020709027 -0.2658297 0.047774542 0.15447855
0.19826129 0.0630549 0.097821824 0.10458432 -0.1495727 0.13876273 0.10028951 -0.22879018
0.084886104 0.07658939 0.118484445 -0.15951227 -0.2565355 0.1361118 -0.14581917 -0.15952668
-0.010133597 0.0067178505 -0.063492455 0.099013776 -0.020678231 0.04298123 0.007027783 0.18381651
0.11365002 0.18834646 0.026883109 -0.2132212 -0.1531645 0.122487776 0.24099948 -0.13201591
0.015355824 -0.17159171 -0.10757735 -0.07563056 0.049294025 0.11606115 -0.07871622 0.01786307
-0.1337508 -0.1785266 0.12655288 0.06538613 -0.097844616 -0.20747249 -0.12640461 0.23471269
0.062171962 0.2278088 -0.10688973 -0.19264719 -0.26146424 -0.17676918 -0.12830526 0.053827934
00000000: 14c4 88be 9229 88be d0b8 24be 4a36 72be
00000010: f0a0 f03c 3d83 073e fed0 aabc 84c4 ab3d
00000020: 211b 3cbe a927 e83b 6b09 4ebe 057d 0fbe
00000030: f54e 78be 250e a63c 5306 ddbd e181 ccbc
00000040: ff15 f23d e8d2 98be c705 e8bd 6cf3 e6bd
00000050: 8f3d ab3c bc2f 62be 0434 283e 0669 fabd
00000060: c82e 9cbe 93bb d2bd f589 1bbe b647 13be
00000070: 327d 8dbe 958d 273e 77ee 4d3d 4d21 793d
00000080: c768 d03c c4ce 82bd 0d94 7bbe 0cde 4a3d
00000090: 2fe6 f33d 3edb 2e3e 9a80 203d b730 933d
000000a0: 4413 a4be 1f57 403d fc1f 0c3e 1d1b 84bd
000000b0: 9d52 183d d4aa c2bd 2b47 263d 0f33 ce3c
000000c0: be1e 51bc a853 bf3d d628 8dbd af08 b53d
000000d0: d509 b83d 505c 4fbe 4be4 8f3d e092 22be
000000e0: c731 203e b5ef 93be 16d7 47be 9ba6 c13d
000000f0: 9acd 74be 1068 c2bd 596c e13d f9ad 823d
00000100: 4bd8 a23d f90e e23d 143a 84bc 2b33 d5bd
00000110: eeb5 d73d 5be0 1f3e b4d7 d53d e1b3 30be
00000120: 7b1b ad3d 292b acbe 8b14 e13d de15 f53d
00000130: 7b8e 253e 302f 6cbe 8e33 db3d fa4f c6bd
00000140: 8752 83bd a6e5 86be 2f72 59be 4466 80be
00000150: 8169 253e 74be 243e c9ef f93d c7a9 b83d
00000160: fb75 33be 8afe 843d 003d acbe 7610 e3ba
00000170: bd0a 5d3d 0f0c 29be 4966 683d c45e eebd
00000180: ae53 93bd 8360 113e 8a14 9cbe 3f70 67bc
00000190: 3361 4bbe 6bd2 76bc b14c 8dbd f434 a5be
000001a0: 6f15 b0be f85c 61be e5e2 e7bd c3e8 c93d
000001b0: 736d 8bbd 6964 6f3d 7818 bfbd 5c7f 90bd
000001c0: bc7c 85be 22f4 293d b8c0 e4bc 18d6 843d
000001d0: 03b3 4ebe f506 213e dc76 aebd b32c 913d
000001e0: 00b2 95be 220c a73d 2f41 99bd d8a0 543d
000001f0: 83d9 cdbc 547e bd3d be99 aa3c 7d2a dd3d
00000200: 5538 9fbd 7650 993d e0c9 f93d b110 a73d
00000210: 5f44 37be 3413 72be 83ab 67be dc9b 88bd
00000220: 6b80 153e 9f77 a83c 3353 043e c0b5 e0bc
00000230: 4d4f f73d c995 9f3d 0a02 2ebe fd65 853c
00000240: 6f47 40be fcb2 77bc 74c3 0bbe 51c1 703e
00000250: a8de eabd 6789 0fbe e470 093e 6934 b2bd
00000260: 04d4 83be a1e8 023e e6a8 603e 6fb3 29bd
00000270: cb4c 8f3d a97e 7ebe 06e5 abbe a0c8 6bbe
00000280: 5fef 93bd 7631 13be b78a bb3d 199c 8f3d
00000290: cf8c 4dbe e463 8ebe 43e1 8c3d 9b54 f9bd
000002a0: 0fc5 a13d ad8b 26be d985 ae3d 1cb5 a53c
000002b0: 376e e9bd 36c6 29bd 1395 92bd a6b2 8f3c
000002c0: 429d cbbd 4126 163e e37f e63d 7576 223e
000002d0: 154d 55be 7ecd 153d 31ff 74ba 5af3 a03c
000002e0: 86d2 91bd 4515 013e 7ee5 c03d 18c6 93bd
000002f0: 435f cf3b 85f7 3d3d 3cef abbd 33c5 8abd
00000300: b162 02be 9322 963d 3b7f 743d af89 50be
00000310: faa5 a9bc d51a 88be 3daf 433d a02f 1e3e
00000320: 0205 4b3e ed22 813d cf56 c83d 4e30 d63d
00000330: 9629 19be d117 0e3e 9664 cd3d f947 6abe
00000340: c4d8 ad3d e6da 9c3d f9a7 f23d 2f57 23be
00000350: 9f58 83be e460 0b3e 9f51 15be f65a 23be
00000360: 6307 26bc 6a21 dc3b 5508 82bd bcc7 ca3d
00000370: 6565 a9bc 160d 303d 5149 e63b 653a 3c3e
00000380: 57c1 e83d e5dd 403e f739 dc3c a956 5abe
00000390: 28d7 1cbe dfda fa3d 91c8 763e 2e2f 07be
000003a0: fe96 7b3c bdb5 2fbe 8451 dcbd 32e4 9abd
000003b0: 88e8 493d 78b1 ed3d f835 a1bd 9355 923c
000003c0: f8f5 08be adcf 36be 1497 013e 2ae9 853d
000003d0: c262 c8bd ab73 54be 3670 01be 8658 703e
000003e0: 07a8 7e3d b646 693e 01e9 dabd 4e45 45be
000003f0: a4de 85be fb02 35be 7462 03be ae7a 5c3d

fc2.bias f4 [5]
0.036007293 0.06909971 0.014874811 0.026804402 0.06386212
00000000: 627c 133d 2684 8d3d 7bb5 733c e894 db3c
00000010: 25ca 823d
