Trained_Weights/STRIDE 4/v4.1 5th.pth (torch, 681666 bytes, 12 tensors)

conv1.weight f4 [32, 1, 3, 3]
00000000: 04ab f03d e0c2 87be efbb 9cbe cf27 66bd
00000010: 50f9 04be a0e0 aa3e c285 6b3e 88dc 6cbe
00000020: 4580 69bd 57d5 903e 07ea ac3c f5a2 c43c
00000030: 464c 883e e82e 0bbd 9d60 753e 5ba3 133d
00000040: 735e 26bd 75c0 133e d680 ce3d fceb 09be
00000050: 70c1 0b3c c5e9 713e 60eb a6be 50c4 653e
00000060: 466a 95bd fd1b 3f3e d2f1 023e ec44 6e3e
00000070: cb6f cb3d a355 873e d91d 2cbe 71b4 59be
00000080: dfde 05be 2113 20bd faeb 95be 1dae b93d
00000090: d244 62bd cb75 5c3c 1d98 503e d796 07be
000000a0: 33f5 863e c760 8b3e 1694 a93c d7c7 76bd
000000b0: 5370 4ebe 62ca 993e ff91 9a3e 9557 25bd
000000c0: a66e 993e e837 64be a45d 9a3c a50a 5f3d
000000d0: 9c69 523e 5eb6 c2bd 462c a3be a435 ba3d
000000e0: 7cde 88bd 578d 393e 9ff2 80be 60e3 2bbe
000000f0: 011a 8b3d cfc5 723e 572c 893c 6e12 8ebd
00000100: 5f29 f9bd 2b3d 483e b6ce 2ebe 0ef2 2fbe
00000110: ef2b 8f3d c7d5 ff3d 0d06 2c3e 46d3 ae3c
00000120: 354f 6e3e 2fcd 03be 6608 21be a1a2 9a3e
00000130: 1e78 45bd e511 95bd bb44 673d b033 9f3d
00000140: 4261 3d3e b9c2 4a3e 80f9 66bd ab7d 8abd
00000150: 8e54 21be 959e 803d a333 a9bd 3238 4a3e
00000160: 7c0a 80be fd87 323e eac1 8cbd 06a6 523e
00000170: 4dee 553c aa3e 843e ce5f 533e 0733 34be
00000180: de43 6abe a62d 673e 5147 80bd b055 97be
00000190: f0ce 5e3e c704 a9be 6047 d5bc a893 943e
000001a0: 4b2f 023e f742 053d 31a9 753e ddca 2c3e
000001b0: 413c 843d 1eab 533e 34c3 77be e0fe 85be
000001c0: eb8e 70bd 9533 423e b490 a4be a55d b03d
000001d0: 3713 edbb 4d20 93be 7454 8a3e 767f b2bc
000001e0: d588 2f3e a7de 393e fc7a a1be 4c32 b2bd
000001f0: 92c6 2f3c debb cbbd b41f 94be f6f6 1ebd
00000200: d1bc 9d3e 7780 4c3d 8100 463e ad4f 9bbd
00000210: e0f0 7bbe a66b 70be 7071 73be f51c 843e
00000220: 4896 0a3e fe11 90be 323c ce3b 911d 99bd
00000230: 143b 13be 352d 803e 0c84 93be 82ae 7dbe
00000240: da0a 6e3e 98bc f03d 9f76 303c 27f5 bebe
00000250: 5e92 fa3d 6b37 933b 0e69 9a3c b4b7 08be
00000260: 7532 13be c87c 63be 8f80 3bbe 48f7 83bd
00000270: 190c 4a3e 0b2c 4b3e 066f 0d3b e20c 95be
00000280: 5695 123e 5677 213d e632 80be bde4 323e
00000290: 11bf d9bd e929 1fbe 8932 9e3b e0ab 70bd
000002a0: 1811 2e3e d2e4 6a3e 73f9 2bbe 57e8 eabd
000002b0: 645b 97be 8f63 9dbe 43b7 93be 5798 cf3d
000002c0: 6001 89be 26ea fcbd 0faf 9cbe 6541 5cbd
000002d0: 262f 82be b6cc a9bd 7878 673c 77d8 fabd
000002e0: 748f a23e 5eb8 88be ed0a cf3d 4562 0ebe
000002f0: f2e0 61be 5146 6d3d c3f1 293d ebaa 06be
00000300: 4de0 1d3e 413c 02be 07ef 283d 859a 05be
00000310: 5a97 4f3d 486a c4bd c867 c1bd 6d83 05bd
00000320: 6fdd 80bd b7c2 39bd 1d04 6b3e c1bc 54be
00000330: ae9b 73be 8833 473e de4a f5bc 1830 1abd
00000340: de9b 8c3d be56 73bd 80a4 893e f3c3 a8be
00000350: 3c9e 47bd b61f 3c3e a303 99be 360a 6b3e
00000360: 0277 82be bb4d 923e a6d3 24be 4947 303e
00000370: 5ae7 0c3e 8719 9abe 8a3a b8bb 90e1 583e
00000380: c556 923e 2a4b db3d d96b db3d a5bc 1cbe
00000390: cbd7 68be 94b6 ff3c d459 24be 71b8 8bbd
000003a0: 1ba7 97bd 2255 4abe 79f3 29be ee44 9e3e
000003b0: 6112 80be e4d2 e13d bd85 1c3e 6f11 9a3e
000003c0: bf0e 16be c3be 6a3e bd3e 14be fe58 813d
000003d0: d4f9 86bd e2d7 603d 4d99 9cbe 118c a3be
000003e0: 8512 50bd 22be 813e e2f9 6c3e 4768 06be
000003f0: 013f 49bd 905e a23e 99b4 3f3c 55af 193e
0.11751369 -0.26515865 -0.30612132 -0.05619031 -0.1298573 0.333745 0.23000243 -0.23131001
-0.057007093 0.28287765 0.021107687 0.024003485 0.26620692 -0.03398028 0.23962636 0.03604446
-0.040617418 0.14428885 0.10083167 -0.13468927 0.008530006 0.23624332 -0.32601452 0.22438169
-0.07295661 0.1866302 0.1278756 0.23268479 0.09933432 0.26432523 -0.16808261 -0.21260239
-0.130733 -0.039080743 -0.29281598 0.090664126 -0.055241413 0.013455818 0.20370527 -0.13241135
0.26358947 0.27222273 0.020700496 -0.060249176 -0.20160036 0.30037218 0.3018951 -0.040366728
0.2996723 -0.22286952 0.01884348 0.05445351 0.205481 -0.0950744 -0.31869715 0.090922624
-0.066830605 0.18120323 -0.25185105 -0.16785955 0.06792069 0.2370827 0.016744776 -0.06937109
-0.12166094 0.19554584 -0.17071041 -0.1718218 0.069908015 0.12491947 0.16799183 0.021340977
0.23272403 -0.1287124 -0.1572586 0.302022 -0.048210256 -0.07278804 0.05646203 0.077735305
0.18494132 0.19800843 -0.056390285 -0.067622505 -0.15754911 0.06280247 -0.08261802 0.19748
-0.25008 0.17434688 -0.06872924 0.20571145 0.013057304 0.2582906 0.20642015 -0.1759759
-0.22877452 0.22576007 -0.062636025 -0.29557562 0.21758628 -0.33011457 -0.02603501 0.29018903
0.12713353 0.032534566 0.23990323 0.16874261 0.06456805 0.20670745 -0.24195558 -0.26171017
-0.058730047 0.1896499 -0.3214165 0.08611611 -0.0072349566 -0.2873558 0.27017558 -0.021789294
0.17142041 0.18151341 -0.31539142 -0.087009996 0.010728495 -0.09947942 -0.28930438 -0.03880974
0.30808118 0.0499272 0.1933613 -0.07583556 -0.24603605 -0.23478565 -0.23773742 0.25803342
0.1353389 -0.28138727 0.006293797 -0.074763425 -0.14378005 0.2503449 -0.2881168 -0.247736
0.23246327 0.117547214 0.010770469 -0.3729641 0.122349486 0.0044926903 0.018848922 -0.13351327
-0.14374717 -0.22215569 -0.1831076 -0.064436495 0.19731177 0.1984102 0.0021581068 -0.2911139
0.1431478 0.03942045 -0.25038832 0.17470069 -0.10632146 -0.15543331 0.0048278016 -0.058757663
0.16998708 0.2293885 -0.16794376 -0.114700966 -0.29561913 -0.3074002 -0.28850755 0.101364784
-0.26758862 -0.12349348 -0.3060231 -0.053773303 -0.25426596 -0.08290999 0.014127843 -0.12248319
0.3175007 -0.2670316 0.10109506 -0.13904674 -0.22058466 0.057928387 0.041490328 -0.13151138
0.15417595 -0.12718298 0.04124358 -0.13047226 0.05068145 -0.09590584 -0.09443623 -0.03259604
-0.06292235 -0.04535171 0.22950788 -0.20775129 -0.23789856 0.19453251 -0.029942926 -0.037643522
0.06865667 -0.059408896 0.26883316 -0.32961997 -0.04873489 0.18371472 -0.29885587 0.22953114
-0.2548142 0.2857493 -0.16096362 0.17214693 0.13760129 -0.300976 -0.005622213 0.21179795
0.28581825 0.10707696 0.1071393 -0.15306337 -0.22738568 0.03121499 -0.16049892 -0.06822289
-0.0740492 -0.19759038 -0.16596784 0.30911964 -0.25014022 0.11026552 0.15285392 0.30091426
-0.14654063 0.22924332 -0.14477058 0.06315802 -0.0659062 0.054893382 -0.3058571 -0.319428
-0.05079891 0.25340372 0.23142198 -0.13125716 -0.04913235 0.3171277 0.011700773 0.1500829

conv1.bias f4 [32]
00000000: bf6d 813d 7802 b2be 9220 2cbc d120 ba3d
00000010: 74d9 63be 3f9e b1be e8e8 863e 7eb3 e6bd
00000020: 703e 9abe 0e04 9bbc ca12 4cbe 688f 1ebe
00000030: 204b 7c3e 15d3 5f3e f20f 503e 1ead 2f3e
00000040: ce04 753d bd22 a33d c2f2 a53d bb53 92be
00000050: b58d 3e3e 7b21 963d 97d9 673d 044d 833c
00000060: 7a48 9fbe 8416 9e3e c904 5dbe f269 8b3d
00000070: ce7a b4bd 6f8e 0fbe ae51 fb3d 14eb 80be
0.063197605 -0.34767509 -0.010505812 0.090882905 -0.2225092 -0.34691045 0.26349568 -0.11264704
-0.3012576 -0.018922832 -0.19929042 -0.15484393 0.24638033 0.21857865 0.20318583 0.17155883
0.059819035 0.0796561 0.08102943 -0.28579506 0.18608744 0.07330605 0.056603994 0.016027935
-0.31109983 0.30876553 -0.21583857 0.06807317 -0.08812486 -0.14019178 0.122714385 -0.2517935

conv2.weight f4 [32, 32, 3, 3]
00000000: 4b0f 15bc 004c c43c 7b84 4dbd 2615 553d
00000010: 8b89 30bd 69c4 543d b97a 453d 6275 9a3c
00000020: ba91 bdbc 98c3 18bd 3575 34bd 6630 8ebc
00000030: 63b9 22bd adc4 76bd 1a93 98bd c68e 36bc
00000040: e55e 7ebd d426 53bd 6f17 9f3c 616e 7ebc
00000050: 0f21 69bd 72b8 a138 f6f6 30bd ac9b 9f3c
00000060: e4d0 e73c 6c7c 323c d669 69bd e650 c93c
00000070: 2c85 3e3d 0f6a cd3c f5c1 a63c b050 713c
00000080: e6b7 013d f239 9abc 1828 5dbd c00b 483c
00000090: 7acb 8fbb 445a 03bc 72c4 5fbd 8ae1 92bc
000000a0: a9f8 80bd 0c48 9bbc 2b83 7ebc 5d5a f93c
000000b0: 0480 473d 4b7a 16bd 88f7 8ebd 9b49 ccbd
000000c0: a326 dfbd a3d8 63bd d312 76bd e0eb 6fbd
000000d0: a1e1 53bd 082a 10be 7c3b bd3c 30d6 a73a
000000e0: 27d8 33bd e84d 15bd 5420 373d b8dd 5b3d
000000f0: aa49 17bd 5390 f53c d127 023d 3609 46b9
00000100: 7d6a 4fbd 5663 36bc 2377 02bc db2f 16bd
00000110: d08d 723c 251e 8e3c 8e85 ca3c cc14 eebb
00000120: 2c07 d83c 49e1 33bd aab1 ebbb 8bff 463b
00000130: ab44 6f3c ab93 d6bc 03e7 b5bc e207 99bd
00000140: 9b1e 96bd c8e3 093c fb5f 47bd 77fd 523d
00000150: aaf9 b7bb 9330 18bd 5867 4bbd a204 773d
00000160: 2aea 1d3d 04ad 123d fae0 bb3c a137 423b
00000170: 874d a23b 2150 c4bc 567f 8abd d973 4fbd
00000180: fe4c b9bd 660d 71bd 4040 c2bd c95b a5bc
00000190: ded4 90bc 01cb 17bc 14be 43bd 7ca8 1fbc
000001a0: 2710 27bc 148e 3bbd 1f4d 89bd 5ede 093c
000001b0: ed5e 4f3d 6d8f e93c c854 a13b d188 393d
000001c0: 0d17 d6bc 112c 19bc 757f 5e3d 769d 163d
000001d0: 88d6 3f3d 22c0 563d 87a8 da3c 0ec9 973b
000001e0: a9ca 313d 78f1 e03c 710e 37bd 1330 de3c
000001f0: 6ac3 033d 9457 1fbd acde 2dbc 397d aa3d
00000200: 80f7 a43d eff7 c0ba d940 053c 1f0b b13d
00000210: 5c4f 463d 2efe c03d afae 873d 7939 123e
00000220: d982 123e cd54 203d c323 0f3e 126e 3f3d
00000230: 9a96 263d 7356 b03d 1d10 443d 93f0 103e
00000240: f293 243d 66f4 30bd 4249 d8bc 4241 44bd
00000250: 7126 2a3c 1cb8 0b3d 5634 19bd 6d5b 573c
00000260: 9bc7 24bd 55c2 26bd 0bfc 673d f1f9 253d
00000270: c3ec 15bd fddf 3abd a7f1 c13c 29e8 00bc
00000280: 0ecf 043d 1228 943c bffa 0ebd a800 44ba
00000290: ef12 e63c cc42 9abc 3136 5dbc cde3 6a3d
000002a0: b849 14bd 1803 f1bc 0e1d 62bd 7ffd 74bc
000002b0: ec6e 7fba 9c9b de3c 9489 ee3c 8ec8 b43b
000002c0: 0980 f8bc d547 5f3c 9de5 59bc ba68 b63c
000002d0: cd57 833d 5245 0cbb 6f79 a73c fa35 d9bc
000002e0: 62cd ee3c 0bd5 263d a32d d53c 2905 d93c
000002f0: 0d1b 803d 327e 413c 63c0 523d 7289 323d
00000300: 6e92 32bd 31f9 a93c e760 cb3c bd73 0bbd
00000310: 7185 2e3d c239 3f3d dd79 a03c 227e cbbc
00000320: 62e8 c43b 0005 073b 0930 1cbd 1eec ff3c
00000330: 9ff1 4a3a 61db fcbb 8241 c93c e7ee 013d
00000340: 0aab 31bd 2e0d ab3c 6a83 7f3c 7cfb 433c
00000350: 676d ddbb dcd6 6b3d a1e7 4a3b 07e9 1cbd
00000360: 3d0f b33c 4ada 38bd 85f0 16bd 42fd 60bd
00000370: 7f0c 15bd 7ccd 6c3c bca8 9abd b03a 64bd
00000380: 8c83 143d 2f1c d23d d557 383d af77 c43d
00000390: 57f9 183d dbfe 0b3e 9048 923d 9389 ee3d
000003a0: 8596 de3d 4881 3a3d c2d2 72bc 2307 2b3d
000003b0: 8cd7 28bc 7fa1 15bd 76f2 16bc f979 323d
000003c0: 884f 2cbd d1c4 783c 8ad7 24bd b525 393d
000003d0: 4aa5 26bd 7521 ff3c 27d5 443c ceac fe3c
000003e0: b998 573d a674 253d 80b4 bebc 7c98 423d
000003f0: f4ad 6abd 1f7e 6dbc b72e 5abd 17b5 5ebd
-0.009097884 0.02396202 -0.05017517 0.05202212 -0.04309992 0.051945124 0.04821274 0.0188548
-0.023140777 -0.037295908 -0.04405709 -0.017357063 -0.03972758 -0.06024616 -0.074499324 -0.011142438
-0.062102217 -0.0515507 0.019420354 -0.015529246 -0.056916293 7.711434e-05 -0.04320427 0.01948341
0.028297849 0.010893922 -0.0569857 0.024574708 0.04651372 0.025074987 0.020356158 0.01472871
0.03166952 -0.018826459 -0.053993315 0.012209833 -0.00438827 -0.0080171265 -0.054630704 -0.017929811
-0.06297428 -0.018955253 -0.015534203 0.030438596 0.04870607 -0.03673772 -0.069808066 -0.09974977
-0.10896041 -0.055626523 -0.060076546 -0.058574557 -0.05172885 -0.14078534 0.023099653 0.0012804922
-0.04390731 -0.03645125 0.044708565 0.053678244 -0.036935486 0.029976046 0.031776253 -0.00018886183
-0.050638665 -0.011132082 -0.007962975 -0.036666732 0.014804319 0.017348358 0.024721887 -0.007265663
0.026370607 -0.04391602 -0.00719281 0.0030364718 0.014603774 -0.02619346 -0.022204882 -0.07472207
-0.07330056 0.008416124 -0.04867552 0.051511254 -0.005614479 -0.0371557 -0.049659103 0.060307153
0.038553394 0.03580953 0.022934426 0.0029635208 0.0049530896 -0.02396399 -0.06762569 -0.05064759
-0.09047888 -0.05885067 -0.09484911 -0.020185368 -0.017679628 -0.0092647085 -0.047788695 -0.00974476
-0.010196722 -0.045789793 -0.06704163 0.008414833 0.050627638 0.028510774 0.004923437 0.045296494
-0.026134038 -0.009348885 0.05432077 0.03677126 0.046835452 0.052429326 0.026691688 0.004632122
0.043406162 0.027458891 -0.044691507 0.027122533 0.032168783 -0.03890188 -0.010612171 0.083246656
0.080550194 -0.0014722327 0.008133137 0.08644699 0.048415527 0.09423481 0.06625115 0.14279737
0.14307727 0.039143372 0.13978486 0.04673583 0.04067097 0.08610239 0.04786693 0.14154272
0.040180154 -0.043201827 -0.02640212 -0.047913797 0.010385142 0.034111127 -0.037403427 0.013144356
-0.04022942 -0.040712673 0.05663685 0.040521566 -0.036602747 -0.045623768 0.0236748 -0.007867851
0.032424025 0.018085513 -0.0349071 -0.00074769044 0.0280852 -0.01883068 -0.01350169 0.057346154
-0.036203116 -0.02942042 -0.05520349 -0.014953016 -0.00097440067 0.02717381 0.029118337 0.005517072
-0.03033449 0.013627966 -0.013299373 0.022266734 0.06413231 -0.0021403623 0.020443646 -0.026514996
0.029150669 0.040730517 0.026022738 0.026491718 0.062551595 0.011809872 0.051453006 0.04358811
-0.043596677 0.020748707 0.02482648 -0.034045924 0.04260773 0.04668594 0.019589359 -0.024840418
0.0060091475 0.0020602345 -0.038131747 0.03124052 0.0007741693 -0.0077165817 0.02456737 0.031721976
-0.043376006 0.020880308 0.015595296 0.011961814 -0.0067574265 0.057577953 0.0030960815 -0.03830817
0.021857852 -0.04513005 -0.03685047 -0.054929025 -0.03638887 0.014453288 -0.07551715 -0.05572003
0.036258265 0.10259282 0.04500564 0.0959314 0.037347164 0.13671438 0.071427464 0.11647334
0.10868553 0.04553345 -0.014820756 0.041754853 -0.010305297 -0.036530968 -0.009213081 0.043573353
-0.042068034 0.015183643 -0.040244617 0.045201976 -0.040684976 0.031143883 0.01201371 0.03108826
0.052635882 0.040394448 -0.023279428 0.0475087 -0.0572948 -0.014495402 -0.053267207 -0.05437192

conv2.bias f4 [32]
00000000: 409b 05bd 8342 323d d72b a43c 2bb9 6ebc
00000010: 2903 e2ba dbe5 603d 15ee 1bbd 688e 643c
00000020: e7af 843c f732 8dbc f221 e3bc f710 04bc
00000030: 410c d4bc 8b90 b03c f7b9 04ba 1320 943d
00000040: 9138 973d 3d24 43bd cbe5 5dbd 5ffd 4c3c
00000050: 43a7 fabc 83b3 763b 1dcc 30bd 822e 47bc
00000060: fd25 8cbd d716 973b 8791 7ebd bed0 263d
00000070: 2c52 21bb 814d 13bd f033 9b3c fec7 4ebd
-0.03261876 0.04352046 0.020040436 -0.014570515 -0.0017243373 0.054906707 -0.03806885 0.013949968
0.016197158 -0.017236216 -0.027726147 -0.008060685 -0.02588475 0.021553298 -0.00050631113 0.0723268
0.07383836 -0.04764198 -0.054174226 0.01251158 -0.030597335 0.0037643618 -0.043163408 -0.012157084
-0.06843183 0.004610877 -0.062150504 0.040726416 -0.0024615629 -0.035962585 0.018945664 -0.050483696

conv3.weight f4 [32, 32, 3, 3]
00000000: 93a8 103d ada2 a0bb a2fd 4d3c ab6a babc
00000010: 1d39 5cbc 6231 99bc 31fd a93c be45 64bd
00000020: 259b 9bbd 9035 9e3d 34d9 05bd 81c5 bc3c
00000030: b588 3abd 8475 8dbd 2c19 43bd f541 083d
00000040: e75a 4ebc c519 913c c766 663d 609d 233d
00000050: b783 3d3d 1a59 4bbd 50c0 10bd fa3b c0bd
00000060: 78d7 59bd a83e 083c cd80 07bd d505 16bc
00000070: 70e0 553d 2196 49bd 02bc 173d d7df 92bb
00000080: 29fd 15bd a2de 58bc e0ce 073d 0d95 49bc
00000090: 658b 823d af37 513d b7dc 2ebd 8c45 233d
000000a0: 2038 b9bc 0dd7 00bc 6d20 13bd a1e0 d8bc
000000b0: 1199 93bc 2051 8bbc b7af c73c d4ee b2bc
000000c0: 182c 423d 2e95 96bc a5f2 4ebd d76a 3dbd
000000d0: 9b17 a0bd 4f4b e6bb 662b 50bd 51b3 e3bb
000000e0: 8e73 b63b 5f59 d8b9 6c71 19bd 03fb 793d
000000f0: 9c9e 473c 2a2e c3bc 37a4 843d 8488 88bd
00000100: d234 2dbd b3a3 92bd 2b3e 173d 1404 613d
00000110: c6cf bf3c 29b5 b43c 902b b03c 6e3e 693d
00000120: 5984 c3bc 0dea 03bd ab73 813c d22a d2bb
00000130: 20ff c23c c92a cb3c 39c3 8fbc 6924 48bd
00000140: 7072 31bd 1adb 2f3d 3934 6abc b089 2fbd
00000150: 2cfc 01bc 0dc4 1abd a45a 25bd 6bd2 97bc
00000160: 96f8 7abd c240 e83b ae48 4c3d 99d6 753c
00000170: 5889 623b 15ab a13d 579c 943d 7a26 4c3d
00000180: bb6e 19bb 7b82 8b3d 1bd5 d63d bda6 92bc
00000190: cc17 433c aef1 14bd 9b49 4c3d d4ad 113d
000001a0: f032 ac3d 2f26 a2bc cf84 7e3d cb42 9a3d
000001b0: 4813 6bbd b5cf d1bc 9c13 2dbc 4cf7 ab3c
000001c0: 39c9 803d af2d 803d f401 f7bc 2de1 25bc
000001d0: 54c8 2d3d 5d7b c4bb b8d7 5fbd 0b07 133d
000001e0: 094d a63c 3271 c1bc f3d6 9e3d 4d48 5f3d
000001f0: a358 033d 23a8 0b3d 07c8 28bd 24b8 9cbc
00000200: 46ed 8abc b025 2ebd 17e6 2f3d b10e 4fbc
00000210: 0263 8abc aa5d 0a3b cf9d 823c 04d1 5f3b
00000220: 7287 adbc 6aae 0f3d 2410 0e3d 7bfe adbc
00000230: 224c 853c d652 b43c 784f 79bc 6db7 81bd
00000240: b2cf 01bd de40 29bd b4d3 7cbd 5020 0cbd
00000250: d9ea 74bd 4387 f8bb 4223 11bb 213e 81bd
00000260: b294 bbbd 2f63 9dbc eb9d 813c 032b cdba
00000270: adef 30bc 2fb6 a3ba 44dd 01bc 1cff 3cbd
00000280: 3d93 e8bc 0d49 3d3d fb8c 69bc 78fd 7fbc
00000290: c085 18bc b983 413d 2e88 ad3c 87f2 39bd
000002a0: 9bce debb 17aa babc cb5d 59bc 78ac 57bd
000002b0: a4c8 613c 53a8 45bd f939 fd3c cb6e bc3c
000002c0: a440 23bd 65f2 04bd 7867 7fbd b647 08bd
000002d0: 3216 5d3d 5644 1d3d 61f0 40bc f117 25bd
000002e0: 6ba1 f03b edd7 993c 02c1 babc 92c6 9b3c
000002f0: e892 f2bc 77bf 2ebd b404 25bd 88c1 3d3d
00000300: 46b9 c93c 6f6e d4bc 2868 c6bc 740a 16bd
00000310: a24e 2bbd acdc 3f3c e7e4 07bd d1f2 24bd
00000320: c7dd eabb 953f bfbc 3926 aabb 2190 f9bc
00000330: 3518 773d 65ca 483c 9108 75bd 0843 bcbb
00000340: 9089 b8bc 1329 383c 94c4 933c 1918 24bd
00000350: cf00 24bd 0ebe 7fbc 0dab 1e3d a220 6a3d
00000360: 0da3 7bbd 3585 66bd ded7 3dbd 99a2 debc
00000370: 434d b53d f813 49bc 0af5 893d bbd7 b53d
00000380: a34c fa3b f8c5 123d cf21 d03c f1a0 163b
00000390: e356 a0bc 86c5 c03c 35b0 8abd a6f2 933c
000003a0: 462c a83a 3d03 80bd 2dc8 debb 7e1f 113d
000003b0: 43d8 12bc eca5 ccbc 62f9 9d3c 7c8b eb3c
000003c0: 9b97 273d 1a67 913b 7349 7cbd 244d 8c3d
000003d0: 651d f33c 61b3 4a3d 132b 39bd a22b 043d
000003e0: 0476 dc3b 083d 43bd 657c 0fbd d420 83bd
000003f0: 6df1 0dbb 1b26 32bc 23a2 0fbd 4fcb 743c
0.035317015 -0.004902205 0.012572678 -0.022755941 -0.013441351 -0.018700305 0.020750614 -0.055730574
-0.07597951 0.0772506 -0.032677844 0.023043396 -0.04554053 -0.0690718 -0.047631428 0.033266027
-0.012594915 0.017712483 0.05625036 0.039945006 0.04626819 -0.04964552 -0.035339653 -0.093864396
-0.053184003 0.00831572 -0.03308182 -0.009156664 0.052215993 -0.04921544 0.037044533 -0.00448225
-0.036618385 -0.013236674 0.033156276 -0.012303603 0.06374244 0.051078495 -0.04269096 0.039861247
-0.02260977 -0.007863772 -0.035919596 -0.026474299 -0.018017324 -0.017006457 0.02437578 -0.021842398
0.047405332 -0.018381681 -0.050524373 -0.04624447 -0.078170024 -0.0070280205 -0.050822638 -0.0069488664
0.0055679744 -0.00041265317 -0.037461683 0.0610304 0.0121838115 -0.023825724 0.06476634 -0.06666663
-0.0422867 -0.071601294 0.036924522 0.05493553 0.023414504 0.02205904 0.021505147 0.056944303
-0.02386682 -0.03220563 0.015802225 -0.006413796 0.023803294 0.024800675 -0.017549144 -0.04886285
-0.043322027 0.04293356 -0.014294677 -0.04285592 -0.007933658 -0.037784625 -0.040369645 -0.018532952
-0.061272226 0.007087798 0.049874 0.015004777 0.0034566727 0.078939594 0.07256382 0.04984138
-0.0023411948 0.068119965 0.104898654 -0.017901773 0.011907529 -0.036363296 0.049874883 0.035566166
0.08408153 -0.019793598 0.062138375 0.07532271 -0.057391435 -0.025611738 -0.010563757 0.020991944
0.0628838 0.062587135 -0.030152299 -0.010124487 0.042427376 -0.0059961514 -0.054649085 0.03589539
0.020300405 -0.023613546 0.07755842 0.05451231 0.032066952 0.034095895 -0.041206386 -0.019130774
-0.016958844 -0.04251641 0.04294404 -0.01263778 -0.016892914 0.0021112957 0.01594439 0.0034151683
-0.02118275 0.035078444 0.03468336 -0.02123951 0.016271655 0.022012156 -0.015216701 -0.06333814
-0.031692214 -0.041321628 -0.061725333 -0.034210503 -0.05979428 -0.007584484 -0.002214626 -0.06310678
-0.09159221 -0.019212333 0.015822371 -0.0015653077 -0.010799331 -0.0012490208 -0.007926289 -0.04614173
-0.028390521 0.046212245 -0.014254804 -0.0156243965 -0.009309232 0.04724476 0.0211831 -0.045397308
-0.0067995316 -0.022786183 -0.013266991 -0.052654713 0.013780747 -0.04825623 0.030911433 0.023002049
-0.039856568 -0.032457728 -0.062354535 -0.033271514 0.053976245 0.03839525 -0.011776061 -0.040306035
0.0073434613 0.01877972 -0.022797111 0.019015584 -0.029611066 -0.042663064 -0.04028769 0.046327144
0.024624478 -0.025931565 -0.024219587 -0.036631063 -0.041823037 0.011710327 -0.033177283 -0.04027063
-0.007167551 -0.023345748 -0.005192545 -0.030464234 0.06032582 0.012255286 -0.059822623 -0.0057452954
-0.022526532 0.011240262 0.018038072 -0.040062044 -0.040039834 -0.015609277 0.038737345 0.057160027
-0.061434794 -0.05627938 -0.046348445 -0.027177142 0.08852627 -0.012272827 0.067361906 0.08879038
0.0076385303 0.03583333 0.025406746 0.0022984112 -0.01957268 0.023531687 -0.0677189 0.01806004
0.0012830577 -0.06250618 -0.006798765 0.035430424 -0.008962694 -0.024981461 0.019283954 0.028753035
0.040916067 0.0044373395 -0.061593484 0.06850651 0.029677102 0.049487475 -0.045207094 0.032268174
0.0067279357 -0.047665626 -0.03503074 -0.06402746 -0.0021658794 -0.010873343 -0.035066735 0.014941051

conv3.bias f4 [32]
00000000: 8475 0e3c 4fbb efbc 3cfe a03c a131 383c
00000010: 9ab9 e6bc 9c5b 623d 4f3e cfbc 105b e53c
00000020: 46ab 323d a21f 60bd 6553 0dbd b894 60bc
00000030: 18d3 29bc 16ea ae3d 7aef 143d accb 523d
00000040: 2ec3 a5bd 2915 4f3d ac31 813c d024 98bd
00000050: d49d 703d 3b9e 083d 8ae8 8ebc f7ac 363d
00000060: 3d42 2dbd 4e3a 683c 6265 10bd 4be9 d3bc
00000070: 7f39 0abd b373 9fbc b766 673c 4d95 1f3d
0.00869501 -0.02926412 0.019652478 0.011242301 -0.028164674 0.055263147 -0.025298266 0.027997524
0.04362037 -0.054717667 -0.03450336 -0.013707332 -0.01036527 0.08540742 0.036361195 0.051463768
-0.08093868 0.05055729 0.015770756 -0.074288964 0.058744267 0.033354025 -0.017444868 0.044598546
-0.042299498 0.014174057 -0.035252936 -0.025868079 -0.03374624 -0.01946435 0.01412361 0.038960744

conv4.weight f4 [8, 32, 3, 3]
00000000: 9e42 c93d 3c7b a83d 8b4d 38bc b2e8 a23d
00000010: 3c7a d63b 12c9 f9bc 0b4b a4bd 7044 8bba
00000020: b463 adbd a7ac 91bd 5261 bbbd 074e 083d
00000030: df8b 99bc 5e53 85bb bcd8 e13c f206 d53c
00000040: b4f2 a43d 47a1 763d 6ad6 1dbb f71e cfbd
00000050: 7548 c9bc 8c4b 073a 8a3d fdbb 5c2f 98bc
00000060: f7bc cb3c 3cc4 28bd e4ab aa3d e307 a5bd
00000070: fa6e abbd e6e7 fdbc cec4 b3ba 10e8 91bd
00000080: e2d7 463d b648 013c fb98 ab3c 49bb fd3d
00000090: b7e9 b3bd de5c 1bbd 40cf e13b 8165 35bd
000000a0: a5d2 3abc dd0a 3b3d 2b13 1b3d 190b 0c3d
000000b0: 56fb 103e 5b54 5f3d d06e f13d ef5f d43c
000000c0: d753 073d f8ef e03d 4631 62bd 423d 9ebd
000000d0: 6250 c8bb 2cb2 e7bd a862 be3d 9e41 7f3d
000000e0: 2990 bb3d 655f 57bc dedc 883d 4e13 40bd
000000f0: 3f3e fcbc c5ab 0c3d c9ea 24bd 1b30 2bbb
00000100: 5fc6 d93c 29cc c23b 8024 12bc fc35 53bc
00000110: 9a99 2abd 284c a5bd 59c4 3bbc 46f6 0dbd
00000120: d3ed c2bd b01a 00be a017 85bc a0ff 063c
00000130: 3691 533c 6527 a9bb b1d7 c63d 914b 1a3d
00000140: ee07 103e 3ab9 d0bd 0fca d7bd ab54 e13b
00000150: c905 17bb dc50 1cbc f629 c43c e197 3a3d
00000160: cbdb 83bc 5056 3f3d 7b62 a1bd 7b78 8fbd
00000170: 5358 2bbd 5e09 753b e95d 29bd 6992 1dbd
00000180: 71df 233d 0fcd 8a3d cc02 b53d 722d 3d3d
00000190: 5893 bb3d f3fa f9bc 1b5a aa3d 1213 dd3c
000001a0: e502 91bd ccfc 3dbd 4b30 b5bd 6390 efbd
000001b0: 5b8d 8abd af2d 15bd 6c0d 0bbd 5794 523b
000001c0: bedd c6bc 05f3 5a3d c056 3ebc a216 a03d
000001d0: 5c61 003e 9b4f 7abd 36c7 71bc fa85 653c
000001e0: 701c d03c 450c 3bbd 86a9 9e3d 051a 6cbc
000001f0: 9a69 e73c ffc8 b73d 4075 903d 46f1 003e
00000200: ca7f e13c 5fd8 833d e0ae aa3d 8919 ed39
00000210: bf86 86bd 68fa 1bbd 5ec7 c0bd a91c c23c
00000220: 05fa bb3c ce73 983d 0448 8e3d 789c 81bc
00000230: 1823 25bd d17a a63c ab3b 7fbd b4be 25bd
00000240: 461e 4b3d ad0d 8b3d 2cb6 383c 193a 503d
00000250: edf4 343d 2ddc 03bd 8f65 1fbd 73a4 69bc
00000260: 1873 973c e75e a73d f419 043d 384d 233d
00000270: cc58 943d 524a a23d 6077 8e3c d335 30bc
00000280: ed72 363c 11e0 f2bd 25bc f5bd da92 e7bd
00000290: ce9a 9e3b 4d5a 6bbd f976 e2bc c8a8 503d
000002a0: 7c4d 8d3c cf07 553d 89d9 733d b9cf 82bd
000002b0: ea20 91bb a667 253c cd61 56bd 785d 1f3c
000002c0: c527 0bbd d226 623d 17ab 1c3c 83fd 953c
000002d0: 86b3 98bd f0c6 ef3b 018c babb 906e 303c
000002e0: 39d9 7fbd ca4b 583d 5eb9 7bbc aa04 ac3d
000002f0: 02a5 b53c d20d 503b 0c03 033d 1041 56bd
00000300: c454 93bc 5fbd 153d 7c4b cbbb 9092 9cbd
00000310: a504 9abd 6dc0 b9bd 61be 893d 3c3a e23d
00000320: 6f25 57bb f92e 363c acb1 903d f29b 943c
00000330: fd19 0abc 4a77 1d3c 722b bfbb 4824 d0bd
00000340: 9245 8dbd 9ef7 38bd 40df ffbc 9026 cdbd
00000350: 1517 d7bc ea99 2dbc a8bb 063d b0c8 223d
00000360: 194a 363d fd21 483d 75c8 01bc 681e c43d
00000370: 5f63 393d 5e18 d1ba 4037 373d a737 2fbd
00000380: 041c febd 6e0a 35bb f225 fe3c e2cf 713d
00000390: dad5 76bd d872 d03c 56ae 3abd e5ba 58bb
000003a0: 03cd 53bd 41da 57bc b572 4d3d 5ea3 b53d
000003b0: 1154 6cbd a218 443c 77e1 37bc 44bb 51bd
000003c0: 6e13 00bd 1278 9abb e461 bebc 0fbf c93d
000003d0: a74a b63d c08a 833b c924 d83c 04d2 51bc
000003e0: 4fa9 61bc 9646 843c 3d26 c8bd 2bc3 fcbd
000003f0: f02d ff3c af7d b23d 3e25 11bd 0c37 dd3c
0.09827159 0.0822663 -0.011248956 0.07954539 0.006545333 -0.030491386 -0.08022126 -0.0010625254
-0.084662825 -0.07113009 -0.09149422 0.033277538 -0.018743454 -0.004068776 0.027569167 0.026004288
0.080541044 0.0602124 -0.00240841 -0.10113328 -0.024570683 0.00051610987 -0.0077282833 -0.01857727
0.024870379 -0.04120277 0.08333567 -0.08058145 -0.083707765 -0.030994367 -0.0013715269 -0.071243405
0.048545726 0.007890871 0.02094697 0.123892374 -0.08784812 -0.037930362 0.006891161 -0.044286255
-0.011402761 0.045664657 0.037860077 0.03419027 0.14158377 0.054523807 0.11788714 0.025924651
0.03303894 0.109832704 -0.055222772 -0.07726528 -0.006113098 -0.113132805 0.09296161 0.062318437
0.09158356 -0.013145302 0.06682752 -0.04689341 -0.0307914 0.0343435 -0.04026297 -0.0026121202
0.026583849 0.005944748 -0.008919835 -0.012891289 -0.041650392 -0.08071166 -0.011460387 -0.034658693
-0.095180176 -0.1251018 -0.016246617 0.008239657 0.012913039 -0.005162167 0.097091086 0.037669722
0.14065525 -0.10191579 -0.105365865 0.0068765483 -0.002304422 -0.009540763 0.02394579 0.045555
-0.016096016 0.046713173 -0.07880112 -0.07005402 -0.04183228 0.0037389616 -0.041349325 -0.038469706
0.040008012 0.06777393 0.08838424 0.04618592 0.09158963 -0.03051517 0.083179675 0.026986632
-0.0708063 -0.046383664 -0.08847102 -0.116974615 -0.06765243 -0.03642052 -0.033948347 0.0032131874
-0.024275657 0.053454418 -0.0116173625 0.07816817 0.1253714 -0.061111074 -0.014756968 0.014008993
0.025404185 -0.045665998 0.07747178 -0.0144105 0.028248597 0.08973884 0.07053614 0.12592039
0.027526755 0.06437754 0.08334136 0.00045223188 -0.065686695 -0.038080603 -0.09413026 0.023695307
0.022946367 0.07443963 0.0694733 -0.01582168 -0.04031667 0.020322235 -0.062312763 -0.04046507
0.049589418 0.06789718 0.011273902 0.050836656 0.044178892 -0.032192398 -0.038915213 -0.014260399
0.018487498 0.08172398 0.032251313 0.039868563 0.07243499 0.07924332 0.017390907 -0.01075502
0.011135799 -0.118591435 -0.11998776 -0.113073066 0.0048402315 -0.057459164 -0.027644621 0.050942212
0.017248861 0.0520094 0.05953363 -0.06387276 -0.0044289725 0.0100955125 -0.052339364 0.0097268745
-0.033973474 0.055212803 0.009562275 0.01830936 -0.074561164 0.0073174164 -0.0056929593 0.010768548
-0.06246302 0.052806653 -0.015364019 0.08399327 0.022173408 0.0031746519 0.031985328 -0.052308142
-0.017984755 0.03655755 -0.006204067 -0.07645142 -0.07520417 -0.090699054 0.06725765 0.110462636
-0.0032828709 0.011119598 0.07065138 0.018140767 -0.008429048 0.00961096 -0.0058340365 -0.1016317
-0.06898035 -0.04515802 -0.031234384 -0.10017121 -0.026256124 -0.010595778 0.032893807 0.03974217
0.04450426 0.04886054 -0.007921328 0.09576112 0.045260783 -0.0015952697 0.044730425 -0.042777684
-0.12407687 -0.0027624625 0.031023953 0.059036143 -0.06026254 0.025445387 -0.045576416 -0.0033070382
-0.051709186 -0.013174594 0.05015822 0.088690504 -0.05769736 0.011968764 -0.011223189 -0.05120398
-0.03126853 -0.0047140205 -0.023240037 0.09850895 0.089009576 0.004014343 0.026384728 -0.012806419
-0.0137732765 0.01614694 -0.097729184 -0.12341913 0.031149834 0.087153785 -0.035435908 0.027003787

conv4.bias f4 [8]
00000000: a82b 023d 727a 773d 757a c4bd fcce d53c
00000010: b828 08bd ef0e 623d 49b0 623d 3694 8dbd
0.031779915 0.060419507 -0.09593669 0.026099674 -0.033241957 0.055190023 0.0553439 -0.069130346

fc1.weight f4 [128, 1152]
00000000: 3084 74bd 21e5 99bc 663d 90bd f659 85bd
00000010: d9ee 563c aceb 2bbd 3759 30bd 85a0 80bb
00000020: 5102 92bd 8180 32bc 0fb6 01bd 9b56 32bd
00000030: 09a9 bbbc 66bf dabc 92b6 88bc 150a 3a3c
00000040: 7057 09bc 6527 aabc ec19 78bc 32ee 6cbd
00000050: a521 7cbd 27e6 9a3b dacc 90ba af8a f0bc
00000060: 7ea7 d53b 90dd 353c 7098 21bd 49db a13c
00000070: 64cc 2d3d a8b7 0fbb a99d 03bd 261d c0bd
00000080: dc6c bbbc b424 43bc ba0f 48bd c40e 90bc
00000090: f1ad 073b ecf6 6bbc 434e d6bc 83ea 433c
000000a0: 1c82 b8bc 10f0 7abd c35d 5bbc 032f 19bc
000000b0: 6613 46bd df31 afbd fb95 4fbd 2e12 afbc
000000c0: 5c47 02bc 1350 a5bc 3619 9f3b 855e a83c
000000d0: dc8e 6dbb c959 c83c 8db9 3fbd e5ad 033c
000000e0: 13ad 83bd beab 02be 5ff6 4cbd 482e 48bb
000000f0: a7e9 3ebd 0d9a 903a cf66 9fbc 46ef 02bd
00000100: 9e19 98bd 6d22 47bd c5ed ebbb 2a4d d73c
00000110: 7368 afbc f680 c5bc d5c6 103c 911a 70bd
00000120: e2d5 05bd 15f4 ee3c 054a bc3c c0de 5abd
00000130: 266e 6bbc a5ee 0cbd 98ea bbbd ba8e b3bd
00000140: d47e c4bc 9561 38bd de46 11bd 0b9f b73c
00000150: aa14 f2bb 88f7 c13c c671 a0bc 9697 cfbc
00000160: 9a40 023d 3959 883b 9508 3dbd 9715 21bc
00000170: 797c 783c 6af8 30bc fa3e acbd 16d2 85bc
00000180: 8ccb 15bd b8cb 623d 8031 da3c 0443 b9bc
00000190: c3de a43d b752 8ebd 6a03 723c fffc 293c
000001a0: 3d1c 4ebd 96c0 d23c ceba 94bd 0672 40bc
000001b0: 2400 273d d2c6 0d3d 0710 c2bc e586 2e3d
000001c0: 5d37 96bc 12d3 b1bd 01fd 133d 01ea 9d3c
000001d0: 94c6 0b3b 19e6 ac3c b501 893c 47df e23c
000001e0: 86ef 66bb 862e 4e3c e0a8 ecbc 2be0 823c
000001f0: a487 d3bc 431a 05bc 5bd0 e8bc 022f 95bc
00000200: 24d3 873c fe9d 893d 4bf3 9b3d 66af 2c3d
00000210: c655 833b 40c9 8cbc 50d0 51bd feae b7bc
00000220: 5ca4 09bd 0f49 c7bc 3431 2abd fb9e 0a3c
00000230: f39b 623d 80c8 8fbc b9aa 14bc b9ca 123d
00000240: 94dc e6bc c033 cd37 a9ef d8bc 944c e6bb
00000250: 82e1 413d 4e71 4bbc 5655 bbbb 3aef b23c
00000260: 14fe edbb a761 99b9 8476 3e3c 2b34 113d
00000270: bca7 ae3d 5c78 f9ba ebb9 b0bc 388f 953c
00000280: fe25 1d3d e2d1 68bc 8e43 8d3b 2384 7abd
00000290: f3f0 57bd 3713 0d3d 0e80 5f3c d38a 04bd
000002a0: 7d7f 3c3d ae66 64bc 3376 babc 3747 253c
000002b0: b0f6 f03c 6643 aebc 483f 42bc 0809 0ebd
000002c0: 6b96 90bd 3fa7 613c 2f3d 09bd d89d 2a3c
000002d0: 79d9 6b3c c179 cf3c 8f69 de3c 64e8 5dba
000002e0: 5013 5a3b 5998 ba3c 639d 89bb 72c3 ae3c
000002f0: 777e f1bc 5cc4 a3bd 7339 86bd 3dee 58bc
00000300: f6bf e9bc 63d7 a1bc cf5a 31bd 095d 2bbc
00000310: 7eeb 963c 3e4c 7a3c 4847 38bd 7e06 de3c
00000320: c693 943c 574c 13bc 1f61 e7ba 0fee dbbb
00000330: 4c8a 27bd 838a 933c ec30 1f3d cdeb 55bd
00000340: 09cb 8cbb cc95 ce3c 9d46 88ba df6a 58bd
00000350: e895 26bc b9d7 76bd f492 823a 3923 313c
00000360: 7827 0d38 82e8 643c 68e4 95ba 313b 87bb
00000370: f472 e53c 0b9f 2c3d c4c7 00bd e37d e5bc
00000380: ef5d 8b3c 6811 923c b4fc 55bd c41a 50bd
00000390: 1664 c8bc 16b6 1fba 6796 a83c 2b82 01bd
000003a0: 4294 853d 6ef4 c2bc 3522 86bb 0bfe 263d
000003b0: 35bc 60bb f551 1b3d 060c 27bd 6097 8cbc
000003c0: ccff e13c 5446 883d 16bb febc 811b c23c
000003d0: 9ba8 a83d 320e aebd 840e 023d 9c9c 353d
000003e0: 742c 9abd ce92 283d ce19 3a3d b865 73bc
000003f0: 3d57 943d 5628 a1bc 0471 33bd ece4 a53d
-0.059696376 -0.018786015 -0.07042961 -0.06511299 0.013118469 -0.0419728 -0.043053832 -0.0039253854
-0.07129348 -0.0108948955 -0.031667765 -0.043539625 -0.02290775 -0.026702594 -0.016688619 0.011354943
-0.008382663 -0.020770738 -0.015142899 -0.05784435 -0.061555523 0.0047271433 -0.0011047379 -0.029363004
0.0065202108 0.011100188 -0.039452016 0.019757884 0.04243125 -0.0021929536 -0.03213278 -0.093805596
-0.022879057 -0.011910606 -0.048843123 -0.017585166 0.0020703042 -0.0144021325 -0.026160365 0.011957767
-0.022522978 -0.061264098 -0.013389054 -0.009349587 -0.048358344 -0.08554434 -0.050680142 -0.021370973
-0.007951584 -0.020179784 0.0048553003 0.020552883 -0.003624848 0.024456875 -0.046807814 0.008037065
-0.06429496 -0.12760827 -0.050039645 -0.0030545164 -0.046609547 0.0011032239 -0.019458203 -0.03196647
-0.07426761 -0.048616815 -0.007199975 0.026281912 -0.02141211 -0.024109345 0.008836468 -0.058619086
-0.032674678 0.029169122 0.022984514 -0.053435087 -0.014369523 -0.034407277 -0.091756046 -0.08767457
-0.023986258 -0.045014936 -0.035467975 0.022414705 -0.0073877173 0.023677602 -0.019585501 -0.025340836
0.03179989 0.004161027 -0.046150763 -0.009831808 0.015166395 -0.010801414 -0.08410449 -0.016335528
-0.03657107 0.055370063 0.026634932 -0.022614963 0.08050301 -0.0694937 0.014771322 0.01037526
-0.0503199 0.025726598 -0.07262193 -0.011745935 0.04077162 0.034613438 -0.023689283 0.042609114
-0.018336946 -0.086828366 0.036129955 0.01927662 0.0021328079 0.021105813 0.016724447 0.027694358
-0.0035237982 0.012584334 -0.02888912 0.015976032 -0.025821514 -0.008123937 -0.028419664 -0.018210892
0.016580172 0.06719588 0.07614764 0.04215946 0.0040080277 -0.017185807 -0.051224053 -0.02242231
-0.03360401 -0.02432683 -0.04155083 0.008460755 0.055324506 -0.01755166 -0.009073907 0.035837863
-0.028181352 2.4462002e-05 -0.026481466 -0.007028172 0.0473342 -0.012417151 -0.00571696 0.021842588
-0.0072629545 -0.0002925519 0.011624936 0.035450142 0.085280865 -0.0019033062 -0.021573028 0.018256769
0.03836631 -0.014210196 0.0043110317 -0.06116117 -0.05272002 0.034442153 0.01364137 -0.032358956
0.04602002 -0.013940496 -0.02276144 0.01008778 0.029414505 -0.021272372 -0.011855908 -0.03467658
-0.0705994 0.013772785 -0.033505615 0.010413609 0.014395111 0.025326611 0.027149944 -0.000846511
0.0033275671 0.022777723 -0.00419967 0.02133343 -0.029479248 -0.07996437 -0.06553926 -0.013240394
-0.028533917 -0.019756025 -0.043299492 -0.010459193 0.018422838 0.015276967 -0.044989854 0.027102705
0.01813687 -0.008990369 -0.0017652846 -0.0067117284 -0.040903375 0.018010383 0.038865015 -0.05222683
-0.0042966646 0.025217913 -0.0010397021 -0.052836295 -0.010167576 -0.060264323 0.0009962008 0.01081162
3.3653778e-05 0.01397145 -0.0011435868 -0.004126929 0.028008915 0.042143863 -0.03144051 -0.028014129
0.017012564 0.017830566 -0.05224295 -0.050806776 -0.024461787 -0.00060925016 0.02057953 -0.03161828
0.065224186 -0.023798194 -0.0040934333 0.040769618 -0.0034291868 0.037919957 -0.04078295 -0.017162025
0.027587794 0.06654039 -0.031095069 0.023694756 0.08235284 -0.08498801 0.031752124 0.044338807
-0.0752801 0.04115563 0.045434766 -0.014855795 0.07243202 -0.019672554 -0.043808952 0.08100304

fc1.bias f4 [128]
00000000: 04c4 fe3b 02d5 4f3b 6dfa 10bd e9fb 433c
00000010: 2673 31bd 4102 3c3c 2d2c 2abd 7637 163b
00000020: 8723 3dbd b1ba 943c 2d6c 503c d8e3 00bd
00000030: 41f1 ddbc 35fc debb 9a6f 17bb a377 ae3c
00000040: db8b 73bb b4ce 3c3b bb4c cb3b dd85 d0bc
00000050: b2e2 69bc 9485 3c3c 12a2 80bc fea2 bbb9
00000060: e5f0 913c 7c96 b6bb 2c43 1dbc 22d5 213d
00000070: b885 093d 6729 12bd 5878 483c f6b3 febc
00000080: 166e 92bc fe7c febc 05ac cbbb afb3 81bc
00000090: 0169 9f3b 5af8 593c becc 0ebc fe12 df3a
000000a0: d1b5 f3bc f6c4 053d 5b1e d7bc 7628 8dbd
000000b0: b1b3 d6bc 684e 86bc e49a 8dbc 34ae 223c
000000c0: 88c3 f23b 4b93 473c 405b e8bc 54dd 0a3c
000000d0: 7c39 d63c 54c8 b23a 2259 9d3c 344f f6bc
000000e0: 29a5 0fbb bd3e 9dbc c2b8 bd3c dd8e ffbb
000000f0: cf24 d03c 3e11 02bd 9c43 193b 643c 1dbd
00000100: 358b a73b d678 6739 4be4 dfbb 8fa4 bcbb
00000110: 8336 ca3c e982 883c e4f2 a3bc 429b 50ba
00000120: af57 9bbc bc12 a23c 0531 053d 49ac 45bc
00000130: 0400 29bc 63f8 75bb d493 503c b94f 8ebc
00000140: f60d 473b 475e e83b a52f a4bc 5f80 e8bc
00000150: a0c9 893c 63e2 2abd 17bc 04bd e71c 7d3c
00000160: 7cc6 3bbd d399 933c c648 03bd e6bf 11bd
00000170: 898b c83b b62a 8dba 6ee1 b0bc 1848 c2bc
00000180: 7b83 23bd 5a55 4abd 01d4 073d d871 7f3b
00000190: c97a 173a 0020 9abb 3f52 47bd c6f9 1aba
000001a0: cdd0 703c 84ec 8a3c b11f 32bd 80a0 d83b
000001b0: 34eb e03b 3e2e 9dbc d533 36bd e93b 94bb
000001c0: 7734 0a3d fc3b 953c aa99 bf39 199c 40bc
000001d0: bdfc 28bd 9db2 be3c 7817 eabc bc2f eebc
000001e0: f445 6ebc 25a7 9abc c8eb 883b 8447 363d
000001f0: bea0 3abc 006e 52bc 873c ec3c 8975 98bc
0.0077748317 0.0031712656 -0.035395075 0.0119619155 -0.043322705 0.011475147 -0.041546036 0.002292124
-0.04617646 0.018155428 0.012721104 -0.03146729 -0.027092578 -0.0068049678 -0.0023107291 0.021297282
-0.0037162218 0.0028809728 0.0062042153 -0.025454456 -0.01427524 0.011506457 -0.015702281 -0.00035788858
0.017815063 -0.0055721384 -0.009598535 0.0395099 0.03357479 -0.035684016 0.012235723 -0.031091671
-0.017874759 -0.03106546 -0.0062155747 -0.01583275 0.0048648124 0.0133038405 -0.0087158065 0.001701921
-0.029749783 0.03265854 -0.026259592 -0.06892483 -0.02620873 -0.016394809 -0.017285772 0.009929229
0.007408563 0.0121811135 -0.028363824 0.00847562 0.026150458 0.0013640025 0.01920754 -0.030067064
-0.0021918511 -0.019194955 0.023159388 -0.007799013 0.025408177 -0.031754725 0.0023386246 -0.03838767
0.0051130303 0.00022074892 -0.0068326346 -0.0057569216 0.024684196 0.016663985 -0.02001328 -0.00079577055
-0.01896271 0.019784324 0.03251745 -0.012065002 -0.010314945 -0.0037532083 0.0127305575 -0.017372
0.0030373312 0.007091317 -0.02004225 -0.028381525 0.016819775 -0.041719805 -0.03240594 0.015448785
-0.045843586 0.018017685 -0.032051824 -0.0355834 0.0061201495 -0.0010770175 -0.021591868 -0.023716018
-0.03992031 -0.049397804 0.033161167 0.0038977768 0.0005778489 -0.0047035217 -0.04866242 -0.0005911853
0.0146982195 0.016958483 -0.043487255 0.00661093 0.006863976 -0.019187089 -0.044483025 -0.0045237434
0.03374144 0.01821708 0.00036544848 -0.011755967 -0.041256655 0.023278529 -0.028575644 -0.029075496
-0.014543045 -0.018878529 0.004178498 0.044501796 -0.011390863 -0.012843609 0.028837455 -0.018610733

fc2.weight f4 [5, 128]
00000000: b8e7 2cbe cbb3 31be c9a9 e2bd 7955 3cbe
00000010: a49d 23ba 3d82 a03d 7483 abbb d297 953d
00000020: e239 cdbd 1e1b b63b 24d3 00be 98c5 57bd
00000030: 2330 24be f9f3 fd3a b03e d7bd edb7 dbbc
00000040: 6d2f bd3d 2144 44be 03fb e5bd 75bc 4bbd
00000050: dac5 2c3c d62c d8bd 8b37 083e 1be7 a1bd
00000060: 4196 70be 74a7 b8bd 573c b7bd c8d5 97bd
00000070: 84b1 1abe b114 d53d 7011 303d 7e87 713d
00000080: fadd 993c e93d fcbc 8a04 2fbe 8f53 0a3d
00000090: efd0 ba3d 34f8 0f3e e647 ca3c bb10 433d
000000a0: 4a96 4ebe d05f 333d 0d65 cf3d f2cc bebc
000000b0: bbea 9d3c c6e2 50bd 102c 0b3b 8839 3a3c
000000c0: a972 66bc f584 ca3d ea0b 7dbd 4cc5 a83d
000000d0: eaf6 b53d dca1 27be 7868 a33d 416c ccbd
000000e0: 500c e03d ca24 28be 7649 e4bd 0c16 323d
000000f0: 51aa 11be be6b 80bd 8543 bf3d 4301 8c3d
00000100: e256 6d3d 4381 d03d 53d4 bb3b f819 a6bd
00000110: a7df a63d f5d2 fb3d 0d05 b93d f243 0bbe
00000120: 4f23 843d c37d 64be b16e a43d 7080 e63d
00000130: 608a dd3d 082c 0cbe 2d32 663d 6361 a1bd
00000140: 47be c9bd 5073 33be bbc2 15be 955a 2cbe
00000150: fdfc e33d 2b5e d73d 54e1 a93d 24ca a73d
00000160: 863c 0dbe a2d2 223d a815 40be 971a 6bbc
00000170: 8629 6d3d d21d b3bd 94e5 3f3d 7793 dabd
00000180: cd3f 86bd fe84 ac3d 96cb 11be ed2e d53c
00000190: 6f1b ffbd 5cf2 5bbc 6897 7dbd 0e13 43be
000001a0: 50af 5abe 1ccc 10be ab49 a6bd 2f7e 693d
000001b0: e0d2 89bc e24e ae3d 86b3 13bd 3ec7 70bd
000001c0: 0054 28be 7f4f f53c c3a7 b8bc adbd 873d
000001d0: 63cd dabd a148 cb3d 3012 42ba 91b7 ea3c
000001e0: 93f6 28be 8c27 3b3d 3bc7 10bd 5a62 463d
000001f0: 9ab4 bebb 693d b33d ff7d 12bb ef50 a33d
00000200: ec70 55bd 14a7 253d 1610 d23d 959b ef3c
00000210: c6f4 f1bd 92c9 c2bd 6577 1bbe c0ce 9ebd
00000220: a648 7e3d 0c19 24bc f394 ac3d a579 0abc
00000230: 76a2 c63d 83b4 303d 43f2 c8bd e1f9 703c
00000240: 0347 f8bd aa4a 2ebc 0025 94bd 1c30 cc3d
00000250: 1b3c e7bd c8fd 61bd c335 4f3d a661 0fbd
00000260: 4171 bdbd 0f82 c13d 70ea fd3d f25d dbbc
00000270: 63b1 403d 775d 0dbe f31e 2ebe 10a5 2abe
00000280: c294 2abd bdeb edbd 97ec a33d 9d8b 063d
00000290: 8948 07be 7daa 35be 177e 8c3d dc1d fabd
000002a0: 6ff5 8b3d 4500 c5bd 50bc 2e3d 4731 c43c
000002b0: f086 84bd 2efd abbc e810 8cbd f383 1d3c
000002c0: 2f02 8fbd a5c7 b33d dde0 973d c332 6d3d
000002d0: 3f24 f6bd 218d bf3b 19d7 b43c ff63 4e3c
000002e0: 0777 39bc b0f2 be3d 4032 8b3d e91b c8bd
000002f0: abe3 aa3b b45f 1b3d e850 c2bc 1c2c f1bc
00000300: 64f0 77bd dc48 383d 9686 4d3d 5b63 09be
00000310: 76a9 52bc 63ee 37be 6cf3 853c bade d43d
00000320: 44cb a43d cf9c 4f3d 2559 963d d2f6 893d
00000330: 926d 4ebd 3e44 e43d 4188 7d3d 8cbf 01be
00000340: d343 853d 52b7 743d cd4f a43d a68b 4ebd
00000350: 00f0 f1bd 2cd8 2b3d c3cb aebd 4b1d c6bd
00000360: f506 96bc a403 083b fe49 7cbd a7d0 843d
00000370: 3f5c 10bd 077b dc3c dcf3 babb 5352 0e3e
00000380: 1e06 703d a177 a13d 866d d93c c302 00be
00000390: df9f 91bd afaa ac3d 9769 ef3d 45e0 46bd
000003a0: eb81 07bd 15e7 f0bd 5195 9abc 2507 fabc
000003b0: 28af bc3c c0e0 5a3d 1382 46bd df42 f63c
000003c0: f986 87bd cdbf 03be ca8b 2f3d 184e 583d
000003d0: 1a02 6cbc eacc cdbd 1212 07bd 8376 0e3e
000003e0: effa de3c 238a de3d 0579 bfbd 2b70 f3bd
000003f0: 7a0b 01be 79fb f2bd 709e b7bd 96aa 063d
-0.16885269 -0.17353742 -0.1106754 -0.1839198 -0.0006241447 0.07837341 -0.0052341763 0.07304348
-0.10020806 0.005557432 -0.12580544 -0.052678674 -0.16033988 0.0019375078 -0.105100036 -0.026821101
0.092375614 -0.19166614 -0.11229517 -0.049740274 0.010545218 -0.10555427 0.13302438 -0.07905408
-0.23494817 -0.09016314 -0.08947056 -0.074138224 -0.1510678 0.10404337 0.04298538 0.058967106
0.018782604 -0.03079124 -0.17091575 0.033771094 0.09121882 0.14059526 0.024692487 0.047623377
-0.20174518 0.043792546 0.10126696 -0.023291085 0.019276967 -0.050997518 0.002123598 0.011366256
-0.014065423 0.09888641 -0.06177894 0.082407564 0.08884986 -0.16370338 0.0797891 -0.09981585
0.109398484 -0.16420284 -0.11146824 0.043478057 -0.14225127 -0.0627055 0.0933905 0.06836178
0.057944186 0.10180905 0.005732098 -0.08110422 0.08148127 0.12296096 0.090341665 -0.13600138
0.06452047 -0.223136 0.08028925 0.11254966 0.108174086 -0.13688672 0.056200195 -0.07879903
-0.09850746 -0.17524457 -0.14625065 -0.1683143 0.11132238 0.10516008 0.08294931 0.08192852
-0.13792619 0.039751656 -0.18758261 -0.014349601 0.057900928 -0.08745922 0.046849802 -0.10672658
-0.06555138 0.08423804 -0.14237818 0.026023353 -0.124564044 -0.013424482 -0.06191197 -0.19050238
-0.21355939 -0.14140362 -0.0811952 0.057005104 -0.016824186 0.085111395 -0.03605988 -0.058783762
-0.16438293 0.029945133 -0.022540933 0.06627975 -0.10683706 0.09925962 -0.0007403223 0.028651984
-0.1650031 0.04569201 -0.03534625 0.04843364 -0.005819869 0.087519474 -0.0022352932 0.07974421
-0.052109644 0.04044254 0.102569744 0.029248992 -0.11814265 -0.09511103 -0.15182264 -0.07754278
0.062081 -0.010015737 0.08426847 -0.008451854 0.09698956 0.0431409 -0.09811833 0.014708013
-0.121229194 -0.0106379185 -0.0723362 0.09970114 -0.11290761 -0.055173665 0.05058838 -0.035005234
-0.09250117 0.09448635 0.12398231 -0.026778195 0.04704417 -0.13805185 -0.17003994 -0.16664529
-0.041645773 -0.11617229 0.0800411 0.03284799 -0.13211264 -0.17740817 0.06859987 -0.122127265
0.06833922 -0.09619192 0.042660058 0.023949279 -0.0647105 -0.020994749 -0.06839162 0.009613979
-0.06982838 0.087783135 0.07415936 0.05790974 -0.12018632 0.0058456813 0.022075223 0.012597083
-0.011319882 0.09323633 0.06796694 -0.097709484 0.0052151284 0.037933066 -0.02372022 -0.029439978
-0.06053199 0.04499136 0.05017718 -0.13416807 -0.012857785 -0.17962031 0.016351424 0.10394044
0.08046582 0.050686654 0.07341222 0.0673653 -0.050397463 0.11145829 0.06189752 -0.12670726
0.06507077 0.05974514 0.08023033 -0.050426148 -0.118133545 0.041954204 -0.08534958 -0.09673556
-0.018313864 0.0020754123 -0.061594002 0.0648511 -0.035244223 0.026914133 -0.00570534 0.13898592
0.058599584 0.078841455 0.026541483 -0.12501054 -0.07110571 0.08430993 0.116900615 -0.048553724
-0.033082884 -0.117628254 -0.018870028 -0.030520985 0.02303274 0.053436995 -0.048463892 0.030061183
-0.06617541 -0.12866135 0.042857923 0.05280885 -0.014404798 -0.1004885 -0.032976218 0.13912396
0.027219264 0.10866191 -0.093492545 -0.11886629 -0.12602034 -0.11864371 -0.089657664 0.032877527

fc2.bias f4 [5]
00000000: 51be 143d 2137 893d 4a04 6b3c cef2 793c
00000010: 4519 a33d
0.036314312 0.06699968 0.014344284 0.015255643 0.07963804
