Trained_Weights/STRIDE 4/v4.1 15th.pth (torch, 681682 bytes, 12 tensors)

conv1.weight f4 [32, 1, 3, 3]
0	0x3e06893f	0.13138293
1	0xbe80ec23	-0.25180158
2	0xbe95dfca	-0.292723
3	0xbd2ec558	-0.04266867
4	0xbdef5d19	-0.11687679
5	0x3eb188b6	0.34674615
6	0x3e79337a	0.24336043
7	0xbe5fcb72	-0.21854952
8	0xbd35587d	-0.044273842
9	0x3e8ff06f	0.28113124
10	0x3ca1b5ad	0.01973995
11	0x3cb7908e	0.022407796
12	0x3e8784a3	0.2646838
13	0xbd0fdf16	-0.03512486
14	0x3e73f3e1	0.23823501
15	0x3d0d904f	0.03456145
16	0xbd2abd5c	-0.041684493
17	0x3e126ae3	0.14298587
18	0x3da0f587	0.078593306
19	0xbe206c37	-0.1566628
20	0xbc609f3c	-0.013709839
21	0x3e5b3729	0.2140776
22	0xbeb21aa6	-0.34785956
23	0x3e4f3128	0.20233595
24	0xbdc2d0c8	-0.09512478
25	0x3e28cd3e	0.16484544
26	0x3dd90eb5	0.10598508
27	0x3e6aece9	0.22941937
28	0x3dc16345	0.09442762
29	0x3e8483af	0.25881717
30	0xbe300eb5	-0.1719311
31	0xbe5f4ab7	-0.21805845
32	0xbe0bdf36	-0.13659367
33	0xbd33ff43	-0.04394461
34	0xbe991f41	-0.29906657
35	0x3dacbc39	0.08434338
36	0xbd21b497	-0.039478865
37	0x3cf4e030	0.029892057
38	0x3e6166ad	0.22011824
39	0xbdee9f98	-0.11651534
40	0x3e8f7308	0.2801745
41	0x3e93d9a7	0.28876993
42	0x3d14ed8e	0.036359362
43	0xbd33d793	-0.04390676
44	0xbe3dc07f	-0.18530463
45	0x3e9ab8c7	0.302191
46	0x3e9bb458	0.3041103
47	0xbd1d500c	-0.038406417
48	0x3e9a7e02	0.3017426
49	0xbe61ad0a	-0.22038665
50	0x3cac8a80	0.021062136
51	0x3d678974	0.05652757
52	0x3e54fc87	0.20799457
53	0xbdbe1600	-0.0928154
54	0xbeb3ad96	-0.35093373
55	0x3d6ee928	0.058327824
56	0xbdcb39a9	-0.09923107
57	0x3e188ab4	0.14896661
58	0xbe91a0bf	-0.28442952
59	0xbe4cfa5f	-0.20017384
60	0x3d143988	0.03618768
61	0x3e51eec4	0.20501238
62	0xbc766b9c	-0.0150403045
63	0xbd446220	-0.04794514
64	0xbdd01957	-0.10161083
65	0x3e5a7ba1	0.21336223
66	0xbe1919f0	-0.149513
67	0xbe1bbeec	-0.1520955
68	0x3db2eca4	0.08736542
69	0x3e1570c2	0.14593795
70	0x3e402488	0.18763936
71	0x3d1f1c05	0.03884508
72	0x3e7c2535	0.24623568
73	0xbdeb8ac1	-0.115010746
74	0xbe138b33	-0.14408569
75	0x3ea1af74	0.31579173
76	0xbd0c3d62	-0.034238227
77	0xbd731807	-0.059349086
78	0x3d8f96d9	0.07011194
79	0x3dbba2e7	0.091619305
80	0x3e4b135b	0.19831602
81	0x3e5415d2	0.20711449
82	0xbd5de7af	-0.05417603
83	0xbd961478	-0.07328123
84	0xbe184b43	-0.1487246
85	0x3d8484ca	0.0647064
86	0xbdb5a4ee	-0.088693485
87	0x3e532a56	0.20621619
88	0xbe7e0646	-0.2480708
89	0x3e2c881b	0.16848795
90	0xbd7c271b	-0.06156073
91	0x3e5a5fa7	0.21325551
92	0x3ca66d5e	0.020315822
93	0x3e88058f	0.2656674
94	0x3e5b5107	0.21417628
95	0xbe2c8f6c	-0.16851586
96	0xbe62d860	-0.22152853
97	0x3e6f02b4	0.23340875
98	0xbd625bfe	-0.05526351
99	0xbe9876f4	-0.29778254
100	0x3e5ce8c4	0.21573168
101	0xbeaa1ef1	-0.3322673
102	0xbce5fe07	-0.028075231
103	0x3e93b5b4	0.28849566
104	0x3e002719	0.12514915
105	0x3cf93fa8	0.030425861
106	0x3e73e2a1	0.23816921
107	0x3e2ac0ef	0.16675161
108	0x3d521bff	0.05129623
109	0x3e45c01c	0.19311565
110	0xbe82ad9e	-0.25523084
111	0xbe8ced1e	-0.27524656
112	0xbd94afb5	-0.07260076
113	0x3e345591	0.17610766
114	0xbeab7660	-0.3348875
115	0x3d94070e	0.07227908
116	0xbcaa21d7	-0.02076809
117	0xbea0a080	-0.31372452
118	0x3e785dbe	0.2425451
119	0xbd4d82a7	-0.050173428
120	0x3e146f30	0.1449554
121	0x3e1d71db	0.15375464
122	0xbeb01be4	-0.3439628
123	0xbde81583	-0.11332228
124	0xbc8adc32	-0.0169507
125	0xbe031ea4	-0.12804657
126	0xbe935a3e	-0.28779787
127	0xbd1ae915	-0.03781994
128	0x3e9e52df	0.309226
129	0x3d51d0c6	0.051224492
130	0x3e46cea0	0.19414759
131	0xbd9962e7	-0.07489567
132	0xbe7aa107	-0.2447549
133	0xbe6fa38c	-0.23402232
134	0xbe728530	-0.2368362
135	0x3e82deb6	0.2556054
136	0x3e078b25	0.13236673
137	0xbe918fcb	-0.28430018
138	0x3b6ccfda	0.0036134631
139	0xbd9fbb22	-0.077993646
140	0xbe16783e	-0.14694306
141	0x3e7da6cc	0.24770659
142	0xbe9529f5	-0.29133573
143	0xbe807860	-0.2509184
144	0x3e729965	0.23691328
145	0x3def9fd1	0.117004044
146	0x3bd20cf3	0.006410235
147	0xbebcb650	-0.36857843
148	0x3df8c28f	0.12146484
149	0xba171ea8	-0.0005764761
150	0x3cc75668	0.024333194
151	0xbe08df57	-0.13366447
152	0xbe17f709	-0.1484033
153	0xbe670f13	-0.22564344
154	0xbe3f26cb	-0.18667142
155	0xbd85b7d6	-0.065292045
156	0x3e49c637	0.19704519
157	0x3e4a9b26	0.19785747
158	0x3b8111be	0.0039388826
159	0xbe936dec	-0.287948
160	0x3e1583c9	0.14601053
161	0x3d359359	0.044329975
162	0xbe820651	-0.25395444
163	0x3e2ff1c0	0.17182064
164	0xbddb11f8	-0.10696787
165	0xbe230e6a	-0.15923467
166	0x3ab70fbe	0.0013966484
167	0xbd7570c4	-0.059921995
168	0x3e2b94a5	0.16755922
169	0x3e6878f7	0.22702394
170	0xbe2c3b7a	-0.16819564
171	0xbdbc9f3f	-0.09210061
172	0xbe8c4468	-0.2739594
173	0xbe92333e	-0.2855472
174	0xbe888246	-0.2666189
175	0x3dfa59fa	0.12224193
176	0xbe7c7706	-0.24654779
177	0xbdcea2da	-0.10089655
178	0xbe9194b7	-0.28433773
179	0xbd032a7b	-0.032022934
180	0xbe7cf16e	-0.24701473
181	0xbd9bbb2d	-0.0760406
182	0x3caed39b	0.021341136
183	0xbdec8129	-0.11548073
184	0x3ea5f14a	0.3241065
185	0xbe8528cb	-0.26007685
186	0x3ddd4b57	0.108053856
187	0xbe07b6bf	-0.13253306
188	0xbe5ae51f	-0.21376465
189	0x3d62e7b0	0.055396736
190	0x3d1c7b57	0.038203564
191	0xbe0a664a	-0.13515583
192	0x3e1b1881	0.15146066
193	0xbe05c895	-0.13064797
194	0x3d194804	0.037422195
195	0xbe086b0b	-0.13322084
196	0x3d414566	0.047185324
197	0xbdcc49d7	-0.09975021
198	0xbda8c056	-0.0823981
199	0xbca99a57	-0.020703478
200	0xbd4f9b8b	-0.050685447
201	0xbd096a06	-0.033548377
202	0x3e76f9cc	0.24118727
203	0xbe4862bd	-0.19568916
204	0xbe6793af	-0.2261493
205	0x3e531d7f	0.2061672
206	0xbc92d528	-0.017923906
207	0xbd007965	-0.03136577
208	0x3d8e17fa	0.06938167
209	0xbd853bc9	-0.06505544
210	0x3e8cf487	0.2753031
211	0xbea85ab6	-0.32881707
212	0xbd5f2537	-0.05447885
213	0x3e43af40	0.19109821
214	0xbe98218b	-0.2971309
215	0x3e660c12	0.22465542
216	0xbe744c76	-0.23857293
217	0x3e9ae4cd	0.30252686
218	0xbe13de00	-0.14440155
219	0x3e41611d	0.18884702
220	0x3e1e8bb3	0.15482979
221	0xbe91685e	-0.28399938
222	0x3c360ddd	0.011111704
223	0x3e6a924e	0.22907373
224	0x3e9b0dab	0.30283865
225	0x3dd0268b	0.101636015
226	0x3dcf6dbb	0.10128351
227	0xbe226678	-0.15859401
228	0xbe6eaca0	-0.23308039
229	0x3ccda91c	0.025105052
230	0xbe2a429d	-0.16626973
231	0xbd972c52	-0.073815
232	0xbda40215	-0.080082096
233	0xbe502f34	-0.20330507
234	0xbe235e6f	-0.15953992
235	0x3ea26d42	0.31723982
236	0xbe770011	-0.24121119
237	0x3df12f2a	0.11776574
238	0x3e25e2d6	0.16199812
239	0x3e9f1e5d	0.31077853
240	0xbe0e2055	-0.13879521
241	0x3e745a86	0.23862657
242	0xbe09efa8	-0.13470328
243	0x3d8ec7c4	0.06971696
244	0xbd736fdd	-0.059432853
245	0x3d7d2307	0.061800983
246	0xbe995f93	-0.2995573
247	0xbea05fa8	-0.3132298
248	0xbd34e112	-0.044159956
249	0x3e84eccb	0.2596191
250	0x3e73334b	0.23750035
251	0xbdff855e	-0.1247661
252	0xbd48fe83	-0.049070846
253	0x3ea2424b	0.31691203
254	0x3c2d27cf	0.010568573
255	0x3e19ec22	0.15031484

conv1.bias f4 [32]
0	0x3db06d04	0.08614543
1	0xbeb8c236	-0.3608567
2	0xbd26b1da	-0.040696956
3	0x3dbcd0cf	0.092195146
4	0xbe5ebbc3	-0.21751313
5	0xbeb6b962	-0.3568831
6	0x3e773c4d	0.24144097
7	0xbdc70fff	-0.09719848
8	0xbe997d1b	-0.2997826
9	0xbcb27f6b	-0.021789273
10	0xbe503c33	-0.20335464
11	0xbe2c2bb3	-0.16813545
12	0x3e7a1d45	0.24425228
13	0x3e4d0a3a	0.20023432
14	0x3e5ce2a9	0.21570839
15	0x3e38533a	0.18000498
16	0x3d77d89c	0.06050931
17	0x3dabd031	0.08389319
18	0x3daab7fd	0.08335874
19	0xbe87ae08	-0.26499963
20	0x3e518ff3	0.20465069
21	0x3d98e9a7	0.07466441
22	0x3d9c4f23	0.07632282
23	0x3c2fc1f8	0.010727398
24	0xbe9cd2dd	-0.30629626
25	0x3ea1dbe3	0.31613073
26	0xbe6079f6	-0.21921524
27	0x3daa88c4	0.08326867
28	0xbdc5bc6c	-0.09655079
29	0xbe0f96b8	-0.14022338
30	0x3e0ef096	0.13958964
31	0xbe6e12bb	-0.23249333

conv2.weight f4 [32, 32, 3, 3]
0	0xbc3acb0c	-0.011400949
1	0x3cc81be8	0.02442737
2	0xbd55ebb5	-0.05222674
3	0x3d4e7a83	0.050409805
4	0xbd2b9e80	-0.041899204
5	0x3d4fe3e2	0.050754435
6	0x3d42b15a	0.047532417
7	0x3caed4a7	0.021341635
8	0xbcbd11f4	-0.02307985
9	0xbd38b759	-0.04509673
10	0xbd80f4f0	-0.06296718
11	0xbd13d63f	-0.036092993
12	0xbd554c69	-0.052074824
13	0xbdab2c25	-0.08358029
14	0xbdc7e8bc	-0.097611874
15	0xbcc5c6ad	-0.024142588
16	0xbdb15d12	-0.0866033
17	0xbd9d579c	-0.07682726
18	0x3caf43fd	0.021394724
19	0xbc6f8a08	-0.014620312
20	0xbd6300f7	-0.055420842
21	0x3ac92a77	0.0015347739
22	0xbd2fe3ce	-0.04294186
23	0x3ca7f111	0.020500692
24	0x3cf74427	0.030183865
25	0x3c3ac40f	0.011399283
26	0xbd653733	-0.055960845
27	0x3cb71374	0.022348143
28	0x3d403ab0	0.04693097
29	0x3cdfd0ba	0.027321208
30	0x3c9dcdfd	0.019263262
31	0x3c85ac2d	0.016317451
32	0x3d105fd3	0.035247635
33	0xbcbb9c4f	-0.022901682
34	0xbd6093ea	-0.05482856
35	0x3c684968	0.014177658
36	0xbb997079	-0.0046825972
37	0xbc380f8e	-0.011234177
38	0xbd5d615a	-0.05404792
39	0xbca11b3a	-0.019666303
40	0xbd8aaef3	-0.0677165
41	0xbca371cd	-0.019951725
42	0xbc955cce	-0.01823273
43	0x3cc6616e	0.02421638
44	0x3d3e682c	0.046486065
45	0xbd276c30	-0.04087466
46	0xbdcdccf5	-0.10048858
47	0xbe13a0f9	-0.14416875
48	0xbdf81409	-0.121131964
49	0xbdc38bdc	-0.095481604
50	0xbdeed200	-0.11661148
51	0xbd979ae4	-0.0740259
52	0xbdc2bda8	-0.0950883
53	0xbe50ef66	-0.20403823
54	0x3cba14ef	0.02271506
55	0x3b26e51e	0.0025466154
56	0xbd3258f9	-0.043541882
57	0xbd13a79b	-0.036048513
58	0x3d3f139b	0.046649557
59	0x3d603069	0.054733668
60	0xbd12453b	-0.035710555
61	0x3d06ae4a	0.03288106
62	0x3d0a2462	0.033726104
63	0xbac6ca44	-0.0015166481
64	0xbd55d021	-0.05220044
65	0xbc3264f4	-0.010888327
66	0xbc17d92a	-0.009268085
67	0xbd1dbc55	-0.038509686
68	0x3c72ad73	0.014811861
69	0x3c87bf0f	0.016570596
70	0x3cbe24b3	0.023210859
71	0xbbe4ac18	-0.006978523
72	0x3ce62725	0.028094837
73	0xbd44df82	-0.048064716
74	0xbc82a7da	-0.015949178
75	0x3b2d4496	0.0026438585
76	0x3c0e82c8	0.008698173
77	0xbd1722d9	-0.036898468
78	0xbcb0024b	-0.021485468
79	0xbda2fe7c	-0.07958695
80	0xbdac45ac	-0.08411726
81	0x3cbd362f	0.023097126
82	0xbd2a14dd	-0.041523803
83	0x3d28aa72	0.041178174
84	0x3c012e93	0.007884639
85	0xbcefefd7	-0.02928917
86	0xbd74b93c	-0.059746966
87	0x3d974fb6	0.073882505
88	0x3d48818b	0.048951667
89	0x3cd7ee0f	0.026358632
90	0x3cff287f	0.03114724
91	0xbb28e244	-0.002576963
92	0xbb82c66c	-0.003990939
93	0xbca7c9f7	-0.020482047
94	0xbd9e5414	-0.077308804
95	0xbd84a16d	-0.06476102
96	0xbdb463fd	-0.08808134
97	0xbd90bd45	-0.0706735
98	0xbde636d2	-0.11240925
99	0xbca5644a	-0.020189423
100	0xbce38ed8	-0.027778074
101	0xbc5f0a3a	-0.013613278
102	0xbd529877	-0.051414933
103	0xbcc35233	-0.023842907
104	0xbc9a9ddb	-0.0188741
105	0xbd301b1d	-0.042994607
106	0xbd9d4f99	-0.07681198
107	0x3af504df	0.0018693468
108	0x3d43c5ab	0.047795933
109	0x3cf4de83	0.029891258
110	0x3c22c66f	0.009935006
111	0x3d343f79	0.044005845
112	0xbcbec2b8	-0.023286209
113	0xbb2bf49a	-0.0026238323
114	0x3d5562fc	0.052096352
115	0x3d1dbffc	0.03851317
116	0x3d5a39b9	0.053277705
117	0x3d595725	0.053061623
118	0x3ce91c54	0.02845589
119	0x3ba2a4ac	0.004963478
120	0x3d3678fd	0.044548977
121	0x3cf4fab7	0.029904706
122	0xbd3369c9	-0.043802056
123	0x3ce5bb79	0.028043495
124	0x3d0dcdb0	0.034619987
125	0xbd1b3737	-0.037894454
126	0xbc472506	-0.012154823
127	0x3dbe832a	0.09302361
128	0x3dc4a5ba	0.09601922
129	0x3934aa88	0.00017229666
130	0x3caa79b4	0.020809986
131	0x3dd7c02b	0.105347
132	0x3d3f81dc	0.046754703
133	0x3dd42558	0.10358685
134	0x3dabf404	0.08396152
135	0x3e3d81f2	0.18506601
136	0x3e3c509c	0.18390125
137	0x3cc29a3d	0.023755187
138	0x3e46060e	0.19338247
139	0x3dd258e9	0.102708645
140	0x3d00b026	0.03141799
141	0x3dfcb2a4	0.123387605
142	0x3dcfa0a6	0.10138063
143	0x3e07fd3f	0.132802
144	0x3d1fd527	0.039021637
145	0xbd2e7f6d	-0.04260199
146	0xbcd5b231	-0.026085945
147	0xbd4525bb	-0.048131686
148	0x3c4dd454	0.01256283
149	0x3d12670f	0.035742816
150	0xbd2a72c9	-0.041613374
151	0x3c459361	0.012059064
152	0xbd265738	-0.040610522
153	0xbd392b23	-0.045207154
154	0x3d62d80f	0.05538183
155	0x3d2df32b	0.04246823
156	0xbd264e40	-0.04060197
157	0xbd3ff6e6	-0.04686632
158	0x3cd5bbb2	0.026090477
159	0xbc1e9166	-0.00967822
160	0x3d050b7a	0.032481648
161	0x3cb2d9f5	0.021832446
162	0xbd14ae2d	-0.03629892
163	0xba991272	-0.0011678471
164	0x3cdb76f0	0.026790112
165	0xbc9f14fc	-0.019419186
166	0xbc586f6b	-0.013210158
167	0x3d678e80	0.056532383
168	0xbd1223fc	-0.03567885
169	0xbce50707	-0.027957452
170	0xbd60fbaa	-0.054927506
171	0xbc6f772d	-0.014615816
172	0x39a93e30	0.00032280525
173	0x3ce97cd5	0.028501907
174	0x3cf4c6f7	0.02988003
175	0x3beefd53	0.007293382
176	0xbcea1539	-0.028574573
177	0x3c6caf35	0.0144460695
178	0xbc3b327c	-0.011425611
179	0x3cc6311a	0.024193335
180	0x3d86522b	0.06558641
181	0x3b8a8a43	0.004227908
182	0x3cc9e3b7	0.024644716
183	0xbcbd8df5	-0.02313898
184	0x3d197d5e	0.037473075
185	0x3d3f55b7	0.046712603
186	0x3cf2c2ee	0.029633965
187	0x3d116ee2	0.035506137
188	0x3d8eabc3	0.06966355
189	0x3c543487	0.012951977
190	0x3d687ad0	0.056757748
191	0x3d1aa42c	0.037754223
192	0xbd28fcc4	-0.04125668
193	0x3ce99a41	0.028515937
194	0x3caf64c5	0.021410355
195	0xbd0b2320	-0.033969045
196	0x3d4aebf0	0.049541414
197	0x3d2f7458	0.042835563
198	0x3c81f274	0.015862681
199	0xbcdbe919	-0.026844548
200	0x3b8dfea1	0.0043333326
201	0xba70f405	-0.0009191635
202	0xbd219b74	-0.039454892
203	0x3cf7b18c	0.030236028
204	0xbad0a126	-0.0015917167
205	0xbc0dbba5	-0.008650695
206	0x3cc51c88	0.024061456
207	0x3d29e943	0.04148222
208	0xbce8a86e	-0.028400626
209	0x3c71adf3	0.014750945
210	0x3cd2b888	0.025722757
211	0x3ce92c0f	0.028463392
212	0xbc36212c	-0.011116307
213	0x3d9036ad	0.070416786
214	0x3ce2a7be	0.027667876
215	0xbd202951	-0.039101902
216	0x3cabeae9	0.020986037
217	0xbd4b1584	-0.049581066
218	0xbd2a067e	-0.041510098
219	0xbd68cd6e	-0.056836538
220	0xbd2b85b9	-0.041875575
221	0x3c0b1fd0	0.008491471
222	0xbd9b7e89	-0.07592494
223	0xbd765c56	-0.060146652
224	0x3cfaa798	0.030597493
225	0x3df9f5a4	0.12205055
226	0x3dae4d95	0.08510891
227	0x3dfbd2ef	0.12296092
228	0x3d865c94	0.065606266
229	0x3e4191ff	0.1890335
230	0x3dddd172	0.10830964
231	0x3e0f79fd	0.14011379
232	0x3e2238af	0.15841936
233	0x3da8ebd0	0.08248103
234	0xbc5bb2c2	-0.013409318
235	0x3d215ad4	0.03939326
236	0xbc3ef979	-0.011656159
237	0xbd163536	-0.03667184
238	0xbc549ae3	-0.012976381
239	0x3d26630a	0.040621795
240	0xbd2bc6a9	-0.041937504
241	0x3c36f23c	0.011166152
242	0xbd331e53	-0.04373009
243	0x3d1aca97	0.03779086
244	0xbd33d4ea	-0.043904223
245	0x3cd145ea	0.025546033
246	0x3bf237d5	0.0073919096
247	0x3cf73e00	0.030180931
248	0x3d494a84	0.04914333
249	0x3d185025	0.037185807
250	0xbcb40ef8	-0.021979794
251	0x3d3dbb7a	0.04632137
252	0xbc4b4858	-0.012407385
253	0x3c384e17	0.011249087
254	0xbd9b8807	-0.075943045
255	0xbc503a79	-0.0127092535

conv2.bias f4 [32]
0	0xbcfe2956	-0.03102557
1	0x3d480571	0.048833314
2	0x3cdf0968	0.027226165
3	0xbbb0c29d	-0.0053942935
4	0xbb6490b9	-0.00348763
5	0x3d751485	0.059834022
6	0xbd321651	-0.043478314
7	0x3c3865bb	0.011254723
8	0x3cef114d	0.029183054
9	0xbc4b8a25	-0.012423073
10	0xbd123820	-0.035698056
11	0xbc4330a8	-0.011913456
12	0xbd004bb2	-0.03132219
13	0x3c94429f	0.018098174
14	0x3b937c55	0.0045009055
15	0x3da2360a	0.079204634
16	0x3da64464	0.08118513
17	0xbd5c07e2	-0.053718455
18	0xbd785521	-0.06062806
19	0x3cc3ce12	0.023901973
20	0xbcf67976	-0.030087214
21	0xbb37b560	-0.0028031692
22	0xbd15110c	-0.03639321
23	0xbc5f412d	-0.013626379
24	0xbd90ce03	-0.070705436
25	0x3c89c00f	0.016815213
26	0xbd9a70b4	-0.07541028
27	0x3d2cf09b	0.042221647
28	0x3ac63c7d	0.0015124228
29	0xbcc2f3e8	-0.023797944
30	0x3caaa8f4	0.020832516
31	0xbd69507d	-0.056961525

conv3.weight f4 [32, 32, 3, 3]
0	0x3d2edf23	0.04269327
1	0x3bcfe94a	0.006344949
2	0x3ce7bbf8	0.028287873
3	0xbc9e4ac9	-0.01932277
4	0xbd263a4f	-0.04058295
5	0xbca97b72	-0.020688746
6	0x3d227d1a	0.039670087
7	0xbda9c34d	-0.08289204
8	0xbd8140c9	-0.06311185
9	0x3da91990	0.08256829
10	0xbcb66d22	-0.022268835
11	0x3d33d722	0.04390634
12	0xbd2f4144	-0.04278685
13	0xbdd72bb5	-0.10506383
14	0xbd5ffa40	-0.054682016
15	0x3d6115d0	0.054952443
16	0xbd494b14	-0.049143866
17	0x3cd056e6	0.025432061
18	0x3d7ebcd2	0.06219179
19	0x3d467aef	0.048457082
20	0x3d8c29d9	0.06843919
21	0xbd4a50a9	-0.04939333
22	0xbd8c6ff7	-0.06857293
23	0xbdc1d8c6	-0.094651744
24	0xbd11f2b2	-0.035631843
25	0xbc9d1fda	-0.019180227
26	0xbc658efa	-0.014011139
27	0xbbacb7fa	-0.005270955
28	0x3d5889f5	0.05286594
29	0xbd5ed146	-0.054398797
30	0x3d203844	0.03911616
31	0x3ba5fbd6	0.0050654216
32	0xbd08844f	-0.033329304
33	0xbcb4ff34	-0.022094347
34	0x3d1b6643	0.03793932
35	0xbc2daf4c	-0.010600876
36	0x3d85d364	0.0653446
37	0x3d60d57f	0.054891106
38	0xbd12b10c	-0.035813376
39	0x3d235de0	0.039884448
40	0xbd2f4dcf	-0.042798813
41	0xbc7473a8	-0.014920153
42	0xbcbac2b3	-0.022797918
43	0xbd3d0a2a	-0.04615227
44	0xbc932702	-0.017962936
45	0xbc2fae81	-0.010722757
46	0x3d0fe662	0.03513182
47	0xbab0037b	-0.0013428772
48	0x3d4af03d	0.049545515
49	0xbd4bd12f	-0.04976004
50	0xbd615d66	-0.055020712
51	0xbce1f895	-0.027584353
52	0xbde09fad	-0.10967956
53	0x3b789f63	0.0037936799
54	0xbd6026eb	-0.054724615
55	0xbc86585d	-0.016399557
56	0xbc6b2edd	-0.014354435
57	0x3a9f659c	0.0012161019
58	0xbb2ec2dc	-0.0026666438
59	0x3d81e4ba	0.06342454
60	0xbb849cde	-0.0040470203
61	0x3c4f851b	0.012666012
62	0x3d5626e6	0.05228319
63	0xbd8f8424	-0.07007626
64	0xbd4bb69d	-0.0497347
65	0xbdab3a23	-0.08360698
66	0x3d13534c	0.03596811
67	0x3da86581	0.08222485
68	0x3cea314c	0.02858796
69	0x3bcb74fe	0.006209015
70	0x3d572023	0.052520882
71	0x3d57cff7	0.052688565
72	0xbcab2b11	-0.02089456
73	0xbceb33e3	-0.028711265
74	0x3cfe471f	0.031039773
75	0xbc070e5b	-0.008243169
76	0xb88249fc	-6.212664e-05
77	0x3caedf1b	0.02134662
78	0xbba2abb6	-0.004964317
79	0xbd87f4a2	-0.06638457
80	0xbd09513d	-0.03352474
81	0x3d414526	0.047185086
82	0xbbd4e505	-0.006497028
83	0xbced16ba	-0.028941501
84	0xbc356f82	-0.011073949
85	0xbd8f70ac	-0.07003912
86	0xbd2ba25e	-0.041902892
87	0xbba34e73	-0.004983717
88	0xbdbbd321	-0.09171129
89	0x3cc04488	0.023470178
90	0x3d389460	0.045063376
91	0x3be093db	0.0068535632
92	0xbc85ec38	-0.01634799
93	0x3da2561e	0.07926582
94	0x3dd2341d	0.10263846
95	0x3d546fd6	0.051864468
96	0xbc96c1c8	-0.018402949
97	0x3dc303e8	0.095222294
98	0x3db935cb	0.09043463
99	0xbcc821ca	-0.024430174
100	0x3a4794a9	0.00076133996
101	0xbd701f34	-0.058623508
102	0x3d44942d	0.047992874
103	0x3d8cee0a	0.0688134
104	0x3db09359	0.08621854
105	0xbd20a957	-0.039223995
106	0x3dbea671	0.0930909
107	0x3d74a8e1	0.059731368
108	0xbd752aab	-0.059855144
109	0xbd074b1f	-0.033030625
110	0xbccde3e1	-0.025133075
111	0x3cab48f1	0.020908805
112	0x3dc11657	0.09428089
113	0x3d8c7801	0.068588264
114	0xbd3edb01	-0.046595577
115	0x3cd63162	0.026146594
116	0x3d25a0e6	0.040436648
117	0xbc3fd3e1	-0.011708231
118	0xbd83cfbe	-0.06436108
119	0x3c903e2f	0.017607776
120	0x3ca5e418	0.020250365
121	0x3c424ab6	0.011858633
122	0x3d9f8bb9	0.07790322
123	0x3d16ea53	0.036844563
124	0x3d8bcd4f	0.06826269
125	0x3c889baf	0.016675798
126	0xbd1141c3	-0.035463106
127	0xbc3966c9	-0.01131601
128	0x3a963d0b	0.0011462284
129	0xbd26149c	-0.040547
130	0x3cc58f6a	0.024116237
131	0xbc6ab895	-0.014326234
132	0xba6481aa	-0.0008716831
133	0xbc497db2	-0.0122980345
134	0x3cd5d4a3	0.02610237
135	0x3c060df9	0.008182042
136	0xbc6285a5	-0.013825809
137	0x3d5fb08d	0.05461173
138	0x3d09ef3a	0.03367541
139	0xbd4f08c0	-0.050545454
140	0x3c72bc48	0.014815398
141	0x3d19c976	0.037545644
142	0xbd1ed230	-0.03877467
143	0xbd3fca2c	-0.046823665
144	0xbcdde57f	-0.027086971
145	0xbd0e512c	-0.03474538
146	0xbd3457c8	-0.044029027
147	0xbd08392f	-0.03325766
148	0xbdbc94c7	-0.092080645
149	0xbc6eec0b	-0.014582644
150	0x3c6e011b	0.014526631
151	0xbdbdfa4c	-0.09276256
152	0xbda9d61e	-0.08292793
153	0xbcb4a608	-0.022051826
154	0x3b903c61	0.004401729
155	0xbcc366a0	-0.023852646
156	0xbc01917e	-0.007908223
157	0x3cb9e5e4	0.022692628
158	0xbc2c7e4f	-0.010528161
159	0xbd73639b	-0.059421163
160	0xbb3b2e3a	-0.0028561489
161	0x3cfcfb6e	0.03088161
162	0xbc88be28	-0.016692236
163	0xbc8ed725	-0.017436573
164	0xbc1960c9	-0.009361454
165	0x3d33424c	0.043764398
166	0x3bf4abe0	0.007466778
167	0xbd546efc	-0.051863655
168	0xbb2726cb	-0.00255053
169	0xbd0f3d96	-0.034970842
170	0xbc721c42	-0.014777245
171	0xbd5a9acb	-0.05337028
172	0x3c5400d0	0.012939647
173	0xbd467582	-0.048451908
174	0x3c9dc41f	0.019258557
175	0x3c0f0027	0.008728064
176	0xbd1d8ef5	-0.038466413
177	0xbd1a70a4	-0.03770508
178	0xbd8af8b1	-0.06785715
179	0xbc6d1942	-0.014471354
180	0x3d592599	0.05301437
181	0x3d3600aa	0.044434227
182	0x3b18320a	0.0023223185
183	0xbd4363c9	-0.047702584
184	0xbc6d1e14	-0.014472503
185	0x3cba731e	0.02275997
186	0xbc6d3e26	-0.014480149
187	0x3b8982e3	0.004196511
188	0xbc4608d6	-0.012087068
189	0xbd3b25bd	-0.045690287
190	0xbd3f01f3	-0.04663272
191	0x3d046e46	0.032331727
192	0x3cc825cc	0.024432085
193	0xbaa6237b	-0.0012675369
194	0xbca1b2b6	-0.019738536
195	0xbd5678c9	-0.052361283
196	0xbcb2bdd8	-0.02181904
197	0x3b06eb40	0.0020586997
198	0xbcda9bcb	-0.026685616
199	0xbcebda22	-0.028790537
200	0x3c483570	0.012219772
201	0xbcc599de	-0.024121221
202	0xbcf84fe5	-0.030311534
203	0xbcdce1b2	-0.026963089
204	0x3d974067	0.07385331
205	0xbc6dbab7	-0.014509848
206	0xbd25fbca	-0.040523328
207	0xbbf9b759	-0.0076207337
208	0xbce370f7	-0.027763827
209	0xb91cb7e9	-0.00014945831
210	0x3ca77720	0.020442545
211	0xbc3c71be	-0.011501728
212	0xbd114eb4	-0.035475448
213	0xbce33bc3	-0.027738458
214	0x3d8d6cfd	0.069055535
215	0x3d500776	0.050788365
216	0xbd87fc72	-0.06639947
217	0xbd83e516	-0.06440179
218	0xbd815cf3	-0.06316557
219	0xbcda9a85	-0.026685009
220	0x3e021579	0.12703504
221	0xbbd062d2	-0.0063594365
222	0x3d4d1cfc	0.05007647
223	0x3e008953	0.12552385
224	0xbbd6fa3d	-0.0065605924
225	0x3ce4035b	0.027833631
226	0x3cf38c1c	0.029729895
227	0x3c9818ea	0.018566567
228	0xbd0733f3	-0.033008527
229	0xbb03beea	-0.0020102807
230	0xbd9c9dd8	-0.07647294
231	0x3c96f21d	0.018425995
232	0xbcf9ab21	-0.030477108
233	0xbd9d8655	-0.076916374
234	0xbc07e2ba	-0.008293802
235	0x3d114934	0.035470203
236	0xbc146d70	-0.009059295
237	0xbcd85785	-0.02640892
238	0x3c37a8e1	0.011209697
239	0x3cc90ad0	0.024541289
240	0x3d3744af	0.044743236
241	0xbb934c5f	-0.004495188
242	0xbd82a4fa	-0.06379123
243	0x3d9464ca	0.072457865
244	0x3d21dc16	0.03951653
245	0x3d8fd238	0.07022518
246	0xbd2da94f	-0.042397793
247	0x3b8fdef9	0.004390594
248	0xbb52b3cc	-0.0032150624
249	0xbcdec412	-0.027193103
250	0xbd861d79	-0.0654859
251	0xbd9437db	-0.07237216
252	0x3b71491e	0.0036817263
253	0x3b1a2018	0.0023517665
254	0xbc3c214d	-0.011482549
255	0x3c80c621	0.015719475

conv3.bias f4 [32]
0	0x3c57307d	0.013134119
1	0xbd2e089e	-0.042488687
2	0x3cc3824c	0.023865841
3	0x3c10ff74	0.008849967
4	0xbd0ab5f5	-0.033864934
5	0x3d9fad12	0.077966824
6	0xbc1efd4e	-0.009703947
7	0x3cf49ba8	0.029859379
8	0x3d500f8c	0.050796077
9	0xbd93436e	-0.071905956
10	0xbd2c08e7	-0.042000677
11	0xbcc6297f	-0.024189709
12	0xbcb1c251	-0.021699103
13	0x3dec9522	0.11551882
14	0x3d4ac3b4	0.049503043
15	0x3da05d0b	0.078302465
16	0xbdb6d13f	-0.08926629
17	0x3d50216a	0.050813116
18	0x3c04bc17	0.008101485
19	0xbdca0f65	-0.098662175
20	0x3d075346	0.0330384
21	0x3d470c1c	0.048595533
22	0xbc469798	-0.012121104
23	0x3d36c114	0.044617727
24	0xbd310aac	-0.043223068
25	0x3d4de264	0.05026473
26	0xbd0beda9	-0.034162197
27	0xbcda130a	-0.026620407
28	0xbd57e95d	-0.052712787
29	0xbc2ca87a	-0.010538215
30	0xbc36fc4a	-0.011168549
31	0x3cad3635	0.021144012

conv4.weight f4 [8, 32, 3, 3]
0	0x3e029c74	0.12754995
1	0x3dd2a901	0.10286141
2	0xbb96bd6d	-0.004600218
3	0x3dc7413f	0.097292416
4	0xbb80c31e	-0.00392951
5	0xbd4515a7	-0.048116352
6	0xbdd285ee	-0.10279451
7	0xbd4f890c	-0.050667807
8	0xbdfac80f	-0.122451894
9	0xbdc40a84	-0.09572318
10	0xbdfd7ea7	-0.12377673
11	0x3cde0c38	0.027105436
12	0xbd2dd1d5	-0.04243644
13	0xbb9865bd	-0.0046508
14	0x3d573f72	0.05255074
15	0x3d49bdb2	0.049253173
16	0x3e0c35f7	0.13692461
17	0x3dd625d0	0.10456431
18	0xbd78caaf	-0.06074017
19	0xbdfb3ea3	-0.122678064
20	0xbd56f42c	-0.052478954
21	0xbcb76c48	-0.0223905
22	0xbbf52c10	-0.0074820593
23	0xbc12ffdd	-0.008972135
24	0x3c19e866	0.009393787
25	0xbc9e10ae	-0.019295063
26	0x3df8dee7	0.1215189
27	0xbdfc7b4c	-0.123282045
28	0xbdd7cc4a	-0.10537012
29	0xbd6950a0	-0.056961656
30	0xbcae28ea	-0.021259744
31	0xbd8114ce	-0.06302796
32	0x3d7b424d	0.061342526
33	0x3c080430	0.00830178
34	0x3d74fa41	0.059808973
35	0x3e2d1cbf	0.16905497
36	0xbdf7b812	-0.120956555
37	0xbd88b3a6	-0.0667489
38	0x3bbcb95b	0.005759401
39	0xbd89eda1	-0.06734777
40	0xbc02aeb3	-0.007976222
41	0x3d940393	0.07227244
42	0x3d488842	0.04895807
43	0x3d9dc74c	0.077040285
44	0x3e31a0eb	0.17346542
45	0x3df45472	0.11930169
46	0x3e207dd0	0.15672994
47	0x3d616d50	0.05503589
48	0x3da32d54	0.0796763
49	0x3e138350	0.1440556
50	0xbd5f562e	-0.054525547
51	0xbd429c64	-0.047512427
52	0xbc4b82a0	-0.01242128
53	0xbe21482b	-0.15750186
54	0x3e0e6dee	0.13909122
55	0x3d9ad014	0.07559219
56	0x3deeb1c6	0.11655001
57	0x3cd00891	0.02539471
58	0x3d8c12b0	0.06839502
59	0xbd483e61	-0.048887614
60	0xbd26c521	-0.04071534
61	0xbc36e87f	-0.01116383
62	0xbdc54178	-0.09631628
63	0x3c063ca5	0.00819317
64	0x3d0464d0	0.032322705
65	0xbc754487	-0.0149699515
66	0xbc93a649	-0.018023627
67	0xbd5473e7	-0.051868346
68	0xbd7695c9	-0.06020144
69	0xbe13419f	-0.14380501
70	0xbd9a3885	-0.075303115
71	0xbdebf0a3	-0.11520507
72	0xbe079bb6	-0.13242993
73	0xbe09d9e0	-0.13462019
74	0xbd1bc7b1	-0.038032237
75	0xbc2ede95	-0.010673185
76	0x3cc9d185	0.02463604
77	0x3c8a227d	0.016862148
78	0x3dd475f4	0.1037406
79	0x3da83792	0.08213724
80	0x3e4715ef	0.19441961
81	0xbe06a618	-0.13149297
82	0xbe09e0ab	-0.1346461
83	0x3b818b6c	0.003953388
84	0xbc764fc7	-0.015033669
85	0xbc4e8bb3	-0.012606549
86	0x3d057b33	0.032588195
87	0x3d8016ca	0.06254347
88	0x3be26b69	0.006909777
89	0x3d4e9272	0.05043263
90	0xbddd76b5	-0.10813657
91	0xbde0456d	-0.10950742
92	0xbd4e3657	-0.05034479
93	0xbc217489	-0.009854444
94	0xbd3caee6	-0.046065234
95	0xbcb16735	-0.021655658
96	0x3d81f8cc	0.06346282
97	0x3de15246	0.110020205
98	0x3dea1bb4	0.11431065
99	0x3d97108f	0.07376205
100	0x3dfb6f1f	0.12277054
101	0xbc5a1415	-0.013310452
102	0x3db981c8	0.09057957
103	0x3ca86887	0.020557655
104	0xbdb3bc48	-0.08776146
105	0xbd4d6622	-0.05014623
106	0xbe039d90	-0.12853074
107	0xbe1c37bb	-0.15255634
108	0xbdd7d247	-0.10538154
109	0xbd9bbbbb	-0.07604166
110	0xbd3903cc	-0.045169637
111	0xbc8de130	-0.017319292
112	0xbd0693d7	-0.032855835
113	0x3d6c0014	0.057617262
114	0xba384e32	-0.0007030695
115	0x3dd29367	0.10282021
116	0x3e08e760	0.13369513
117	0xbd8a10a2	-0.06741454
118	0xbc56e39e	-0.013115792
119	0xba20552d	-0.0006116208
120	0x3d0f2a68	0.03495255
121	0xbc8d364f	-0.01723781
122	0x3dcd60c6	0.10028224
123	0x3c0f9a5d	0.00876483
124	0x3d9bee32	0.076137915
125	0x3e118cb9	0.14213838
126	0x3dc534c8	0.09629208
127	0x3e14a8f5	0.14517577
128	0x3d329935	0.04360314
129	0x3dad3c62	0.08458783
130	0x3d9bcd67	0.07607537
131	0xbc87c1ec	-0.016571961
132	0xbdae90c4	-0.085237056
133	0xbdbb9cea	-0.09160788
134	0xbe132551	-0.14369704
135	0x3d8033d9	0.06259889
136	0x3d2edc12	0.042690344
137	0x3ded921d	0.116001345
138	0x3de52a74	0.11189738
139	0xbc0f0229	-0.008728542
140	0xbd13952a	-0.036030926
141	0x3ccf230e	0.02528527
142	0xbdba6cfd	-0.09102819
143	0xbda277d5	-0.079330124
144	0x3de4f23a	0.111790136
145	0x3dbeb569	0.09311945
146	0x3d3e7a11	0.04650313
147	0x3db60c7e	0.088891014
148	0x3d66d817	0.056358423
149	0xbceaae91	-0.028647693
150	0xbb12c149	-0.002239304
151	0xbc6f16aa	-0.014592806
152	0xbbf342ca	-0.0074237334
153	0x3df8465a	0.121227935
154	0x3d430f8e	0.047622256
155	0x3d57ccb8	0.05268547
156	0x3dc8d6e0	0.09806609
157	0x3d92664b	0.07148417
158	0xbb1a1b4f	-0.0023514812
159	0xbc9fbb2b	-0.019498428
160	0xbcff5395	-0.031167785
161	0xbe22fb4f	-0.15916179
162	0xbe1d1d0b	-0.1534311
163	0xbe15a21e	-0.14612624
164	0x3c868bd5	0.016424099
165	0xbd94a177	-0.072573595
166	0xbcc70eb4	-0.024299003
167	0x3d9808c3	0.07423546
168	0x3d357a8d	0.044306327
169	0x3dbd8a1e	0.092548594
170	0x3da5569c	0.0807316
171	0xbdcd1349	-0.10013444
172	0xbca18099	-0.01971464
173	0xbc9d5fb7	-0.01921068
174	0xbdad2c0e	-0.084556684
175	0x3c737859	0.014860236
176	0xbd02445e	-0.03180348
177	0x3d752502	0.059849747
178	0x3d47ba7d	0.048761833
179	0x3d7c11fd	0.061540592
180	0xbde5ad75	-0.11214725
181	0xbcfa9dbe	-0.030592795
182	0x3b9c2835	0.0047655352
183	0xbc2f1f91	-0.010688678
184	0xbd8d5d59	-0.0690257
185	0x3da352f1	0.07974804
186	0xba5a1894	-0.00083197025
187	0x3de70e5c	0.11282036
188	0x3d11c9a0	0.035592675
189	0x3d730373	0.05932946
190	0x3da07bcf	0.078361146
191	0xbcabd420	-0.020975173
192	0x3cd8f44f	0.026483683
193	0x3d59643d	0.05307411
194	0xbc2d80e3	-0.010589811
195	0xbda0af3a	-0.07845922
196	0xbdea009b	-0.11425897
197	0xbdf37251	-0.118870385
198	0x3db86885	0.090043105
199	0x3e01c12e	0.12671348
200	0x3ce766c4	0.028247245
201	0x3cd5a8ae	0.02608141
202	0x3d819a1d	0.06328223
203	0x3c5d9f53	0.013526755
204	0xbb494511	-0.0030711333
205	0xbcadadd3	-0.02120105
206	0xbd10e681	-0.035376076
207	0xbe18a49a	-0.1490654
208	0xbdab7e53	-0.08373704
209	0xbda57744	-0.08079389
210	0xbd61dae1	-0.05514038
211	0xbdc5042f	-0.096199386
212	0xbc94970c	-0.018138431
213	0xbcdc2630	-0.026873678
214	0x3d7666fa	0.0601568
215	0x3da58949	0.08082826
216	0x3db75e26	0.08953504
217	0x3d6ae4f8	0.057347268
218	0x3c9d27e2	0.019184057
219	0x3de5ea1b	0.11226293
220	0x3d00fb10	0.03148943
221	0xbc8d4610	-0.017245322
222	0x3d483ac1	0.048884157
223	0xbd9e82c2	-0.07739784
224	0xbe31c0cb	-0.17358701
225	0x3d304278	0.04303214
226	0x3d9a4180	0.075320244
227	0x3da78ea8	0.081815064
228	0xbcbc6d75	-0.023001412
229	0x3d849761	0.06474186
230	0xbd137e2f	-0.03600901
231	0x3c1fc05b	0.009750451
232	0xbd7b8e91	-0.06141526
233	0xbd6c9966	-0.05776348
234	0x3dace67b	0.08442398
235	0x3e0362ed	0.12830706
236	0xbda8b49c	-0.082375735
237	0x3c9bad42	0.019003514
238	0xbc8bfced	-0.017088378
239	0xbdafc001	-0.08581544
240	0xbd88f588	-0.06687456
241	0xbccf8856	-0.025333565
242	0xbc8ef7e9	-0.017452197
243	0x3e0f6072	0.14001635
244	0x3e063ccb	0.13109128
245	0x3cf023a9	0.02931388
246	0x3d346c8c	0.04404883
247	0xbb237ec1	-0.0024947377
248	0xbc924f3d	-0.01786005
249	0x3cbc2425	0.022966454
250	0xbdfb3bb0	-0.12267244
251	0xbe0d21cb	-0.13782422
252	0x3d49b574	0.049245313
253	0x3d98b375	0.07456104
254	0xbcc4f7ff	-0.024044035
255	0x3cc30a52	0.023808632

conv4.bias f4 [8]
0	0x3cd2bc05	0.02572442
1	0x3cc364a9	0.02385171
2	0xbdcbc6f0	-0.09950054
3	0x3c15fb20	0.009154111
4	0xbd7b5390	-0.06135899
5	0x3d0ac951	0.033883397
6	0x3ca2b40f	0.01986125
7	0xbd52dc01	-0.051479343

fc1.weight f4 [128, 1152]
0	0xbe1c3f5a	-0.15258542
1	0xbcb46bca	-0.022024054
2	0xbd94ba23	-0.07262065
3	0xbdc4bd8e	-0.09606467
4	0xbd0024a4	-0.031284943
5	0xbd615014	-0.05500801
6	0xbd122f7a	-0.03568981
7	0x3bbf9e47	0.0058477256
8	0xbde159dc	-0.110034674
9	0xbd0af521	-0.03392518
10	0xbd9ffb3d	-0.07811592
11	0xbdaa0ced	-0.08303247
12	0xbd8a7967	-0.06761437
13	0xbc6f3b8c	-0.014601599
14	0xbd271105	-0.040787715
15	0x3d2e5921	0.04256547
16	0xbd581cd7	-0.05276188
17	0xbc6aa167	-0.014320708
18	0xbba0d87d	-0.00490862
19	0xbdde4b7f	-0.108542435
20	0xbdcc4e2f	-0.0997585
21	0xbd0760f1	-0.033051435
22	0xbd4ce982	-0.050027378
23	0xbd87b0dd	-0.06625531
24	0x3cd312c2	0.02576578
25	0xbcd6991c	-0.026196055
26	0xbda5e653	-0.081005715
27	0xbc9607ed	-0.018314326
28	0x3c3b4076	0.011428943
29	0x3cf96366	0.030442905
30	0xbc8937df	-0.016750274
31	0xbe2b9fed	-0.16760226
32	0xbce47e89	-0.027892368
33	0x3bee585e	0.007273718
34	0xbdcef6b8	-0.101056516
35	0xbd040964	-0.032235518
36	0xbc2ee9dc	-0.010675874
37	0x3c923699	0.0178483
38	0xb991102d	-0.00027668607
39	0x3d0bc07d	0.034119118
40	0xbc9fae8b	-0.019492408
41	0xbd813ff1	-0.06311024
42	0xbcd6647d	-0.026170963
43	0xbba06979	-0.004895386
44	0xbd272666	-0.040808104
45	0xbdd09581	-0.101847656
46	0xbd82de03	-0.063900016
47	0xbd1cef1f	-0.03831398
48	0xbd06eec5	-0.032942552
49	0x3c3b96fb	0.011449571
50	0x3c92076c	0.017825805
51	0x3d42dfc4	0.04757668
52	0x3c04bf46	0.008102244
53	0x3d1e604c	0.038666055
54	0xbdad4ba4	-0.08461693
55	0x3b2bb5ad	0.0026200817
56	0xbd90f377	-0.07077687
57	0xbe0e523d	-0.13898559
58	0xbd6c13df	-0.057636138
59	0xbba25036	-0.0049534095
60	0xbd8133d7	-0.06308716
61	0x3d08209a	0.033234216
62	0xbd4e88b4	-0.05042334
63	0xbd3833a1	-0.044971112
64	0xbdd7238f	-0.10504829
65	0xbd35df6a	-0.044402517
66	0xbd2b6cb0	-0.0418517
67	0x3c24d93a	0.0100615565
68	0xbd4f8c53	-0.050670933
69	0x3c8d6843	0.01726163
70	0x3d603e0a	0.054746665
71	0xbdbd6fa8	-0.09249812
72	0xbc4df473	-0.012570488
73	0x3d8fa044	0.0701299
74	0x3d3b6efc	0.04576014
75	0xbd7df4d0	-0.06200105
76	0xbc83d8da	-0.016094614
77	0xbcd818a5	-0.026378939
78	0xbde139fd	-0.109973885
79	0xbdfaed0a	-0.12252243
80	0xbd140780	-0.036139965
81	0xbdb71138	-0.08938831
82	0xbdb90482	-0.09034063
83	0xbcaf2333	-0.021379089
84	0x3cf9a888	0.03047587
85	0x3d4a3f31	0.04937667
86	0xbd5f30db	-0.05448995
87	0x3c86963a	0.016429055
88	0x3d0bc60e	0.034124427
89	0x3d0ad6ab	0.03389613
90	0xbc79fd63	-0.015258166
91	0xbcf362b8	-0.029710159
92	0xbc2585ff	-0.010102748
93	0x3d0e0263	0.034670245
94	0xbd99b9f7	-0.07506173
95	0xbcbc1c78	-0.022962794
96	0xbd307ce4	-0.043087855
97	0x3d316f86	0.043319248
98	0x3d70d3b6	0.058795653
99	0xbd2c3d27	-0.042050507
100	0x3db3e563	0.087839864
101	0xbd2fb7e1	-0.04289997
102	0x3d598b38	0.053111285
103	0xbbba255a	-0.005680722
104	0xbdcb8d52	-0.09939064
105	0x3d5d07da	0.053962566
106	0xbdc41809	-0.09574897
107	0x3d3c543c	0.04597877
108	0x3cc283fc	0.023744576
109	0x3c961722	0.018321577
110	0xbd3e1481	-0.046406273
111	0x3d32db20	0.043666005
112	0x3be4be2c	0.006980678
113	0xbd9eebd2	-0.07759823
114	0x3dadaae1	0.08479858
115	0x3d88d116	0.06680505
116	0xbc820bfe	-0.015874859
117	0x3c06109d	0.008182672
118	0xbd199063	-0.037491214
119	0x3d02a034	0.031891063
120	0x3ca4f1ec	0.020134889
121	0x3ca5099b	0.020146182
122	0xbd2f9a89	-0.042871986
123	0x3d814cb6	0.063134596
124	0xbd45422b	-0.048158806
125	0x3d21c6b8	0.039496154
126	0x3cfac685	0.03061224
127	0xbcd2b66b	-0.02572175
128	0xbc35b81a	-0.0110912565
129	0x3db55ce6	0.088556096
130	0x3ddbc906	0.107317016
131	0x3d59b774	0.05315347
132	0xbc6c0eda	-0.014407838
133	0xbd6b073e	-0.057379954
134	0xbd9a7c05	-0.07543186
135	0xbd573d18	-0.052548498
136	0xbdcc9954	-0.099901825
137	0xbcf2c932	-0.029636953
138	0xbd5f3b24	-0.05449976
139	0xbb214c50	-0.0024612136
140	0x3d5e9a12	0.05434615
141	0x3d1a4ce2	0.037670977
142	0x3cbc3541	0.022974612
143	0x3d8455d4	0.06461683
144	0xbda89ddd	-0.08233235
145	0xbc205e91	-0.009788171
146	0xbd2bb00f	-0.04191595
147	0x3bd0b747	0.0063695046
148	0x3b751d02	0.0037401323
149	0xbcf8b353	-0.030358946
150	0x3c9974ac	0.018732391
151	0xbcffb357	-0.031213446
152	0xbc5f2cd4	-0.013621528
153	0xbb73d5c4	-0.0037206272
154	0xbd1576be	-0.036490194
155	0x3c90fe87	0.017699493
156	0x3de8b8d7	0.113633804
157	0x3ccf7c93	0.025327956
158	0xbda7ac1c	-0.08187124
159	0x3c3c87f3	0.011507022
160	0x3baf0219	0.005340826
161	0xbc4c386f	-0.012464627
162	0x3cb615ef	0.022227256
163	0xbdc251aa	-0.094882324
164	0xbd482bab	-0.04886977
165	0x3d242d4a	0.040082254
166	0x3c5eb264	0.013592336
167	0xbd80cfeb	-0.06289657
168	0x3d190c71	0.03736538
169	0xbc02346c	-0.007947069
170	0x3ba93ab5	0.005164469
171	0x3ccfbcf3	0.025358653
172	0x3d02d823	0.031944405
173	0x3cadf602	0.02123547
174	0xbc784df9	-0.015155309
175	0xbd929f35	-0.071592726
176	0xbd8e21e8	-0.06940061
177	0x3c825ff3	0.015914893
178	0xbcd160c8	-0.025558844
179	0x3cde4056	0.027130287
180	0xbd2b8bf1	-0.041881505
181	0x3d043f06	0.032286666
182	0x3d083658	0.03325495
183	0x3caf6392	0.021409784
184	0x3b90f6b8	0.0044239424
185	0x3d56ab4e	0.052409463
186	0xbcf9cc97	-0.030493064
187	0xbd12b90f	-0.035821017
188	0xbcab756a	-0.02093001
189	0xbd4d971c	-0.050192937
190	0xbda4aa4c	-0.08040294
191	0x3d19b2ce	0.037524037
192	0xbdc3857b	-0.09546944
193	0xbc9ee86d	-0.019397939
194	0xbd8a8e2a	-0.06765397
195	0xbbe792f7	-0.00706708
196	0xbc4f307b	-0.012645836
197	0x3cf36e41	0.02971566
198	0xbd99124b	-0.07474192
199	0xba432844	-0.000744466
200	0xbca36f83	-0.019950634
201	0xbb800ad9	-0.003907543
202	0x3d48679d	0.04892694
203	0x3c9fdf2c	0.019515596
204	0xbd762077	-0.060089555
205	0x3d3d1aec	0.046168253
206	0x3d8771b4	0.06613484
207	0xbda1b8ba	-0.07896562
208	0x3d56ccfe	0.05244159
209	0x3cc3f142	0.023918752
210	0xbc620c6c	-0.013796907
211	0xbddb6814	-0.10713211
212	0xbc8ead5e	-0.017416652
213	0xbd10b501	-0.03532887
214	0xbc8af84d	-0.016964102
215	0xbc7c249e	-0.01538959
216	0x3d254a49	0.040354047
217	0x3d5781a9	0.052613888
218	0xbd0f9449	-0.035053525
219	0xbc1e7561	-0.00967154
220	0x3c912419	0.017717408
221	0x3ddb3ff9	0.10705561
222	0xbcc797bf	-0.02436435
223	0xbd5bb7c2	-0.053642042
224	0xbc07e8d8	-0.00829526
225	0x3cf66573	0.030077672
226	0xbd4e2b7f	-0.05033445
227	0xbd8b44d0	-0.06800234
228	0x3c27bab3	0.010237384
229	0x3c5935a1	0.013257415
230	0x3c8a3f27	0.016875817
231	0xbcbfccde	-0.023413118
232	0x3d8f3692	0.0699283
233	0x398a907b	0.00026429057
234	0xbbe1fcd4	-0.0068965945
235	0x3d289947	0.0411618
236	0xbd30e954	-0.04319127
237	0x3d7f185c	0.06227909
238	0xbcfd1663	-0.030894464
239	0x3d459a92	0.048243113
240	0x3bd75d80	0.0065724254
241	0x3d00797c	0.031365857
242	0xbc7b84d9	-0.015351498
243	0xbc67ff9f	-0.014160066
244	0x3d5bf919	0.053704355
245	0xbdb84ed0	-0.08999407
246	0x3d2d6249	0.04233006
247	0x3d4b7576	0.049672566
248	0xbe006172	-0.12537172
249	0x3d5e3515	0.05424984
250	0x3d45d58d	0.04829936
251	0xbcb4e573	-0.022082066
252	0x3d92ee13	0.07174315
253	0xbc9f694d	-0.019459391
254	0xbd4f4378	-0.050601453
255	0x3dc0b555	0.09409586

fc1.bias f4 [128]
0	0x3c34a04c	0.011024546
1	0xbcbd94ae	-0.023142185
2	0xbd568612	-0.052373953
3	0x3c2de741	0.010614217
4	0xbd7ed637	-0.06221601
5	0xbb43b889	-0.002986463
6	0xbd7b9683	-0.061422836
7	0xbc0f6239	-0.008751445
8	0xbd98f7c4	-0.074691325
9	0x3c936a58	0.017995045
10	0x3867035c	5.507782e-05
11	0xbce0385b	-0.027370622
12	0xbd3a4ee9	-0.04548541
13	0xbcac103d	-0.021003837
14	0xbcab4972	-0.020909045
15	0x3b6d3e09	0.0036200306
16	0xba90f59c	-0.0011059525
17	0xbc3958a9	-0.011312642
18	0xbccb8328	-0.024842814
19	0xbd2bfdfc	-0.041990265
20	0xbc96d0d5	-0.018410126
21	0x3c1f2f45	0.00971586
22	0xbd0daa7d	-0.03458642
23	0x3d398be2	0.04529942
24	0x3c45fc29	0.012084045
25	0xbc97a1b3	-0.018509721
26	0xbcf2f348	-0.029657021
27	0x3d036bfe	0.03208541
28	0x3cfed764	0.031108566
29	0xbd6834e0	-0.05669105
30	0xbb0b9c41	-0.0021302851
31	0xbd18181c	-0.037132367
32	0xbd082cd9	-0.033245895
33	0xbd438e02	-0.04774285
34	0xbac77a91	-0.0015219023
35	0xbb4eadf3	-0.0031536787
36	0x3b95993b	0.0045653856
37	0xbb9ae210	-0.004726656
38	0x3c2d33a0	0.01057139
39	0xbc55995b	-0.013037051
40	0xbd447c0c	-0.047969863
41	0x3d03dffc	0.03219603
42	0xbd66c958	-0.05634436
43	0xbdfefcdf	-0.12450575
44	0xbd37d575	-0.044881303
45	0xbc5fd793	-0.013662237
46	0xbd13a456	-0.036045395
47	0x3c2f5bd7	0.010703049
48	0xbc1f9307	-0.009739644
49	0xbc0f6c9c	-0.008753922
50	0xbc1feb89	-0.009760746
51	0x3c03ab4e	0.008036448
52	0x3b6993d6	0.0035641096
53	0x3a9f4705	0.0012151903
54	0x3d0572bd	0.032580126
55	0xbd033a9a	-0.03203831
56	0xbb29cc0c	-0.0025908975
57	0xbd40a83e	-0.04703545
58	0xbb877ace	-0.0041345125
59	0x3c259077	0.010105244
60	0xbc3a38e7	-0.011366106
61	0xbd1ade2c	-0.037809536
62	0x3bdbc406	0.0067067174
63	0xbd8729ed	-0.065997936
64	0xbcebce88	-0.028785005
65	0xbc5b827f	-0.013397812
66	0x3c1099a8	0.008825697
67	0xbd1285f1	-0.035772268
68	0x3d0aa8bf	0.033852335
69	0x3c54711e	0.012966422
70	0x3c141d41	0.009040178
71	0xbccf2ecb	-0.025290867
72	0xbd840450	-0.06446135
73	0x3d1e2ffc	0.03861998
74	0x3c9d9fe6	0.019241285
75	0xbce2442b	-0.027620396
76	0xbd1f8b8a	-0.038951434
77	0xbc49e452	-0.012322502
78	0x3b745bf4	0.0037286254
79	0xbc2f3073	-0.010692704
80	0xbc6c7a5c	-0.01443347
81	0x3c0bade2	0.008525344
82	0xbd3f7fe9	-0.046752844
83	0xbd48b5c2	-0.049001463
84	0x3bd665a5	0.0065428787
85	0xbd9aab00	-0.07552147
86	0xbc202642	-0.009774746
87	0xbc92b96e	-0.017910685
88	0xbd9e4ea3	-0.077298425
89	0x3ca540db	0.020172527
90	0xbd6f93cd	-0.058490563
91	0xbd8c8950	-0.06862128
92	0xbc9ccb6a	-0.019139964
93	0xbd19b9f4	-0.037530854
94	0xbd257904	-0.040398613
95	0xbd1c78e4	-0.038201228
96	0xbd43796f	-0.04772323
97	0xbd94033a	-0.07227178
98	0x3d040b51	0.032237355
99	0xbbb4e19c	-0.005520059
100	0xbbfa8218	-0.007644903
101	0xbb16a774	-0.0022987993
102	0xbd889982	-0.06669904
103	0xbc1d6ede	-0.009608952
104	0xbc4ca7cd	-0.012491179
105	0xbc93f6a0	-0.018061936
106	0xbd218739	-0.0394356
107	0x3c2bdc9e	0.010489611
108	0xbc4b310f	-0.012401833
109	0xbbae9f10	-0.0053290203
110	0xbda625c8	-0.08112675
111	0xbcbb4b06	-0.022862922
112	0x3d194b52	0.037425347
113	0xba90cd71	-0.0011047554
114	0xbd6cae77	-0.05778357
115	0x3c468285	0.012116079
116	0xbd1693db	-0.0367621
117	0x3ca12e13	0.01967529
118	0xbd451c5f	-0.04812276
119	0xbd3e06a4	-0.04639305
120	0xbcb520e6	-0.022110414
121	0xbd8c7476	-0.06858151
122	0xbc06c05c	-0.008224573
123	0x3d33978b	0.043845695
124	0xbc5b0f71	-0.013370381
125	0xbcf7fb21	-0.030271115
126	0x3ca1cb2d	0.019750202
127	0xbd18c931	-0.037301246

fc2.weight f4 [5, 128]
0	0xbe7d8c6c	-0.24760598
1	0xbe7bbb32	-0.24583128
2	0xbe086c83	-0.13322644
3	0xbe5d6ec9	-0.21624292
4	0x3ceef567	0.029169751
5	0x3df170c8	0.117890894
6	0xbc97bf88	-0.018523946
7	0x3d9c145f	0.07621073
8	0xbe20541e	-0.15657088
9	0x3b678b2f	0.0035330763
10	0xbe325128	-0.17413771
11	0xbddf0f7f	-0.108916275
12	0xbe5c4504	-0.21510702
13	0x3b45099f	0.003006555
14	0xbde477c6	-0.111556575
15	0xbd0108d0	-0.031502545
16	0x3deadaba	0.114675
17	0xbe8dbb36	-0.27681893
18	0xbe0781fe	-0.13233182
19	0xbdbd3137	-0.092379026
20	0x3cc6d407	0.024271024
21	0xbe3d03d6	-0.18458495
22	0x3e32357a	0.17403212
23	0xbdde1a14	-0.10844818
24	0xbe92f62b	-0.28703436
25	0xbdedb261	-0.11606289
26	0xbe0de640	-0.13857365
27	0xbe0856ac	-0.13314313
28	0xbe7b62ce	-0.2454941
29	0x3e219c1f	0.15782212
30	0x3d53ecd9	0.051739547
31	0x3d557ab9	0.05211899
32	0x3c35f86a	0.01110659
33	0xbd2558b8	-0.040367812
34	0xbe75cc7e	-0.24003789
35	0x3d5c3727	0.053763535
36	0x3deb190d	0.114793874
37	0x3e1ed4cd	0.15510865
38	0x3d082b7e	0.033244602
39	0x3d92ba4b	0.07164439
40	0xbe915081	-0.28381732
41	0x3cfebcfa	0.03109597
42	0x3e025e32	0.12731245
43	0xbd498c8c	-0.0492063
44	0x3cfd2b04	0.0309043
45	0xbdccfdd6	-0.10009353
46	0x3c9a0305	0.018800268
47	0x3ccd40aa	0.025055248
48	0xbb5294d6	-0.003213217
49	0x3dad8335	0.084722914
50	0xbd8fc576	-0.070200846
51	0x3dbf096f	0.09327971
52	0x3dc72b1b	0.097250186
53	0xbe483827	-0.1955267
54	0x3d89f5db	0.06736346
55	0xbe18cd95	-0.14922173
56	0x3e0d9fd1	0.13830496
57	0xbe8320bc	-0.25610912
58	0xbe2b4369	-0.16724934
59	0x3d998ed5	0.07497946
60	0xbe564b64	-0.20927197
61	0xbdb1b769	-0.08677561
62	0x3df7ad62	0.12093617
63	0x3d8f36ae	0.06992851
64	0x3d9387f9	0.07203669
65	0x3de1b633	0.1102108
66	0x3b57e099	0.0032940267
67	0xbdc45e7e	-0.095883355
68	0x3de4557e	0.11149119
69	0x3e1503f2	0.14552286
70	0x3de71f4e	0.11285268
71	0xbe330e85	-0.17486008
72	0x3da80d1a	0.08205624
73	0xbea1f74a	-0.3163398
74	0x3dd53ecd	0.10412369
75	0x3df15964	0.11784628
76	0x3e1bfba0	0.15232706
77	0xbe57699d	-0.21036382
78	0x3da89cde	0.08233045
79	0xbdb85902	-0.09001352
80	0xbd99a3b7	-0.07501929
81	0xbe719ff8	-0.2359618
82	0xbe482a49	-0.1954738
83	0xbe6ba942	-0.23013785
84	0x3e1c5880	0.15268135
85	0x3e13795c	0.14401764
86	0x3dbdf443	0.09275105
87	0x3da0bd72	0.07848634
88	0xbe2b6a11	-0.1673968
89	0x3d81410a	0.06311233
90	0xbe9e4800	-0.30914307
91	0xb9d22e0e	-0.00040088635
92	0x3d810b6e	0.06301008
93	0xbe140fae	-0.14459106
94	0x3d5b187c	0.053490147
95	0xbdd7771a	-0.10520764
96	0xbd907763	-0.07054021
97	0x3deb31f1	0.11484135
98	0xbe7d4eb4	-0.24737054
99	0x3c6aa13e	0.01432067
100	0xbe37c161	-0.17944862
101	0xbca37887	-0.019954933
102	0xbdaf140a	-0.08548744
103	0xbe97e565	-0.29667202
104	0xbea92445	-0.33035484
105	0xbe467218	-0.19379461
106	0xbdf50a38	-0.1196484
107	0x3da28d90	0.07937157
108	0xbd6eb3e4	-0.058277026
109	0x3d69a450	0.057041466
110	0xbdb33f94	-0.08752361
111	0xbd80f5a1	-0.0629685
112	0xbe7609f3	-0.24027233
113	0x3d1bb539	0.038014624
114	0xbd3e6249	-0.04648045
115	0x3d718151	0.058961216
116	0xbe2f086e	-0.1709306
117	0x3e1b8eb0	0.1519115
118	0xbd308421	-0.043094758
119	0x3d6d7832	0.057975955
120	0xbe882ebb	-0.26598153
121	0x3d4e7208	0.050401717
122	0xbd932cc7	-0.07186275
123	0x3d449b6a	0.047999777
124	0xbc603b29	-0.01368598
125	0x3dabe492	0.08393206
126	0x3c42a028	0.011879005
127	0x3dd2b641	0.102886684
128	0xbd8f5c14	-0.069999844
129	0x3d478555	0.04871114
130	0x3df7041f	0.12061333
131	0x3d9110ec	0.07083306
132	0xbe2f9691	-0.1714728
133	0xbe31de57	-0.17369972
134	0xbe61bf7e	-0.22045705
135	0xbd84e909	-0.064897604
136	0x3e05dab8	0.13071716
137	0xbb890eb8	-0.004182663
138	0x3ddeefe8	0.10885602
139	0xbd41e821	-0.047340516
140	0x3de818c5	0.113328494
141	0x3d90c21c	0.070682734
142	0xbe1c166e	-0.15242931
143	0x3c20dcc2	0.009818258
144	0xbe3a47f3	-0.18191509
145	0xbc6e3581	-0.0145391235
146	0xbddf199b	-0.10893556
147	0x3e42fae0	0.19041014
148	0xbdcc3ccd	-0.09972534
149	0xbdd1a2f5	-0.1023616
150	0x3dcf1b04	0.10112575
151	0xbd9f2651	-0.0777098
152	0xbe5d0926	-0.21585521
153	0x3e0639e4	0.13108021
154	0x3e47ae31	0.19500042
155	0xbd12b3f0	-0.035816133
156	0x3d333774	0.043754056
157	0xbe64e56f	-0.22353147
158	0xbe97d22f	-0.29652545
159	0xbe55380f	-0.20822166
160	0xbd832854	-0.06404176
161	0xbe0f4652	-0.13991669
162	0x3da8b211	0.082370885
163	0x3d65ce03	0.05610467
164	0xbe3f35e2	-0.18672898
165	0xbe845d14	-0.25852263
166	0x3d92a373	0.07160082
167	0xbdedd676	-0.11613171
168	0x3da58af2	0.08083142
169	0xbe210adc	-0.15726799
170	0x3da888aa	0.082291916
171	0x3cf31183	0.029671436
172	0xbddf3c23	-0.10900142
173	0xbcdda58e	-0.027056482
174	0xbd81b8df	-0.063340895
175	0x3cedd445	0.029031882
176	0xbdd9512b	-0.10611185
177	0x3deda456	0.1160361
178	0x3de00fcf	0.10940515
179	0x3e005dc8	0.12535775
180	0xbe467c04	-0.19383246
181	0x3cd00b54	0.025396027
182	0xbb8a742c	-0.0042252745
183	0x3c68db16	0.01421239
184	0xbd2a5eff	-0.0415945
185	0x3de6de17	0.11272829
186	0x3dada520	0.08478761
187	0xbdabc27b	-0.083867036
188	0xbbcccff3	-0.0062503754
189	0x3d26ea50	0.0407508
190	0xbdc585a6	-0.09644632
191	0xbd5f1ba8	-0.054469734
192	0xbdf42132	-0.11920394
193	0x3d7977d6	0.0609053
194	0x3d838441	0.0642171
195	0xbe381951	-0.17978407
196	0xbd279602	-0.040914543
197	0xbe83f356	-0.25771588
198	0x3cd064d7	0.02543871
199	0x3e08fd46	0.13377866
200	0x3e237b55	0.15965016
201	0x3d8c9d1c	0.06865904
202	0x3db7c902	0.08973886
203	0x3dc82088	0.0977183
204	0xbdde59c1	-0.10856963
205	0x3e019e52	0.1265805
206	0x3d9dc711	0.077039845
207	0xbe5282f2	-0.20557764
208	0x3d9b6405	0.075874366
209	0x3d896950	0.0670954
210	0x3ddbec3b	0.10738417
211	0xbe0c9143	-0.13727288
212	0xbe60fafa	-0.2197074
213	0x3dcbe703	0.09956171
214	0xbdf27028	-0.11837798
215	0xbe09dafe	-0.13462445
216	0xbc319be8	-0.010840394
217	0xba01f316	-0.0004957182
218	0xbd9623eb	-0.073310696
219	0x3dbb6fc9	0.09152181
220	0xbd0b77f7	-0.034049954
221	0x3d3901cb	0.045167726
222	0x3b48b5d7	0.0030625963
223	0x3e36e789	0.17861761
224	0x3dbfcb4c	0.09364948
225	0x3e151d3d	0.14561935
226	0x3ce66149	0.028122561
227	0xbe50cc3f	-0.20390414
228	0xbe032d4e	-0.12810251
229	0x3debcd17	0.11513727
230	0x3e42e30e	0.19031927
231	0xbdef9c34	-0.11699715
232	0xba3815f5	-0.0007022315
233	0xbe17003b	-0.14746182
234	0xbd9e7e58	-0.07738942
235	0xbda28c25	-0.07936887
236	0x3d3b0d38	0.045666903
237	0x3dadc5c2	0.08484985
238	0xbd99501f	-0.07485985
239	0x3ca38c09	0.019964235
240	0xbdda6e6e	-0.10665594
241	0xbe27ecb9	-0.16398896
242	0x3ddff4ac	0.10935339
243	0x3d8d7fab	0.06909116
244	0xbd8671fc	-0.065647095
245	0xbe37b501	-0.17940141
246	0xbdfde2fb	-0.12396809
247	0x3e641f31	0.22277524
248	0x3d26bc31	0.040706817
249	0x3e47ef3d	0.19524856
250	0xbdc44e3d	-0.09585235
251	0xbe30a522	-0.17250493
252	0xbe6fbdbb	-0.2341222
253	0xbe26e15f	-0.1629691
254	0xbdefbb5f	-0.1170566
255	0x3d0bbfe3	0.034118544

fc2.bias f4 [5]
0	0x3d0919cd	0.03347187
1	0x3d900e7a	0.07034011
2	0x3c8d3571	0.017237397
3	0x3cadc82f	0.021213619
4	0x3d892fd6	0.06698577
