Trained_Weights/STRIDE 4/v4.2 5th.pth (torch, 681666 bytes, 12 tensors)

conv1.weight f4 [32, 1, 3, 3]
0	0x3e1b075d	0.15139528
1	0x3e80d22d	0.2516035
2	0xbc3a95b5	-0.011388232
3	0x3e28f264	0.16498715
4	0x3d1b065c	0.03784786
5	0xbe4a9ced	-0.19786425
6	0x3e17d665	0.14827879
7	0xbea83505	-0.3285295
8	0xbe9fafa3	-0.31188688
9	0xbea2499f	-0.31696793
10	0xbd5f0fd1	-0.054458443
11	0x3e3709b3	0.17874794
12	0xbec5ba57	-0.3861873
13	0x3e7956b9	0.24349488
14	0x3e01c7f8	0.12673938
15	0x3e8ef2fd	0.2791976
16	0x3e8b2e5f	0.27183816
17	0x3e8ed5b6	0.27897424
18	0x3e8c721a	0.27430803
19	0xbdba35ae	-0.0909227
20	0xbe1c8e06	-0.15288553
21	0x3e97485c	0.29547393
22	0x3e94694d	0.28986588
23	0x3d56d417	0.05244836
24	0x3cfc4e38	0.030799016
25	0xbd01c58a	-0.03168253
26	0x3de5b57c	0.11216256
27	0x3e7ad57a	0.24495497
28	0x3e78eacf	0.24308322
29	0x3db135db	0.0865285
30	0x3d9113b0	0.07083833
31	0xbdad1d37	-0.08452838
32	0x3d5ec761	0.05438936
33	0xbed09063	-0.40735158
34	0xbbcdfe89	-0.0062864465
35	0xbdbfdf10	-0.09368718
36	0xbe7de83b	-0.2479562
37	0x3b23b71c	0.0024980968
38	0x3e5a0d02	0.21294025
39	0xbeaeed13	-0.34165248
40	0xbd867d44	-0.06566861
41	0xbd95bc16	-0.07311265
42	0x3e0379d3	0.12839441
43	0xbe9ff564	-0.31241906
44	0x3bc7b325	0.0060943537
45	0xbeadf97a	-0.33979398
46	0xbd07755a	-0.0330709
47	0x3ea23841	0.31683543
48	0x3afeb0ed	0.001943139
49	0x3d3ba1d9	0.045808647
50	0xbd0ac465	-0.033878703
51	0x3d9ae60d	0.0756341
52	0x3e44a8ae	0.19204971
53	0xbdc7e240	-0.09759951
54	0x3e25f372	0.16206148
55	0xbe110b06	-0.14164361
56	0x3c09bceb	0.008406858
57	0x3ec72ea5	0.38902774
58	0xbd99ac23	-0.075035356
59	0xbeb0d0c4	-0.34534276
60	0xbda096e9	-0.07841284
61	0xbbc1142b	-0.005892297
62	0xbe50764b	-0.20357625
63	0xbdf162b7	-0.117864065
64	0xbd255db4	-0.040372565
65	0xbe3494e9	-0.1763493
66	0x3c7f18dd	0.015569893
67	0xbd98793e	-0.07445
68	0x3e794454	0.24342471
69	0xbe88dfc7	-0.2673323
70	0xbe0bdd1e	-0.13658568
71	0xbe714135	-0.23560031
72	0xbd8e2aac	-0.06941733
73	0x3e48b551	0.19600417
74	0x3eb542b6	0.3540246
75	0xbdfdfc53	-0.12401643
76	0x3db1e969	0.086870976
77	0x3e1af382	0.15131953
78	0x3db5ad1b	0.08870908
79	0xbe576519	-0.2103466
80	0xbdc5021d	-0.09619544
81	0x3e849f9d	0.25903025
82	0xbcfa648d	-0.030565524
83	0x3ea06e07	0.31333944
84	0x3c9c33fe	0.01906776
85	0xbe90ef31	-0.2830749
86	0xbcfce54d	-0.030871058
87	0x3da7c5dc	0.081920356
88	0xbe035b6a	-0.1282784
89	0x3e94de10	0.2907567
90	0x3d9d01dc	0.0766637
91	0xbe763a81	-0.24045755
92	0xbe951469	-0.29117134
93	0x3e2989f8	0.16556537
94	0xbe8eb199	-0.2786987
95	0x3e0d01dd	0.13770242
96	0x3de24400	0.11048126
97	0x3d4a69b5	0.049417216
98	0xbeabfb9b	-0.33590397
99	0x3dd23b80	0.10265255
100	0x3e659dca	0.22423473
101	0xbe56bafc	-0.20969766
102	0x3dc2a855	0.09504763
103	0x3dec972d	0.11552272
104	0xbd261ab6	-0.040552817
105	0xbe6ace8d	-0.22930355
106	0x3e86f7cc	0.2636093
107	0x3e8a41db	0.2700337
108	0xbe21194c	-0.15732306
109	0xbe5239cc	-0.2052986
110	0xbde9dc31	-0.11418951
111	0xbe244a5b	-0.1604399
112	0xbe7aea3e	-0.24503419
113	0xbc8cb4ab	-0.017175993
114	0xbd75cadc	-0.060007915
115	0x3eb45ec5	0.35228553
116	0xbe91c2ad	-0.28468838
117	0xbdeee462	-0.11664654
118	0x3d4ac2a0	0.049502015
119	0xbd8c0bd0	-0.068381906
120	0x3dfefb5a	0.12450285
121	0x3e518072	0.20459154
122	0xbd9e615c	-0.077334136
123	0x3d9a3d65	0.07531241
124	0x3e28995a	0.16464749
125	0x3eb39865	0.35077205
126	0xbe18f467	-0.14936982
127	0xbe836da0	-0.25669575
128	0xbe2971e8	-0.16547358
129	0xbd8bbccc	-0.068231195
130	0x3dcf9798	0.10136336
131	0x3e43b05b	0.19110243
132	0xbeb14ea0	-0.346303
133	0x3de68ed7	0.11257713
134	0xbcf3c377	-0.02975629
135	0xbd952b37	-0.07283633
136	0x3e6705ca	0.22560802
137	0x3e18fca1	0.1494012
138	0xbd2611fe	-0.040544502
139	0x3d4ce14f	0.05001956
140	0x3e2198ab	0.15780894
141	0x3d260360	0.040530562
142	0xbd9d9278	-0.07693952
143	0xba2758e5	-0.0006383791
144	0xbe250e0b	-0.16118638
145	0xbe3c31e8	-0.18378413
146	0xbeb07e64	-0.34471428
147	0x3e7fdb72	0.24986055
148	0x3e40781c	0.18795818
149	0xbe0e9e6f	-0.13927625
150	0x3e8ca20e	0.27467388
151	0x3cdfc112	0.027313743
152	0xbe162411	-0.14662196
153	0xbd4857c2	-0.048911817
154	0x3d032ad9	0.032023285
155	0x3ea047ca	0.3130477
156	0xbe41c6d9	-0.1892351
157	0x3e1b5fb1	0.15173222
158	0x3ea326d6	0.31865567
159	0x3ea1b4cc	0.3158325
160	0xbdebb41d	-0.11508963
161	0x3cbebfe8	0.023284867
162	0xbe18379d	-0.14864965
163	0xbe06f9f0	-0.13181281
164	0xbd4c8ee1	-0.049940947
165	0xbea425df	-0.32060143
166	0xbeabcedc	-0.3355626
167	0x3dc0e436	0.09418528
168	0x3cd80443	0.02636922
169	0x3ea65bb5	0.32491842
170	0xbe4166a5	-0.18886812
171	0x3e3c324e	0.18378565
172	0xbe04dba8	-0.12974417
173	0xbe1ea178	-0.15491283
174	0xbd09f6c8	-0.033682615
175	0x3c0e6437	0.008690885
176	0x3d2f8554	0.04285176
177	0x3e28cd0a	0.16484466
178	0x3c873c4d	0.016508246
179	0xbec5af45	-0.38610283
180	0xbea7be6c	-0.32762468
181	0xbe9cb140	-0.3060398
182	0x3d21bab7	0.039484706
183	0x3e1ad503	0.1512032
184	0xbe165718	-0.14681661
185	0xbc9bbf25	-0.019012043
186	0x3e525fad	0.2054431
187	0xbe020e2d	-0.1270072
188	0x3c8592dd	0.016305381
189	0x3e03fc50	0.12889218
190	0xbe6c72e5	-0.23090704
191	0xbe9d251d	-0.30692378
192	0x3eb0260c	0.34404027
193	0x3e9b5eb5	0.30345693
194	0xbd3d4f4d	-0.046218205
195	0x3e7d7b6c	0.24754113
196	0xbd13055f	-0.035893794
197	0xbd87f2c4	-0.06638101
198	0xbe1501b2	-0.14551428
199	0xbd41382f	-0.04717272
200	0x3e777abf	0.24167918
201	0x3e527c5a	0.20555249
202	0xbe9df390	-0.30849886
203	0xbe28ef13	-0.1649745
204	0xbe0c0227	-0.13672696
205	0x3b2475ec	0.00250947
206	0x3db82e6c	0.08993229
207	0xbdde9aaa	-0.108693436
208	0x3e87abb9	0.264982
209	0x3dc5315c	0.09628555
210	0x3d5732a7	0.05253854
211	0x3e0e7d31	0.13914944
212	0x3e451f23	0.19250159
213	0x3e33229e	0.17493674
214	0xbe0dbebd	-0.13842292
215	0xbe31e45b	-0.17372267
216	0x3dd0926f	0.1018418
217	0x3e2ed033	0.17071609
218	0x3d334890	0.043770373
219	0xbe9b67a5	-0.30352512
220	0xbeb09668	-0.3448975
221	0xbde1273a	-0.1099381
222	0x3e67691f	0.22598694
223	0x3dc65684	0.0968447
224	0x3de16b9c	0.11006853
225	0x3e70340e	0.23457357
226	0x3e9bf32b	0.3045896
227	0x3e6cbc4c	0.23118705
228	0x3cdbf900	0.02685213
229	0xbd624596	-0.055242144
230	0xbe904ff4	-0.28186
231	0xbdf85efe	-0.12127493
232	0x3e306803	0.17227177
233	0xbeaa475e	-0.33257574
234	0xbe87a2fc	-0.26491535
235	0x3e9c2e0b	0.30503878
236	0x3e415c15	0.18882783
237	0xbe887987	-0.26655218
238	0xbe53be92	-0.20678166
239	0x3e152357	0.14564262
240	0x3c9c3d22	0.01907212
241	0x3e2d9287	0.16950427
242	0x3e28a9d4	0.16471034
243	0xbeb59e1e	-0.35472196
244	0xbe332fd1	-0.1749871
245	0x3e318af0	0.17338157
246	0xbd0f4ffa	-0.03498838
247	0xbd7bb9bf	-0.06145644
248	0x3e88e38e	0.2673611
249	0xbe490844	-0.1963206
250	0xbc57040e	-0.013123525
251	0xbe4650f3	-0.19366817
252	0x3e8f5ba7	0.27999613
253	0x3dde72c8	0.108617365
254	0x3ebb1815	0.3654181
255	0xbe3ed8fc	-0.1863746

conv1.bias f4 [32]
0	0x3d36a6c1	0.044592623
1	0xbd81f8dd	-0.06346295
2	0xbe957915	-0.2919394
3	0xbc1239a8	-0.008924879
4	0x3e93692d	0.2879118
5	0xbd216e12	-0.03941161
6	0x3dbb3327	0.09140616
7	0x3e041c0f	0.12901329
8	0xbe1e0c4c	-0.15434378
9	0xbe59fb9e	-0.2128739
10	0x3e65b1db	0.22431128
11	0xbe9413fe	-0.28921503
12	0x3b9fd61c	0.0048778187
13	0xbea36edb	-0.31920514
14	0x3e9a7fca	0.3017562
15	0xbe2b55f9	-0.16732015
16	0x3debf3b8	0.11521095
17	0xbeb8ff5a	-0.36132318
18	0x3e965023	0.29358014
19	0x3e08fdd7	0.13378082
20	0x3e8b5675	0.272144
21	0xbe24456d	-0.16042109
22	0x3daf41cd	0.085574724
23	0xbea5f31f	-0.3241205
24	0x3c7441c5	0.014908259
25	0xbd4baad3	-0.049723458
26	0xbd9cda7a	-0.076588586
27	0x3e762fbb	0.24041645
28	0xbde535e6	-0.11191921
29	0x3aa447aa	0.0012533565
30	0x3d8661b8	0.06561607
31	0x3e7179be	0.23581597

conv2.weight f4 [32, 32, 3, 3]
0	0xbd3436d2	-0.043997593
1	0xbe3127b3	-0.173003
2	0xbd10e4b2	-0.03537435
3	0xbdba39b8	-0.0909304
4	0xbdead9ff	-0.11467361
5	0x3c833762	0.01601762
6	0x3d842879	0.06453032
7	0xbda91320	-0.08255601
8	0x3e009bb2	0.12559393
9	0xbbb79f92	-0.005603739
10	0x3d15904a	0.036514558
11	0xbd169f6a	-0.036773123
12	0x3d02f6df	0.031973716
13	0x3d53a83e	0.05167412
14	0x3d4b5454	0.04964097
15	0xbd006e05	-0.031354923
16	0x3c82e118	0.015976474
17	0x3cb24837	0.02176295
18	0x3d29a564	0.041417494
19	0xbd07982f	-0.033104118
20	0x3bea1a58	0.0071442537
21	0xbdacade2	-0.08431603
22	0xbc2aed15	-0.010432501
23	0x3e20ad5b	0.1569113
24	0xbdf3ae5f	-0.11898493
25	0xbc8d75c8	-0.017268077
26	0x3d503058	0.050827354
27	0xbd921322	-0.071325555
28	0x3acc9129	0.0015607226
29	0xbcf252f4	-0.02958057
30	0x3c615ece	0.013755513
31	0xbcd096c7	-0.025462521
32	0xbd2722ef	-0.0408048
33	0xbce76ff6	-0.02825163
34	0x3d2fa254	0.042879418
35	0x3c964a5e	0.018346008
36	0x3cbbe34b	0.02293553
37	0xbdb0cb23	-0.08632495
38	0xbd1e1c22	-0.03860105
39	0x3d4eed01	0.050518993
40	0xbd8bdd0d	-0.068292715
41	0xbe7f3368	-0.24921954
42	0x3d95bed7	0.073117904
43	0x3c7fa668	0.015603639
44	0xbdbeed52	-0.09322609
45	0xbcbad77b	-0.022807827
46	0x3d32ad1b	0.043622117
47	0xbc89d202	-0.016823772
48	0xbcc4b507	-0.024012102
49	0xbb8b3aaa	-0.0042489367
50	0xbd7515a4	-0.05983509
51	0xbcf466af	-0.02983412
52	0x3d4c35ff	0.049856182
53	0xbda4dceb	-0.08049949
54	0x3d5c78db	0.053826194
55	0x3cd5c09d	0.026092822
56	0x3d3d81ac	0.046266243
57	0x3ca0896b	0.019596776
58	0xbb81a5bd	-0.003956525
59	0xbd1da92f	-0.038491424
60	0x3d731a96	0.059351526
61	0xbdb1c7db	-0.086806975
62	0x3b815b91	0.003947683
63	0x3d2b160e	0.04176908
64	0x3cf24465	0.029573629
65	0xbcbc6c4d	-0.02300086
66	0x3d4d243b	0.05008338
67	0xbc042aa6	-0.008066809
68	0xbcc3d588	-0.02390553
69	0xbc9d48f8	-0.019199833
70	0x3c90a252	0.017655525
71	0xbd2769cc	-0.04087238
72	0xbe116914	-0.1420024
73	0xbdc0f16d	-0.09421048
74	0xbe238ef9	-0.15972508
75	0x3d2932c1	0.04130817
76	0x3d5b163a	0.053487994
77	0x3d76f92f	0.060296234
78	0x3cc0e932	0.023548696
79	0x3e7aa5d6	0.24477324
80	0x3d283655	0.04106744
81	0xbd108f8b	-0.035293143
82	0xbd522df0	-0.05131334
83	0xbd82d7f0	-0.06388843
84	0x3cc84624	0.024447508
85	0x3d0f8040	0.035034418
86	0x3d67f19a	0.056626894
87	0xbdc1a9f2	-0.094562426
88	0x3dcd598d	0.10026846
89	0x3c17dae9	0.009268501
90	0x3d845346	0.06461196
91	0xbcf9f902	-0.030514244
92	0x3cb8d311	0.022561582
93	0x3d31e448	0.043430597
94	0xbdf2b62d	-0.118511535
95	0xbdb0cca6	-0.086327836
96	0x3d8a2b34	0.067465216
97	0xbd9ecb16	-0.07753579
98	0xbdddcd72	-0.10830201
99	0xbc723e2f	-0.014785334
100	0xbcdbb5be	-0.02682006
101	0xbb3651c6	-0.0027819737
102	0xbcc2f1c8	-0.02379693
103	0xbbc2e9d7	-0.005948286
104	0x3ce7ba7f	0.02828717
105	0xbd40e6eb	-0.04709522
106	0xbc64f2b0	-0.013973877
107	0x3cc9b47f	0.0246222
108	0xbc38d6c1	-0.01128167
109	0x3b3281a1	0.002723791
110	0xbd18b922	-0.03728593
111	0xbc11c8b9	-0.008897954
112	0xbd54006d	-0.05175822
113	0xbca271dc	-0.019829683
114	0x3d2f7a98	0.042841524
115	0xbd2e620e	-0.04257398
116	0xbd05bd6b	-0.032651346
117	0xbd204eb7	-0.03913757
118	0x3e11a74c	0.14223975
119	0x3e2d41d8	0.16919649
120	0xbd9510ab	-0.0727857
121	0x3d2136c2	0.03935886
122	0x3dba96a1	0.091107614
123	0xbd8098e7	-0.06279164
124	0xbcceac24	-0.025228567
125	0x3d16d651	0.03682548
126	0x3ba20205	0.0049440884
127	0x3db71015	0.08938614
128	0x3cb2baa4	0.021817513
129	0xbc7cf6cb	-0.015439699
130	0x3ceb4412	0.028718982
131	0xbd959ba8	-0.0730508
132	0x3c520958	0.012819611
133	0xbc52bc03	-0.012862208
134	0xbcc9fc44	-0.024656422
135	0xbcdb72e7	-0.026788188
136	0xbd89e304	-0.06732753
137	0xbdaec90f	-0.08534443
138	0x3cf3a2e3	0.029740756
139	0x3d7ff9d0	0.0624941
140	0x3dc9ae4e	0.09847699
141	0xbdb719fe	-0.089405045
142	0x3e1b9662	0.15194085
143	0x3dec982b	0.11552461
144	0x3cfdbbfa	0.030973423
145	0x3d439097	0.047745313
146	0x3d3c258d	0.04593425
147	0xbd9e1e1f	-0.07720589
148	0xbdacb215	-0.08432404
149	0x3d3b7428	0.045765072
150	0xbcf2ddc4	-0.029646762
151	0xbcb0ac0e	-0.021566417
152	0x3cd940eb	0.026520213
153	0xbbbc0b81	-0.005738676
154	0x3cf27cda	0.02960055
155	0xbd189d39	-0.037259314
156	0x3d29cb0a	0.0414534
157	0x3e44b118	0.19208181
158	0x3dd31980	0.10307598
159	0xbd111699	-0.03542194
160	0x3d999cee	0.07500635
161	0x3d31c6e1	0.043402556
162	0x3d8b9048	0.06814629
163	0xbc9a1f76	-0.01881383
164	0x3c0d279f	0.008615403
165	0x3d999ffd	0.075012185
166	0xbd043f30	-0.032286823
167	0xbe2c6198	-0.16834104
168	0x3dd21409	0.10257728
169	0xbcadb059	-0.021202253
170	0xbdfb6ac1	-0.12276221
171	0xbd85630f	-0.065130346
172	0xbc313de6	-0.01081798
173	0x3d066a66	0.032816313
174	0x3cbfb205	0.023400316
175	0xbd0ed734	-0.034873202
176	0x3d4c51e1	0.049882773
177	0x3c66a961	0.014078469
178	0xbce0698b	-0.027394077
179	0x3c972ef1	0.018455
180	0xbace9e9f	-0.0015763826
181	0xbcdb738d	-0.026788497
182	0xbd095ec1	-0.03353763
183	0xbd1f9752	-0.03896267
184	0x3be08342	0.0068515847
185	0xbd038002	-0.0321045
186	0x3cfdcaf1	0.030980559
187	0x3ca97f2d	0.020690525
188	0x3b376b30	0.0027987473
189	0x3d025f33	0.03182907
190	0x3d423f10	0.047423422
191	0x3dad6587	0.084666304
192	0xbd01a843	-0.031654608
193	0xbb874cf5	-0.004129047
194	0x3d894899	0.067033
195	0xbda4e352	-0.080511704
196	0xbe144989	-0.14481176
197	0xbbfa4a3b	-0.0076382435
198	0x3d4929cb	0.049112123
199	0xbc8ba2e7	-0.017045451
200	0xbd90b385	-0.07065491
201	0x3dac1d07	0.08403974
202	0x3b5ba55b	0.0033515308
203	0xbe002a6e	-0.12516186
204	0x3dfcd328	0.12344962
205	0x3dea5787	0.11442476
206	0xbc64f3a5	-0.013974105
207	0xbd26108f	-0.040543135
208	0x3d122d0b	0.035687488
209	0xbd4c2cd7	-0.04984745
210	0x3c4f1651	0.012639598
211	0x3d8723f6	0.06598656
212	0x3d9411cc	0.07229957
213	0x3ce9df11	0.02854875
214	0x3cb03422	0.021509234
215	0x3cd891ca	0.026436705
216	0x3cc1a440	0.02363789
217	0x3cffffbf	0.031249879
218	0xbd13c071	-0.0360722
219	0xb919d4e2	-0.00014670522
220	0x3c7a51c3	0.015278283
221	0xbd898f0b	-0.067167364
222	0x3c728ffd	0.014804837
223	0xbb92c072	-0.0044785077
224	0xbbc46b85	-0.0059942626
225	0xbdd27e34	-0.102779776
226	0xbe3b688c	-0.183016
227	0xbdf06441	-0.11737872
228	0xbde2bebb	-0.11071535
229	0xbceed029	-0.029151993
230	0x3d30683b	0.043068152
231	0x3d29c289	0.04144529
232	0x3d84817f	0.06470012
233	0x3de8e603	0.11371996
234	0xbd6bb682	-0.0575471
235	0xbcabe79f	-0.020984469
236	0xbd1fe23f	-0.039034124
237	0xbcb84f87	-0.02249886
238	0x3d960b64	0.07326391
239	0x3d13228e	0.035921626
240	0x3ca75f3a	0.02043115
241	0x3d1c69e2	0.038186915
242	0xbd2e637b	-0.04257534
243	0x3d4b4a67	0.049631502
244	0x3c62e07f	0.013847469
245	0x3ae5f3a3	0.0017543923
246	0x3da2901f	0.07937645
247	0x3d144b0d	0.036204387
248	0xbe55c9c2	-0.20877746
249	0x3e118fed	0.1421506
250	0x3d92fd19	0.07177181
251	0xbdfa6e09	-0.12228019
252	0xbd4c8f02	-0.04994107
253	0xbd09613c	-0.033539996
254	0xbd9cc645	-0.076550044
255	0x3d00dcb8	0.031460494

conv2.bias f4 [32]
0	0x3b6b1b43	0.0035874404
1	0x3d90c68d	0.070691206
2	0x3c79efa5	0.01525489
3	0xbcd1afc5	-0.025596509
4	0x3d24dafa	0.040247895
5	0x3c6d841a	0.0144968275
6	0x3d2a9dee	0.04165452
7	0xbc868adf	-0.01642364
8	0xbd1dbf46	-0.03851249
9	0x3d5c34ed	0.05376141
10	0x3d040b6d	0.03223746
11	0x3d3d4863	0.04621161
12	0xbd451535	-0.048115928
13	0x3d9dbc55	0.07701937
14	0xbc84b980	-0.016201735
15	0x3c7930c4	0.015209381
16	0xbd08f2fd	-0.033434857
17	0x3973f87c	0.00023266854
18	0xbbc0e8fa	-0.005887148
19	0x3cd8b5b5	0.026453832
20	0xbc27a232	-0.0102315415
21	0x3d1d5d3e	0.038419
22	0x3d1db4a1	0.03850234
23	0x3ac152a2	0.0014749358
24	0xbc8eca90	-0.017430574
25	0xbbba55a3	-0.005686478
26	0xbafcdb7e	-0.0019291488
27	0xbcb8b1ed	-0.02254578
28	0xbda29f5b	-0.07940551
29	0xbd339d96	-0.043851458
30	0xbc97ff06	-0.018554222
31	0xbce01baa	-0.027356941

conv3.weight f4 [32, 32, 3, 3]
0	0xbd381016	-0.044937216
1	0xbd4f93c8	-0.050678045
2	0xbc2e5303	-0.010639909
3	0x3bc4ac89	0.006002013
4	0xbd365791	-0.044517104
5	0x3d6a5e67	0.057218935
6	0xbca66359	-0.020311045
7	0x3ccba419	0.024858521
8	0x3d3fa34e	0.0467866
9	0x3aa9753d	0.0012928616
10	0xbd6928d8	-0.056923717
11	0xbc2328cc	-0.009958457
12	0x3d493bb8	0.049129218
13	0xbc914b70	-0.017736167
14	0xbc9df536	-0.019281965
15	0x3d5fa790	0.05460316
16	0x3ca0c30f	0.019624261
17	0xbd3fc5b2	-0.046819396
18	0xbd3b72a0	-0.04576361
19	0x3d210b18	0.03931722
20	0xbd21d5ae	-0.03951042
21	0xbd1bb758	-0.038016647
22	0x3d49a173	0.049226236
23	0xbd650047	-0.055908468
24	0xbd0eb3f9	-0.034839604
25	0xbc4fec24	-0.012690578
26	0x3d3deb47	0.046366956
27	0x3d1fda00	0.03902626
28	0xbc6e27b8	-0.014535837
29	0x3d1f3002	0.038864143
30	0xbc9973e4	-0.018732019
31	0xbd2a19ef	-0.04152864
32	0x3c841518	0.01612334
33	0x3c8e0be1	0.017339649
34	0x3cdaaf00	0.026694775
35	0xbc97fe86	-0.018553983
36	0x3c0e851e	0.00869873
37	0x3c8e4080	0.01736474
38	0xbd229ab7	-0.03969833
39	0x3ce70370	0.028199881
40	0xbcf362f7	-0.029710276
41	0x3cd1484a	0.025547165
42	0x3cd13a80	0.02554059
43	0x3d6e2b3f	0.05814671
44	0xbc9ff5d6	-0.019526403
45	0x3d377da6	0.044797562
46	0x3d57ce8e	0.05268722
47	0x3aa13b3d	0.001230098
48	0x3be7ed75	0.0070778676
49	0xbcba348b	-0.022730133
50	0x3d3671e2	0.0445422
51	0xbbb225f9	-0.0054366556
52	0xbc75c162	-0.014999719
53	0xbcfdf61f	-0.031001149
54	0xbd3b7d48	-0.045773774
55	0x3d17b633	0.037038993
56	0x3c89b928	0.016811922
57	0x3d5aa8ee	0.05338376
58	0x3d24f023	0.040268075
59	0xbd0fb478	-0.035084218
60	0xbb1c2136	-0.0023823506
61	0xbd0c916e	-0.03431838
62	0xbc85b1cc	-0.016320132
63	0xbd043528	-0.032277256
64	0x3c5f2bdf	0.0136212995
65	0x3d09264c	0.03348379
66	0x3d0ecb36	0.034861766
67	0xbccff126	-0.025383543
68	0x3d3137c6	0.04326608
69	0x3cbf248e	0.02333286
70	0x3ccd148b	0.02503421
71	0xbc0088e4	-0.007845137
72	0x3d1cbf0d	0.038268138
73	0xbd4c752a	-0.049916424
74	0x3d26009a	0.040527917
75	0x3cf7bd7f	0.030241726
76	0xbd61ddda	-0.055143215
77	0xbccb8ea6	-0.024848294
78	0xbd1d42e5	-0.038393874
79	0x3c0f016c	0.008728366
80	0xbd1aa491	-0.0377546
81	0x3d2998e7	0.041405585
82	0xbc16dd42	-0.009208025
83	0xbd1fcdf9	-0.03901479
84	0x3c96e900	0.01842165
85	0xbc58945c	-0.013218965
86	0xbd176e70	-0.036970556
87	0xbd639417	-0.05556115
88	0xbc2e5aac	-0.010641735
89	0x3cc6865b	0.024233988
90	0xbce06cda	-0.027395654
91	0xbc9f0441	-0.019411208
92	0xbc436936	-0.01192694
93	0xbc8709e8	-0.016484216
94	0xbd28b273	-0.041185807
95	0x3cd5be71	0.026091786
96	0x3cc8a72b	0.024493774
97	0x3c4904e0	0.012269229
98	0xbd6cd489	-0.057819877
99	0xbc17b091	-0.009258405
100	0x3d3f872d	0.046759773
101	0xbcb28b26	-0.021794867
102	0x3d6a43ec	0.05719368
103	0x3b9c79f4	0.00477528
104	0x3cdba989	0.02681424
105	0xbced36ba	-0.02895676
106	0xbd1c7c51	-0.038204495
107	0x3d2bc258	0.041933388
108	0xbb9e339a	-0.0048279287
109	0x3cee281e	0.029071864
110	0x3d198440	0.03747964
111	0x3d4a1637	0.049337592
112	0x3c8d5170	0.017250746
113	0xb9e12e2c	-0.00042949745
114	0x3cfb7e88	0.030699983
115	0xbcdc66ff	-0.026904581
116	0xbc93e9f4	-0.018055893
117	0x3d413993	0.047174048
118	0x3cf1e1f9	0.029526697
119	0x3bb6f3fc	0.0055832844
120	0x3d066cad	0.032818485
121	0x3d176b90	0.036967814
122	0x3ca6d818	0.020366713
123	0xbc67817a	-0.014129991
124	0xbd5dce37	-0.05415174
125	0x3cc3a0c4	0.02388037
126	0x3d5e9d7c	0.054349408
127	0x3c6b184e	0.014349056
128	0x3d16b394	0.036792353
129	0xbc8584d2	-0.016298685
130	0x3cb51d18	0.0221086
131	0xbd5e898c	-0.054330394
132	0x3cbb0fac	0.022834621
133	0x3b07563b	0.0020650763
134	0x3c0ae804	0.008478168
135	0x3d0f3549	0.034962926
136	0xbc8d2568	-0.01722975
137	0x3d0df751	0.034659687
138	0x3a7bc6ab	0.0009604494
139	0x3c3f1e40	0.011664927
140	0x3d0c4c1b	0.034252267
141	0xbd203247	-0.03911045
142	0xbd1ff795	-0.039054472
143	0xbd434808	-0.047676116
144	0x3d16c3dd	0.036807884
145	0xbb7f4f4b	-0.0038957174
146	0xbd26506d	-0.040604044
147	0xbd6e5fad	-0.058196712
148	0x3d3433b3	0.043994617
149	0xbd3015bc	-0.042989478
150	0x3d652b68	0.0559496
151	0xbd58c377	-0.052920785
152	0xbd43d263	-0.047808062
153	0xbceaf91e	-0.028683241
154	0xbd12695c	-0.03574501
155	0xbd64a696	-0.05582293
156	0x3ce6ae9d	0.028159434
157	0xbd3b9fbf	-0.045806643
158	0xbc0d1857	-0.00861176
159	0x3a23a010	0.0006241808
160	0xbd5caa5f	-0.053873416
161	0x3c8d7889	0.01726939
162	0xbc161177	-0.009159437
163	0x3d690af8	0.056895226
164	0x3d1d328f	0.038378295
165	0x3d0a3457	0.03374132
166	0xbd147c27	-0.036251213
167	0xbd4c6ad6	-0.049906574
168	0x3be794b7	0.0070672887
169	0x3c2ff34b	0.010739158
170	0xbcc52108	-0.024063602
171	0x3c8bdbde	0.017072614
172	0x3c07193e	0.008245764
173	0xbce2d442	-0.027689103
174	0xbd534bcc	-0.051585957
175	0x3d06903b	0.032852393
176	0xbd1d1bc9	-0.038356576
177	0xbcadf368	-0.02123423
178	0x3a611f17	0.00085877016
179	0xbb761260	-0.0037547573
180	0xbd51bb84	-0.05120422
181	0xbcdd3259	-0.027001547
182	0x3d31636c	0.043307707
183	0xbd69cf12	-0.057082243
184	0x3c0502c2	0.008118333
185	0xbd49168c	-0.049093768
186	0xbc84e76a	-0.016223628
187	0xbd61974e	-0.055075936
188	0x3cecd28a	0.028908987
189	0xbcac8ed5	-0.021064201
190	0x3b8f3d34	0.0043713097
191	0xbd700444	-0.058597818
192	0xbcbc7bec	-0.02300831
193	0x3cd61eaf	0.026137678
194	0xbd63b374	-0.05559106
195	0xbbae8b8d	-0.0053266943
196	0x3d215d90	0.03939587
197	0xbd46b499	-0.048512075
198	0x3c35882d	0.01107983
199	0xbc887056	-0.016655128
200	0xbd65ed14	-0.0561343
201	0xbd424427	-0.047428276
202	0xbd60b046	-0.054855607
203	0x3cd3996b	0.025829991
204	0xbcebe800	-0.02879715
205	0xbd3df0a0	-0.046372056
206	0xbd4b2dc0	-0.049604177
207	0xbd56f8cd	-0.05248337
208	0x3c9b60f0	0.018967122
209	0xbd342dc9	-0.043988977
210	0xbc15b4dd	-0.009137359
211	0xbc7f382a	-0.015577355
212	0xbca2949a	-0.01984625
213	0xbc47adfd	-0.012187478
214	0xbcbf7749	-0.02337231
215	0x3d2ebf15	0.0426627
216	0xbc43a6ff	-0.01194167
217	0x3d2dbdf9	0.0424175
218	0x3cae1f68	0.02125521
219	0xbc4f9103	-0.012668851
220	0xbcf088ff	-0.0293622
221	0xbd351dc8	-0.044217855
222	0x3d468623	0.048467766
223	0x3d42e9f3	0.047586393
224	0xbccbb1c4	-0.024865039
225	0xbd09a7d6	-0.033607326
226	0xbd352335	-0.04422303
227	0xbca83d2f	-0.020536987
228	0xbc65826b	-0.014008145
229	0xbd54b819	-0.05193338
230	0x3c8124de	0.01576465
231	0x3d4aa971	0.049478
232	0x3c8ba36e	0.017045703
233	0x3d20de81	0.039274696
234	0xbc8aabcc	-0.016927622
235	0x3c5a78c2	0.013334455
236	0x3c386a5e	0.011255829
237	0x3cd33c3a	0.025785554
238	0xbc83273a	-0.016009916
239	0x3d6f5ee2	0.058440097
240	0x3d50c1f0	0.050966203
241	0x3d48ab29	0.048991356
242	0xbcf6fbea	-0.030149419
243	0xbd3e819e	-0.04651033
244	0x3ba4e226	0.005031842
245	0x3d0e907e	0.034805767
246	0x3d572386	0.052524112
247	0xbc65488d	-0.013994348
248	0xbd64820a	-0.055788077
249	0xbcd3961a	-0.02582841
250	0xbd1dd01b	-0.038528543
251	0x3cb4101d	0.02198034
252	0xbd057cf4	-0.032589868
253	0xbccd603c	-0.025070302
254	0xbd400ee1	-0.04688919
255	0x3c78429c	0.0151526

conv3.bias f4 [32]
0	0x3d6202de	0.055178516
1	0xbcc929f4	-0.024556138
2	0x3d0ca7c1	0.03433967
3	0xbc26d164	-0.010181759
4	0xbd5d2882	-0.05399371
5	0x3c87c9b5	0.016575674
6	0xbd43fb4c	-0.047847077
7	0x3bcf7f38	0.0063323043
8	0xbd6e4cd4	-0.058178738
9	0xbd41ced3	-0.047316384
10	0x3ad46d76	0.0016206938
11	0xbc493e1f	-0.012282877
12	0x3d5530e3	0.052048575
13	0x3d29ff23	0.041503083
14	0xbb69dcd9	-0.0035684614
15	0xbd63765d	-0.055532802
16	0x3d06fce6	0.032956026
17	0x3d526294	0.051363543
18	0xbb75162d	-0.003739725
19	0xbce2013f	-0.027588485
20	0x3ca5770e	0.020198371
21	0xbc863e4e	-0.016387131
22	0x3b37ea00	0.002806306
23	0xbd297e97	-0.04138049
24	0x3d1a93be	0.037738554
25	0xbc82d8ea	-0.015972573
26	0x3ccd2b8e	0.025045183
27	0x3d078b10	0.033091605
28	0xbc8e802f	-0.017395107
29	0x3d4198b6	0.047264777
30	0xbcc0838c	-0.023500226
31	0x3d69bc92	0.0570646

conv4.weight f4 [8, 32, 3, 3]
0	0x3c714a42	0.014727177
1	0x3bd52412	0.006504544
2	0x3b36c103	0.002788604
3	0xbd5481b0	-0.051881492
4	0xbc24bc8e	-0.010054721
5	0xbd42b4a3	-0.04753555
6	0xbbfa38fb	-0.007636187
7	0xbc969feb	-0.018386802
8	0x3bf7d071	0.00756269
9	0xbd68a481	-0.05679751
10	0x3c59489d	0.013261941
11	0x3d48c790	0.049018443
12	0x3c1ff057	0.009761891
13	0x3c95e8f8	0.018299565
14	0xbd00f2fa	-0.03148172
15	0xbd1f0f11	-0.038832728
16	0x3d3cc4d7	0.04608616
17	0x3d0cc691	0.034369055
18	0xbd0078d9	-0.03136525
19	0xbd550c7d	-0.052013863
20	0xbcbec511	-0.023287328
21	0xbca673a0	-0.020318806
22	0x3d3b9768	0.04579869
23	0xbd5b31ed	-0.05351441
24	0xbc522a7d	-0.012827513
25	0xbcfc98bd	-0.03083455
26	0xbb8483a0	-0.0040440112
27	0x3d28dc48	0.0412257
28	0x3d31c7c6	0.04340341
29	0xbce99d17	-0.02851729
30	0xbcea03d7	-0.028566284
31	0xbc9928fc	-0.0186963
32	0xbc44d4c8	-0.012013622
33	0x3c49143a	0.012272889
34	0x3cc13955	0.023586908
35	0xbb335360	-0.0027362928
36	0xbd4b1974	-0.04958482
37	0x3d712b34	0.058879092
38	0x3bb92622	0.0056502977
39	0x3cbdf067	0.023185922
40	0xba4093f5	-0.0007346266
41	0x3d3f65d6	0.046727978
42	0xbcf6fcd7	-0.03014986
43	0x3d02c533	0.031926345
44	0xbd059bed	-0.032619406
45	0x3ce427d5	0.027851025
46	0x3d53cb4c	0.05170755
47	0x3c95d394	0.018289365
48	0xbc1bcb54	-0.009508926
49	0xbd19904d	-0.03749113
50	0xbd3a1492	-0.045429774
51	0x3d0981d1	0.03357107
52	0xbcb06c5e	-0.021536049
53	0x3d558804	0.052131668
54	0x3d00f601	0.031484608
55	0x3d678167	0.056519892
56	0xbd38960a	-0.045064963
57	0xbd2a00be	-0.041504614
58	0x3b11f12a	0.002226899
59	0x3bca4714	0.006173024
60	0x3d135fc0	0.035979986
61	0xbd31901e	-0.04335033
62	0xbcc1c2d5	-0.023652473
63	0xbd5e05d5	-0.05420478
64	0x3caebe9c	0.021331124
65	0xbca0d186	-0.019631159
66	0x3d09af6b	0.033614557
67	0x3d47eaac	0.048807785
68	0x3d6a1721	0.057150964
69	0xbcf52ac1	-0.029927613
70	0xbd1ecb1f	-0.03876793
71	0x3c270866	0.010194873
72	0xbd2f4227	-0.042787697
73	0xbd22e240	-0.03976655
74	0xbcef9f2e	-0.029250707
75	0xbd657dc3	-0.05602814
76	0x3c9f0385	0.019410858
77	0x3d6b5d7b	0.057462197
78	0xbb623519	-0.0034516512
79	0xbca0a777	-0.019611103
80	0x3cd5d276	0.026101332
81	0x3ca56ff8	0.020194992
82	0x3d538e51	0.051649395
83	0x3d26c2a5	0.04071297
84	0xbc5dbe90	-0.013534203
85	0x3d084be0	0.033275485
86	0xbd1acaf5	-0.03779121
87	0xbd528306	-0.051394485
88	0x3d5fef48	0.054671556
89	0xbcb12c70	-0.021627635
90	0xbd217fea	-0.03942863
91	0x3cb98bea	0.022649724
92	0x3c6ad0cc	0.014332008
93	0x3d5fa0c9	0.054596696
94	0x3c4e5e0a	0.012595663
95	0x3c9400d4	0.018066801
96	0xbd6d43c0	-0.05792594
97	0x3d52ef45	0.051497716
98	0xbd57d3f6	-0.052692376
99	0x3d5b801b	0.053588968
100	0x3af67fa0	0.0018806346
101	0x3d2276f6	0.03966423
102	0xbcfdda22	-0.030987803
103	0xbd1f511a	-0.038895704
104	0xbd44c932	-0.048043437
105	0x3d6a87a0	0.05725825
106	0x3aa1320b	0.0012298239
107	0x3d6c58cb	0.057701867
108	0xbd088cd0	-0.033337414
109	0x3b14a9aa	0.0022684135
110	0x3c89e0ea	0.01683088
111	0xbd3ff2db	-0.046862464
112	0x3d58b395	0.052905638
113	0xbd1c3afe	-0.038142197
114	0xbd3b33eb	-0.04570381
115	0x3d5de044	0.054168954
116	0x3c2f6422	0.010705026
117	0xbcdc7acf	-0.026914028
118	0x3be45474	0.0069680754
119	0xbc82cbfb	-0.015966406
120	0x3cd789c4	0.026310809
121	0xbca1ae15	-0.01973633
122	0xbd714494	-0.05890329
123	0xbd3536e8	-0.044241816
124	0xbd3b5aee	-0.045741014
125	0x3d16b32a	0.036791958
126	0xbd17a87e	-0.03702592
127	0xbc7ddc6b	-0.015494446
128	0x3d2c8fd7	0.042129364
129	0xbbdfe5e6	-0.006832826
130	0x3c9330b0	0.017967552
131	0x3d3a29b3	0.045449924
132	0xbd23841c	-0.03992091
133	0x3d47ffce	0.04882794
134	0xbd237715	-0.039908487
135	0xbcf74904	-0.030186184
136	0xbbaec059	-0.005332988
137	0xbad84a3c	-0.0016501616
138	0xbba61d0c	-0.0050693806
139	0xbd2179a0	-0.03942263
140	0xbafaf9d8	-0.0019147946
141	0xbd1376c2	-0.03600193
142	0xbd3b498a	-0.04572443
143	0x3d4a5bef	0.04940408
144	0xbc8a5e44	-0.016890652
145	0x3cafcbb9	0.021459447
146	0xbd225779	-0.0396342
147	0xbd2ce326	-0.042208813
148	0x3d023228	0.031786114
149	0x3c255a91	0.0100923935
150	0xbcec11a2	-0.028817002
151	0xbd6d2117	-0.057892885
152	0xbcdca159	-0.026932405
153	0x3a4aae8e	0.0007731699
154	0x3cc316ce	0.023814585
155	0x3d670bc8	0.05640772
156	0x3d3eec33	0.046611976
157	0xbca81b23	-0.020520752
158	0xbb3f698f	-0.0029207205
159	0x3ccd710e	0.025078323
160	0x3d55b394	0.052173212
161	0xbd034a24	-0.032053128
162	0xbc5db522	-0.013531955
163	0xbd02d110	-0.03193766
164	0xbd26ec37	-0.040752616
165	0x3c86884c	0.016422413
166	0xbd6aa8d9	-0.057289932
167	0x3c62a1b3	0.013832497
168	0xbccd266d	-0.025042737
169	0xbcf66724	-0.030078478
170	0x3d010e52	0.031507798
171	0xbcd7d982	-0.026348833
172	0xbccb2bd4	-0.024801172
173	0x3d509182	0.050920017
174	0x3d64db7d	0.055873383
175	0x3c8d4795	0.017246047
176	0x3d2caeae	0.042158775
177	0xba8c7ca1	-0.0010718295
178	0x3c645713	0.013936776
179	0xbd37af9c	-0.04484521
180	0x3d62b4bd	0.055348147
181	0xbcbc145c	-0.022958927
182	0x3d55d66b	0.052206438
183	0xbc46a52d	-0.012124342
184	0xbcd245d8	-0.02566807
185	0x3ba4820b	0.005020385
186	0xbd06fe88	-0.032957584
187	0xbabf8833	-0.0014612734
188	0x3c15ac96	0.009135386
189	0x3c9714c4	0.018442519
190	0xbd2c76c6	-0.04210546
191	0x3d00a9e5	0.031412024
192	0xbcd90aa0	-0.026494324
193	0xbb9d853d	-0.004807143
194	0xbb10d15f	-0.002209745
195	0x3d349db6	0.044095717
196	0x3c13c2a6	0.009018576
197	0xbd428b87	-0.047496345
198	0xbc853715	-0.016261617
199	0xbd4a5b5c	-0.049403533
200	0xbcac02a2	-0.02099735
201	0x3d04508d	0.03230338
202	0xbcabb018	-0.020957991
203	0xbd2df11b	-0.042466264
204	0x3d651746	0.0559304
205	0xbc256495	-0.010094781
206	0x3cdc35f1	0.02688119
207	0xbd38d655	-0.045126278
208	0xbd5b6175	-0.05355974
209	0x3d09d4bf	0.033650156
210	0xbcb75536	-0.022379499
211	0x3d21b4a5	0.039478917
212	0x3c89aef2	0.016807053
213	0x3d2611ef	0.040544447
214	0xbd1e4998	-0.038644403
215	0xbd0af397	-0.03392371
216	0x3cb5b0bc	0.022179
217	0xbc83ca0e	-0.016087558
218	0xbcf7c63c	-0.030245893
219	0xbd5b428b	-0.053530257
220	0xbcba7372	-0.022760127
221	0xba324871	-0.0006800956
222	0x3cf636f0	0.030055493
223	0x3c8c7c8e	0.017149236
224	0x3d5adba3	0.05343212
225	0x399316da	0.0002805505
226	0x3d082273	0.03323598
227	0xbd1f52db	-0.038897377
228	0x3c7148fd	0.014726874
229	0xbce043c8	-0.02737607
230	0xbd2129c2	-0.039346464
231	0x3c93ef49	0.018058436
232	0x3d22b099	0.039719198
233	0x3d1417ac	0.036155388
234	0x3d50d084	0.050980106
235	0xbd4fac08	-0.05070117
236	0x3d314880	0.043282032
237	0x3c84b1b4	0.016198017
238	0xbd0b809f	-0.03405821
239	0x3cda78fe	0.026669022
240	0xbb8b26be	-0.004246562
241	0x3bad6ab3	0.0052922606
242	0xbc1bb442	-0.009503426
243	0x3d3fabbb	0.046794634
244	0xbc59110c	-0.013248693
245	0x3c8f0eba	0.017463077
246	0xbcf099e1	-0.02937025
247	0x3cb79a2f	0.022412388
248	0x3d2af3ce	0.041736417
249	0xbc5befbb	-0.013423855
250	0x3a5c8585	0.000841223
251	0xbceb77bc	-0.028743617
252	0x3bde423b	0.0067827976
253	0x3c5ef11f	0.013607292
254	0x3ac6a085	0.001515404
255	0xbd4d5cb2	-0.05013723

conv4.bias f4 [8]
0	0xbc1c5830	-0.00954251
1	0xbc79d299	-0.015247964
2	0xbd1ade6d	-0.037809778
3	0x3c733dd4	0.014846284
4	0xbcfbba75	-0.030728558
5	0x3d3bead3	0.045878243
6	0xbccdfcf2	-0.025145028
7	0xbc34f3d5	-0.011044462

fc1.weight f4 [128, 1152]
0	0x3c926030	0.017868131
1	0xbb211c56	-0.002458354
2	0xbbe67add	-0.0070336894
3	0xbcb1717a	-0.021660555
4	0xbb2a7ed8	-0.0026015546
5	0xbc34ca00	-0.011034489
6	0x3cc2c836	0.023777109
7	0xbb32f97f	-0.0027309356
8	0xbddef43b	-0.10886427
9	0xbc88bc5e	-0.016691383
10	0x3c013a6a	0.007887462
11	0xba8a8257	-0.0010567409
12	0xbd274e4a	-0.040846147
13	0xbb08507d	-0.0020799928
14	0xbd2defec	-0.042465135
15	0xbc0f49bf	-0.00874561
16	0xbd4aa1d6	-0.049470745
17	0xbcca2376	-0.024675112
18	0xbbcbf193	-0.0062238663
19	0xbbe81bf4	-0.0070834104
20	0x3b949f62	0.0045356015
21	0xbc668582	-0.014069917
22	0xbc0722cc	-0.008248042
23	0xbcd110d4	-0.02552072
24	0x3d742a46	0.059610628
25	0xbcdc23fd	-0.02687263
26	0xbc1bf171	-0.009518013
27	0x3c8e2469	0.017351346
28	0x3c3cf0b6	0.011531999
29	0xb99f1e8d	-0.00030349605
30	0x3d24c226	0.040224217
31	0xbdb43993	-0.08800044
32	0xbbeb63a4	-0.007183509
33	0xbd1eb81f	-0.03874981
34	0xbc9ec9b5	-0.01938329
35	0x3cf753c5	0.030191312
36	0xbca00e6f	-0.019538132
37	0xbd87c602	-0.06629564
38	0xbc93e4b4	-0.01805339
39	0xbd269de3	-0.040677916
40	0xbd025cb2	-0.031826682
41	0xbd80996d	-0.06279264
42	0xbd0e15b6	-0.034688674
43	0xbcf8e4c1	-0.030382516
44	0xbbd07e88	-0.00636274
45	0x3c0a7b39	0.00845223
46	0xbd03de7e	-0.032194607
47	0xbcf32bbd	-0.029683942
48	0xbcde002d	-0.027099693
49	0x3b7afa0d	0.0038296015
50	0x3b1afabd	0.0023647987
51	0x3cd7b010	0.02632907
52	0x3c599563	0.0132802455
53	0xbccda8d3	-0.025104916
54	0xbd6d3fd5	-0.057922203
55	0xbd3237c9	-0.043510232
56	0xbd567ac4	-0.052363172
57	0xbd9fe4eb	-0.078073345
58	0xbce8003e	-0.028320428
59	0xbd5bed07	-0.053692844
60	0xbd7e81e3	-0.06213559
61	0xbd22948b	-0.039692443
62	0xbb92733e	-0.0044693043
63	0xbd15e954	-0.036599472
64	0xbca373ce	-0.01995268
65	0xbd95dbf0	-0.073173404
66	0xbd752f09	-0.05985931
67	0xbd33cb50	-0.043895066
68	0xbc621040	-0.01379782
69	0xbd797f48	-0.0609124
70	0xbd1ca88d	-0.03824668
71	0xbde77861	-0.11302257
72	0xbc098a97	-0.008394859
73	0x3ce226d3	0.027606403
74	0x3b647c3d	0.003486409
75	0xbc8efe81	-0.017455341
76	0x3b8ea4fd	0.004353164
77	0xba457c8b	-0.0007533512
78	0xbd3267b0	-0.043555915
79	0x3bfcff65	0.007720875
80	0xbc5255b4	-0.012837816
81	0xbdd5c2bc	-0.10437533
82	0xbcb483d5	-0.022035519
83	0xbcad8bb5	-0.021184782
84	0xbc978a32	-0.018498514
85	0xbc819bec	-0.01582142
86	0xbc22e040	-0.009941161
87	0xbd8695e4	-0.06571558
88	0xbd890b08	-0.06691557
89	0xbba20ba0	-0.0049452335
90	0xbd312bf5	-0.04325481
91	0xbd118edd	-0.035536636
92	0xbcdcef83	-0.026969677
93	0xbd334ba3	-0.043773305
94	0xbc9c615a	-0.01908939
95	0xbab1e7ae	-0.0013573074
96	0x3cc7f0a1	0.024406733
97	0xbce7deba	-0.028304446
98	0xbc5ffc73	-0.013671028
99	0xbd4640c2	-0.0484016
100	0xbbb8a989	-0.0056354445
101	0xbc91d93e	-0.017803784
102	0x3d07c6da	0.033148624
103	0xbbda6219	-0.006664526
104	0xbd84189f	-0.064500086
105	0xbcfaebdd	-0.030630047
106	0xbd867a0e	-0.06566249
107	0xbb9a4071	-0.004707389
108	0x3c5e2013	0.013557452
109	0xbd32e1a6	-0.043672226
110	0xbcd31c4b	-0.025770327
111	0xbc0f964b	-0.00876386
112	0xbc4a7739	-0.012357526
113	0xbcc4f71f	-0.024043618
114	0xbd0dc071	-0.034607355
115	0xbc5d4fa4	-0.013507757
116	0x3d226fe2	0.03965748
117	0x3c85976c	0.016307555
118	0xbd0e8be9	-0.034801397
119	0xbd199c5e	-0.03750264
120	0x3b91b0db	0.0044461316
121	0x3d058463	0.032596957
122	0x3b3a2612	0.002840404
123	0x3d5c4358	0.05377516
124	0x3d341183	0.043962013
125	0x3bfa681e	0.0076418063
126	0x3c78e1d5	0.015190561
127	0xbbb58255	-0.0055392184
128	0xbabb5166	-0.0014291226
129	0xbc7a7922	-0.015287669
130	0x3bbfa1e1	0.005848155
131	0x3cf0e966	0.029408168
132	0xbb85a647	-0.0040786597
133	0xbd14755f	-0.036244746
134	0x3c950a47	0.018193377
135	0xbbc4ac1d	-0.006001963
136	0xbc99edc0	-0.018790126
137	0xbd231c39	-0.039821837
138	0xbd0d4280	-0.034487247
139	0x3c70d7a5	0.014699851
140	0x3d82bfea	0.06384261
141	0x3c7676b6	0.015042951
142	0x3c9322e5	0.017960975
143	0xbd10b8d1	-0.035332505
144	0xbcec87ac	-0.028873287
145	0x3d04e1ad	0.032441784
146	0x3c8f0588	0.017458692
147	0xbcc3a99c	-0.023884587
148	0x3cce36d5	0.02517263
149	0x3bd4f5f6	0.0064990474
150	0x3c455701	0.012044669
151	0x3b7263cc	0.0036985753
152	0xbd147084	-0.036240116
153	0xbd4af8cf	-0.04955369
154	0x3c6fd157	0.014637313
155	0xbc4aa83e	-0.012369214
156	0xbc6adc26	-0.014334714
157	0x3c279b29	0.010229864
158	0xbd437952	-0.047723122
159	0xbddbcfa4	-0.10732964
160	0xbd16cb8e	-0.03681522
161	0xbca2d738	-0.019878015
162	0xbbede0eb	-0.0072594783
163	0x3ba69728	0.005083937
164	0x3cdb0a15	0.026738206
165	0xbcc6f62d	-0.024287308
166	0xbcd551e7	-0.02604003
167	0xbc4be906	-0.012445694
168	0x3d18ce2a	0.03730599
169	0x3c47ce37	0.012195162
170	0x3c3755e3	0.011189911
171	0xbbbc7959	-0.0057517705
172	0xbd0b5a92	-0.03402192
173	0x3bea9c35	0.0071597346
174	0x3c190d3e	0.009341536
175	0xbc9fa16b	-0.01948615
176	0xbd9de066	-0.07708816
177	0xbd205bba	-0.039149977
178	0xbd03296b	-0.03202192
179	0x3c748850	0.014925078
180	0x3b81b667	0.0039585116
181	0xbc29f2de	-0.010372845
182	0x3cee1f53	0.02906767
183	0x3d580518	0.052739233
184	0xbbe8c715	-0.0071038106
185	0x3c8c10d8	0.017097875
186	0x3cd2f903	0.025753504
187	0xbd3a9d9e	-0.04556047
188	0x3d7b8d6b	0.061414164
189	0x3d30f972	0.04320664
190	0xbce44716	-0.027865928
191	0x3be3e3e8	0.006954659
192	0x3d19df2c	0.03756635
193	0x3c670b7d	0.01410186
194	0x3de10f24	0.10989216
195	0x3dc14c49	0.09438378
196	0x3cebd0f4	0.02878616
197	0x3d008a1d	0.031381715
198	0x3c0b5c8f	0.008505954
199	0x3d295c4c	0.041347787
200	0x3b8804f4	0.004150981
201	0x3d30bb83	0.043147575
202	0x3d421947	0.047387388
203	0x3cf4eba5	0.02989752
204	0xbbe7f1d8	-0.0070783906
205	0x3c7489ca	0.01492543
206	0x3d1456ba	0.03621552
207	0x3bb4bad7	0.005515437
208	0x3c9a75fe	0.018855091
209	0xbcb6b69e	-0.022303876
210	0x3a30cf34	0.0006744743
211	0x3d63b4f2	0.055592485
212	0x3cf68d5a	0.030096699
213	0x3c9837aa	0.01858123
214	0x3cf4ace9	0.029867606
215	0x3cf7bd41	0.03024161
216	0xbd39213a	-0.045197703
217	0x3ccde6bf	0.025134442
218	0xbbddf777	-0.006773885
219	0xbd41ef05	-0.047347087
220	0xbb62dc56	-0.0034616194
221	0x3cfad391	0.03061846
222	0xbd00b441	-0.031421904
223	0x3b36b200	0.0027877092
224	0xbd8c6902	-0.06855966
225	0xbda7ec26	-0.081993386
226	0xbd716ca2	-0.05894149
227	0x3ca5f4ca	0.020258326
228	0xbd299761	-0.04140413
229	0xbd2b0f49	-0.041762624
230	0xbd151935	-0.036400992
231	0xbda68872	-0.08131494
232	0xbda0f8cf	-0.078599565
233	0xbd43012d	-0.047608543
234	0xbc9e188f	-0.01929882
235	0xbd38a931	-0.04508323
236	0x3ca20283	0.019776588
237	0x39235eca	0.00015580203
238	0xbd3ce81b	-0.04611979
239	0xbca6a658	-0.02034299
240	0x3c14eb06	0.009089237
241	0x3c0c3fdd	0.008560148
242	0xbc9964f9	-0.018724905
243	0xbc72579b	-0.014791395
244	0xbcac305e	-0.021019157
245	0xbb8f14c0	-0.0043664873
246	0xbb91aae7	-0.004445422
247	0xbcd3b076	-0.02584098
248	0xbdd89575	-0.10575382
249	0xbd07474d	-0.033026982
250	0xbd46b34c	-0.048510835
251	0x3c0853bc	0.008320745
252	0xbd9329e2	-0.07185723
253	0xbc603317	-0.013684056
254	0x3d5de7c7	0.05417612
255	0xbb71cf3b	-0.00368972

fc1.bias f4 [128]
0	0xbda7d687	-0.08195215
1	0xbd92e41c	-0.07172415
2	0x3b985874	0.0046492163
3	0x3bb45ed0	0.0055044666
4	0x3d4233cf	0.04741269
5	0x3cfa7313	0.03057245
6	0xbcfe23c2	-0.03102291
7	0x3cb15037	0.021644695
8	0x3c8c5b34	0.017133333
9	0x3cfa563d	0.0305587
10	0x3c5baedb	0.013408388
11	0x3b9ef1fa	0.004850623
12	0x3d055152	0.032548256
13	0x3d3e960f	0.046529826
14	0x3d48a562	0.048985846
15	0xbc5428cb	-0.012949179
16	0x3c95bfca	0.018279929
17	0x3d0d6831	0.034523193
18	0x3bf219cb	0.0073883287
19	0x3b911293	0.004427263
20	0x3add0bc3	0.0016864467
21	0x3c33ff67	0.010986186
22	0x3caecc3a	0.021337617
23	0x3ba74b69	0.005105425
24	0xbc1614fe	-0.009160278
25	0xbd0029b7	-0.031289782
26	0x3bfc2148	0.007694397
27	0xbce08fe5	-0.027412364
28	0x39ad0afa	0.0003300531
29	0xbcd9f6c7	-0.02660693
30	0x3bfeafda	0.007772428
31	0x3c364e7e	0.011127112
32	0x3c300d81	0.010745407
33	0x3c8e2549	0.017351763
34	0x3c43c314	0.011948366
35	0xbd4b9796	-0.04970511
36	0xbc7191d1	-0.014744238
37	0x3caea324	0.021318026
38	0xbaaffd90	-0.0013427008
39	0x3b9ea238	0.0048411153
40	0x3b4d4fa1	0.003132798
41	0x3cdcbb05	0.026944647
42	0xbd566f22	-0.05235208
43	0x3cd0236d	0.025407517
44	0x3c39bbc4	0.011336271
45	0x3ccecc78	0.025243983
46	0x3d071d57	0.032986965
47	0xbc5f0fc7	-0.013614601
48	0xbd2890e1	-0.041153792
49	0xbd856495	-0.06513325
50	0xbd4f0d86	-0.050550006
51	0xbcb4a15f	-0.022049604
52	0x3d184e6b	0.03718416
53	0xbc8bf54f	-0.017084746
54	0x3c5d4b6d	0.013506752
55	0x3c8d4ea2	0.01724941
56	0x3d2c6634	0.042089656
57	0xbd718d58	-0.058972687
58	0xbc0fbd2e	-0.008773131
59	0xbc9010b3	-0.017586088
60	0xbca7e8e1	-0.020496788
61	0x3d668b26	0.056285046
62	0xbbec15f6	-0.0072047664
63	0xbc0a11d9	-0.008427107
64	0x3d144a1f	0.0362035
65	0x3d0cf21a	0.034410574
66	0x3c2d76e1	0.010587425
67	0x3c378488	0.0112010315
68	0xbccd4e82	-0.02506185
69	0xbc72de34	-0.014823485
70	0x3ba57f7a	0.005050597
71	0xbcd62a71	-0.026143285
72	0x3c0e4a19	0.008684658
73	0xbaed597e	-0.0018108336
74	0x3a812b25	0.0009854777
75	0xbd5358bf	-0.051598307
76	0xbcb8120e	-0.022469547
77	0xbcabfdf6	-0.020995121
78	0x3b04b3de	0.002024881
79	0xbd82a754	-0.063795716
80	0xbd6cbc61	-0.05779684
81	0x3c43c3ec	0.011948567
82	0x3c41c911	0.011827723
83	0xbb9d0b41	-0.0047926013
84	0xbd09d003	-0.03364564
85	0x3d01ca82	0.031687267
86	0xbd7f269e	-0.062292688
87	0x3bcf2998	0.006322097
88	0x3b1e05aa	0.0024112263
89	0xbd1dab09	-0.03849319
90	0xbba42987	-0.0050098333
91	0x3ad97a27	0.001659219
92	0x3d191e96	0.037382685
93	0xbc950f9c	-0.01819592
94	0xbd007681	-0.031363014
95	0xbd265782	-0.040610798
96	0x3d075b40	0.033046007
97	0xbd8f4413	-0.06995406
98	0x3c7393ff	0.014866828
99	0xbd8c45fa	-0.068492845
100	0xbcd3bf10	-0.025847942
101	0xbd83ad6a	-0.064295605
102	0x3bd8051e	0.006592407
103	0x3d042f8c	0.032271907
104	0xbd51d5a2	-0.051229127
105	0xbcf0ed8c	-0.029410146
106	0xbc84f721	-0.016231121
107	0x3d0ffd4d	0.035153676
108	0x3cb7a754	0.022418655
109	0xbc1af59b	-0.009457971
110	0xbd0d2113	-0.03445537
111	0x3d7b62f9	0.061373685
112	0xbc83a8cf	-0.016071705
113	0x3ce7baad	0.028287256
114	0x3d3dd3ff	0.046344753
115	0xbc106a33	-0.008814382
116	0xbd29ad33	-0.04142494
117	0x3c0e94a2	0.008702429
118	0xbd683942	-0.05669523
119	0xbbeaecf1	-0.007169359
120	0xbb47ebef	-0.0030505618
121	0xbd162b9f	-0.036662694
122	0x3c378580	0.0112012625
123	0xbb8a778b	-0.0042256764
124	0xbc5e93d7	-0.013585052
125	0xbc42c079	-0.011886709
126	0x3c229ef3	0.009925592
127	0x3cf84d97	0.030310435

fc2.weight f4 [5, 128]
0	0x3d5048e8	0.05085078
1	0x3da9d083	0.082917236
2	0x3d94db34	0.07268372
3	0x3c7c9000	0.015415192
4	0x3dd76443	0.1051717
5	0x3ddb43af	0.10706269
6	0xbce9bb25	-0.02853162
7	0x3cb77052	0.022392426
8	0xbcb3483c	-0.02188503
9	0x3d882c6e	0.06649099
10	0x3d5b1892	0.05349023
11	0xbdb9763b	-0.09055754
12	0x3dc67849	0.09690911
13	0x3d19eb75	0.037578065
14	0x3be62174	0.007023031
15	0xbdddd910	-0.10832417
16	0xbe7a119d	-0.24420781
17	0x3de77dba	0.11303277
18	0xbde98ac9	-0.11403424
19	0x3d910268	0.07080537
20	0xbe2fce4d	-0.17168541
21	0xbdc7dc8a	-0.09758861
22	0x3d504845	0.05085017
23	0x3e03c994	0.12869865
24	0xbe098c41	-0.13432409
25	0x3c20630a	0.009789238
26	0x3dbca541	0.09211207
27	0x3dd01813	0.10160842
28	0xbd919c67	-0.071099095
29	0xbe2ccc53	-0.16874819
30	0xbd11aaff	-0.035563465
31	0xbe349a4a	-0.17636982
32	0x3d410072	0.047119565
33	0xbd33972a	-0.043845333
34	0xbddbe731	-0.10737456
35	0xbdf11447	-0.11771446
36	0xbe49d50f	-0.19710182
37	0x3e01b5b8	0.12666976
38	0xbe3a6d37	-0.18205725
39	0x3db8d64b	0.09025248
40	0x3df1d7d9	0.11808748
41	0xbde4b651	-0.111675866
42	0xbe7afe50	-0.24511075
43	0xbe702c8b	-0.23454492
44	0x3d3778d6	0.044792973
45	0x3d97bb04	0.07408717
46	0xbdf51547	-0.11966949
47	0x3d7c4b4f	0.061595257
48	0x3daa804f	0.08325254
49	0xbe14f919	-0.14548148
50	0xbd2d1953	-0.04226048
51	0xbe14b02a	-0.14520326
52	0xbe1752cf	-0.14777683
53	0xbcfe9988	-0.031079069
54	0x3d9710b8	0.07376236
55	0x3d4bea6a	0.0497841
56	0x3df1cf70	0.11807144
57	0xbd2f2d61	-0.042767886
58	0xbd7edb14	-0.062220648
59	0xbe55f913	-0.20895796
60	0x3da844d1	0.08216251
61	0x3dd06d33	0.10177078
62	0xbe1a1570	-0.1504724
63	0xbe0a20c9	-0.13489069
64	0x3db9e96e	0.09077726
65	0x3cc1cc97	0.023657126
66	0xbdfe44c3	-0.12415459
67	0xbe21b47d	-0.15791507
68	0x3e0a882d	0.1352851
69	0xbd11e803	-0.035621654
70	0xbe1572d4	-0.14594585
71	0xbe647b26	-0.22312602
72	0xbe347348	-0.17622101
73	0x3dd5d89e	0.10441707
74	0xbe36b3a0	-0.17841959
75	0x3dd27a3a	0.10277219
76	0xbd24fb0f	-0.04027849
77	0x3d2791b5	0.04091044
78	0x3dd7c8cb	0.10536345
79	0xbd1eac57	-0.038738575
80	0xbc875bd4	-0.01652328
81	0x3e0a600e	0.13513204
82	0x3ddaaf4c	0.106779665
83	0xbd961472	-0.073281184
84	0xbe18de2c	-0.14928502
85	0x3d630b4e	0.055430703
86	0xbd4d7da6	-0.050168656
87	0x3dec27f4	0.11531058
88	0x3da191fb	0.07889172
89	0xbe1c8f41	-0.15289022
90	0xbd86ad39	-0.06576008
91	0x3c63e8e7	0.013910509
92	0x3d9efb1c	0.07762739
93	0x3dc19da3	0.09453895
94	0xbdac3c91	-0.084099896
95	0xbdfe5e0e	-0.12420283
96	0x3c14caf2	0.009081589
97	0x3cd5f8be	0.026119586
98	0x3da137f1	0.07871998
99	0xbe339a08	-0.17539227
100	0xbdf4d41b	-0.119545184
101	0x3c99e805	0.018787393
102	0xbde6e563	-0.11274221
103	0xbe0da0d4	-0.13830882
104	0xbe2a5a7d	-0.16636081
105	0xbdf2cce2	-0.118554845
106	0x3d8e50f8	0.06949037
107	0xbd50d218	-0.05098161
108	0x3d49b8e1	0.04924858
109	0xbdd12de6	-0.102138326
110	0xbda5c5bc	-0.080943555
111	0x3da8243b	0.082100354
112	0xbe5d082e	-0.21585152
113	0x3d9aa9df	0.075519316
114	0x3d3bcf83	0.045852195
115	0xbca53c9a	-0.020170499
116	0xbe03c4cc	-0.12868041
117	0x3e177c0b	0.14793412
118	0xbe016efb	-0.12639992
119	0xbb1dd168	-0.0024081115
120	0xbdd4aa3e	-0.103840336
121	0xbda0cd3c	-0.07851645
122	0xb927a900	-0.00015989318
123	0xbd2a5149	-0.041581426
124	0xbe2f1b90	-0.17100358
125	0x3d41ff3b	0.047362547
126	0x3d972cb8	0.07381576
127	0x3db1103e	0.08645676
128	0xbcb62cd6	-0.022238176
129	0xbd29bc93	-0.041439604
130	0xbdefbdf9	-0.11706156
131	0xbd52fd61	-0.051511172
132	0x3e01557f	0.1263027
133	0xbd469518	-0.04848203
134	0xbd2f9dfb	-0.04287527
135	0xbdca5982	-0.098803535
136	0x3c3589bf	0.0110802045
137	0xbd167c00	-0.03673935
138	0xbc6cf7cf	-0.014463379
139	0xbd900f1d	-0.07034133
140	0x3e09cda6	0.13457355
141	0xbdcd6265	-0.10028533
142	0x3ded3e7d	0.11584184
143	0xbd1d6ecf	-0.038435753
144	0x3d7fae28	0.062421948
145	0x3d914a56	0.070942566
146	0xbc6cc2c5	-0.014450734
147	0xbd342a3f	-0.0439856
148	0x3dbaa65b	0.09113761
149	0xbda21e54	-0.07915941
150	0xbd077da2	-0.033078797
151	0xbdf949af	-0.12172257
152	0x3db16fd2	0.08663906
153	0xbdd6acd8	-0.10482186
154	0xbe15d335	-0.1463135
155	0xbdc1f76e	-0.094710216
156	0x39e5b511	0.0004381319
157	0x3d1bccb5	0.03803702
158	0x3d104450	0.035221398
159	0x3d2ae095	0.041718084
160	0xbdfba578	-0.1228742
161	0xbdadac5c	-0.084801406
162	0x3cb74ac6	0.022374522
163	0x3b1efb23	0.0024258576
164	0xbcc46f02	-0.023978714
165	0x3b57dbd6	0.003293743
166	0xbdbe0fef	-0.09280383
167	0x3d7a1b89	0.061061416
168	0xbd282342	-0.04104925
169	0xbde7ab77	-0.11312001
170	0xbaa0e017	-0.0012273815
171	0x3dd2c36a	0.102911785
172	0xbccd5941	-0.025066974
173	0x3ce73eb8	0.028228149
174	0xbc860af5	-0.016362647
175	0x3d27b8b8	0.040947646
176	0xb9abe15e	-0.00032783573
177	0x3db2fd19	0.08739681
178	0x3c9b35a5	0.018946478
179	0xbdad5eb3	-0.08465328
180	0x3dd9152b	0.105997406
181	0xbd4cee40	-0.0500319
182	0xbce7eacb	-0.0283102
183	0xbe06172b	-0.13094775
184	0xbd980985	-0.07423691
185	0xbdc43054	-0.0957953
186	0x3dde0a4d	0.108418085
187	0x3df10f37	0.1177048
188	0x3ca42a54	0.020039715
189	0x3d72df08	0.05929473
190	0x3c9bdaa7	0.01902516
191	0x3dace975	0.08442966
192	0xbd816e43	-0.06319859
193	0xbe2f2475	-0.17103751
194	0xbd53fc52	-0.051754303
195	0x3d41c7f6	0.04730984
196	0x3cd53491	0.026026042
197	0xbe351df9	-0.17687215
198	0x3de0a829	0.10969574
199	0x3c979d91	0.01850775
200	0x3dc0b0ed	0.09408746
201	0xbcc46bd9	-0.023977207
202	0x3c135e15	0.008994599
203	0xbe1705a9	-0.14748253
204	0x3d3662bc	0.044527754
205	0xbd790594	-0.060796335
206	0x3e0f3369	0.13984455
207	0x3dc98d02	0.09841348
208	0xbdbc398f	-0.09190666
209	0xbd876272	-0.06610574
210	0xbd984c28	-0.07436401
211	0x3cef0446	0.029176842
212	0x3ddd029b	0.107915126
213	0x3dbce510	0.09223378
214	0x3dc726a3	0.09724166
215	0xbd24f87a	-0.04027603
216	0xbc88b042	-0.016685609
217	0x3da78870	0.0818032
218	0xbc0910b5	-0.0083658
219	0xbdce46d3	-0.100721024
220	0xbd9f59a8	-0.077807724
221	0xbe1a6645	-0.15078075
222	0xbddb9a3b	-0.107227765
223	0x3c54591e	0.0129607
224	0x3d9c955e	0.07645677
225	0xbe106b4b	-0.14103429
226	0xbd267d7f	-0.040647026
227	0xbcbb8ffe	-0.02289581
228	0xbdd569c6	-0.10420565
229	0x3daac863	0.08339002
230	0x3d54a5f7	0.05191609
231	0x3dac8eaa	0.084256485
232	0x3d873fea	0.066039875
233	0x3d935914	0.07194725
234	0xbc97fb30	-0.018552393
235	0xbdc67ec0	-0.096921444
236	0xbd9beb12	-0.076131955
237	0x3dd3fdce	0.10351144
238	0x3d64e1d5	0.055879433
239	0xbd2c4cc4	-0.042065397
240	0x3dcedd0c	0.10100755
241	0xbd39d8f5	-0.045372922
242	0xbe4ff040	-0.20306492
243	0x3c7ffb89	0.0156239355
244	0xbda21323	-0.07913806
245	0xbdfc93b2	-0.12332858
246	0xbd5c29ce	-0.053750806
247	0x3d905fae	0.070494995
248	0x3cd51e95	0.02601556
249	0x3d9b3d0f	0.075800054
250	0x3dbbb916	0.09166162
251	0x3c21357d	0.009839413
252	0xbd48c535	-0.049016196
253	0xbda13f56	-0.078734085
254	0xbe37335f	-0.1789069
255	0xbdd9acf2	-0.1062869

fc2.bias f4 [5]
0	0x3bcf671c	0.0063294303
1	0xbc586c31	-0.013209389
2	0xbdd249ca	-0.102679804
3	0xbd17eae7	-0.037089255
4	0x3d9313e6	0.0718153
