Trained_Weights/STRIDE 4/v4.2 10th.pth (torch, 681682 bytes, 12 tensors)

conv1.weight f4 [32, 1, 3, 3]
0.22561471 0.28691646 -0.015138977 0.21504648 0.034082744 -0.24527949 0.16391864 -0.36698055
-0.38781676 -0.3447678 -0.06897483 0.16830075 -0.40578467 0.24011259 0.12667197 0.26428458
0.2718381 0.28102028 0.27533588 -0.091008 -0.16046979 0.30000517 0.29454848 0.04971115
0.031673063 -0.02966466 0.108682066 0.2756435 0.29484642 0.13028571 0.06572689 -0.06945682
0.07498332 -0.45342132 -0.040291682 -0.1143954 -0.24948063 0.0023178605 0.21986113 -0.34659135
-0.070567556 -0.07094451 0.12639958 -0.31539553 0.008468362 -0.4041438 -0.042403366 0.34773776
-0.03446743 0.05931655 0.0034354043 0.06731223 0.21724454 -0.06819674 0.20719396 -0.15461989
-0.034264825 0.43463483 -0.09674455 -0.40727034 -0.033509627 -0.017329836 -0.25173235 -0.10754879
-0.031497635 -0.1566875 0.021332694 -0.072002836 0.25734106 -0.25657266 -0.1303781 -0.22066619
-0.06765272 0.21655583 0.3798506 -0.12989274 0.09875097 0.1705909 0.07284399 -0.2149486
-0.09446566 0.26163316 -0.021932947 0.32045203 0.01896861 -0.27644497 -0.023915788 0.07583412
-0.12912814 0.2912147 0.08033086 -0.24819161 -0.2992736 0.17036341 -0.2869408 0.12699628
0.12003083 0.048183423 -0.34034273 0.10485999 0.229615 -0.21142782 0.100493126 0.12679952
-0.034889035 -0.22798556 0.27165526 0.2751751 -0.15480426 -0.20843616 -0.11195545 -0.1547865
-0.24688725 -0.015973441 -0.04715579 0.35816115 -0.27860004 -0.120217085 0.048025846 -0.07406496
0.12619881 0.21048756 -0.075699 0.07649497 0.17076443 0.35378075 -0.15872815 -0.2647123
-0.16480808 -0.078763045 0.092167 0.19079885 -0.3508645 0.10915544 -0.026165128 -0.07352597
0.23445316 0.15787707 -0.042674825 0.058237437 0.16711067 0.032993272 -0.0765364 0.0014401065
-0.15696692 -0.22561947 -0.41556877 0.28601098 0.17796738 -0.1892174 0.3303996 0.04868407
-0.16217463 -0.052043766 0.034965605 0.3155128 -0.19090715 0.15683486 0.3235668 0.3117066
-0.11391414 0.024379378 -0.15210089 -0.13657871 -0.04873864 -0.3245857 -0.34175432 0.09337682
0.027798181 0.32422152 -0.18581718 0.20611593 -0.14649789 -0.18931577 -0.00752376 -0.0102437725
-0.0010045728 0.19464773 0.008043929 -0.41969422 -0.3404161 -0.32402667 0.028820056 0.14253466
-0.16273668 -0.031512715 0.2084611 -0.13077478 0.012079571 0.13739865 -0.23991902 -0.33496317
0.36686537 0.30972788 -0.06309429 0.27104503 -0.023175744 -0.0739032 -0.15561709 -0.055081453
0.25472847 0.18635029 -0.33039203 -0.16679834 -0.14713559 -0.014063042 0.0870401 -0.101783246
0.27614087 0.10466822 0.060652394 0.15168077 0.20241176 0.1786265 -0.13175398 -0.1690318
0.09792117 0.17087327 0.051000744 -0.3167889 -0.3557168 -0.10965755 0.21581255 0.08769019
0.11141111 0.30253568 0.3699413 0.26404142 0.059509736 -0.03465025 -0.28984302 -0.13438249
0.14110266 -0.38529596 -0.30248156 0.3150468 0.22659525 -0.3059113 -0.19425379 0.190984
-0.017890543 0.1738869 0.1967246 -0.36124527 -0.1772922 0.18165845 -0.044782024 -0.068006866
0.27151203 -0.20164894 -0.016988872 -0.18943304 0.31400368 0.16060698 0.42088416 -0.18202409
00000000: 8b07 673e b7e6 923e 7909 78bc 2535 5c3e
00000010: 599a 0b3d 8c2a 7bbe 4ada 273e e0e4 bbbe
00000020: eb8f c6be 6885 b0be ad42 8dbd 0857 2c3e
00000030: 02c3 cfbe 13e0 753e 4cb6 013e 4f50 873e
00000040: 5d2e 8b3e e4e1 8f3e d3f8 8c3e 6762 babd
00000050: 3152 24be 479a 993e 0fcf 963e eb9d 4b3d
00000060: 9dbb 013d 4d03 f3bc b494 de3d 2521 8d3e
00000070: 1cf6 963e 9e69 053e d29b 863d 613f 8ebd
00000080: db90 993d d726 e8be e408 25bd 2348 eabd
00000090: da77 7fbe 3fe7 173b 4723 613e 6c74 b1be
000000a0: b985 90bd 5b4b 91bd e46e 013e 867b a1be
000000b0: e2be 0a3c f0eb cebe 27af 2dbd af0a b23e
000000c0: b82d 0dbd e9f5 723d 8524 613b ffda 893d
000000d0: 5a75 5e3e bbaa 8bbd a72a 543e ad54 1ebe
000000e0: 4659 0cbd 7588 de3e 0222 c6bd bd85 d0be
000000f0: 6441 09bd 4df7 8dbc 10e3 80be 8a42 dcbd
00000100: aa03 01bd b072 20be e7c1 ae3c 3976 93bd
00000110: 35c2 833e 7e5d 83be d681 05be 51f6 61be
00000120: 828d 8abd d0c0 5d3e c77b c23e 9a02 05be
00000130: f33d ca3d 62af 2e3e 3b2f 953d 7c1b 5cbe
00000140: 3677 c1bd c8f4 853e b9ac b3bc 4a12 a43e
00000150: 0f64 9b3c 328a 8dbe 0beb c3bc eb4e 9b3d
00000160: 2b3a 04be 181a 953e 8284 a43d f125 7ebe
00000170: 643a 99be bf73 2e3e e8e9 92be 500b 023e
00000180: b9d2 f53d fb5b 453d 6741 aebe d6c0 d63d
00000190: 3220 6b3e 8980 58be 57cf cd3d bcd7 013e
000001a0: cee7 0ebd 0c75 69be 6616 8b3e c0e3 8c3e
000001b0: 0285 1ebe 4a70 55be e648 e5bd 5a80 1ebe
000001c0: 03d0 7cbe bcda 82bc 6e26 41bd e660 b73e
000001d0: aaa4 8ebe 6034 f6bd c0b6 443d 5faf 97bd
000001e0: 433a 013e 0d8a 573e 1408 9bbd 65a9 9c3d
000001f0: dfdc 2e3e c022 b53e a289 22be 5f88 87be
00000200: 73c3 28be 854e a1bd 0dc2 bc3d c660 433e
00000210: 83a4 b3be e38c df3d 4058 d6bc c994 96bd
00000220: 7d14 703e 87aa 213e cccb 2ebd 618a 6e3d
00000230: 0f1f 2b3e f423 073d 1ebf 9cbd f5c1 bc3a
00000240: f0bb 20be ca08 67be 6ec5 d4be 0870 923e
00000250: 153d 363e 35c2 41be 232a a93e f368 473d
00000260: 1b11 26be d82b 55bd 1838 0f3d e58a a13e
00000270: 2a7d 43be 5199 203e 8caa a53e 0298 9f3e
00000280: d14b e9bd 43b7 c73c 56c0 1bbe 4adb 0bbe
00000290: 2ba2 47bd 1930 a6be 6cfa aebe 593c bf3d
000002a0: 03b9 e33c 5d00 a63e dc46 3ebe 0e10 533e
000002b0: 8b03 16be fedb 41be e089 f6bb 7fd5 27bc
000002c0: dfab 83ba bc51 473e afca 033c 29e2 d6be
000002d0: 054b aebe d3e6 a5be 0a18 ec3c 9bf4 113e
000002e0: 72a4 26be 7a13 01bd d476 553e d3e9 05be
000002f0: 65e9 453c 3bb2 0c3e 55ad 75be 4b80 abbe
00000300: c7d5 bb3e a794 9e3e 9437 81bd 6ac6 8a3e
00000310: 0fdb bdbc 905a 97bd 165a 1fbe 179d 61bd
00000320: c56b 823e 9cd2 3e3e 2529 a9be 2fcd 2abe
00000330: b6aa 16be ac68 66bc 1442 b23d bc73 d0bd
00000340: 5662 8d3e 4b5c d63d a56e 783d 3452 1b3e
00000350: 0745 4f3e dde9 363e 84ea 06be ac16 2dbe
00000360: e58a c83d 67f9 2e3e 28e6 503d 2832 a2be
00000370: 8320 b6be 2394 e0bd f7fd 5c3e ea96 b33d
00000380: 822b e43d f5e5 9a3e f268 bd3e 7030 873e
00000390: 7bc0 733d 6ced 0dbd 4e66 94be 909b 09be
000003a0: 377d 103e 8345 c5be ddde 9abe d04d a13e
000003b0: 9608 683e 68a0 9cbe 77ea 46be 4f91 433e
000003c0: 308f 92bc 680f 323e 2c72 493e 24f5 b8be
000003d0: 168c 35be ac04 3a3e 5b6d 37bd 2f47 8bbd
000003e0: a003 8b3e 0f7d 4ebe 3f2c 8bbc bcfa 41be
000003f0: 17c5 a03e 2876 243e 217e d73e 8664 3abe

conv1.bias f4 [32]
0.04922592 -0.0922528 -0.3089451 -0.031938884 0.30246514 -0.07204554 0.13287608 0.16602331
-0.17077023 -0.22687818 0.24091808 -0.3056244 0.026935458 -0.3346691 0.3157847 -0.18236399
0.12315294 -0.3753275 0.3085904 0.15633756 0.28570327 -0.17778404 0.116484545 -0.3316374
0.018754449 -0.080232255 -0.106146276 0.25538388 -0.105812475 0.009863705 0.09557669 0.22946842
00000000: 1ea1 493d 09ef bcbd 0d2e 9ebe 59d2 02bd
00000010: b6dc 9a3e 9d8c 93bd ab10 083e 0402 2a3e
00000020: 64de 2ebe c152 68be 3bb3 763e cd7a 9cbe
00000030: c0a7 dc3c c059 abbe 88ae a13e a0bd 3abe
00000040: 9c37 fc3d ed2a c0be 90ff 9d3e f416 203e
00000050: b347 923e 050d 36be 738f ee3d 61cc a9be
00000060: eea2 993c cf50 a4bd 3863 d9bd adc1 823e
00000070: 36b4 d8bd 619b 213c b6bd c33d c5f9 6a3e

conv2.weight f4 [32, 32, 3, 3]
-0.015848441 -0.2594495 -0.08890329 -0.10157396 -0.28301543 0.061067313 0.06734928 -0.09356607
0.329677 -0.018305704 0.039757434 -0.027001202 0.021490958 0.08370803 0.061210383 -0.040632892
0.029936567 -0.0052806875 0.009433692 -0.032988124 -0.031121148 -0.1472258 0.005362329 0.24729948
-0.19813696 -0.053675827 0.12039902 -0.058022775 -0.040019535 -0.12534156 0.026583912 -0.013876757
-0.07985804 -0.031231925 0.11479042 0.11138744 0.066893496 -0.10330167 -0.008507205 0.1322173
-0.09103091 -0.38228524 0.16715902 0.06737022 -0.17853431 -0.06291102 0.0030023623 0.021622222
-0.040512826 0.042636763 -0.04556012 -0.017664645 0.13763535 -0.16184235 0.061528027 0.033577777
0.07355299 0.014058648 -0.12406849 -0.015027628 0.07264635 -0.17422317 0.060806863 0.052946113
0.032228317 -0.020844918 0.06592665 -0.014539213 -0.04360435 -0.0025198124 0.021359634 -0.046022575
-0.16803981 -0.24273695 -0.29809445 0.029406885 0.09995601 0.012347266 0.000325398 0.45802137
0.099920094 -0.059323948 -0.12344111 -0.17387034 0.01634273 0.06468111 0.014778507 -0.14238636
0.12577507 0.04100439 0.09125498 0.01171361 0.09918395 0.074841104 -0.2222111 -0.07843249
0.12093587 -0.1839421 -0.12888533 -0.036549505 -0.0021443842 -0.03894932 -0.0709058 0.058995124
0.085435845 -0.1124742 -0.019816147 0.06316692 -0.0069215945 0.01230435 -0.018450392 -0.0006596392
-0.057085056 -0.024667427 0.056089822 -0.04808339 -0.04637262 -0.08127769 0.17779809 0.17805682
-0.13747536 0.12431978 0.19296768 -0.14198308 -0.04609904 0.027621994 0.03485288 0.14298025
0.07268244 0.032707583 0.062082354 -0.12530299 0.065979354 -0.0017594676 -0.09253795 -0.057004604
-0.15518239 -0.18362333 -0.008128334 0.13081887 0.09729007 -0.14352435 0.2785518 0.16073826
0.026730668 0.10270588 0.14373527 -0.10285935 -0.14161639 0.12356509 -0.033644635 -0.12543657
0.009645982 -0.04285745 -0.042340197 -0.10073683 0.008527676 0.26418605 0.12743095 -0.077326514
0.16708057 0.046575088 0.0932554 0.026066994 0.1065609 0.1331811 -0.045887697 -0.22669223
0.18695208 -0.03429037 -0.24525152 -0.054924663 -0.00034096505 0.084500514 0.025510982 -0.13839644
0.08492989 0.042723324 -0.09359896 0.05312348 0.011926699 -0.0011492011 0.041202847 -0.010070856
-0.01903676 -0.04520113 0.07155772 -0.011919622 -0.06407225 -0.007493979 0.08730682 0.14833961
-0.11240801 -0.05467079 0.23043713 -0.15955308 -0.27410266 0.043991398 0.08594202 -0.028213184
-0.04606948 0.17044823 -0.041698 -0.25661084 0.21569344 0.122920126 -0.09117523 -0.053019203
0.0004526809 -0.08533458 -0.006445286 0.071105905 0.091869876 0.0075300243 0.050705776 0.055479597
0.030424101 0.035351876 -0.0143958675 0.012620117 0.010519842 -0.08430406 0.028726406 -0.011624635
-0.027925761 -0.11619355 -0.27178958 -0.21013464 -0.14612536 -0.090272516 0.07864267 0.017647954
0.14860934 0.31264418 -0.06860871 -0.046720657 -0.061912198 -0.01832194 0.14960743 0.0024663077
0.017159145 0.11914983 -0.090966545 0.08807176 0.01108636 0.03649727 0.16465968 0.060672224
-0.33581862 0.24746753 0.16073301 -0.2299278 -0.052227102 -0.08256261 -0.14282174 0.03415583
00000000: 97d4 81bc 91d6 84be ee12 b6bd 0206 d0bd
00000010: 66e7 90be b821 7a3d 6bee 893d 919f bfbd
00000020: 6ccb a83e d8f5 95bc b1d8 223d a031 ddbc
00000030: ce0d b03c 1e6f ab3d bdb7 7a3d ad6e 26bd
00000040: 883d f53c 9e09 adbb c68f 1a3c 8e1e 07bd
00000050: c7f1 febc 5cc2 16be 7ab6 af3b 133c 7d3e
00000060: 6ae4 4abe 2fdb 5bbd c393 f63d 4aa9 6dbd
00000070: 86eb 23bd 8a59 00be 81c6 d93c 565b 63bc
00000080: 9d8c a3bd 18da ffbc 3d17 eb3d 191f e43d
00000090: 75ff 883d d38f d3bd ce61 0bbc f963 073e
000000a0: 6a6e babd e4ba c3be bc2b 2b3e 66f9 893d
000000b0: b3d1 36be 7ed7 80bd 48c3 443b 1621 b13c
000000c0: c7f0 25bd e3a3 2e3d 409d 3abd 72b5 90bc
000000d0: 48f0 0c3e 00ba 25be d004 7c3d da88 093d
000000e0: f3a2 963d 3e56 663c 9f17 febd 7136 76bc
000000f0: 9cc7 943d 8f67 32be 9e10 793d 06de 583d
00000100: d701 043d f6c2 aabc 8d04 873d e135 6ebc
00000110: 7a9a 32bd 7023 25bb 66fa ae3c 2b82 3cbd
00000120: a112 2cbe 0990 78be d69f 98be b5e6 f03c
00000130: bdb5 cc3d 304c 4a3c 2e9a aa39 c781 ea3e
00000140: e8a2 cc3d abfd 72bd b1ce fcbd 110b 32be
00000150: 30e1 853c 8877 843d 8d21 723c bbcd 11be
00000160: 2ecb 003e 38f4 273d e4e3 ba3d 71ea 3f3c
00000170: f420 cb3d 4b46 993d 4e8b 63be 37a1 a0bd
00000180: 3aad f73d 515b 3cbe 84fa 03be efb4 15bd
00000190: cc88 0cbb 5289 1fbd 0f37 91bd dfa4 713d
000001a0: fdf8 ae3d e058 e6bd 7955 a2bc a85d 813d
000001b0: 8bce e2bb 2f98 493c 4725 97bc a3eb 2cba
000001c0: 05d2 69bd 5813 cabc 71be 653d 17f3 44bd
000001d0: 37f1 3dbd eb74 a6bd b410 363e 8754 363e
000001e0: 57c6 0cbe 5e9b fe3d 5299 453e 0364 11be
000001f0: 59d2 3cbd 8547 e23c e5c1 0e3d 6a69 123e
00000200: 88da 943d 63f8 053d 114a 7e3d 6d4f 00be
00000210: 2f20 873d f09d e6ba 8984 bdbd a97d 69bd
00000220: 22e8 1ebe c107 3cbe b42c 05bc 62f5 053e
00000230: 0440 c73d 0cf8 12be 579e 8e3e 9298 243e
00000240: 46fa da3c 7657 d23d 572f 133e eca7 d2bd
00000250: e303 11be b20f fd3d f5ce 09bd 7272 00be
00000260: 2e0a 1e3c 4b8b 2fbd ea6c 2dbd 1c4f cebd
00000270: aab7 0b3c 6543 873e 427d 023e 5d5d 9ebd
00000280: 2b17 2b3e 85c5 3e3d b0fc be3d 738a d53c
00000290: 9a3c da3d a060 083e bdf4 3bbd 0222 68be
000002a0: 5e70 3f3e 0f74 0cbd 3723 7bbe aff8 60bd
000002b0: 8ec3 b2b9 9b0e ad3d 68fc d03c ccb7 0dbe
000002c0: b9ef ad3d a7fe 2e3d d0b0 bfbd 0298 593d
000002d0: 3468 433c caa0 96ba 51c4 283d 3b00 25bc
000002e0: fbf2 9bbc d224 39bd db8c 923d 854a 43bc
000002f0: 5038 83bd 0d90 f5bb ebcd b23d 57e6 173e
00000300: 2c36 e6bd 7aee 5fbd b6f7 6b3e e261 23be
00000310: 2f57 8cbe 5330 343d 5f02 b03d 561f e7bc
00000320: 5ab3 3cbd fb89 2e3e 86cb 2abd 7f62 83be
00000330: bede 5c3e 8cbd fb3d 14ba babd aa2a 59bd
00000340: cd55 ed39 e5c3 aebd fa32 d3bb f99f 913d
00000350: 4626 bc3d 6cbe f63b dcb0 4f3d 933e 633d
00000360: f73b f93c 21cd 103d a5dc 6bbc 9bc4 4e3c
00000370: 6a5b 2c3c 9ba7 acbd a453 eb3c 4175 3ebc
00000380: 91c4 e4bc e2f6 edbd 0128 8bbe 892d 57be
00000390: e3a1 15be cce0 b8bd 680f a13d 7192 903c
000003a0: 0c2d 183e e612 a03e b982 8cbd 295e 3fbd
000003b0: a597 7dbd e517 96bc b132 193e c7a1 213b
000003c0: 5691 8c3c d304 f43d ab4c babd f85e b43d
000003d0: 90a3 353c 297e 153d 8c9c 283e 7083 783d
000003e0: 6bf0 abbe 2168 7d3e 3297 243e 3172 6bbe
000003f0: 16ec 55bd 9616 a9bd dd3f 12be fce6 0b3d

conv2.bias f4 [32]
0.0023182118 0.0852471 0.009109854 -0.0155852605 0.046882812 0.010259948 0.037988875 -0.019634396
-0.034038015 0.05602175 0.034482412 0.050458405 -0.0572099 0.10205409 -0.015579391 0.0037532437
-0.031899296 0.01773911 0.002930176 0.025342736 -0.021972485 0.035575897 0.047933713 0.00047385096
-0.019533962 -0.008651672 0.01711465 -0.022275545 -0.1040858 -0.04711062 -0.019979386 -0.03233421
00000000: 24ed 173b 0896 ae3d 7f41 153c 5259 7fbc
00000010: 3108 403d 5719 283c 399a 1b3d 50d8 a0bc
00000020: 726b 0bbd 1077 653d 6e3d 0d3d 79ad 4e3d
00000030: ee54 6abd bc01 d13d b440 7fbc fbf8 753b
00000040: d6a8 02bd 9c51 913c 3208 403b 929b cf3c
00000050: a4ff b3bc 08b8 113d 2456 443d 336f f839
00000060: b005 a0bc bebf 0dbc 0634 8c3c 347b b6bc
00000070: f02a d5bd 11f7 40bd cfab a3bc e070 04bd

conv3.weight f4 [32, 32, 3, 3]
-0.044937216 -0.050678045 -0.010639909 0.006002013 -0.044517104 0.057218935 -0.020311045 0.024858521
0.0467866 0.0012928616 -0.056923717 -0.009958457 0.049129218 -0.017736167 -0.019281965 0.05460316
0.019624261 -0.046819396 -0.04576361 0.03931722 -0.03951042 -0.038016647 0.049226236 -0.055908468
-0.034839604 -0.012690578 0.046366956 0.03902626 -0.014535837 0.038864143 -0.018732019 -0.04152864
0.01612334 0.017339649 0.026694775 -0.018553983 0.00869873 0.01736474 -0.03969833 0.028199881
-0.029710276 0.025547165 0.02554059 0.05814671 -0.019526403 0.044797562 0.05268722 0.001230098
0.0070778676 -0.022730133 0.0445422 -0.0054366556 -0.014999719 -0.031001149 -0.045773774 0.037038993
0.016811922 0.05338376 0.040268075 -0.035084218 -0.0023823506 -0.03431838 -0.016320132 -0.032277256
0.0136212995 0.03348379 0.034861766 -0.025383543 0.04326608 0.02333286 0.02503421 -0.007845137
0.038268138 -0.049916424 0.040527917 0.030241726 -0.055143215 -0.024848294 -0.038393874 0.008728366
-0.0377546 0.041405585 -0.009208025 -0.03901479 0.01842165 -0.013218965 -0.036970556 -0.05556115
-0.010641735 0.024233988 -0.027395654 -0.019411208 -0.01192694 -0.016484216 -0.041185807 0.026091786
0.024493774 0.012269229 -0.057819877 -0.009258405 0.046759773 -0.021794867 0.05719368 0.00477528
0.02681424 -0.02895676 -0.038204495 0.041933388 -0.0048279287 0.029071864 0.03747964 0.049337592
0.017250746 -0.00042949745 0.030699983 -0.026904581 -0.018055893 0.047174048 0.029526697 0.0055832844
0.032818485 0.036967814 0.020366713 -0.014129991 -0.05415174 0.02388037 0.054349408 0.014349056
0.036792353 -0.016298685 0.0221086 -0.054330394 0.022834621 0.0020650763 0.008478168 0.034962926
-0.01722975 0.034659687 0.0009604494 0.011664927 0.034252267 -0.03911045 -0.039054472 -0.047676116
0.036807884 -0.0038957174 -0.040604044 -0.058196712 0.043994617 -0.042989478 0.0559496 -0.052920785
-0.047808062 -0.028683241 -0.03574501 -0.05582293 0.028159434 -0.045806643 -0.00861176 0.0006241808
-0.053873416 0.01726939 -0.009159437 0.056895226 0.038378295 0.03374132 -0.036251213 -0.049906574
0.0070672887 0.010739158 -0.024063602 0.017072614 0.008245764 -0.027689103 -0.051585957 0.032852393
-0.038356576 -0.02123423 0.00085877016 -0.0037547573 -0.05120422 -0.027001547 0.043307707 -0.057082243
0.008118333 -0.049093768 -0.016223628 -0.055075936 0.028908987 -0.021064201 0.0043713097 -0.058597818
-0.02300831 0.026137678 -0.05559106 -0.0053266943 0.03939587 -0.048512075 0.01107983 -0.016655128
-0.0561343 -0.047428276 -0.054855607 0.025829991 -0.02879715 -0.046372056 -0.049604177 -0.05248337
0.018967122 -0.043988977 -0.009137359 -0.015577355 -0.01984625 -0.012187478 -0.02337231 0.0426627
-0.01194167 0.0424175 0.02125521 -0.012668851 -0.0293622 -0.044217855 0.048467766 0.047586393
-0.024865039 -0.033607326 -0.04422303 -0.020536987 -0.014008145 -0.05193338 0.01576465 0.049478
0.017045703 0.039274696 -0.016927622 0.013334455 0.011255829 0.025785554 -0.016009916 0.058440097
0.050966203 0.048991356 -0.030149419 -0.04651033 0.005031842 0.034805767 0.052524112 -0.013994348
-0.055788077 -0.02582841 -0.038528543 0.02198034 -0.032589868 -0.025070302 -0.04688919 0.0151526
00000000: 1610 38bd c893 4fbd 0353 2ebc 89ac c43b
00000010: 9157 36bd 675e 6a3d 5963 a6bc 19a4 cb3c
00000020: 4ea3 3f3d 3d75 a93a d828 69bd cc28 23bc
00000030: b83b 493d 704b 91bc 36f5 9dbc 90a7 5f3d
00000040: 0fc3 a03c b2c5 3fbd a072 3bbd 180b 213d
00000050: aed5 21bd 58b7 1bbd 73a1 493d 4700 65bd
00000060: f9b3 0ebd 24ec 4fbc 47eb 3d3d 00da 1f3d
00000070: b827 6ebc 0230 1f3d e473 99bc ef19 2abd
00000080: 1815 843c e10b 8e3c 00af da3c 86fe 97bc
00000090: 1e85 0e3c 8040 8e3c b79a 22bd 7003 e73c
000000a0: f762 f3bc 4a48 d13c 803a d13c 3f2b 6e3d
000000b0: d6f5 9fbc a67d 373d 8ece 573d 3d3b a13a
000000c0: 75ed e73b 8b34 babc e271 363d f925 b2bb
000000d0: 62c1 75bc 1ff6 fdbc 487d 3bbd 33b6 173d
000000e0: 28b9 893c eea8 5a3d 23f0 243d 78b4 0fbd
000000f0: 3621 1cbb 6e91 0cbd ccb1 85bc 2835 04bd
00000100: df2b 5f3c 4c26 093d 36cb 0e3d 26f1 cfbc
00000110: c637 313d 8e24 bf3c 8b14 cd3c e488 00bc
00000120: 0dbf 1c3d 2a75 4cbd 9a00 263d 7fbd f73c
00000130: dadd 61bd a68e cbbc e542 1dbd 6c01 0f3c
00000140: 91a4 1abd e798 293d 42dd 16bc f9cd 1fbd
00000150: 00e9 963c 5c94 58bc 706e 17bd 1794 63bd
00000160: ac5a 2ebc 5b86 c63c da6c e0bc 4104 9fbc
00000170: 3669 43bc e809 87bc 73b2 28bd 71be d53c
00000180: 2ba7 c83c e004 493c 89d4 6cbd 91b0 17bc
00000190: 2d87 3f3d 268b b2bc ec43 6a3d f479 9c3b
000001a0: 89a9 db3c ba36 edbc 517c 1cbd 58c2 2b3d
000001b0: 9a33 9ebb 1e28 ee3c 4084 193d 3716 4a3d
000001c0: 7051 8d3c 2c2e e1b9 887e fb3c ff66 dcbc
000001d0: f4e9 93bc 9339 413d f9e1 f13c fcf3 b63b
000001e0: ad6c 063d 906b 173d 18d8 a63c 7a81 67bc
000001f0: 37ce 5dbd c4a0 c33c 7c9d 5e3d 4e18 6b3c
00000200: 94b3 163d d284 85bc 181d b53c 8c89 5ebd
00000210: ac0f bb3c 3b56 073b 04e8 0a3c 4935 0f3d
00000220: 6825 8dbc 51f7 0d3d abc6 7b3a 401e 3f3c
00000230: 1b4c 0c3d 4732 20bd 95f7 1fbd 0848 43bd
00000240: ddc3 163d 4b4f 7fbb 6d50 26bd ad5f 6ebd
00000250: b333 343d bc15 30bd 682b 653d 77c3 58bd
00000260: 63d2 43bd 1ef9 eabc 5c69 12bd 96a6 64bd
00000270: 9dae e63c bf9f 3bbd 5718 0dbc 10a0 233a
00000280: 5faa 5cbd 8978 8d3c 7711 16bc f80a 693d
00000290: 8f32 1d3d 5734 0a3d 277c 14bd d66a 4cbd
000002a0: b794 e73b 4bf3 2f3c 0821 c5bc dedb 8b3c
000002b0: 3e19 073c 42d4 e2bc cc4b 53bd 3b90 063d
000002c0: c91b 1dbd 68f3 adbc 171f 613a 6012 76bb
000002d0: 84bb 51bd 5932 ddbc 6c63 313d 12cf 69bd
000002e0: c202 053c 8c16 49bd 6ae7 84bc 4e97 61bd
000002f0: 8ad2 ec3c d58e acbc 343d 8f3b 4404 70bd
00000300: ec7b bcbc af1e d63c 74b3 63bd 8d8b aebb
00000310: 905d 213d 99b4 46bd 2d88 353c 5670 88bc
00000320: 14ed 65bd 2744 42bd 46b0 60bd 6b99 d33c
00000330: 00e8 ebbc a0f0 3dbd c02d 4bbd cdf8 56bd
00000340: f060 9b3c c92d 34bd ddb4 15bc 2a38 7fbc
00000350: 9a94 a2bc fdad 47bc 4977 bfbc 15bf 2e3d
00000360: ffa6 43bc f9bd 2d3d 681f ae3c 0391 4fbc
00000370: ff88 f0bc c81d 35bd 2386 463d f3e9 423d
00000380: c4b1 cbbc d6a7 09bd 3523 35bd 2f3d a8bc
00000390: 6b82 65bc 19b8 54bd de24 813c 71a9 4a3d
000003a0: 6ea3 8b3c 81de 203d ccab 8abc c278 5a3c
000003b0: 5e6a 383c 3a3c d33c 3a27 83bc e25e 6f3d
000003c0: f0c1 503d 29ab 483d eafb f6bc 9e81 3ebd
000003d0: 26e2 a43b 7e90 0e3d 8623 573d 8d48 65bc
000003e0: 0a82 64bd 1a96 d3bc 1bd0 1dbd 1d10 b43c
000003f0: f47c 05bd 3c60 cdbc e10e 40bd 9c42 783c

conv3.bias f4 [32]
0.055178516 -0.024556138 0.03433967 -0.010181759 -0.05399371 0.016575674 -0.047847077 0.0063323043
-0.058178738 -0.047316384 0.0016206938 -0.012282877 0.052048575 0.041503083 -0.0035684614 -0.055532802
0.032956026 0.051363543 -0.003739725 -0.027588485 0.020198371 -0.016387131 0.002806306 -0.04138049
0.037738554 -0.015972573 0.025045183 0.033091605 -0.017395107 0.047264777 -0.023500226 0.0570646
00000000: de02 623d f429 c9bc c1a7 0c3d 64d1 26bc
00000010: 8228 5dbd b5c9 873c 4cfb 43bd 387f cf3b
00000020: d44c 6ebd d3ce 41bd 766d d43a 1f3e 49bc
00000030: e330 553d 23ff 293d d9dc 69bb 5d76 63bd
00000040: e6fc 063d 9462 523d 2d16 75bb 3f01 e2bc
00000050: 0e77 a53c 4e3e 86bc 00ea 373b 977e 29bd
00000060: be93 1a3d ead8 82bc 8e2b cd3c 108b 073d
00000070: 2f80 8ebc b698 413d 8c83 c0bc 92bc 693d

conv4.weight f4 [8, 32, 3, 3]
0.014727177 0.006504544 0.002788604 -0.051881492 -0.010054721 -0.04753555 -0.007636187 -0.018386802
0.00756269 -0.05679751 0.013261941 0.049018443 0.009761891 0.018299565 -0.03148172 -0.038832728
0.04608616 0.034369055 -0.03136525 -0.052013863 -0.023287328 -0.020318806 0.04579869 -0.05351441
-0.012827513 -0.03083455 -0.0040440112 0.0412257 0.04340341 -0.02851729 -0.028566284 -0.0186963
-0.012013622 0.012272889 0.023586908 -0.0027362928 -0.04958482 0.058879092 0.0056502977 0.023185922
-0.0007346266 0.046727978 -0.03014986 0.031926345 -0.032619406 0.027851025 0.05170755 0.018289365
-0.009508926 -0.03749113 -0.045429774 0.03357107 -0.021536049 0.052131668 0.031484608 0.056519892
-0.045064963 -0.041504614 0.002226899 0.006173024 0.035979986 -0.04335033 -0.023652473 -0.05420478
0.021331124 -0.019631159 0.033614557 0.048807785 0.057150964 -0.029927613 -0.03876793 0.010194873
-0.042787697 -0.03976655 -0.029250707 -0.05602814 0.019410858 0.057462197 -0.0034516512 -0.019611103
0.026101332 0.020194992 0.051649395 0.04071297 -0.013534203 0.033275485 -0.03779121 -0.051394485
0.054671556 -0.021627635 -0.03942863 0.022649724 0.014332008 0.054596696 0.012595663 0.018066801
-0.05792594 0.051497716 -0.052692376 0.053588968 0.0018806346 0.03966423 -0.030987803 -0.038895704
-0.048043437 0.05725825 0.0012298239 0.057701867 -0.033337414 0.0022684135 0.01683088 -0.046862464
0.052905638 -0.038142197 -0.04570381 0.054168954 0.010705026 -0.026914028 0.0069680754 -0.015966406
0.026310809 -0.01973633 -0.05890329 -0.044241816 -0.045741014 0.036791958 -0.03702592 -0.015494446
0.042129364 -0.006832826 0.017967552 0.045449924 -0.03992091 0.04882794 -0.039908487 -0.030186184
-0.005332988 -0.0016501616 -0.0050693806 -0.03942263 -0.0019147946 -0.03600193 -0.04572443 0.04940408
-0.016890652 0.021459447 -0.0396342 -0.042208813 0.031786114 0.0100923935 -0.028817002 -0.057892885
-0.026932405 0.0007731699 0.023814585 0.05640772 0.046611976 -0.020520752 -0.0029207205 0.025078323
0.052173212 -0.032053128 -0.013531955 -0.03193766 -0.040752616 0.016422413 -0.057289932 0.013832497
-0.025042737 -0.030078478 0.031507798 -0.026348833 -0.024801172 0.050920017 0.055873383 0.017246047
0.042158775 -0.0010718295 0.013936776 -0.04484521 0.055348147 -0.022958927 0.052206438 -0.012124342
-0.02566807 0.005020385 -0.032957584 -0.0014612734 0.009135386 0.018442519 -0.04210546 0.031412024
-0.026494324 -0.004807143 -0.002209745 0.044095717 0.009018576 -0.047496345 -0.016261617 -0.049403533
-0.02099735 0.03230338 -0.020957991 -0.042466264 0.0559304 -0.010094781 0.02688119 -0.045126278
-0.05355974 0.033650156 -0.022379499 0.039478917 0.016807053 0.040544447 -0.038644403 -0.03392371
0.022179 -0.016087558 -0.030245893 -0.053530257 -0.022760127 -0.0006800956 0.030055493 0.017149236
0.05343212 0.0002805505 0.03323598 -0.038897377 0.014726874 -0.02737607 -0.039346464 0.018058436
0.039719198 0.036155388 0.050980106 -0.05070117 0.043282032 0.016198017 -0.03405821 0.026669022
-0.004246562 0.0052922606 -0.009503426 0.046794634 -0.013248693 0.017463077 -0.02937025 0.022412388
0.041736417 -0.013423855 0.000841223 -0.028743617 0.0067827976 0.013607292 0.001515404 -0.05013723
00000000: 424a 713c 1224 d53b 03c1 363b b081 54bd
00000010: 8ebc 24bc a3b4 42bd fb38 fabb eb9f 96bc
00000020: 71d0 f73b 81a4 68bd 9d48 593c 90c7 483d
00000030: 57f0 1f3c f8e8 953c faf2 00bd 110f 1fbd
00000040: d7c4 3c3d 91c6 0c3d d978 00bd 7d0c 55bd
00000050: 11c5 bebc a073 a6bc 6897 3b3d ed31 5bbd
00000060: 7d2a 52bc bd98 fcbc a083 84bb 48dc 283d
00000070: c6c7 313d 179d e9bc d703 eabc fc28 99bc
00000080: c8d4 44bc 3a14 493c 5539 c13c 6053 33bb
00000090: 7419 4bbd 342b 713d 2226 b93b 67f0 bd3c
000000a0: f593 40ba d665 3f3d d7fc f6bc 33c5 023d
000000b0: ed9b 05bd d527 e43c 4ccb 533d 94d3 953c
000000c0: 54cb 1bbc 4d90 19bd 9214 3abd d181 093d
000000d0: 5e6c b0bc 0488 553d 01f6 003d 6781 673d
000000e0: 0a96 38bd be00 2abd 2af1 113b 1447 ca3b
000000f0: c05f 133d 1e90 31bd d5c2 c1bc d505 5ebd
00000100: 9cbe ae3c 86d1 a0bc 6baf 093d acea 473d
00000110: 2117 6a3d c12a f5bc 1fcb 1ebd 6608 273c
00000120: 2742 2fbd 40e2 22bd 2e9f efbc c37d 65bd
00000130: 8503 9f3c 7b5d 6b3d 1935 62bb 77a7 a0bc
00000140: 76d2 d53c f86f a53c 518e 533d a5c2 263d
00000150: 90be 5dbc e04b 083d f5ca 1abd 0683 52bd
00000160: 48ef 5f3d 702c b1bc ea7f 21bd ea8b b93c
00000170: ccd0 6a3c c9a0 5f3d 0a5e 4e3c d400 943c
00000180: c043 6dbd 45ef 523d f6d3 57bd 1b80 5b3d
00000190: a07f f63a f676 223d 22da fdbc 1a51 1fbd
000001a0: 32c9 44bd a087 6a3d 0b32 a13a cb58 6c3d
000001b0: d08c 08bd aaa9 143b eae0 893c dbf2 3fbd
000001c0: 95b3 583d fe3a 1cbd eb33 3bbd 44e0 5d3d
000001d0: 2264 2f3c cf7a dcbc 7454 e43b fbcb 82bc
000001e0: c489 d73c 15ae a1bc 9444 71bd e836 35bd
000001f0: ee5a 3bbd 2ab3 163d 7ea8 17bd 6bdc 7dbc
00000200: d78f 2c3d e6e5 dfbb b030 933c b329 3a3d
00000210: 1c84 23bd ceff 473d 1577 23bd 0449 f7bc
00000220: 59c0 aebb 3c4a d8ba 0c1d a6bb a079 21bd
00000230: d8f9 faba c276 13bd 8a49 3bbd ef5b 4a3d
00000240: 445e 8abc b9cb af3c 7957 22bd 26e3 2cbd
00000250: 2832 023d 915a 253c a211 ecbc 1721 6dbd
00000260: 59a1 dcbc 8eae 4a3a ce16 c33c c80b 673d
00000270: 33ec 3e3d 231b a8bc 8f69 3fbb 0e71 cd3c
00000280: 94b3 553d 244a 03bd 22b5 5dbc 10d1 02bd
00000290: 37ec 26bd 4c88 863c d9a8 6abd b3a1 623c
000002a0: 6d26 cdbc 2467 f6bc 520e 013d 82d9 d7bc
000002b0: d42b cbbc 8291 503d 7ddb 643d 9547 8d3c
000002c0: aeae 2c3d a17c 8cba 1357 643c 9caf 37bd
000002d0: bdb4 623d 5c14 bcbc 6bd6 553d 2da5 46bc
000002e0: d845 d2bc 0b82 a43b 88fe 06bd 3388 bfba
000002f0: 96ac 153c c414 973c c676 2cbd e5a9 003d
00000300: a00a d9bc 3d85 9dbb 5fd1 10bb b69d 343d
00000310: a6c2 133c 878b 42bd 1537 85bc 5c5b 4abd
00000320: a202 acbc 8d50 043d 18b0 abbc 1bf1 2dbd
00000330: 4617 653d 9564 25bc f135 dc3c 55d6 38bd
00000340: 7561 5bbd bfd4 093d 3655 b7bc a5b4 213d
00000350: f2ae 893c ef11 263d 9849 1ebd 97f3 0abd
00000360: bcb0 b53c 0eca 83bc 3cc6 f7bc 8b42 5bbd
00000370: 7273 babc 7148 32ba f036 f63c 8e7c 8c3c
00000380: a3db 5a3d da16 9339 7322 083d db52 1fbd
00000390: fd48 713c c843 e0bc c229 21bd 49ef 933c
000003a0: 99b0 223d ac17 143d 84d0 503d 08ac 4fbd
000003b0: 8048 313d b4b1 843c 9f80 0bbd fe78 da3c
000003c0: be26 8bbb b36a ad3b 42b4 1bbc bbab 3f3d
000003d0: 0c11 59bc ba0e 8f3c e199 f0bc 2f9a b73c
000003e0: cef3 2a3d bbef 5bbc 8585 5c3a bc77 ebbc
000003f0: 3b42 de3b 1ff1 5e3c 85a0 c63a b25c 4dbd

conv4.bias f4 [8]
-0.00954251 -0.015247964 -0.037809778 0.014846284 -0.030728558 0.045878243 -0.025145028 -0.011044462
00000000: 3058 1cbc 99d2 79bc 6dde 1abd d43d 733c
00000010: 75ba fbbc d3ea 3b3d f2fc cdbc d5f3 34bc

fc1.weight f4 [128, 1152]
0.03124611 -0.02946039 0.032667093 -0.026300915 0.031164968 -0.062349353 0.057630256 -0.05500956
-0.12667596 0.055585008 0.039127342 -0.0069244537 0.009859628 -0.009880949 -0.06174821 -0.100499436
-0.048654076 0.0328088 0.06015627 -0.043590985 0.0048144986 -0.07586176 -0.008209589 -0.046231773
0.09304145 0.04563239 -0.116890796 0.117979586 0.07338669 -0.007111077 0.11063738 -0.18986237
-0.012027819 0.004790114 -0.18120699 0.10695174 -0.026595727 -0.070771225 -0.009234251 -0.03696752
-0.044374052 -0.05635238 -0.032635935 -0.032569155 0.04031517 -0.0070445808 -0.053043798 -0.037727166
-0.07203419 -0.016363388 0.016441753 0.06713138 0.04654255 -0.0387522 -0.064852715 -0.045845386
-0.07443548 -0.033182386 0.007827503 -0.03421783 -0.046176653 -0.07906338 0.014399504 -0.024768233
-0.019435037 -0.054712184 -0.06308172 -0.04118527 0.09313299 -0.098095946 0.023553751 -0.083586685
0.011313429 0.055525113 0.022603594 -0.03185702 -0.0070983567 0.025699252 -0.050839014 0.03622584
-0.057198092 -0.097149566 -0.024208503 -0.00354108 0.034163862 0.03995104 -0.010700201 -0.1228189
-0.13715142 -0.008512906 -0.039579965 -0.011073431 -0.0035481025 -0.050853997 -0.0798195 -0.031124976
-0.003933039 -0.008901605 0.0037045844 -0.06445046 -0.0041377977 -0.013058847 0.029397674 -0.0057453527
-0.15535554 -0.03311154 -0.06754499 -0.06007015 -0.018515574 -0.072460465 -0.025108377 0.0026135615
-0.0221349 -0.025499234 -0.025631655 0.0019422129 0.07141509 0.0034233078 -0.047849525 -0.034256596
-0.033498157 0.015495518 0.042485297 0.071677975 0.075463034 -0.012259456 -0.0049801106 -0.0089153545
-0.04343145 0.031943794 0.06549856 0.052551094 0.005265342 -0.08291727 0.008389442 0.0063917898
-0.019808333 -0.019475011 -0.034929875 -0.019193895 0.17521349 0.0010447174 0.05316148 -0.012155884
0.015662722 0.08149839 0.016707515 -0.04802362 0.022885554 0.014000125 -0.009021295 -0.010531241
-0.03368738 -0.049089998 0.015259919 -0.002773919 0.001480958 0.0057993815 -0.072192855 -0.11812708
-0.05221596 -0.011011775 0.025303178 0.041281126 0.05357232 -0.05109282 -0.0578671 -0.024807194
0.026102846 0.04738953 0.011035285 -0.005536407 -0.036183998 -0.001032168 0.012216935 -0.020966463
-0.12946181 -0.018092362 -0.041753393 0.0043357746 -0.04567177 -0.042663217 0.048492696 0.061549146
-0.038145054 0.028049724 0.0044047 -0.037037797 0.06519176 0.038938243 -0.041532468 0.0009032722
0.010498206 0.01872219 0.15960313 0.104794346 0.027757877 0.000690104 -0.033328015 0.036875673
-0.012266117 0.1065034 0.083085716 0.032171648 -0.026276492 -0.03414256 0.058224346 0.007269649
0.0076177907 -0.010624791 -0.013703293 0.055537455 0.08052689 0.004355157 0.081900254 0.013722363
-0.019554297 0.0613624 0.004778844 -0.048477665 -0.024082273 0.04597629 -0.029453097 0.044944562
-0.12489635 -0.042198285 -0.0639882 0.011674714 0.02072771 0.0049693505 -0.035874277 -0.1359265
-0.14690748 -0.042199533 0.0024357233 -0.0686599 0.072926044 -0.04068676 -0.11573149 -0.055987913
-0.023549454 0.06776033 -0.013555184 0.0033650293 0.021740058 -0.00093789527 -0.0140576735 0.036068693
-0.24203418 -0.024493573 -0.087293066 -0.040453788 -0.06112034 0.047249828 0.036044646 0.0035528746
00000000: d8f7 ff3c ea56 f1bc eecd 053d 0475 d7bc
00000010: ad4d ff3c 0962 7fbd b40d 6c3d b451 61bd
00000020: 58b7 01be 1bad 633d fe43 203d 87e6 e2bb
00000030: 478a 213c b4e3 21bc b1eb 7cbd a6d2 cdbd
00000040: 7f49 47bd 8562 063d 6c66 763d 768c 32bd
00000050: f1c2 9d3b 695d 9bbd 8381 06bc 875d 3dbd
00000060: 848c be3d 07e9 3a3d 7164 efbd 489f f13d
00000070: c34b 963d 0a04 e9bb da95 e23d 486b 42be
00000080: 5410 45bc 63f6 9c3b 538e 39be 8409 db3d
00000090: 48df d9bc 81f0 90bd 424b 17bc 416b 17bd
000000a0: 91c1 35bd c1d1 66bd 42ad 05bd 3c67 05bd
000000b0: 8521 253d 3ad6 e6bb 7444 59bd cd87 1abd
000000c0: a986 93bd 830c 86bc dbb0 863c 2d7c 893d
000000d0: 67a3 3e3d a0ba 1ebd 80d1 84bd 5fc8 3bbd
000000e0: a171 98bd 41ea 07bd ed3e 003c ff27 0cbd
000000f0: bb23 3dbd fbeb a1bd e6eb 6b3c c0e6 cabc
00000100: 3a36 9fbc e219 60bd fd30 81bd e3b1 28bd
00000110: 82bc be3d 87e6 c8bd ccf3 c03c 7f2f abbd
00000120: f65b 393c 4d6e 633d 2c2b b93c 827c 02bd
00000130: 5599 e8bb 3d87 d23c 923c 50bd 8c61 143d
00000140: 8c48 6abd 5af6 c6bd e950 c6bc 7711 68bb
00000150: 68ef 0b3d b4a3 233d e54f 2fbc 7a88 fbbd
00000160: 6c71 0cbe b779 0bbc 9a1e 22bd 566d 35bc
00000170: 4887 68bb 484c 50bd 6878 a3bd cef9 febc
00000180: b9e0 80bb 0ad8 11bc 9dc8 723b 9afe 83bd
00000190: 5d96 87bb c6f4 55bc 64d3 f03c 8343 bcbb
000001a0: 8615 1fbe f79f 07bd 0755 8abd 1e0c 76bd
000001b0: f9ad 97bc 2766 94bd 15b0 cdbc 4948 2b3b
000001c0: 4054 b5bc c5e3 d0bc 7af9 d1bc da91 fe3a
000001d0: 1342 923d 9359 603b ddfd 43bd a550 0cbd
000001e0: 5d35 09bd eae0 7d3c 1005 2e3d e7cb 923d
000001f0: 5d8c 9a3d e3db 48bc 3230 a3bb b511 12bc
00000200: 2de5 31bd 7fd7 023d 1c24 863d d13f 573d
00000210: e488 ac3b 88d0 a9bd df73 093c 3872 d13b
00000220: 1645 a2bc 0f8a 9fbc a112 0fbd 843c 9dbc
00000230: 2a6b 333e e6ee 883a dabf 593d 7929 47bc
00000240: 1c4f 803c a1e8 a63d 33de 883c 6ab4 44bd
00000250: 7c7a bb3c c860 653c 0ece 13bc 3a8b 2cbc
00000260: c7fb 09bd 9812 49bd bd04 7a3c a3ca 35bb
00000270: b41c c23a bd08 be3b d9d9 93bd 9cec f1bd
00000280: 67e0 55bd bb6a 34bc 9c48 cf3c 6616 293d
00000290: a66e 5b3d b446 51bd 0d06 6dbd 7538 cbbc
000002a0: a3d5 d53c 861b 423d 57cd 343c c06a b5bb
000002b0: ac35 14bd d049 87ba 8a29 483c dcc1 abbc
000002c0: a391 04be 6f36 94bc 9b05 2bbd 1d13 8e3b
000002d0: 5212 3bbd a0bf 2ebd 47a0 463d f51a 7c3d
000002e0: fd3d 1cbd 89c8 e53c 4d55 903b f2b4 17bd
000002f0: 4283 853d b57d 1f3d f31d 2abd 92c9 6c3a
00000300: ab00 2c3c 475f 993c 016f 233e 6b9e d63d
00000310: 7d64 e33c 18e8 343a f582 08bd f20a 173d
00000320: d3f7 48bc 741e da3d d828 aa3d 6bc6 033d
00000330: cc41 d7bc 12d9 0bbd a77c 6e3d 3c36 ee3b
00000340: a99e f93b 9a13 2ebc c783 60bc 3e7b 633d
00000350: 48eb a43d b4b5 8e3b 52bb a73d c3d3 603c
00000360: 5530 a0bc 2457 7b3d d997 9c3b 8490 46bd
00000370: 3048 c5bc a251 3c3d 9f47 f1bc ca17 383d
00000380: a8c9 ffbd 1cd8 2cbd 3f0c 83bd 4d47 3f3c
00000390: 29cd a93c efd5 a23b e8f0 12bd 5130 0bbe
000003a0: ea6e 16be 6bd9 2cbd a8a0 1f3b 909d 8cbd
000003b0: 405a 953d 29a7 26bd a204 edbd 9553 65bd
000003c0: c9ea c0bc eec5 8a3d 9016 5ebc d387 5c3b
000003d0: 3518 b23c 16dd 75ba 2852 66bc c4bc 133d
000003e0: cfd7 77be bfa6 c8bc b5c6 b2bd dfb2 25bd
000003f0: 5259 7abd 0989 413d 8da3 133d 58d7 683b

fc1.bias f4 [128]
-0.07898463 -0.08170127 0.009429067 0.0038124837 0.062996574 0.026225984 -0.028617768 0.013398955
0.023506228 0.036196854 0.013874911 -0.0030809143 0.03420274 0.047893364 0.036810033 -0.026298217
-0.001587668 0.031040415 -0.024031809 -0.005684911 -0.022176806 0.016078582 0.024906404 -0.0051418715
-0.035173822 -0.041161366 0.01453642 -0.027298992 0.0019081384 -0.04831921 -0.013616461 0.0081420075
-0.0047710002 0.003958078 0.015593428 -0.050680626 -0.030827342 0.0115588205 -0.013652717 0.023375055
-0.021252738 0.01721717 -0.08526467 0.023118455 -0.008309091 0.016092785 0.03224763 0.009304485
-0.03834132 -0.084665984 -0.07429805 -0.034343343 0.013484146 -0.0005777434 0.009463604 0.019865246
0.0370919 -0.07834652 -0.004450908 -0.03280434 -0.022823956 0.06769314 0.0010765682 -0.021816906
0.02963994 0.02433257 -0.014262078 0.001133317 -0.024476293 -0.03542028 0.0024638032 -0.02135938
-0.00054951274 -0.0059498115 0.010898383 -0.056992877 -0.025144702 -0.04038123 -0.00068608753 -0.078964405
-0.072640724 0.0126971975 -0.0056798304 -0.038379673 -0.06258725 0.042890172 -0.07379546 0.00018500439
0.0077324375 -0.05127135 -0.00532947 -0.015441739 0.0311006 -0.018587984 -0.055561643 -0.056648586
0.018456332 -0.062330633 -0.000682354 -0.07930537 -0.030944591 -0.07211277 -0.010575568 0.03107302
-0.06564325 -0.028488947 -0.028762808 0.010274411 0.015342973 0.0010665015 -0.030365242 0.046419892
-0.049524155 0.0041110124 0.051913917 0.0016092524 -0.053678412 0.021900425 -0.06921771 -0.02221418
-0.014203497 -0.048730265 -0.007840594 -0.02412747 -0.032648996 -0.018436529 -0.0016605413 0.018165393
00000000: b2c2 a1bd ff52 a7bd 607c 1a3c ddda 793b
00000010: 5904 813d e0d7 d63c cf6f eabc 4a87 5b3c
00000020: 2290 c03c 2743 143d 9853 633c 2ae9 49bb
00000030: 2c18 0c3d d52b 443d 1ec6 163d 5c6f d7bc
00000040: 4c19 d0ba 7848 fe3c 5bde c4bc 7d48 babb
00000050: 22ac b5bc 3bb7 833c 8408 cc3c 257d a8bb
00000060: 6d12 10bd d298 28bd 2a2a 6e3c 23a2 dfbc
00000070: 801a fa3a 5dea 45bd 9417 5fbc 0e66 053c
00000080: 0d56 9cbb c4b2 813b 947b 7f3c 7d96 4fbd
00000090: 9f89 fcbc 3561 3d3c a5af 5fbc 0b7d bf3c
000000a0: 391a aebc 060b 8d3c 3e9f aebd ea62 bd3c
000000b0: db22 08bc 04d5 833c 1716 043d d771 183c
000000c0: ca0b 1dbd 5c65 adbd 9329 98bd 9bab 0cbd
000000d0: 9cec 5c3c b473 17ba 3b0d 1b3c 71bc a23c
000000e0: aded 173d 2474 a0bd ecd8 91bb d85d 06bd
000000f0: 4ef9 babc b3a2 8a3d a21b 8d3a 5eb9 b2bc
00000100: 76cf f23c 1955 c73c 7eab 69bc cf8b 943a
00000110: 8282 c8bc db14 11bd c277 213b def9 aebc
00000120: 2d0d 10ba a3f6 c2bb 228f 323c 5d71 69bd
00000130: 43fc cdbc ca66 25bd 8eda 33ba 17b8 a1bd
00000140: a9c4 94bd e807 503c df1d babb 0134 1dbd
00000150: be2d 80bd 9bad 2f3d 1322 97bd bdfd 4139
00000160: 6360 fd3b e801 52bd d6a2 aebb 59ff 7cbc
00000170: afc6 fe3c d445 98bc 9b94 63bd 5908 68bd
00000180: bc31 973c 684e 7fbd 00e0 32ba db6a a2bd
00000190: 837f fdbc dcaf 93bd 2645 2dbc d98c fe3c
000001a0: f86f 86bd a761 e9bc fb9f ebbc 0156 283c
000001b0: 1861 7b3c dac9 8b3a 87c0 f8bc c922 3e3d
000001c0: d7d9 4abd acb5 863b b0a3 543d 8ded d23a
000001d0: e5dd 5bbd 8568 b33c 04c2 8dbd 83fa b5bc
000001e0: c9b5 68bc 6399 47bd d675 00bc f9a6 c5bc
000001f0: f4ba 05bd 3408 97bc 85a6 d9ba 97cf 943c

fc2.weight f4 [5, 128]
0.1287496 0.080869265 0.08397607 0.036067035 0.10083436 0.10800091 -0.023430165 -0.00012305011
-0.0078567155 0.106469065 0.051168308 -0.13252878 0.09633358 0.03411516 -0.017595602 -0.1771971
-0.30194563 0.10598047 -0.15768874 0.073435605 -0.22717099 -0.13714893 0.052437298 0.18632509
-0.17229599 0.013093929 0.10138435 0.115167335 -0.08585381 -0.18084887 -0.03735408 -0.24293101
0.06892287 -0.04534966 -0.09850596 -0.11650204 -0.2546845 0.12558085 -0.23134343 0.11216521
0.14660703 -0.14394803 -0.29712316 -0.2837755 0.029469442 0.06215038 -0.15843423 0.0876815
0.09905825 -0.15235652 -0.035311848 -0.2181096 -0.19074526 -0.051146407 0.0972703 0.04336556
0.14881133 -0.082667544 -0.078378215 -0.27335656 0.061678402 0.09981276 -0.24455345 -0.1558609
0.11944573 0.02082601 -0.13454187 -0.16619247 0.13144165 -0.028868573 -0.2172361 -0.27933463
-0.26845312 0.13037194 -0.24215528 0.11959388 -0.033837695 0.06646373 0.10613578 -0.037717696
0.00044987263 0.15713906 0.08944318 -0.11254177 -0.18748765 0.05343893 -0.043110937 0.10784261
0.09191182 -0.13867009 -0.0823502 0.033595342 0.0822011 0.11482943 -0.10044728 -0.17627147
0.02365593 0.011490955 0.08443296 -0.18177009 -0.16069168 0.029610781 -0.16291624 -0.20221005
-0.18617737 -0.20056489 0.079222456 -0.030617634 0.08570497 -0.1314533 -0.102593236 0.07016884
-0.24764979 0.07373424 0.049182028 -0.057609953 -0.14594796 0.16574906 -0.18069881 -0.003496228
-0.14483692 -0.07995217 0.027663624 -0.04168446 -0.23304446 0.04628302 0.08491258 0.11364432
-0.05629102 -0.07711656 -0.15140678 -0.06504368 0.15577784 -0.08551628 -0.012144719 -0.09580309
0.012346485 -0.052835602 0.011875479 -0.11025112 0.13102219 -0.12655513 0.1352549 -0.037065722
0.06973796 0.084888935 -0.0073677734 -0.026209677 0.102987535 -0.1022463 -0.07818949 -0.15262066
0.114657246 -0.14087176 -0.20976743 -0.14120519 0.018569158 0.034855537 0.022842435 0.073603
-0.17003278 -0.08910233 0.032765124 0.021470878 0.006447056 -0.019458255 -0.12139975 0.12552994
-0.06646722 -0.1625854 0.0030583218 0.10926921 0.016518302 0.031541582 -0.018967552 0.08031996
0.0011855882 0.11288796 0.040906888 -0.07321578 0.11577971 -0.07456913 -0.012158988 -0.19045664
-0.09946023 -0.15721525 0.11303157 0.11523607 0.018188698 0.07467909 0.003221923 0.08026777
-0.048754584 -0.20690529 -0.08439842 0.08563359 0.08663451 -0.16683123 0.120363064 0.03077663
0.09407374 -0.054065436 -0.013772699 -0.20849727 0.06257042 -0.0862859 0.18913804 0.08810452
-0.108458854 -0.0518495 -0.03510259 0.036393795 0.11964026 0.10002794 0.16668586 -0.07267436
-0.019344015 0.09567447 -0.015495805 -0.09809581 -0.078369334 -0.20504162 -0.11705987 -0.004740273
0.07884671 -0.21525735 -0.06329691 -0.025308901 -0.15719159 0.12305142 0.0492879 0.09353863
0.06923257 0.08023427 0.018241087 -0.09710579 -0.06916621 0.1205722 0.061649375 -0.029507041
0.12279723 -0.020617547 -0.249917 0.0664531 -0.10172312 -0.14683126 -0.08774794 0.08388578
0.038724687 0.10020787 0.071167774 0.049169753 -0.056838248 -0.073147 -0.23052895 -0.11006704
00000000: efd6 033e c99e a53d a5fb ab3d 07bb 133d
00000010: 3f82 ce3d 952f dd3d 9ef0 bfbc 0307 01b9
00000020: 74b9 00bc 740c da3d dc95 513d a0b5 07be
00000030: 8a4a c53d 57bc 0b3d a724 90bc 2873 35be
00000040: 9e98 9abe 4a0c d93d 2879 21be 6865 963d
00000050: 839f 68be c570 0cbe 7ec8 563d 01cc 3e3e
00000060: 5c6e 30be eb87 563c 99a2 cf3d dadc eb3d
00000070: 1fd4 afbd 7230 39be 9700 19bd e8c2 78be
00000080: 6f27 8d3d 91c0 39bd 7ebd c9bd 9f98 eebd
00000090: 0266 82be 4498 003e 4be5 6cbe e0b6 e53d
000000a0: 2720 163e 1d67 13be 8720 98be 064b 91be
000000b0: e669 f13c 6691 7e3d 953c 22be 5c92 b33d
000000c0: 0ddf ca3d 5903 1cbe 28a3 10bd 1f58 5fbe
000000d0: ba52 43be e57e 51bd a735 c73d 16a0 313d
000000e0: ff61 183e 9a4d a9bd c284 a0bd 64f5 8bbe
000000f0: 7ea2 7c3d a26a cc3d 386c 7abe 009a 1fbe
00000100: f69f f43d 4f9b aa3c 58c5 09be 5c2e 2abe
00000110: a498 063e c97d ecbc 2473 5ebe f304 8fbe
00000120: b072 89be 3980 053e 8ef7 77be a3ed f43d
00000130: 6599 0abd 231e 883d b75d d93d df7d 1abd
00000140: e2dc eb39 10e9 203e fc2d b73d 4d7c e6bd
00000150: c3fc 3fbe c8e2 5a3d 1895 30bd 96dc dc3d
00000160: 443c bc3d 88ff 0dbe 39a7 a8bd 459b 093d
00000170: 0d59 a83d b12b eb3d 4eb7 cdbd 8280 34be
00000180: 15ca c13c 8f44 3c3c 30eb ac3d f021 3abe
00000190: 5c8c 24be 4f92 f23c 84d3 26be 2710 4fbe
000001a0: 48a5 3ebe e260 4dbe 623f a23d d5d1 fabc
000001b0: 1686 af3d b29b 06be 671c d2bd aeb4 8f3d
000001c0: e897 7dbe fa01 973d 1873 493d 6af8 6bbd
000001d0: 6273 15be 1fba 293e 1c09 39be f920 65bb
000001e0: 2150 14be f7bd a3bd d39e e23c 53bd 2abd
000001f0: 35a3 6ebe 4493 3d3d a6e6 ad3d 5abe e83d
00000200: 6a91 66bd 49ef 9dbd 610a 1bbe 9f35 85bd
00000210: 3a84 1f3e 2923 afbd a5fa 46bc 6934 c4bd
00000220: e948 4a3c 256a 58bd 5e91 423c 57cb e1bd
00000230: ae2a 063e ab97 01be 4380 0a3e 3ad2 17bd
00000240: c7d2 8e3d 40da ad3d 5d6d f1bb adb5 d6bc
00000250: 21eb d23d 8266 d1bd d021 a0bd 9748 1cbe
00000260: 6bd1 ea3d b040 10be 46cd 56be 1898 10be
00000270: 591e 983c aec4 0e3d 0f20 bb3c 2bbd 963d
00000280: 131d 2ebe 487b b6bd b934 063d b2e3 af3c
00000290: d341 d33b eb66 9fbc 6fa0 f8bd ec8a 003e
000002a0: f71f 88bd c97c 26be 206e 483b 89c8 df3d
000002b0: 6451 873c bf31 013d d761 9bbc cb7e a43d
000002c0: bd65 9b3a ce31 e73d fb8d 273d 28f2 95bd
000002d0: ea1d ed3d b3b7 98bd 7e36 47bc 1107 43be
000002e0: ceb1 cbbd 09fd 20be 197d e73d e300 ec3d
000002f0: 7700 953c 5af1 983d e626 533b 6e63 a43d
00000300: e3b2 47bd fbde 53be 14d9 acbd aa60 af3d
00000310: 6f6d b13d ced5 2abe e980 f63d 451f fc3c
00000320: bca9 c03d b873 5dbd e3a6 61bc 4f80 55be
00000330: ec24 803d a9b6 b0bd 67ad 413e 2570 b43d
00000340: ad1f debd 2460 54bd bcc7 0fbd a911 153d
00000350: f405 f53d 73db cc3d b3af 2a3e 4bd6 94bd
00000360: 5777 9ebc faf0 c33d 1ee2 7dbc 75e6 c8bd
00000370: 1a80 a0bd 6ef6 51be 16bd efbd 4b54 9bbb
00000380: 627a a13d 6c6c 5cbe cfa1 81bd 9d54 cfbc
00000390: d5f6 20be 6202 fc3d 1ce2 493d 2e91 bf3d
000003a0: cec9 8d3d dd51 a43d 556e 953c 67df c6bd
000003b0: 04a7 8dbd 8fee f63d 0e84 7c3d c0b8 f1bc
000003c0: 1d7d fb3d 21e6 a8bc 3eea 7fbe 9018 883d
000003d0: 3654 d0bd ef5a 16be 31b5 b3bd 4fcc ab3d
000003e0: c79d 1e3d c939 cd3d 69c0 913d 3966 493d
000003f0: 39cf 68bd 18ce 95bd c80f 6cbe d46a e1bd

fc2.bias f4 [5]
0.010089579 -0.0045342594 -0.108730644 -0.030727994 0.059432913
00000000: c34e 253c 2094 94bb 2cae debd 46b9 fbbc
00000010: ed6f 733d
