Trained_Weights/STRIDE 4/v4.3_10th.pth (torch, 671892 bytes, 10 tensors)

conv1.weight f4 [32, 1, 3, 3]
00000000: 3e64 e73d f4f1 21bd d7b2 95be f14a 17be
00000010: e5f3 633d 6902 95bc e3ca 0fbe 4eb7 7b3d
00000020: 4285 5b3e f837 d3bd 4e4e d9bc ec87 383e
00000030: 96cb 9e3d 215b 26be 6442 7a3e ac7a 753e
00000040: 3bee 09be fb78 36be 480e 69be eb0a 02be
00000050: 9dd9 073e 89f2 873e 833f 843e 58a2 1d3e
00000060: 7a8f e4bd 4112 6a3e 8409 1d3d 378f 563e
00000070: 5fb2 2dbe 05a3 58be ef76 943e 30b9 01be
00000080: 58aa 973e fc5f 5dbe 5386 1ebe 37f2 313e
00000090: a3a4 56be b218 66bd 4bb8 50bc 7011 41be
000000a0: 75a8 843e d876 0c3e f902 e43d 28cc 7d3e
000000b0: 653d 40be 184e 02be 6b7a c23d fc5a ebbd
000000c0: 1e30 653e 7947 81be f8d5 2b3e 1b63 423e
000000d0: 5495 273e 5504 793e f5ac 4e3e 8c3e ddbd
000000e0: 0151 8ebe 1cd9 be3d 1113 90be 9281 693e
000000f0: 3a67 6d3e 1b8b 5b3e 2152 11be 3e60 95be
00000100: b297 30bd bf7d b03e f1f3 0f3d 8c4b 3e3e
00000110: 90ea 00be 66e9 45bb ad34 b6bc 9b1b 6a3e
00000120: 0732 75be fe2e 85be e5dc 1abd 933c 83be
00000130: 6519 81be 86bf 453e d5fa aa3e 4a00 0e3e
00000140: d55c 203e 199a 14bc cbbe 1b3e 4aae 89be
00000150: 9274 1b3d 9151 a33c e8a8 a63d 5aec 993e
00000160: ce6f 803e 1f3c 6bbe af3c 56be 6e4f 523e
00000170: 5740 8ebe 527a 793d a940 87bd 20db 903e
00000180: 69c5 9ebe 19df abbe d6be 533e abff 46bd
00000190: 412b c23e d68f 42be ebda 8d3e b22d 88be
000001a0: 73f4 ffbd b8f1 033e 53a0 4e3e f42c ae3c
000001b0: 024d d83d cd0a 5e3e fcf5 4c3d e5c8 513c
000001c0: d20e a5be f8e2 b5be e091 453e 505a 9f3d
000001d0: a6a3 f43c 02f7 673c 42e6 6f3e 6797 ec3d
000001e0: 77f3 a8be 2f0e 5e3e 011e 9b3d ecb5 64be
000001f0: 27ad aebd 71b4 12be d12a 2a3b ad18 683c
00000200: 44b8 793e 3f63 7abd 6fe5 2bbe e7e6 5dbe
00000210: 3392 64be afbc 75be cbc9 41bb baee 38be
00000220: 769f 063d eb63 193e 3f63 33be d771 453e
00000230: 9479 d1bd e340 323d fb34 08be bf86 00be
00000240: 8633 69be dbbc 333e b818 253e 2d70 44be
00000250: 9ba4 20be d2ed 53bd e57e 45bd a7b0 c43e
00000260: cb0d 58bd 9d0a 6dbe 0b8d cb3d 5cc0 1f3e
00000270: 14f8 093e 3012 403e 2008 363e 0ce9 c5bd
00000280: 69e5 963e 1106 f53d 0799 4cbe 8df1 973e
00000290: efd8 6dbe 67cf 8c3e 0ccf 7d3e 1072 ce3d
000002a0: c29e 683c f15c 88bd 3172 573e 03b9 0a3e
000002b0: 3b49 55bd 414d 42bd b1f3 833c 646a 313e
000002c0: 5bd8 afbd 7a3d 93be fb55 89be 1f72 2abe
000002d0: 0eb8 aebe 3d96 4abe 7cfb 993e 5ac6 d23d
000002e0: a26e cf3d 4410 2bbe f412 183e 03c8 c83d
000002f0: de90 233e 436d 943e 2e93 6e3e c9e2 8bbe
00000300: dd38 2ebd e8c7 523d fea4 c8be 6d4f b7bd
00000310: 8888 723d db3d 273e d5a8 263e faa9 98be
00000320: 0b5a 143e d22c b0bb 13b6 b5bd 439a 0b3e
00000330: eef7 76be ae75 95bd e7e6 89be ee10 22be
00000340: 682e 57be 1d32 9e3e d432 30be 8b43 5b3e
00000350: 1bf7 56be e818 54be 6a05 99bd 6fb2 313d
00000360: 5eab 9a3e 02c6 8a3e 8ce0 5b3e 6272 713e
00000370: b06f 74bd f576 e4bd 2337 fc3d 53a5 b03d
00000380: dd10 883e 627b 863e ed2d 9c3e eed1 ce3d
00000390: 831d 36be 2f89 ce3d 8cec 39be 0dc0 7e3d
000003a0: 2ad3 923e 1c4f 263e 362f 91be 5071 543e
000003b0: e2be 80be 36f1 883d 3668 3cbe f39a 0cbe
000003c0: 75c6 64be e888 163e e298 97be 2a45 633d
000003d0: fc33 8a3e 4b0e 283e d11a 48be 13a3 9a3e
000003e0: 1905 a33e aa8a 18bc c861 5ebe 3955 44be
000003f0: 3704 143d 9123 3fbe 2ce3 243e cdaf 573e
0.112984166 -0.039537385 -0.29238006 -0.14774682 0.055652518 -0.018189626 -0.14042239 0.06145411
0.21437553 -0.103134096 -0.026526596 0.180206 0.07753675 -0.162457 0.24439389 0.23972577
-0.13469784 -0.17819588 -0.22759354 -0.12699477 0.13266607 0.26552227 0.25829706 0.1539396
-0.111601785 0.22858526 0.038339153 0.2095307 -0.16962574 -0.21155937 0.2899699 -0.126683
0.2962215 -0.21618646 -0.15480928 0.17377554 -0.20961241 -0.056175895 -0.012739251 -0.18854308
0.25909773 0.1371721 0.111333795 0.2478491 -0.1877342 -0.12725103 0.094960056 -0.11491963
0.22381637 -0.25249842 0.16780841 0.18983118 0.16365558 0.24318059 0.20183165 -0.108029455
-0.27796176 0.09318754 -0.28139547 0.22803333 0.23183909 0.21439783 -0.14191486 -0.2917499
-0.043113418 0.34470937 0.03514475 0.18583506 -0.12589478 -0.003019893 -0.022241915 0.22862093
-0.23944865 -0.26012415 -0.037808318 -0.25632152 -0.25214687 0.19311342 0.33394495 0.13867298
0.15660413 -0.009069943 0.152095 -0.26890785 0.037952967 0.019936355 0.08137685 0.30063134
0.250853 -0.22972153 -0.20921586 0.20538113 -0.27783462 0.06090767 -0.0660413 0.2829218
-0.31009987 -0.33568648 0.20678267 -0.048583668 0.37923625 -0.19000182 0.27706084 -0.26597363
-0.12497797 0.12885177 0.20178346 0.02126167 0.10561563 0.21683808 0.050039276 0.012804245
-0.3223787 -0.35524726 0.19293928 0.077808976 0.02986319 0.014158012 0.2342768 0.11552315
-0.3299825 0.21685098 0.07574082 -0.22335023 -0.0852912 -0.14326645 0.0025965462 0.014166039
0.24386698 -0.061129805 -0.1678674 -0.21670114 -0.22321396 -0.23997758 -0.002956974 -0.18059817
0.032866918 0.14979522 -0.17518328 0.19281708 -0.10228267 0.043518912 -0.1330146 -0.12551402
-0.22773561 0.17552511 0.1612271 -0.19183417 -0.15687792 -0.051740475 -0.04821672 0.38416025
-0.05274753 -0.2314858 0.09939011 0.15600723 0.1347354 0.18756938 0.17776537 -0.09663591
0.294719 0.11964048 -0.1998025 0.29676476 -0.23227285 0.27501985 0.24786013 0.100803494
0.014198007 -0.06658352 0.21039654 0.13547139 -0.05207179 -0.047436956 0.016107412 0.17325741
-0.085861884 -0.2875784 -0.2682341 -0.16645096 -0.34124798 -0.19783874 0.3007468 0.10291739
0.101285234 -0.16705424 0.1485098 0.09803774 0.15973231 0.2898961 0.23298332 -0.2732146
-0.042534698 0.051460177 -0.3918838 -0.08950696 0.059212238 0.1633219 0.16275342 -0.29817182
0.14487474 -0.0053764367 -0.088726185 0.13633065 -0.24118015 -0.07297836 -0.26933977 -0.1582677
-0.21013796 0.30897608 -0.1720689 0.21412484 -0.20992701 -0.20712626 -0.07471736 0.04338306
0.30208868 0.27104193 0.21472377 0.2357879 -0.059676826 -0.11155502 0.12315204 0.08625283
0.26575366 0.2626601 0.3050379 0.10098635 -0.17784695 0.100847594 -0.18156642 0.062194873
0.2867673 0.16241115 -0.28356332 0.2074635 -0.25145632 0.06686632 -0.18399128 -0.13730983
-0.2234133 0.14700663 -0.29608828 0.055485882 0.26992786 0.16411702 -0.1954148 0.3020254
0.31839827 -0.009310404 -0.21716988 -0.19173135 0.036136832 -0.18665911 0.16102284 0.21063156

conv1.bias f4 [32]
00000000: 2d4b ac3d f2f1 c2bd 5e31 d1bd 704a a3bc
00000010: 859d 1cbe caf4 86be 2d3d 24bd dac8 11be
00000020: 9a2c 8dbe 0e97 14be f2bd 563e 57f7 46be
00000030: 863a 4e3b 47be 663d a346 8e3e a1ba 97be
00000040: 17d3 88bc 0689 86be 5484 a3be 1439 5f3e
00000050: 42d1 7bbd 71e8 d8ba 8d87 843e 0afe 303e
00000060: fe26 bebe 9935 b8be 0b57 b03e ee8b 39be
00000070: 30cf aebe dd5a 083e 6631 68be b613 193e
0.08412776 -0.09518804 -0.10214494 -0.019932956 -0.15294464 -0.26358634 -0.040097404 -0.14236775
-0.2757309 -0.14510748 0.20970896 -0.1943029 0.0031467988 0.056333806 0.27788267 -0.29634574
-0.016702218 -0.26276416 -0.31936896 0.21799117 -0.06147886 -0.0016548765 0.25884667 0.17284408
-0.37139124 -0.35978392 0.3444141 -0.18119785 -0.34142447 0.13315912 -0.22675094 0.14948925

conv2.weight f4 [32, 32, 3, 3]
00000000: 233f 8cbb 98e4 403d 19bd d13c 3f64 2c3d
00000010: 6e62 533d 121d d7bc ec19 4f3d 26f3 85bd
00000020: d7c8 8e3b 23d9 5f3d 185f 453c 6e13 61bc
00000030: d0ac 45bc 7589 283d 3966 62bd fd38 c53c
00000040: 8601 44bd ffba 74bd 0246 06bd 8893 e1bc
00000050: 344f f63c cd33 45bd 2aa9 8b3d ab6c 673d
00000060: 3e01 553c d666 ca3c 3132 6b3d 3a91 8dbd
00000070: 05c3 123d 7b64 a33c 0e44 bf3b aae2 8dbc
00000080: 6982 293d 3310 13bd 8aa9 103d 875d 38ba
00000090: f0af a13c 25a3 38bc 95ba 083c 4b1e 813d
000000a0: e6b3 f63b 8059 28bd 5a24 9c3a 7b15 563d
000000b0: fe9c 19bd e0ac 393d 3f82 673e 6f70 433e
000000c0: b420 e6bb ae76 543e 9fc8 a33e 3691 753b
000000d0: f4a0 0d3e 388a 1f3e 4889 1bbc a417 1cbd
000000e0: 7ce4 2fbd f93b a3bd 79d3 973b 3776 18bd
000000f0: 0f28 bdbc 956b 873c d02d 3f3d e5ed dd3d
00000100: 65eb 0e3e dc67 243d 41f7 133e 6655 e83d
00000110: f075 9c3c 7f0f 0d3e c7e7 cc3d 470f b93d
00000120: 28bb 2fbb bbd5 063d 9747 333d d10a 0cbd
00000130: 3e4e 30bd a6bb 1c3c 701f 0e3d 999b 353d
00000140: 7877 2dbd afbb 34be a9a6 05bd 912f 803e
00000150: 1cfc 20be 8bec b43d bc54 843e c524 5ebe
00000160: bb3b a53b 0076 023e 4fcd ea3d 2d73 8fbd
00000170: db24 b9bd 188f 013e 8af3 913c 0232 2ebe
00000180: 5df8 be3d 70a8 94bd 845a b4bd bc0d abbd
00000190: 87e1 ba3c 239a 8a3d c729 86bd c22d 053d
000001a0: 228e 09bc 0bd5 083c b7bb 42bd 915a 553d
000001b0: ba59 373c d80b 333d d276 e1bc 377f e4bc
000001c0: 10f2 bbbb f25f 24bc f430 c43a 2d1c cfbc
000001d0: 1804 763d 8154 bf3d d039 99b8 2dc4 f7bc
000001e0: 261a d83d 8c3f fcbc 53c9 d2bd ab45 2d3e
000001f0: 2306 5c3d 1bd7 473c fd82 ae3c 8f49 a6bd
00000200: 7312 84be 97bd 5e3d e401 22be ffec 60be
00000210: 49f7 033c 5e5e cfbd 290c c2bd edd5 acba
00000220: 357c 423c 1b65 1e3d 47b3 acbb caf8 d9bc
00000230: 04fa 1bbd b050 393d 8406 3abd c4ff ebbc
00000240: 0c9a 833d 3190 913d 22c0 02bd 39e8 99bc
00000250: ff72 3fbc 1bac 67bc ecdf 05bd 8bac 373d
00000260: 556f 263d 74b2 9dbc 79fe db3c d981 bb3d
00000270: 86d5 b33c 5069 5b3d c8e7 24bb 0791 4f3c
00000280: 4cfc de3c 75f3 3d3d eb54 a73c 51d5 2e3d
00000290: 91a7 a23d 9e05 883d 5b1b e33d 0893 023e
000002a0: 14d3 adbc 24ba b23d 6990 103e 9523 103c
000002b0: 3989 1bbb 4458 92bd 26ad 50bd e682 2fbc
000002c0: b02b d1bd 193b 6d3d 8051 51bd 3b13 943c
000002d0: ac4c fe3c eca9 ee3c a114 dd3c 1094 313d
000002e0: 598b b9bc 1d33 243d fba3 45bd 4937 51bd
000002f0: d253 c23c ee2d a1bc 5de0 483c 1c8c b9bc
00000300: 37f2 10bd 0047 02bd dc8d fc3a c335 56bd
00000310: 7e3d 20bc bfbf 8e3d 6099 c8bc f7cc 8cbd
00000320: 6cc9 25be 38c9 2b3c 3ebf 7cbd 3d62 61be
00000330: 7b10 9d3d 23c6 fabd ed79 92bd ca68 2b3d
00000340: f950 973c a046 5fbd 4dc1 463d 97e6 303d
00000350: fee0 6e3c 44d2 823d 4a3e 05bd 0500 eb3b
00000360: 0af3 d6bc 56db 753c e5de 863d e575 87bd
00000370: cf7d ae3d 84e9 69bc 6eb2 3cbd d4aa 1b3d
00000380: c79c bb3d a762 823c 77e8 8d3c 7297 e13d
00000390: 5856 58bc 5af0 a23d 5784 f03d 887c 6abc
000003a0: 5bf1 013e ff16 e93d e7f7 c63c 769e 03bc
000003b0: 3459 06bd 9073 8dbc dc66 92bd 2205 7ebd
000003c0: 88b8 0cbc 96e5 8bbd c33b f9bd ed0a 363c
000003d0: 7f2a 8f3d 9d5f f63c 63cb 843d 1cef f53d
000003e0: 8efb 693c 7bad 36bc d66b d43d 12b1 223d
000003f0: 7b45 ae3d 0383 0f3e 40f3 ef3d 70a9 353b
-0.0042799874 0.047093004 0.025602864 0.04208779 0.05160754 -0.026258979 0.05056183 -0.065405175
0.004357438 0.054650437 0.012046598 -0.013737543 -0.0120651275 0.041146714 -0.05527327 0.024075026
-0.047853015 -0.059748646 -0.03278161 -0.027536169 0.030067064 -0.048145104 0.06819375 0.05650012
0.013000784 0.02470724 0.057420913 -0.069124654 0.035830516 0.019945374 0.00583697 -0.017319996
0.041384134 -0.03590412 0.035317935 -0.00070329796 0.019737214 -0.011269365 0.008345266 0.06304606
0.00752877 -0.04110098 0.0011912689 0.05226658 -0.037503235 0.045330882 0.22608279 0.19085859
-0.0070229415 0.20748398 0.31989 0.0037470586 0.1383093 0.1558007 -0.00949318 -0.038108483
-0.04294251 -0.07970423 0.004633364 -0.037222113 -0.02309039 0.016530791 0.04667455 0.108363904
0.13956983 0.04013811 0.14449789 0.113444135 0.019099206 0.13775443 0.100051455 0.09036117
-0.0026814435 0.032918673 0.043769445 -0.034190003 -0.043043368 0.009566223 0.03469795 0.044337843
-0.042350262 -0.1764972 -0.032629643 0.2503629 -0.15721172 0.088341795 0.25845897 -0.21693714
0.005042521 0.12740326 0.11464941 -0.0700439 -0.09040233 0.12652242 0.017816324 -0.17011264
0.09324715 -0.072586894 -0.08806327 -0.08352229 0.022812618 0.067676805 -0.06550937 0.03251434
-0.0083957035 0.008351575 -0.0475423 0.052088324 0.011190826 0.043712467 -0.027522478 -0.027892692
-0.005735643 -0.010032641 0.0014968202 -0.02528199 0.060062498 0.0934229 -7.306377e-05 -0.030244911
0.105518624 -0.03079202 -0.10292306 0.16921107 0.05371679 0.012197281 0.021302694 -0.08119499
-0.25795326 0.054380026 -0.15821034 -0.21965407 0.008054563 -0.10125421 -0.094749756 -0.0013186313
0.011870434 0.03867064 -0.005270395 -0.02660789 -0.03808023 0.045242965 -0.04541637 -0.028808482
0.064258665 0.071075805 -0.031921513 -0.01878749 -0.011685132 -0.014140154 -0.03268425 0.044842284
0.04063352 -0.019250132 0.02685474 0.09155626 0.021952402 0.05356723 -0.0025162566 0.012668855
0.027219914 0.046374757 0.020426234 0.042683903 0.07942117 0.066416964 0.11089202 0.127514
-0.021218814 0.0872691 0.14117588 0.008797546 -0.0023732914 -0.071457416 -0.050946377 -0.010712361
-0.10213411 0.057917688 -0.051103115 0.018075576 0.03104242 0.02913376 0.026987376 0.043354094
-0.022649454 0.040087808 -0.048252087 -0.051078115 0.02372161 -0.019675221 0.012260524 -0.022649817
-0.035387244 -0.031805992 0.0019268352 -0.052297365 -0.009780286 0.069701664 -0.024487197 -0.068750314
-0.16190118 0.010484986 -0.06170582 -0.22010131 0.07669159 -0.12244823 -0.07152162 0.04184798
0.018471228 -0.054510713 0.04852419 0.043188658 0.0145800095 0.06387761 -0.032530107 0.007171633
-0.026238937 0.015005907 0.065854825 -0.066142835 0.0852009 -0.014276866 -0.0460686 0.03800471
0.09160762 0.015916182 0.017322762 0.11015214 -0.01320418 0.07956 0.11743992 -0.014311917
0.12689726 0.11381339 0.02428813 -0.0080333855 -0.032799914 -0.017267019 -0.07148525 -0.062016614
-0.008588918 -0.068308994 -0.12169602 0.011111003 0.06990527 0.030074889 0.064841054 0.12008497
0.014281167 -0.011149759 0.103721306 0.03971965 0.08509346 0.14014821 0.11716318 0.00277194

conv2.bias f4 [32]
00000000: 539a 90bc 8235 da3b 4fe1 2e3d 2a35 003c
00000010: 0df8 ffbc 5641 953d 5502 153d 6378 673d
00000020: 96bc 4a3d f54e 37bc 4d7e 8cbc fb1d 4b3c
00000030: cc26 f13c e9b8 233d 6713 54bd 3f5e 41bd
00000040: 29d4 58bc 9c8b 213d 71a2 42bb 7d9f 963d
00000050: 3ea2 ae3c 1bfa 28bd bd4e 723d 9023 86bd
00000060: 31fe 26bd 36ee 61bb c59d 353d 1d48 213c
00000070: d7fd 35bd e8d3 0b3d 864f 30bd 8a70 5abc
-0.017651713 0.0066592107 0.04269534 0.007825175 -0.03124621 0.072878525 0.036379177 0.056511294
0.049496256 -0.011188258 -0.017150069 0.012397285 0.029437445 0.039971266 -0.051776316 -0.04720902
-0.013234177 0.039439783 -0.0029698873 0.07354639 0.021317597 -0.041254144 0.059157122 -0.06549752
-0.04076976 -0.003447426 0.044339914 0.009843853 -0.044431534 0.034137636 -0.04304459 -0.0133324955

conv3.weight f4 [32, 32, 3, 3]
00000000: 7fe1 103e 0365 233c f4f2 c2bc 89bb f6bc
00000010: b3ed 95bd 4f0c 253d 4338 abbd c7f3 edbd
00000020: 02af f33d 3b17 e23d dc4d 333d 93fd 123c
00000030: c320 a1bc ee3f 29bd e2a0 3cbd e8ef c3ba
00000040: 6fcc 01be 937f 96bb 3888 e0bd 38b2 2abe
00000050: f815 b1bc 4008 acbd e8bb a03c a04e b03d
00000060: c455 b13d d5d5 293e bc2b 08bd 648a ad3d
00000070: 48ad a63c b16f 26bd a459 503c bbe9 93bd
00000080: e393 d0bc 1359 8a3d d372 bebd 890c fd3d
00000090: ee96 0a3d a9c7 093e c1fa 243d 6366 2dbd
000000a0: 646f f6bd ac40 1abd 63af 5cbd 6523 bcbd
000000b0: a794 bb3d ee45 67bd 5b81 14be db37 1cbd
000000c0: dd5c 353d 538b 9f3d 408b a73d ad49 e53d
000000d0: 2872 263e 7b22 a8bd 8db1 77bd dc3b 42bd
000000e0: 49a2 a7bd bf37 bdbc c461 f03d 2a66 e4bb
000000f0: 6515 0e3d 87df 003e 8eae d9bd a794 f3bd
00000100: d3f1 09be 1db4 003c 26f6 7c3d 1db2 113e
00000110: 09c6 723d b4b6 ca3d b680 0b3e 7384 d9bd
00000120: ba74 813d 758b 0d3e 0001 f23a e14a 6dbd
00000130: 35d8 0abe e351 8f3c 3500 8dbd b3a9 d6bc
00000140: e356 b93d 9745 b93d 6ef3 e63d d10b 953d
00000150: adc4 4d3d 2d9f cfbd 2896 133c ce8f 883b
00000160: 8762 99bd 7bdd 713d e1a2 93bd c51a 85bd
00000170: 87c3 143c 2609 503d 1bbd d63d eea8 9f3d
00000180: 7b2d 10bc eb50 693d cd70 15be de1b b4bd
00000190: 6941 06be a65d d63c 98cf 723d b0f1 8c3d
000001a0: 233a 563d 61f7 6c3d 5fe6 eb3d 3274 1ebc
000001b0: 3fd7 0e3e 3062 81bd 276e ae3c 1be3 28bd
000001c0: c96a 3abe 057d 603c 7f93 df3b bd78 4f3d
000001d0: 2128 113e 981f a0bd 24ba f8bd 9934 013d
000001e0: a682 85bd bdff 853d 623b 1b3d bf27 623c
000001f0: 6793 863d 2655 86bd 6f5e b43d ba4d 8b3d
00000200: 9b7f 1e3d 3a19 d0bd f855 10be d8fc 3cbd
00000210: 04f5 91bd 6a60 b6bd 1daf 073e b5d2 163e
00000220: 521d fb3d 0e9d 343d e5f3 7fbd 0fa5 19bd
00000230: 338c 7dbc 9295 09bd cf2e 3bbd d792 8c3d
00000240: b382 c7bd 49d9 12be a0ab 61bc 95eb 8e3d
00000250: a9bd f93d 8804 533c eb28 c93d b988 023e
00000260: a39e a9bd 0c95 d13d b556 ac3d 5fd8 46bb
00000270: 5b01 22bd d644 adbc 7cd7 acbd e1c8 93bd
00000280: 9794 92bd a811 133d 3bca 07be 56e8 0ebe
00000290: aad0 04bd fd5a 423c fe5a 273e d98c 913d
000002a0: 3ca1 af3d ce0c cc3d bb58 bfbd 2c34 eabc
000002b0: d95d 01be 7a3c 9dbd ad0b c1bc 3b12 a33d
000002c0: 2775 b23d 5223 ad3d bf18 f83d dcc4 22bd
000002d0: bc70 0bbd a2c0 dbbd 38e7 a638 1848 8a3c
000002e0: ae1f 173d e41a fc3c 4cde 0e3d 8742 783d
000002f0: e227 32bd 85f2 eabb 1692 36bb af0f 8bbc
00000300: e027 c2bd f50a 3abe b70d 843c 2159 ce3d
00000310: 9886 b1bb 950c ef3d 459e cebd 2b71 9fbd
00000320: 38a1 183c f9fe 0dbd fddc 113e 685e 9e3d
00000330: 0e9c 533d f680 243e df77 91bd db3d 783d
00000340: b873 df3d 7b86 a53b 6091 a6bc 8abf edbd
00000350: 60c7 aabd a094 93bc f92d 23bd c311 a83d
00000360: 7dde 943d 16bf c33c 632b 15bd 6bc4 b0bc
00000370: 2b07 89bd 8f25 b8bd 6620 603a 6f1b ed3b
00000380: 1860 933d d907 07be 22ee 68bd 3bf2 e1bd
00000390: e374 c43b cf57 a53c 9195 41bc e599 d83c
000003a0: a02f a83d f7d2 d7bd 12bf 043e 7878 173e
000003b0: c92f 4ebc 02a5 2139 6acf 0dbe 252e d73b
000003c0: d8b6 31bd 9b9a 96bd 1190 b83d 39fc 353e
000003d0: 0873 2c3e d538 053e 5b3c 97bc 28aa c1bd
000003e0: eeaa 27ba 1371 d3bd ddfd f1bd 95a6 e33c
000003f0: cd2a 81bd 06f8 83bd 9020 193d d6d4 473d
0.1414852 0.009972814 -0.02379749 -0.03011872 -0.07320728 0.04029494 -0.083603404 -0.116187625
0.118986145 0.11039587 0.043775424 0.00897159 -0.019668942 -0.041320734 -0.046051867 -0.0014948817
-0.12675641 -0.0045928448 -0.10963482 -0.16669548 -0.02161692 -0.08400011 0.01962085 0.086087465
0.086589366 0.16585477 -0.033244833 0.084736615 0.020346299 -0.04063386 0.0127166845 -0.07222315
-0.025461143 0.06755271 -0.09299245 0.123559065 0.033835344 0.1345507 0.0402782 -0.04233397
-0.12032965 -0.037659332 -0.0538782 -0.091864385 0.091592126 -0.056463175 -0.1450247 -0.038139205
0.044278014 0.07790246 0.08180857 0.11195693 0.16254485 -0.08209702 -0.06047206 -0.047420368
-0.0818525 -0.02309787 0.11737397 -0.0069701867 0.034688372 0.12585269 -0.10628997 -0.118935876
-0.13471155 0.007855442 0.061758183 0.14228101 0.059270892 0.09898129 0.13623318 -0.10620966
0.06321092 0.1382273 0.0018463433 -0.05793274 -0.13559039 0.017495101 -0.06884805 -0.026203966
0.090497755 0.09046476 0.11276899 0.072776444 0.050236393 -0.10137782 0.009007968 0.0041675335
-0.07489496 0.05904911 -0.07208801 -0.064992465 0.0090798205 0.050789975 0.10485288 0.07795893
-0.008799906 0.056961935 -0.14593811 -0.08794378 -0.1311089 0.026167702 0.059280008 0.06882036
0.052301537 0.057853106 0.11518549 -0.009671258 0.13949297 -0.06317556 0.02129276 -0.04123221
-0.18204798 0.013701682 0.006823003 0.050652254 0.14175464 -0.07818526 -0.121448785 0.0315443
-0.0651906 0.06542919 0.03789843 0.0138034215 0.065710835 -0.065592095 0.08807074 0.068019345
0.038695913 -0.101610616 -0.14095294 -0.046139568 -0.07126811 -0.08905108 0.13250394 0.14728816
0.12261452 0.04409509 -0.062488455 -0.037510928 -0.015475321 -0.033589907 -0.045698937 0.06863945
-0.09741726 -0.143407 -0.013773829 0.069785275 0.12194378 0.012879498 0.098222576 0.12747468
-0.08282211 0.102335066 0.084149756 -0.003034137 -0.039552074 -0.021150988 -0.08439538 -0.07216049
-0.071572475 0.03590551 -0.13260739 -0.13955817 -0.03242556 0.011862514 0.16343305 0.07106943
0.08575675 0.0996338 -0.09343096 -0.02858933 -0.12633456 -0.076775506 -0.023565138 0.079624616
0.08713751 0.084540024 0.12114095 -0.03973852 -0.03404306 -0.10730101 7.958565e-05 0.01688008
0.036895446 0.030774541 0.034879968 0.06061032 -0.043495066 -0.007170024 -0.002785807 -0.016975252
-0.09480262 -0.18168242 0.016119821 0.10075594 -0.005417656 0.11672322 -0.10088781 -0.07785257
0.009315781 -0.03466699 0.14244457 0.0773285 0.051662497 0.1606482 -0.07102942 0.060605865
0.109107435 0.0050514317 -0.020332992 -0.11608799 -0.08338809 -0.018015206 -0.039838765 0.08206513
0.07268999 0.023894828 -0.03641833 -0.021578034 -0.0669082 -0.08991539 0.00085497496 0.0072359364
0.07196063 -0.13186587 -0.056867726 -0.1103253 0.0059953793 0.020183472 -0.011815445 0.02644057
0.08212209 -0.10538285 0.12963513 0.14792049 -0.012584635 0.00015415627 -0.13848653 0.00656678
-0.043387264 -0.073537074 0.090118535 0.17771997 0.16840756 0.13009961 -0.018461397 -0.09456283
-0.0006396015 -0.103243016 -0.11815999 0.027789393 -0.06306992 -0.06443791 0.03738457 0.04878696

conv3.bias f4 [32]
00000000: 7261 46bd 1100 03bd 882f 7a3d 7f1c 71bc
00000010: c9c6 bd3c d503 adba f329 153d ea6e 1cbd
00000020: 4801 1039 1e30 313d ae59 04bd 6fcc 373c
00000030: dadd 183d a314 b8bc 4477 3f3d 9fed 5a3d
00000040: b994 7e3c b1b3 5f3d 5ec8 cebd 763f 0b3d
00000050: d0d4 30bd 7f12 063c c3b1 63bd c2ca 32bd
00000060: be31 12bd ce71 8ebc 04c2 473d df41 dc3d
00000070: 6951 07bc 99e8 00bc b7b5 a6bc 032b b53c
-0.048432775 -0.031982485 0.061080486 -0.014716267 0.023166077 -0.0013199995 0.03641696 -0.038191713
0.00013733387 0.04325878 -0.032312088 0.011218174 0.03732095 -0.022470778 0.0467446 0.05344927
0.015538388 0.054614726 -0.10096811 0.033996068 -0.043171704 0.008183121 -0.05558945 -0.043650396
-0.03569197 -0.01738825 0.048769012 0.107547514 -0.008259156 -0.007867956 -0.02035032 0.022115236

fc1.weight f4 [128, 1152]
00000000: dbe0 36bd 32a7 0a3d e6ab 713d d8ce 313d
00000010: edf3 bb3d 8b8a bdbd e136 8a3c f8dd 3f3d
00000020: 76d6 2b3c e41f d0bd eaf0 dfbd 7fa6 6b3d
00000030: b563 343d 934e ee3c a063 9d3d 7eac 5bbd
00000040: 5c64 213d 2ac0 0d3e 862a b33b c70c 923d
00000050: 7cb1 423b b1aa e3bd f1a6 26bd ad5a 67bd
00000060: fd06 4b3a 1958 6bbd 807f 80bd d4e2 803d
00000070: d4db 2b3d 4b4b 2c3d 6d3e 823d a113 aebc
00000080: 9bad 41bd cba6 2c3d 15ec 243e 9165 273d
00000090: 3ba3 6fbc c880 fd3a 8682 adba 1dc1 3c3d
000000a0: fcfa 853b 2a87 203d f74a 443c c34b dc3b
000000b0: f85e 58bd ccd0 2a3c f7b0 6a3d 4198 0a3d
000000c0: fd6b 1ebc 46c7 3bbc 28b3 27bd 3b2e 573d
000000d0: 3e39 a33d 9256 21bd 0923 acbc 5cb7 483c
000000e0: 1c72 85bd 94b1 bc3c 41c9 a9bc 349a 40bd
000000f0: 011c 2e3d 1297 76bc 868a bd3c db35 3d3d
00000100: e519 92bc 2c45 4ebd 5b64 1abd e126 4fbd
00000110: 0745 1e3d 8c1f 1d3d b136 82bd 0177 63bc
00000120: c325 7cbd 1856 f139 3d52 2abc 4980 43bc
00000130: 5dc0 cc3d a51a a8bc b6be 8cbc 0d01 683c
00000140: ca85 ee3c 221a bb3d 47c8 89b8 e092 e0bd
00000150: 36f5 653d ffd6 9dbc 6b57 743d dc8b 20bd
00000160: 011f 87bd 4b78 443d fa2e e9bc 73a2 1ebd
00000170: 7fd8 993d eb59 e7bd 6367 f43b 9eed 7b3d
00000180: bce9 9ebd 7f85 8a3d 3de4 62bd 47f8 78bd
00000190: 07aa 64bd 64f9 203c a47a be3c 213a 8c39
000001a0: f75f a7bc d4c9 01be 11a3 5bbd 60f8 86bc
000001b0: 7868 0cbc ae71 9b3c d364 39bd 7909 edbc
000001c0: dd19 7dbd 3291 c9bd 4445 6f3c 5b4e 9a3c
000001d0: 83af 2c3d 1c08 0abd 7d1b 8b3d f121 993b
000001e0: e6c3 4e3d 5c64 0d3d 7bf3 05bd 33b1 65bd
000001f0: 2fa9 953d 1867 1d3d e35d 483d 8789 4c3d
00000200: a8f2 b73c 3fab 8a3b 66c4 fb3c 27ae 5b3d
00000210: 6ee2 b83c 5dd6 81bd 982c 6dbd 2f7b 78bd
00000220: eaf7 71bc c073 6ebc 035e f6bb 00c1 bcbd
00000230: bad3 18bd 3a0a dc3c aa0f bc3d 4c09 27bd
00000240: a443 98bd b2ce 67bc cfa7 943d 8142 ad3d
00000250: e5cf cc3c 1c91 20bd d1ac 9b3c c520 92bd
00000260: cba2 27bd f32b 27be 46e8 9dbd 5eaf cd3d
00000270: 62a4 8f3d 10fe b03c 03c2 093d 4caa 573d
00000280: 93cc 4a3e 7bfa 9f3d c64d 733d 1a21 31bc
00000290: 880d b2bd 8112 8ebc 1075 a7bc fe84 76bc
000002a0: ebbc bb3d c5c4 acbd 1ec4 903d d2f5 b13d
000002b0: b540 9d3d 595d 253d e921 e7bc e310 bf3b
000002c0: a0d8 843d 3327 313e 8935 1b3e 08d3 873d
000002d0: b138 82bc 8129 c13c df85 0d3d 506f 9cbc
000002e0: 7385 15bd 1f10 65bd 6e94 cd3c dcb8 853b
000002f0: cf54 813d 2e5d 2bbd 2daf b23c c1af 723d
00000300: c1a0 5e3d 00c4 233d 76fe b03c 37e7 bfbc
00000310: 1938 723d 9634 cf3c eb68 4f3d 3633 893c
00000320: 5b8d bb3c 1c8e f5bc a24a 2fbc 2baa 1e3d
00000330: e039 243d 6bc6 7ebd 2cb6 12bd 007d 81bd
00000340: b7bf 1f3c 5827 7f3b c4f6 083c d83a c0bd
00000350: c07a ebbc d09d 7739 ee12 b53d d26c b63a
00000360: f2b6 a0bd aad5 e7bc 021a dd3c 47a6 7bbc
00000370: 47bf 5c3d 6e68 123d 40c4 04bc c0ea 2f3d
00000380: 75bd 193c d8f7 493d d908 873d 82ca 9bbd
00000390: be88 5f3d 367c 6bbd ba84 d13d 59f0 483d
000003a0: e1f4 943c 3a3b 35bd 7ed6 2d3d 3f75 7cbd
000003b0: cdb5 bf3d decf 86bd 3092 863c 9b47 b23c
000003c0: 9d0d 77bd 0ae8 c53d a0ca 18be 8f7e 07bd
000003d0: 168b 44bd 4177 033c 740f 9dbb d35b 84bb
000003e0: 1b22 c6bc 1fd6 dbbd dda7 b4bd 7a4a c73b
000003f0: 5fb3 193d 1917 7ebc 70fe 41bd c590 923c
-0.044648033 0.033850856 0.059001826 0.043410152 0.091773845 -0.092549406 0.016871871 0.046842545
0.010488143 -0.10162333 -0.109346226 0.05753183 0.0440404 0.029090201 0.076850176 -0.0536313
0.03940235 0.13842836 0.0054677157 0.07131343 0.002970784 -0.11116541 -0.04068655 -0.05648296
0.0007744877 -0.057457063 -0.06274319 0.06293264 0.04195769 0.042063992 0.06359563 -0.021249594
-0.047284704 0.042151254 0.16105683 0.040868346 -0.0146263195 0.0019340748 -0.0013237752 0.046082605
0.0040887576 0.039191402 0.011980764 0.0067228987 -0.052824944 0.010425758 0.057297673 0.033836607
-0.009669301 -0.011461085 -0.04094234 0.052534323 0.079699025 -0.0393892 -0.0210128 0.0122507475
-0.06515905 0.023033895 -0.020725848 -0.04702206 0.042507175 -0.015050666 0.023137342 0.04619394
-0.017834613 -0.050358936 -0.037693363 -0.050574187 0.03864005 0.038360164 -0.06358088 -0.013883353
-0.06155945 0.00046031247 -0.010395584 -0.011932441 0.09997628 -0.020520518 -0.017180782 0.014160407
0.02911653 0.09135844 -6.5699736e-05 -0.10965514 0.056142054 -0.019267557 0.05965368 -0.03919588
-0.065977104 0.047966283 -0.028464783 -0.038729142 0.075119965 -0.11296447 0.0074586137 0.061505906
-0.07759425 0.067637436 -0.055393446 -0.06078365 -0.055826213 0.009825084 0.023251839 0.0002674619
-0.020431502 -0.12674648 -0.05362231 -0.016475856 -0.008569829 0.018975105 -0.04526217 -0.028935181
-0.061792243 -0.09842147 0.014603917 0.01883619 0.04215957 -0.03369914 0.06792352 0.0046732356
0.050479792 0.03451954 -0.032702904 -0.056077193 0.0730766 0.038428396 0.048917662 0.049935844
0.022454575 0.00423184 0.030733299 0.05363288 0.022568908 -0.06339715 -0.057903856 -0.060664352
-0.01476858 -0.014553964 -0.0075185313 -0.09216499 -0.037311293 0.026860345 0.09182675 -0.04078035
-0.074347764 -0.014148401 0.072585694 0.0845995 0.025001476 -0.039200887 0.019003304 -0.071351565
-0.040926736 -0.16325359 -0.07710318 0.10043214 0.070137754 0.021605521 0.03363229 0.052652642
0.19804601 0.07811447 0.059400342 -0.010811115 -0.08693987 -0.017342808 -0.020441562 -0.015046356
0.091668926 -0.08435968 0.070686564 0.08689465 0.076783575 0.040372226 -0.028214412 0.0058308705
0.064866304 0.1730011 0.15157141 0.06632048 -0.015896173 0.02357936 0.034551498 -0.019096047
-0.03650422 -0.055923577 0.02509519 0.004080875 0.06315004 -0.04183691 0.021812046 0.059249643
0.054352526 0.039981842 0.021605711 -0.023425682 0.05913553 0.02529363 0.050637167 0.016748052
0.022894552 -0.02997499 -0.010698946 0.038736504 0.040094256 -0.062200945 -0.035818264 -0.0632267
0.009750298 0.0038933363 0.008359615 -0.093862236 -0.028745055 0.00023614545 0.08841501 0.0013917929
-0.07847394 -0.028300125 0.02698994 -0.015359468 0.053893354 0.035744123 -0.00810343 0.042948484
0.009383549 0.049308628 0.065934844 -0.07606985 0.054573767 -0.057491504 0.10230394 0.04905734
0.018183174 -0.044245936 0.042440884 -0.061635252 0.093608476 -0.06582616 0.01642713 0.02176266
-0.060315717 0.096633986 -0.14921045 -0.03307968 -0.047984205 0.008024038 -0.004793102 -0.0040392666
-0.024186185 -0.107342 -0.0882108 0.0060818763 0.037524577 -0.015508437 -0.04736179 0.017891297

fc1.bias f4 [128]
00000000: 570a c33c 89cb ddbc 9faa 6dbb ad21 b13c
00000010: cac6 c0bb df40 84bd 9d84 243c f499 d0bc
00000020: 443c 04bd b443 223d 1789 1a3d e8df 423b
00000030: 47d8 b5bd 1549 58bc 8053 75bd b83d 39bd
00000040: 7394 ddbb 8f3b 7e3b 805e e8bc 5972 693d
00000050: 0226 98bd 88b1 ef3b 9e36 26bd d2bd 3ebc
00000060: 0b78 a33c f174 4fbc 5c5b 2cb9 7256 a0bd
00000070: 9846 ccbb 0ffa 84bc c0b7 c3bb 9586 47bd
00000080: 89a2 57bd 45fb c4bc c226 b0bc 3746 84bc
00000090: da13 a43a 779b 8e3b 4270 103b c876 883c
000000a0: 72f8 34bc ed29 143c dda3 0cbd 8520 463d
000000b0: e2e8 1d3b 9d8f f23c 2e9d 87bd ccb9 513d
000000c0: 92a8 06bd 8d98 2ebc 008d ecba d533 753c
000000d0: 22a1 08bd 22f1 7abd 2bbe 91bd 8378 a03b
000000e0: aad4 323b d055 36bc 3e7f c3bc 9e00 c1bb
000000f0: 169d 3fbc e005 0cbd 3ca5 1f3d cdc1 4dbd
00000100: 6a63 f33c ff80 4ebb db74 d4bc 61c9 b73b
00000110: 49e7 1abb 21f9 0bbd 32f2 023c 8cbf 0b3d
00000120: 1fff 56bd 7166 263b aa83 01bd f00e d43c
00000130: a8b2 c43c aba8 23bd 5e48 64bd 47da a9bc
00000140: bd1b 0fbb c4e8 f6bc 02f9 393d 84f5 9cbb
00000150: afcc c0bc 3f93 f4bc 13f8 abbc fb34 19bd
00000160: cdb0 78bd 49ea 083b d453 2b3c 0849 1cbd
00000170: c5ec 8dbc 4d45 743b 8693 1f3b 314d 1cbd
00000180: e205 663d c9dd 4ebd 8214 363c 29af b9bc
00000190: 0967 1c3c aa77 a7bc 5f27 ef3c 8939 93bc
000001a0: 7862 12bc 18db 03bd 6888 fbbc be36 8fbc
000001b0: f0c5 99bc ee1b 54bc 83d5 7bbb 7e78 9abc
000001c0: 56b6 9fbb 57dc 33bc 3f8d 5cbd 384b e8bc
000001d0: faa7 80bd 9626 403c 4d8d 663d 43eb 06bc
000001e0: 9e4f bbbc 4a35 03bc 042d 8abc 14ed 493c
000001f0: f99e ddbc 7efe 0fbd e06a 93bc 07d9 50bd
0.023808641 -0.027074592 -0.0036265028 0.021622503 -0.0058830725 -0.06457686 0.010041383 -0.025464036
-0.032284036 0.039615348 0.037728395 0.002973551 -0.08879142 -0.013201018 -0.059894085 -0.045224875
-0.0067620813 0.0038792824 -0.028365374 0.056993816 -0.074291244 0.0073148645 -0.04057943 -0.011641936
0.019954702 -0.012662158 -0.00016437232 -0.07828988 -0.0062340014 -0.016232518 -0.0059728324 -0.04871233
-0.05264524 -0.024045596 -0.021502856 -0.016146762 0.0012518123 0.004352029 0.0022039567 0.016658202
-0.011045562 0.009043199 -0.03433596 0.048370857 0.0024095108 0.029609496 -0.066217765 0.05120258
-0.032875605 -0.010656488 -0.0018047392 0.014965971 -0.033356793 -0.06126512 -0.0711635 0.0048971786
0.0027287402 -0.011128858 -0.023864385 -0.005889966 -0.011695167 -0.03418529 0.03897594 -0.05023365
0.02971049 -0.0031509993 -0.025934627 0.005608723 -0.0023636392 -0.034173135 0.007992314 0.03411822
-0.052489396 0.002539065 -0.031619705 0.025886029 0.024010971 -0.039955776 -0.055733077 -0.020733966
-0.0021836602 -0.030140288 0.045403488 -0.00479001 -0.0235351 -0.029855369 -0.020992314 -0.03740404
-0.060715485 0.0020891598 0.010456998 -0.038155586 -0.017324815 0.0037272752 0.0024349405 -0.038159553
0.056157954 -0.05050448 0.011113288 -0.02266653 0.00954605 -0.020442802 0.029193578 -0.01797177
-0.00893461 -0.032191366 -0.030704692 -0.017482158 -0.018771142 -0.012946112 -0.0038426823 -0.018856283
-0.004874031 -0.010977826 -0.05384564 -0.02835618 -0.06282039 0.01172795 0.0562871 -0.008234802
-0.022865113 -0.008008311 -0.016867168 0.01232459 -0.027053343 -0.035154812 -0.017995298 -0.050988223

fc2.weight f4 [5, 128]
00000000: 2fb0 9abd acc5 9bbd 57e6 87be 8590 ea3d
00000010: 6840 533d d8c1 3bbe dcf6 a13d 238b 3bbe
00000020: 7041 9b3b eeac fb3c 4760 f43d 4ede 8fbe
00000030: 4409 c0bd 2655 52be 9231 14be 1f20 2e3e
00000040: c808 b6bd dc04 6b3c 6933 0dbe d012 6f3d
00000050: a7a5 073e b6ce 39be fe18 05be f92d 3dbe
00000060: 6836 bc3d 2dfe 36be 1c88 0dbe fac0 113e
00000070: 8eb1 f1bd 2d16 8d3d 8ab6 5abd 75ca 8ebd
00000080: cd91 33be 1a7f 05bc 928e f7bd e4e2 bc3c
00000090: 30bb 8f3d 81f8 69bd 5b59 fe3d 267c 933d
000000a0: b994 67be 71cb 823d 25ad 9d3d 692a 4abe
000000b0: b3f5 87be 8825 a7bd d27c 1abe a7ec 0b3e
000000c0: 662e b2bd cc01 63be 4a7b 003d 2463 8fbe
000000d0: 44ca cc3c 480b 10be 3214 81bd eaa6 003e
000000e0: 1065 d63c 2432 473d c2b4 a6be fa77 56be
000000f0: 9aaa 173e bfc7 953b 706d f73d 6d7f 32be
00000100: f894 863c 2465 35be 7740 c8bb 8c45 34be
00000110: 0eb2 92bd 7697 97bd 34f3 f0bd d884 c7ba
00000120: c732 09be 1419 70be 10a3 003e b4fd f33d
00000130: 61a1 cdbd 22f0 0fbe 634f 57be 9215 04bd
00000140: bd85 6a3d cdf8 29bd 91cd 033e f3c4 813d
00000150: c874 293e b355 25be 320c 1fbe 2e35 3cbe
00000160: 7be9 bbbd 9f91 e73b 884a fa3d c49a 1b3e
00000170: 39ea de3d fc1c bbb8 83a0 043d 97ca cf3d
00000180: 94a4 d13d 0f0b e1bb 368e 75bd 3c79 58bd
00000190: 22e1 763d 3c4e 363c 9db5 ed3d 0c54 be3d
000001a0: 6250 413d e591 eb3d 71b7 bebd bcbd a4bd
000001b0: c535 893d b75f cf3d c95e 25bc 52f3 873d
000001c0: 538c e2bd dfd6 76be dd10 c1bd c445 80be
000001d0: c7cd a1bd b57d 31be b790 c53d 1bec d4bd
000001e0: 92a4 d4bd a6f4 20be 7817 e83d 4ab3 eb3d
000001f0: 3fc4 0f3e 5fa0 28bd 3ebe 383d 943b 6cbc
00000200: 5d0e aabd fb26 c1bb 18db 533d db41 1bbe
00000210: c456 01be d734 fc3d 2767 8d3d ad40 b53d
00000220: a068 27be eef6 7cbd 42d0 54be 909d b23d
00000230: f97e b93d c8bd bf3d cd22 203d d70e c53d
00000240: f582 22be 7aa9 f0bd f3fc 763d 5a7d ae3d
00000250: 5de4 76bd 33ab 2e3e 0e1d a43d 01ee 8ebd
00000260: 51b1 533d 0f26 d63d b1d8 5fbe bce1 803c
00000270: ae60 b03d 4c90 48be c336 87bd 7b21 10be
00000280: b384 1bbd a9bb eebc 13c6 b63d 0457 e33c
00000290: 66be 063e 9062 debd 1ae5 58be 7157 a83d
000002a0: bbc1 a0bd eb41 87be a83e bbbb a368 163d
000002b0: a30e 423d bdfe f33d 82ba 4bbc ae5b 9c3d
000002c0: e4cc 07bd 243a 4cbc 1f9d e4bd 5d12 463d
000002d0: aa4e 4ebd 7a4f ef3d ce4a f23d e9a4 07bc
000002e0: be4f 7e3b 82c7 c1bd d433 c93c 9b5b 6e3c
000002f0: bf89 373d d184 f1bd 4b65 fbbd 9851 d53d
00000300: cbda 983d 1b5f 51bd 8f4d c33d 088a 263d
00000310: 79e8 10bd 1e47 f03d 7742 b23c d968 483d
00000320: 4a2e f2bc 7ba7 08be f6e2 19be 483a cf3c
00000330: 67fe 693d 1eb6 f03c a216 85bd d84d 1b3e
00000340: 691f 1fbe 32fb 9a3d 72d0 e0bd f0e0 00be
00000350: 76ab c53d 3d2e 8d3d 0311 493e 7b4a c33d
00000360: cba6 39bd 4c08 5fbc 5130 a5bd 9920 c4bd
00000370: 69d2 3f3d ce96 df3d 4ffb 8c3d 0dfd 333c
00000380: 9303 20be dddb 4bbc 5f08 12bd 5e9e 083d
00000390: 8484 9fbd 9da2 673d 0425 f538 5223 9c3d
000003a0: 387c 3bbe ce12 17bd 636c 10bc b388 52bd
000003b0: 9d19 8d3d edec 3cbe 13a3 bcbd 0b78 18bd
000003c0: 2696 073d 306b 1f3d 39b3 ffbd 6444 7a39
000003d0: 9d19 ed3d 3ea1 e73c 7f19 9fbd 4f48 f53d
000003e0: 4ee5 12be edeb abbd 3e0c ddbd ef37 afbd
000003f0: ebb5 83bd a953 073d 6711 26be 3a4c 793d
-0.075531356 -0.07606062 -0.26542923 0.11453346 0.051575094 -0.18335664 0.07908413 -0.18314795
0.0047380254 0.030722108 0.11932426 -0.28099293 -0.09376767 -0.20540294 -0.14472035 0.1700444
-0.08888394 0.01434442 -0.13789143 0.05836755 0.13246785 -0.1814526 -0.12997815 -0.18474568
0.09190065 -0.17870398 -0.13821453 0.14233771 -0.11801444 0.06888995 -0.05339674 -0.06972209
-0.17536087 -0.008147979 -0.1208774 0.023057409 0.07018125 -0.057121757 0.12419387 0.07201414
-0.22615327 0.063864596 0.0769904 -0.1974274 -0.2655464 -0.081614554 -0.15086678 0.13664494
-0.08700256 -0.22168654 0.031367578 -0.28005326 0.024998792 -0.14066803 -0.0630268 0.12563673
0.026171237 0.048631802 -0.32559782 -0.20944205 0.14811173 0.0045709307 0.120814204 -0.17431422
0.016428456 -0.17714363 -0.0061112004 -0.17604655 -0.071628675 -0.07401936 -0.11765137 -0.0015222086
-0.13398276 -0.23447067 0.12562203 0.119136244 -0.10040546 -0.14056447 -0.21026377 -0.032247134
0.05725645 -0.04149704 0.12871386 0.06336393 0.16548455 -0.16145973 -0.15531996 -0.18379661
-0.09175392 0.00706692 0.12221247 0.15195757 0.10884518 -8.9222536e-05 0.03237964 0.10146063
0.10236469 -0.0068677734 -0.059950076 -0.052849993 0.060273297 0.011127051 0.116069056 0.092933744
0.0471958 0.115024365 -0.093123324 -0.080440015 0.06699709 0.10125678 -0.010093399 0.066382065
-0.11061921 -0.24105404 -0.094270445 -0.25053227 -0.07900577 -0.1733311 0.09646743 -0.10396596
-0.10382952 -0.15718326 0.11332601 0.11508806 0.14039706 -0.041168567 0.045103304 -0.014418501
-0.08303521 -0.0058945394 0.051722616 -0.1516184 -0.12630755 0.12314766 0.069044404 0.088502266
-0.16348505 -0.061758928 -0.20782569 0.08721459 0.09057421 0.0936237 0.03909569 0.09621971
-0.15870269 -0.11751075 0.060299825 0.08520003 -0.060276378 0.17057495 0.08013354 -0.069789894
0.051682774 0.10456478 -0.21860005 0.015732639 0.0861219 -0.19586295 -0.06602242 -0.14075272
-0.03796835 -0.029142218 0.089244984 0.027751453 0.13158569 -0.10858643 -0.21181145 0.08219803
-0.07849451 -0.2641748 -0.0057142563 0.036720883 0.04737724 0.11913822 -0.012434604 0.07634674
-0.033154383 -0.012465034 -0.11162781 0.048357356 -0.05036799 0.11685081 0.11830674 -0.008279064
0.0038804854 -0.09461881 0.024560846 0.014548208 0.0448091 -0.11792911 -0.122751795 0.104159534
0.074636064 -0.05111609 0.095362775 0.04065898 -0.035377953 0.117323145 0.021760209 0.048928116
-0.029563088 -0.13345139 -0.15027985 0.025296345 0.057127383 0.029383715 -0.064984575 0.15166414
-0.15539326 0.07567443 -0.10977258 -0.12585807 0.09651844 0.06893585 0.19635396 0.095356904
-0.04532508 -0.013612818 -0.08065856 -0.0957653 0.046831522 0.109174356 0.06883871 0.010985625
-0.15626363 -0.012442556 -0.035652515 0.033354156 -0.07788947 0.056551564 0.00011689405 0.07623924
-0.18309104 -0.036883168 -0.008814904 -0.051399898 0.06889651 -0.18449755 -0.092107914 -0.037223857
0.033102177 0.03892058 -0.12485356 0.00023867335 0.11577151 0.028275128 -0.07768535 0.119766824
-0.14345285 -0.08394609 -0.10793351 -0.0855559 -0.064311825 0.03303877 -0.16217576 0.06086371

fc2.bias f4 [5]
00000000: 7703 8ebd 9d32 60bd 40b6 69bd 6057 13bc
00000010: 2a9c ba3d
-0.069342546 -0.05473577 -0.057058573 -0.008993 0.09111817
