Trained_Weights/STRIDE 4/v4.3_15th.pth (torch, 671892 bytes, 10 tensors)

conv1.weight f4 [32, 1, 3, 3]
0.100599915 -0.050493214 -0.30396593 -0.15235066 0.052590027 -0.02211912 -0.13521908 0.06840636
0.22035426 -0.09867403 -0.020027488 0.190765 0.08118759 -0.15658373 0.25475404 0.24287632
-0.12937577 -0.16850962 -0.23367617 -0.1325403 0.12663044 0.2598159 0.25299564 0.14807224
-0.11662769 0.22374853 0.03266156 0.20754401 -0.17021897 -0.20801052 0.2852931 -0.12875533
0.29938087 -0.22440304 -0.15959816 0.17434676 -0.20713334 -0.051360376 -0.006565869 -0.18274522
0.26727542 0.14676443 0.120591834 0.25917527 -0.17524603 -0.12729098 0.09532239 -0.115482256
0.22540991 -0.25059703 0.16876516 0.19299328 0.166897 0.24539363 0.20072736 -0.1160874
-0.2982961 0.095163755 -0.28675318 0.20999126 0.23723915 0.21217954 -0.15705162 -0.2943933
-0.042256538 0.3488486 0.03389589 0.18791918 -0.120645866 -0.0028675755 -0.019098055 0.2345832
-0.23304248 -0.25205058 -0.029367378 -0.24574132 -0.24021478 0.20524329 0.34913045 0.15496114
0.17275952 -0.0071947775 0.15242328 -0.27223405 0.041611996 0.021980787 0.079771794 0.30588007
0.25431442 -0.22983107 -0.21201707 0.20379196 -0.27638325 0.056992617 -0.06868968 0.28333762
-0.3148582 -0.3390055 0.20647319 -0.04218075 0.3836207 -0.19046603 0.28535447 -0.25987065
-0.123769596 0.13879454 0.2093499 0.0239588 0.11976641 0.21962714 0.03412022 0.025544412
-0.3217081 -0.37312958 0.20595475 0.078121044 0.012232437 0.017764725 0.2469669 0.14264514
-0.33785188 0.21835198 0.0925889 -0.24624056 -0.09856085 -0.14035402 0.0023428474 0.013812656
0.24492717 -0.062835194 -0.1695393 -0.21695442 -0.22629686 -0.24277908 -0.0042610094 -0.17513204
0.03857879 0.154829 -0.16841121 0.19954239 -0.09635878 0.051477235 -0.12560338 -0.119132
-0.2500537 0.17271619 0.18345788 -0.20648253 -0.15324081 -0.024732 -0.05006714 0.3984008
-0.018906316 -0.23451385 0.097971074 0.1551743 0.1327588 0.18694116 0.17769109 -0.09740565
0.29491597 0.12015027 -0.19881848 0.29811305 -0.2319626 0.27721494 0.25028965 0.10218899
0.017334275 -0.063432 0.21250643 0.13897446 -0.04958813 -0.044630762 0.017075356 0.17332485
-0.08533476 -0.2892687 -0.27054423 -0.16805047 -0.35365865 -0.20628832 0.29616156 0.095206745
0.09761353 -0.16693848 0.14678955 0.10021119 0.16511881 0.31862158 0.24061225 -0.29727995
-0.018064663 0.05544174 -0.42022055 -0.07192755 0.057039116 0.13096589 0.16214898 -0.29901755
0.14538416 -0.007602062 -0.09106114 0.1353583 -0.24487554 -0.07654264 -0.27151072 -0.15995616
-0.20932953 0.31452242 -0.17470624 0.21402726 -0.20528314 -0.21043214 -0.07544198 0.047300093
0.29984412 0.26905933 0.21196541 0.23364429 -0.06161474 -0.114317544 0.12133187 0.084276706
0.26272884 0.26307815 0.30577105 0.10086277 -0.17664215 0.10222023 -0.18106942 0.063948624
0.28844553 0.16315278 -0.28305092 0.20727119 -0.2511909 0.066648275 -0.18473512 -0.13754086
-0.22422734 0.14592949 -0.29654685 0.05717541 0.27308503 0.16867442 -0.19543934 0.30335298
0.32115546 -0.011690602 -0.2184231 -0.19165319 0.03656024 -0.18542768 0.16190724 0.21249215
00000000: 5407 ce3d f9d1 4ebd 6ca1 9bbe d001 1cbe
00000010: a468 573d 2833 b5bc df76 0abe a218 8c3d
00000020: 8ca4 613e 9c15 cabd b010 a4bc e657 433e
00000030: ae45 a63d 7c57 20be 1f6f 823e 92b4 783e
00000040: 157b 04be c98d 2cbe ce48 6fbe a5b8 07be
00000050: 69ab 013e 9706 853e a588 813e 40a0 173e
00000060: 80da eebd 561e 653e 21c8 053d 6b86 543e
00000070: e24d 2ebe b600 55be f011 923e 70d8 03be
00000080: 7348 993e e9c9 65be b36d 23be f587 323e
00000090: c31a 54be 425f 52bd 8026 d7bb 9021 3bbe
000000a0: 53d8 883e 6a49 163e daf8 f63d 9fb2 843e
000000b0: b273 33be 9158 02be 6338 c33d f681 ecbd
000000c0: dbd1 663e 414e 80be c6d0 2c3e 08a0 453e
000000d0: 0ce7 2a3e 7848 7b3e 798b 4d3e 3bbf edbd
000000e0: 44ba 98be 37e5 c23d 50d1 92be f307 573e
000000f0: d2ee 723e 9845 593e 24d2 20be b8ba 96be
00000100: 3115 2dbd 499c b23e 6bd6 0a3d e36d 403e
00000110: 2e15 f7bd efed 3bbb 8673 9cbc 9436 703e
00000120: b0a2 6ebe c60c 81be db93 f0bc 9da3 7bbe
00000130: ddfa 75be 4c2b 523e 3ac1 b23e 22ae 1e3e
00000140: dfe7 303e 2bc2 ebbb d914 1c3e 4362 8bbe
00000150: 5771 2a3d 0d11 b43c 655f a33d 509c 9c3e
00000160: 8035 823e d658 6bbe 011b 59be d7ae 503e
00000170: 1b82 8dbe 1771 693d 2dad 8cbd a111 913e
00000180: 1835 a1be 2192 adbe b56d 533e b9c5 2cbd
00000190: ef69 c43e 8709 43be fb19 923e c40d 85be
000001a0: ea7a fdbd 2820 0e3e d25f 563e 3f45 c43c
000001b0: 1748 f53d f0e5 603e a5c1 0b3d 8442 d13c
000001c0: edb6 a4be d70a bfbe cde5 523e edfd 9f3d
000001d0: 8f6a 483c 5487 913c e4e4 7c3e 9111 123e
000001e0: ecfa acbe a997 5f3e 409f bd3d 7c26 7cbe
000001f0: 45da c9bd f7b8 0fbe 758a 193b 7a4e 623c
00000200: 30ce 7a3e bdaf 80bd b69b 2dbe 4d29 5ebe
00000210: 5dba 67be 149b 78be f09f 8bbb d055 33be
00000220: cb04 1e3d 7e8b 1e3e fd73 2cbe d754 4c3e
00000230: c157 c5bd cbd9 523d 2c9e 00be 7afb f3bd
00000240: 0a07 80be 83dc 303e 62dc 3b3e 2870 53be
00000250: 29eb 1cbe c39a cabc 3413 4dbd 31fb cb3e
00000260: 6be1 9abc 6624 70be 0fa5 c83d 03e6 1e3e
00000270: ecf1 073e 816d 3f3e a7f4 353e 9d7c c7bd
00000280: 3aff 963e 5811 f63d 1297 4bbe 46a2 983e
00000290: 9b87 6dbe 1eef 8d3e f725 803e 7648 d13d
000002a0: 9c00 8e3c a3e8 81bd 499b 593e 524f 0e3e
000002b0: ec1c 4bbd bfce 36bd 9ee1 8b3c 127c 313e
000002c0: fec3 aebd 071b 94be c684 8abe 6c15 2cbe
000002d0: bf12 b5be 3f3d 53be 7da2 973e c1fb c23d
000002e0: 9ae9 c73d ecf1 2abe 0050 163e 863b cd3d
000002f0: e814 293e 5e22 a33e 0f63 763e 1435 98be
00000300: 58fc 93bc e116 633d 2627 d7be c04e 93bd
00000310: d9a1 693d ec1b 063e 620a 263e d418 99be
00000320: 96df 143e b81a f9bb 437e babd 5e9b 0a3e
00000330: a7c0 7abe 63c2 9cbd 7403 8bbe 8ccb 23be
00000340: 7b5a 56be 1509 a13e 31e6 32be f629 5b3e
00000350: be35 52be 867b 57be 5381 9abd bebd 413d
00000360: 2b85 993e 25c2 893e 760d 593e 7340 6f3e
00000370: bd5f 7cbd 511f eabd d87c f83d 4499 ac3d
00000380: 6584 863e 2eb2 863e 068e 9c3e 2491 ce3d
00000390: aee1 34be d758 d13d 436a 39be 7ff7 823d
000003a0: 22af 933e 8611 273e 0dec 90be e63e 543e
000003b0: 189c 80be e47e 883d 342b 3dbe 83d7 0cbe
000003c0: da9b 65be 8a6e 153e fdd4 97be c330 6a3d
000003d0: cdd1 8b3e fdb8 2c3e 4021 48be 1551 9b3e
000003e0: 7d6e a43e f089 3fbc 4eaa 5fbe bc40 44be
000003f0: 31c0 153d c1e0 3dbe 03cb 253e 8b97 593e

conv1.bias f4 [32]
0.087662496 -0.090494655 -0.11574857 -0.03741434 -0.14385004 -0.26622927 -0.050363634 -0.14575885
-0.26343808 -0.1474031 0.21172242 -0.19346957 -0.004568539 0.05101581 0.28086275 -0.28946477
-0.0070815636 -0.26971072 -0.32179934 0.22333711 -0.068822056 -0.0006843305 0.2612465 0.17944062
-0.37944472 -0.36361817 0.34922922 -0.18752185 -0.34380364 0.1359198 -0.21338378 0.15220705
00000000: 6588 b33d 4355 b9bd 960d edbd c73f 19bd
00000010: 6d4d 13be 344f 88be 194a 4ebd cf41 15be
00000020: 5be1 86be d7f0 16be c3cd 583e e31c 46be
00000030: afb3 95bb f4f5 503d 3ecd 8f3e ba34 94be
00000040: 760c e8bb 8617 8abe e2c2 a4be 7cb2 643e
00000050: 94f2 8cbd a464 33ba 1ac2 853e 48bf 373e
00000060: 9446 c2be 292c babe 2cce b23e ba05 40be
00000070: 0807 b0be 8f2e 0b3e 4781 5abe 2adc 1b3e

conv2.weight f4 [32, 32, 3, 3]
0.008930815 0.05309169 0.029100804 0.049783126 0.053766906 -0.02934683 0.052592665 -0.070663184
-0.0068187895 0.051106315 0.010672881 -0.016891146 -0.012287985 0.04207462 -0.054270204 0.02653621
-0.044424485 -0.05695068 -0.04208215 -0.029658824 0.02595724 -0.052463412 0.07179391 0.05698288
0.006411017 0.027588794 0.054314397 -0.07330988 0.031777225 0.008962267 0.0071066283 -0.016544081
0.033937443 -0.03416727 0.034328133 -0.007566029 0.023169283 -0.0055009774 0.013436203 0.067209356
0.015062326 -0.034626953 0.0021837982 0.057881933 -0.036196962 0.016610473 0.23283781 0.20168993
-0.020827873 0.24212146 0.35885054 -0.023023808 0.14729606 0.15353094 -0.022516204 -0.042249404
-0.03731738 -0.09170007 0.0016508027 -0.02850545 -0.03859835 0.007870358 0.051498473 0.114146516
0.1596826 0.018507488 0.17148775 0.1636097 0.0071483464 0.15404421 0.14388008 0.058938686
0.005692345 0.038922396 0.04716742 -0.027085798 -0.038044732 0.0117653 0.03955395 0.046242174
-0.04407817 -0.23732567 -0.055609964 0.2892106 -0.20936963 0.07950453 0.3279724 -0.28052798
-0.014854425 0.1701484 0.1654778 -0.051870618 -0.10746907 0.16947769 0.022868654 -0.21377091
0.13876817 -0.06518219 -0.13060021 -0.11125526 0.015316814 0.075996555 -0.087577485 0.031656872
0.008245306 -0.016024636 -0.050327506 0.06918063 0.0048458613 0.041146245 -0.023323055 -0.035130743
-0.009696402 -0.0061751595 -0.0046138247 -0.02950484 0.06694029 0.11876894 -0.00073896383 -0.06416281
0.12897594 -0.031587638 -0.140021 0.22251135 0.0905119 0.0062537934 0.061048515 -0.07827887
-0.28027102 0.07956888 -0.18117803 -0.27785113 0.044593856 -0.10801878 -0.113582425 0.004111743
0.015313696 0.04141881 -0.0006277028 -0.024080077 -0.0361045 0.050238308 -0.04232401 -0.026337044
0.072665974 0.07673762 -0.032784063 -0.012076344 -0.0057497635 -0.017468441 -0.027436433 0.0498821
0.031201122 -0.034596387 0.026701028 0.08606727 0.016661545 0.06616089 0.0012728777 0.0049810614
0.039821934 0.04407374 -0.008504236 0.042205248 0.0864169 0.052537158 0.13302019 0.15742901
-0.041475754 0.10765389 0.16132124 0.026627919 -0.0057459506 -0.07245184 -0.04234852 -0.026962513
-0.113457024 0.074152485 -0.056501664 0.023891183 0.033957712 0.03508509 0.024697255 0.048966892
-0.013534314 0.039437506 -0.051386565 -0.050069906 0.010780413 -0.03572592 0.007498711 -0.008985724
-0.05307892 -0.03764736 0.01481277 -0.069408275 -0.015603913 0.09004523 0.003240788 -0.07317082
-0.18030113 0.027559942 -0.08512961 -0.2572181 0.1047906 -0.133218 -0.08570512 0.08209447
0.03460696 -0.057225764 0.07917492 0.048335362 -0.002866108 0.09524364 -0.025544107 -0.009208729
-0.048798464 0.0076084975 0.061962012 -0.08077699 0.08686603 -0.009758952 -0.058309738 0.042434465
0.09820781 -0.022932429 0.008505256 0.110383354 -0.038442243 0.09366254 0.1384927 -0.035779193
0.1467719 0.13517518 0.051140234 -0.0021540404 -0.022655215 -0.004618578 -0.0835382 -0.067171425
0.0020660672 -0.08210412 -0.12425626 -0.028273836 0.049375776 0.004542691 0.04428225 0.12179629
0.007163637 -0.012330333 0.13844442 0.05089183 0.069183655 0.14839868 0.112553425 0.0017215265
00000000: 8e52 123c ac76 593d cf64 ee3c 64e9 4b3d
00000010: b03a 5c3d c368 f0bc 686b 573d dcb7 90bd
00000020: 2770 dfbb db54 513d 4fdd 2e3c 4d5f 8abc
00000030: 8b53 49bc 7056 2c3d 6f4a 5ebd 7762 d93c
00000040: 73f6 35bd 1e45 69bd 555e 2cbd 10f7 f2bc
00000050: 47a4 d43c e0e3 56bd af08 933d e166 693d
00000060: 8213 d23b e501 e23c c678 5e3d 7e23 96bd
00000070: d628 023d 79d6 123c b8de e83b 7487 87bc
00000080: fd01 0b3d fbf2 0bbd a89b 0c3d 74ec f7bb
00000090: 82cd bd3c 8b41 b4bb 8523 5c3c 0fa5 893d
000000a0: f9c7 763c fed4 0dbd 0e1e 0f3b 9b15 6d3d
000000b0: 4443 14bd b012 883c 096d 6e3e ce87 4e3e
000000c0: 379f aabc b0ee 773e 42bb b73e 6d9c bcbc
000000d0: c7d4 163e 3737 1d3e e773 b8bc b60d 2dbd
000000e0: 1cda 18bd 3fcd bbbd bf5f d83a 4384 e9bc
000000f0: 4e19 1ebd adf2 003c 10f0 523d a6c5 e93d
00000100: d683 233e 049d 973c 7c9a 2f3e 4d89 273e
00000110: ad3c ea3b c4bd 1d3e 4d55 133e b169 713d
00000120: da86 ba3b 176d 1f3d a032 413d 09e3 ddbc
00000130: cbd4 1bbd 3fc3 403c 5303 223d 6f68 3d3d
00000140: 508b 34bd 8005 73be 46c7 63bd 6913 943e
00000150: fe64 56be 45d3 a23d 00ec a73e 5da1 8fbe
00000160: f95f 73bc 623b 2e3e 0373 293e 4976 54bd
00000170: be18 dcbd 8f8b 2d3e 0b57 bb3c c3e6 5abe
00000180: 3e19 0e3e 3d7e 85bd 10bc 05be ccd9 e3bd
00000190: 60f3 7a3c 15a4 9b3d d35b b3bd a3aa 013d
000001a0: 5217 073c 1946 83bc 3724 4ebd 93ae 8d3d
000001b0: 08ca 9e3b f788 283d fe0f bfbc 41e5 0fbd
000001c0: a8dd 1ebc fe58 cabb 912f 97bb 22b4 f1bc
000001d0: fe17 893d 213d f33d 06b7 41ba cb67 83bd
000001e0: 4512 043e 0a62 01bd aa61 0fbe 04da 633e
000001f0: 4e5e b93d 9fec cc3b 020e 7a3d ac50 a0bd
00000200: af7f 8fbe 02f5 a23d bc86 39be 8142 8ebe
00000210: 0ca8 363d f338 ddbd e79d e8bd cdbb 863b
00000220: 4ce6 7a3c c5a6 293d 6c8c 24ba 9543 c5bc
00000230: 50e2 13bd afc6 4d3d f15b 2dbd c9c0 d7bc
00000240: e6d1 943d 9d28 9d3d 9548 06bd dcdb 45bc
00000250: 8368 bcbb fa19 8fbc 5fc2 e0bc 2c51 4c3d
00000260: 7f99 ff3c f1b4 0dbd 1dbc da3c 0944 b03d
00000270: cb7d 883c 5c7f 873d b0d6 a63a 2c38 a33b
00000280: 531c 233d aa86 343d 5a55 0bbc 69df 2c3d
00000290: 58fb b03d 3431 573d 7236 083e 1235 213e
000002a0: 7be2 29bd a579 dc3d 6531 253e cb22 da3c
000002b0: 8748 bcbb a161 94bd a475 2dbd 7de0 dcbc
000002c0: 285c e8bd 42dd 973d 4a6e 67bd 71b7 c33c
000002d0: 3e17 0b3d 62b5 0f3d e651 ca3c 8291 483d
000002e0: 07bf 5dbc 3989 213d b87a 52bd 1a16 4dbd
000002f0: 54a0 303c 5855 12bd bfb7 f53b dc38 13bc
00000300: 4869 59bd 1e34 1abd 43b1 723c ed25 8ebd
00000310: 8ea7 7fbc a269 b83d 6663 543b 95da 95bd
00000320: dca0 38be 63c5 e13c 6f58 aebd 17b2 83be
00000330: 749c d63d 4d6a 08be 2a86 afbd 2521 a83d
00000340: 07c0 0d3d 9065 6abd 7626 a23d 4dfb 453d
00000350: 50d5 3bbb 190f c33d e041 d1bc 35e0 16bc
00000360: e6e0 47bd b450 f93b e1cb 7d3d 686e a5bd
00000370: d1e6 b13d 03e4 1fbc 31d6 6ebd c3cf 2d3d
00000380: 2d21 c93d cadc bbbc a159 0b3c ab10 e23d
00000390: 9d75 1dbd 25d2 bf3d 08d1 0d3e 348d 12bd
000003a0: 5f4b 163e 5d6b 0a3e 6c78 513d cd2a 0dbb
000003b0: 6e97 b9bc 7157 97bb 1316 abbd 2c91 89bd
000003c0: db66 073b 3426 a8bd 117a febd 889e e7bc
000003d0: 413e 4a3d dbda 943b 4e61 353d 5570 f93d
000003e0: f1bc ea3b 2a05 4abc 60c4 0d3e f473 503d
000003f0: 29b0 8d3d d3f5 173e 6982 e63d d8a4 e13a

conv2.bias f4 [32]
-0.02203659 0.00279547 0.049182903 0.007979603 -0.029914204 0.0744769 0.040850475 0.058754224
0.05300847 -0.009853595 -0.021022905 0.009179694 0.029897768 0.034599997 -0.057675637 -0.054289497
-0.009767023 0.043550104 -0.00053027814 0.08262761 0.020555366 -0.03473742 0.061545927 -0.06878064
-0.049619626 -0.0051637897 0.044528533 0.0029714513 -0.045974553 0.036334552 -0.052781243 -0.01080491
00000000: 1486 b4bc 3434 373b 0374 493d e1bc 023c
00000010: a20e f5bc 5887 983d d452 273d 45a8 703d
00000020: 691f 593d f970 21bc 3a38 acbc 6d66 163c
00000030: 2aec f43c bab8 0d3d 4a3d 6cbd aa5e 5ebd
00000040: dd05 20bc 9861 323d 5d02 0bba aa38 a93d
00000050: ba63 a83c d348 0ebd 9517 7c3d dddc 8cbd
00000060: f33d 4bbd 0235 a9bb 8d63 363d aebc 423b
00000070: d04f 3cbd 8ad3 143d 2531 58bd 1407 31bc

conv3.weight f4 [32, 32, 3, 3]
0.16211699 0.0076103737 -0.027556773 -0.023548309 -0.094683774 0.055307284 -0.08602904 -0.12618524
0.16324537 0.10806979 0.0672552 -0.004759022 -0.024387006 -0.046968736 -0.055119198 0.00072051445
-0.1415175 0.01576334 -0.10120947 -0.19272915 -0.017283857 -0.09772584 0.011511248 0.11291861
0.1096987 0.21038641 -0.027813436 0.08521372 0.03677025 -0.0536363 -8.974735e-05 -0.08488572
-0.0301415 0.07127197 -0.09268787 0.153349 0.028569203 0.14254458 0.026266018 -0.045137085
-0.13183765 -0.04916994 -0.06566806 -0.10717024 0.10306396 -0.054249972 -0.15412766 -0.027461788
0.050506767 0.089758754 0.0902148 0.1270771 0.17408575 -0.104178585 -0.059321005 -0.05799218
-0.070756264 -0.015985435 0.12903781 0.0013925096 0.048680846 0.13819289 -0.1314236 -0.11989891
-0.14232312 0.01590654 0.06584719 0.15433168 0.06496589 0.11550067 0.14978607 -0.12911107
0.062087286 0.14100383 -0.012942661 -0.06365769 -0.15137137 0.008474411 -0.07857268 -0.035023276
0.1080836 0.084578775 0.116518654 0.058852043 0.04755963 -0.11340334 -0.0027239542 -0.011439712
-0.09078119 0.07060624 -0.08730728 -0.06745636 0.02720686 0.06238216 0.1323459 0.07453733
-0.020643268 0.053025585 -0.19353297 -0.086429946 -0.14321387 0.040203955 0.056995694 0.07913892
0.063331194 0.07004143 0.13758738 -0.024891788 0.18213464 -0.07554628 0.013079506 -0.041772377
-0.22302079 0.048233196 0.031427138 0.06873055 0.22207636 -0.07338921 -0.12754725 0.047282066
-0.0627251 0.0780885 0.050682478 0.027040448 0.08218739 -0.07388342 0.09468547 0.0742415
0.031621166 -0.1097862 -0.1551397 -0.04638978 -0.0809427 -0.09153687 0.16776909 0.14532514
0.13169248 0.032177825 -0.072806485 -0.05053405 -0.022632785 -0.04659553 -0.053604543 0.09687776
-0.10045051 -0.15011953 -0.0024962008 0.07310681 0.1368165 0.018259017 0.110589765 0.14144509
-0.109486766 0.098624066 0.08732219 -0.009100904 -0.039237726 -0.03243218 -0.09207767 -0.090737395
-0.09148532 0.04225151 -0.13518308 -0.14765233 -0.023026025 0.02157995 0.17752984 0.07374234
0.096458495 0.10503433 -0.12271814 -0.02757125 -0.13900332 -0.07029502 -0.010937582 0.08867432
0.0911747 0.09488277 0.12430754 -0.069348514 -0.04164608 -0.110226505 0.011049768 0.025594303
0.055365138 0.029205909 0.0337028 0.061800133 -0.07714001 0.0020748167 0.007796227 -0.039419133
-0.11833588 -0.2079434 0.01932475 0.13106637 0.0156081645 0.15539685 -0.10080154 -0.08668542
0.018023567 -0.028875852 0.15475795 0.083730236 0.06660637 0.1711301 -0.096383266 0.061600495
0.11745583 -0.0055943574 -0.026415486 -0.12958442 -0.089691296 -0.03009708 -0.051901307 0.10620253
0.07704187 0.034125794 -0.045037456 -0.036606334 -0.08031509 -0.08941211 -0.0031390116 0.012476126
0.11066121 -0.12773737 -0.05796023 -0.100019224 0.00671891 0.033407588 -0.0030381817 0.0441936
0.101765275 -0.11792598 0.12835602 0.15486935 -0.024460625 -0.0048017437 -0.1528735 -0.0013669668
-0.058067765 -0.08581894 0.11322056 0.19181111 0.17532796 0.13169043 0.0018946211 -0.104935735
-0.005215642 -0.125033 -0.15524073 0.042756233 -0.063868634 -0.06565043 0.04805739 0.055210486
00000000: ff01 263e 7160 f93b bebe e1bc 62e8 c0bc
00000010: 91e9 c1bd e489 623d fe2f b0bd b436 01be
00000020: cb29 273e b253 dd3d 18bd 893d 92f1 9bbb
00000030: 42c7 c7bc 4a62 40bd abc4 61bd e8e0 3c3a
00000040: f7e9 10be 1f22 813c e946 cfbd ca5a 45be
00000050: e096 8dbc 7c24 c8bd ac99 3c3c df41 e73d
00000060: b6a9 e03d 896f 573e 01d9 e3bc 8884 ae3d
00000070: 679c 163d bdb1 5bbd be36 bcb8 90d8 adbd
00000080: 4feb f6bc 0af7 913d 23d3 bdbd 8507 1d3e
00000090: f609 ea3c 35f7 113e d52b d73c aae1 38bd
000000a0: 7300 07be 6b66 49bd fa7c 86bd 127c dbbd
000000b0: 3313 d33d 3835 5ebd a4d3 1dbe 8bf7 e0bc
000000c0: 2fe0 4e3d 70d3 b73d 89c2 b83d 8020 023e
000000d0: 8943 323e 955b d5bd 95fa 72bd 3589 6dbd
000000e0: a9e8 90bd e3f3 82bc 7d22 043e de84 b63a
000000f0: 9165 473d 7082 0d3e e893 06be 8f8d f5bd
00000100: 27bd 11be 6f4e 823c e4da 863d 2009 1e3e
00000110: d60c 853d 9e8b ec3d 8561 193e b135 04be
00000120: 3d4f 7e3d 4f63 103e 740d 54bc f75e 82bd
00000130: 1901 1bbe 42d8 0a3c b7ea a0bd 9174 0fbd
00000140: ef5a dd3d a337 ad3d 55a1 ee3d d70e 713d
00000150: e3cd 423d 0340 e8bd 5e84 32bb a16d 3bbc
00000160: 7deb b9bd 019a 903d 29ce b2bd 8f26 8abd
00000170: ece0 de3c 7084 7f3d af85 073e 07a7 983d
00000180: 121c a9bc 5b31 593d 822d 46be 2f02 b1bd
00000190: a8a6 12be e7ac 243d 5174 693d 9613 a23d
000001a0: c9b3 813d e271 8f3d b5e3 0c3e dde9 cbbc
000001b0: 8181 3a3e 02b8 9abd 6d4b 563c 8319 2bbd
000001c0: 905f 64be 2c90 453d beb9 003d 9ac2 8c3d
000001d0: fc67 633e 154d 96bd bf9b 02be d7aa 413d
000001e0: 0476 80bd ddec 9f3d 6e98 4f3d ee83 dd3c
000001f0: dd51 a83d 3150 97bd 75ea c13d ed0b 983d
00000200: 3285 013d 96d7 e0bd f1dc 1ebe 3603 3ebd
00000210: 49c5 a5bd af77 bbbd a9cb 2b3e 1dd0 143e
00000220: 65da 063e e5cc 033d 911b 95bd cbfc 4ebd
00000230: 6468 b9bc f4da 3ebd 7090 5bbd d967 c63d
00000240: ffb8 cdbd efb8 19be 4d97 23bb 06b9 953d
00000250: a019 0c3e ef93 953c e37c e23d fbd6 103e
00000260: 993a e0bd 6afb c93d fad5 b23d f51b 15bc
00000270: bdb7 20bd 9bd7 04bd 3893 bcbd 87d4 b9bd
00000280: a85c bbbd eb0f 2d3d 6f6d 0abe 2c32 17be
00000290: 13a1 bcbc 6fc8 b03c 62ca 353e 3906 973d
000002a0: 088c c53d 3d1c d73d a653 fbbd 1add e1bc
000002b0: e356 0ebe d6f6 8fbd 8b33 33bc e29a b53d
000002c0: cdb9 ba3d e651 c23d f494 fe3d 9806 8ebd
000002d0: 1495 2abd 6fbe e1bd 160a 353c 25ab d13c
000002e0: 8ec6 623d 3b41 ef3c f20b 0a3d 2322 7d3d
000002f0: 95fb 9dbd a6f9 073b 7e77 ff3b f575 21bd
00000300: 155a f2bd 1def 54be f04e 9e3c 4336 063e
00000310: 63b9 7f3c 5a20 1f3e 0a71 cebd 2088 b1bd
00000320: 29a6 933c 0d8d ecbc de78 1e3e c27a ab3d
00000330: ec68 883d bb3c 2f3e 9764 c5bd cd50 7c3d
00000340: af8c f03d df50 b7bb 4a65 d8bc c7b1 04be
00000350: 12b0 b7bd 278e f6bc 7796 54bd b680 d93d
00000360: 21c8 9d3d 7dc7 0b3d 3279 38bd 86f0 15bd
00000370: 3d7c a4bd b21d b7bd e0b7 4dbb aa68 4c3c
00000380: 58a2 e23d 96cd 02be b567 6dbd e1d6 ccbd
00000390: 4d2a dc3b 65d6 083d 3b1c 47bb 5904 353d
000003a0: 506a d03d 2d83 f1bd c36f 033e 1296 1e3e
000003b0: a661 c8bc f257 9dbb df8a 1cbe cb2b b3ba
000003c0: 77d8 6dbd d7c1 afbd 2ee0 e73d 226a 443e
000003d0: 2c89 333e dbd9 063e ef54 f83a 8ce8 d6bd
000003e0: fae7 aabb a708 00be 6df7 1ebe 2921 2f3d
000003f0: 8fcd 82bd bc73 86bd d3d7 443d 6424 623d

conv3.bias f4 [32]
-0.056606397 -0.028852455 0.06174137 -0.012189734 0.027775908 -0.00044379508 0.044052366 -0.035453785
0.007174613 0.056602404 -0.036408376 0.009831421 0.033091437 -0.026410012 0.04169644 0.056267016
0.018225336 0.04780134 -0.12691589 0.030594613 -0.042289436 -0.0038062346 -0.07145931 -0.042277712
-0.032141164 -0.026706446 0.041010033 0.10009424 -0.008643308 -0.008884218 -0.01316173 0.015861148
00000000: 1cdc 67bd fc5b ecbc 85e4 7c3d 73b7 47bc
00000010: 4d8a e33c 2bad e8b9 4170 343d fd37 11bd
00000020: 0419 eb3b ecd7 673d f320 15bd f813 213c
00000030: e38a 073d cf59 d8bc e3c9 2a3d 3e78 663d
00000040: 4d4d 953c 57cb 433d 3df6 01be 8ea1 fa3c
00000050: b037 2dbd 0572 79bb 4259 92bd 652b 2dbd
00000060: 74a6 03bd 7ac7 dabc 23fa 273d 35fe cc3d
00000070: a99c 0dbc 1c8f 11bc 4ca4 57bc 3def 813c

fc1.weight f4 [128, 1152]
-0.021568215 0.037526514 0.060190488 0.050179042 0.10537591 -0.114684135 7.916658e-05 0.06976438
0.006876404 -0.14673577 -0.10908828 0.04151555 0.058253173 0.037555605 0.08369962 -0.0645171
0.026115045 0.17208618 -0.0017375448 0.071756914 -0.024381168 -0.098891586 -0.03207034 -0.058998846
-0.02908235 -0.048496913 -0.054963503 0.07682033 0.061661683 0.03257478 0.118763305 -0.01008864
-0.05995781 0.030090585 0.20624292 0.054356206 -0.026681412 0.00715889 0.015464217 0.047013022
-0.01057428 0.051382538 0.0012136856 0.008964844 -0.04346361 0.027639743 0.04705722 0.05703835
0.0098253805 -0.019319067 -0.02204293 0.05220707 0.056643534 -0.058773074 -0.024545034 -0.02097715
-0.060373075 0.039315067 -0.022403564 -0.05260942 0.04159515 -0.002453071 0.01925701 0.057134725
-0.015943281 -0.040847752 -0.06727531 -0.040297624 0.05295165 0.0668609 -0.065584704 1.0195683e-05
-0.07087625 -0.01086072 0.008222905 0.0036012582 0.11516084 -0.037774056 -0.011140786 0.037864827
0.024316655 0.087241486 0.009708325 -0.13501179 0.05140353 0.012003467 0.07729374 -0.044542298
-0.06181446 0.039636504 -0.03303977 -0.027349912 0.083133034 -0.14099015 0.007402851 0.08157487
-0.08318837 0.09012511 -0.039408762 -0.074943125 -0.04323961 -0.011396825 0.05038253 0.0014760037
-0.00719842 -0.163547 -0.06497635 -0.026847495 -0.014256192 0.012234674 -0.038069516 -0.030559093
-0.07870459 -0.11422355 0.0427963 0.03894909 0.038543895 -0.04023051 0.07593358 -0.00848107
0.068889655 0.028376678 -0.055361345 -0.057058096 0.08728181 0.022231841 0.062363934 0.024239877
0.0064883623 0.019576084 0.04006987 0.045100026 0.016452687 -0.07494277 -0.09123221 -0.05129924
-0.022894435 -0.014383222 -0.026307916 -0.08907165 -0.06241287 0.027790818 0.10005156 -0.04044455
-0.089308545 -0.006473044 0.0654767 0.07578591 0.022070715 -0.059351854 0.0017241166 -0.10616019
-0.051037222 -0.1826903 -0.08730675 0.09659075 0.0954694 -0.006317318 0.030069279 0.063338116
0.20772077 0.0950163 0.065023474 -0.03935324 -0.105332084 -0.005761679 -0.03292242 -0.0024547456
0.09062331 -0.08255145 0.08035054 0.120125964 0.06952496 0.053702526 -0.033422932 -0.0011910747
0.05132466 0.19649464 0.14980896 0.078055635 -0.003859045 0.028594354 0.04074315 -0.0065599326
-0.04968098 -0.067970864 0.052509934 0.021266978 0.06010002 -0.0396014 0.02651335 0.057694588
0.074152194 0.041070543 0.009509466 -0.021655977 0.07118919 0.0008456368 0.06526647 -0.015686687
0.009779545 -0.026454562 -0.016850889 0.027993158 0.0337101 -0.054328527 -0.053106453 -0.06775076
0.006202419 0.0069057913 -0.0042088754 -0.10799001 -0.05579978 -0.0011553172 0.10749146 0.021090304
-0.082168356 -0.0465119 0.052302893 0.013143591 0.05903425 0.0069176354 -0.0036185822 0.06779751
0.0050482247 0.038899817 0.09018817 -0.0997908 0.045610774 -0.018919287 0.11844003 0.034479484
0.03439716 -0.043487508 0.05347269 -0.049360592 0.112628646 -0.1117808 0.006086868 0.038390975
-0.07467857 0.13689795 -0.16879277 -0.053614963 -0.025957039 -0.026178658 0.014572748 -0.015616658
-0.0042200563 -0.1289593 -0.09996435 -0.009764713 0.028831875 0.00071803166 -0.027122606 0.019931952
00000000: d3af b0bc 67b5 193d 4d8a 763d 8a88 4d3d
00000010: 53cf d73d 84df eabd 3c06 a638 a1e0 8e3d
00000020: 7553 e13b e741 16be ad69 dfbd 360c 2a3d
00000030: e19a 6e3d e8d3 193d b56a ab3d 8b21 84bd
00000040: 38ef d53c 5c37 303e 54be e3ba 4af5 923d
00000050: 04bb c7bc ac87 cabd 305c 03bd c6a8 71bd
00000060: 1c3e eebc b3a4 46bd 6921 61bd fa53 9d3d
00000070: f690 7c3d 226d 053d 2d3a f33d d34a 25bc
00000080: 5296 75bd 8880 f63c 5831 533e 9da4 5e3d
00000090: fa92 dabc 1f95 ea3b a15d 7d3c ba90 403d
000000a0: bf3f 2dbc 7f76 523d 8814 9f3a 48e1 123c
000000b0: e606 32bd be6c e23c 12bf 403d 0ba1 693d
000000c0: a2fa 203c 0543 9ebc 6093 b4bc 15d7 553d
000000d0: 0d03 683d 09bc 70bd ab12 c9bc 46d8 abbc
000000e0: c249 77bd d608 213d ae87 b7bc fa7c 57bd
000000f0: ad5f 2a3d b4c3 20bb e1c0 9d3c 1a06 6a3d
00000100: 7c9b 82bc f94f 27bd a3c7 89bd 1f0f 25bd
00000110: d4e3 583d 5eee 883d 4651 86bd 200e 2b37
00000120: 9127 91bd 29f1 31bc 5db9 063c 1603 6c3b
00000130: 72d9 eb3d f8b8 1abd d887 36bc 2618 1b3d
00000140: b933 c73c aaab b23d ab0f 1f3c 8840 0abe
00000150: 828c 523d 31aa 443c 2e4c 9e3d fc71 36bd
00000160: 2931 7dbd e359 223d b654 07bd ec0c e0bc
00000170: a741 aa3d b95f 10be 9d93 f23b ba10 a73d
00000180: aa5e aabd 8393 b83d 156b 21bd c87b 99bd
00000190: 041c 31bd c0b9 3abc e95d 4e3d 7776 c13a
000001a0: b9e0 ebbb dd78 27be 5212 85bd 47ef dbbc
000001b0: ce92 69bc f173 483c c8ee 1bbd 1057 fabc
000001c0: df2f a1bd 09ee e9bd 2c4b 2f3d 1589 1f3d
000001d0: 34e0 1d3d bfc8 24bd 1183 9b3d 30f4 0abc
000001e0: 0516 8d3d 3576 e83c 94c2 62bd c0b5 69bd
000001f0: cec0 b23d 8d1f b63c 5371 7f3d b592 c63c
00000200: 549c d43b 065e a03c 4e20 243d ceba 383d
00000210: c9c7 863c 987b 99bd f4d7 babd 271f 52bd
00000220: 1c8d bbbc 9ba7 6bbc b383 d7bc 326b b6bd
00000230: a3a4 7fbd 92a9 e33c d5e7 cc3d 2fa9 25bd
00000240: 66e7 b6bd d41b d4bb a618 863d a535 9b3d
00000250: a5cd b43c ee1a 73bd c1fb e13a 846a d9bd
00000260: 680c 51bd 2a13 3bbe e2cd b2bd 5fd1 c53d
00000270: 7685 c33d 8101 cfbb d953 f63c 6ab7 813d
00000280: c1b4 543e e897 c23d 072b 853d dd30 21bd
00000290: 59b8 d7bd 77cc bcbb a9d9 06bd ccdf 20bb
000002a0: b798 b93d bc10 a9bd d38e a43d 9a04 f63d
000002b0: 1a63 8e3d 2ef7 5b3d 7ce6 08bd d61d 9cba
000002c0: cf39 523d e435 493e 8567 193e a2db 9f3d
000002d0: 08e8 7cbb b53e ea3c 4ae2 263d b4f4 d6bb
000002e0: 497e 4bbd 4f34 8bbd a814 573d 1638 ae3c
000002f0: 702b 763d 1435 22bd 8632 d93c 2951 6c3d
00000300: 1bdd 973d 9639 283d 97cd 1b3c e067 b1bc
00000310: a3cb 913d baad 5d3a 6daa 853d 5e81 80bc
00000320: 623a 203c 3db7 d8bc e00a 8abc e851 e53c
00000330: 9a13 0a3d 9787 5ebd 2786 59bd e9c0 8abd
00000340: a93d cb3b fa49 e23b 9bea 89bb de29 ddbd
00000350: 4f8e 64bd 036e 97ba 7c24 dc3d 93c5 ac3c
00000360: e247 a8bd 4383 3ebd 8f3b 563d 3758 573c
00000370: e6cd 713d 55ad e23b bc25 6dbb 6cd9 8a3d
00000380: 946b a53b 6a55 1f3d 93b4 b83d 1e5f ccbd
00000390: 5dd2 3a3d 9ffc 9abc b090 f23d 5c3a 0d3d
000003a0: 09e4 0c3d f51f 32bd 2e06 5b3d 552e 4abd
000003b0: d9a9 e63d 55ed e4bd 5974 c73b db3f 1d3d
000003c0: 14f1 98bd fa2e 0c3e 03d8 2cbe 5d9b 5bbd
000003d0: dba3 d4bc a074 d6bc 89c2 6e3c 03dd 7fbc
000003e0: 6648 8abb e80d 04be 1cba ccbd 2dfc 1fbc
000003f0: d330 ec3c 4a3a 3c3a 3a30 debc 5548 a33c

fc1.bias f4 [128]
0.025183134 -0.02914452 -0.01768889 0.021579714 -0.0058418605 -0.087840475 0.0034499478 -0.024544416
-0.023675298 0.03196124 0.041841812 -0.025503458 -0.098805435 -0.022884578 -0.06283389 -0.048861433
-0.0095542325 0.010906487 -0.038374506 0.059689227 -0.08630747 -0.0029646081 -0.06739092 0.0009186184
0.017104784 -0.02195996 -0.0019827327 -0.076302536 -0.01715261 -0.0323535 -0.017740337 -0.0515691
-0.059762314 -0.023936555 -0.030703425 -0.035755727 -0.011517551 0.012070609 -0.0026037993 0.0011110042
-0.0073948354 0.024794621 -0.049075205 0.062057856 -0.0045057796 0.02305238 -0.064362034 0.050283022
-0.03977348 -0.024747584 -0.007359219 -0.0017288361 -0.049467638 -0.071486086 -0.08401807 0.0059835245
-0.003897976 -0.011653132 -0.025330462 -0.004253282 -0.0380025 -0.029468859 0.036205992 -0.05320663
0.02319235 -0.0063647265 -0.030984437 0.0074198437 -0.012405797 -0.031196825 -0.0014840437 0.03207742
-0.06429838 0.014020727 -0.0376128 0.004587668 0.011256889 -0.04557282 -0.04813647 -0.012880786
0.016016115 -0.026511153 0.03892502 0.00931125 -0.031229455 -0.032009568 -0.023568014 -0.04558195
-0.05446598 -0.011330086 -0.003290144 -0.041031662 -0.014210586 -0.0055115125 9.421521e-06 -0.049028516
0.0643844 -0.066226274 0.010406255 -0.029771354 -0.012454048 -0.029217625 0.022761963 -0.02306526
-0.009649218 -0.043002706 -0.032022208 -0.025557945 -0.031616215 -0.0045813154 0.0024472494 -0.024906965
-0.0038236622 -0.025867172 -0.06699431 -0.034942728 -0.08798236 0.012133106 0.06649196 -0.0045103505
-0.031456593 -0.011201431 -0.022110933 0.020223146 -0.03594077 -0.035907798 -0.026106708 -0.05700744
00000000: dc4c ce3c 7dc0 eebc 4be8 90bc f1c7 b03c
00000010: 146d bfbb b5e5 b3bd 8518 623b 5f11 c9bc
00000020: b3f2 c1bc cae9 023d 5262 2b3d a1ec d0bc
00000030: 815a cabd 7078 bbbc 0eaf 80bd ed22 48bd
00000040: 5b89 1cbc 1fb1 323c 962e 1dbd b17c 743d
00000050: f9c1 b0bd df49 42bb 4004 8abd 70cf 703a
00000060: 551f 8c3c 60e5 b3bc bcf0 01bb 8144 9cbd
00000070: a183 8cbc 1b85 04bd 2f54 91bc 1f3a 53bd
00000080: 54c9 74bd 9816 c4bc c085 fbbc 9974 12bd
00000090: 1cb4 3cbc cec3 453c 81a4 2abb 1d9f 913a
000000a0: 6050 f2bb 171e cb3c 1503 49bd 6130 7e3d
000000b0: 38a5 93bb 58d8 bc3c 3ed0 83bd 92f5 4d3d
000000c0: 84e9 22bd 72bb cabc 9a25 f1bb 1d9a e2ba
000000d0: 949e 4abd 4c67 92bd aa11 acbd 7111 c43b
000000e0: 2f75 7fbb c7ec 3ebc d481 cfbc 1e5f 8bbb
000000f0: 82a8 1bbd ad68 f1bc bc4c 143d 32ef 59bd
00000100: e2fd bd3c 328f d0bb 13d3 fdbc 2922 f33b
00000110: af41 4bbc 7c90 ffbc 3e84 c2ba 9d63 033d
00000120: deae 83bd 31b7 653c e10f 1abd 2654 963b
00000130: d16e 383c 91aa 3abd bf2a 45bd ef09 53bc
00000140: 3a34 833c eb2d d9bc d76f 1f3d 378e 183c
00000150: ead4 ffbc 771c 03bd b511 c1bc 24b4 3abd
00000160: b817 5fbd d3a1 39bc 759f 57bb d110 28bd
00000170: 85d3 68bc eb99 b4bb 2011 1e37 20d2 48bd
00000180: f8db 833d a4a1 87bd ff7e 2a3c 0ee3 f3bc
00000190: 100c 4cbc cd59 efbc 4c77 ba3c 5bf3 bcbc
000001a0: c117 1ebc 9b23 30bd b829 03bd e55e d1bc
000001b0: 0180 01bd dc1e 96bb 0862 203b b109 ccbc
000001c0: 6896 7abb 64e7 d3bc 5034 89bd 1b20 0fbd
000001d0: 1830 b4bd efc9 463c f02c 883d 90cb 93bb
000001e0: a1d8 00bd 3586 37bc fd21 b5bc 03ab a53c
000001f0: a136 13bd 0e14 13bd bcdd d5bc a280 69bd

fc2.weight f4 [5, 128]
-0.103478774 -0.0860145 -0.276 0.12961571 0.058731906 -0.19408457 0.082414456 -0.19518407
0.00509671 0.024786549 0.12800822 -0.3012065 -0.10303915 -0.22984414 -0.14794724 0.17775682
-0.111000255 0.0031048579 -0.17927882 0.059863884 0.15683815 -0.20839341 -0.15317912 -0.22054143
0.09677092 -0.19739261 -0.14891636 0.1351546 -0.14436448 0.044985864 -0.0719103 -0.058820512
-0.20779608 0.004829094 -0.11719521 0.024897723 0.063745044 -0.06707304 0.11441459 0.07587091
-0.26280013 0.08498003 0.091767535 -0.24286404 -0.3325098 -0.059045427 -0.17411377 0.13739021
-0.09264536 -0.2712939 0.039200827 -0.33130944 0.045314316 -0.194147 -0.07655766 0.14117798
0.019439831 0.060819644 -0.38374355 -0.28084448 0.13430706 0.0329335 0.11803815 -0.18433125
0.016779779 -0.20210578 0.0022540751 -0.20281075 -0.10585006 -0.09461512 -0.127549 -0.007965713
-0.13942471 -0.2904128 0.13944714 0.13046032 -0.09416581 -0.1525424 -0.21769619 -0.040697638
0.049482215 -0.06135579 0.146386 0.054192763 0.17852575 -0.19653116 -0.15927449 -0.22111538
-0.09170639 -0.0072081937 0.11822605 0.18863341 0.119950086 -0.01675835 0.04494897 0.11976327
0.107183084 -0.025831414 -0.05736673 -0.058823973 0.06978741 0.012755272 0.12302802 0.1314446
0.05753415 0.13278534 -0.12194717 -0.10819992 0.08020642 0.102723084 -0.010473734 0.08091991
-0.14424789 -0.29846632 -0.10202491 -0.27630374 -0.08953338 -0.20627892 0.08884954 -0.11292119
-0.117561415 -0.18125485 0.09969794 0.12315999 0.17538182 -0.04674507 0.06546371 -0.023670375
-0.11279621 -0.03157389 0.06457778 -0.1841875 -0.15381585 0.13303961 0.09602966 0.10040414
-0.19825631 -0.064657345 -0.25809443 0.09213109 0.10783268 0.095468424 0.042874623 0.11290161
-0.1773621 -0.14085044 0.049506128 0.10516746 -0.06931852 0.20127723 0.08804026 -0.09236647
0.047564715 0.1154199 -0.24705577 0.02292881 0.07822477 -0.23311885 -0.07103115 -0.16445252
-0.032480624 -0.04144403 0.09555461 0.07060542 0.13695505 -0.124108285 -0.23929067 0.10607891
-0.105208784 -0.3278821 0.021079203 0.043042175 0.038215123 0.1359389 -0.008995313 0.08876303
-0.039834995 -0.02333856 -0.14511077 0.04679187 -0.06907081 0.1385353 0.12487611 -0.010988662
-0.0017278921 -0.0969353 0.014201544 0.009563353 0.071795344 -0.14639688 -0.13060725 0.15476377
0.071439266 -0.059384387 0.091427214 0.02625383 -0.014730493 0.121218786 0.03737038 0.064612076
-0.033126146 -0.12749436 -0.18444291 0.04102701 0.060306136 0.0459381 -0.07967835 0.17123264
-0.17251405 0.07830076 -0.118338965 -0.13119827 0.12548266 0.060077924 0.203092 0.091938846
-0.075540744 -0.011888296 -0.12246761 -0.09747272 0.035641182 0.12824996 0.08942251 0.016378995
-0.1654712 0.005198475 -0.05219822 0.030347412 -0.099841185 0.050692484 0.010801292 0.07298451
-0.20828485 -0.026001524 0.0028390163 -0.08002572 0.1092244 -0.20648861 -0.09620833 -0.046949245
0.032759935 0.03783966 -0.1548934 -0.006295043 0.12667513 0.02723326 -0.076036714 0.12143488
-0.18711518 -0.09505782 -0.12402221 -0.10998288 -0.06758636 0.034370206 -0.16588359 0.029793853
00000000: aeec d3bd 5f28 b0bd df4f 8dbe fbb9 043e
00000010: de90 703d 1bbe 46be e9c8 a83d 55de 47be
00000020: 4d02 a73b 290d cb3c 9614 033e bd37 9abe
00000030: 3106 d3bd 435c 6bbe 7b7f 17be e205 363e
00000040: 1a54 e3bd df7a 4b3b de94 37be d533 753d
00000050: 2e9a 203e 1565 55be fdda 1cbe 9dd5 61be
00000060: d52f c63d 4a21 4abe 887d 18be f865 0a3e
00000070: 48d4 13be 1943 383d b545 93bd c7ed 70bd
00000080: 7fc8 54be 603d 9e3b 0b04 f0bd 4ff6 cb3c
00000090: c38c 823d 975d 89bd 3252 ea3d 3562 9b3d
000000a0: bd8d 86be 030a ae3d 9ef0 bb3d 5ab1 78be
000000b0: b93e aabe 9ed9 71bd e14a 32be 05b0 0c3e
000000c0: dabc bdbd 09e7 8abe 0c91 203d 64a1 a9be
000000d0: 819b 393d 79ce 46be 43ca 9cbd f690 103e
000000e0: 4840 9f3c 051e 793d 097a c4be d9ca 8fbe
000000f0: ca87 093e 47e5 063d fcbd f13d 55c1 3cbe
00000100: bf75 893c d1f4 4ebe 1bb9 133b 9fad 4fbe
00000110: ebc7 d8bd 92c5 c1bd 349c 02be 9f82 02bc
00000120: 5ac5 0ebe fdb0 94be 3bcb 0e3e 6497 053e
00000130: 01da c0bd 1334 1cbe c0eb 5ebe 91b2 26bd
00000140: ddad 4a3d 3550 7bbd 36e6 153e 3bf9 5d3d
00000150: 74cf 363e 773f 49be da18 23be 126c 62be
00000160: 8fd0 bbbd b632 ecbb 8020 f23d 1e29 413e
00000170: 64a8 f53d cf48 89bc 691c 383d 7246 f53d
00000180: ce82 db3d 679c d3bc 60f9 6abd 68f1 70bd
00000190: b4ec 8e3d 7dfb 503c 1df6 fb3d 6a99 063e
000001a0: eea8 6b3d e1f8 073e 70bf f9bd eb97 ddbd
000001b0: 4343 a43d 7b60 d23d 069a 2bbc 56b9 a53d
000001c0: b8b5 13be 94d0 98be 70f2 d0bd af77 8dbe
000001d0: 475d b7bd c83a 53be bff6 b53d 3a43 e7bd
000001e0: 0ac4 f0bd df9a 39be 6f2e cc3d 4e3b fc3d
000001f0: 4b97 333e c277 3fbd d611 863d 60e8 c1bc
00000200: b301 e7bd a053 01bd 5b41 843d a69b 3cbe
00000210: e781 1dbe 893b 083e 33ab c43d b0a0 cd3d
00000220: b403 4bbe 126b 84bd f424 84be 3aaf bc3d
00000230: 61d7 dc3d f384 c33d 4d9d 2f3d f638 e73d
00000240: 699e 35be 193b 10be f0c6 4a3d 0a62 d73d
00000250: def6 8dbd 9e1b 4e3e 744e b43d a22a bdbd
00000260: 38d3 423d 4561 ec3d 30fc 7cbe 33d5 bb3c
00000270: 4f34 a03d b5b6 6ebe c878 91bd 3e66 28be
00000280: 670a 05bd 37c1 29bd 23b2 c33d 9399 903d
00000290: f23d 0c3e 7c2c febd 9d08 75be e63f d93d
000002a0: b477 d7bd 2ae0 a7be 4bae ac3c fe4c 303d
000002b0: 7687 1c3d 9133 0b3e 1461 13bc 64c9 b53d
000002c0: 052a 23bd 8230 bfbc eb97 14be d5a8 3f3d
000002d0: ff74 8dbd 33dc 0d3e 0cbf ff3d ca09 34bc
000002e0: 707a e2ba 0486 c6bd 98ad 683c 9caf 1c3c
000002f0: 7009 933d 10e9 15be e8bd 05be 657a 1e3e
00000300: c04e 923d 0b3d 73bd 313e bb3d 4612 d73c
00000310: 2a58 71bc 8e41 f83d af11 193d 5653 843d
00000320: 48af 07bd e28d 02be 9ade 3cbe f00b 283d
00000330: 9103 773d 9729 3c3d 672e a3bd 9c57 2f3e
00000340: 86a7 30be 265c a03d b35b f2bd d758 06be
00000350: 877e 003e 4514 763d 59f7 4f3e 6f4a bc3d
00000360: 1bb5 9abd 21c7 42bc 4cd0 fabd c79f c7bd
00000370: 7dfc 113d f553 033e 2623 b73d 3e2d 863c
00000380: 4871 29be f857 aa3b cdcd 55bd 239b f83c
00000390: 8979 ccbd eca2 4f3d e7f7 303c e778 953d
000003a0: a048 55be 2601 d5bc ca0e 3a3b 86e4 a3bd
000003b0: 0bb1 df3d c071 53be df08 c5bd da4d 40bd
000003c0: 482f 063d c2fd 1a3d 609c 1ebe a646 cebb
000003d0: 20b7 013e 4918 df3c 23b9 9bbd dab2 f83d
000003e0: 1f9b 3fbe adad c2bd 5bff fdbd b43e e1bd
000003f0: b86a 8abd c6c7 0c3d 63dd 29be 3d12 f43c

fc2.bias f4 [5]
-0.06757447 -0.05507571 -0.059411798 -0.010193727 0.0950833
00000000: 7c64 8abd 1197 61bd c959 73bd 9703 27bc
00000010: 08bb c23d
