Trained_Weights/STRIDE 4/v4.3_5th.pth (torch, 671878 bytes, 10 tensors)

conv1.weight f4 [32, 1, 3, 3]
00000000: 78fe fe3d 290d e5bc d200 8fbe 7109 10be
00000010: 5551 7e3d 0ad6 27bc 50bd 0dbe f71d 7f3d
00000020: 1827 5e3e 905b e3bd 7733 14bd 2f33 2c3e
00000030: da53 8c3d 49bc 31be 70e8 6b3e 58cd 6b3e
00000040: 18d5 15be 0a95 45be 5bb4 63be 3ef2 f7bd
00000050: 6297 0f3e 978c 8a3e 7552 873e 7e61 253e
00000060: c781 d9bd 6391 703e f730 3d3d bb41 533e
00000070: da6f 32be c740 60be 0e7e 933e e15b 05be
00000080: 0d2a 943e 6a22 5ebe 4a47 21be 2fdf 2b3e
00000090: e1a0 55be 4140 6cbd e85a 7dbc 0f1d 45be
000000a0: ca2a 813e 12ef 033e dd89 d33d 58b5 723e
000000b0: 59de 4cbe f556 01be d5f1 c33d 45e6 e6bd
000000c0: 2c80 633e 332a 82be 4e9c 2b3e 1a59 3f3e
000000d0: bf90 243e 1e7a 773e cc90 513e b537 ccbd
000000e0: 64f1 85be 904c c13d b578 8cbe 6f76 793e
000000f0: 9e73 6d3e 0b76 613e cb66 02be 3c73 94be
00000100: 2ddb 33bd a033 af3e 7380 0f3d 9f76 3b3e
00000110: b9b8 05be f95c 7abb 80d5 d1bc 4b8c 643e
00000120: cd09 80be 765f 8bbe a2de 4bbd 2997 8bbe
00000130: be52 8abe 1773 333e c70c a03e 3dbc ec3d
00000140: 7c1a 093e e9ea 11bc 5452 1d3e fb03 87be
00000150: 7b45 103d 5d9d 9a3c 586f ac3d 60b7 973e
00000160: 1051 7e3e 2ed4 69be d9e5 54be 049e 523e
00000170: f8b8 8fbe 242f 843d dd62 82bd 6160 903e
00000180: 5e69 9cbe 223c aabe 56bd 533e e2bf 5cbd
00000190: cf00 c03e d2d6 42be 144d 893e df02 8cbe
000001a0: 0d65 03be df4a f13d abec 443e 6e15 823c
000001b0: c3de dd3d 8b3e 673e e918 903d 6a67 623c
000001c0: cd87 a0be 89f8 aabe bcac 433e e27c ad3d
000001d0: fe65 4d3d 8b3f f83b 44f4 5f3e d0e2 af3d
000001e0: 63d2 a4be efe3 5b3e 49d0 6a3d bd2d 4dbe
000001f0: c011 96bd 30eb 18be 6899 ba3a 525c 543c
00000200: 2d9f 763e 8e95 75bd 5ef2 2abe 89dc 5ebe
00000210: cb3f 62be 1dc7 73be 08ba 39bb ce6e 3cbe
00000220: ea21 ef3c 0fff 163e 10c1 39be 44f7 3e3e
00000230: f737 dbbd ce6b 103d 5b66 10be 130b 07be
00000240: 414a 4fbe f8af 3e3e 4f56 193e 4baa 2ebe
00000250: ee3f 1abe eb36 8bbd 19b9 0cbd 6a72 c43e
00000260: 52e8 96bd e3c5 69be 2bea cf3d 832d 223e
00000270: 2cb8 0b3e 0608 413e 7219 373e 3234 c3bd
00000280: 8c46 973e 8c73 f63d fda9 4cbe b9c1 973e
00000290: a9b7 6cbe d59e 8b3e 0c49 7b3e e86c cc3d
000002a0: 4b48 353c 3be1 8ebd 9385 553e b812 053e
000002b0: 7e0d 6abd 98dd 5bbd 8b31 633c 986d 2f3e
000002c0: a366 b6bd 5e68 93be 8168 89be dedb 2bbe
000002d0: ae39 a8be 0ebd 3fbe 5389 9e3e 9f03 e53d
000002e0: df00 dd3d f536 26be 46f6 1d3e 26d9 cf3d
000002f0: 213c 253e 72ac 8a3e 7ddd 6d3e d4f8 7abe
00000300: f319 79bd db52 593d dfc1 b7be 34f4 d8bd
00000310: a8b2 813d 423b 4b3e f003 263e 8de9 98be
00000320: 5307 123e 8a1b 59bb 6393 b1bd 19cf 0b3e
00000330: 7682 73be 27e2 8ebd 4d20 89be 39da 21be
00000340: a629 59be 66e3 9a3e 340c 2ebe 97fd 5a3e
00000350: a707 5cbe 1364 51be af53 98bd b5b3 203d
00000360: bca6 9c3e 8ac9 8c3e 3731 613e a199 743e
00000370: b481 67bd 8e73 dbbd 6c2f 013e 363a b73d
00000380: fa57 8a3e 4bb7 863e c75c 9c3e 213c d23d
00000390: 4f55 37be a72e cc3d c4c5 39be c18f 783d
000003a0: 2f1d 923e ca09 263e acb1 91be 8bc7 533e
000003b0: 70c6 81be facc 893d 52c9 3bbe a858 0dbe
000003c0: 6e13 64be b95c 173e 06c3 97be 5ca9 583d
000003d0: 0639 883e e980 233e e1de 49be df21 993e
000003e0: 850f a13e a568 11bc 3028 5fbe 3b5e 46be
000003f0: 72c5 143d 537a 3fbe 7fac 253e 7f67 553e
0.1245088 -0.027960377 -0.27930313 -0.14066102 0.062089283 -0.010243902 -0.13841748 0.062284436
0.216946 -0.111014485 -0.036181893 0.168164 0.06851931 -0.17356981 0.23037887 0.23027551
-0.1463207 -0.19295135 -0.22236769 -0.12106751 0.14022592 0.27060387 0.26430097 0.16150472
-0.10620456 0.2349296 0.046189275 0.20630543 -0.1742548 -0.2189971 0.2880711 -0.1302333
0.28938332 -0.21692815 -0.15749851 0.16784357 -0.20862152 -0.057678465 -0.015463568 -0.19249366
0.25227958 0.12884167 0.1032903 0.2370199 -0.20006694 -0.12630828 0.0956761 -0.11274389
0.22216862 -0.2542282 0.16758844 0.18686333 0.16070841 0.24167678 0.20465392 -0.09971563
-0.2616073 0.09438431 -0.27435842 0.24361585 0.23188636 0.22017686 -0.12734525 -0.28994167
-0.043910194 0.34219074 0.035034608 0.18306969 -0.13058747 -0.0038202389 -0.0256145 0.22319143
-0.25007477 -0.27221268 -0.049772866 -0.27263764 -0.27016252 0.17524372 0.31259748 0.11559341
0.13389009 -0.008906105 0.15363437 -0.26370224 0.03522251 0.018873865 0.08419675 0.29632092
0.2483561 -0.22834846 -0.20790805 0.2056809 -0.28070807 0.06454304 -0.06366513 0.2819853
-0.3054914 -0.33249003 0.20677695 -0.05389393 0.37500617 -0.1902726 0.26816618 -0.2734594
-0.12831517 0.11781859 0.19230907 0.01587936 0.10833504 0.22582452 0.07036001 0.013818601
-0.31353608 -0.33392742 0.19108862 0.08471085 0.050146095 0.0075759343 0.21870524 0.08588183
-0.32191762 0.21473669 0.057327542 -0.20036979 -0.07327604 -0.14933467 0.0014236392 0.012961464
0.24084158 -0.05995708 -0.16694018 -0.21763815 -0.22094648 -0.23806424 -0.0028339643 -0.18401644
0.029190976 0.14745735 -0.18140054 0.18649012 -0.10704034 0.03525906 -0.14101546 -0.13187818
-0.2024317 0.18621814 0.1497433 -0.17057149 -0.1506345 -0.06797584 -0.03435621 0.3836854
-0.0736853 -0.22829394 0.10152086 0.15837674 0.13644475 0.18850717 0.178808 -0.0953144
0.2954601 0.120337576 -0.1998672 0.29639986 -0.23116936 0.27269617 0.24539584 0.0998171
0.011064599 -0.06976553 0.20851736 0.12995422 -0.057141773 -0.053678125 0.013866792 0.1713165
-0.08906295 -0.28790563 -0.26837543 -0.16783091 -0.32856506 -0.18724462 0.30964145 0.11182331
0.10791182 -0.16231902 0.15425977 0.1014884 0.16136219 0.2708469 0.23229022 -0.24508983
-0.060815763 0.053057533 -0.358901 -0.10593453 0.06332904 0.19846824 0.1621244 -0.29865685
0.14260606 -0.0033127987 -0.0867069 0.1365322 -0.23780236 -0.06976729 -0.26782456 -0.15805902
-0.21207294 0.30251616 -0.16996843 0.213858 -0.21487294 -0.20448332 -0.074378364 0.039233882
0.30595958 0.27497512 0.2199143 0.2388673 -0.05652018 -0.107154 0.12615746 0.0894665
0.27020246 0.26311716 0.30539533 0.10265375 -0.17903636 0.09969836 -0.18141848 0.06068397
0.2853789 0.16214672 -0.28455865 0.20681588 -0.25346708 0.06728549 -0.18338516 -0.13803351
-0.22273037 0.14781465 -0.2964098 0.05289589 0.26606005 0.15967144 -0.19713928 0.29908654
0.31457153 -0.008875047 -0.21792674 -0.19371884 0.03632111 -0.18699007 0.16179083 0.20840262

conv1.bias f4 [32]
00000000: 5dad b83d 077f d5bd ea4f b0bd 100a 26bc
00000010: 72bc 23be 694f 84be 5c01 e1bc 7696 0cbe
00000020: 938e 94be dff9 0ebe 6d49 523e bb34 47be
00000030: cb3b b93c e420 713d df39 8b3e f408 9abe
00000040: cdc6 95bc fab1 81be 670b a1be 89e3 553e
00000050: 467f 4abd 0fa7 993a 81f0 813e 2de9 273e
00000060: 167b b8be 9a0b b5be 0dc6 ac3e 9d64 32be
00000070: f26e acbe 79c5 033e ad8d 78be ca99 143e
0.090174414 -0.10424619 -0.086089924 -0.010134235 -0.15989855 -0.25841835 -0.027466469 -0.13729271
-0.29015025 -0.13962506 0.20535822 -0.19453709 0.02261152 0.058869258 0.2719259 -0.30084956
-0.018283272 -0.25331098 -0.31454012 0.20887579 -0.049437784 0.0011722761 0.25378802 0.16397543
-0.36031407 -0.35360414 0.3374485 -0.17421193 -0.33678395 0.12868299 -0.24272795 0.14511791

conv2.weight f4 [32, 32, 3, 3]
00000000: a5b2 79bc bec3 2e3d 0af4 c83c baf7 153d
00000010: 5349 583d f066 b6bc 84a7 4f3d c691 74bd
00000020: 8944 3a3c 7328 6c3d 43a9 613c aaf3 3cbc
00000030: 5152 40bc f66a 263d 9780 62bd 5388 b13c
00000040: e1f7 4bbd 8d8c 77bd 11b6 d1bc 0230 f3bc
00000050: 5f57 f33c f7ea 3abd ea93 7e3d d421 5b3d
00000060: c549 833c c1cc ab3c 9d8c 6d3d 3308 85bd
00000070: 3b6b 343d 4c28 fd3c 6723 143c 3b7f 33bc
00000080: 49c2 453d 0d78 01bd ba90 2a3d 01cd b63b
00000090: 762a 853c e7b3 92bc 23b9 413b 5392 713d
000000a0: b07e 933a 7437 3abd e414 9bba 84c2 473d
000000b0: f4bd 1cbd dc62 913d e407 423e 8e4b 103e
000000c0: 367b f43a e922 183e 3dc2 803e 096f a73c
000000d0: 30f4 ed3d 110f 133e 246f 363b 4585 04bd
000000e0: a711 3cbd 7a5e 89bd 3e64 1f3c c968 27bd
000000f0: 64b4 1ebc fd47 c73c 3e37 3f3d 224c cc3d
00000100: c619 ca3d 4c21 663d 2f8e da3d 92f5 563d
00000110: 479a f43c d2da d93d d9e1 733d 890b f83d
00000120: 49da 1bbc 0eec eb3c 5ee1 2d3d 726d 21bd
00000130: 69a4 37bd 7e6b 2b3c 473d 003d e2ec 383d
00000140: ee2d 20bd 3607 c3bd 6c7b 47bc e9de 323e
00000150: adab aabd a73f bb3d 2052 2c3e 1e8d 11be
00000160: 61e1 9d3c e1df a73d 60a9 523d d0f0 b1bd
00000170: d551 74bd d6db 953d 367f a43c 801d f0bd
00000180: 61af 3c3d b12b 91bd 5ed2 3dbd 1dba 75bd
00000190: 4912 ec3c 776b 6c3d 45c4 3abd f6b3 063d
000001a0: 5e8e b8bc cdda de3c d076 3fbd 0cc5 253d
000001b0: ada8 913c 1fc3 443d de23 ecbc 92ec aabc
000001c0: dee1 fbba 5e99 3fbc 3967 e83b e4c2 babc
000001d0: 57f1 693d fdae 8e3d 72ab 8d3b 2a3d 763c
000001e0: ff97 9a3d 0a4f 0cbd c4a4 8abd 969f fe3d
000001f0: 54b4 b73c d26f 533c 40e6 9cbc ad76 6fbd
00000200: 55eb 4bbe 19ae f13c 5e0f eabd cd88 10be
00000210: 0715 afbc 5a5b a7bd 1a08 80bd d511 96bb
00000220: adac 303c 8209 1e3d 2d80 01bc 2f4f dcbc
00000230: e274 19bd b80b 2e3d f515 3dbd d875 ecbc
00000240: 6648 693d b274 803d 6aaa 0fbd e5a4 d6bc
00000250: f601 9dbc 0617 79bc b8a3 1fbd a15b 223d
00000260: 0e54 2c3d 7283 0fbc 6f69 8c3c 7a30 b23d
00000270: 4ce3 b33c d27d 0d3d 6cbe 56bc 385c 553c
00000280: 2150 493c f8c5 2c3d f9dd 423d 4e84 e33c
00000290: 39ee 513d aa8b 9d3d c345 983d 0b5e a53d
000002a0: 002f 17bc 1326 693d f9ad df3d 0090 9fbb
000002b0: 815b 2d3c 0536 75bd aa95 62bd b62c 193c
000002c0: 1b97 b2bd f4f6 4d3d cfe4 2fbd 20bf 943c
000002d0: eb31 fd3c 4317 b13c 8372 db3c c53b 243d
000002e0: c28a f6bc a8df 293d 7ef2 43bd a3f7 4fbd
000002f0: a424 0a3d 4d23 04bc 8dc8 9b3c 24c9 f4bc
00000300: afda adbc bdbb d1bc 2fef b9bb a333 1bbd
00000310: ab08 c7bb 73c0 713d e088 5abd 421e 49bd
00000320: 31e6 f8bd 1676 c8bb 1e94 d7bc abd5 2dbe
00000330: c6f6 5d3d 9729 d4bd 463c 48bd c284 833b
00000340: 7b4b a53b fc1c 3fbd 55df 953c b6c1 253d
00000350: 7cce 013d 5151 153d 17c8 11bd 9517 a23c
00000360: 5758 f3bb cbd3 843c 2059 7b3d 28cb 63bd
00000370: daa2 9d3d f49a d7bc 62e7 1ebd 2f42 e93c
00000380: 3a8e a43d d1d7 613d f969 4a3c 97b4 bc3d
00000390: 290e fe3b e222 493d 2d1c a23d 7ccd 6d3a
000003a0: 056b c53d 1217 a53d 9c4f 4f3b 2682 edba
000003b0: 118c e8bc ea98 b8bc 31b4 47bd 53cd 35bd
000003c0: 3fbb 2bbc ea4e 43bd c0cb dfbd b8a4 5c3d
000003d0: 1c7f ab3d 296a 453d 5995 a43d 8fea d33d
000003e0: fa7a 153c 55b6 58bc 51de 873d f5f7 ae3c
000003f0: f57f c03d 98a9 ea3d e8b4 d43d d0e7 adbb
-0.015240346 0.042667143 0.02453043 0.036613204 0.052804302 -0.022265881 0.050696865 -0.059709333
0.011368879 0.057655763 0.013773265 -0.011532703 -0.011738376 0.04062935 -0.055298414 0.02167145
-0.049796943 -0.060436774 -0.025599511 -0.029685978 0.029704748 -0.045634236 0.06215278 0.053499058
0.016026387 0.020971658 0.057995427 -0.064957045 0.044047575 0.030903004 0.009041644 -0.010955627
0.048280988 -0.03160863 0.04164193 0.0055786376 0.016255599 -0.01790805 0.0029559813 0.058977436
0.0011252966 -0.04546304 -0.0011831787 0.04876949 -0.03826709 0.07098934 0.18948323 0.14091322
0.0018652442 0.14857067 0.25148192 0.020438688 0.11618841 0.14361216 0.002783724 -0.03235366
-0.045915272 -0.06707473 0.009728489 -0.040871415 -0.009686563 0.024326319 0.046683542 0.09975459
0.09868197 0.056184098 0.106716506 0.052480288 0.029858721 0.1063744 0.059541557 0.12111575
-0.009512492 0.028799083 0.042451255 -0.039411016 -0.044834528 0.01046264 0.03130844 0.045147784
-0.039106302 -0.0952286 -0.012175422 0.17467846 -0.08333526 0.09143 0.16828203 -0.14213988
0.019272508 0.081969984 0.05143106 -0.086885095 -0.059648354 0.07317321 0.02008019 -0.11724377
0.04606569 -0.070884116 -0.0463432 -0.059991945 0.028817313 0.057719674 -0.045597333 0.032886468
-0.022528823 0.027203942 -0.046744168 0.04047112 0.017780626 0.048037644 -0.028825697 -0.020864759
-0.0019217094 -0.01169428 0.007092383 -0.02279801 0.057114925 0.0696697 0.0043234164 0.015029231
0.07548522 -0.034255065 -0.06769708 0.12432782 0.022424854 0.012905078 -0.01915276 -0.058462787
-0.19913991 0.029501962 -0.11428712 -0.14114685 -0.021372331 -0.08171721 -0.06251545 -0.0045797625
0.010783357 0.038583286 -0.007904095 -0.026893226 -0.037464984 0.042491645 -0.046163518 -0.028864786
0.05695381 0.06272258 -0.03507463 -0.026201675 -0.019165974 -0.015203243 -0.038974494 0.039638165
0.04207235 -0.008759366 0.017140118 0.087006524 0.02195897 0.03454382 -0.013106924 0.013022475
0.012287171 0.042180985 0.04757497 0.027773049 0.051252577 0.076926544 0.07435181 0.08074578
-0.009227514 0.056921076 0.109218545 -0.004869461 0.010580898 -0.05986597 -0.055318512 0.009349039
-0.08720227 0.05028434 -0.04294282 0.018157542 0.030907592 0.021617537 0.026788002 0.040096063
-0.030095462 0.04147306 -0.04783868 -0.050773274 0.03372635 -0.008065057 0.019016529 -0.029881068
-0.02122244 -0.025602216 -0.005674265 -0.03789104 -0.0060740313 0.059021425 -0.05335319 -0.04910112
-0.121532805 -0.0061175926 -0.026315745 -0.16976039 0.05419042 -0.10359495 -0.048885606 0.0040136287
0.0050443984 -0.0466585 0.01829497 0.04046794 0.03169106 0.036454502 -0.03559121 0.019786635
-0.0074263024 0.016214272 0.061364293 -0.055613667 0.07697077 -0.026319005 -0.038794883 0.028473942
0.0803494 0.05513746 0.012354367 0.09214132 0.007753153 0.049105532 0.0791553 0.0009071452
0.09639553 0.08061041 0.0031633144 -0.0018120452 -0.028387101 -0.022533853 -0.04875583 -0.044385266
-0.010481655 -0.04768268 -0.10927534 0.053868026 0.083738536 0.048196945 0.08036298 0.10347473
0.009123558 -0.013227065 0.066342 0.02135847 0.09399406 0.11458129 0.10386068 -0.005307175

conv2.bias f4 [32]
00000000: 6a7c 6fbc 4221 133c 5f3d 163d fb0e 7e3c
00000010: c737 10bd b105 8d3d 740d db3c ed55 4d3d
00000020: c008 2f3d 1b11 88bc a08f a1bc 6117 623c
00000030: f458 173d 17b9 5d3d 3378 24bd 8c62 0bbd
00000040: a45a 9bbc 97ea 053d 6587 1cbc 824e 743d
00000050: 94bc ab3c 7b22 35bd 9267 543d 8483 81bd
00000060: de50 d7bc f7a2 993a d342 3b3d 6402 913c
00000070: 967e 2bbd 1c6b 143d 0de0 d3bc bd11 6fbc
-0.014617065 0.008980097 0.03667962 0.015506501 -0.035209443 0.06885851 0.026739813 0.050130773
0.042732954 -0.016609719 -0.019721806 0.013799519 0.036950067 0.054131594 -0.040153693 -0.03402953
-0.01896412 0.032694425 -0.009553765 0.059645183 0.020963944 -0.044222336 0.051856585 -0.06323913
-0.026283678 0.0011721541 0.045718025 0.017701335 -0.04186877 0.03623496 -0.025863672 -0.0145916315

conv3.weight f4 [32, 32, 3, 3]
00000000: d058 ed3d 7c83 4f3b 70ed 00bd 6ea9 b4bc
00000010: ed3d 18bd a82c 183d 1965 7cbd 7f56 c8bd
00000020: 1e88 ba3d 5ef3 ba3d 3f63 ac3c abaf 153c
00000030: 9e3a 8ebc fd52 6fbc 9773 e5bc 7cbe e8bb
00000040: 062e ccbd d500 cbbc 4a45 a9bd e217 01be
00000050: d23c 033b 9e1b 8fbd 6b3d 4b3c dcfe 7a3d
00000060: 4190 7d3d 3ee6 d03d 44f3 3cbd 97aa 863d
00000070: 46ad 6e3b 11d3 15bd 2992 a33c 5056 20bd
00000080: acf1 11bc 4d46 673d 87a3 a7bd 0afa c03d
00000090: 4c6e c63c e28e f53d 4cfa 1d3d 7627 20bd
000000a0: 9236 c9bd 9347 babc 0172 52bd 8d50 9abd
000000b0: c96b a23d 8f9a 11bd 0bf6 00be 2aa3 10bd
000000c0: 3dce 303d 403c 573d b36c 8a3d cf8d d93d
000000d0: 41e1 0e3e fd42 83bd 802e 1bbd a25f d9bc
000000e0: 4d04 a5bd 88e4 ccbc 04d8 b73d 7804 c6bc
000000f0: 242a e33c 4249 c93d 2d73 b4bd 5c54 c4bd
00000100: 0acc eebd 934e 503c 4abe 793d e355 f03d
00000110: 60f9 403d a83a b43d ad66 e33d 852f b7bd
00000120: dd67 4b3d e682 013e e14b 5d3b b0ec 60bd
00000130: 1833 e6bd 63b1 fb3c 0d5b 92bd bde1 99bc
00000140: 4c0a 903d 6ff1 9f3d 7f29 c83d f540 913d
00000150: f392 4d3d cf98 a9bd dbec bb3c 2abc 033c
00000160: 376f 70bd 7e96 3f3d d864 59bd 5799 79bd
00000170: 4fad adba e57d 1c3d 9cb1 793d 4a71 923d
00000180: 4763 6f39 d2af 603d 4269 d6bd a584 92bd
00000190: 6561 e3bd 401b f13c e75d 763d 2d9b 383d
000001a0: 7082 1c3d bfb9 4f3d 40fd b53d 28dc 903b
000001b0: 4f3a ee3d cb52 3fbd 3a0d 023d a21f 43bc
000001c0: 0d5a f9bd b514 26bc bbc1 383c 2d7d d93c
000001d0: b620 8b3d 2b4d 8cbd d708 dabd 9023 fd3c
000001e0: 9a02 86bd b15e 3c3d 88db bb3c 34e1 6a3c
000001f0: c8dc 563d b8fd 50bd 2e03 7c3d ff30 553d
00000200: 5c5e 123d 61f2 c3bd e38f debd 6e72 16bd
00000210: 8624 81bd 6601 8fbd 5ae7 d43d 0a12 fe3d
00000220: 2285 d23d 599a 373d 55a5 77bd 5828 06bc
00000230: e134 0b3b e2a7 debc bcd6 93bc 80ad 483d
00000240: c549 99bd 5344 01be be72 34bc 694e 8d3d
00000250: bd21 bf3d 3c08 73b9 6fcd b33d 8d58 ce3d
00000260: 1f5e 85bd 087f c33d e564 923d 72a5 2dbc
00000270: 73b3 0dbd 85c0 86bb 992c 96bd 82f9 71bd
00000280: fb9a 62bd f4f7 f93c 0322 e0bd 41b6 fdbd
00000290: 7165 f8bc 1793 e03b ba47 093e 1900 773d
000002a0: 2da9 a63d 6fb4 a93d fa2f 8ebd ac52 9fbb
000002b0: cf16 d9bd f058 98bd f03f eabc b842 563d
000002c0: 84bf 933d 29a2 a93d 20c6 ca3d 18b6 8ebc
000002d0: 7290 87bc f5f8 cebd aefa b8b8 9428 a23b
000002e0: fe96 8e3b 9d5f ba3c b6f2 0d3d a306 613d
000002f0: 0cea 8ebc 7546 a9bc 915f 80ba a900 613b
00000300: 7226 9dbd 9f36 07be 176d d63c 8b85 653d
00000310: 64d8 12bd 0383 873d 26d0 9fbd 86c1 6ebd
00000320: 1cd2 503c 0012 13bd 6116 ec3d 3ae3 813d
00000330: 34ab 2e3d e56c 0b3e 0d2f 57bd 1ac0 283d
00000340: 7609 bf3d a159 293b bcff 79bc 1e1d b3bd
00000350: b647 8dbd b44b 1bbc c0d6 8cbc 5640 853d
00000360: cc0c 483d e7a1 083c ca3a 0fbd 7ce1 61bc
00000370: 08c5 0bbd 78c0 9fbd 964d 83bb fac6 813c
00000380: 784a 1c3d 1fce ecbd 1a8b 2cbd 062e d5bd
00000390: fa55 b83b 10ba 0039 0e8b c8bc ced6 6a3c
000003a0: 702b 733d 0bfd c4bd 69dc e03d f7c3 053e
000003b0: fc25 5abc 85e1 d73a 2550 e4bd 533d ad3c
000003c0: 323d 12bd 392b 50bd 7ba9 923d 9c28 103e
000003d0: 79d7 0d3e aa38 d83d 5c7c f5bc 66b5 92bd
000003e0: 5411 323c 9fe8 82bd 8090 72bd 2ad7 043d
000003f0: 2a5e 47bd 9c54 5ebd 69e5 1a3d 7eda 2d3d
0.11589205 0.0031664064 -0.031476438 -0.022053447 -0.037168432 0.037151963 -0.06161985 -0.09782123
0.091079935 0.0912845 0.021043418 0.009136121 -0.017361935 -0.014607188 -0.02800922 -0.0071027856
-0.09969716 -0.02478067 -0.08265169 -0.12606767 0.0020025265 -0.069876894 0.01240478 0.06127821
0.06190515 0.10200165 -0.046130434 0.06575506 0.0036419197 -0.03657824 0.019967156 -0.039144814
-0.008907717 0.05646353 -0.08185487 0.09422691 0.024222516 0.11990143 0.03856878 -0.039100133
-0.098248616 -0.022739207 -0.051378254 -0.07534895 0.07930715 -0.03554779 -0.12593858 -0.035311855
0.043165434 0.052547693 0.06759014 0.10622751 0.13953115 -0.064092614 -0.037886143 -0.02653486
-0.08057461 -0.025011316 0.089767486 -0.024172053 0.027730055 0.09828426 -0.088110305 -0.09586403
-0.11660011 0.012714046 0.06097249 0.117351316 0.047112823 0.0880025 0.11103568 -0.089446105
0.0496596 0.1264759 0.0033767151 -0.054913223 -0.11240214 0.030724233 -0.07146273 -0.018784398
0.07033214 0.07809722 0.0977354 0.07092468 0.05018897 -0.08281099 0.02294009 0.008040467
-0.058699813 0.04677438 -0.053074688 -0.060937252 -0.0013250503 0.038206 0.060960397 0.071505144
0.000228298 0.054855175 -0.10469295 -0.07154206 -0.11102561 0.02943194 0.060148146 0.045069862
0.038210332 0.05071425 0.08886194 0.004420776 0.11632215 -0.046709817 0.031750895 -0.011909397
-0.12175379 -0.010136773 0.011276658 0.026548946 0.067933485 -0.06850656 -0.10646217 0.030900747
-0.06543465 0.045988742 0.02293183 0.014335919 0.052456647 -0.051023215 0.06152647 0.05204868
0.03573452 -0.095677145 -0.10867288 -0.036730222 -0.063057944 -0.069826886 0.10395689 0.124057844
0.10279299 0.04482493 -0.060460407 -0.00818833 0.0021241235 -0.027179662 -0.01804673 0.048993587
-0.074847735 -0.1262372 -0.011013685 0.06899721 0.09332607 -0.00023177353 0.08779418 0.100754835
-0.06512093 0.09545714 0.0714815 -0.010598527 -0.034594964 -0.0041123056 -0.07332725 -0.05907584
-0.055323582 0.030513741 -0.10943987 -0.12388278 -0.030321809 0.006853472 0.13406268 0.060302828
0.081377365 0.08286368 -0.069427446 -0.00486215 -0.106000535 -0.074388385 -0.02859494 0.05230972
0.07214263 0.08282883 0.099010706 -0.017420813 -0.01654837 -0.101060785 -8.8204964e-05 0.004948685
0.0043514958 0.02275067 0.034655295 0.05493797 -0.017445587 -0.02066348 -0.0009794106 0.003433267
-0.076733485 -0.1320443 0.026175065 0.05603556 -0.035850897 0.066167854 -0.07803373 -0.058290027
0.0127454065 -0.035905838 0.11527706 0.06342168 0.04264374 0.13615759 -0.052535105 0.041198827
0.093279764 0.0025840777 -0.015258726 -0.08745788 -0.068984434 -0.009478498 -0.017192245 0.06506412
0.04884033 0.008339382 -0.034968175 -0.01378667 -0.03412345 -0.078003824 -0.0040070517 0.01584195
0.038156956 -0.11562752 -0.042124845 -0.10409169 0.0056254836 0.00012276345 -0.024480369 0.01433344
0.059367597 -0.096185766 0.1097954 0.13063036 -0.01331472 0.0016470408 -0.11148099 0.021147406
-0.03570289 -0.05082247 0.07161232 0.14077991 0.13851728 0.10557683 -0.029966526 -0.07163505
0.010868389 -0.06392025 -0.059219837 0.03243176 -0.048673786 -0.05427991 0.03781644 0.0424447

conv3.bias f4 [32]
00000000: a921 f0bc 11de 2dbd 459f 8c3d 108d 07bc
00000010: ed3f d03c 2f99 b93b 37a0 8c3c fd61 2abd
00000020: b86a 493c d23a 3c3d 694d c4bc 13a5 a23c
00000030: f450 063d 49f0 85bc d2ad 2e3d 1610 693d
00000040: 9dec 903c 32c4 2b3d eed4 94bd 49b2 4b3d
00000050: 0b06 6dbd 627c 6c3c 991d 29bd d0ec 3cbd
00000060: 2507 2abd 7a4a ccbb 7d72 5f3d d9d6 b53d
00000070: 07bf 07bc 4ece 23bc 3670 87bc 7d43 7f3c
-0.029312925 -0.042448107 0.06866316 -0.008273378 0.025421107 0.005664013 0.01716624 -0.041597355
0.01229351 0.045954533 -0.023962693 0.019854104 0.032792047 -0.016349928 0.042646237 0.056900106
0.017690951 0.041935153 -0.072671756 0.049730573 -0.05786709 0.014433952 -0.041287992 -0.04612428
-0.04151072 -0.0062344642 0.054552544 0.088788696 -0.008285291 -0.009997917 -0.016532999 0.015580055

fc1.weight f4 [128, 1152]
00000000: e709 52bd 9127 57bc dc77 5c3d bfed 533d
00000010: d1b6 a13d 8007 bbbd d9b0 8b3c 8d8e 323d
00000020: 2298 913c b61d c6bd 90a4 a2bd 89a2 963d
00000030: 2aab b83c 3ad5 8d3c 86d8 ab3d fb6b 39bd
00000040: b1d8 233d e51c b53d 984c 633b 54e2 793d
00000050: ebea 8a3c db76 a8bd d724 81bc f957 10bd
00000060: 179f 72bb cccc 3dbd a16a f4bc a80d 8c3b
00000070: 46a1 133a a593 dc3c e996 413d 84bb 29bd
00000080: 9e87 a2bc 86a9 1d3d a023 f03d 35fe 2ebb
00000090: 2f42 0dbc eff1 ab3c 8924 8ebc b87b 3f3c
000000a0: 3da6 3a3c 3f87 223d 9df8 5abb a289 753c
000000b0: cb5d 3dbd 5c73 66bc 9813 503d e8de c53c
000000c0: 55bf b0bc 22d3 04bc 220c 50bd b51b 963d
000000d0: 136b 8e3d 17be 1abd 09bf 84bd 0732 2f3c
000000e0: da0b 8cbd 90a8 b83b 908b 71bd c565 24bd
000000f0: 522b f53b ca40 2cbd 19ca 8e3b 7416 5d3d
00000100: 9c79 93bc 3812 24bd a80d 81bd ce0e 84bd
00000110: cf3c fcbb 64e0 1a3c f6c1 77bd fd0c 33bc
00000120: 584e 74bd 42f8 2bbc 56ca c1bc 08ef 773c
00000130: a00b 8f3d 62f0 3dbc 914d 85bc 2286 2cbc
00000140: 2ea0 053c 136b ae3d bdb7 c8bc 062d cbbd
00000150: 15c3 1b3d 282b 21bd da1e 133d 6a85 70bd
00000160: d3ba 9cbd 8f2d 203d 5f66 c73b 474e abbc
00000170: ee1b 7c3d f991 9cbd e961 9a3c 4729 823c
00000180: 42fb 48bd 2953 493d 9254 95bc 0192 74bd
00000190: 74e3 2ebd 1291 f1bb d470 913c 0ebf bb3c
000001a0: 6892 673c 3662 b6bd 54ab 3abc 5e00 70bc
000001b0: 5349 febb 0472 043d ea27 cabc be0c cdbc
000001c0: 262b 7fbd 97d5 d5bd 3307 1a3b edf6 dc3b
000001d0: 194f 443d 7b3b c3bc 1ddf 353d 7085 89bb
000001e0: 0abb 033d 31cd 293d abba acbc b678 9cbd
000001f0: 9a59 7c3d c94d 593d ab08 eb3c 1a25 743d
00000200: 4186 863c 965f 573b 1894 be3c 9641 353d
00000210: 9b71 f53c a5f4 49bd 270b 2abd 967b 41bd
00000220: 49ea 62bc d211 6bbc b6c1 ba3c ce5e 99bd
00000230: 63e4 703b 7c35 e03c e7cd 9c3d ec8d 22bd
00000240: 328e 5dbd 5643 18bc 346d 9a3d 1afc 813d
00000250: 561d da3c 3212 0dbd 60f6 3f3d f6ce 0ebc
00000260: 06b3 e1bc 3d30 1dbe 0404 38bd cdb9 083e
00000270: 0b3c 1f3d fdcf 273d 737f 893b 9586 573d
00000280: 2a4e 2a3e 4b8b 723d 64e3 153d a685 72bb
00000290: 0689 9fbd fa70 4bbc fa34 583c f66c 843c
000002a0: 758b 843d a8f8 5abd 68dc 403d eabe c13c
000002b0: 8ec0 3c3d ff05 ca3c 0b8d c2bc 3b2c 9abc
000002c0: 85f3 003d 20ce 013e 13f6 da3d 39a4 573c
000002d0: b925 dbbc 5ce1 013d ca49 3b3d 3e74 bbbc
000002e0: 0531 2fbd 5ba9 84bd 1436 b23b eb76 5fbb
000002f0: ebcf 853d 405e 35bd c7d2 b03b 7f3e 543d
00000300: 66f8 ee3c 3a80 1a3d a58e 973c 8661 f9bc
00000310: 37c4 303d 5a83 263d 4782 d73c a551 b93c
00000320: 8699 633c 050e 9bbc fcf6 f5bb 1ca8 223d
00000330: 77e6 383d 9c8f 3bbd 01f7 8cbc ec3a 2dbd
00000340: f7d7 453c 9502 d8bb 82ce 033d 8111 67bd
00000350: 49f1 a03b 9ec5 d73b 3eab 863d 742f 98bc
00000360: b43e 70bd 67a9 6bbc b7e9 b43b 7cb1 183c
00000370: 426f 663d 71f6 8f3d 330f 41bc 9a8e 943c
00000380: 9142 84bb a462 7b3d 76e1 053d 28ed 4abd
00000390: ecbb 043d ec8e b6bd 64a8 903d 370d e93c
000003a0: ff31 ebbc d40a 20bd d8ba 343d 3076 35bd
000003b0: 3c50 713d 8570 1bbd 1888 3f3c 75ff e8bc
000003c0: e663 efbc bd69 903d b142 a3bd 5a91 d4bb
000003d0: 6898 12bd 7e34 f9bb de1e 79bc 5b6d f33c
000003e0: 3cfc fcbc a5f9 89bd 856c 7ebd 6b6e 13bc
000003f0: 1df0 243d 0394 37bc 7add 7fbd fa59 5f3b
-0.051278975 -0.013131992 0.053825244 0.051740404 0.078961976 -0.0913229 0.017052101 0.04359298
0.017772738 -0.09673636 -0.07941544 0.0735522 0.022542555 0.017313588 0.08390908 -0.045268994
0.040001575 0.08843402 0.0034683105 0.06100686 0.01695772 -0.08225795 -0.015764637 -0.035240147
-0.0037021094 -0.046337888 -0.029836 0.004274089 0.00056316366 0.026925871 0.04726306 -0.041438594
-0.019840058 0.03849175 0.11725545 -0.0026701812 -0.008621736 0.020989386 -0.017351406 0.011687212
0.011392173 0.039679762 -0.0033412345 0.0149864275 -0.046232026 -0.01406559 0.050799936 0.024154142
-0.02157561 -0.008106979 -0.05079282 0.073295034 0.069540165 -0.03777894 -0.064817496 0.01069308
-0.06838198 0.0056353286 -0.058970988 -0.040136117 0.007481971 -0.042053975 0.004357588 0.05397649
-0.018002324 -0.040056437 -0.06301433 -0.06448136 -0.0076976786 0.009452913 -0.06048771 -0.01092839
-0.059645027 -0.010496201 -0.023656052 0.015132673 0.06984639 -0.011592956 -0.016272338 -0.010530027
0.008155866 0.085165165 -0.024501676 -0.09920697 0.03802784 -0.039347798 0.035918094 -0.058720984
-0.076528214 0.039105948 0.0060852016 -0.020911349 0.061550073 -0.076450296 0.018845515 0.015888823
-0.049067743 0.049151573 -0.018228803 -0.059709553 -0.042697385 -0.00737203 0.017753996 0.02291825
0.014134027 -0.08905451 -0.011393387 -0.014648525 -0.007760206 0.032335296 -0.024677236 -0.02503049
-0.06229701 -0.1044113 0.0023502826 0.006743303 0.047926996 -0.023832073 0.04440223 -0.004196815
0.032160796 0.04145545 -0.021085104 -0.07640211 0.06160889 0.053052697 0.028690657 0.059605695
0.01642144 0.003286337 0.023263976 0.044252 0.029961398 -0.049305577 -0.041514542 -0.047237
-0.013849803 -0.01434751 0.022797447 -0.07488786 0.0036757223 0.027369253 0.0765646 -0.03968613
-0.054090686 -0.009293398 0.0754036 0.06346913 0.026625317 -0.03444118 0.04686582 -0.0087163355
-0.027551185 -0.15350433 -0.044925705 0.13352127 0.03887562 0.040969837 0.0041961013 0.05261858
0.1663138 0.05921487 0.03659381 -0.003700593 -0.07789807 -0.012417072 0.013196224 0.016165238
0.06471912 -0.053459793 0.047085196 0.023650605 0.046082072 0.024661062 -0.023748895 -0.018819919
0.03148224 0.12676287 0.10691466 0.013161712 -0.026751386 0.03170906 0.045724668 -0.022882577
-0.042771358 -0.064776145 0.0054385755 -0.003409798 0.06533798 -0.044279337 0.0053962204 0.051817413
0.02917118 0.037719943 0.018500635 -0.03044201 0.043155875 0.04065261 0.026307238 0.022621939
0.013891583 -0.018927583 -0.0075062495 0.039711103 0.045141663 -0.045791253 -0.017207624 -0.04229252
0.012075416 -0.0065921047 0.032179363 -0.056413177 0.004911576 0.006584837 0.065756306 -0.018577315
-0.05865355 -0.01438365 0.005521025 0.009319659 0.056258447 0.07029427 -0.011783409 0.018134404
-0.0040362556 0.061373368 0.03268572 -0.049542576 0.03240578 -0.08913979 0.07063368 0.028448684
-0.028710363 -0.039072827 0.0441235 -0.044302166 0.058914408 -0.037949104 0.011690162 -0.028442124
-0.02922244 0.07051418 -0.07971705 -0.006487054 -0.035789877 -0.0076051345 -0.015205113 0.02971523
-0.030881993 -0.06737069 -0.06211521 -0.008998494 0.040268052 -0.011204722 -0.062467076 0.003408073

fc1.bias f4 [128]
00000000: 4613 023d 6cdd bfbc 4eb6 0bbc 08ce 953c
00000010: 46cf 993c c8e4 26bd eb34 343c 7c3f 17bd
00000020: 7b0a c5bc 6bb3 383d 3798 cc3c aa50 523c
00000030: f0aa 69bd a2ab fcbb eb16 5cbd b8b8 01bd
00000040: 451a 1ebc 785f 543c 3f89 35bc 6085 3e3d
00000050: a31d 57bd 582e 82bb 9d10 a1bb c095 5bbc
00000060: d922 ea3c 9db4 8fbc 64a7 7e3c b5e0 87bd
00000070: f4f5 b4ba b222 e7bc fc29 e33a e735 16bd
00000080: 52e5 58bd 167d 9ebc 3239 febb 98a8 92bc
00000090: 9cf4 d43c b78d 933b 2a3a f2ba ef07 b83c
000000a0: 4201 20bb fb37 debb 9ddb e6bc a626 403d
000000b0: 525a 19bc 3202 e23c 7870 4bbd 788b 3a3d
000000c0: 44a5 eebc 74c7 c53b 3641 4a3c 6cdb af3c
000000d0: 1716 8fbc f97e 6bbd 4e43 61bd 1b41 653a
000000e0: aef2 bdbb 02d4 30bc 1d55 a6bc 0005 8bbc
000000f0: ba1b 013a 5231 e3bc 831c 0c3d 29ce 36bd
00000100: c4f6 e43c 41ee 6cbb 56a9 a8bc a274 60bb
00000110: c25a f7bb bc29 cabc 113d a53c c985 b23c
00000120: 9b28 0dbd 427b e13b 8f1d f1bc cc69 ad3c
00000130: 6379 5a3c e893 16bd 03c3 4bbd b680 fcbc
00000140: 5ca7 1c3c 702f c1bc 5a3f 193d b0a5 183c
00000150: 9c0d 9cbc 574b c1bc 04f6 a7bc 82cf a7bc
00000160: b5b0 54bd 2aa6 173c eb74 283c 5a90 f6bc
00000170: 7d9a 3fbb e556 0d3c b086 fa3b 2f48 18bc
00000180: ba1b 3e3d 62e8 c9bc 7c6c 8f3b 5ca6 34bc
00000190: 9b53 a63c be87 71bc 76a1 3d3d 6787 373c
000001a0: 7c31 263b 80ef 73bc 786e 19bd dabf 52bc
000001b0: 1182 823b 7163 2cbb ecd4 3bba 056f 1f3a
000001c0: 7e97 ffbb 9762 2c3b d8d8 15bd a380 0dbd
000001d0: 03a7 46bd 7bb9 f93c 9f2e 723d 9690 90ba
000001e0: 0a59 18bd 3cd9 1b3c 1f3e bc3b 8551 023c
000001f0: 3caf 65bc 4d5c 08bd 4e56 99bc 4a5f 42bd
0.03175666 -0.023421012 -0.008527352 0.01828672 0.018775593 -0.040745527 0.010998945 -0.036925778
-0.024052849 0.04509298 0.024974925 0.012836615 -0.057047784 -0.00771089 -0.053732794 -0.031670302
-0.009649818 0.012962215 -0.011080085 0.046513915 -0.0525185 -0.0039728098 -0.0049153105 -0.013402402
0.02858107 -0.017542178 0.015542839 -0.06634656 -0.001380621 -0.028214786 0.0017331238 -0.0366725
-0.052953072 -0.019346755 -0.007758283 -0.017902657 0.025995545 0.0045029777 -0.0018480469 0.02246472
-0.0024414812 -0.0067815757 -0.028180892 0.046911858 -0.009359913 0.027588937 -0.049667805 0.045543164
-0.02913154 0.0060357396 0.012344649 0.021466933 -0.017466588 -0.057494137 -0.054995827 0.0008745358
-0.005796752 -0.010792734 -0.020304257 -0.016970158 0.0004925091 -0.027733479 0.03420688 -0.044630203
0.027949698 -0.0036152753 -0.020588558 -0.0034249206 -0.007548661 -0.024678104 0.02017072 0.02179231
-0.034462553 0.0068811486 -0.02943304 0.021168612 0.013334605 -0.03676215 -0.049746525 -0.030823093
0.009561386 -0.02358219 0.037413932 0.009316847 -0.019049458 -0.023595495 -0.020503052 -0.02048469
-0.051926333 0.009255925 0.010281782 -0.030098129 -0.002923637 0.008626674 0.0076454505 -0.009294554
0.04641316 -0.024646942 0.004376946 -0.011025991 0.020303538 -0.014741836 0.04629656 0.011201716
0.0025359085 -0.014888644 -0.037458867 -0.012863124 0.0039827903 -0.002630439 -0.0007165212 0.0006081912
-0.0078000417 0.0026303881 -0.03658375 -0.034546506 -0.04849912 0.030483952 0.059126493 -0.0011029418
-0.03719429 0.009512242 0.00574471 0.007954006 -0.01401883 -0.03329115 -0.018717911 -0.047454156

fc2.weight f4 [5, 128]
00000000: 0b9e 38bd 5ef9 99bd 656c 6bbe 1220 eb3d
00000010: aa77 103d 5edb 0dbe 54ac 983d 54fd 22be
00000020: fa11 453b a54d cd3c f322 c33d e127 64be
00000030: 05a7 bbbd c4c8 39be 89f9 03be 5912 193e
00000040: 395c a9bd bc6b d43c fd64 d5bd e7ef 7c3d
00000050: d03f a33d 1ea2 f3bd 7a82 ebbd 32ec 05be
00000060: 13b2 a23d c0cd bebd 0ae4 ebbd 0eae e23d
00000070: 7483 c5bd a3a5 323d 5bed 68bd dec4 3fbd
00000080: bdbe 03be 3b99 0abc 6912 c0bd aa65 e43b
00000090: 95ab a93d 7f88 50bd 17c8 dd3d 5847 513d
000000a0: 3680 2ebe 2e64 e03c 4616 963d 4465 f9bd
000000b0: b7ff 52be 7e80 9dbd f44f 01be 717e 0a3e
000000c0: 638b 99bd ddd4 33be 3e6f db3c 9eb3 4dbe
000000d0: 6d89 78bb 193c 53bd 04fd 5fbb b678 023e
000000e0: 0991 dd3c 02e0 593d 092d 74be 3a89 00be
000000f0: deff 133e 0a26 273c 58b9 ba3d d8a5 0bbe
00000100: 899a 1c3c d241 fdbd f572 debb ea33 05be
00000110: 4159 35bd 1490 97bd 88b5 e6bd 81cf 413c
00000120: 030d dfbd 0589 33be 1a6c e93d 781e ee3d
00000130: a3df c8bd 9478 08be cff3 1bbe fda8 17bc
00000140: b923 8e3d 0667 eabc 43c4 fc3d 9946 3c3d
00000150: 344f 023e 9226 f9bd 1d76 febd 80e5 05be
00000160: 2754 91bd 4d15 0238 c29c cf3d f5ce 043e
00000170: b80f d73d 8764 503c 7e98 f93c 41bc d03d
00000180: 7679 c73d 1b54 b33b 29b4 6ebd a3d4 23bd
00000190: 5f25 273d d8e4 f9b9 853b d23d 6be7 a33d
000001a0: 86df 3a3d d32d d13d 603d d3bd d4ff d8bd
000001b0: 010b 933d 45a3 aa3d 686f 22bc 9f70 843d
000001c0: 772a b2bd 1f0e 34be 86b3 97bd b1d7 52be
000001d0: 766f 0abd 1540 04be 0e3e bd3d ca29 91bd
000001e0: ef93 ddbd 72c4 c2bd 3adc d43d b3b2 c33d
000001f0: 1f5b f23d 70d9 e8bc 3f3a 263d 29dc 903c
00000200: 39b4 57bd c988 7b3c ea4c 613d 4e7e b4bd
00000210: c36b 9fbd df64 ba3d ffaf 473d 4364 993d
00000220: 5486 debd f0ec 4bbd b9a7 35be d445 a63d
00000230: a281 493d d2b8 9e3d f899 d13c e224 b23d
00000240: 27bf 0abe 529d a5bd 6f75 383d ed4b 653d
00000250: da26 02bd 0d1d ea3d 0b53 7a3d bd11 85bd
00000260: 615c 9b3d d9fc d83d 72f8 27be 5b03 c1bb
00000270: 1c89 9c3d 4d92 f9bd 926d 49bd 38b9 06be
00000280: 58da 50bd 4a84 42bd cd7e a13d d184 2c3a
00000290: 1020 043e 040c c9bd d2e9 23be 90cc 603d
000002a0: 714b 5cbd 4170 32be 3f27 b6bc 22cd 353d
000002b0: 66a7 383d 8d55 d23d 2816 14bd 8759 803d
000002c0: f39e 00bd b4c1 0fbc 5ef0 b6bd 8832 d23c
000002d0: 2114 2bbd 983f b43d 494e c13d b7d7 243c
000002e0: 1781 93bc 2987 b8bd 7920 a53c 3862 ae3c
000002f0: 4bca ab3c 79c4 c1bd 6c1b d9bd 6e2a 9f3d
00000300: f4c8 013d bcb9 4cbd 6497 b83d 2997 4c3d
00000310: e64b 38bd dd57 eb3d 62e3 0d3d 582b 7a3d
00000320: 17a8 57bc dc78 cdbd d426 d5bd 93d7 33bc
00000330: 78d3 343d f6b5 d23c 86d6 86bd 3925 ed3d
00000340: 31fa 03be 7c27 483d bf32 9ebd dd67 e4bd
00000350: 7e62 853d b9d2 763d 0a97 203e f758 c93d
00000360: 60f4 12bd 2fad 4ebc e0bc 88bd db7f 61bd
00000370: f5d1 233d 3754 5a3d a5eb 8c3d e161 023c
00000380: d15b efbd 9f72 ddbc 3d50 e2bc f8c2 fe3c
00000390: 3fe8 adbd 985c 2a3d 5882 abbc d652 a73d
000003a0: f776 10be d87b babc 12c6 00bd 495c d9bc
000003b0: 81dc fd3c 21be 1fbe 05cb aabd d5e9 78bc
000003c0: bf29 a23c 1b2b ef3c e8e8 d5bd b570 33bb
000003d0: 803e cb3d 3644 103d 30bb 8dbd 0ab6 cf3d
000003e0: 2a3d 9cbd dc24 8cbd dc1e b4bd 520f 76bd
000003f0: e886 05bd 676b 383d b968 09be 07a2 593d
-0.045072597 -0.07518266 -0.22990568 0.11480726 0.03527037 -0.13853213 0.07454744 -0.1591695
0.003007053 0.025061438 0.095281504 -0.22280838 -0.09162716 -0.18142992 -0.12888159 0.14948405
-0.08269543 0.025930278 -0.104196526 0.061752226 0.07971156 -0.11896156 -0.11499496 -0.13078383
0.07944121 -0.093165874 -0.115181044 0.110683545 -0.09644213 0.043614995 -0.056866985 -0.046818607
-0.1286573 -0.008459385 -0.093785115 0.006970127 0.0828468 -0.050911423 0.1082918 0.05109343
-0.17041096 0.02739152 0.07328467 -0.12177518 -0.2060536 -0.076905236 -0.12628156 0.13524796
-0.07497289 -0.1756167 0.026786443 -0.2008805 -0.003792371 -0.051570985 -0.0034177909 0.1274136
0.027046697 0.053192146 -0.23845305 -0.12552348 0.14453074 0.01020194 0.09117383 -0.13637483
0.009558328 -0.1236607 -0.0067886063 -0.13008085 -0.044274572 -0.074005276 -0.11265093 0.011829258
-0.10891154 -0.17532738 0.11397572 0.11626905 -0.0980828 -0.13327247 -0.15229724 -0.009256599
0.06940407 -0.028613579 0.123421215 0.045965765 0.12725526 -0.1216556 -0.12424872 -0.13075829
-0.07096129 3.1014253e-05 0.10137321 0.12969573 0.10501045 0.01271928 0.030468222 0.101921566
0.09739964 0.0054726726 -0.058277283 -0.039997708 0.040807124 -0.00047663483 0.10265259 0.08003124
0.045623325 0.102138184 -0.10314441 -0.1059567 0.07179833 0.083319224 -0.009914257 0.06466793
-0.08699506 -0.17583512 -0.07407288 -0.20590092 -0.033797704 -0.1291507 0.092403516 -0.07088049
-0.10819232 -0.09510125 0.103935674 0.095555685 0.11833786 -0.028423995 0.04058289 0.017683106
-0.052662108 0.015352436 0.05500499 -0.08813153 -0.07784226 0.09101271 0.048751827 0.074898265
-0.10865465 -0.049786508 -0.17739762 0.081187874 0.049195893 0.077500954 0.025586113 0.08698441
-0.13549481 -0.08086647 0.04503387 0.05598061 -0.031775333 0.11431322 0.061114352 -0.06497524
0.07585979 0.10595102 -0.16403368 -0.0058902926 0.07643339 -0.12186108 -0.04917676 -0.13156593
-0.05098948 -0.047489442 0.078855135 0.00065810705 0.12902856 -0.09816745 -0.16007164 0.054882586
-0.053782884 -0.17425634 -0.02223551 0.044385083 0.04508152 0.10270224 -0.036153942 0.06267076
-0.031401586 -0.00877421 -0.08932565 0.02565886 -0.041767243 0.08801192 0.0943876 0.010061196
-0.01800589 -0.09010155 0.020157086 0.021287069 0.020970484 -0.09461302 -0.106009334 0.07771765
0.031685784 -0.049981818 0.090132505 0.049948845 -0.044994257 0.11491368 0.034640677 0.061076492
-0.013162634 -0.10032818 -0.104077965 -0.01097669 0.044146985 0.025721531 -0.06583886 0.11579365
-0.12888409 0.04886578 -0.07724523 -0.11152623 0.065129265 0.060259555 0.15682617 0.09831422
-0.035877585 -0.012614532 -0.0667665 -0.055053573 0.039995153 0.05330297 0.06880883 0.007957906
-0.116874345 -0.027032195 -0.027626151 0.031098828 -0.08491563 0.04159221 -0.020936176 0.081700966
-0.14107881 -0.022764131 -0.031438895 -0.026533263 0.030988934 -0.15599872 -0.08339504 -0.015192469
0.019795297 0.029195359 -0.10444814 -0.002738041 0.0992403 0.0352213 -0.06920469 0.10142143
-0.076288536 -0.06842968 -0.087949485 -0.060073204 -0.03259936 0.0450243 -0.13418855 0.053133037

fc2.bias f4 [5]
00000000: 9ab0 8fbd da57 52bd 6481 8abd 1494 2fbb
00000010: 5554 bf3d
-0.07016106 -0.051353313 -0.067629606 -0.0026791142 0.09342257
