Trained_Weights/STRIDE 4/v4.3_20th.pth (torch, 671892 bytes, 10 tensors)

conv1.weight f4 [32, 1, 3, 3]
0.09162983 -0.05813797 -0.3113857 -0.15290442 0.05318011 -0.02158178 -0.1263494 0.07826846
0.23017144 -0.098894976 -0.018472139 0.19709104 0.07922176 -0.15719835 0.25927415 0.24015892
-0.13131559 -0.16541782 -0.23737273 -0.13636886 0.122421265 0.25663105 0.24932139 0.14363284
-0.11933465 0.22043805 0.028144138 0.20751719 -0.1680981 -0.20057103 0.2814229 -0.12973996
0.30614272 -0.23463331 -0.16618341 0.17687322 -0.20856522 -0.05093478 -0.003484927 -0.18185222
0.26987678 0.15200259 0.12379908 0.2636173 -0.16864762 -0.12913558 0.09418679 -0.11690149
0.22477166 -0.25078255 0.16810234 0.19338988 0.16749758 0.24523185 0.20902784 -0.11329761
-0.31021857 0.106367074 -0.2816024 0.19961084 0.2521644 0.22112776 -0.16435994 -0.29942134
-0.044874266 0.3505237 0.030398978 0.18637848 -0.118235685 -0.0051443647 -0.019786717 0.2374771
-0.2311248 -0.24843904 -0.024076749 -0.24050857 -0.23375355 0.21307833 0.3578207 0.16448805
0.18314639 -0.0070568654 0.1520947 -0.27560055 0.04274098 0.022510424 0.07714339 0.30779856
0.255488 -0.2319939 -0.21228494 0.20381 -0.27392486 0.056019664 -0.069221556 0.28545648
-0.3162744 -0.3398302 0.20852217 -0.039523624 0.3847807 -0.19445348 0.28897387 -0.25810364
-0.12762763 0.14313282 0.21172428 0.020317191 0.1400127 0.23138656 0.024145091 0.040688686
-0.3146251 -0.38718584 0.2189763 0.083404094 -0.0031751252 0.016471332 0.24984881 0.1583758
-0.3467451 0.2145024 0.102642305 -0.26470566 -0.11110745 -0.137697 0.003569335 0.01453977
0.24648106 -0.06260919 -0.16953388 -0.21593973 -0.22691128 -0.2433811 -0.0035690353 -0.17609945
0.038675483 0.15570684 -0.16843255 0.20029493 -0.09507307 0.05223518 -0.12461601 -0.118002735
-0.27222493 0.1591258 0.19227543 -0.22010785 -0.16051382 -0.011525822 -0.05114961 0.40141913
0.0016976494 -0.23746943 0.096115015 0.15435271 0.13058658 0.18546115 0.1769389 -0.09893094
0.29384157 0.11947056 -0.20065077 0.2969017 -0.23356819 0.27636594 0.24982879 0.101138994
0.017104644 -0.06342604 0.21173166 0.14305547 -0.04659018 -0.04191403 0.019098865 0.17475408
-0.083768256 -0.2891339 -0.27059132 -0.16751197 -0.363687 -0.21277943 0.2962507 0.09077974
0.095846914 -0.16291757 0.14886151 0.10417697 0.17387226 0.3418449 0.25017112 -0.31760743
-0.00021605905 0.06264562 -0.44261804 -0.060152844 0.060927294 0.10750367 0.16433565 -0.2974638
0.14753795 -0.006668627 -0.09050243 0.13671207 -0.24497004 -0.07678303 -0.27070007 -0.16216527
-0.2099734 0.318974 -0.17718467 0.21344969 -0.20027493 -0.21273229 -0.0757929 0.05294678
0.29868186 0.26823208 0.21040294 0.23248024 -0.06263566 -0.11631863 0.12020987 0.08311538
0.26026338 0.26283926 0.305954 0.100488305 -0.17629011 0.10276632 -0.18129066 0.06459665
0.28915817 0.16288385 -0.28189796 0.20771025 -0.2507467 0.06723105 -0.18460105 -0.13711666
-0.22398242 0.14588204 -0.29602757 0.057963643 0.27448338 0.17148438 -0.19645494 0.30288643
0.32202488 -0.015036701 -0.22116765 -0.19315465 0.03433009 -0.18675005 0.1609878 0.21139057
00000000: 6ca8 bb3d 1422 6ebd f26d 9fbe fa92 1cbe
00000010: 63d3 593d 46cc b0bc bd61 01be 374b a03d
00000020: 10b2 6b3e 7389 cabd e252 97bc 3cd2 493e
00000030: 053f a23d 9bf8 20be 95bf 843e 38ec 753e
00000040: 9877 06be 4a63 29be d611 73be 47a4 0bbe
00000050: 00b8 fa3d 2565 833e 1b4e 7f3e 7d14 133e
00000060: ba65 f4bd 83ba 613e 898e e63c 637f 543e
00000070: e921 2cbe 7e62 4dbe aa16 903e 8dda 04be
00000080: bdbe 9c3e b743 70be fc2b 2abe 411e 353e
00000090: 1f92 55be fda0 50bd 5f63 64bb 7837 3abe
000000a0: 4a2d 8a3e 91a6 1b3e 5f8a fd3d d9f8 863e
000000b0: f6b1 2cbe 1e3c 04be 01e5 c03d 0c6a efbd
000000c0: 8b2a 663e 9266 80be 0523 2c3e ff07 463e
000000d0: 7c84 2b3e 0f1e 7b3e 650b 563e 9408 e8bd
000000e0: f8d4 9ebe fbd6 d93d 312e 90be c966 4c3e
000000f0: b11b 813e 516f 623e f94d 28be c14d 99be
00000100: 14ce 37bd d877 b33e 4707 f93c 00da 3e3e
00000110: 8d25 f2bd 0f92 a8bb c117 a2bc 322d 733e
00000120: fbab 6cbe ce66 7ebe 9a3c c5bc e147 76be
00000130: 175d 6fbe 3531 5a3e 4634 b73e 8e6f 283e
00000140: ba8a 3b3e 473d e7bb b7be 1b3e 841b 8dbe
00000150: 2a11 2f3d c867 b83c 5bfd 9d3d c697 9d3e
00000160: 53cf 823e cf8f 6dbe 3961 59be 92b3 503e
00000170: e13f 8cbe e074 653d 08c4 8dbd 5a27 923e
00000180: b8ee a1be 39fe adbe d686 553e 86e3 21bd
00000190: fa01 c53e d01e 47be 62f4 933e 2926 84be
000001a0: d1b0 02be 6991 123e 40ce 583e 3d70 a63c
000001b0: 7d5f 0f3e 99f0 6c3e edcb c53c 2ea9 263d
000001c0: 8b16 a1be 393d c6be 533b 603e c4cf aa3d
000001d0: c315 50bb e3ee 863c 5ed8 7f3e 442d 223e
000001e0: 9388 b1be 84a6 5b3e 2136 d23d 8087 87be
000001f0: 4e8c e3bd 7100 0dbe 81eb 693b 3738 6e3c
00000200: 8865 7c3e 3f39 80bd 4a9a 2dbe 4e1f 5dbe
00000210: 6e5b 68be e538 79be 7ae6 69bb 6a53 34be
00000220: 2f6a 1e3d 9d71 1f3e 9579 2cbe 1d1a 4d3e
00000230: abb5 c2bd 8ef4 553d ae36 ffbd 6bab f1bd
00000240: 1161 8bbe e0f1 223e dae3 443e f463 61be
00000250: bc5d 24be cdd6 3cbc 4182 51bd cf86 cd3e
00000260: a983 de3a 302b 73be f3d7 c43d a30e 1e3e
00000270: 7db8 053e 87e9 3d3e 792f 353e 4e9c cabd
00000280: 6772 963e fbac f43d 6577 4dbe 8003 983e
00000290: 802c 6fbe d67f 8d3e 1ed3 7f3e f621 cf3d
000002a0: 0a1f 8c3c 83e5 81bd 2fd0 583e 227d 123e
000002b0: 58d5 3ebd 0cae 2bbd 3975 9c3c bcf2 323e
000002c0: b18e abbd 5c09 94be f28a 8abe 4288 2bbe
000002d0: 2f35 babe dae2 59be 2cae 973e baea b93d
000002e0: 634b c43d ddd3 26be 276f 183e bc5a d53d
000002f0: 920b 323e 4b06 af3e 6e16 803e 719d a2be
00000300: e98d 62b9 594c 803d d59e e2be d462 76bd
00000310: e68e 793d e22a dc3d 9b47 283e 2d4d 98be
00000320: 3014 173e 7f84 dabb 5759 b9bd 40fe 0b3e
00000330: 6dd9 7abe 6c40 9dbd 3399 8abe a70e 26be
00000340: 4403 57be 8f50 a33e e66f 35be 8e92 5a3e
00000350: df14 4dbe 7ed6 59be 4f39 9bbd b9de 583d
00000360: d4ec 983e b755 893e de73 573e 4d0f 6e3e
00000370: 2047 80bd 7638 eebd 9830 f63d 6538 aa3d
00000380: 3e41 853e de92 863e 01a6 9c3e d0cc cd3d
00000390: 6585 34be 2677 d23d 42a4 39be 404b 843d
000003a0: 8a0c 943e 06cb 263e ee54 90be ffb1 543e
000003b0: df61 80be 6fb0 893d 0f08 3dbe 4f68 0cbe
000003c0: a65b 65be 1a62 153e ed90 97be 496b 6d3d
000003d0: 1689 8c3e 9a99 2f3e 7c2b 49be ee13 9b3e
000003e0: 72e0 a43e 7f5c 76bc c679 62be 55ca 45be
000003f0: b59d 0c3d 683b 3fbe fcd9 243e c576 583e

conv1.bias f4 [32]
0.09624259 -0.09258626 -0.12593058 -0.05123162 -0.1419452 -0.2721235 -0.04737613 -0.15292746
-0.25858387 -0.1526504 0.21731748 -0.1974577 -0.0026787305 0.043910146 0.2867085 -0.28988266
-0.0071785417 -0.27789894 -0.32823864 0.23088549 -0.072169974 0.00497869 0.26762167 0.1863826
-0.38760906 -0.36941415 0.35584632 -0.19573131 -0.3502095 0.14209752 -0.21102913 0.15794165
00000000: d61a c53d dd9d bdbd f2f3 00be 3fd8 51bd
00000010: 155a 11be c553 8bbe 790d 42bd 0499 1cbe
00000020: 1b65 84be 6350 1cbe 7988 5e3e 5a32 4abe
00000030: a48d 2fbb 20db 333d 75cb 923e 806b 94be
00000040: f939 ebbb c548 8ebe e50e a8be 3f6d 6c3e
00000050: dacd 93bd 4724 a33b b505 893e 15db 3e3e
00000060: b274 c6be da23 bdbe 7d31 b63e ca6d 48be
00000070: a94e b3be 0382 113e 0518 58be 75bb 213e

conv2.weight f4 [32, 32, 3, 3]
0.019455157 0.055271305 0.032834176 0.052065816 0.048456527 -0.03240758 0.05144874 -0.07139251
-0.009521862 0.050376337 0.010569873 -0.018580839 -0.009678931 0.04480569 -0.053077567 0.030568343
-0.044535045 -0.057379704 -0.046570536 -0.031161698 0.022078274 -0.054825217 0.07097485 0.053323153
-5.0741073e-05 0.025352085 0.050527733 -0.08172609 0.023014255 0.007815932 0.010001997 -0.021062417
0.03280899 -0.031013265 0.03871544 -0.016317552 0.029006228 0.0005036943 0.01516355 0.07126905
0.019620245 -0.032866515 0.0015858775 0.06010539 -0.032984193 0.010020063 0.2411435 0.20328966
-0.024545204 0.25252232 0.35438693 -0.040333893 0.14801012 0.14632235 -0.032271307 -0.04016674
-0.031286493 -0.10209103 0.004602844 -0.02387356 -0.053205624 0.0074685323 0.056744486 0.12878154
0.15727617 -0.0019600224 0.18840316 0.1571731 -0.01629902 0.15622915 0.13103595 0.032503717
0.0125000505 0.041883685 0.04862013 -0.023231165 -0.03692832 0.011907673 0.041788224 0.046418197
-0.044254437 -0.27462503 -0.058026824 0.28907815 -0.24370033 0.081851676 0.32957286 -0.3275004
-0.024358736 0.17994289 0.19370198 -0.051567275 -0.10951892 0.19326045 0.014945434 -0.22185765
0.16925164 -0.061412517 -0.14485846 -0.13070649 0.017849745 0.07976208 -0.10183883 0.039972804
0.013667554 -0.035823762 -0.046623543 0.07733016 -0.0022084326 0.042202998 -0.019814925 -0.041621827
-0.0060636 -0.0022153028 -0.00946827 -0.027773205 0.072122395 0.12435934 -0.012291905 -0.08677992
0.14296803 -0.041739 -0.14888984 0.25745866 0.09455601 -0.0053710346 0.07694534 -0.08712633
-0.28673333 0.09045624 -0.19364242 -0.28408134 0.06913968 -0.11153819 -0.12004999 0.007301726
0.017019948 0.042643953 0.0020770621 -0.022610962 -0.034664255 0.053399738 -0.040829774 -0.024656957
0.084714115 0.078516975 -0.036943313 -0.008210842 -0.009768819 -0.02339625 -0.025622685 0.044413064
0.0258981 -0.03820623 0.029141616 0.08209064 0.0176754 0.0707041 -0.0014200371 -0.00040493254
0.042270754 0.040570118 -0.019612918 0.049465828 0.08899049 0.05122133 0.14694989 0.1623431
-0.052545287 0.11910068 0.16647105 0.030080542 -0.010313946 -0.06855562 -0.03769433 -0.030034706
-0.106476225 0.08938457 -0.051926117 0.031450212 0.043487724 0.03586376 0.019281186 0.05021556
-0.018674156 0.028315406 -0.0606656 -0.06244267 0.00010361329 -0.059366707 0.009736187 1.0824944e-05
-0.07058872 -0.029573651 0.02463921 -0.08603517 -0.004965735 0.10422327 0.012109667 -0.083407246
-0.18472342 0.033983313 -0.09715743 -0.25852108 0.12371519 -0.13759021 -0.08809339 0.10967761
0.037887458 -0.05701915 0.09824977 0.044477448 -0.0057165762 0.11863298 -0.026017517 -0.012194808
-0.058627196 0.009206337 0.06268904 -0.08423946 0.092890374 -0.0067631155 -0.0633947 0.047171876
0.100433305 -0.039476812 0.014436215 0.11200257 -0.045157775 0.108526595 0.14641938 -0.04618672
0.15939462 0.14261727 0.060031313 -0.0038308871 -0.020266602 -0.005295347 -0.09159522 -0.06765145
0.0049947337 -0.08887151 -0.12122904 -0.054109536 0.036602292 -0.013571147 0.03797641 0.11980845
-0.00042951567 -0.01170158 0.14185964 0.038685653 0.07021925 0.15553643 0.11260299 0.00917492
00000000: 6c60 9f3c 2a64 623d 217d 063d f742 553d
00000010: 5a7a 463d d0bd 04bd eabb 523d 3c36 92bd
00000020: 9501 1cbc 6b57 4e3d 432d 2d3c d836 98bc
00000030: 6194 1ebc 2c86 373d dd67 59bd 766a fa3c
00000040: 616a 36bd fb06 6bbd bfc0 3ebd d146 ffbc
00000050: 7fdd b43c 6890 60bd 435b 913d 6169 5a3d
00000060: d0d2 54b8 2daf cf3c 2bf6 4e3d 0260 a7bd
00000070: 6488 bc3c 650e 003c 6bdf 233c 178b acbc
00000080: b862 063d 880f febc 1594 1e3d 63ac 85bc
00000090: 789e ed3c 5a0a 043a 8a70 783c 82f5 913d
000000a0: a3ba a03c 0a9f 06bd 38dd cf3a 1231 763d
000000b0: 6f1a 07bd 312b 243c 52ee 763e 2a2b 503e
000000c0: 0613 c9bc 9b4a 813e 3472 b53e 2735 25bd
000000d0: f78f 173e 87d5 153e eb2e 04bd e185 24bd
000000e0: 4426 00bd 1a15 d1bd 74d3 963b 7c92 c3bc
000000f0: 24ee 59bd 97ba f43b e86c 683d 4fdf 033e
00000100: 010d 213e b873 00bb c2ec 403e fcf1 203e
00000110: 8685 85bc 89fa 1f3e 4a2e 063e 9e22 053d
00000120: 03cd 4c3c 3a8e 2b3d e725 473d 494f bebc
00000130: 2642 17bd 6718 433c 212a 2b3d 0221 3e3d
00000140: 2444 35bd a79b 8cbe 89ad 6dbd 0d02 943e
00000150: 948c 79be daa1 a73d c6bd a83e 22ae a7be
00000160: f98b c7bc f342 383e d059 463e 3538 53bd
00000170: 754b e0bd 11e6 453e b2dd 743c a72e 63be
00000180: 4d50 2d3e b18b 7bbd c755 14be ecd7 05be
00000190: a139 923c 4d5a a33d e090 d0bd 86ba 233d
000001a0: e0ed 5f3c f0bb 12bd 54f8 3ebd 465f 9e3d
000001b0: 5abb 10bb 0ddd 2c3d e952 a2bc a67b 2abd
000001c0: 2ab1 c6bb 9d2e 11bb cd20 1bbc a284 e3bc
000001d0: e8b4 933d 1cb0 fe3d fc63 49bc acb9 b1bd
000001e0: 3666 123e 83f6 2abd 9476 18be 9fd1 833e
000001f0: 95a6 c13d 81ff afbb 8595 9d3d 4a6f b2bd
00000200: b6ce 92be 1f41 b93d 334a 46be 1c73 91be
00000210: 1b99 8d3d 226e e4bd c5dc f5bd 5143 ef3b
00000220: 6b6d 8b3c 6dab 2e3d 521f 083b a03a b9bc
00000230: 1bfc 0dbd afb9 5a3d 1f3d 27bd 63fd c9bc
00000240: 987e ad3d 82cd a03d df51 17bd c486 06bc
00000250: 660d 20bc 7ea9 bfbc aae6 d1bc 79ea 353d
00000260: 4128 d43c 237e 1cbd 66ba ee3c 231f a83d
00000270: 00cc 903c 50cd 903d 8a20 baba 204d d4b9
00000280: 1924 2d3d da2c 263d 45ab a0bc ae9c 4a3d
00000290: a540 b63d 75cd 513d 087a 163e 453d 263e
000002a0: ba39 57bd 0feb f33d 6377 2a3e 786b f63c
000002b0: d3fb 28bc e466 8cbd 5f65 1abd 580b f6bc
000002c0: 3510 dabd 420f b73d 7bb0 54bd f0d1 003d
000002d0: 2f20 323d e1e5 123d 94f3 9d3c d5ae 4d3d
000002e0: 8bfa 98bc b6f5 e73c 7e7c 78bd e3c3 7fbd
000002f0: f64a d938 812a 73bd 8784 1f3c c89c 3537
00000300: d290 90bd 7144 f2bc 2bd8 c93c 3533 b0bd
00000310: 9bb7 a2bb 0373 d53d a067 463c 6bd1 aabd
00000320: 2328 3dbe 1632 0b3d 7afa c6bd e05c 84be
00000330: 645e fd3d 73e4 0cbe 4f6a b4bd a89e e03d
00000340: e12f 1b3d ea8c 69bd 2d37 c93d fc2d 363d
00000350: 1e52 bbbb d9f5 f23d b022 d5bc bbcc 47bc
00000360: 1223 70bd 2dd6 163c 1d63 803d bd85 acbd
00000370: 4f3d be3d 209d ddbb 15d5 81bd 4c37 413d
00000380: faaf cd3d 70b2 21bd e085 6c3c 9a61 e53d
00000390: 5cf7 38bd 3143 de3d f6ee 153e 492e 3dbd
000003a0: 5838 233e 430a 123e 65e3 753d 9f0f 7bbb
000003b0: 2506 a6bc 9784 adbb 4696 bbbd d88c 8abd
000003c0: ddaa a33b 4402 b6bd ee46 f8bd f6a1 5dbd
000003d0: 49ec 153d 8459 5ebc 278d 1b3d 225e f53d
000003e0: 9e30 e1b9 fcb7 3fbc a743 113e d974 1e3d
000003f0: 1ccf 8f3d f144 1f3e 659c e63d 6752 163c

conv2.bias f4 [32]
-0.025247078 0.0069792457 0.061263233 0.0014306369 -0.026327157 0.07914188 0.05341604 0.06640117
0.058818012 -0.0022000715 -0.014889361 0.008955725 0.029620478 0.022574574 -0.07227198 -0.07275032
-0.0025933615 0.050804496 0.008858746 0.10147948 0.021727543 -0.018083172 0.07025065 -0.0731208
-0.06977534 -0.011007277 0.04090174 -0.010486077 -0.04952053 0.031687 -0.07622779 -0.009475294
00000000: f6d2 cebc 28b2 e43b 28ef 7a3d 3584 bb3a
00000010: 0dac d7bc 2315 a23d c7ca 5a3d 56fd 873d
00000020: 28eb 703d 132f 10bb 82f2 73bc 08bb 123c
00000030: a5a6 f23c 50ee b83c 5503 94bd 1ffe 94bd
00000040: 63f5 29bb 6018 503d 4624 113c 79d4 cf3d
00000050: f6fd b13c 2923 94bc 93df 8f3d 5cc0 95bd
00000060: 60e6 8ebd de57 34bc 9588 273d cbcd 2bbc
00000070: 0ad6 4abd 3aca 013d 511d 9cbd 433e 1bbc

conv3.weight f4 [32, 32, 3, 3]
0.19202182 -0.0029115113 -0.025446922 -0.012326956 -0.11837054 0.05115619 -0.073643036 -0.12973878
0.17246251 0.1208163 0.097975366 -0.015381504 -0.0256318 -0.038077574 -0.073253386 0.008527619
-0.13209465 0.024117641 -0.118138395 -0.23641507 -0.027991194 -0.12187228 -0.0057143546 0.14268558
0.12269636 0.22555168 -0.00682481 0.100459024 0.06115575 -0.067082234 -0.006899658 -0.07909404
-0.04396075 0.08212324 -0.075491086 0.17307624 0.043389123 0.15994391 0.024945538 -0.048564397
-0.13561755 -0.062216744 -0.07767063 -0.10694855 0.1058936 -0.07329143 -0.17113571 -0.024991723
0.05167756 0.09375591 0.10414836 0.13498469 0.17277555 -0.109207064 -0.07898356 -0.0757108
-0.06631578 -0.015217983 0.13220905 0.017809939 0.052431557 0.13590628 -0.13785414 -0.14241035
-0.15595691 0.015923426 0.06471273 0.16114452 0.07840813 0.122812554 0.15039924 -0.13292916
0.080882855 0.15219362 -0.012080762 -0.06833716 -0.15796018 0.00063121074 -0.08575197 -0.029370826
0.11705582 0.10284066 0.13167512 0.061638847 0.047381394 -0.117479004 -0.011606168 -0.023959832
-0.09035541 0.074167036 -0.10888561 -0.06366802 0.043518018 0.07100059 0.14977089 0.08307991
-0.04433507 0.0354236 -0.22262566 -0.104427375 -0.16142425 0.042678 0.055860102 0.08529315
0.07769207 0.07746805 0.14093624 -0.025821496 0.21419723 -0.102454685 -0.002652793 -0.0371065
-0.25531444 0.048170604 0.06920227 0.086168386 0.26205412 -0.09038614 -0.14506356 0.04439699
-0.05868075 0.08071137 0.059430514 0.039561126 0.080306694 -0.07793011 0.11826816 0.082544565
0.02891351 -0.11245289 -0.16332753 -0.058681056 -0.0799521 -0.084694564 0.1801591 0.16286945
0.1472617 0.024971593 -0.07503665 -0.052677162 -0.038147587 -0.04785305 -0.047834545 0.10688444
-0.12369151 -0.16052438 -0.00020326336 0.07149948 0.14585562 0.03144824 0.112363294 0.14057064
-0.11618592 0.117272444 0.10433196 0.00021589559 -0.037351564 -0.03816809 -0.098020375 -0.10817525
-0.09666761 0.043005217 -0.15653363 -0.16131032 -0.01832809 0.025954809 0.18302122 0.086929455
0.099125214 0.09881486 -0.13350801 -0.044345986 -0.15846474 -0.06351735 -0.006409359 0.0863103
0.10611709 0.094779894 0.11525343 -0.082596935 -0.061614018 -0.11147698 0.017326735 0.032266352
0.06867631 0.03910313 0.02826669 0.0521524 -0.09263139 0.010157811 0.016017437 -0.06774829
-0.1438119 -0.21285392 0.009642216 0.16025792 0.04574083 0.18911585 -0.12161304 -0.1015906
0.020247651 -0.028891105 0.16040143 0.098136745 0.07333466 0.17028007 -0.101694636 0.082683526
0.13158095 -0.0086904215 -0.027260982 -0.13614458 -0.10443122 -0.035012744 -0.05060524 0.112159565
0.097170055 0.04883123 -0.05516056 -0.044837773 -0.08140657 -0.10259183 0.0020206224 0.027496317
0.13285498 -0.14899807 -0.06774389 -0.10546993 0.0028832546 0.042856384 0.004863039 0.056311093
0.105388544 -0.120109655 0.14796184 0.16802824 -0.02772271 -0.0061902204 -0.16063717 -0.01414738
-0.0650231 -0.08435567 0.119843595 0.22601728 0.18194059 0.14452885 0.030650763 -0.12351198
-0.021457333 -0.13414782 -0.17745693 0.025190959 -0.08407144 -0.07442367 0.04649026 0.0587607
00000000: 5ea1 443e 0ecf 3ebb 1076 d0bc 00f7 49bc
00000010: 416c f2bd 2789 513d 29d2 96bd 3eda 04be
00000020: 039a 303e 896e f73d 4fa7 c83d b402 7cbc
00000030: c8f9 d1bc 3bf7 1bbd df05 96bd 6db7 0b3c
00000040: d243 07be 5c92 c53c 8bf2 f1bd cb16 72be
00000050: ca4d e5bc 2d98 f9bd 7b3f bbbb 2b1c 123e
00000060: 3b48 fb3d 05f7 663e a8a2 dfbb 76bd cd3d
00000070: 747e 7a3d 6962 89bd 8716 e2bb 0efc a1bd
00000080: 3010 34bd 3b30 a83d 129b 9abd e63a 313e
00000090: cbb8 313d 56c8 233e 965a cc3c 76eb 46bd
000000a0: 54df 0abe fcd6 7ebd c711 9fbd d707 dbbd
000000b0: bede d83d d119 96bd 333e 2fbe 71bb ccbc
000000c0: d9ab 533d 1903 c03d bc4b d53d 6d39 0a3e
000000d0: 13ec 303e f4a7 dfbd 22c2 a1bd 440e 9bbd
000000e0: 91d0 87bd d954 79bc cf61 073e 26e6 913c
000000f0: 79c2 563d 042b 0b3e a329 0dbe 05d4 11be
00000100: 2bb3 1fbe d871 823c 1c88 843d 1203 253e
00000110: 7194 a03d 2685 fb3d 4202 1a3e 951e 08be
00000120: e9a5 a53d a5d8 1b3e 63ee 45bc 5af4 8bbd
00000130: 50c0 21be d677 253a bb9e afbd 169b f0bc
00000140: f6ba ef3d 209e d23d d8d5 063e 0479 7c3d
00000150: fe12 423d d598 f0bd cc27 3ebc 6947 c4bc
00000160: 420c b9bd e3e4 973d 6bff debd 6164 82bd
00000170: f33f 323d c268 913d 8a5d 193e cd25 aa3d
00000180: b198 35bd 5618 113d fbf7 63be 05de d5bd
00000190: 664c 25be 20cf 2e3d 90cd 643d 2dae ae3d
000001a0: 051d 9f3d 92a7 9e3d 9751 103e 9a87 d3bc
000001b0: 8556 5b3e c3d3 d1bd 7bda 2dbb fcfc 17bd
000001c0: 93b8 82be 8a4e 453d ebb9 8d3d 0d79 b03d
000001d0: f52b 863e 5e1c b9bd 8b8b 14be 9ed9 353d
000001e0: 3a5b 70bd 014c a53d 696d 733d d90a 223d
000001f0: d677 a43d d299 9fbd 9436 f23d 200d a93d
00000200: 06dc ec3c b34d e6bd 553f 27be 8c5b 70bd
00000210: edbd a3bd 5874 adbd a17b 383e 40c7 263e
00000220: c5cb 163e 3a91 cc3c d1ac 99bd 02c4 57bd
00000230: a540 1cbd 8f01 44bd 28ee 43bd 3be6 da3d
00000240: f951 fdbd 8160 24be 1823 55b9 526e 923d
00000250: 2d5b 153e dfcf 003d ba1e e63d c0f1 0f3e
00000260: e2f2 edbd 892c f03d ffab d53d 0862 6239
00000270: f4fd 18bd 2556 1cbd e8be c8bd fc8a ddbd
00000280: abf9 c5bd 3d26 303d 5a4a 20be 882e 25be
00000290: ca24 96bc 2e9f d43c ea69 3b3e 1208 b23d
000002a0: 2902 cb3d 725f ca3d 53b6 08be 23a4 35bd
000002b0: 9544 22be 6215 82bd 9a05 d2bb 74c3 b03d
000002c0: eb53 d93d f61b c23d fe09 ec3d 9528 a9bd
000002d0: fb5e 7cbd 0b4e e4bd ccf0 8d3c b929 043d
000002e0: 2aa6 8c3d 9b2a 203d 8c8f e73c c19d 553d
000002f0: 87b5 bdbd f36c 263c 0037 833c 9ebf 8abd
00000300: 6d43 13be 61f6 59be 63fa 1d3c a71a 243e
00000310: bd5a 3b3d 96a7 413e 4210 f9bd bc0e d0bd
00000320: 67de a53c 0aad ecbc 4640 243e ebfb c83d
00000330: 7b30 963d e65d 2e3e 4745 d0bd fb55 a93d
00000340: 28bd 063e 4562 0ebc 6c52 dfbc 7c69 0bbe
00000350: 09e0 d5bd 8669 0fbd 7147 4fbd eab3 e53d
00000360: 1801 c73d 4103 483d 0af0 61bd d0a7 37bd
00000370: 7db8 a6bd aa1b d2bd 6b6c 043b f53f e13c
00000380: 230b 083e f392 18be 4fbd 8abd 9e00 d8bd
00000390: fcf4 3c3b 2d8a 2f3d 215a 9f3b 76a6 663d
000003a0: f3d5 d73d 0dfc f5bd 4f83 173e 980f 2c3e
000003b0: bd1a e3bc 55d7 cabb 127e 24be 6aca 67bc
000003c0: d52a 85bd aac2 acbd 8f70 f53d 1371 673e
000003d0: a24e 3a3e 5fff 133e 4f17 fb3c d9f3 fcbd
000003e0: 4ac7 afbc 0c5e 09be 45b7 35be 455d ce3c
000003f0: a62d acbd 706b 98bd 926c 3e3d 0faf 703d

conv3.bias f4 [32]
-0.065672815 -0.02528353 0.068447866 -0.015808389 0.022202246 0.00036423674 0.016765017 -0.02816429
0.003591982 0.06364262 -0.036013912 0.015630292 0.02687432 -0.026097847 0.027627936 0.03842257
0.025222376 0.061902504 -0.13600656 0.038236674 -0.04175403 -0.011030973 -0.06402394 -0.06841612
-0.029140648 -0.0220788 0.04506979 0.11145804 -0.015399044 -0.000827668 -0.0346259 0.0131904315
00000000: 787f 86bd 681f cfbc 652e 8c3d 9880 81bc
00000010: 7ce1 b53c 07f7 be39 ca56 893c ccb8 e6bc
00000020: 7567 6b3b 1057 823d 5383 13bd 190b 803c
00000030: 8927 dc3c 27cb d5bc fb53 e23c fc60 1d3d
00000040: 289f ce3c 7b8d 7d3d 4e45 0bbe 0f9e 1c3d
00000050: 4606 2bbd 41bb 34bc fc1e 83bd c01d 8cbd
00000060: 5eb8 eebc 99de b4bc 1a9b 383d 1d44 e43d
00000070: 464c 7cbc dcf7 58ba e3d3 0dbd ae1c 583c

fc1.weight f4 [128, 1152]
-0.040559575 0.0069618416 0.0339364 0.035917338 0.107280515 -0.13195679 -0.0033791857 0.1082158
0.0076689185 -0.16295339 -0.14164376 0.01425061 0.072257176 0.059113625 0.09335895 -0.08487162
0.03283836 0.16965191 -0.0002603408 0.09988977 -0.021578994 -0.08053884 -0.05216743 -0.050406028
-0.0049536196 -0.04290717 -0.054436743 0.070760354 0.085047476 0.014166021 0.13628535 -0.02534272
-0.026082963 0.07322303 0.25400788 0.08949055 -0.031900253 0.02942491 0.014449035 0.025614211
-0.022610266 0.05563118 0.00865559 0.028657911 -0.036542766 0.0066408156 0.048241373 0.062390506
0.04904319 0.00019904248 -0.015923785 0.03422804 0.03927372 -0.051749874 0.02356128 -0.020111712
-0.05453972 0.032098416 -0.015824247 -0.053325616 0.07064706 0.0062607103 0.03499723 0.06724771
-0.010829161 -0.04074723 -0.06699114 -0.014300949 0.039266862 0.06045783 -0.07902274 -0.034911454
-0.075980656 -0.027886363 0.010985866 0.010454319 0.13482307 -0.06043389 -0.017393023 0.02032502
0.007957371 0.11220916 0.017279278 -0.16011924 0.027075605 -0.003725672 0.080075175 -0.02331012
-0.044811882 0.026241302 -0.0764254 -0.030517504 0.07495215 -0.13786612 0.0017583404 0.10724709
-0.12190018 0.08018866 -0.05480564 -0.076557666 -0.0640362 -0.02365246 0.047220044 -0.02958717
-0.0031651598 -0.16595916 -0.0683624 0.00973621 -0.02848253 0.011248471 -0.022077397 -0.034377348
-0.0815424 -0.11699498 0.026597813 0.033859264 0.04829886 -0.057330474 0.07709672 -0.0087975
0.06444604 0.0260821 -0.05155174 -0.06700078 0.08026414 -0.009483566 0.06386797 0.01566498
0.008427396 0.02542369 0.03242253 0.035824206 0.007385617 -0.070599936 -0.0988389 -0.040245946
-0.032962132 -0.014159962 -0.03420438 -0.088801004 -0.061118983 0.04426841 0.121398546 -0.056271043
-0.12846258 -0.022339698 0.03624686 0.06306133 0.002404268 -0.06514954 -0.032577455 -0.114083074
-0.034410033 -0.21326828 -0.1087373 0.093570836 0.11745271 -0.01572422 0.021002602 0.050448477
0.21912843 0.08173855 0.09490601 -0.04767864 -0.104705356 -0.012057784 -0.0642466 -0.003219113
0.10857173 -0.07394016 0.10766793 0.12539753 0.10387535 0.039933704 -0.035861295 0.019764578
0.08582535 0.19095127 0.17522082 0.0855826 -0.0101665445 0.020785 0.056248117 -0.005998766
-0.051499475 -0.06280109 0.045380935 0.017234419 0.07001891 -0.044115245 0.010790987 0.05570927
0.072917975 0.048287667 0.012080581 -0.023330476 0.061074447 -0.025276918 0.059915226 -0.020861177
0.011447293 -0.019657347 -0.030107997 0.013306236 0.03230087 -0.04937156 -0.051561646 -0.06303609
-0.00023805266 0.0027547458 -0.009227123 -0.11472099 -0.057345405 0.011032302 0.12693615 0.022196926
-0.09179476 -0.053619605 0.052987814 0.028870096 0.068277 -0.0006793438 -0.008499443 0.06389839
-0.0104084825 0.057394393 0.11803818 -0.1044935 0.031863056 -0.005973603 0.10231409 0.046267215
0.062548645 -0.037327897 0.029844716 -0.054002345 0.1062405 -0.12341634 -0.013266153 0.043537475
-0.11813551 0.114014044 -0.20804694 -0.052999742 -0.028586349 -0.03808563 0.01261373 -0.0407193
-0.019936508 -0.14928395 -0.13423097 0.027992446 0.046108574 0.020687934 -0.036141995 0.016055685
00000000: cc21 26bd 2920 e43b e500 0b3d 0f1e 133d
00000010: e3b5 db3d ae1f 07be 5475 5dbb 3fa0 dd3d
00000020: 8d4b fb3b 41dd 26be 100b 11be 647b 693c
00000030: 92fb 933d 2121 723d fa32 bf3d 2cd1 adbd
00000040: 8481 063d 3bb9 2d3e 5a7e 88b9 0293 cc3d
00000050: 6ec6 b0bc 8cf1 a4bd 84ad 55bd 8d76 4ebd
00000060: f951 a2bb 6ebf 2fbd 10f9 5ebd ceea 903d
00000070: 5f2d ae3d 9918 683c 638e 0b3e 899b cfbc
00000080: f0ab d5bc f5f5 953d 520d 823e d246 b73d
00000090: d7a9 02bd 820c f13c a5bb 6c3c e5d4 d13c
000000a0: 2a39 b9bc 85dd 633d 2dd0 0d3c ffc3 ea3c
000000b0: dead 15bd 339b d93b bf98 453d 308d 7f3d
000000c0: 83e1 483d 0fb6 5039 9972 82bc b432 0c3d
000000d0: 7bdd 203d adf7 53bd 9603 c13c 51c1 a4bc
000000e0: 0b65 5fbd a179 033d daa1 81bc f66b 5abd
000000f0: 68af 903d a526 cd3b 4159 0f3d 2bb9 893d
00000100: cb6c 31bc 91e6 26bd a732 89bd 874e 6abc
00000110: 4ad6 203d a1a2 773d add6 a1bd 50ff 0ebd
00000120: bf9b 9bbd f171 e4bc 10fe 333c 9848 2b3c
00000130: 0f0f 0a3e 8789 77bd d07b 8ebc a880 a63c
00000140: a25f 023c ebcd e53d 468d 8d3c 4cf6 23be
00000150: a9cd dd3c 672a 74bb 74fe a33d ddf4 bebc
00000160: aa8c 37bd 00f8 d63c ec84 9cbd d8ff f9bc
00000170: 8380 993d c72c 0dbe 1d78 e63a 5da4 db3d
00000180: cda6 f9bd f439 a43d e17b 60bd 44ca 9cbd
00000190: 6925 83bd cec2 c1bc ce69 413d cb60 f2bc
000001a0: 926e 4fbb 33f1 29be 9601 8cbd a084 1f3c
000001b0: 3254 e9bc 824b 383c a8db b4bc 43cf 0cbd
000001c0: b4ff a6bd 109b efbd a8e3 d93c 03b0 0a3d
000001d0: 07d5 453d 5cd3 6abd e3e4 9d3d 6423 10bc
000001e0: 49fc 833d 21aa d53c eb27 53bd b437 89bd
000001f0: 8761 a43d f560 1bbc 36cd 823d d853 803c
00000200: 1013 0a3c 5845 d03c 7dcd 043d 67bc 123d
00000210: 0c03 f23b b396 90bd 0d6c cabd efd8 24bd
00000220: 4d03 07bd 2fff 67bc e419 0cbd 4ddd b5bd
00000230: e657 7abd cb52 353d cd9f f83d 777c 66bd
00000240: b28b 03be be01 b7bc 9677 143d 4c26 813d
00000250: ec90 1d3b 1f6d 85bd f06f 05bd 63a4 e9bd
00000260: 89f1 0cbd 0063 5abe a9b1 debd 11a2 bf3d
00000270: 0c8b f03d 14d0 80bc a60d ac3c 10a3 4e3d
00000280: 3463 603e 8a66 a73d 155e c23d ad4a 43bd
00000290: c36f d6bd 038e 45bc b993 83bd c1f7 52bb
000002a0: db5a de3d f06d 97bd 0181 dc3d 3668 003e
000002b0: 99bc d43d 8691 233d 4be3 12bd 53e9 a13c
000002c0: 33c5 af3d bb88 433e 166d 333e ee45 af3d
000002d0: 9491 26bc 4e45 aa3c 6d64 663d 4c91 c4bb
000002e0: 1df1 52bd dc9d 80bd 5ce1 393d 322f 8d3c
000002f0: 1366 8f3d 30b2 34bd aecc 303c 672f 643d
00000300: 0556 953d 4ac9 453d a1ed 453c 8e1f bfbc
00000310: 3329 7a3d 8a11 cfbc ab69 753d 0fe5 aabc
00000320: 6d8d 3b3c 7208 a1bc 0ca5 f6bc 6602 5a3c
00000330: eb4d 043d d539 4abd 4e32 53bd 1119 81bd
00000340: c69d 79b9 f788 343b 5c2d 17bc d7f2 eabd
00000350: 04e3 6abd d4c0 343c 8dfb 013e 54d6 b53c
00000360: e4fe bbbd 3ba0 5bbd c009 593d fb80 ec3c
00000370: d0d4 8b3d fe15 32ba 3f41 0bbc 29dd 823d
00000380: 5788 2abc 6216 6b3d 00be f13d b000 d6bd
00000390: d682 023d 37be c3bb 0d8a d13d b182 3d3d
000003a0: 8119 803d 23e5 18bd e87c f43c 9031 5dbd
000003b0: 9f94 d93d b5c1 fcbd 475a 59bc 5a54 323d
000003c0: 08f1 f1bd 3280 e93d 420a 55be 4216 59bd
000003d0: eb2d eabc adff 1bbd d1a9 4e3c 48c9 26bd
000003e0: e351 a3bc e4dd 18be d873 09be 6a50 e53c
000003f0: 58dc 3c3d be79 a93c a109 14bd 3687 833c

fc1.bias f4 [128]
0.014595561 -0.05116073 -0.01971963 0.025452755 -0.0054951087 -0.10434431 0.0060538705 -0.020162584
-0.032383297 0.043637916 0.041691158 -0.02278433 -0.10277071 -0.041515987 -0.07301621 -0.056234688
-0.0071111647 0.009030398 -0.053818237 0.05267482 -0.09808306 -0.008564626 -0.07845965 -0.007676196
0.020428972 -0.020047612 -0.0058217593 -0.09763669 -0.008635418 -0.04019685 -0.032918528 -0.058452837
-0.049977493 -0.017959256 -0.037181463 -0.02704413 -0.021684181 0.011756129 0.00082458556 0.004742835
-0.0027319768 0.0016653616 -0.06221594 0.058338173 -0.019917423 0.01731792 -0.0790998 0.048903666
-0.04043205 -0.022473218 -0.023776604 -0.0027508768 -0.04960847 -0.07326002 -0.08382531 0.0034409126
-0.0016715134 -0.02193878 -0.03201945 -0.0063234144 -0.04752913 -0.023600752 0.030743618 -0.050208043
0.014778121 -0.015329433 -0.04085165 -0.0045802747 -0.02558857 -0.040027205 0.0032230548 0.026411418
-0.085159846 0.014215545 -0.040354703 0.016327737 0.0069236094 -0.048198752 -0.04579736 -0.020010918
0.02042105 -0.01883264 0.029660903 0.0034876699 -0.03458483 -0.035802487 -0.029837202 -0.057089284
-0.07034582 -0.01743964 -0.005445337 -0.06287859 -0.01460637 0.005977673 -0.0050751283 -0.05429875
0.05969435 -0.059984323 0.008838616 -0.040364366 -0.013949483 -0.03141943 0.012226389 -0.03361211
-0.016715957 -0.057367347 -0.029231783 -0.036401574 -0.038778007 0.001913106 0.0042305104 -0.024865203
-0.017812153 -0.0401469 -0.062276226 -0.050217208 -0.09551691 0.00960766 0.07968001 -1.0142176e-05
-0.027974918 -0.02055692 -0.028578404 0.015434106 -0.0435526 -0.03890026 -0.023013845 -0.061393775
00000000: 3822 6f3c ea8d 51bd 108b a1bc 4c82 d03c
00000010: 5010 b4bb 78b2 d5bd 8c5f c63b 012c a5bc
00000020: 59a4 04bd acbd 323d 59c4 2a3d 34a6 babc
00000030: 7379 d2bd ab0c 2abd 8689 95bd 5856 66bd
00000040: c604 e9bb 3cf4 133c 8370 5cbd 8dc1 573d
00000050: c5df c8bd a552 0cbc 74af a0bd 9988 fbbb
00000060: a95a a73c e43a a4bc 75c4 bebb bff5 c7bd
00000070: 917b 0dbc 74a5 24bd 94d5 06bd 3e6c 6fbd
00000080: 33b5 4cbd 4a1f 93bc 974b 18bd a78b ddbc
00000090: 06a3 b1bc c79c 403c 0029 583a c969 9b3b
000000a0: f70a 33bb 4348 da3a 24d6 7ebd 02f4 6e3d
000000b0: dd29 a3bc 50de 8d3c 13ff a1bd 364f 483d
000000c0: 149c 25bd c119 b8bc 27c7 c2bc 0e48 34bb
000000d0: 4032 4bbd 5909 96bd 9bac abbd ef80 613b
000000e0: af16 dbba f5b8 b3bc d426 03bd a534 cfbb
000000f0: e8ad 42bd 5d56 c1bc 0ada fb3c f3a6 4dbd
00000100: ef1f 723c 4d28 7bbc 0f54 27bd 2116 96bb
00000110: 1f9f d1bc 91f3 23bd e339 533b c25c d83c
00000120: 4968 aebd 51e8 683c f94a 25bd bfc1 853c
00000130: 72df e23b 0e6c 45bd 0396 3bbd f0ed a3bc
00000140: 0c4a a73c e946 9abc 6cfb f23c 6491 643b
00000150: d3a8 0dbd a1a5 12bd 266d f4bc 74d6 69bd
00000160: 7811 90bd 93dd 8ebc cc6e b2bb 7dc6 80bd
00000170: 8e4f 6fbc 5be0 c33b 434d a6bb 5e68 5ebd
00000180: 1082 743d 1fb2 75bd d8cf 103c 1b55 25bd
00000190: 5f8c 64bc a9b1 00bd 3151 483c daac 09bd
000001a0: e7ef 88bc 06fa 6abd 7e77 efbc d119 15bd
000001b0: b0d5 1ebd 2fc1 fa3a 18a0 8a3b 1cb2 cbbc
000001c0: cbea 91bc 1371 24bd 5b15 7fbd 8fb0 4dbd
000001d0: 5f9e c3bd 7269 1d3c 462f a33d 5028 2ab7
000001e0: a82b e5bc fc66 a8bc 421d eabc 55df 7c3c
000001f0: 3664 32bd e155 1fbd 8887 bcbc 0a78 7bbd

fc2.weight f4 [5, 128]
-0.11914328 -0.087881446 -0.28553486 0.1283663 0.03265929 -0.21203408 0.081024654 -0.21176945
0.025560167 0.016501164 0.13547277 -0.32259455 -0.110308446 -0.24446268 -0.16623572 0.21146528
-0.116986156 0.005395365 -0.20888488 0.04930694 0.18048707 -0.23414584 -0.15782744 -0.28134593
0.096927196 -0.2096234 -0.16813314 0.12426376 -0.18235718 0.056970198 -0.04800241 -0.041834015
-0.24047244 0.009157508 -0.09283645 0.020987265 0.0832998 -0.08037221 0.11357005 0.0926978
-0.2735178 0.09957493 0.106095865 -0.28105 -0.3853285 -0.057946667 -0.19086225 0.12592667
-0.070186436 -0.26450685 0.042271707 -0.38159174 0.027877124 -0.18899694 -0.0588401 0.15648854
0.020407125 0.0575065 -0.41463953 -0.3144079 0.14857352 0.046022274 0.13035083 -0.20982793
0.023222469 -0.22278455 0.00403853 -0.22422417 -0.12871327 -0.11560877 -0.13242011 0.030734958
-0.14024279 -0.3064646 0.13450283 0.14277378 -0.0892902 -0.16346101 -0.24608424 -0.039654255
0.037582215 -0.06305017 0.1629779 0.063929856 0.20509906 -0.22162679 -0.18642889 -0.26568753
-0.09435054 -0.00209609 0.113870375 0.19406551 0.13374111 -0.028448924 0.022010075 0.12558997
0.11563728 -0.039927058 -0.056937464 -0.05149072 0.060783513 0.014120353 0.13584253 0.13174397
0.06866129 0.1449916 -0.1258109 -0.11939865 0.081436366 0.11662174 -0.017821085 0.09004015
-0.1558565 -0.34212825 -0.10024349 -0.27830005 -0.09446028 -0.25119564 0.10103935 -0.15280029
-0.15135917 -0.2016939 0.09805072 0.13283138 0.17915662 -0.048605483 0.07239474 -0.030496042
-0.13513096 -0.06655017 0.05959884 -0.19122463 -0.18159594 0.14808011 0.10937758 0.12342988
-0.24023314 -0.07003207 -0.29590076 0.09294483 0.14241661 0.08596646 0.030222582 0.111541994
-0.20446624 -0.16631234 0.063135654 0.112209246 -0.08232574 0.21949446 0.080761395 -0.09158411
0.048446838 0.11611477 -0.25363123 0.028585901 0.08199372 -0.26566085 -0.06361652 -0.18876861
-0.049175777 -0.033875115 0.10895755 0.07120884 0.1532419 -0.11210816 -0.28109282 0.10844165
-0.1382066 -0.34889227 0.043973707 0.0343533 0.04388702 0.13770391 0.01451124 0.09301079
-0.038745698 -0.025222387 -0.17596018 0.047497325 -0.08975015 0.17320444 0.14708082 -0.0157862
0.021516627 -0.10872731 0.008419043 -0.0037929919 0.09479417 -0.16439183 -0.15481913 0.16016285
0.06567886 -0.080717765 0.10093038 0.027113749 -0.015750831 0.13095856 0.034999847 0.07484122
-0.04102388 -0.17504306 -0.20582798 0.07629813 0.058073528 0.054401096 -0.106087394 0.16970162
-0.17877482 0.08633696 -0.12259879 -0.14026007 0.13596813 0.06715596 0.23072457 0.09515707
-0.095304415 -0.019323172 -0.1459814 -0.11753597 0.046616454 0.14487824 0.08390433 0.021652
-0.18394384 0.020683238 -0.06288688 0.0455511 -0.11632378 0.06008231 0.006631908 0.077140644
-0.214749 -0.016778711 0.015693972 -0.10688678 0.15485907 -0.22323017 -0.10054214 -0.047487456
0.03882837 0.044867035 -0.18682499 -0.0064999894 0.136061 0.04390885 -0.11249136 0.10449043
-0.20070781 -0.13467169 -0.1369347 -0.14499013 -0.070067555 0.038290337 -0.188751 0.03564355
00000000: 6401 f4bd 30fb b3bd a031 92be 7572 033e
00000010: bfc5 053d 761f 59be 41f0 a53d 17da 58be
00000020: 8e63 d13c 732d 873c 60b9 0a3e 1d2b a5be
00000030: 65e9 e1bd 6d54 7abe b239 2abe 5b8a 583e
00000040: 7096 efbd 9acb b03b ebe5 55be 13f6 493d
00000050: 9ad1 383e edc3 6fbe 849d 21be 930c 90be
00000060: c481 c63d 84a7 56be 182b 2cbe 007e fe3d
00000070: d7bb 3abe 9559 693d 2d9e 44bd 255a 2bbd
00000080: 683e 76be 5f09 163c 0921 bebd 7ced ab3c
00000090: 1699 aa3d 2f9a a4bd 6a97 e83d 58d8 bd3d
000000a0: 860a 8cbe f1ed cb3d ca48 d93d c9e5 8fbe
000000b0: c749 c5be 7c59 6dbd 6571 43be ecf2 003e
000000c0: e8bd 8fbd 716d 87be 1925 2d3d fe5f c3be
000000d0: 915e e43c 6a88 41be 5102 71bd 883e 203e
000000e0: d82c a73c f08b 6b3d a24b d4be 13fa a0be
000000f0: a823 183e da81 3c3d b07a 053e 22dd 56be
00000100: 0c3d be3c a221 64be a555 843b 059b 65be
00000110: 69cd 03be 4ac4 ecbd 2399 07be e1c7 fb3c
00000120: ce9b 0fbe eee8 9cbe 1cbb 093e 4a33 123e
00000130: c8dd b6bd 5362 27be 82fd 7bbe 806c 22bd
00000140: cfef 193d 7320 81bd aee3 263e a8ed 823d
00000150: 7d05 523e 22f2 62be 37e7 3ebe 3208 88be
00000160: db3a c1bd 8e5e 09bb df34 e93d 1cb9 463e
00000170: 6ef3 083e b80d e9bc 794e b43c a89a 003e
00000180: 3dd3 ec3d 8e8a 23bd 4237 69bd efe7 52bd
00000190: 22f8 783d 0e59 673c 4e1a 0b3e e4e7 063e
000001a0: 4a9e 8c3d ae78 143e 93d4 00be 4887 f4bd
000001b0: 1cc8 a63d 61d7 ee3d 86fd 91bc f866 b83d
000001c0: d998 1fbe 6f2b afbe 754c cdbd 587d 8ebe
000001d0: 6474 c1bd b79c 80be b8ed ce3d ae77 1cbe
000001e0: e6fd 1abe d988 4ebe d1ce c83d f304 083e
000001f0: d574 373e 8b16 47bd b243 943d d6d2 f9bc
00000200: c55f 0abe 754b 88bd ea1d 743d 64d0 43be
00000210: 49f4 39be 50a2 173e 5a01 e03d cec8 fc3d
00000220: adff 75be f96c 8fbd 4e80 97be dc59 be3d
00000230: a9d5 113e 2f0f b03d 5995 f73c 2170 e43d
00000240: 995f 51be c84d 2abe 444d 813d f6cd e53d
00000250: 669a a8bd 28c3 603e 3b66 a53d 7390 bbbd
00000260: 3170 463d 95cd ed3d f4db 81be fb2c ea3c
00000270: 53ec a73d b304 88be 6149 82bd 8f4c 41be
00000280: 8a6c 49bd a2c0 0abd 2325 df3d f1d5 913d
00000290: 72eb 1c3e f798 e5bd 66eb 8fbe a816 de3d
000002a0: 0886 0dbe 02a2 b2be c61d 343d 0cb6 0c3d
000002b0: e0c2 333d 4102 0d3e 8dc0 6d3c 717c be3d
000002c0: cfb3 1ebd 2e9f cebc e82e 34be 8e8c 423d
000002d0: edce b7bd 815c 313e 5b9c 163e 1052 81bc
000002e0: a343 b03c 6dac debd 07f0 093c d893 78bb
000002f0: 7223 c23d 5556 28be e888 1ebe bb01 243e
00000300: a382 863d 5b4f a5bd 96b4 ce3d a71d de3c
00000310: e307 81bc 001a 063e 005c 0f3d 5b46 993d
00000320: a808 28bd 7d3e 33be 92c4 52be 3242 9c3d
00000330: 82de 6d3d afd3 5e3d 5944 d9bd 43c6 2d3e
00000340: bf10 37be 6fd1 b03d 1315 fbbd 56a0 0fbe
00000350: 3b3b 0b3e 1089 893d 1043 6c3e b6e1 c23d
00000360: f62e c3bd a14b 9ebc 267c 15be b3b6 f0bd
00000370: e5f0 3e3d f65a 143e 09d6 ab3d 895f b13c
00000380: c65b 3cbe e56f a93c d6ca 80bd ca93 3a3d
00000390: 293b eebd de18 763d 7a50 d93b eafb 9d3d
000003a0: 29e7 5bbe 8273 89bc a590 803c 75e7 dabd
000003b0: 6093 1e3e 7396 64be 0ae9 cdbd 3582 42bd
000003c0: 7f0a 1f3d 7fc6 373d 0d4f 3fbe ddfd d4bb
000003d0: 9353 0b3e c4d9 333d df61 e6bd 14ff d53d
000003e0: 5986 4dbe 60e7 09be 9c38 0cbe 4b78 14be
000003f0: 947f 8fbd 54d6 1c3d f147 41be f9fe 113d

fc2.bias f4 [5]
-0.066552505 -0.06086084 -0.050905067 -0.015224974 0.094780676
00000000: ae4c 88bd 3749 79bd d581 50bd 2b72 79bc
00000010: 5f1c c23d
